deep_learning/models/GCNLinkPrediction32.pth (torch, 733490 bytes, 12 tensors)

bias f4 [200]
000000 2a ed 80 3d 5c 53 a5 3d 62 d9 49 bc f0 c3 ac 3b
       0.062952355 0.0807254 -0.0123198945 0.005272381
000010 8a 34 d7 bd 0c 70 4d bd 74 51 87 3b 00 44 43 bc
       -0.10508068 -0.050155684 0.004129583 -0.011918068
000020 a8 82 af bb f7 ae c4 3d 33 66 bb bd 76 09 6c bc
       -0.0053561516 0.096036844 -0.09150352 -0.014406553
000030 03 f8 06 be 33 91 ad bd 7e a4 ba 3c e2 e1 0a 3d
       -0.13180546 -0.0847496 0.022783514 0.033906825
000040 35 9f ba bd 24 ed d6 bb b4 e5 80 3c d4 64 49 bd
       -0.091123976 -0.006559031 0.015734531 -0.049168423
000050 0f 65 c7 bd db 55 d7 bd a1 ae b5 3c 56 62 b9 bd
       -0.09736072 -0.105144225 0.022177996 -0.09051959
000060 a0 ad 87 bc c7 1c fc 3c 4c 29 13 3c 68 7e 8c 3b
       -0.016562283 0.03077544 0.008982014 0.0042875297
000070 53 c8 fc bc 37 0f 0e 3d 58 4e 50 bc ba 31 8b 3c
       -0.03085724 0.03468248 -0.012713991 0.016991485
000080 f0 8a df 3d ce 05 57 3c f0 1b 52 bb 74 8d 8a 3c
       0.10915172 0.013123943 -0.003206011 0.016913153
000090 48 19 91 bd fb 55 a7 3d 84 ec dd bc 86 1c 92 3c
       -0.070849 0.08170696 -0.027090319 0.017835867
0000a0 72 9a dc bd 18 49 eb bc 40 52 57 bd 75 d9 f2 bd
       -0.107716456 -0.028721377 -0.052568674 -0.11857883
0000b0 e5 3b ed bd 39 37 9b 3d 45 9d e3 3c 16 3e 6e 3c
       -0.115836896 0.07578892 0.027784953 0.01454117
0000c0 30 ea b0 3b a0 0f 6a 3c 4a 6c 05 bd 40 9d 90 ba
       0.005399011 0.014285952 -0.032573976 -0.0011033192
0000d0 43 4f 97 3d 60 7d 0a 3a dd a6 5b bd 4f 52 e1 3d
       0.07388165 0.00052829646 -0.05362593 0.11002027
0000e0 e0 e6 23 3a 86 5e de 3c ec 70 33 bc 81 d1 eb bd
       0.00062523596 0.027144682 -0.010952216 -0.11514569
0000f0 00 94 8d 39 ad bb 0c 3e 74 97 cd 3b c0 d6 74 ba
       0.00027003884 0.13743468 0.006274158 -0.00093398616
000100 60 e4 1b 3a e9 32 d5 bc 13 17 0b 3d b8 76 ce bc
       0.0005946811 -0.026025252 0.033957552 -0.025203094
000110 50 61 1c 3b 1b 65 05 bd 19 f2 6e bd 98 63 06 bb
       0.0023861714 -0.032567125 -0.05833635 -0.002050614
000120 54 07 74 bc d8 fe 44 bb 5a f5 b6 bd d4 5c 5c bd
       -0.014894325 -0.0030059125 -0.08933516 -0.053799465
000130 68 f9 77 3c 70 eb 7e bb d3 fc 9b bc fe b3 31 bc
       0.015135147 -0.0038897656 -0.019041454 -0.010846136
000140 5c 70 c3 bd 00 9f de 39 d1 af e0 3d 77 46 01 3d
       -0.09542915 0.00042461604 0.10971034 0.03156134
000150 f4 17 6c 3d b4 20 c3 bd c0 72 43 bc b4 f8 72 bc
       0.05764003 -0.09527722 -0.011929214 -0.014829803
000160 e1 86 c5 bd 26 b2 b3 bd cd 7b ec 3c f4 cb 4b bc
       -0.09644867 -0.087742135 0.028867627 -0.012438763
000170 f2 90 1c 3d a1 8c a1 bc b2 e3 4c 3d 4f c5 c7 bc
       0.038224168 -0.019720377 0.050021835 -0.024386076
000180 e2 ba 58 bc b0 f5 18 bb 4c f7 e4 bc 12 de 55 3c
       -0.01322815 -0.00233398 -0.027949952 0.013053434
000190 e8 1a f9 bd 47 0a 09 bd 6e 64 62 3d 50 c1 34 3b
       -0.12163335 -0.033457067 0.05527156 0.0027581044
0001a0 32 8a 0b 3e ba bb 1c bc 80 c7 dd 39 c8 ba 2f 3d
       0.13626936 -0.009566242 0.00042301044 0.042902738
0001b0 16 e2 0c bc c0 34 e5 39 60 51 fa 3a fc 91 a5 3b
       -0.008598825 0.00043717586 0.0019097738 0.005052803
0001c0 e1 58 8e bd c7 9b dc bc 65 6a cf bd 68 b0 24 3b
       -0.06950546 -0.02692975 -0.10127715 0.002512956
0001d0 f0 e5 cf 3d fa 5f 9f bc 0c 61 11 3d 44 27 b8 3d
       0.10151279 -0.019454945 0.03549294 0.08991864
0001e0 f8 75 30 3b 04 b5 84 3b 0b 09 10 3d 2d c1 d8 3d
       0.0026925784 0.004049899 0.035164874 0.1058372
0001f0 aa ef ed 3d 50 cd 07 3d 00 b2 f5 3b 20 89 db 3c
       0.11617978 0.033154786 0.007498026 0.026798785
000200 68 b0 a6 bb 60 78 44 3c 74 65 f6 bb 18 b9 ef bd
       -0.005086947 0.01199159 -0.0075194184 -0.11705226
000210 4a 83 58 bc 33 04 da 3c 1d a4 e3 3d 54 99 3c bd
       -0.0132148955 0.02661333 0.111152865 -0.046044663
000220 88 14 b5 3d 4d 63 df 3c 08 a1 99 3a 50 3b e2 bc
       0.08841807 0.02726903 0.0011720965 -0.027616173
000230 05 ee 80 bd d2 af 83 3d bb 96 f2 3d 59 5d ac 3c
       -0.062953986 0.064300194 0.11845156 0.021040605
000240 e0 82 03 3d 48 ae 6a bb 53 c5 ce 3c 10 21 85 3a
       0.032107234 -0.0035809446 0.025240576 0.0010156948
000250 68 42 25 3c c9 38 9b 3c 94 be aa bd e4 0d 99 bc
       0.010086633 0.018947976 -0.08337131 -0.018683381
000260 50 ce d0 bb 08 b2 9c bb ce 1d 62 bd 92 65 a5 3d
       -0.0063722506 -0.004781965 -0.055204205 0.080760136
000270 91 e6 f9 bc 3f 5e e1 bc 98 be ef 3d f4 ad 26 3c
       -0.03050545 -0.02751076 0.11706275 0.01017331
000280 3d 34 a5 bd 46 15 0b 3d e7 dd 9b bd 76 6a ca bc
       -0.08066604 0.033955835 -0.07610684 -0.024708968
000290 70 d8 07 3b 2b 7c 79 3d 2e e8 28 bd f1 c5 ad 3c
       0.0020728372 0.06090943 -0.04123705 0.02121255
0002a0 18 86 cd bd ee e4 dd bd 9b a9 02 be 30 b4 04 3e
       -0.10035342 -0.108346805 -0.12760012 0.12959361
0002b0 7b 4a 96 3d c8 8a d3 3b 1c ab 16 3d 60 ef ae 3a
       0.07338425 0.006455753 0.036784276 0.0013346486
0002c0 21 18 b2 3d 0c 84 67 bd be c0 00 bc 8f 46 08 3e
       0.086960085 -0.056522414 -0.007858453 0.13308166
0002d0 b9 44 bc 3c 34 ee d1 bd 10 e7 92 bb fb 45 af 3c
       0.022981988 -0.10250512 -0.004483111 0.021395674
0002e0 f0 58 e4 3d a1 6a f5 bc 50 f5 e3 bd 0c 39 83 3b
       0.11149776 -0.029958071 -0.11130774 0.0040046033
0002f0 fb 03 cf bc 31 ed 96 bc 14 08 21 3d 52 bd e0 3c
       -0.025270453 -0.018423649 0.039314345 0.027434025
000300 ff f1 ba bc fc b9 ee bb 41 a9 b0 3c 62 a9 bb bd
       -0.02282047 -0.0072853547 0.021565082 -0.091631666
000310 9e 74 56 3c d6 98 11 3d f0 ea ec 3c 23 60 86 3c
       0.013089327 0.035546146 0.02892062 0.016403263

weight f4 [200, 18]
000000 07 b7 a4 3c d2 3d a0 3d ea dc af 3c 54 22 da 3b
       0.020106805 0.07824291 0.021467645 0.0066569243
000010 ce a2 5e 3d 89 9e a2 bd ab c3 52 3d b4 ec 2d 3d
       0.05435448 -0.079403944 0.051456135 0.042462066
000020 0e c1 5a 3d f2 d0 14 3d 5b c1 0d bc a5 4e 09 3c
       0.053406768 0.03633208 -0.008652057 0.008380567
000030 93 88 7b 3d 0b c9 cd 3c f7 10 c3 3c dc 82 dd bb
       0.061409544 0.025120279 0.0238118 -0.0067599844
000040 94 cb bf 3b f5 99 9d bd 3b 44 26 bd 00 be da 3a
       0.005853126 -0.076953806 -0.040592413 0.0016688704
000050 a9 8d 47 3d b0 54 72 bd 1d 60 98 bd 72 fe d0 3c
       0.048719082 -0.059162796 -0.07440207 0.025511954
000060 62 c4 25 bc a0 30 ac 3d 86 f5 4f bd e0 23 e1 bb
       -0.010117622 0.08407712 -0.05077126 -0.0068707317
000070 10 20 80 bd 37 25 45 3d 97 8e c7 bc b0 c7 14 3b
       -0.062561154 0.048131194 -0.024359984 0.002270203
000080 ac f2 8c bd d7 1a d6 3c 38 10 59 3b a4 bf 31 3b
       -0.068822235 0.026135845 0.003312124 0.0027122283
000090 a0 42 0f 3b 9a dd 9b 3d 4b e4 8c 3d 95 d9 c4 bc
       0.002185978 0.076106265 0.06879481 -0.024029532
0000a0 23 fe 04 3c 11 27 48 3d 65 43 de 3c 8c 4d b2 bc
       0.008117232 0.04886538 0.027131746 -0.021765493
0000b0 e6 03 d5 bc ad 63 89 bd 35 10 14 3c 16 d2 0f bc
       -0.026002835 -0.06708465 0.009037067 -0.008778116
0000c0 7d df a0 bd 50 0c ec ba 20 61 22 bb 12 5f 85 3d
       -0.07855127 -0.001800904 -0.002477713 0.06512274
0000d0 88 21 30 bc ba 4e 87 bc 06 86 a5 bc 0f 6d 88 3d
       -0.010750182 -0.016517032 -0.020205509 0.06661426
0000e0 58 02 61 3b 64 15 9d 3d a0 3f d1 bc 60 27 e0 bc
       0.0034333672 0.076700956 -0.025543034 -0.027362525
0000f0 9e aa 51 bd 0e 9e 74 3d 04 0b a0 bd a1 0f a2 3d
       -0.051188104 0.059721045 -0.07814601 0.07913137
000100 8a 5d b1 3b fd 4d 99 3d 3c e0 a2 bc f8 08 bd 3c
       0.005412762 0.07485578 -0.019882314 0.023075566
000110 48 bd b3 bc 8e 1b 36 bd 94 9d 7b 3d 07 66 cd bc
       -0.021940842 -0.044459872 0.061429575 -0.025073064
000120 b0 77 07 3d 85 bc 86 3d e5 2d c9 3c 6c dc bb 3b
       0.033073127 0.06578926 0.024558017 0.0057330634
000130 06 e0 20 3d be 61 0b bd 86 73 7a 3c 52 bd 95 bd
       0.039276145 -0.03402876 0.015286332 -0.073115006
000140 c4 0c 09 3d 6c 87 93 bd 56 48 cf bc 7f 72 91 bd
       0.03345944 -0.07203564 -0.025303047 -0.071019165
000150 a4 95 a3 bd b6 fb 7f 3d b5 89 99 bd 6e 21 b7 3c
       -0.07987526 0.06249591 -0.07496969 0.022354808
000160 68 f5 95 3d 39 ab 73 3d 41 de 72 3d a8 cf da bb
       0.07322198 0.059489463 0.05929399 -0.0066775866
000170 04 45 6c bd 86 ee c0 3c cc 10 4a bc 68 8a b2 bc
       -0.057683006 0.023551237 -0.012333106 -0.021794513
000180 5e ef ce bb 68 d6 9c 3d bc e2 97 3c 71 bb f9 bc
       -0.006315156 0.07658082 0.018540733 -0.030484887
000190 d0 f1 f5 3a 1c ab 0d bd 5f 3f 86 3d 06 f3 4e bc
       0.0018764082 -0.03458701 0.06555056 -0.0126311835
0001a0 e6 52 04 3c 68 1d 5d 3d d1 00 09 3d ea f9 35 bd
       0.008076405 0.053983122 0.033448044 -0.04442779
0001b0 c6 84 a2 bd 1a a6 8f 3d 2f b1 85 3d b4 87 52 3c
       -0.07935481 0.07014103 0.06527936 0.012849737
0001c0 a0 b2 91 bb bd 64 a0 bc 2a ba 43 3c 34 68 35 bc
       -0.0044463426 -0.019579286 0.01194624 -0.011072207
0001d0 38 01 9b 3d 24 50 32 bc 25 f5 83 bd 6f 78 a2 3d
       0.07568592 -0.010883365 -0.06443242 0.07933127
0001e0 59 fb 2c 3c be 9f 95 3d cf 72 bb bc bc 51 80 3d
       0.010557973 0.07305859 -0.022881893 0.062655896
0001f0 8e 13 14 3c d0 ef 03 3c d3 05 a0 3d 20 77 4c bd
       0.009037865 0.008052781 0.07813611 -0.049918294
000200 ab 69 a0 bd 62 c4 b1 3c f0 23 75 bd 68 26 22 3c
       -0.078326546 0.021700088 -0.059848726 0.009896852
000210 28 a3 55 bd e8 85 af bb 67 c9 d0 3c 02 fa 10 3d
       -0.05215755 -0.005356539 0.025486661 0.035394676
000220 77 4e 0e 3c d0 80 e0 bb 78 fc 99 bb 7a 6e 28 bd
       0.0086857 -0.006851293 -0.004699286 -0.041120984
000230 8e 3c 96 3d e4 1c 16 bd c6 94 86 bd a4 d0 a0 3b
       0.07335769 -0.036648646 -0.06571345 0.0049076844
000240 6a 5a 31 3d f2 65 6f bd 4e 7e 1b bd ba 6d 54 3c
       0.043299116 -0.058446832 -0.03796225 0.012965614
000250 97 1d a3 bc ac 24 10 bc 7a e8 ab 3b 4b 96 1f 3c
       -0.01991157 -0.008797806 0.005246219 0.0097404225
000260 40 1a 63 3d 63 19 93 3d 58 77 95 3b 2c be a3 3d
       0.055444956 0.071825765 0.004561346 0.07995257
000270 fe fe 50 3c 29 07 f5 bc 84 fd 9b bd f1 ce 28 3d
       0.012756107 -0.02991064 -0.07616714 0.04121298
000280 78 86 1e bd d2 23 5c bc 48 88 5f bb 52 4f cb bc
       -0.03870246 -0.013436275 -0.003410833 -0.024818096
000290 fc d6 ce bc 48 92 2d bc ef e2 93 3d 72 c4 86 bb
       -0.025248997 -0.010593958 0.072210185 -0.0041127736
0002a0 ea 70 75 bd 17 61 54 bd 92 9d 66 bd 24 b6 79 3d
       -0.059922136 -0.051850405 -0.056302615 0.06096472
0002b0 6b a4 84 3d 92 00 90 3d cb 4a 4e 3d 49 0a ad 3c
       0.06476673 0.07031359 0.050364297 0.021123068
0002c0 c4 f0 cf bb ac 4c 91 3c 02 08 9e bd 04 83 b9 3b
       -0.00634584 0.017736755 -0.07716371 0.00566137
0002d0 a9 35 5e 3d 90 97 7a bd c1 2e 85 bd 4c ca 6c 3c
       0.054250393 -0.061179698 -0.06503058 0.014452528
0002e0 ce c1 6f bd 9c 09 9a bd 71 2f 50 bd 18 c9 b8 3c
       -0.058534436 -0.07521364 -0.050826494 0.022556826
0002f0 46 30 94 3d 0f aa 9f bd c0 d1 cb 3c 72 ba 98 bd
       0.0723577 -0.07796108 0.02488029 -0.074574366
000300 a8 9c a2 3d 00 77 4a 3c a8 fc b4 bb 47 0e 90 3d
       0.07940036 0.012357473 -0.005523283 0.07033973
000310 17 f2 d2 3c a3 58 04 bc 65 e8 95 3d 64 08 03 bc
       0.025750203 -0.008077773 0.07319716 -0.007997606
000320 38 ce 1e bd f7 0e 94 bd 2a 86 3e 3d ea 47 71 bc
       -0.038770884 -0.07229417 0.046514668 -0.014726618
000330 00 39 71 ba 70 7f 32 3d 64 a2 a1 bd 58 5b 4e 3d
       -0.0009201914 0.043578565 -0.07892302 0.05038008
000340 9c 0c 85 3d 4c cb 43 bd ec e6 8b bd d5 24 cf 3c
       0.06496546 -0.0478013 -0.06831154 0.025286118
000350 d8 22 2f 3b 02 78 ef 3c 1c 46 e2 3b f4 6a 51 bb
       0.002672365 0.029232029 0.0069053303 -0.0031954618
000360 ba 43 64 3d 0b e2 96 3c 40 59 4b 3b f6 5f 60 bc
       0.05572865 0.018418333 0.003102854 -0.013694754
000370 d1 06 9d 3d 08 ac 0c 3d b3 37 a0 bd 11 22 9a bd
       0.07667316 0.03434375 -0.07823124 -0.07526029
000380 fe fd 38 3d e4 27 ce bd f4 34 8e bd d8 3f 62 bd
       0.0451641 -0.10066202 -0.06943694 -0.055236667
000390 ef b1 c2 bc 85 f5 08 bd a4 d7 ce 3c bc da 59 bc
       -0.023766486 -0.03343727 0.02524931 -0.013296779
0003a0 f4 0f 81 3d c8 8f 1e 3d 27 94 a3 bd d0 76 98 bb
       0.06301871 0.03871134 -0.07987242 -0.0046528354
0003b0 10 26 b9 ba 21 02 ce bc c8 3a 1c bb da e0 0e 3d
       -0.0014125723 -0.0251475 -0.0023838747 0.034882404
0003c0 60 4b 8d bc cf c2 87 bd 5e c7 e3 bc 44 5f 92 bd
       -0.017247856 -0.06628954 -0.027805027 -0.07147077
0003d0 3b 6a 22 bd c8 a7 8a bd 02 1c 95 bd 3b 64 9d 3d
       -0.03965209 -0.06770283 -0.07280733 0.07685133
0003e0 a8 69 a1 3d b0 fa 39 3c 4e 00 32 bc 5c 66 8b 3b
       0.078814805 0.011351272 -0.01086433 0.0042541455
0003f0 a4 f7 e8 3b 60 32 5b 3d 8c cd 04 bc ea f8 50 3d
       0.007109599 0.05351484 -0.008105647 0.051018633

bias f4 [200]
000000 d2 5a 10 3d e0 f3 3a bb 40 53 85 3c e3 d7 fe 3d
       0.035242863 -0.0028526708 0.016275048 0.12443521
000010 e2 24 00 be bd f1 ac 3d 51 c5 c5 3c 28 c0 24 3c
       -0.1251407 0.084445454 0.02414194 0.010055579
000020 58 58 fb 3b 4b 71 d9 bd e2 4e 06 3d f4 31 e0 3d
       0.0076704435 -0.10617312 0.032790072 0.10947028
000030 8f 67 01 be 20 4f ca 3c 68 2b 2d bc dc 92 1d 3d
       -0.1263716 0.024695933 -0.010569431 0.038470134
000040 f7 fc 44 3c 30 b8 ab 3b 70 dc de ba e0 f2 4a bb
       0.012023202 0.0052404627 -0.0017002951 -0.0030967519
000050 e7 23 50 3d c4 0b 61 3c a0 e3 0a bd 94 f6 11 3e
       0.05081549 0.013735715 -0.033908486 0.14254218
000060 77 c3 2c 3d 61 01 2c bc 00 42 f3 3c 8d 3d 02 be
       0.042178597 -0.010498376 0.029694557 -0.12718792
000070 1e ca 93 3c 79 b1 c2 3d 1b d5 1b bd 9c 82 e0 bb
       0.018040713 0.095065065 -0.03804503 -0.0068515074
000080 47 d3 cf 3d 8b a2 f2 bd ea 24 d1 3d e8 5f d7 3d
       0.1014772 -0.11847409 0.10212119 0.105163395
000090 28 aa ed bd 64 9a 25 bd 1a e7 91 3d 80 ac 2d 3a
       -0.1160472 -0.04043044 0.07124157 0.0006625131
0000a0 29 b2 fa 3d 68 46 13 be 5f 51 da 3c 91 e3 2b 3d
       0.122410126 -0.14382327 0.026650129 0.04196507
0000b0 bd f6 0b 3e 2a 54 71 bd 29 3d ea bc 06 58 db 3c
       0.13668342 -0.058918156 -0.028593617 0.026775371
0000c0 54 af 6f 3c 00 cb 7c 3b 5c 67 08 bd 78 63 6b 3d
       0.014629204 0.0038573146 -0.033301696 0.057467908
0000d0 78 64 d5 bd c7 20 e2 bd 04 b1 d0 bb e8 b2 b9 3b
       -0.104195535 -0.11041408 -0.006368758 0.0056670792
0000e0 38 a8 0e bb 0e f4 ef bb 94 8b 39 3d 49 ea bb 3d
       -0.0021767747 -0.0073227948 0.045299128 0.09175546
0000f0 e8 f3 d9 3c a8 cb f8 3b 30 e5 ce bd b2 c3 32 3d
       0.026605561 0.007592637 -0.10102308 0.04364366
000100 e4 f7 2f bc 6c f4 8b bd be 3e 9f 3c ee d0 28 bc
       -0.010740254 -0.06833729 0.019439097 -0.010303719
000110 26 a2 11 bd ab 17 b1 3d d0 93 d4 bd 52 ef f4 bd
       -0.035555027 0.086470924 -0.103797555 -0.11959709
000120 57 ae 05 3e 7e 57 31 bc 59 19 b7 3d cc c0 b7 bb
       0.13054787 -0.010824082 0.089403816 -0.0056077
000130 41 fa 20 3d 75 db 81 bd a1 00 83 3d 90 da c5 3a
       0.03930116 -0.06340686 0.06396604 0.0015095044
000140 58 89 c9 3c 28 61 0c 3e e7 37 07 3d 36 0e 46 bd
       0.024601623 0.13708937 0.033012297 -0.048353396
000150 90 6e 6b 3b 30 34 01 3d 1c b1 64 3c 59 79 e3 3d
       0.0035924055 0.03154391 0.013958242 0.111071296
000160 b8 08 de bb cc 33 e2 3d 2b 1a 02 be 34 e9 2f 3d
       -0.0067759417 0.11045036 -0.12705295 0.04294701
000170 29 6d 00 be 08 e7 9c 3b 58 9c 28 3d 60 8c b8 3a
       -0.12541641 0.0047882833 0.041164726 0.0014079921
000180 03 d9 e2 bd cb 1c 09 3d 80 9d ea 38 ed 73 08 3d
       -0.11076548 0.033474725 0.00011187326 0.03331368
000190 9e 2a ed 3c e0 e1 84 bb d6 ec 14 bd fe 07 be 3d
       0.028950986 -0.0040552467 -0.036358677 0.09278868
0001a0 eb 36 14 be 14 2b 02 3c 96 a6 46 3d 00 1d f5 3d
       -0.14474075 0.007944841 0.048498712 0.11968422
0001b0 57 9b d0 3c ee 2d e5 3b ac 83 d4 bc 90 89 c7 3b
       0.025464697 0.0069940006 -0.025941692 0.006089397
0001c0 38 82 00 3e b2 3a 58 3d e8 81 ed 3c c9 c8 a7 bd
       0.12549675 0.05279035 0.028992608 -0.081925936
0001d0 48 f1 9d bd 00 cb fb bb 56 44 ab 3b 9f b1 9e bd
       -0.07712036 -0.0076841116 0.005226652 -0.07748722
0001e0 a0 12 6b 3c c0 5a ff bc 5c 9b 5d 3d 9c ab ce bd
       0.014347702 -0.031171203 0.05410324 -0.10091326
0001f0 80 c4 b3 39 05 e2 c4 bd 5b 26 bf 3d f3 6d a3 bc
       0.00034287944 -0.09613422 0.093334876 -0.019949889
000200 cb a5 0c be 10 c6 ee bd 90 12 84 ba 6e a6 09 bd
       -0.1373512 -0.11658871 -0.0010076333 -0.033605985
000210 4f 18 98 3c 00 eb 05 3b 23 1e df 3d ee a2 03 be
       0.018566279 0.002043426 0.1089442 -0.12855121
000220 13 62 c3 3c 04 63 e3 bc b4 57 04 3d 9a d1 76 bc
       0.023850476 -0.027757175 0.032310203 -0.015064621
000230 23 7e af bd 68 bb 15 3b ee b3 e5 3d d0 a8 62 3b
       -0.085689805 0.0022847299 0.112159595 0.0034585483
000240 f3 ab 81 bc 46 20 7e 3d d1 88 a9 bc 6f 29 76 bc
       -0.015829062 0.062042497 -0.020695122 -0.015024527
000250 9b ef fe bd 1c 02 36 3c f0 65 20 be 61 9e b9 bc
       -0.12448045 0.011108901 -0.15663886 -0.022658529
000260 00 d1 69 bb c8 86 b5 bd 00 ae 5c 39 c0 e4 cf 3b
       -0.0035677552 -0.08863598 0.00021045655 0.006344408
000270 17 50 14 bc f5 f1 32 bd 98 c2 ca 3b 64 f3 83 3b
       -0.009052298 -0.04368778 0.006187748 0.004026817
000280 3a 49 8c 3c 30 a8 cd 3b ea e3 9d 3c 40 58 19 3a
       0.01712476 0.006276153 0.019273717 0.0005849637
000290 12 a5 3d bd bd 35 05 3e c8 c7 d8 3d ff c5 05 be
       -0.0463 0.13008781 0.1058498 -0.13063811
0002a0 78 2b dd bd 2c 79 fd bd d8 39 a6 bb 00 54 96 37
       -0.10799307 -0.12376627 -0.0050728135 1.7920509e-05
0002b0 e0 8b d5 ba da bb 00 3e 86 f5 ef 3c 1d 38 d3 3d
       -0.0016292296 0.1257166 0.02929188 0.10313437
0002c0 ee e5 2e bd 8a 3a a2 3c e4 59 e7 3b 10 66 c4 ba
       -0.042699747 0.019803304 0.0070602763 -0.001498403
0002d0 a8 13 f7 3d f0 6d 8a bb 3e 01 91 bd 70 57 73 3c
       0.12064296 -0.0042245314 -0.07080315 0.01485239
0002e0 2b d8 86 bd fc 0c bb bb 2a 64 9c 3c 0e 8b 01 be
       -0.065841995 -0.005708335 0.01909073 -0.12650701
0002f0 eb a8 0c be f6 03 c8 3c 20 56 b6 3c 04 58 ae 3c
       -0.13736312 0.024415951 0.022257864 0.021282203
000300 08 9c 06 3b 44 03 1a 3c a0 8b d3 bb b3 b1 c6 3d
       0.002053978 0.009400193 -0.0064558536 0.09701862
000310 c0 ad 2b 3b 0b aa a5 3d 27 47 04 be 7d b7 d5 bb
       0.0026196092 0.08089074 -0.12917767 -0.0065221176

weight f4 [200, 200]
000000 1c 58 84 3c 2e 2e 7f bc 35 83 55 bd 86 02 61 bc
       0.016155295 -0.015574975 -0.052127082 -0.013733512
000010 78 a4 be 3b f4 41 96 bc c0 51 c4 39 ac a7 4b 3d
       0.005817946 -0.018341996 0.00037444942 0.04972045
000020 ce b4 37 bd bc 6f 34 bd 87 aa 5f 3d 04 dd 38 bd
       -0.044850163 -0.04405187 0.054605987 -0.045132652
000030 25 02 fc 3c 89 d0 67 3d 54 d6 c6 3c 74 d7 90 3c
       0.030762741 0.05659536 0.024272121 0.017680861
000040 23 8c 87 bc 7e 63 50 3c 81 70 70 3d a8 b1 7c bc
       -0.016546315 0.012719033 0.058701042 -0.015423216
000050 7d c7 3b bd 0c 66 c4 bb b0 17 bf ba 48 49 76 bc
       -0.045844544 -0.0059936102 -0.0014579203 -0.01503212
000060 82 aa c6 3c 2d 18 c4 bc 16 11 15 3d d7 1b f8 bc
       0.024251226 -0.02393731 0.036393248 -0.030286713
000070 1e ed d0 bc ca bb 72 bc bc 4b 12 3b c6 04 62 3c
       -0.025503691 -0.01481528 0.0022322973 0.013795083
000080 c0 1d 5d bd 6e 2d cf 3c d8 79 d1 3c e8 0a 67 3b
       -0.05398345 0.025290217 0.025570795 0.0035254303
000090 37 e9 c9 3c b6 ba de bb e8 f5 d6 bb 9e 91 54 3d
       0.024647338 -0.00679716 -0.006560076 0.051896684
0000a0 7f 5d 11 3d 16 14 24 3c 8e a0 ce 3c 26 59 ce bc
       0.035489555 0.0100145545 0.025223043 -0.025188994
0000b0 02 ee a4 bc 16 32 68 3d b8 76 ec ba 7c 5b 69 3d
       -0.020133022 0.05668839 -0.0018040752 0.056972012
0000c0 f2 c0 0c 3c a4 7b 6f 3d a0 a7 a6 bc a1 6b 66 bd
       0.008590924 0.058467522 -0.020343602 -0.056254987
0000d0 69 16 8f bc 5c 65 41 bd 44 31 48 bd 8e 61 07 3d
       -0.01746674 -0.047215804 -0.04887511 0.03305202
0000e0 04 3e f2 bb eb d6 9c 3c 86 80 17 3d 8a 3f 3b bc
       -0.0073926467 0.01914545 0.036987804 -0.011428723
0000f0 22 67 18 bd ab 94 7a 3d d0 77 28 3b 72 f9 09 bd
       -0.03720773 0.061176937 0.002570618 -0.033685155
000100 94 b1 c2 bb e5 82 1b 3d 9e 21 b1 bb c0 86 d1 3a
       -0.005941579 0.037966628 -0.005405619 0.0015985593
000110 cc 17 52 bd f8 44 14 3c e6 64 4a 3c 8d 91 07 3d
       -0.051292226 0.009049647 0.012353158 0.033097792
000120 d4 11 8b bb b3 1b 66 3d d9 19 31 bc 0c d0 67 bc
       -0.0042440686 0.05617876 -0.010809385 -0.014148723
000130 a0 39 92 ba b4 ac 6a 3c 46 64 27 bd 33 7c cb 3c
       -0.001115609 0.014323402 -0.040867113 0.024839496
000140 07 91 44 3d 20 75 a8 3a 1e 6f 3e bd 12 b8 41 bd
       0.04798987 0.0012852289 -0.04649269 -0.047294684
000150 82 24 b5 bb 9e 9f be bc a3 40 17 3c a6 2c 55 bc
       -0.0055280337 -0.02326947 0.009231719 -0.013011133
000160 4d a9 bd 3c a6 c9 2f bc ab cb ac bc a0 02 e1 3b
       0.023152018 -0.010729229 -0.02109321 0.006866768
000170 74 79 d2 bb d9 13 80 3c 42 08 64 3d a2 34 a7 bc
       -0.0064231697 0.015634464 0.055671938 -0.02041084
000180 e8 69 9c 3c 2f c1 23 bd c0 24 bd 3b d1 9d 84 3c
       0.019093469 -0.039979156 0.005772203 0.016188534
000190 b2 8e 71 bd b4 9c 8b bc bc 34 d9 3c d4 9d 69 3b
       -0.058973975 -0.017042495 0.026514404 0.0035647051
0001a0 2c e2 e2 bc 1a e0 80 bc 85 e7 aa bc 26 29 b7 bc
       -0.027695738 -0.01573186 -0.02086235 -0.022358488
0001b0 80 7e 6f 39 00 36 ea 39 be e9 b0 bb 80 4e 7c bb
       0.00022839941 0.0004467219 -0.005398958 -0.0038498938
0001c0 98 e8 96 bb b7 5f 5e 3d 7d 2c b5 3c 58 53 10 bc
       -0.004605364 0.0542905 0.02211594 -0.008808933
0001d0 f2 0d 39 bd c4 41 69 bd 49 2e 85 bc 6b 9a 40 3d
       -0.045179315 -0.056947485 -0.016257422 0.047022264
0001e0 dc f7 a2 3c 1e b3 46 bc b1 26 07 3c e0 d9 bc 39
       0.01989358 -0.012127666 0.008248971 0.00036020484
0001f0 c8 fa 5b 3c a8 7f e9 bb 28 e6 c1 bc 2c e1 6c 3d
       0.01342649 -0.0071258135 -0.023669317 0.057831928
000200 69 e8 11 3c 32 ac 70 3d 26 50 0a bd 02 a0 a9 bb
       0.008905509 0.05875797 -0.03376784 -0.005176545
000210 91 9e 0c bd b1 eb 54 bd c8 2c 54 3c 73 14 c9 bc
       -0.03433091 -0.051982585 0.01295013 -0.024545884
000220 d0 85 c0 bb bf e6 a6 3c 00 a8 81 38 96 e3 06 3d
       -0.0058753267 0.0203737 6.182492e-05 0.032931887
000230 c8 0a 86 3c d4 6f 4b 3c df 75 ac bc 02 e0 b2 bc
       0.016362563 0.012416799 -0.021052299 -0.02183533
000240 44 5d 92 3b af d3 ba 3c 18 0a cf bc 56 45 13 3c
       0.0044666845 0.022806017 -0.025273368 0.008988699
000250 68 f2 da 3a 82 c3 bf 3c 10 eb c0 ba 8e 22 cd 3c
       0.0016704323 0.023408655 -0.0014718492 0.025040891
000260 a0 e6 64 3d 80 26 e5 b8 80 94 57 3b 1e 4a aa bc
       0.055884004 -0.00010926742 0.003289491 -0.020787295
000270 da 23 15 3c 94 a2 4f bc 20 ab 76 bc 88 6b 33 bb
       0.009102786 -0.012673039 -0.015055448 -0.0027377326
000280 ec f1 66 3c d8 01 73 3b e2 bf ca bc 00 e0 af 3a
       0.014095765 0.0037079956 -0.0247497 0.0013418198
000290 ff 7a 2e 3d 2c cd 90 bc 3c 8d 98 bc d6 71 f0 3b
       0.042597767 -0.017675959 -0.018622033 0.007337789
0002a0 88 ac 5a 3c 60 92 35 3b 3a ff 3a bd 68 a7 c8 ba
       0.013346799 0.0027705655 -0.04565356 -0.001530868
0002b0 dc db 0b bc f8 61 b9 bb c3 65 ae 3c cb 20 bd bc
       -0.008536305 -0.0056574307 0.021288758 -0.023086926
0002c0 b4 1f 04 3d 0e 66 ce 3c fd fc 71 bd 74 f0 42 bb
       0.032256797 0.025195148 -0.05907916 -0.0029745372
0002d0 4f f2 68 bd f3 35 c5 bc 74 af 2c 3d 55 f8 08 bc
       -0.05687171 -0.024073577 0.042159513 -0.008359988
0002e0 20 39 6b ba d8 66 19 3b e0 32 d2 bc 59 a5 6e 3d
       -0.0008973051 0.0023407247 -0.025659025 0.058263157
0002f0 70 31 fa 3a f6 01 6e 3d 70 a2 b8 3a 47 5d bf 3c
       0.001908822 0.05810734 0.0014086496 0.023359908
000300 30 27 15 bc 5d 44 04 bd 40 d9 a4 3b 4d 89 a4 bc
       -0.009103581 -0.03229176 0.005030781 -0.020085001
000310 7c 02 18 3c c8 ac b0 bb 6c eb cd bc 22 8e 06 bc
       0.009277936 -0.005391691 -0.025136672 -0.008212598
000320 30 46 a4 bb 94 b9 9b 3c 40 0b 01 bc 28 b0 ad 3a
       -0.00501325 0.019009389 -0.007876217 0.0013251351
000330 50 3b 06 bc ac 39 3f 3d c9 aa 8b bc c6 bf d1 3b
       -0.008192852 0.04668586 -0.01704921 0.006401035
000340 1a be 6c 3c 8a 64 48 3d 3a a7 5f 3d e3 52 b7 bc
       0.014449621 0.048924007 0.05460284 -0.02237839
000350 ce 40 c4 bc 2f 7d 72 3d 42 5b bc 3b 1c 1f 2b bd
       -0.023956683 0.059201416 0.0057481835 -0.041777715
000360 46 3d c8 bb f2 fa dc bb 4a c6 69 3d d4 65 cf 3c
       -0.00611082 -0.006743782 0.05707387 0.02531711
000370 d2 5f 58 bd 68 66 f0 bc 90 e0 8d bb a0 90 68 bc
       -0.052825756 -0.029345706 -0.0043297485 -0.014194638
000380 1e 21 06 bd 44 af 29 bb f0 51 b5 ba 54 77 56 bb
       -0.032746427 -0.002589182 -0.0013833623 -0.0032724934
000390 65 7a b4 3c 8e 42 ee 3b 4b b8 86 bc c8 ea 18 bc
       0.022031019 0.0072711175 -0.0164453 -0.00933332
0003a0 3d 36 34 bd 10 d7 42 bb fc 5c 4e bd 8c 1c 36 bb
       -0.04399704 -0.0029730238 -0.050381646 -0.0027788011
0003b0 d8 c2 70 bb 44 91 83 bb 14 87 ff bb 21 bc 72 3d
       -0.003673723 -0.0040151197 -0.007798085 0.059261445
0003c0 7e fe b0 3c cc 1e 68 bd 2e 02 19 3c cc 9b 13 3d
       0.021605726 -0.056669995 0.009338899 0.03603725
0003d0 92 74 44 bc e0 e5 cb 3a 5c ae 88 3b 36 c9 05 bd
       -0.011990683 0.0015556179 0.004171176 -0.032662593
0003e0 d5 e8 ce 3c ae 31 c7 3c 08 d8 ac bb 90 02 32 bd
       0.025257507 0.024315681 -0.0052747764 -0.043459475
0003f0 7c f1 14 3c d6 3c 1b bd 60 04 58 3c 6c e0 d2 bc
       0.0090907775 -0.037899815 0.013184637 -0.025741778

bias f4 [200]
000000 b2 6b bf bc db 7e 0b bd 80 03 8e b9 f6 b8 27 3d
       -0.023366783 -0.034056526 -0.00027086958 0.040947877
000010 5f da 16 3e 8c 22 bb bb 48 e8 1d bd 78 98 15 be
       0.1473174 -0.0057109054 -0.0385516 -0.14608943
000020 d0 91 91 bd 59 da 92 3c e0 9a fe 3b b1 c0 e5 3d
       -0.0710789 0.017926382 0.0077699274 0.112183936
000030 00 a4 da 37 f8 5f b2 3d c5 4e 8a 3c 5c 2f cb 3b
       2.6063994e-05 0.08709711 0.016883263 0.006200714
000040 ed 12 d8 3d 04 64 09 3c fc 4f 1a bc 12 16 43 bd
       0.10550485 0.008385662 -0.009418484 -0.04762847
000050 60 4b 6c bb 15 37 f9 3c 50 47 b5 3d 6a d4 de bd
       -0.003605567 0.030421773 0.088514924 -0.108803585
000060 e9 9f 26 3e cd e5 bc bd 00 01 57 bb 80 20 a9 ba
       0.16271938 -0.092235185 -0.0032806993 -0.0012903363
000070 95 0a 06 3e 6a ee 02 be fc cb 7d 3c f9 d1 03 be
       0.13089974 -0.1278626 0.015490528 -0.12873067
000080 44 99 da 3c 05 a3 24 3d 26 73 5f 3d a9 b1 39 3c
       0.02668441 0.04019453 0.054553173 0.011333861
000090 c0 b0 8c ba 40 e6 49 3d 50 d2 35 bb 2a 8b bc 3c
       -0.0010733828 0.04929185 -0.0027743764 0.023015577
0000a0 a1 7b bb bd 56 4c ce bd f1 79 b3 3d d0 97 9a 3d
       -0.0915444 -0.10073154 0.08763493 0.07548487
0000b0 b3 78 85 bd 0e 17 5e 3c ed c7 17 be 90 d3 f9 ba
       -0.06517162 0.013555301 -0.1482236 -0.0019060243
0000c0 bc 0e d5 3d 4a 94 8e bc 8b 9c 7d bd e9 79 00 3e
       0.10403201 -0.017404694 -0.06191687 0.12546505
0000d0 58 f3 b8 bb ac 8c e6 bd 44 8d 46 3c 0c cc 10 3e
       -0.005644243 -0.112573 0.012118641 0.14140338
0000e0 da 8e b1 3c 92 60 93 bc 50 9d 9e 3c d2 94 28 3d
       0.021674562 -0.017990384 0.019362122 0.04115755
0000f0 ea 3c 01 bb 28 84 88 bc 1d d7 11 3d 1f b0 6f 3d
       -0.0019720146 -0.01666458 0.03560554 0.05851757
000100 91 fc 01 3d ca 9d dd 3d 02 e7 3c 3d b0 30 a8 3b
       0.031735007 0.108211115 0.046118744 0.005132757
000110 78 9b 1c bb 44 62 0f be ef ec 45 bd 7c 94 01 be
       -0.0023896378 -0.14002329 -0.04832166 -0.12654299
000120 fd 80 d1 3d 47 11 1f be 4f 8c d0 bc be 35 08 3c
       0.10229681 -0.15533935 -0.02545753 0.008313594
000130 d9 a6 0d 3e 20 f5 13 be 89 1c 07 3e 36 40 d3 3d
       0.13833179 -0.14448977 0.13194479 0.10314982
000140 ef 40 65 3d 13 6e 1b be 50 93 d4 bc f8 7e 89 bb
       0.05597013 -0.15178709 -0.02594915 -0.004196044
000150 c0 21 61 3a 33 57 24 3e 3c a3 37 3c 64 91 33 3d
       0.0008588098 0.16048889 0.011208352 0.043839827
000160 e9 7a be 3d 5d 77 e8 3d a4 20 10 3c fd 5e 76 3d
       0.09300787 0.11350892 0.008796845 0.06014918
000170 c6 76 08 3d 7b d2 ae 3c 68 a7 de bb c6 3c 06 3e
       0.033316396 0.0213406 -0.0067948587 0.1310912
000180 12 8a d7 3b 51 9d 94 3d 70 81 b1 3b c6 e7 af bd
       0.0065777386 0.07256568 0.0054170415 -0.08589129
000190 ae 56 1c 3e 36 5f 4f 3c 5a 96 cc 3d 49 32 a1 3c
       0.1526744 0.012656977 0.09989615 0.019677298
0001a0 18 2b 7e 3c 61 d1 2c bc 97 89 b8 bc 5a ba f8 3d
       0.015513204 -0.010547967 -0.022526545 0.12144919
0001b0 9a 51 68 3d 28 ca 17 be a0 5d 78 bd 60 ff b0 bc
       0.056718446 -0.1482321 -0.060636163 -0.021606147
0001c0 71 00 3b bd 2f 5a fb 3d ff a9 f2 3d 36 41 57 bc
       -0.045654718 0.122730605 0.118488304 -0.013138106
0001d0 da ca 0c be c3 4f 2e bc c4 3f 48 3d c7 54 c4 3c
       -0.13749257 -0.010639134 0.048888937 0.023966206
0001e0 14 71 19 3e 41 23 17 3d bb 53 a8 bc 9b 75 12 3e
       0.14984542 0.036898855 -0.020547738 0.14302675
0001f0 cb 7e da bd fd 9a d7 bd e8 90 47 bc 9e a0 0b bd
       -0.10668715 -0.105276085 -0.012180544 -0.034088723
000200 fe 67 40 bd 8e 87 80 3d f1 56 86 bc e3 02 0b be
       -0.046974175 0.06275855 -0.016398879 -0.1357532
000210 d4 20 fa 3b b1 da 08 be ca 71 05 3d 25 b4 e5 3d
       0.007633308 -0.13364674 0.03257922 0.112160005
000220 b1 6b fa 3d 14 c7 20 be c2 94 c3 bd 81 cb 72 3d
       0.12227572 -0.15700942 -0.09549858 0.059276108
000230 33 e5 06 be 78 93 5c 3c f3 af 19 be 06 a4 2b 3c
       -0.1317337 0.013462894 -0.15008526 0.010476118
000240 e8 2e 59 3b 00 46 6f ba 0a 6d f5 bc fd 6d e7 bd
       0.003313953 -0.0009127557 -0.02995922 -0.113002755
000250 36 09 81 bd 78 48 01 3e ac c0 ca 3d 24 e6 99 bd
       -0.06300585 0.12625301 0.099000305 -0.07514599
000260 a9 2e e8 3d 18 87 81 3d df 4d f9 bd 1e c9 06 be
       0.11337025 0.06324595 -0.12173056 -0.13162658
000270 6b 3b ca 3c 23 43 10 3e 51 55 1f bc 2b f9 d9 bd
       0.024686536 0.1408811 -0.009724931 -0.10643228
000280 63 95 fd 3d 87 07 13 be 18 70 e1 3c 3c f4 e0 bb
       0.12382009 -0.1435834 0.02751927 -0.0068650525
000290 26 4d f1 3d 10 2e 12 3b ec 6f f9 3d f4 44 ae bc
       0.11782293 0.0022305287 0.121795505 -0.021273114
0002a0 dc fe ef bd c8 b9 73 bb 4d 73 a5 3c e7 89 0e be
       -0.117185324 -0.0037189592 0.020196581 -0.13919793
0002b0 bb 13 0c 3d 25 81 2c 3d 7d a6 08 be ce 08 f8 3d
       0.034198504 0.04211535 -0.1334476 0.12111054
0002c0 86 63 39 bd ce 8a f4 bb 9c 62 64 3b 52 a7 c7 3b
       -0.04526093 -0.007462836 0.0034848815 0.006092944
0002d0 80 51 d4 3c 44 a4 5a 3d 48 55 02 be ea 37 07 be
       0.025917768 0.053379312 -0.12727845 -0.13204923
0002e0 85 0a de 3c 1e 99 06 bc b8 86 a2 bc 0a 6e 0a be
       0.027104625 -0.008215217 -0.01983963 -0.13518539
0002f0 12 8e 19 be 99 62 ff bd ea c3 de 3c 17 ed a6 3d
       -0.14995602 -0.12469978 0.027193028 0.0815069
000300 16 4d ab 3c 59 49 82 3d f1 38 fc bc 10 0d 69 3b
       0.02091078 0.06361646 -0.03078887 0.0035560764
000310 e9 35 0e 3d a0 e2 4a 3a ba b6 b2 3c 24 ca 1e be
       0.03471938 0.0007739458 0.021815646 -0.15506798

weight f4 [200, 200]
000000 24 0e 94 3b 7b 7d b0 bc 44 d7 01 3c 82 c0 05 3d
       0.0045182873 -0.021544209 0.0079248585 0.032654293
000010 c4 71 cb bc ab 98 6b 3c 6d 00 6f bd 93 41 6f bd
       -0.024834521 0.014379661 -0.058350015 -0.058412146
000020 0f 7d 1c 3d 5c be 77 bd ca b2 9a 3c 0c a9 8f bc
       0.038205203 -0.060484275 0.018884081 -0.017536663
000030 2e fa 5d bc db dd a2 bc ae 41 ae 3c 36 76 c6 bc
       -0.013548417 -0.01988118 0.021271553 -0.02422629
000040 ec d2 c9 3b c8 03 37 3b 9c 31 1e bc 40 a9 9f ba
       0.006159177 0.0027925838 -0.0096553825 -0.0012181178
000050 4b 94 9b 3c bb a1 bc bc ce a8 6f bc 1d a2 6a 3d
       0.01899161 -0.023026338 -0.0146276485 0.05728351
000060 35 22 d2 3c c0 20 dd ba d0 37 c2 ba 1b f6 aa bc
       0.025651077 -0.0016870722 -0.0014817659 -0.020869305
000070 60 0a 79 bb 72 1d 61 bd d8 be 31 3c 12 09 08 bc
       -0.0038000569 -0.054959722 0.010848723 -0.008302944
000080 00 bf fa b8 a0 36 f9 ba c8 f1 e7 bb 04 aa a3 3b
       -0.000119565055 -0.0019013472 -0.007078383 0.0049946327
000090 9b a3 c8 bc 3c 37 8b bc cc 48 cb bc af dc 4c bd
       -0.024492076 -0.016994111 -0.024814986 -0.050015148
0000a0 a7 40 c1 3c 5a f3 83 3b a0 77 23 ba b0 95 d1 bb
       0.023590399 0.0040268125 -0.0006235782 -0.006396018
0000b0 68 bc b0 bc 8a 14 03 3d ec 8d a1 3b a8 18 56 3b
       -0.021574214 0.03200201 0.0049302485 0.0032668505
0000c0 04 ec 70 3c 0c 6f 6d bc bf fb 98 bc ae ba 96 3b
       0.014704708 -0.014491808 -0.01867473 0.0045998907
0000d0 91 3d c2 bc 94 18 d0 3c 52 93 96 3c 4c d3 9a bb
       -0.023710998 0.025402345 0.018380795 -0.0047248956
0000e0 63 73 b7 bc dc 7a 35 bd 0c ad ae 3b 09 69 9b 3c
       -0.022393888 -0.04430662 0.0053306874 0.018970983
0000f0 f0 94 26 3d 6a 44 1e 3c bd 44 27 bd 2e 0c 69 3c
       0.04066938 0.009659866 -0.04083704 0.014224095
000100 5a b4 d0 3b f0 18 ba 3c a4 33 1f 3d 20 72 d4 bb
       0.006369156 0.02271697 0.038867608 -0.0064833313
000110 f3 26 e3 3c 12 e5 37 bd d8 af 0f bd 18 62 2d bc
       0.027728533 -0.044896193 -0.035079807 -0.010582469
000120 82 98 bb bc 10 b2 24 3a 96 60 f9 3c e8 51 ce bc
       -0.02289987 0.0006282637 0.030441564 -0.02518554
000130 50 f4 81 bb f0 99 52 ba 3a 26 14 bd 76 9f 3c bc
       -0.003965892 -0.0008033803 -0.03616927 -0.011512628
000140 b0 4f 55 3b 1c e9 8e bc 55 52 5e bd fc 03 26 3d
       0.0032548718 -0.01744514 -0.054277737 0.040531144
000150 2e 34 7f bc 88 3b 97 bb 30 5f 99 bb 7d bf 9e bc
       -0.015576405 -0.004615251 -0.0046805367 -0.019378418
000160 f8 ab 21 bb eb 99 a3 bc d3 38 48 3d 61 f2 c8 bc
       -0.0024669152 -0.019970855 0.048882317 -0.024529638
000170 af 7c a8 bc b2 7b 0d bc f0 99 9a 3b 00 b6 92 39
       -0.020567266 -0.008635448 0.004718058 0.0002798289
000180 9c ab 1d 3c 76 2a ed bc ba 84 59 3d 74 67 76 bb
       0.009623434 -0.028950911 0.053105094 -0.0037598284
000190 f5 fc 31 bd b7 98 10 bc 92 c9 06 bc b0 ba 72 3b
       -0.04345413 -0.008825473 -0.008226769 0.0037037544
0001a0 03 2c f1 bc 68 cd 8c bb 0c 2d 83 bb 5e 69 07 3c
       -0.029439932 -0.0042969473 -0.0040031727 0.008264868
0001b0 18 1e 8b 3c 71 de 2b bd d0 83 a4 3a f4 12 a6 bc
       0.016982123 -0.041960184 0.001255149 -0.02027271
0001c0 08 88 0b bc b0 c6 a0 3c 48 78 b4 3c 27 07 d4 3c
       -0.008516319 0.019625992 0.02203001 0.025882317
0001d0 28 08 8a bb 30 18 0e bc 49 2c cd bc 80 76 a7 39
       -0.004212398 -0.008672759 -0.02504553 0.00031941012
0001e0 80 22 14 bc e4 b5 9a 3b 96 23 c6 3c 8a 02 bb 3c
       -0.009041429 0.00472139 0.02418689 0.02282836
0001f0 9e b9 96 bc 4c c8 ab bb 70 d5 ff 3a 73 2b c1 3c
       -0.018399056 -0.005242383 0.0019518565 0.023580289
000200 ee 4f 4f 3d db 76 50 3d 7d 27 d8 3c 8b 31 80 bc
       0.050613336 0.0508946 0.026386017 -0.015648624
000210 da ae be 3c c7 63 0c 3c 2a bb 11 bc e2 f8 ba 3c
       0.023276735 0.008568711 -0.008894721 0.022823755
000220 90 2e 17 3d e0 da bc bc 49 c4 6c 3d d0 45 7a bc
       0.03690964 -0.023053586 0.05780438 -0.015275434
000230 67 51 d0 bc cc 8a b0 bb 1c fb e9 bc da e3 c4 3c
       -0.02542944 -0.0053876396 -0.028562121 0.02403443
000240 62 f7 33 bc 4d 1b 83 bc 54 c2 89 bc a6 19 21 bd
       -0.010984274 -0.016004229 -0.016816296 -0.0393311
000250 b4 e2 82 bc 99 66 43 3d a8 01 25 bc 60 fc 65 ba
       -0.015977241 0.047705267 -0.010071196 -0.00087732635
000260 75 a7 72 3c 1e f9 c5 3c 98 a3 40 3d 20 35 4e bb
       0.014810433 0.02416664 0.047031015 -0.003146477
000270 ba d4 57 bd 0e 78 4e 3d 20 1e 54 bd 5c d0 60 bb
       -0.052693106 0.05040746 -0.051786542 -0.003430388
000280 d8 d2 a0 3c ea d6 cb 3b 2a 40 33 3c db d8 a8 bc
       0.019631788 0.006220688 0.010940591 -0.020611217
000290 90 18 b0 bb de 2e 93 3c 3a f6 c8 3c 27 bc df bc
       -0.005374022 0.017966684 0.024531472 -0.027311398
0002a0 a0 30 db 3a 0e 66 ce bc b0 b8 b0 3b cc b8 bc bb
       0.0016722865 -0.025195148 0.00539311 -0.005759334
0002b0 d6 19 4d bd f4 8b b6 bc 48 82 26 bb 02 14 cc 3c
       -0.050073467 -0.022283532 -0.0025407244 0.024911884
0002c0 f2 20 43 bd 80 98 a1 ba d0 ea 19 bd 90 ac 65 3c
       -0.04763884 -0.0012328774 -0.03757745 0.014018193
0002d0 83 28 c2 bc 60 04 53 ba 2c f9 5c 3b e6 fe af bb
       -0.023700958 -0.0008049663 0.0033717854 -0.0053709624
0002e0 4e 9c 52 bd 38 bf 0d bc 16 fd 4a 3d 6d ae 73 bd
       -0.051418595 -0.008651547 0.049557768 -0.059492517
0002f0 88 1b 11 3b 56 db 24 3d 6a e4 ac 3c 12 ad 4c bd
       0.0022141654 0.040248238 0.02110501 -0.04996974
000300 b0 83 c9 bc 03 85 bc bc 1b 0c 13 3c e4 71 b8 bb
       -0.024598926 -0.023012644 0.008975054 -0.005628811
000310 4e 0e 12 bc 95 92 c4 bc 72 81 73 3c f8 5a cc bb
       -0.008914543 -0.023995677 0.014862405 -0.0062364303
000320 e6 21 65 bd c4 bf e2 3b d3 20 96 bc 5b 58 6c 3c
       -0.05594053 0.006919833 -0.018326199 0.014425362
000330 ce b4 64 3c 00 23 a9 bb b8 ae 05 3d f7 84 9f 3c
       0.013959123 -0.005161643 0.032637328 0.019472582
000340 ce 95 5f bc 73 eb 83 bc 3b f1 12 3c 9a 65 31 3c
       -0.013646556 -0.016103482 0.008968647 0.010827446
000350 0a 68 4b bd cf 0d 13 bd 54 93 f8 bb 28 2f a4 3b
       -0.049659766 -0.03590184 -0.0075859223 0.0050105043
000360 67 98 b4 bc 50 50 c5 3a 88 f1 c3 bc c0 bf 53 3d
       -0.022045327 0.0015053842 -0.023918882 0.05169654
000370 ba 85 6e 3d f4 4a e5 3b 9e 2e d2 bb 22 fc b3 3c
       0.058233 0.0069974605 -0.0064142486 0.021970812
000380 18 df 5a bd 18 52 40 3d 30 05 5f 3d d0 37 c1 3c
       -0.053435415 0.04695329 0.054448307 0.023586184
000390 b4 fc f3 3b 11 0c 0d bd 75 da a8 bc e6 34 40 3d
       0.007445896 -0.034435336 -0.02061198 0.046925448
0003a0 57 d9 ce bc 9c 1b d8 bb 72 d4 13 3c 12 bb 4c 3d
       -0.02525012 -0.006595088 0.009022819 0.04998309
0003b0 52 72 b9 bc f0 5a 9f bc b1 59 c3 3c 40 8c d9 3b
       -0.02263752 -0.019452542 0.02384648 0.0066390336
0003c0 62 74 d7 bc 32 51 63 bc 16 71 c1 bc 5a ba 8f bc
       -0.026300613 -0.013874339 -0.023613494 -0.017544914
0003d0 74 24 df bc 4e 3f 6b 3c 0c af e0 bb 32 5b a0 bb
       -0.027239062 0.014358355 -0.0068568047 -0.004893684
0003e0 34 a5 48 bd 54 7d 0f 3d 60 b2 65 3a a0 e7 3f bd
       -0.048985675 0.03503163 0.00087622367 -0.046851754
0003f0 81 fc 61 3d 11 18 f4 3c 15 7f 68 3d 12 fd 70 3c
       0.055172447 0.029796632 0.05676182 0.014708774

bias f4 [200]
000000 04 57 d7 bd a7 7d 0b be 95 e3 96 bc 5a 6d 75 3c
       -0.10514644 -0.13622151 -0.018419066 0.014979685
000010 78 8b 28 3d f1 a0 8d 3d cc 4a 17 be e9 f3 1a be
       0.041148633 0.06915463 -0.14774626 -0.15132107
000020 90 cc e0 3d 3f f0 27 bc ed 25 f6 3c e2 0b fb 3d
       0.10976517 -0.01025015 0.030047381 0.12258126
000030 8e 80 0a be df c9 ef bc 88 01 14 3e 4b bb d3 3d
       -0.13525602 -0.029271064 0.14453709 0.10338458
000040 3b 50 21 be bb c8 2b bd f5 cf 1b 3e a5 d1 aa bd
       -0.15753262 -0.04193948 0.15216048 -0.08340768
000050 46 87 0d be 6d 2e e9 3d 50 c4 f3 3b bc 2d 69 bd
       -0.13821134 0.11385808 0.0074391738 -0.05692838
000060 9a e4 83 3d 62 23 46 3c aa 93 57 3c 69 f8 04 3e
       0.06440087 0.012093397 0.013157764 0.12985386
000070 71 b2 1e bd 98 aa 15 bb 09 76 fc 3c 2f ec 1a be
       -0.038744394 -0.0022837278 0.030818002 -0.1512916
000080 b0 60 20 be 65 cb e4 bd 16 de ed 3d f2 97 8d 3b
       -0.15661883 -0.11171607 0.11614625 0.004321092
000090 ad 5c 17 3e f2 34 99 bc a8 77 2a be 79 ec b1 bc
       0.14781447 -0.018702004 -0.16647208 -0.021719204
0000a0 bd aa 1c be 02 50 a7 bc 9a 90 e5 bd 14 65 e8 bd
       -0.15299506 -0.020423893 -0.11209221 -0.11347404
0000b0 ba 9c e9 bc 0f fd b9 bc 8e 2a f8 3c 34 e6 17 3e
       -0.028517116 -0.022703676 0.03029373 0.1483391
0000c0 21 bc b2 bc c8 80 10 be f9 3c b2 3d 56 03 d5 3c
       -0.021818222 -0.14111626 0.08703036 0.026002567
0000d0 bd 2a ba bd b2 79 7c 3d 0b a9 1a be 35 1e 1f 3d
       -0.09090183 0.061639495 -0.15103547 0.038847167
0000e0 a3 3f 29 3e 8f 30 d4 bc 2e a0 f2 bc 68 d8 03 be
       0.16528182 -0.02590206 -0.029617395 -0.12875521
0000f0 42 c1 11 3e c9 e6 19 3e e6 39 08 3e ac 29 78 bd
       0.14233878 0.15029444 0.13303337 -0.060586616
000100 46 91 14 bd 8d e1 dc bd ee 0a b0 bb 08 62 10 be
       -0.036271356 -0.10785208 -0.0053723967 -0.14099896
000110 cd 72 fb 3c f7 3d 2b 3d d4 75 95 3c a5 84 9d bd
       0.03069439 0.04180714 0.018244661 -0.076913156
000120 0e 66 0f bc 6e 4e 16 be 63 68 0e be 3b 7c ce 3c
       -0.008752359 -0.14678356 -0.13907008 0.025205722
000130 9d 82 08 bd a0 60 1f be c7 2a 3b 3d e8 ec 6b bd
       -0.033327688 -0.15564203 0.045695093 -0.05759898
000140 43 ab 17 bd f2 77 c3 bc 1e f5 32 3d c0 f3 fe bc
       -0.037028562 -0.023860905 0.043690793 -0.031122088
000150 5c 3b f7 3d 75 5a ea bc bc a7 1a be f4 4e 19 be
       0.12071869 -0.028607586 -0.15103048 -0.14971524
000160 6a b7 ec 3c 2e d9 14 be 77 10 6a 3d 44 05 6b 3b
       0.028896052 -0.14535972 0.05714461 0.0035861293
000170 be 47 00 3d a5 6c 1d bd 40 de 87 b9 77 e5 04 be
       0.03131842 -0.03843369 -0.00025914796 -0.12978159
000180 4f c2 bf 3d 0d f1 cc bd 22 bc 1c be 17 96 01 bd
       0.09363233 -0.10006914 -0.15306142 -0.031637277
000190 3e d1 22 be bd ae b2 bc 64 08 0b bd cc 37 1c 3c
       -0.15900132 -0.021811837 -0.03394355 0.009534787
0001a0 63 e1 34 3d 5e 5c a0 bd da 81 c0 bc c6 ce 19 3d
       0.044160258 -0.07830118 -0.023499418 0.03755071
0001b0 65 31 22 be b6 6b de bc df d9 e8 3b f2 0c 21 be
       -0.15839155 -0.02715097 0.0071060504 -0.15727594
0001c0 41 a3 e4 bd 34 a3 22 3e 4f 53 d1 bc 32 1b cd 3d
       -0.11163951 0.1588257 -0.02555242 0.10014953
0001d0 f8 c5 66 3b cd 16 c6 3b 70 e2 24 bb 27 5d 56 bd
       0.0035213213 0.0060451985 -0.0025159381 -0.05233493
0001e0 20 2d 72 bc c0 6c 35 3a ec bd 8c 3c 77 33 d0 3c
       -0.014781266 0.0006920807 0.017180406 0.025415165
0001f0 ad 0f cd 3d 62 6d 17 3e d2 be db 3c f2 c9 16 3e
       0.100127555 0.1478782 0.026824389 0.14725474
000200 26 43 c2 bd 42 dd 51 bc 0f fe 53 3d b0 13 5b bb
       -0.09485464 -0.0128091 0.05175596 -0.0033428483
000210 98 b5 c5 3d b8 ac 1c 3e 3a 58 1c 3e c3 ce 21 3e
       0.09653777 0.15300262 0.15268031 0.1580153
000220 b2 ed 17 be 9e e2 f3 3c b0 df 9e 3c 83 a4 8e 3d
       -0.14836767 0.029771145 0.019393772 0.06964972
000230 ff 13 11 be 6d 38 04 be 4c 3d 7c bd 42 e4 21 be
       -0.14167784 -0.1291215 -0.061581895 -0.1580973
000240 e7 f9 20 be c0 f6 20 be c6 63 57 3d 46 0f 3c bd
       -0.1572033 -0.15719128 0.052585386 -0.045913003
000250 bc a5 05 be 70 e9 1a be 34 4b bf 3c f5 db 86 3c
       -0.13051504 -0.15128112 0.02335129 0.016462306
000260 74 a7 66 3c b3 99 a6 3d 08 80 1f be ca db cc 3d
       0.01407801 0.081347845 -0.15576184 0.10002859
000270 04 6f 26 bc 50 8a 13 bd e5 38 10 be 02 3f fa bc
       -0.010158304 -0.036020577 -0.14084204 -0.030547623
000280 19 d6 e2 bd 60 6f 00 3e 91 21 12 3e a6 24 d9 3d
       -0.11075992 0.12542486 0.14270617 0.10602693
000290 32 40 86 bc 3a ad 1b 3e c7 f0 bc 3d 5a 25 bf bd
       -0.016388033 0.152028 0.09225612 -0.09333296
0002a0 10 40 52 3b fd 94 13 3e 1d ce d8 bd bb 7d 10 be
       0.0032081641 0.14412303 -0.10586188 -0.14110462
0002b0 fb 39 94 3d 04 da c9 3c 0a b4 51 bc 2f 71 59 bd
       0.072376214 0.02464009 -0.012799272 -0.053086456
0002c0 d9 71 0d 3e 69 05 20 be cb f2 1e 3e f6 79 fd 3c
       0.1381296 -0.15627064 0.15522306 0.030941945
0002d0 f4 77 1b 3e 50 19 7b 3d 44 f1 c2 bb 90 0b 1a 3e
       0.15182477 0.061303437 -0.0059491713 0.15043473
0002e0 1b 53 c7 3d d8 0b ca 3b c8 47 b5 ba d0 fc 1f 3a
       0.09732648 0.0061659627 -0.0013830597 0.00061030407
0002f0 8e 3a 11 be 93 77 89 bd 98 49 30 bd 91 f4 08 be
       -0.14182493 -0.0671226 -0.043038934 -0.13374545
000300 60 7f 1e bc 57 5b 0c be 2a 7e 13 3c 41 a7 1a be
       -0.009673923 -0.13706718 0.009002248 -0.15102865
000310 cc fd e7 bd e8 80 4d bd c0 65 1c bd a0 51 c0 3b
       -0.11327705 -0.050171763 -0.038182974 0.0058691055
