deep_learning/models/GCNLinkPrediction19.pth (torch, 225088 bytes, 6 tensors)

bias f4 [200]
0	0xbc950dc1	-0.018195035
1	0x3ca5894b	0.020207068
2	0x3d10c9b3	0.035348605
3	0x3d54060c	0.05176358
4	0xbd0a7c9b	-0.03381024
5	0x3ceade09	0.028670328
6	0x3d50a80e	0.05094152
7	0xbbaeb652	-0.005331793
8	0x3c0498be	0.008093057
9	0x3cc935cb	0.024561783
10	0x3cff9744	0.031200059
11	0xbc78c34f	-0.015183284
12	0xbc2d1ff8	-0.010566704
13	0x3c57f52c	0.013181012
14	0x3d04c7f9	0.03241727
15	0x3cbee952	0.023304615
16	0x3cb2b8a1	0.021816554
17	0xbcc2a114	-0.023758449
18	0x3c8be732	0.017078016
19	0xbd39f586	-0.045400165
20	0x3d117d66	0.03551998
21	0xbcbc8439	-0.023012267
22	0xbd5500b6	-0.05200263
23	0xbcc5fff0	-0.024169892
24	0xbd33bf5a	-0.04388366
25	0xbbd47deb	-0.006484737
26	0xbca53346	-0.02016605
27	0x3ccaee0c	0.024771713
28	0xbc510ac4	-0.012758914
29	0xbc130dd6	-0.008975467
30	0x3bf4372a	0.007452865
31	0x3d4efade	0.050532214
32	0xbd06f38e	-0.032947116
33	0x3cfc00b3	0.030762052
34	0xbada3c26	-0.0016650006
35	0xbca77948	-0.020443574
36	0x3cd625e8	0.026141122
37	0xbc787a38	-0.015165858
38	0x3d2ca0e4	0.042145625
39	0x3c8d7c02	0.017271046
40	0xbca91b62	-0.02064294
41	0xbc76cc0e	-0.015063299
42	0x3cb1649b	0.021654418
43	0xbb956629	-0.0045592976
44	0xbb9a4162	-0.0047075013
45	0xbce121dd	-0.027481968
46	0x3d8419a6	0.064502046
47	0x3c1d2241	0.009590686
48	0x3c3737c4	0.011182729
49	0xbca3693b	-0.019947639
50	0xbd26eb81	-0.040751938
51	0x3d0d2004	0.03445436
52	0x3cc362f4	0.023850895
53	0xbc79a582	-0.015237214
54	0xbc5a42ca	-0.013321588
55	0xbc684cee	-0.014178498
56	0x3cc0973c	0.023509614
57	0x3d232975	0.03983446
58	0x3ac2a6e0	0.0014850758
59	0x3c9074ac	0.017633758
60	0xbc8ae024	-0.016952582
61	0x39f88db9	0.00047407838
62	0xbd04f294	-0.032457903
63	0x3c794685	0.015214567
64	0x3cd97a64	0.026547618
65	0xbd1f8897	-0.03894862
66	0xbce5ad9b	-0.028036883
67	0x3d743263	0.059618365
68	0x3c859b46	0.016309392
69	0xba54961b	-0.00081095257
70	0xbca37998	-0.019955441
71	0xbb47c16c	-0.0030480279
72	0xbcbd84f5	-0.023134688
73	0x3d80885f	0.06276011
74	0x3bae3c36	0.0053172363
75	0x3ca55a0f	0.020184545
76	0xbcb36dfa	-0.021903027
77	0xbcbd1858	-0.023082897
78	0xbba22322	-0.004948036
79	0xbcceff72	-0.02526829
80	0x3ce1b0c3	0.027550107
81	0x3d074dd3	0.033033203
82	0xbc1e308c	-0.009655129
83	0xbc1dc2aa	-0.009628931
84	0x3d5ac60a	0.05341152
85	0xbc73c102	-0.01487756
86	0x3bf63074	0.0075131003
87	0x3bfc6c40	0.007703334
88	0xbd0bfddd	-0.03417765
89	0xbc9f0709	-0.019412534
90	0xbc8087af	-0.015689699
91	0x3bcea023	0.006305711
92	0xbc36f9db	-0.011167969
93	0xbb90a765	-0.0044144862
94	0xbcdb1a76	-0.026746016
95	0x3d6b0700	0.057379723
96	0x3d6f092b	0.058358353
97	0xbcf8d6f6	-0.030375939
98	0x3d026b88	0.03184083
99	0xbc9c2e75	-0.019065121
100	0xbb48d329	-0.003064344
101	0xbcb8ed1d	-0.022574002
102	0x3d1928ba	0.037392356
103	0xbc4a10ba	-0.0123330895
104	0x3bd71757	0.0065640616
105	0xbce5f9ea	-0.02807327
106	0x3c7eda80	0.015555024
107	0x38e2ee00	0.00010820851
108	0xbbec649b	-0.0072141415
109	0xbcaccc10	-0.021093398
110	0xbcee6a6a	-0.029103477
111	0x3c342d77	0.010997168
112	0x3cd30ce4	0.025762983
113	0x3c4152e4	0.011799548
114	0xbce3dc22	-0.027814928
115	0xba358088	-0.00069237547
116	0x3d816879	0.06318755
117	0xbc6bbca6	-0.014388239
118	0xbcf45251	-0.029824408
119	0x3d348fc5	0.04408242
120	0xbd49087f	-0.049080368
121	0xbb7dd12b	-0.003872941
122	0xbc2bb083	-0.010479095
123	0x3d3c7dbf	0.04601836
124	0x3d4f7303	0.050646793
125	0x3cce0d69	0.025152879
126	0x3ca69642	0.02033532
127	0xbd141ec1	-0.03616214
128	0xbcd3ebd9	-0.025869297
129	0xbc0c1196	-0.008549115
130	0xbd0ba40e	-0.034092
131	0xbca85d15	-0.020552197
132	0x3d19dccf	0.037564095
133	0xbc1f2536	-0.009713462
134	0xbcf009d3	-0.02930156
135	0xbca28f68	-0.019843772
136	0xbace3fca	-0.0015735563
137	0x3c90873a	0.017642606
138	0xbc37e048	-0.011222906
139	0xbd37b421	-0.04484952
140	0x3cab5a57	0.0209171
141	0x3d6a5c94	0.057217196
142	0x3b4e84a7	0.0031512172
143	0xbc833e0e	-0.0160208
144	0xbcb589ae	-0.022160377
145	0xbd43566a	-0.047689833
146	0x3d1cd525	0.038289208
147	0xbb216e2c	-0.0024632318
148	0xbc5e6d84	-0.013575915
149	0x3d05ef22	0.032698758
150	0xbcbabce0	-0.02279514
151	0xbae24aa0	-0.0017264672
152	0xbbae770c	-0.00532425
153	0xbc98a984	-0.018635519
154	0x3c9892d2	0.018624697
155	0x3d199fcb	0.037505906
156	0x3cf79d1e	0.030226287
157	0x3c275d83	0.010215166
158	0xbcbbf775	-0.022945145
159	0xbd1288d5	-0.035775024
160	0xbcc7fe56	-0.024413269
161	0x3d0d163d	0.034445036
162	0xbca0133f	-0.019540427
163	0xbcb8f637	-0.022578342
164	0xbcf29b1e	-0.029614981
165	0x3c238d91	0.0099824825
166	0x3c936ea1	0.017997088
167	0x3c499f97	0.012306116
168	0xbc2028aa	-0.00977532
169	0xbca112e0	-0.01966232
170	0xbaa1c9c8	-0.0012343461
171	0x3d05fdec	0.032712862
172	0x3c33d2a2	0.010975512
173	0x3d440e7d	0.04786538
174	0x3c12a218	0.008949779
175	0xbd459675	-0.04823919
176	0xbd24c940	-0.04023099
177	0x3d6c80ff	0.057740208
178	0xbcb93d5f	-0.022612272
179	0x3c858938	0.016300783
180	0xbcfdcc1f	-0.030981122
181	0x3d3dd5ba	0.046346404
182	0x3d2ec91e	0.04267227
183	0xbbce7798	-0.006300878
184	0x3ca4186c	0.020031177
185	0x3b93b986	0.0045082
186	0xbd0f3103	-0.03495885
187	0x3baa64db	0.005200011
188	0xbc2f6a7c	-0.01070654
189	0x3d4f4cf7	0.05061051
190	0xbc9730cd	-0.018455887
191	0x3ad52f6c	0.0016264743
192	0xbcddb546	-0.027063977
193	0x3d1054c9	0.035237107
194	0xbd0e1ca8	-0.034695297
195	0xbca919cc	-0.020642184
196	0xbc0fd00f	-0.008777632
197	0x3ab7a714	0.0014011585
198	0xbc25551e	-0.010091094
199	0x37ee1dc0	2.8385664e-05

weight f4 [200, 18]
0	0x3c1f7bb0	0.009734079
1	0x3d9bd39f	0.07608723
2	0xbda61d1e	-0.081110224
3	0x3d227b2f	0.03966826
4	0x3da1ec9c	0.07906458
5	0x3d075b8d	0.033046294
6	0xbc82667b	-0.015918007
7	0x3bb89753	0.0056332736
8	0x3d440253	0.04785378
9	0x3ddcad54	0.10775247
10	0x3d389718	0.04506597
11	0xbd4ec8f1	-0.0504846
12	0x3d8c1b7a	0.06841178
13	0xbd65b80e	-0.05608373
14	0xbc950e0b	-0.018195173
15	0x3c46e92d	0.012140554
16	0xbbb5d00e	-0.0055484837
17	0xbd3f8bb8	-0.046764106
18	0x3d4a6184	0.049409404
19	0xbc741f3c	-0.014900025
20	0x3d90cb4c	0.07070026
21	0xbd314471	-0.04327816
22	0x3db2bb0a	0.08727081
23	0xbc0609fc	-0.008181091
24	0xbd033a93	-0.032038283
25	0x3db7f3bb	0.08982035
26	0xbc999a00	-0.01875019
27	0xbd41f82d	-0.04735582
28	0xbcb823ca	-0.022478003
29	0xb93ce7d0	-0.00018015434
30	0xbd0f24bf	-0.034947153
31	0xbdc2d330	-0.09512937
32	0xbc255448	-0.010090895
33	0x3ceaf2e4	0.028680272
34	0x3c8117fa	0.015758503
35	0x3d8b60e4	0.0680559
36	0xbd412292	-0.04715211
37	0xbc9e617e	-0.019333597
38	0xbc775702	-0.015096428
39	0x3d954a1a	0.072895244
40	0x3bedaa92	0.0072529996
41	0xbd158455	-0.036503155
42	0xbc7b619f	-0.015343099
43	0x3e379108	0.17926419
44	0x3b5341a0	0.003223516
45	0x3da0e5ad	0.07856307
46	0x3c0d49c2	0.008623542
47	0x3d2a4874	0.041573003
48	0xbd725e16	-0.05917176
49	0xbca6b570	-0.020350188
50	0x3c29a36e	0.010353906
51	0xbd532b5a	-0.051555015
52	0xbc562825	-0.013071095
53	0xbbf90580	-0.0075995326
54	0xbb5a0f8b	-0.0033273424
55	0x3d73283e	0.05936455
56	0x3b3896d6	0.0028166077
57	0xbd532e9f	-0.051558133
58	0xbd8be945	-0.06831602
59	0x3dd2da27	0.102955155
60	0x3cefb6be	0.029261943
61	0xbe16ead3	-0.14738016
62	0x3cad771c	0.02117496
63	0x3da2b0d1	0.07943881
64	0xbd275db3	-0.040860843
65	0xbda13292	-0.07870974
66	0x3d0377d7	0.03209671
67	0xbc7c2e54	-0.015391905
68	0xbbe5daa8	-0.0070145912
69	0xbdbbc0b8	-0.091676176
70	0x3cefc243	0.029267436
71	0xba9c8ccc	-0.0011943816
72	0x3c303421	0.010754616
73	0x3dac0a7b	0.084004365
74	0x3c84a3c4	0.01619137
75	0xbd95c550	-0.07313025
76	0xbc329b45	-0.010901277
77	0x3c473237	0.012157968
78	0x3d548a54	0.051889732
79	0x3e0adebf	0.13561533
80	0x3d30c24c	0.043154046
81	0x3d29dd08	0.041470557
82	0xbb118f20	-0.0022210553
83	0xbaf15914	-0.0018413388
84	0x3c4571ee	0.012051089
85	0xbaa37a3c	-0.0012472342
86	0xbd573e6f	-0.052549776
87	0x3dbfbc52	0.09362091
88	0x3d805f69	0.06268198
89	0x3d1982d3	0.03747828
90	0x3bf0cf34	0.0073489193
91	0xbc822c49	-0.015890257
92	0x3af9bf16	0.001905414
93	0xbd603f6a	-0.054747976
94	0x3d97afc0	0.074065685
95	0xbda231bf	-0.079196446
96	0x3bee83c2	0.0072788903
97	0xbddabc9f	-0.10680508
98	0x3ab2c806	0.0013639934
99	0x3da9b17a	0.08285804
100	0xbd67b380	-0.05656767
101	0x3b0fd168	0.0021944884
102	0x3d2dc316	0.042422377
103	0x3d947d39	0.07250447
104	0xbbb92201	-0.0056498055
105	0x3bdfe38b	0.006832545
106	0x3d59cf7a	0.05317638
107	0xbd330460	-0.043705344
108	0x3c9a843d	0.018861884
109	0x3d7eccb2	0.06220693
110	0xbc7b97ae	-0.0153559875
111	0xbc5f7bf8	-0.013640396
112	0x3ae10d58	0.0017170114
113	0x3da81c3a	0.08208509
114	0x3bba6d40	0.005689293
115	0x3df702a0	0.120610476
116	0x3d368c1e	0.04456722
117	0xbdca0439	-0.09864087
118	0x3c3163a8	0.010826983
119	0x3c6acd56	0.014331182
120	0x3cead403	0.028665548
121	0xbbdf7b90	-0.0068201497
122	0x3a049a00	0.0005058348
123	0xbcc3b34c	-0.023889206
124	0x3d925d93	0.07146754
125	0x3cf6314a	0.0300528
126	0x39243b40	0.00015662331
127	0xbbaa1dc0	-0.0051915348
128	0x3bfa14cc	0.0076318737
129	0xbba04cbe	-0.004891961
130	0x3d836cd4	0.06417242
131	0xbbf25ac8	-0.007396076
132	0x3d9c2b3a	0.07625432
133	0x3c0b4e8a	0.008502612
134	0xbadda2c8	-0.0016909475
135	0xbcf136be	-0.029445048
136	0x3c71bee6	0.014754986
137	0x3860cc00	5.359575e-05
138	0xbc73629f	-0.014855056
139	0xbc156688	-0.009118684
140	0x3b361258	0.002778193
141	0x3c7b7849	0.015348502
142	0x3bf402c0	0.007446617
143	0xbc86f863	-0.016475862
144	0x3b43079a	0.002975917
145	0x3dc471f7	0.095920496
146	0x3d38b969	0.045098696
147	0xbd37706a	-0.04478494
148	0xbdc67949	-0.09691102
149	0x3dbab65b	0.09116813
150	0xbd200973	-0.03907151
151	0x3ddffd9b	0.10937043
152	0xbd5fe069	-0.054657374
153	0x3dcd8a62	0.1003616
154	0xbd3440ba	-0.04400704
155	0x3d27fcb6	0.04101249
156	0xbca73ddc	-0.020415239
157	0xbc4c41eb	-0.012466888
158	0x3d0ab972	0.03386826
159	0x3d5be20b	0.05368237
160	0x3be6e233	0.007046008
161	0xbd05d6a3	-0.032675397
162	0x3d836908	0.064165175
163	0x3d50c31b	0.050967317
164	0x3c1d0e29	0.009585896
165	0x3d5797af	0.05263489
166	0xbba14496	-0.004921506
167	0xbc11726a	-0.008877376
168	0xbc36e029	-0.011161842
169	0xbdbf6481	-0.093453415
170	0x3cf716c4	0.030162223
171	0xbd800bda	-0.062522605
172	0xbdb89997	-0.0901367
173	0xbd875bd8	-0.06609315
174	0xbc742144	-0.014900509
175	0x3c888620	0.016665518
176	0x3c83c900	0.016087055
177	0xbc407c1b	-0.011748339
178	0x3da34b3d	0.07973335
179	0xbc5bd1d8	-0.01341673
180	0xbd015a58	-0.0315803
181	0x3b68ca04	0.0035520801
182	0xbc8fd990	-0.017559797
183	0xbd5fcace	-0.05463677
184	0xbdb7555c	-0.08951828
185	0x3d95708e	0.07296859
186	0xbc81d1b1	-0.015847059
187	0xbcdf2a98	-0.02724199
188	0xbc876bb3	-0.016530847
189	0xbc95d413	-0.018289601
190	0xbbc2d13c	-0.005945353
191	0xbb31a19b	-0.002710438
192	0xbd61e3b5	-0.0551488
193	0xbbc0c61c	-0.0058829915
194	0xbb47b21e	-0.0030471156
195	0xbc0ca29c	-0.008583691
196	0xbc2f5e26	-0.010703599
197	0x3c2618a8	0.010137714
198	0x3db4e612	0.08832945
199	0x3c64703d	0.013942775
200	0x3d827131	0.06369246
201	0xbbae1bfb	-0.005313394
202	0xbd12da4e	-0.035852723
203	0xbb367e24	-0.0027846182
204	0x391ad7f0	0.00014767027
205	0xbb28197a	-0.002564995
206	0xbd1bb361	-0.038012866
207	0x3d133d9f	0.03594744
208	0xbba6328c	-0.0050719436
209	0x3b8f5ab2	0.0043748254
210	0x3db0f551	0.086405404
211	0xba8d7836	-0.0010793272
212	0x3d4ec442	0.050480135
213	0x3a799618	0.0009520962
214	0x3c4aef24	0.012386117
215	0xbd264164	-0.040589705
216	0xbd115137	-0.035477843
217	0x3d178b36	0.036997996
218	0x3c71225e	0.014717666
219	0x3cad0925	0.021122525
220	0x3ac53a0a	0.0015047204
221	0xbb0cabeb	-0.0021464776
222	0xbd3c3e84	-0.045958057
223	0x3b0c0866	0.002136731
224	0x3d6d9ccf	0.058010872
225	0xbd3095d5	-0.04311164
226	0xbd5f6561	-0.05454004
227	0x3adf14d8	0.0017019762
228	0x3cf2834d	0.029603625
229	0x3c7f428d	0.015579832
230	0x3d6815d6	0.05666145
231	0x3cb52e08	0.022116676
232	0x3b03f894	0.0020137178
233	0xbd4a3bbd	-0.049373377
234	0xbac223e0	-0.0014811717
235	0xbba325b4	-0.00497886
236	0xbb9c061e	-0.0047614714
237	0x3c5d26c4	0.013498012
238	0xbc2ba3ec	-0.010476094
239	0x3d51aaa9	0.051188145
240	0xbc23a48a	-0.00998796
241	0x3de1d185	0.11026291
242	0xbdc8d424	-0.098060876
243	0x3dbb3316	0.09140603
244	0x3d6713dc	0.056415424
245	0x3c6360c0	0.0138780475
246	0x3c5b99dc	0.013403382
247	0xbc785a48	-0.0151582435
248	0xbd2e179b	-0.04250298
249	0xbcece2ae	-0.028916683
250	0xbbc518ff	-0.0060149427
251	0x3db11eb1	0.08648432
252	0xbd8f23a0	-0.06989217
253	0xbc2ed14f	-0.01067002
254	0x3c87d6e0	0.016581953
255	0x3c8497df	0.016185699

bias f4 [200]
0	0xbcd2024c	-0.02563586
1	0x3c3f9e52	0.011695461
2	0xbd0a9606	-0.03383448
3	0xbd08b77f	-0.03337812
4	0x3c67e48b	0.01415361
5	0x3c2c55ce	0.010518504
6	0xbc819db1	-0.015822263
7	0x38b7dd00	8.7672845e-05
8	0xbd043007	-0.032272365
9	0xbcdff2e2	-0.027337495
10	0xbbfce354	-0.0077175293
11	0xbc1d0bc5	-0.009585326
12	0xbc1fb336	-0.009747317
13	0xbc0fdb80	-0.00878036
14	0xbd30d884	-0.043175235
15	0xbd095802	-0.033531196
16	0x3b6b52ea	0.0035907575
17	0x3cf62648	0.03004755
18	0xbc8e0d74	-0.0173404
19	0xbce51aa1	-0.0279668
20	0xbb615f53	-0.0034389093
21	0x3b857f95	0.004074047
22	0x3aba4e68	0.0014214041
23	0xbd0a53e2	-0.033771403
24	0xbba7ae5f	-0.005117222
25	0x3c0cd398	0.00859537
26	0xbcb12adc	-0.021626882
27	0xbd09aa95	-0.033609945
28	0xbc46c016	-0.012130758
29	0xbd08e5a6	-0.033422135
30	0x3b331d1f	0.002733059
31	0x3b7992f2	0.003808197
32	0x3c343157	0.010998092
33	0x3a3e96d4	0.00072704
34	0xbc86c786	-0.016452562
35	0xbc075264	-0.00825939
36	0xbd34abaa	-0.044109024
37	0x3c8ef23e	0.017449494
38	0x3c7ce68c	0.015435826
39	0x3c48effc	0.012264248
40	0x3b8ac940	0.0042354167
41	0xbc973ead	-0.018462503
42	0xba640b50	-0.00086991955
43	0xbc952e8d	-0.018210674
44	0x3b0afd36	0.0021208054
45	0x3c731348	0.01483614
46	0x3c03c00b	0.008041392
47	0xbd0c09f5	-0.034189183
48	0xbc9c2a14	-0.019063033
49	0x3a32f4a0	0.0006826613
50	0xbbed24da	-0.007237059
51	0xbc8f1171	-0.017464371
52	0xbbcac562	-0.0061880806
53	0xbba8e995	-0.0051547983
54	0xbc1d2c61	-0.0095931
55	0x39e62000	0.0004389286
56	0xbc3680e1	-0.011139126
57	0x3c1f30b5	0.0097162025
58	0x3d0808be	0.033211462
59	0xbd0644f9	-0.03278062
60	0xbc49c112	-0.012314098
61	0xbd031055	-0.031997997
62	0xbcb52c45	-0.022115836
63	0xbcab9a66	-0.020947646
64	0xbc4186ce	-0.011811925
65	0xbc5adad3	-0.013357836
66	0x3c30bc37	0.010787061
67	0x3c39f2e2	0.011349412
68	0x3bb4c58b	0.005516713
69	0x3bf5136b	0.0074791214
70	0xbbc980ff	-0.0061494107
71	0xbb2b1e5b	-0.0026110623
72	0xbacb623c	-0.0015516947
73	0xbd0c7e45	-0.034300108
74	0xba8a0106	-0.001052887
75	0xbcd04e0f	-0.025427846
76	0x3c8208d6	0.015873354
77	0xbc6a200d	-0.014289868
78	0x3c89ca19	0.01682
79	0xbc1b0cbc	-0.009463485
80	0x3b5f90ba	0.0034113363
81	0x3bb917b7	0.005648579
82	0x3c58a4ad	0.0132228555
83	0xbca6dbbe	-0.020368453
84	0x3c17d0a4	0.009266052
85	0x3ca65806	0.020305645
86	0x3d028d2c	0.031872913
87	0x3c03facc	0.0080554
88	0xbc6570c2	-0.014003934
89	0xbcad46a2	-0.021151844
90	0xbc52bd24	-0.012862477
91	0x3ca4ae74	0.020102717
92	0x3bdac7c4	0.006676646
93	0xbc98d3ad	-0.018655622
94	0x3b435c81	0.0029809775
95	0x3cc4508d	0.02396419
96	0x3b6b4588	0.0035899598
97	0xbcdbdc1c	-0.026838355
98	0x3b917b28	0.00443973
99	0x3cb460b2	0.022018764
100	0xbd095c35	-0.0335352
101	0xbc8419fe	-0.016125675
102	0x3c242fb1	0.010021136
103	0x3c24357d	0.010022518
104	0xbb882526	-0.004154819
105	0xbc5d1bfa	-0.01349544
106	0xbcff5a36	-0.031170946
107	0xb9c7e790	-0.00038128765
108	0x3c527b09	0.012846717
109	0x3c1ea9d3	0.009684044
110	0x3c1e8ecc	0.0096776
111	0xb9c89d30	-0.00038264086
112	0x3be096da	0.0068539204
113	0x3cb2d4dd	0.021830017
114	0x3d0dbed5	0.03460582
115	0xbc4d18f0	-0.012518153
116	0x3c2b21f6	0.010445109
117	0xbc35f6ac	-0.011106174
118	0x3c0526b4	0.008126903
119	0x3c4d95f8	0.012547962
120	0xbbd98eac	-0.0066393223
121	0xbce09da2	-0.027418915
122	0xbcf112e0	-0.029427946
123	0xbb9745bb	-0.004616467
124	0x3c070c04	0.008242611
125	0x3b8b79d2	0.0042564655
126	0x3c12e196	0.008964917
127	0xbc42cc6e	-0.01188956
128	0xbcfdbd06	-0.030973922
129	0x3b845d13	0.0040394156
130	0x3c247b0a	0.0100391
131	0x3c8a29ca	0.01686563
132	0xbc299fe8	-0.010353066
133	0xbc0d7600	-0.00863409
134	0xba9ed2e2	-0.0012117291
135	0xbd091ce0	-0.033474803
136	0x3ad1ade6	0.001599726
137	0xbcf03fdd	-0.029327327
138	0xbd17f94a	-0.037102975
139	0xbcb76ffb	-0.022392264
140	0xbc1fa8cb	-0.009744833
141	0x3cb1f009	0.021720903
142	0x3b8d86eb	0.004319062
143	0x3c90510c	0.017616771
144	0x3ca38c76	0.019964438
145	0x3bbb43ca	0.005714868
146	0x3b9c25f7	0.004765268
147	0x3ca9bafe	0.020719048
148	0xbd065292	-0.03279359
149	0x3c1119b7	0.008856229
150	0xbbd5c4db	-0.006523711
151	0xbc39d104	-0.011341337
152	0xbc3caa82	-0.011515262
153	0x3b2ea74c	0.002665001
154	0xbb91ab16	-0.004445444
155	0xba8ca032	-0.0010728894
156	0x3c55ca82	0.01304877
157	0x3a172b96	0.00057666877
158	0xbd0d4124	-0.03448595
159	0xbc74a8f1	-0.014932857
160	0xbd03e92d	-0.032204796
161	0xba752788	-0.0009351899
162	0x3c1303ca	0.008973071
163	0xbad8a1d8	-0.0016527725
164	0xbccbb8de	-0.024868425
165	0xbcf015e4	-0.029307313
166	0xbc8c6137	-0.0171362
167	0xbc9149f4	-0.017735459
168	0xbc8954f1	-0.016764136
169	0xbd0d47db	-0.034492355
170	0x3c7278e1	0.014799328
171	0x3c50606c	0.012718301
172	0x3c1e86a8	0.009675659
173	0xbcb0538f	-0.021524219
174	0x3ae01428	0.0017095851
175	0xbc8d35b0	-0.017237514
176	0xbc2eed0a	-0.010676632
177	0xbbfb9768	-0.007677961
178	0xba88511d	-0.001040015
179	0x3c24ef93	0.010066885
180	0x3acc547a	0.0015589141
181	0xbaaf6b60	-0.0013383441
182	0xbc82b5b4	-0.015955783
183	0xba995c92	-0.0011700562
184	0xbb7329cc	-0.003710377
185	0xbd05835c	-0.032595977
186	0xbc741317	-0.0148971295
187	0x3b8a3fe6	0.004219043
188	0x3ca5a5ec	0.02022072
189	0x3c001256	0.007816872
190	0xbd0b695b	-0.03403602
191	0x3c88d9e1	0.016705455
192	0x3b92ff9c	0.0044860374
193	0xbcf5d010	-0.030006438
194	0xbd0a24d7	-0.03372654
195	0x3c4fae0a	0.0126757715
196	0x3a8e0d1f	0.0010837651
197	0xbcdaf00c	-0.026725791
198	0xbcb01902	-0.0214963
199	0xbc2db4e4	-0.01060221

weight f4 [200, 200]
0	0xbd4863d6	-0.048923336
1	0x3d036906	0.03208258
2	0xbd361767	-0.044455912
3	0x3cce5960	0.025189102
4	0xbd6dde0a	-0.05807308
5	0x3c9515a4	0.018198796
6	0xbc6fbce6	-0.014632439
7	0xbcbd19b4	-0.023083545
8	0x3a207078	0.0006120275
9	0x3c7960a4	0.015220795
10	0x3cb6e198	0.022324368
11	0x3bb6d8d4	0.005580047
12	0x3cfdddc2	0.030989531
13	0xbdbb2ea4	-0.09139755
14	0xbd221b11	-0.039576594
15	0xbd5db78b	-0.05413012
16	0xbd59efb8	-0.05320713
17	0x3cf42942	0.02980483
18	0x3d334eaf	0.04377621
19	0xbcefd78c	-0.029277585
20	0xbdc3e152	-0.09564461
21	0x3b1bfd3a	0.0023802058
22	0xbc6fc58e	-0.014634503
23	0xbc74f62e	-0.014951272
24	0xbc26b886	-0.01017583
25	0xbdcc6d5f	-0.099817984
26	0x3ac0fa5c	0.001472305
27	0x3c6cee39	0.014461094
28	0xbd5f9f77	-0.054595437
29	0xbc81308e	-0.015770223
30	0xbc43f231	-0.011959598
31	0xbd37aa60	-0.044840217
32	0xbcdbe4cd	-0.0268425
33	0x3d217e9f	0.039427396
34	0x3d4aa058	0.049469322
35	0xbac24cd8	-0.0014823927
36	0xbcbc015d	-0.022949869
37	0x3d36c9f2	0.044626184
38	0xbc81e926	-0.015858244
39	0xbd0d85a6	-0.034551285
40	0xbb4f1928	-0.0031600688
41	0x3c448d4b	0.0119965775
42	0x3c9f04f0	0.019411534
43	0xbc107b1a	-0.008818412
44	0xbda25a51	-0.07927383
45	0x3b728444	0.0037005106
46	0xbafef22a	-0.0019450833
47	0xbd708f8f	-0.05873066
48	0x3b299723	0.0025877438
49	0x3ccd08a1	0.025028529
50	0xbd77416f	-0.060365137
51	0xbc09132e	-0.008366389
52	0xbd00f1c7	-0.031480577
53	0x3d15898a	0.03650812
54	0xbd0350be	-0.032059424
55	0x3d27cbdc	0.0409659
56	0xbcca8737	-0.024722679
57	0x3c62245e	0.013802616
58	0x3bc958f6	0.006144638
59	0x3c9f4982	0.019444231
60	0x3d5a0c04	0.053234115
61	0x3da230ec	0.07919487
62	0xbd1746c8	-0.036932737
63	0xbcd71dc4	-0.02625931
64	0x3bd536b6	0.006506766
65	0xbc8280b7	-0.015930517
66	0xbda80d36	-0.08205645
67	0xbd17e2a8	-0.03708139
68	0xbc4e8d6f	-0.012606963
69	0xbd4d5f9e	-0.050140016
70	0x3d6f5364	0.058429137
71	0x3d35d432	0.04439182
72	0xbd71df0c	-0.059050605
73	0x3d105612	0.035238333
74	0xbcf697b5	-0.030101636
75	0xbb0becc4	-0.002135084
76	0x3ac4a872	0.0015003814
77	0xbc870268	-0.01648064
78	0x37956000	1.7806888e-05
79	0xbd9a25ed	-0.07526765
80	0xbd4f05b5	-0.050542552
81	0x3d3727b2	0.04471559
82	0xbbfe5b33	-0.0077623366
83	0x3da064f3	0.078317545
84	0xbd0756cc	-0.03304176
85	0xbd018c3c	-0.03162788
86	0xbb27c2b7	-0.0025598237
87	0xbd4f3e7f	-0.05059671
88	0x3d23ac7e	0.039959423
89	0x3d08aa90	0.033365786
90	0xbd1f4b00	-0.038889885
91	0xbd1bc63f	-0.03803086
92	0xbbfbb476	-0.0076814247
93	0x3c44a966	0.012003278
94	0x3c299f80	0.010352969
95	0x3bf1816a	0.0073701637
96	0x3d4d9712	0.0501929
97	0x3c02e4d9	0.007989132
98	0xbd387153	-0.04502995
99	0x3c71d320	0.014759809
100	0xbcaed12a	-0.021339972
101	0xbd519fb6	-0.051177703
102	0x3c56ca8e	0.013109816
103	0x3baa6d7e	0.0052010408
104	0x3ca65376	0.02030347
105	0x3b147396	0.0022651902
106	0x3ce742c4	0.028230079
107	0x3cb43b06	0.0220008
108	0xbd145cc6	-0.03622129
109	0xbda72a13	-0.08162322
110	0x3d38181a	0.04494486
111	0xbc348910	-0.011019006
112	0x3d46d5a2	0.04854358
113	0x3ab19a70	0.0013550054
114	0x3cca94f2	0.024729226
115	0x3cb07394	0.021539487
116	0x3bd68914	0.0065471027
117	0xbcb0f84a	-0.021602768
118	0xbc070bad	-0.00824253
119	0xbd429f8f	-0.04751545
120	0x3d1b3679	0.037893746
121	0x3b34a633	0.0027564883
122	0xbdb6a25b	-0.089176856
123	0xbccd2901	-0.025043966
124	0xbca49a0f	-0.020092992
125	0xbbb0cc32	-0.0053954357
126	0x3bcb0b59	0.006196421
127	0x3d3b2bda	0.045696117
128	0xbc14ac56	-0.009074291
129	0xbd7f338c	-0.06230502
130	0x3cae9ad8	0.02131407
131	0x3d289724	0.041159764
132	0xbd3b78f3	-0.045769643
133	0x3c8f1986	0.017468225
134	0x3c13dc9b	0.009024764
135	0xbc0454cb	-0.008076857
136	0xbd17e451	-0.037082974
137	0xbbc75bb0	-0.006083928
138	0xbb35cd72	-0.0027740863
139	0x3d41eb17	0.04734334
140	0xbb1b8aa8	-0.0023733769
141	0xbccec94f	-0.025242476
142	0x3c28a856	0.010294041
143	0xbdb33c06	-0.08751683
144	0xbd5ce701	-0.05393124
145	0xbd2babc6	-0.041911863
146	0xbdbdd75c	-0.09269592
147	0xbcfcf077	-0.030876381
148	0xba41a380	-0.0007386729
149	0xbc8a2774	-0.016864516
150	0x3b844966	0.00403707
151	0x3c6a5cee	0.014304383
152	0x3d29f25a	0.04149089
153	0x3c732006	0.014839178
154	0xbad911bc	-0.0016561071
155	0xbbae7e5c	-0.005325122
156	0x3bc050b1	0.005868994
157	0xbccaf235	-0.024773696
158	0xbc07c1e9	-0.008285978
159	0x3d87e6db	0.06635829
160	0x3c52a08c	0.01285566
161	0xbd47cabe	-0.048777334
162	0x3b652232	0.003496301
163	0x3c266be1	0.010157556
164	0xbced8989	-0.028996246
165	0xbb05ebce	-0.002043474
166	0x3d745ee8	0.059660822
167	0xbd442a6e	-0.047892027
168	0x3cfa9fec	0.030593835
169	0xbcf90ef8	-0.030402645
170	0xbcb4b50d	-0.022058988
171	0x3d22593c	0.03963588
172	0xbc074729	-0.008256712
173	0xbbf0c536	-0.007347728
174	0x3cb28f73	0.021796918
175	0x3ce6403b	0.0281068
176	0x3c08f753	0.008359748
177	0xbcb53613	-0.022120511
178	0x3b8665f0	0.0041015074
179	0xbc8af791	-0.016963752
180	0x3cdfa298	0.02729921
181	0xbd3b8a3e	-0.045786135
182	0x3bce5cb0	0.0062976703
183	0xbd1143f5	-0.0354652
184	0xbc3b419a	-0.011429215
185	0xbd0176f1	-0.031607572
186	0x3d3419f3	0.04397006
187	0xbddfe4ef	-0.109323375
188	0xbbd9ebb5	-0.006650413
189	0x3d350756	0.04419645
190	0xbc01a919	-0.007913851
191	0x3d048719	0.0323554
192	0xbc656f54	-0.0140035935
193	0x3d525d1c	0.051358327
194	0x3ce0e00a	0.02745058
195	0xbc818b8d	-0.015813613
196	0xbcab0876	-0.020878058
197	0xba733bb0	-0.00092786085
198	0xbc19f1c6	-0.009396022
199	0xbc6ebc95	-0.014571329
200	0xbc970c0f	-0.018438367
201	0xbc93d58c	-0.018046163
202	0xbd6e56bc	-0.058188185
203	0x3d73c277	0.059511628
204	0x3d42236a	0.047397055
205	0x3c949937	0.018139465
206	0xbc67c4c4	-0.014146034
207	0xbd1069d4	-0.035257176
208	0x3ca2655f	0.019823728
209	0x3c5725ac	0.01313154
210	0xbbb9b882	-0.005667747
211	0x3b0a3a1f	0.0021091772
212	0xbad02c60	-0.0015882365
213	0xbc4ad496	-0.012379786
214	0xbc3f9065	-0.011692141
215	0xbc830289	-0.01599242
216	0x3d05fbd5	0.03271087
217	0xbd6cf284	-0.05784847
218	0xbd2f0509	-0.04272941
219	0xbc934293	-0.017976081
220	0xbd30b1db	-0.043138366
221	0x3c732f7a	0.014842862
222	0xbb84b087	-0.004049364
223	0xbb7fb91a	-0.0039020241
224	0xbc85dd2e	-0.016340818
225	0x3c5b0ff2	0.013370501
226	0x3ceeb529	0.029139118
227	0xbcea78c2	-0.028622035
228	0xbc3932ec	-0.011303645
229	0xbb7ed24a	-0.0038882666
230	0xbbc07c07	-0.00587416
231	0xbc4f28bf	-0.012643992
232	0x3d099647	0.03359058
233	0x3d23be99	0.03997669
234	0xbd08dfd2	-0.033416577
235	0xbb178e06	-0.0023125424
236	0x3bc8afda	0.0061244788
237	0x3cece81d	0.028919274
238	0xbbd26596	-0.0064208014
239	0xba12e0b8	-0.0005602944
240	0xbb1eb12e	-0.0024214494
241	0x3c144f83	0.00905216
242	0x3b9bdf7e	0.004756867
243	0xbc746d38	-0.014918618
244	0xbd62d8a7	-0.055382397
245	0x3a0bed90	0.0005337829
246	0xb9882ea4	-0.0002597469
247	0xbd2fe796	-0.042945467
248	0x3bd22402	0.006412984
249	0x3cf62582	0.030047182
250	0xbd3942ad	-0.045229603
251	0xbc004574	-0.007829059
252	0x3d240cc9	0.040051255
253	0xbbb5cdb9	-0.0055482057
254	0x3cc09b47	0.023511542
255	0xbd398418	-0.04529199

bias f4 [25]
0	0x00000000	0.0
1	0x00000000	0.0
2	0x00000000	0.0
3	0x00000000	0.0
4	0x00000000	0.0
5	0x00000000	0.0
6	0x00000000	0.0
7	0x00000000	0.0
8	0x00000000	0.0
9	0x00000000	0.0
10	0x00000000	0.0
11	0x00000000	0.0
12	0x00000000	0.0
13	0x00000000	0.0
14	0x00000000	0.0
15	0x00000000	0.0
16	0x00000000	0.0
17	0x00000000	0.0
18	0x00000000	0.0
19	0x00000000	0.0
20	0x00000000	0.0
21	0x00000000	0.0
22	0x00000000	0.0
23	0x00000000	0.0
24	0x00000000	0.0

weight f4 [25, 200]
0	0x3d32deae	0.043669395
1	0xbd7d605e	-0.06185948
2	0xbe1f9734	-0.15585023
3	0xbe1e1f53	-0.15441637
4	0xbd15ba16	-0.03655442
5	0xbd157a28	-0.03649345
6	0xbe0fb9fc	-0.14035791
7	0xbe11df49	-0.14245333
8	0x3a518741	0.00079928717
9	0xbe10606e	-0.14099285
10	0xbdf094fb	-0.11747166
11	0x3d07c5d5	0.03314765
12	0x3df91299	0.1216175
13	0x3bb9fd2f	0.005675934
14	0x3d7feec0	0.06248355
15	0xbdb7f5ec	-0.08982453
16	0x3df7cc80	0.12099552
17	0x3e103d8e	0.14085981
18	0x3d8da180	0.06915569
19	0x3cce464e	0.025180008
20	0xbd40da29	-0.047083054
21	0x3ced98cb	0.029003521
22	0x3dd1aa99	0.10237617
23	0x3e10e053	0.14148073
24	0x3cb9181d	0.022594506
25	0x3d9bc370	0.07605636
26	0x3c406062	0.011741729
27	0x3e147fa2	0.14501813
28	0xbe1d3533	-0.15352325
29	0x3db7da53	0.08977189
30	0x3e2313b5	0.15925486
31	0xbdd6c999	-0.104876705
32	0x3d78b8db	0.060723167
33	0x3d1b828f	0.037966307
34	0x3dfaf696	0.12254064
35	0xbe21c37e	-0.1579723
36	0x3d6160eb	0.05502407
37	0x3e1d462c	0.153588
38	0xbe1ca8d7	-0.15298782
39	0xbe239d9c	-0.15978092
40	0x3e167b30	0.1469543
41	0xbd98659e	-0.07441257
42	0xbdfb7776	-0.12278645
43	0x3e2419cb	0.16025464
44	0x3dcfe4f7	0.101510935
45	0x3dee3fe3	0.11633279
46	0xbd4eed57	-0.050519314
47	0xbd478560	-0.04871118
48	0x3c4c8546	0.012482947
49	0xbde24c4d	-0.110497095
50	0xbdc5a915	-0.096513905
51	0xbd7a77af	-0.061149295
52	0xbcf83018	-0.03029637
53	0xbdb75637	-0.08951991
54	0x3c68ec81	0.014216543
55	0x3d32caf1	0.04365057
56	0x3de2e96d	0.11079679
57	0xbe0aa84d	-0.13540764
58	0x3cfd8b7b	0.030950299
59	0x3c9b66c7	0.018969906
60	0x3d86406d	0.06555257
61	0xbda1966c	-0.07890019
62	0x3e164f5a	0.14678708
63	0xbd837195	-0.064181484
64	0xbbb61b58	-0.005557459
65	0xbe1cd48f	-0.1531546
66	0x3c910e63	0.017707055
67	0x3b4cdc3b	0.0031259197
68	0x3d40c923	0.04706682
69	0x3da4372d	0.080183364
70	0xbe21af04	-0.1578942
71	0x3e24cffc	0.16094965
72	0xbe20e358	-0.15711725
73	0x3e239267	0.15973817
74	0xbcf056a7	-0.029338194
75	0xbe0931b2	-0.13397864
76	0xbde366b0	-0.111035705
77	0xbe20aed5	-0.15691693
78	0xbd93dfae	-0.07220398
79	0xbd523bd8	-0.051326603
80	0x3cd78969	0.02631064
81	0x3da9f623	0.082989
82	0x3d5a07c0	0.053230047
83	0x3cf789e5	0.03021712
84	0x3a2362d6	0.0006232684
85	0x3d9fc739	0.078016706
86	0xbd745a12	-0.05965621
87	0xbda97072	-0.082734
88	0x3dc0fe40	0.09423494
89	0x3cf0b244	0.029381879
90	0x3de9a332	0.1140808
91	0xbe219734	-0.15780336
92	0xbe1fb132	-0.15594938
93	0x3ced3304	0.02895499
94	0xbc0e3e09	-0.0086817825
95	0xbcd619a9	-0.026135283
96	0xbdecdf82	-0.11566068
97	0xbdec7b94	-0.11547008
98	0xbd35164f	-0.04421073
99	0x3da5d7ae	0.08097778
100	0xbda6e657	-0.081494026
101	0xbd33ed54	-0.043927506
102	0x3d98ff07	0.074705176
103	0xbdaa9c33	-0.08330574
104	0xbe18722a	-0.148873
105	0xbdc0a2b9	-0.09406037
106	0x3e13b6c2	0.14425185
107	0x3c2001ec	0.009766083
108	0xbdae7ed6	-0.08520286
109	0x3dda55f8	0.106609285
110	0x3e0eb1f7	0.13935076
111	0x3e242a20	0.16031694
112	0xbe1ace45	-0.15117748
113	0x3decc77e	0.115614876
114	0xbdacbf5b	-0.08434936
115	0xbe0a0b8d	-0.13480969
116	0xbd837603	-0.06418993
117	0xbd29ee05	-0.04148676
118	0x3dcbb62e	0.099468574
119	0xbe194709	-0.14968504
120	0x3e0e8a35	0.1391991
121	0xbc63fb2d	-0.013914865
122	0xbd8839c9	-0.06651647
123	0xbdc96de5	-0.09835414
124	0xbe18cc5e	-0.1492171
125	0xbcb1dc62	-0.021711532
126	0x3d6d8bb5	0.057994563
127	0xbd206a69	-0.03916398
128	0x3e1e19e1	0.1543956
129	0x3dcb04e3	0.099130414
130	0x3ddd9305	0.108190574
131	0xbb94bb86	-0.004538956
132	0x3dcd5d3a	0.10027547
133	0xbde18d82	-0.110133186
134	0xbc80e462	-0.015733901
135	0x3c5b2f5d	0.0133779915
136	0xbc09ea75	-0.008417715
137	0x3d96faf0	0.07372081
138	0xbe012f1c	-0.12615627
139	0x3c82737d	0.01592421
140	0xbd5315d9	-0.051534507
141	0x3e25c72c	0.1618926
142	0x3e1e0696	0.154322
143	0x3d8c8a7c	0.06862351
144	0xbd1ddeb4	-0.038542464
145	0x3e10177c	0.14071459
146	0x3d9e8c2e	0.07741581
147	0xbd2344b5	-0.039860446
148	0x3de50f9a	0.111846164
149	0xbde5a3c7	-0.11212879
150	0x3de618dd	0.11235211
151	0x3e0cb019	0.13739051
152	0x3e02ea3f	0.1278467
153	0xbe013d3b	-0.12621014
154	0xbe02ce22	-0.12773946
155	0xbd0c1d88	-0.03420785
156	0xbe16c0d2	-0.14721993
157	0x3c8ba6d6	0.017047327
158	0x3d743be7	0.05962744
159	0xbd98c899	-0.07460136
160	0x3c8cc397	0.017183108
161	0x3e00b684	0.12569624
162	0xbdb56773	-0.08857622
163	0x3e16a8ed	0.14712878
164	0x3dc59b82	0.096488014
165	0xbb1e3ef8	-0.002414642
166	0x3e061393	0.13093404
167	0xbda432c2	-0.08017494
168	0xbdd0614e	-0.101748094
169	0x3d200b20	0.03907311
170	0xbdd1e946	-0.102495715
171	0x3e217bdf	0.1576991
172	0xbdf99fa9	-0.12188656
173	0x3d996e05	0.07491688
174	0x3dd9023a	0.10596128
175	0x3ce4826e	0.027894225
176	0xbd28a596	-0.04117354
177	0x3d3bac4b	0.04581861
178	0xbe0dc73b	-0.13845532
179	0x3c6926f7	0.014230481
180	0xbe1c011c	-0.15234798
181	0xbd3cf181	-0.046128754
182	0x3d60edc5	0.054914255
183	0x3dc546bf	0.09632634
184	0xbdbaeff5	-0.091277994
185	0x3c569ea1	0.0130993435
186	0x3d4be291	0.049776617
187	0x3de9a6e6	0.114087865
188	0xbde2f178	-0.11081213
189	0xbc9a4d2b	-0.018835625
190	0xbdc65a8f	-0.096852414
191	0xbd9c77f0	-0.07640064
192	0xbdc8d85a	-0.09806891
193	0x3e07d675	0.13265403
194	0x3df39295	0.11893193
195	0xbd0593c7	-0.032611635
196	0x3e14a9d7	0.14517914
197	0xbe123cd5	-0.14281018
198	0x3ca3a647	0.019976748
199	0x3e084475	0.13307364
200	0x3e1f99d1	0.1558602
201	0x3da76b7b	0.08174797
202	0x3d10cab3	0.03534956
203	0xbe1c5a21	-0.15268756
204	0x3c32a4f4	0.010903586
205	0xbccd7277	-0.025078995
206	0x3dc1853d	0.09449241
207	0x3e15c16a	0.14624563
208	0x3e1c3fb3	0.15258674
209	0xbdd76ac3	-0.1051841
210	0xbd19388f	-0.037407454
211	0xbd822f2d	-0.06356654
212	0xbd604705	-0.05475523
213	0x3dd0b297	0.10190313
214	0x3dd3b098	0.10336417
215	0x3cf11049	0.02942671
216	0xba5e4d29	-0.00084801257
217	0xbc3d4a03	-0.01155329
218	0xbd04e3e2	-0.03244389
219	0xbd0c99d3	-0.034326386
220	0x3cb6cd61	0.02231473
221	0xbe08734d	-0.13325234
222	0x3d1189fc	0.035531983
223	0xbbfa18ee	-0.0076323664
224	0x3dc41c82	0.0957575
225	0xbd8d1989	-0.06889636
226	0x3e05b905	0.1305886
227	0x3d046824	0.03232588
228	0x3df00e6c	0.11721501
229	0xbc0db2a9	-0.008648553
230	0x3e021f83	0.12707333
231	0xbda75c48	-0.08171898
232	0x3da24188	0.07922655
233	0xbdc8aa21	-0.097980745
234	0x3e0ce292	0.13758305
235	0xbcde05ad	-0.027102316
236	0xbd0032b7	-0.031298365
237	0x3d849734	0.06474152
238	0x3caf6da4	0.021414585
239	0x3cc383bb	0.023866525
240	0xbd3382a2	-0.043825753
241	0xbe14453e	-0.14479539
242	0x3d7c8e14	0.061658934
243	0xbdf43b52	-0.11925377
244	0xbd9f371d	-0.07774184
245	0xbca08e32	-0.019599054
246	0x3d8fd40a	0.07022865
247	0xb9429236	-0.0001855575
248	0xbdbf7db6	-0.09350149
249	0xbdf946ac	-0.12171683
250	0xbdeb6503	-0.11493876
251	0x3dd55012	0.10415663
252	0x3d82df85	0.06390289
253	0xbe1096d5	-0.14120038
254	0x3d11fcc4	0.035641447
255	0xbe23825e	-0.159677
