deep_learning/models/GCNLinkPrediction121.pth (torch, 564014 bytes, 10 tensors)

bias f4 [200]
00000000: a592 3d3c 53a0 913c ae7c 96bc be10 183d
00000010: ca9b 2bbd 5511 1b3c ec02 f7bc 478c 3fbd
00000020: 6b8a 273d 6c72 0c3d 4a47 9c3c 0ed1 133d
00000030: 840b 073d 38a0 14bd 0492 1dbd 42cb 01bd
00000040: d7dc 18bc 3a12 8bbc a79c 183c 4347 1fbc
00000050: bb8d f9bc 28a9 c73c e866 463d 75f4 a0bb
00000060: 25e1 403b f17d a0bb 807b 00bd e0ac 25bc
00000070: 2a54 a8bb a4b8 2d3d fb2a 12bd 4a53 053d
00000080: 8f3f 79bc 55d3 2abd bcfd 89bb 12c0 0d3d
00000090: 3a85 98bc 9201 c239 87bb 15bd e1d1 b9bc
000000a0: 1136 04bd d14d c4bc 21ce 07bd 3ee7 9a3b
000000b0: 9115 ecbc 319c 0fbd b03f 173d bea6 da3c
000000c0: 28f0 813c 77ab 4abd 0030 4dbd 43e2 093d
000000d0: 0235 193d d84e 86bb 8dc4 2fbd ae05 183d
000000e0: 32a6 ff3b 59cd 21bd 760d 1d3d 7e6f 373d
000000f0: eaf1 10bd 186c c03c 352d 413d 6d0e 5f3c
00000100: fe7c 9bbc 8fc7 11bd 9f58 3a3c 06fd 1c3d
00000110: f67f 24bd e24c c93c cc26 613c 8f7a 263c
00000120: 663b 0c3d 6442 babc 9c43 b03c 8ef8 0fbd
00000130: d282 e0bc e71f 16bd b188 443c b919 a3bb
00000140: 04b4 2bbc 68f8 153d 2835 17bc 25bb 2a3d
00000150: d3ee 99bc 6ec8 c3bc ad08 0abd ee34 213d
00000160: ce66 9c38 490f 13bd 4472 e5bc af04 1abd
00000170: c0ef 8c3c 1599 e9bc ab58 213d daf7 a8bc
00000180: cac5 38bd 47fe ae3c 8edb 0dbd 13b2 eabc
00000190: 49bb ae3c a2a3 07bd 8627 15bd 52a3 003d
000001a0: 1b44 ebbc c611 143d 8877 3fbd bc2e 4b3c
000001b0: 0000 0000 a798 a03c 5753 11bd a1da bcbc
000001c0: ed3e 203c e070 5f3c e54f 173c d319 37bc
000001d0: 8d35 e03c b575 a3bc f3d2 f1bc 1ccc 113c
000001e0: 4d40 42bd 83a2 9cbc 1ca1 26bd c284 12bd
000001f0: 90c5 0bbd 058d fb3c 4dc5 f03c f44f 183d
00000200: d61b 783c c0fb 08bc a119 a83c 7b3f c3bc
00000210: 0fb0 f73c 8c0e 3abd fac5 c6bc fa2a 433d
00000220: d27a abbc 2f02 a23c 82a9 443d 7b25 543d
00000230: f2ba 00ba 1a4b 10bd 9b0a 3bbc c8c0 473b
00000240: fb4f 3dbd 9b3f 3cbd e6b8 f1bc ad07 23bd
00000250: f18e 473d 7434 18bd 6668 0fbd ff3c c93b
00000260: 7679 a2bc 8965 10bd ece7 003d 20f6 173d
00000270: a1dc 893c 289a b13c 5644 b13c 3203 f2b9
00000280: fa8b 143c cfdf 13bd 62c1 e2bc c744 21bd
00000290: dcc2 af3b 3547 febc ad50 d33c 711a d0bc
000002a0: 3324 cb3c cb43 25bd fea0 32bd 28c3 d9bc
000002b0: 0d95 4abd 5e26 e1bc 3e15 42bd e3f6 24bd
000002c0: 0f3b f13c d7b0 0dbd c4e3 213d 94e3 e6bc
000002d0: 569c 3c3d 4a9e 183c 22d3 35bd 2768 06bd
000002e0: e614 53bc 1130 143d 15cc 033d 6e76 cabc
000002f0: 277c 14bb 2285 a6bb cbf6 9d3c 51cc 393d
00000300: 73c8 b13c 6791 20bd 96fa 443d 4b03 12bd
00000310: a83a c6ba b7e8 3cbc ef28 503c 3b9c 003d
0.011570607 0.017776644 -0.018369999 0.03712534 -0.04189662 0.0094645815 -0.03015276 -0.04676464
0.04090349 0.03428881 0.019076962 0.036088042 0.032969967 -0.03628561 -0.03846933 -0.031687982
-0.009329996 -0.016976465 0.009314693 -0.00972158 -0.03046309 0.024372652 0.048437983 -0.004911954
0.0029431072 -0.004897826 -0.03136778 -0.010112017 -0.0051369863 0.042412415 -0.03568552 0.032550134
-0.015212907 -0.04170545 -0.0042111557 0.034607 -0.018618215 0.00037003733 -0.036555793 -0.022683086
-0.032278124 -0.023962887 -0.033155564 0.0047272732 -0.028818877 -0.035061065 0.03692597 0.026690837
0.015861586 -0.049479928 -0.050094604 0.033663046 0.037404068 -0.0040987544 -0.042912055 0.03711479
0.0078017944 -0.039502475 0.038342915 0.04478406 -0.035386957 0.023489043 0.047162253 0.013614279
-0.0189805 -0.035590705 0.011373668 0.03832724 -0.040161096 0.024572793 0.01374216 0.010161056
0.034236334 -0.022736736 0.021516614 -0.03514915 -0.02740613 -0.03665152 0.01199548 -0.0049774316
-0.010479931 0.03661385 -0.009228982 0.04168238 -0.018790638 -0.023899283 -0.03369968 0.03935712
7.4578085e-05 -0.03590325 -0.028008588 -0.037602123 0.017204165 -0.028515378 0.0393912 -0.020625997
-0.0451105 0.021361483 -0.03463321 -0.028649366 0.021329539 -0.033115037 -0.036414646 0.031405754
-0.028718999 0.036149763 -0.046744853 0.012401279 0.0 0.01960404 -0.03547987 -0.02305347
0.009780628 0.013637751 0.009235357 -0.011175591 0.027369285 -0.019953588 -0.029519534 0.008898761
-0.047424603 -0.01912046 -0.04068099 -0.03577114 -0.034123957 0.030706892 0.029390955 0.037185624
0.015143355 -0.008360803 0.020520033 -0.02383398 0.030235318 -0.04542403 -0.024264324 0.047648408
-0.020932589 0.019776432 0.048013218 0.051793557 -0.00049106695 -0.035227872 -0.011416103 0.0030479897
-0.046218853 -0.045959096 -0.029507112 -0.039802242 0.048720304 -0.0371594 -0.03501167 0.0061413045
-0.019833308 -0.03525308 0.031471178 0.037099957 0.016828837 0.021679953 0.02163903 -0.00046160218
0.009066576 -0.036102112 -0.027680103 -0.03937223 0.005363805 -0.031039814 0.025795305 -0.025403233
0.024797535 -0.040347856 -0.043610565 -0.026582316 -0.049458552 -0.027484115 -0.04738354 -0.040274512
0.029447107 -0.034592476 0.039523855 -0.02818469 0.04604753 0.009315083 -0.044390805 -0.03281417
-0.012883401 0.036178652 0.03217705 -0.024714675 -0.0022657008 -0.0050817886 0.01928272 0.045360867
0.021702027 -0.039201166 0.04809054 -0.03564767 -0.0015123682 -0.011530093 0.012705072 0.031398993

weight f4 [200, 18]
00000000: 6f71 133e ec04 15bd 95e2 42bd f926 babc
00000010: d285 f8bd 1d77 1c3e 6999 083e 40d8 2dbe
00000020: d8b2 973d f2ee b93d 8c23 a83d 8b07 81bd
00000030: 0665 11be ba5c 10be fbdd babd 0e0d 05be
00000040: ffe5 e4bb 22cf d73c 9c97 14bd 3f46 843d
00000050: ec49 e23d fd8f 93bc 2ed1 a2bd fe75 103e
00000060: 6275 10bc 5f17 233e 2be4 403e 0945 dc3d
00000070: eca2 6abd f828 483e 43bd 843d d1a7 bbbb
00000080: 1888 abbd e9d4 34bd 5d73 aabc 9ab8 aabd
00000090: f45a 9a3d 9794 bcbd c6ed 27be 92a0 20be
000000a0: 463c 39be fb76 b8bd b761 27be e272 22bd
000000b0: d582 94bd df07 243d 6267 24be 4a8e 25be
000000c0: 0868 b03d e502 0b3d 53e1 11bd 9bf2 943d
000000d0: 3177 003e 613d 2dbe fb34 f8bd 7dc9 89bd
000000e0: c8f0 96bd 5655 383e 0c3a 05be df11 bebd
000000f0: e691 e23d 98c2 48be 3c8b 02be d765 9e3d
00000100: ae54 cdbd 8ec6 38bd 82bc 6c3c 506c 97bd
00000110: c469 943c 3cc8 253e 037d 33bc dc76 9d3d
00000120: 8ed9 443d 89d1 1abd 0b56 d7bd 4b31 b5bd
00000130: d8ff 20be 6ab8 cb3d deb4 91bb b7d4 173b
00000140: a97c e93d 1975 08be 3904 bebd 341d aebd
00000150: 5767 22be 1ab1 d23d cca1 32bd 51cd f83d
00000160: 402a fb3d 935e 003d 78d5 a03c e66b 853d
00000170: 5a8d bc3c 8e25 803c 11b5 83bd e74f 19be
00000180: 26a7 2d3d 226a d1bd 0cf3 313d 0dea 48bd
00000190: 0211 87bd 2ab4 ac3d 281e f3bd 6f81 d6bd
000001a0: 4fb2 1c3e 436e b33d a569 4bbc 2f0d d0bd
000001b0: 7842 863d 9913 463b 0145 1abe 6575 983d
000001c0: 27a3 29be 1e03 4bbd dec2 b73d 0e44 96bd
000001d0: 584e 17be 44fa ec3d f7b4 173c a139 1ebe
000001e0: 1211 ed3d 7b85 b5bd f07d bd3c b79c f43d
000001f0: 2f74 97bc 1070 803c dc50 19be 0a40 1cbe
00000200: 8069 b8bb 9992 2e3e a722 87bd 248c 063e
00000210: 7b32 c93d 6340 fdbc 7230 f6bd b288 d73d
00000220: ffde d63d 7e17 4abd 5685 db3c b32c 8b3d
00000230: 40c2 edbc 1ba6 3bbe 698f ae3c 739f eb3d
00000240: 82f0 80bc 28e9 49bd 37df 593d 31c6 e5bd
00000250: 40fb 373e e424 a4bc 4982 273d c904 cf3d
00000260: 64d7 8f3d 7538 37bd 0e9b c8bd 50d3 f4bd
00000270: 3c63 153e c463 1a3e 7056 363e 0c85 ba3d
00000280: 63fa b6bc 458d e43c 8203 adbd a7fc 41bd
00000290: ead5 09be cdae 06be aa2a cbbd c7b2 2dbe
000002a0: 9083 8cbd b48b 03be 8fab acbd 0120 1d3c
000002b0: 4c96 50bc 4724 703d 9548 303e c792 1dbd
000002c0: 2b3a 013e 7a53 da3d f8d9 01be 8e6f 13bd
000002d0: eb2e b63d 82f5 c23b 3191 4e3e 23ae 423e
000002e0: 219c c23d ca07 093e bb5c c63c 69f9 913d
000002f0: 3210 033e 984d 263b 3982 b8bd 4138 dc3c
00000300: 4ce9 b93c 1ca7 413e a2f8 a83d 8cd5 433d
00000310: e46f 30bd 4071 0f3d 130f 79bc 4779 35be
00000320: 8cb8 38be b28c 3a3c 5520 393d ce50 24be
00000330: 3928 233d 57ed 96bd 4d05 febc 8479 3b3a
00000340: eb5d 11bd a4d9 85bd 978a afbd c5b5 373e
00000350: ee86 b5bd 3b89 aa3d 6d19 c6bd 7d08 323e
00000360: 597a 81bb 8a59 b8bc 39a6 f33d 6980 b13d
00000370: 0c71 d43d 4abc 22be b136 67bd 1757 10be
00000380: ebe3 853d 3112 c8bd a484 393e 4675 d53d
00000390: e54c 5d3d b182 1cbd 68d4 e73d 69c5 c9bb
000003a0: 40e6 2b3e 9e64 f1bd 1647 14be b6a5 31be
000003b0: b1c5 263d e83a 42be f775 c4bc ef56 fa3d
000003c0: c5af 30be 9c3b 3cbd 2c4f 843d c5c1 47be
000003d0: 127d 903d 9a0e 863d a33d acbc dbdd 833d
000003e0: 5cc5 983c 2a77 2abe 40b8 653a 062c fe3c
000003f0: a678 903b cd06 32be 0eea 21be 1dd4 11bd
0.1439874 -0.036381647 -0.047579367 -0.022723662 -0.12134899 0.15279813 0.13339771 -0.16977024
0.074071586 0.09078778 0.08209905 -0.06300267 -0.14198694 -0.14097872 -0.09124371 -0.12993261
-0.0069854255 0.026343886 -0.0362774 0.06458711 0.11049256 -0.018012995 -0.07950054 0.1410751
-0.008817049 0.15926884 0.18837039 0.10755355 -0.05728428 0.19546878 0.06481411 -0.0057267924
-0.08375567 -0.04414836 -0.020806963 -0.08335991 0.07536879 -0.09208029 -0.16399297 -0.15686253
-0.18089399 -0.09007069 -0.16345869 -0.039660342 -0.07251517 0.04004657 -0.16055062 -0.1616756
0.086135924 0.033938307 -0.035615277 0.07272836 0.12545468 -0.16917945 -0.1211948 -0.06727884
-0.07370144 0.18001303 -0.13010424 -0.092807524 0.11062984 -0.19605482 -0.12748426 0.07734268
-0.10025917 -0.04511123 0.014449241 -0.07393706 0.01811684 0.16189665 -0.010955098 0.07688686
0.04805904 -0.037797485 -0.10514458 -0.088472925 -0.15722597 0.099472836 -0.00444661 0.002316756
0.1140073 -0.13325919 -0.09278149 -0.08501664 -0.15859734 0.10287686 -0.043611333 0.12148536
0.12263918 0.031340193 0.01963304 0.065147206 0.02301662 0.015642907 -0.0643102 -0.14971887
0.042395733 -0.10225321 0.04344468 -0.049051333 -0.06595041 0.08432801 -0.11870986 -0.10473906
0.15302394 0.08761265 -0.012415324 -0.101587646 0.06555647 0.0030224083 -0.15065385 0.07444266
-0.16566144 -0.04956352 0.08972715 -0.07337199 -0.1477598 0.11571172 0.009259454 -0.15451671
0.115755215 -0.0886335 0.02313134 0.119439535 -0.018488018 0.015678436 -0.14972252 -0.15258804
-0.005627811 0.1704811 -0.06598406 0.13139397 0.098240815 -0.030914491 -0.12020959 0.105241194
0.10491752 -0.04933881 0.026796978 0.06795635 -0.02902329 -0.18325083 0.021308618 0.11505022
-0.015739683 -0.04929462 0.05319139 -0.11219443 0.17966938 -0.020037122 0.040895734 0.101083346
0.070235044 -0.044731576 -0.09795199 -0.11954367 0.14588636 0.1507712 0.17806411 0.09107408
-0.02233619 0.027899394 -0.08447935 -0.04736009 -0.13460508 -0.13152619 -0.09920247 -0.1696273
-0.06861031 -0.12846261 -0.0843116 0.00959015 -0.012731146 0.058628347 0.17215188 -0.038470056
0.12619846 0.10660453 -0.12680805 -0.03599506 0.08895668 0.005949677 0.20172574 0.1901174
0.095024355 0.13381878 0.02421414 0.07127649 0.12799147 0.002537584 -0.09009213 0.026882293
0.022694252 0.18911403 0.08250548 0.047811076 -0.043075457 0.035020113 -0.015201348 -0.17722045
-0.18039149 0.011386083 0.04519685 -0.1604645 0.03983328 -0.07369488 -0.031008387 0.0007151591
-0.035489958 -0.06535652 -0.08571356 0.17940433 -0.088636264 0.08326956 -0.09672818 0.1738605
-0.0039513526 -0.022503633 0.11896939 0.086670704 0.103731245 -0.15892139 -0.056448642 -0.14095722
0.065376125 -0.09769095 0.18117005 0.10422759 0.05402841 -0.038210575 0.1131981 -0.0061575663
0.16787052 -0.11786769 -0.14480242 -0.1734837 0.040715877 -0.18967783 -0.023982031 0.122236125
-0.17254551 -0.045955285 0.06460413 -0.19507511 0.07055105 0.06545754 -0.021025484 0.064388
0.018648796 -0.1664702 0.0008763112 0.031026851 0.0044089137 -0.17385407 -0.15811941 -0.035602678

bias f4 [200]
00000000: ec69 11bd 2516 513c 4da3 c93c 2e7b 053c
00000010: 74c2 debc 5286 8c3b d421 94bb 0613 11bd
00000020: 3fb5 48bb ff64 11bd e470 dabc e852 193d
00000030: 732d bf3b f42c 58bb 60d7 2a3b a33d 0cbd
00000040: 3532 49bd 7cdb 10bd 44d5 77ba 02d7 e6bc
00000050: 5b24 633c 2d08 ef3c 645b 11bd fb4d bb3b
00000060: 6e6a 11bd c366 11bd 0397 813c 4099 18bd
00000070: e4b0 87bb a80f e73c c13e 8bba 3b9a eebb
00000080: 75d1 2dbd 5b3f 11bd 114b 84bc 1608 0bbd
00000090: 4e11 103d 88de 51bc 2e52 c13b 09ae f63c
000000a0: 08ec 3d3d 676e 11bd ff07 34bd 7ad0 c93c
000000b0: 43e2 10bd 4bca 27bd f90c b03b 7e4a 11bd
000000c0: 1a06 a43b 8dbc a83c 5781 1bbd 16fd 1b3d
000000d0: 08e2 11bd 1787 25bc 8271 213c 1268 d53c
000000e0: 5f67 11bd 643e 11bd 3866 11bd c151 67bb
000000f0: a9c8 a63c 38bd ba3c bc59 12bd 7440 283c
00000100: f9ba 95bc 995d 11bd 2266 11bd 7074 f23b
00000110: 137e 943c 268f 9fbc fb35 11bd 2cc3 6b3b
00000120: ec8b 52bc b927 12bd d64d 2a3d 586a 11bd
00000130: dcbc 14bd 8ef7 043c 63e5 10bd 5bc5 b4bb
00000140: fb4d 8fbc 020e 373c 4bdd 423d 4331 afbc
00000150: 8a8d aa3c 31c4 b83c 74ba f6ba 84ff bbbc
00000160: 3033 cc3c aa90 86bc 75f8 83bb 8f59 11bd
00000170: 587c 11bd 394e 153d 3c9e 11bd dea0 f63c
00000180: 2c86 0d3d d362 4e3c 20d5 12bd 0c00 563b
00000190: dda4 11bd 1db5 053d b558 10bd cee0 11bd
000001a0: a9ff 033c a467 11bd 5c6c 11bd 84c3 b1bc
000001b0: bb6b 11bd 3e51 eb3c 0eec b83c ae6b 13bd
000001c0: ec2d 4a3b 5193 12bd 363f ef3c 1aad 10bd
000001d0: 2381 053d 81be 11bd 62b4 80bc 9461 11bd
000001e0: c764 11bd 2434 0ebc 04f0 0ebd d64c 0fbd
000001f0: 8fb4 db3c 8200 11bd 6565 adbc 6a14 13bd
00000200: 9a4f 11bd 4666 11bd d895 15bb 3571 123d
00000210: 7cf8 f83a 7eae 83bb 9768 ee3c f311 103c
00000220: f0b9 11bd 6526 e9bc 5067 083d 5e1a 563b
00000230: f3df 04bd 97c8 11bd c02c c73b 0adb 10bd
00000240: 0156 77bc ddd4 46bd 3e55 11bd 0bee 473d
00000250: 9f17 00bd 9fe1 9cbc a2e5 11bd c7b8 ae3c
00000260: ed45 11bd 8f0e 11bd 35a3 f7bb eb91 17bd
00000270: 740d 0ebd 4eba 0fbd b434 11bd 77e6 3bbd
00000280: ec55 5a3d bb62 11bd 30ff 8c3b c028 fd3c
00000290: 4e85 0c3d 6201 6cbb dc30 ee3c eb7b 433d
000002a0: b228 b7bc 75d2 e23c da43 26bc 54db d73c
000002b0: 82c5 82bb ee2a 543c c902 95bc 5064 11bd
000002c0: 6b47 2fbc dbb4 373c df23 f23c 91cd 183b
000002d0: 2321 623c 114b 083d 081f 093d 213b 10bd
000002e0: 5a9c 10bd 99ae 4cbc 9aa1 a53c de28 fbbc
000002f0: f2a4 11bd 10bb 883c 9d18 7bbc 5e46 103d
00000300: b64e 8bbb b4a4 303d 7d9c d83c 6c78 11bd
00000310: 9edf 78bc 596f 503c 12d7 0fbd c1bd 8abc
-0.035501406 0.012761627 0.024614 0.008147044 -0.027192332 0.004288473 -0.004520634 -0.035418533
-0.003062561 -0.035496708 -0.026665159 0.03743258 0.0058342754 -0.0032985779 0.0026068315 -0.03423847
-0.049120147 -0.035365567 -0.00094540813 -0.028178696 0.013863648 0.029178703 -0.035487548 0.005716083
-0.03550189 -0.03549839 0.015819078 -0.037255526 -0.00414096 0.028205708 -0.001062356 -0.0072815693
-0.042436082 -0.03546081 -0.016149076 -0.03394326 0.035172753 -0.012809403 0.005899689 0.030112283
0.046367675 -0.03550568 -0.04395294 0.024635542 -0.03537203 -0.040964406 0.00537264 -0.035471432
0.00500561 0.02059772 -0.037965145 0.03808316 -0.03561595 -0.010103009 0.0098537225 0.026050601
-0.035498973 -0.03545989 -0.035497874 -0.0035296532 0.020359354 0.022795305 -0.03573011 0.010269273
-0.018277632 -0.035489652 -0.035497792 0.0073991343 0.018126523 -0.019477438 -0.03545187 0.0035974486
-0.012850743 -0.035682414 0.041578136 -0.035501808 -0.036312923 0.008115662 -0.03537501 -0.0055166907
-0.017493239 0.011172773 0.047574323 -0.021385795 0.020819444 0.022554489 -0.0018823878 -0.022948988
0.024926752 -0.016426403 -0.004027421 -0.0354858 -0.035518974 0.036451552 -0.035551295 0.030106004
0.034551784 0.012596804 -0.035847783 0.0032653837 -0.035557617 0.032643426 -0.035240848 -0.03561478
0.00805656 -0.03549923 -0.03550373 -0.021699674 -0.03550313 0.028725263 0.022573497 -0.035991363
0.0030850125 -0.035785023 0.029204946 -0.035321333 0.032593857 -0.03558207 -0.015711013 -0.03549345
-0.0354965 -0.0086794235 -0.034896865 -0.034985386 0.026819495 -0.035400875 -0.021166513 -0.03590814
-0.035476305 -0.035497926 -0.002282491 0.035752494 0.0018994953 -0.004018604 0.029102607 0.008793342
-0.035577714 -0.02846069 0.03330165 0.0032669525 -0.032440137 -0.035591688 0.0060783327 -0.035365142
-0.0150961885 -0.048542846 -0.035481684 0.048811 -0.031272527 -0.019150553 -0.035619386 0.021328343
-0.035467077 -0.035414275 -0.0075572976 -0.037004393 -0.0346808 -0.035089783 -0.035450652 -0.045874085
0.053304598 -0.035494547 0.0043028817 0.03090322 0.034306817 -0.0036011566 0.029076032 0.0477256
-0.022358272 0.027688244 -0.010148013 0.026349701 -0.00399083 0.012949688 -0.018189805 -0.035496056
-0.01069818 0.011212553 0.02955812 0.0023315887 0.013801846 0.033274714 0.03347686 -0.03521264
-0.03530536 -0.012492799 0.02021866 -0.030659135 -0.035557695 0.01669076 -0.0153256925 0.035223357
-0.0042513264 0.043125823 0.026441807 -0.035515234 -0.015190033 0.01272186 -0.035117216 -0.016936185

weight f4 [200, 200]
00000000: 488b a3bd bc98 d4bb 9aaf 283d 32ad 7b3d
00000010: 9db9 603d 3007 01be 61f8 9cbd 7f8b d03c
00000020: 5c7e 4bbc 8e11 953d fa64 763d c71b b3bd
00000030: 1bc1 afbd 0e2a 6ebd 0bf0 383b 0358 7abd
00000040: 2e6c 1d3e 6642 ddbd d68a 1ebe bdfe aabd
00000050: 9c5b 95bd 38e6 04be 702b 9bbd 2a5d acbd
00000060: e3e7 94bd 38a9 613a faf4 b03d de0f 543d
00000070: 4caa 393d 6e7e 1fbe 9a43 fb3b e5f5 49bd
00000080: 148c 613d ed08 833c 5fcc cbbd c317 5f3d
00000090: 293e 9dbd 4010 22bd 7351 ebbd 4415 a0bd
000000a0: 2e37 fb3b 8675 d1bd 1c54 81bd a56c c5bd
000000b0: 64e7 efbd e008 e53d de55 acbb 1df6 c3bd
000000c0: 659d 7dbd 82b7 87bc ab28 2f3d d028 e4bd
000000d0: e13f dd3d c50e 8ebd fa85 babd d0ca e4bd
000000e0: 2bd7 fbbd ab14 e7bd feb8 063e 7fe0 11be
000000f0: de07 3dbd 5fc2 fcbd 5f4c 063e a5f5 a13d
00000100: 08a1 82bd df21 ebbc 2d42 863d dd08 acbd
00000110: 5541 39bd 540c 59bc 2cb8 843d 64b6 e4bd
00000120: 708e fbbd 75f5 b9bd 62d3 85bd 5fb7 913d
00000130: 11dd 623d cbc7 e2bd 1b63 a23c ade1 cdbd
00000140: 48d4 38bd bfd5 ac3c 1cc5 a23d 647e febd
00000150: d638 063e 16ff 0abd 3c59 1fbe a2b7 acbd
00000160: 684a 52bd 62fd ac3d 6289 86bd af0a 08be
00000170: 2d39 d1bd d027 743d a005 f0b9 4780 ecbc
00000180: b72e 81bd 5cc6 edbd 0844 9ebd be6a af3d
00000190: 4d3d 6b3d 1cda 943b 7dbb debd 7cc1 9d3d
000001a0: 91ef a6bd 8c6f 10be 5afe 0d3d e33f b3bd
000001b0: 1197 bf3d 9e0d 9abd ae33 16bd 57ca 3b3d
000001c0: 4cd4 b4bd 44e8 e5bb 9355 8f3c db8a 4cbd
000001d0: f759 8ebd e6eb a1bd e09e a53c ba9f e7bd
000001e0: 2bc2 2a3d 668d c5bd baac 843d 2d8d 1fbc
000001f0: 29b6 81bd c85f c83d d6a2 503d 8371 03be
00000200: ab5f 3ebd 2d45 eebd ae5b 5a3b bdf8 85bd
00000210: 60fa 0abe 8e26 20bd 06d9 8a3d 89d3 ca3c
00000220: 37cd 17bd c4b1 14bd fa55 903d d474 e63b
00000230: e280 a4bd 98b8 153e 4b4f b33c 90e4 52bd
00000240: 5b7b 773b b14d 26bd 5153 863d 26d9 043d
00000250: 6b58 143b 09e1 2e3d 881b cabd 3044 9b3c
00000260: c186 21be 14c2 8a3d 66d1 a4bd 681a e23d
00000270: 5ded 60bd 783b a53d fde9 733d ecaf 49bb
00000280: 3ce9 b3bd 9382 4e3d 8d23 6dbc ddc3 89bc
00000290: 671f d4bd 27e9 ddbd aabd 0c3e 0873 01bd
000002a0: 484d bcbc 4adf 52bc 0a13 2ebd 53ba 583d
000002b0: ef16 1fbe 614a adbb bd66 08be bb07 afbd
000002c0: 76ce 2a3d e093 30bd 1542 153d 4930 313c
000002d0: 3350 1c3e 17bf a9bd d0a0 efbb 049f b0bd
000002e0: ece6 e7bd 4101 f23c 846c c3bd df86 0a3d
000002f0: 1758 ad3d 159f 95bd e232 dc3c 8008 abbd
00000300: 4f59 93bd f671 543d 3aa3 a83c 6534 c63c
00000310: fc60 cb3c aa0f bbbc 7f95 8fbd cdc4 7bbd
00000320: 0d56 1cbc 7fbc b9bd de7a f63b c1a1 78bd
00000330: 33bf 74bd f96a 543d 904b c83a 273a bc3d
00000340: 0690 4f3d a23a 7fbd 3035 aebd fdb9 013e
00000350: 76fd 0b3e 6390 82bd 1832 dc3c 3422 9cbd
00000360: 2440 e1bd c8fa bdbd d84f b7bc b9fe a83d
00000370: 5a0d 5cbc b924 64bc 2ac0 f5bc 0339 b2bd
00000380: d27f cb3c 7234 abbc 66ac de3d a20a 383d
00000390: 4ed6 9a3d 1322 0ebc 2aa1 453d fd9e c73d
000003a0: 103c 4a3a 553e 903c a71c 08be c220 593d
000003b0: 0cb5 66bc 6a1c ab3d aafc 1f3d 9d70 d03d
000003c0: c071 23bd 4fc6 763d 3176 d73d e0c1 e83d
000003d0: 5782 0e3e f1fb d9bc bcff 8c3d 2d0d f0bc
000003e0: bf1b 88bd 7b9e 22bd 83e3 d43c c41c 003e
000003f0: c485 63bd f9c5 bdbd 084d 173e b8fa 3e3d
-0.0798555 -0.006487934 0.04118309 0.06144447 0.054864515 -0.12600398 -0.07664562 0.025457142
-0.012420263 0.07278739 0.060154893 -0.087455325 -0.08581754 -0.058145575 0.0028219249 -0.06111909
0.15373299 -0.1080368 -0.15482649 -0.08349369 -0.07292864 -0.12978446 -0.075766444 -0.08416207
-0.072707914 0.00086082844 0.086404756 0.051772945 0.045328423 -0.15575573 0.007667971 -0.04930677
0.05506523 0.015995467 -0.0995109 0.05446602 -0.07677872 -0.03956628 -0.114901446 -0.07816556
0.00766649 -0.10227494 -0.06314871 -0.09639863 -0.11714056 0.111833334 -0.0052592596 -0.09568427
-0.06191768 -0.016566996 0.042763393 -0.11140597 0.108031996 -0.06936411 -0.09107585 -0.11171496
-0.122968994 -0.11283239 0.13156506 -0.14245795 -0.04615008 -0.12341761 0.13115071 0.07908181
-0.063783705 -0.028702674 0.06555591 -0.08400128 -0.04522832 -0.013247568 0.064804405 -0.11167601
-0.12283027 -0.0908002 -0.06534459 0.071150534 0.055386607 -0.11073264 0.019822648 -0.1005281
-0.045124322 0.021098016 0.07947752 -0.12426451 0.13107619 -0.033934675 -0.15561384 -0.08433463
-0.05134049 0.084467664 -0.065691724 -0.13285325 -0.102159835 0.05960828 -0.00045780558 -0.028869761
-0.06307738 -0.116101 -0.0772782 0.08565281 0.057431508 0.004542602 -0.10875604 0.0770292
-0.081511624 -0.14105052 0.034666397 -0.0875242 0.093549855 -0.075221285 -0.03667038 0.045847263
-0.08829555 -0.0070162136 0.01749686 -0.04993711 -0.06950753 -0.07906322 0.020217359 -0.11309762
0.04168908 -0.0964611 0.064782575 -0.009738249 -0.063335724 0.09783894 0.050936542 -0.1283627
-0.046477955 -0.11634288 0.0033318806 -0.06541584 -0.13572073 -0.03909927 0.06779675 0.024759071
-0.037060943 -0.036302343 0.07047649 0.00703297 -0.08032395 0.14621198 0.021888396 -0.051487505
0.0037762735 -0.040601436 0.0655886 0.03243365 0.002263571 0.04269508 -0.098685324 0.018953413
-0.15774061 0.06775299 -0.08047752 0.11040193 -0.054913867 0.080679834 0.05954932 -0.0030775024
-0.0878472 0.050417494 -0.014473808 -0.016817028 -0.10357552 -0.10835486 0.13744226 -0.031603843
-0.02298607 -0.012870619 -0.042498626 0.052912068 -0.15536092 -0.0052884077 -0.13320442 -0.08546396
0.041700803 -0.043109775 0.036439974 0.010814735 0.15264969 -0.082884006 -0.0073128715 -0.0862408
-0.11323342 0.029541614 -0.09542182 0.03382003 0.084640674 -0.07305733 0.026879732 -0.083512306
-0.07194769 0.051866494 0.020585645 0.024194906 0.02482652 -0.022834618 -0.07010936 -0.06146698
-0.0095420005 -0.09069156 0.007521971 -0.060701136 -0.059752654 0.05185983 0.0015281308 0.09190779
0.05067446 -0.062311776 -0.085062385 0.12668605 0.13670906 -0.06375196 0.026879355 -0.07623711
-0.10998562 -0.09276348 -0.02237694 0.082517095 -0.013430918 -0.013924771 -0.029998858 -0.0870228
0.024841223 -0.020899031 0.10872726 0.044932015 0.075604066 -0.008675116 0.0482494 0.097471215
0.00077146385 0.017607847 -0.1329218 0.053009756 -0.014081251 0.08355029 0.03905932 0.10177729
-0.039903402 0.060247716 0.1052059 0.11365104 0.13916908 -0.026609393 0.06884715 -0.029303158
-0.06645917 -0.03970192 0.025987392 0.12510973 -0.05554749 -0.09266276 0.14775479 0.046625823

bias f4 [200]
00000000: a9fe 083d 8441 073d 627e 973b 1dd3 163d
00000010: 6266 11bd 15dc 043d b578 11bd 3647 0fbd
00000020: be57 03bc 92da 66bc 8d6b 55bd 0671 4a3c
00000030: 3b33 1dbd f5db b43b c5ef f93c 5bda 0fbd
00000040: cc88 c13a 41d8 b73c 3224 4ebd bb34 6bba
00000050: 6ad3 4cbc f837 04bd 1227 cb3c 3b67 11bd
00000060: 0e83 cd3c 2150 9e3c 2505 423b 336e 28bd
00000070: abf0 0cbd c3fe 453c 6867 11bd 08c4 6e3d
00000080: eeb9 11bd e9f0 173d 476c 993c dc69 0f3c
00000090: 6267 11bd 6066 11bd 824b 1b3d 1243 31bd
000000a0: c248 6c3c acf2 893c 2bb0 ce3b 8469 11bd
000000b0: 594b 11bd ce68 11bd 783f 28bd f3e3 d23c
000000c0: 7276 11bd b244 893c ae53 ab3c 8735 9a3c
000000d0: b276 a43a a460 40bd 6467 11bd f681 683c
000000e0: 7244 11bd 2edc 6c3d e0fe 313d 365e 453d
000000f0: a886 11bd a708 12bc d237 bfbc 88f8 07bd
00000100: 2f7f fa3c 4463 11bd ad50 11bd 6790 1f3d
00000110: ea2a b83b 113b 4b3c 6c9a 113c d572 a23c
00000120: 009c 96bc 7c95 ac3c 308c ae3c f3b8 5abc
00000130: b2cf ed3c b6b2 dd3c 9fcd 11bd dcc7 113d
00000140: b80b 543b 6262 11bd d725 813b bf78 11bd
00000150: ec74 25bd f437 f13a 6092 9cbc 5567 11bd
00000160: 1d9d 05bc db65 11bd 11c9 10bd 7263 11bd
00000170: 8858 0f3d 2d86 14bd cd7c 01bd fafc 1cbd
00000180: 31b0 913c 0546 c03c 9627 13bd 3137 e03b
00000190: 7f79 8cbc 24fb efbc 022a ab3c dd0c 14bd
000001a0: 6eea 52bd ea03 3dbd b74f 2ebd 396f 10bd
000001b0: 3667 11bd 2779 12bd 2e67 11bd 8e8a 1c3d
000001c0: 13f5 173b d966 11bd 0c6b 11bd 7e21 e43c
000001d0: 4bbb 30bd 2640 80bc dcd5 35bc e736 92bc
000001e0: 1770 11bd 5ba3 bfbc d2a0 063c 93ad 323d
000001f0: 0529 11bd dbb6 85bb def6 0fbd 84cc 37bd
00000200: 57fe 10bd a126 1fbc 1c9d 7abc dd78 8cbc
00000210: d294 e4bb 7e72 173d 84d0 2fbd e8ba 3dbd
00000220: e8fe 0b3d 5cc6 79bc 7969 eabb e5cb 64bd
00000230: 2869 11bd 8eeb 9a3c 2e42 d7bb 3da6 0e3d
00000240: b021 813c dd12 dc3b 20dd 1fbc a89c 8fbb
00000250: 2344 75bc ad3a a7bb e93a 953c d0aa 3bba
00000260: c00a 583d e077 6aba ea99 bd3c dc6f 1abc
00000270: a2ca ce3c a09c 28bc d26a 11bd 89e9 813c
00000280: ec9d 08ba df2f 2cbd 1219 e23c caf1 f1bc
00000290: 4c61 15bd 2617 f9bc 9e1b 13bd f3b0 b83b
000002a0: 3af6 13bc 0a28 30bd def5 d4bc aa6a 11bd
000002b0: 8850 413c 9318 aa3c d771 c8bc a2fe c13c
000002c0: 5767 11bd 7ede 10bd 7e4e be3b 586a 11bd
000002d0: 3400 02bd 8a73 11bd b674 fa3b 2823 dc3c
000002e0: 4c1e 1c3d 6a50 10bd 0dbb 6a3c 3e7b 11bd
000002f0: c5f3 363d 6202 a9bb 1c62 13bd 7f92 11bd
00000300: d466 11bd d00a b6bb 2cc1 1fbd 4a05 4d3d
00000310: d098 2c3d 50be 2cbd 2867 11bd 34b4 203c
0.033445988 0.033021465 0.0046232203 0.036822427 -0.03549803 0.03243645 -0.035515506 -0.03498002
-0.008016525 -0.014090197 -0.05210452 0.012356048 -0.038378935 0.005519385 0.030509839 -0.03512035
0.00147655 0.022441985 -0.050327487 -0.0008972396 -0.012501577 -0.03227994 0.024798904 -0.03549884
0.025086906 0.019325318 0.0029605117 -0.04112072 -0.034409206 0.012084666 -0.035499007 0.05829242
-0.035577707 0.037094984 0.018728388 0.008753266 -0.035498984 -0.035498023 0.037913807 -0.043276854
0.014421644 0.016839348 0.006307622 -0.03550102 -0.035472248 -0.03550034 -0.041076154 0.02574346
-0.03551335 0.01675639 0.020913925 0.018824352 0.0012547581 -0.046967164 -0.03549899 0.014191141
-0.035465665 0.057827167 0.04345596 0.04818555 -0.03552881 -0.008913196 -0.023342047 -0.033196002
0.030578224 -0.035495058 -0.03547733 0.038956072 0.00562035 0.012404219 0.008886915 0.019830147
-0.018384933 0.021067373 0.021307081 -0.013349759 0.0290297 0.027062755 -0.035596486 0.03559099
0.0032355618 -0.035494216 0.0039412784 -0.035515543 -0.04039471 0.0018403516 -0.019112766 -0.035498936
-0.0081551345 -0.035497528 -0.035348002 -0.03549523 0.03499654 -0.036260772 -0.03161316 -0.038327195
0.01778421 0.023470888 -0.035926424 0.006842517 -0.017147778 -0.029294558 0.020894054 -0.03614508
-0.0514931 -0.04614631 -0.04255649 -0.03526232 -0.03549882 -0.03576007 -0.03549879 0.038218074
0.0023186847 -0.035498474 -0.03550248 0.027848002 -0.043147366 -0.015655588 -0.011098351 -0.017848445
-0.035507288 -0.023393324 0.0082170535 0.043622565 -0.03543951 -0.004080636 -0.03514754 -0.044872776
-0.035398807 -0.0097138 -0.015296247 -0.017147476 -0.0069757486 0.036974423 -0.042923465 -0.046320826
0.034178644 -0.0152450465 -0.0071536866 -0.05585851 -0.035500675 0.01891115 -0.0065691685 0.034826506
0.015763134 0.006716116 -0.00975731 -0.0043826886 -0.014969858 -0.0051034302 0.018216567 -0.0007158937
0.052744627 -0.00089442544 0.023144681 -0.009426083 0.025243107 -0.010291249 -0.035502262 0.015858429
-0.00052115205 -0.04203784 0.027599845 -0.02953424 -0.036469743 -0.030406546 -0.03591501 0.0056363284
-0.009030873 -0.043006934 -0.025996145 -0.035502113 0.011798985 0.020763671 -0.024468346 0.023680989
-0.035498943 -0.035368435 0.005807697 -0.035501808 -0.031738475 -0.035510577 0.0076433076 0.026872233
0.03811483 -0.03523294 0.014326823 -0.035517924 0.04466607 -0.0051577548 -0.035982236 -0.0355401
-0.035498455 -0.005555488 -0.039002582 0.050053872 0.04213792 -0.042173684 -0.035498768 0.009808589

weight f4 [200, 200]
00000000: ec32 4dba f62a 2bbd 04bd 283e 3fb3 ffbd
00000010: 5661 0ebe 464c 90bd ebef af3d b033 ee3d
00000020: 81b8 b43d 3f2c 95bd 9314 22bc 9eee 373d
00000030: 0460 d03d d16d c53d 140d 64bb f9cf 4a3d
00000040: 8b2a 10bd 6779 993d 2fce d43d 4faf a9bd
00000050: 1bde bdbd b805 153e 5d2b 41bd 50db b2bc
00000060: c84a 5cbd 43a9 de3d 7de7 173e 7b99 fc3d
00000070: aca8 9d3d cfd8 923d 18b3 e33a f9a8 8b3d
00000080: 0940 a73d ddf9 3bbd 8129 c1bd 2cd7 73bd
00000090: 97d9 00bd 9950 bfbd 4712 173e b61f eabc
000000a0: 9632 6d3b 3802 c23d 1907 86bd a679 ee3c
000000b0: f7ed a43d 2c99 c13d d6cb 6ebd 67bc 48bd
000000c0: 3523 bbbd d59a f63d d03e d1bc 6ff0 a5bc
000000d0: 4951 f13d ee4c e93d 6e86 afbc 3f42 55bd
000000e0: 570f cbbc beb9 033e ec78 a1bd 9639 e4bd
000000f0: 82f4 5e3d ce69 fe3c dfa0 9a3c 64d3 7abd
00000100: 4b58 713d d050 ccbd 8332 393d 8b6b 4c3d
00000110: e67c e23c 93f0 cebd 2811 a8bd 842a d23c
00000120: 873a 1e3e bcb2 aa3d 7875 c13d 6766 6d3d
00000130: 2acb 7ebd d9a1 57bd 7784 9abd 3b48 8d3d
00000140: a229 ebbd 7537 cdbc 90d7 863d e890 bf3c
00000150: 42f6 03bd 4bc0 db3d dabe 7d3d 18c8 9cbb
00000160: 18cb e53d c738 18bd dd8f ebbd 86f7 25bd
00000170: 252d 213e 974a 2a3e 4c8a 78bd 00d3 aebd
00000180: 268a 023e de47 e0bd 0e94 993b 9d89 47bd
00000190: eaea 43bd f15a f73d a269 443d c27b 37bd
000001a0: f6a3 543c 2810 2bbd 6cd8 0e3d 0a9e 44bd
000001b0: ffde 9c3d 2588 da3d 1722 6dbd d227 aa3d
000001c0: 26fd 8f3d c703 62bd 80b9 9a3d 79ac 0e3e
000001d0: 3125 113e 61ca 9f3d afda 423d 5a20 003e
000001e0: 6074 1bbc 680b 0e3d 8be8 97bd 8355 20bd
000001f0: 7672 e7bd b85b 4cbd dc03 28bd 5a3f 90bd
00000200: 8ace 4f3d d56b f93d 7722 14bc 2151 a43d
00000210: 3721 613d 942a 563d 1836 623c 3d75 b13d
00000220: 9665 843d bc8c c7bd 7d31 d6bd 54cb 8abc
00000230: 8f38 70bb 9912 c63d 492d 98bd 24a9 63bd
00000240: b92e f33d dbc6 77bd 3cc5 8c3b 9be3 38bd
00000250: 8b9a 7abd 4c00 9cbd 038c fabc 40f8 833b
00000260: 4be0 ae3d 9fba b83d a8c2 393d 9a0f a6bd
00000270: b799 a33d 782c c1bd 375e e7bc 38e6 80bd
00000280: be69 9e3d 3b05 0a3e 1a78 703d f6e5 c43b
00000290: 6377 b33d 3289 6f3d c854 e23c 06fa 0d3e
000002a0: d6db b8bd d68f cfbc 2a62 c93d 9535 023e
000002b0: e0cd ea3d 336a 1b3e 1780 64bd 2f23 8abc
000002c0: 92ed babd c816 0cbe 2429 073d 559a 6abd
000002d0: 73c6 d73d 73bb 2c3d df82 243e f1af a7bd
000002e0: d6a6 83bd 76b3 fbbd b69e 8dbd 54e1 2e3d
000002f0: ec7e 043d a01b c4bd 1f82 e63d 0e42 48bd
00000300: 1155 d6bd 7fab 813d 4408 2a3d 9728 be3d
00000310: 340b 09be 6922 173e da8f 053e b16b 963d
00000320: c3d9 f23d 60fd 583d 740f ed3d 8abc 01be
00000330: c81f 5a3d 3cdf 77bd 8b17 813d 8ba4 59bd
00000340: a6bc 55bc f5a6 9abd 0e22 a33d fc88 483b
00000350: 7aee 883c 3192 ab3d 03d4 cc3d 08d0 613d
00000360: ce3c bebc 10a8 d83d 54bb c13d 58d4 a13d
00000370: 3722 d8bc 3a13 823d aeab e43c c27d 553c
00000380: d124 303d 957c f43d fe29 5f3d b222 ff3b
00000390: 39c1 283b 32fe 7d3d cb7b 813c 3168 023e
000003a0: ebb3 6abd 4a15 afbd ae92 28bc 49e8 973d
000003b0: eca1 ab3c 5ae9 58bd 3ba7 b03d dcf8 853d
000003c0: 5f3a 353e 5f48 203d 63a0 f43c 870a 0fbb
000003d0: 6768 083e 16f8 f13b 2eb8 9f3d 6c3f 96bd
000003e0: 69c1 1f3c 8639 e63d be91 d0bb 80db 6abd
000003f0: a4f5 1b3e ec15 72bd 8100 7bbd 4399 093e
-0.00078277173 -0.041789018 0.16478354 -0.1248536 -0.13904318 -0.07045798 0.085906826 0.11630952
0.08824254 -0.0728383 -0.009892601 0.044905297 0.101745635 0.096400864 -0.0034797834 0.049514744
-0.035196822 0.07493859 0.10390889 -0.082853906 -0.09270879 0.14552963 -0.047160495 -0.021833092
-0.053782254 0.10872128 0.148344 0.123339616 0.07698187 0.07170259 0.00173721 0.06819338
0.081665106 -0.045892585 -0.09431744 -0.059531376 -0.03145751 -0.09341545 0.14753066 -0.028579574
0.0036193482 0.094730794 -0.065443225 0.02911074 0.08053201 0.09453043 -0.05829986 -0.0490078
-0.091375746 0.120412506 -0.025542647 -0.02025625 0.11783082 0.11391626 -0.021426406 -0.05206513
-0.024787588 0.12863824 -0.07884392 -0.11143796 0.0544324 0.031056311 0.018875537 -0.061236754
0.058922093 -0.09976351 0.045214187 0.04990725 0.027647447 -0.1010448 -0.08206397 0.025655039
0.15452014 0.08334872 0.094462335 0.057958987 -0.06220547 -0.052644584 -0.07544797 0.068985425
-0.1148255 -0.025050858 0.06584084 0.023384526 -0.03221727 0.10730036 0.06194959 -0.004784595
0.11220378 -0.037163522 -0.11502049 -0.04051926 0.15739878 0.16630016 -0.060678765 -0.08536339
0.12748012 -0.109512076 0.004686839 -0.048715223 -0.047831453 0.120778926 0.0479523 -0.04479576
0.012978544 -0.041763455 0.034874365 -0.04800228 0.07659721 0.10670499 -0.05789384 0.08308376
0.07030706 -0.055179384 0.075549126 0.1393298 0.14174344 0.078022726 0.047571834 0.12512341
-0.009488195 0.034678847 -0.07417401 -0.03914405 -0.113011286 -0.049892157 -0.041019306 -0.07043333
0.05073408 0.121787705 -0.00904142 0.080232866 0.054963317 0.0522867 0.013806842 0.086649396
0.064646885 -0.0974364 -0.10458658 -0.016942658 -0.0036654805 0.09671516 -0.074305125 -0.055581227
0.11874146 -0.060492378 0.004295973 -0.045138936 -0.06118254 -0.07617244 -0.03058434 0.0040273964
0.08538874 0.0901997 0.045351654 -0.081084445 0.07988303 -0.0943231 -0.028243167 -0.06293911
0.077350125 0.13478558 0.058708288 0.006008859 0.087630056 0.05848045 0.027628317 0.13864908
-0.090263054 -0.025337141 0.098331764 0.12715752 0.11465049 0.1517723 -0.05578622 -0.01686248
-0.09127344 -0.13680565 0.03299822 -0.05727609 0.10535898 0.042170953 0.16065548 -0.08187855
-0.06428306 -0.12290089 -0.06915037 0.04269536 0.032347605 -0.095755816 0.112552874 -0.04889112
-0.10465444 0.063315384 0.04151179 0.09285086 -0.1338318 0.1475922 0.13043156 0.07344759
0.11857941 0.052976012 0.11575213 -0.12669578 0.053252965 -0.060515627 0.063033186 -0.053135436
-0.013045466 -0.07551376 0.0796548 0.0030599227 0.016715277 0.08377493 0.100013755 0.055130035
-0.023222353 0.105789304 0.09459558 0.079018295 -0.026383502 0.063513234 0.027913895 0.013030471
0.04300386 0.11937825 0.054483406 0.0077861184 0.0025749935 0.062009998 0.0158061 0.12735058
-0.05730049 -0.085489824 -0.010288877 0.07417352 0.020951234 -0.052956916 0.08625647 0.06541607
0.17698048 0.03913152 0.029861635 -0.0021826343 0.13321076 0.0073843105 0.07798801 -0.073363155
0.009750702 0.112414405 -0.00636503 -0.057338238 0.15230423 -0.059102938 -0.061279777 0.13437371

bias f4 [200]
00000000: f4af 03bc 81fa 46bc 1473 b43b 95e6 0fbd
00000010: e378 a2bc 88a4 3abb 00ed 31b8 d2e1 503b
00000020: 224c 2ebd 0cf7 88bc 2439 083d 742b 833c
00000030: f9d0 853c 705d 11bd a9a0 d93c a8fc 2b3b
00000040: 02c5 a33b 29af 33bb 3e60 ec3c 29e1 e03c
00000050: 1bd8 eebc 6167 11bd 059c 0cbd 6bd1 0d3d
00000060: a1a8 a93b a8be 0c3c 3a2f 24bd 6460 11bd
00000070: 20b6 df3c 8ee9 053d 4445 be3c dc2c e13c
00000080: 6167 11bd ea6e 523b ebf6 213c 7959 cfbc
00000090: 8383 f1bb feaa 11bb 7874 04bd cce1 c5bc
000000a0: 82a6 723b f79a 3fbc 5054 2cbc 8c07 77bc
000000b0: c628 73bb dc04 663c b42f 703c 6866 11bd
000000c0: b2fe e93c a476 863c 4af2 8c3c 8662 11bd
000000d0: 0ca4 053c 71c6 8f3c 6c23 50bb 0421 03bd
000000e0: 5065 11bd 1d67 11bd 8bf0 cebc 35e9 0cbd
000000f0: 4a67 11bd 151c 413c 4079 d63b 1a2d f63c
00000100: abd4 10bd 00c6 ddbc 268b 4d3c 53f0 17bd
00000110: 5720 ba3c 3a9f 6e3b 17d7 cfbc 425f dc3c
00000120: 560b 813c 586a c6bc da8f 42bb 67d3 063c
00000130: c55b 11bd 4b67 11bd f0f6 69bd 267e b73b
00000140: 583d 11bd 5db2 04bd 7000 12bd ea98 113c
00000150: d727 11bd 5411 193b 0880 0abc c66c 55bb
00000160: 5b67 11bd 4132 8fbc 2c64 11bd edf8 e8bc
00000170: 5e35 963c 20ba b8bb f7f6 cc3c 4157 2b3c
00000180: 462f 1ebd af1d 11bd 1cf3 75bc bb65 11bd
00000190: 0380 c6bc b369 bfbc 56d0 c9bc 475b 973c
000001a0: e048 e5ba c636 d83c e226 8b3b 5a54 11bd
000001b0: c14e 383c 6d65 dcbc a027 0dbc 5767 11bd
000001c0: de77 043c c0c2 dc3b e4db f43c bd25 553c
000001d0: 1554 d53b 54f8 ddbc f4ec 25bc 6634 0cbc
000001e0: 127a edbc 008f 20bc b813 07bd 81ff a8bc
000001f0: 54dd 08ba 9b94 00bd 38a5 90bc 2eea ee3c
00000200: 1fcc 47bc d766 11bd c635 283d 4f67 11bd
00000210: c366 11bd c6d4 c53c d263 f2bc 4dbe 0fbd
00000220: d856 11bd 0767 11bd ba36 18bd 80fc 3b3c
00000230: e4f9 9dbb 9acd a1bc a89b 82bb 9c0d 11bd
00000240: 9ac8 853c 6c65 11bd 0653 163d e2b4 983c
00000250: 5b6b e43b 85c8 02bb 6d56 8b3c 50b8 7a3b
00000260: 3698 fdbc ff3a 11bd fa27 803c 6c28 f0bc
00000270: 3e5b b33c e593 8ebc 078f 12bd 4457 e73c
00000280: 78cd b63c 0cd1 623c 865e 8c3b c7e0 9dbc
00000290: 14b6 993c 00f1 5a3b 6afb cb3c ca6d 4f3c
000002a0: 9961 11bd 6b46 ecbc 1cfb de3a 4b87 1e3d
000002b0: e4e5 e0bc 9ae4 1bbc 23b2 0e3d 048f 77bd
000002c0: aca0 10bd 1077 00bd 5d38 08bd a664 2cbc
000002d0: 8941 11bd 32f6 513b 8686 8a3c bbde d1bc
000002e0: b006 12b9 4367 11bd 0466 11bd b545 363b
000002f0: 80c9 813a a051 a03a e80c 9fbb 2ebe ef3a
00000300: c991 f3bc ee66 11bd 3270 10bd 1f5d 11bd
00000310: 78da 50bb b05c 11bd 8794 f23c 48d9 16bd
-0.008037556 -0.012144686 0.0055068824 -0.03513201 -0.019833034 -0.0028479416 -4.2420812e-05 0.003187288
-0.042553075 -0.016719364 0.03325762 0.016011931 0.016334997 -0.0354895 0.026565867 0.0026243124
0.0049978504 -0.0027417636 0.028854486 0.027451115 -0.029155781 -0.03549898 -0.03432848 0.034623545
0.005177573 0.008590378 -0.0400841 -0.035492316 0.027308524 0.03269344 0.023226388 0.02748721
-0.03549898 0.0032109567 0.00988553 -0.025311219 -0.0073704137 -0.0022227163 -0.032337636 -0.02415552
0.0037025516 -0.011694661 -0.010518149 -0.015077483 -0.003710316 0.0140392445 0.014659811 -0.035498053
0.028563831 0.016413994 0.017205376 -0.03549435 0.008156788 0.017550679 -0.0031759394 -0.032013908
-0.03549701 -0.035498727 -0.025261184 -0.03440209 -0.035498895 0.01178648 0.006545216 0.030050803
-0.035359066 -0.027071953 0.012545383 -0.037094425 0.022720499 0.0036410824 -0.025371118 0.026900891
0.015752476 -0.02422063 -0.0029687793 0.008229113 -0.03548791 -0.0354989 -0.057120264 0.005599755
-0.035458893 -0.032396663 -0.03564495 0.008886555 -0.035438385 0.0023356276 -0.008453377 -0.0032566055
-0.035498958 -0.017480018 -0.035495922 -0.02843901 0.018335994 -0.005637422 0.025020106 0.010457815
-0.038619302 -0.0354287 -0.015011575 -0.03549741 -0.024230963 -0.023365831 -0.024635475 0.018476142
-0.0017493032 0.026393306 0.0042465786 -0.035480835 0.011249245 -0.026903832 -0.008615404 -0.035498943
0.008085219 0.006737083 0.029890008 0.013009486 0.0065102675 -0.027095951 -0.010127295 -0.008557415
-0.028988872 -0.009799719 -0.03297779 -0.020629646 -0.0005220969 -0.03139172 -0.017656907 0.0291644
-0.012194662 -0.035498466 0.041066907 -0.035498913 -0.03549839 0.02414931 -0.029588614 -0.035093594
-0.03548321 -0.035498645 -0.037161566 0.011473775 -0.004821049 -0.019751359 -0.003985841 -0.03541337
0.016331006 -0.035497114 0.03670027 0.01864094 0.0069708056 -0.0019955945 0.017008984 0.0038256831
-0.030956369 -0.035456654 0.015644062 -0.02931615 0.021894094 -0.017404506 -0.035780933 0.028239854
0.022314772 0.013843786 0.004283729 -0.019272221 0.01876358 0.0033407807 0.024900157 0.012660453
-0.035493467 -0.028842172 0.0017012092 0.038703244 -0.02745337 -0.009514952 0.034837853 -0.060439125
-0.03530948 -0.031363547 -0.033256877 -0.010522043 -0.03546289 0.0032037613 0.016909849 -0.025618901
-0.00013926136 -0.03549887 -0.03549768 0.0027812545 0.0009901971 0.0012231357 -0.0048538335 0.0018290931
-0.029732602 -0.035498552 -0.035263248 -0.035489198 -0.0031868499 -0.035488784 0.029611839 -0.03682831

weight f4 [200, 200]
00000000: cd97 393c 0962 1dbc 3353 d7bb f47b 40bd
00000010: 427f 903c f01d 0dbe e967 35bc 301b c93d
00000020: 643c 993d 6d81 cabd af57 673d 0a2f 503d
00000030: d847 003e 3632 55bd ab68 a3bd 4d0f 76bd
00000040: 341a 193d 0aa1 b13d fc88 093d b4c9 c6bd
00000050: 479d 24bd af3e c63d fdb7 b6ba a15c ce3c
00000060: 5430 b23c 6629 443c d139 cf3c 645a 433d
00000070: 6f2d 033e 5b33 e7bd 7b5b a43d 3cbb 7f3d
00000080: 256a 55bc def6 89bd 167c 80bc af0d 0ebe
00000090: 4a49 913b 139a 173e 4cb0 02bd 8762 cd3d
000000a0: 180a 963d f973 57bd a93a dfbd 0478 e73b
000000b0: ae90 8cbd 0284 45bd c17d 92bd b9d9 a83d
000000c0: 464b 103e c4d7 94bd 5d45 d03d bae6 6d3d
000000d0: 5f34 823d 4e05 d13c 99ca 79bd 7c36 003e
000000e0: d85c 8abd e17c 073d 95f9 3abc 4eae b3bc
000000f0: bc4c 1c3e 59c8 edbd 5637 14bd 22f9 ea3d
00000100: bd49 b83d e66d 263d a8fd 95bc 70ee 9abd
00000110: 8b62 fcbd ab93 edbd fc82 5f3c f997 4d3d
00000120: 80ab d2b9 40c6 d1bd 664d 4abd daad afbc
00000130: e983 673d b82d 7cbd 60cb f3bb 7a85 40bd
00000140: 3715 93bd 1f2a b13d 7f01 033d 05ab 263d
00000150: d011 71bd 68fc c03c 2c93 9bbd e740 6fbd
00000160: b4e5 783d 9cd1 99bd f446 5cbd 1a50 01bd
00000170: cad3 ed3d 523f 92bd 2682 f83a 46d6 92bd
00000180: 0792 6b3d 623e b13c bea2 9dbc 2f95 88bd
00000190: e2a7 e53b d2dc f9bd e286 d8bd 043f 943c
000001a0: 449f 05be 83d1 70bc c78e d5bc 496a b1bc
000001b0: 5b6d 123e 5623 c43d 6211 e4bc f143 44bd
000001c0: 986c 463d d337 88bd 720d 963d 20f5 423d
000001d0: 3709 ae3d f84a 1bbd 9992 9c3d e1f6 883d
000001e0: 9a26 bc3c 25e5 abbd b4c9 5bbd 281a 623a
000001f0: ca22 023e e005 c3bd 8898 f2b9 e79f f6bc
00000200: d1f4 0ebd 67f2 d2bd 9c6e 973d 663f 2a3d
00000210: a8a9 993d 6e99 e63c 36f6 d3bd e8b8 56bd
00000220: 860a 85bd f510 0ebe 9240 803c 8e9e eabd
00000230: 8a39 77bc cc40 9abd 6c70 263c 7037 383c
00000240: 7a8f 843a 5cf2 853c 225a 81bd fb74 b0bd
00000250: 2a1c 613b a2ea 6dbc ce66 773c 262f 8fbd
00000260: 74a4 a83d 28d6 65bc be72 aebd 0578 8f3c
00000270: f1a5 ab3d 077f 65bd a02a 943d 845d a9bd
00000280: bc98 0ebe 965e b03c ca0b 3d3d 49ca 953d
00000290: 19ae c5bd d1c0 963d fb51 5e3d a9f1 98bd
000002a0: 731a e7bd 2535 e2bd 1a81 6ebc bc7b 983d
000002b0: ac34 6aba b9f4 e2bd f87e 9abd 99be 05be
000002c0: 75f0 c7bc 2122 d1bc 307c 3c3c db01 3fbd
000002d0: 3883 b1bb 0816 d0ba 2e59 c5bc ca0a a53d
000002e0: 064c 0b3c 2492 bf3d 6870 483d 3e14 4dbd
000002f0: c92a 80bd 4572 09bd 1aff dc3c ecae a33d
00000300: 9c8e a0bd 731e 6d3d a44b cf3d 4c73 053c
00000310: 6809 b73d 40e9 c23c 0c1f 2dbc 0875 aa3d
00000320: b879 76bd 06cd 4fbd 2545 a7bd c2c0 a33d
00000330: d62d 5bbc dfff b4bd 557c acbc c8aa 943d
00000340: 5d16 fbbd 7418 c2bd 772a 2c3e fd05 debd
00000350: 6859 7dbc a8e8 c6bd 0289 97bc 67dc 823d
00000360: 6dce 38bd c223 b2bc bee9 903d ba05 87bd
00000370: 9ccb ccbb dca6 a53d 1419 283b 5824 323d
00000380: eed9 d4bd 9646 fb3b f4fd 7dbd 81ac febc
00000390: 6183 353d 3820 c73d e04b 0a3c 258a 12be
000003a0: 359b bfbc 5a38 0ebe 1639 49bd aab3 d53c
000003b0: 015b dfbc 1aef 28bd b83d 89bb 1c7b 103e
000003c0: ad52 6bbd 4283 ffbd 2735 06be 5ff5 87bd
000003d0: b6ca 643c 8984 173e 220e c73c 3316 c33d
000003e0: 2618 8fbd 3ab4 513c 0495 0fbe 2a00 6e3d
000003f0: de0d a9bd 4b78 d23d f303 f33d 6754 833d
0.011327696 -0.009605893 -0.0065711974 -0.04699321 0.017638806 -0.13780951 -0.011072137 0.09819639
0.07482222 -0.09887967 0.056480106 0.05082611 0.12527406 -0.052049838 -0.07978948 -0.060073186
0.037378505 0.08673294 0.033577904 -0.097064406 -0.040189054 0.09679925 -0.0013940331 0.025190653
0.02175156 0.011972761 0.025296124 0.047693625 0.128103 -0.11289092 0.08025261 0.06243442
-0.013025795 -0.06736539 -0.015684169 -0.13872407 0.0044337856 0.14804868 -0.03190641 0.10028558
0.07326144 -0.052600835 -0.108998604 0.0070638675 -0.06863533 -0.048221596 -0.07152892 0.08244652
0.14091215 -0.072677165 0.1016948 0.058081366 0.06357645 0.025515225 -0.060984228 0.12520784
-0.0675599 0.03307808 -0.011412044 -0.0219337 0.15263647 -0.11610479 -0.036185585 0.114732996
0.089984395 0.04063215 -0.01830943 -0.075650096 -0.12323483 -0.11600431 0.013642069 0.05019376
-0.000401821 -0.10242891 -0.04939022 -0.021445204 0.056522284 -0.06156704 -0.0074400157 -0.047002293
-0.07181781 0.08650612 0.03198385 0.04069044 -0.058854878 0.023557857 -0.0759643 -0.058411505
0.060765937 -0.07510683 -0.053778604 -0.03157053 0.11612661 -0.07140984 0.0018959686 -0.07169776
0.05751231 0.021636192 -0.01924264 -0.066690795 0.0070085386 -0.12200321 -0.10572602 0.018096454
-0.13049036 -0.014698389 -0.026069058 -0.021657126 0.14299528 0.09577052 -0.02784032 -0.047916356
0.048443407 -0.066512726 0.07326783 0.04759705 0.08497851 -0.037913293 0.07645149 0.066877134
0.022967625 -0.08393315 -0.053659156 0.00086251134 0.12708583 -0.09522605 -0.00046271482 -0.030105544
-0.034901444 -0.10300141 0.07394144 0.041564368 0.075030625 0.028149333 -0.103496954 -0.052422434
-0.06496148 -0.13873656 0.01565579 -0.11456023 -0.015089402 -0.0753189 0.010158639 0.011243686
0.001011356 0.016350918 -0.063160196 -0.08616062 0.0034349062 -0.014521273 0.015100194 -0.06991415
0.08234492 -0.01402811 -0.08517979 0.017513284 0.0838126 -0.056029346 0.072346926 -0.0826979
-0.13925451 0.021529477 0.04615382 0.073139735 -0.09652347 0.073609956 0.0542774 -0.07467968
-0.11284342 -0.11045293 -0.014557147 0.074454755 -0.00089342403 -0.110818334 -0.075437486 -0.13060988
-0.024406651 -0.02552897 0.011504218 -0.04663263 -0.005417254 -0.0015875706 -0.024090376 0.080586985
0.008502012 0.09354046 0.048935324 -0.050068133 -0.062581606 -0.03355624 0.02697711 0.07992348
-0.078397006 0.057890367 0.10121849 0.008145165 0.08937341 0.023792863 -0.010566484 0.08323103
-0.060174674 -0.050732635 -0.08167485 0.0799575 -0.013377627 -0.08837866 -0.02105538 0.072591364
-0.12260125 -0.0947732 0.16813074 -0.10840986 -0.015463211 -0.097123444 -0.018497948 0.06389695
-0.045118738 -0.021745566 0.07075833 -0.06592889 -0.006249858 0.080884665 0.0025649713 0.04349169
-0.10393129 0.0076683266 -0.062009767 -0.031088116 0.044314746 0.09722942 0.008440942 -0.1431051
-0.023389438 -0.13888684 -0.049126707 0.026086647 -0.027265074 -0.04124365 -0.0041882657 0.14109462
-0.057451893 -0.12476207 -0.13106214 -0.06638598 0.013964346 0.14796652 0.024298731 0.095257185
-0.06987028 0.012799317 -0.14021689 0.058105625 -0.08254598 0.1027685 0.11865988 0.06412583

bias f4 [25]
00000000: 0000 0000 0000 0000 0000 0000 0000 0000
00000010: 0000 0000 0000 0000 0000 0000 0000 0000
00000020: 0000 0000 0000 0000 0000 0000 0000 0000
00000030: 0000 0000 0000 0000 0000 0000 0000 0000
00000040: 0000 0000 0000 0000 0000 0000 0000 0000
00000050: 0000 0000 0000 0000 0000 0000 0000 0000
00000060: 0000 0000
0.0 0.0 0.0 0.0 0.0 0.0 0.0 0.0
0.0 0.0 0.0 0.0 0.0 0.0 0.0 0.0
0.0 0.0 0.0 0.0 0.0 0.0 0.0 0.0
0.0
