deep_learning/models/GCNLinkPrediction8.pth (torch, 136196 bytes, 8 tensors)

bias f4 [100]
00000000: 9f73 ccbd 4e66 0cbe 342f 523d e9ab f6bd
00000010: 904c 0fbd 1629 8b3d ec2b 08be c4a1 843d
00000020: da52 2ebc d90e 05be 52e2 86bd 5c72 c13c
00000030: 60b1 92bd a090 8abc 0e43 e1bd 927f d7bc
00000040: e897 93bd fce7 063d e2d3 8b3c 699f 853d
00000050: 90e3 1cbe dce5 8b3d 4780 143d cdba 35be
00000060: f6c2 02bd 5af4 043e a78a dcbc 92d5 a3bd
00000070: f0f0 60bc 3e66 cf3d 4a8d ebbd f377 cc3d
00000080: 498e c93c 8995 0b3d 8849 ad3c 9de5 083e
00000090: 3595 85bb 97ac 2fbd 240e aabd 522a f73d
000000a0: 416a 0a3e 90bb ec3d 6343 993d ecd2 99bd
000000b0: b1b6 543d 7032 d03b 8b01 1abd 44e1 b93d
000000c0: a2dc bf3d 7f56 1f3e b65d 6c3d a73d e4bd
000000d0: d09b 6bbd 00e2 a6bc 6e32 82bb b3da e23d
000000e0: 9f45 a5bd cfa1 ad3d a3ce f43d c732 af3d
000000f0: d86d 863d b641 593c 297d cabd 6159 16be
00000100: 9a10 23bd 0abb 71bd cc60 1c3e b476 cbbd
00000110: 19ed 323d 3164 583d 9570 14bb 38de 953d
00000120: cd71 c93c bb99 50bd 98ed 073e 7c74 5c3c
00000130: ad09 83bd 8a1f 813d 5358 3f3e 0251 73bc
00000140: e9b2 133d 7fe3 95bd c808 bb3b 9d15 023c
00000150: f4a5 8a3c 5802 a9bc 30a5 8a3d 744b 503d
00000160: 0be7 28bc 2633 f83c c8a1 18be 0711 573d
00000170: 38e3 b5bd aa09 0f3d 37f7 a3bd 8245 f3bd
00000180: 5ca8 7a3d c943 8cbb 5e55 073c acf4 92bd
-0.099829905 -0.13710901 0.051314548 -0.12044508 -0.034985125 0.06794946 -0.13298005 0.06476167
-0.010639871 -0.12993945 -0.06586136 0.023614101 -0.07162738 -0.016914666 -0.10999118 -0.026305947
-0.07206708 0.03293608 0.017068807 0.06524546 -0.15321183 0.068309516 0.036255147 -0.1774704
-0.03192421 0.12983838 -0.026921583 -0.0799972 -0.013729319 0.10126923 -0.11501558 0.09983816
0.02460398 0.034078155 0.021153226 0.1336884 -0.0040766248 -0.042889204 -0.08303478 0.12068619
0.13517095 0.11559212 0.07483556 -0.07510933 0.05193204 0.006353669 -0.037599128 0.09076169
0.09368254 0.1556034 0.057706557 -0.11144572 -0.05752164 -0.020371437 -0.003973297 0.1107687
-0.0806992 0.08478128 0.11953475 0.08554607 0.0656392 0.013260296 -0.09887154 -0.14682533
-0.039810754 -0.059016265 0.152713 -0.0993475 0.043683145 0.052829925 -0.0022650112 0.073177755
0.024590397 -0.05092786 0.13274229 0.013455506 -0.0639833 0.06304844 0.18686037 -0.014850857
0.036059294 -0.07318782 0.005707834 0.007939723 0.016924836 -0.020631 0.06769788 0.050853208
-0.010308991 0.030297827 -0.14905465 0.052506473 -0.08881229 0.034921326 -0.08006137 -0.11878492
0.061195716 -0.0042805416 0.008260099 -0.07175574

weight f4 [100, 18]
00000000: 4924 9dbd 0ee5 2a3c 7aae 8b3d 6ead 9ebd
00000010: 8d38 a63d c6a2 50bd b6a6 a3bd fe44 423e
00000020: 2404 debc 22c9 073d 8264 273c 4250 e4bc
00000030: 1a17 983d 71df 983d bc75 64bd 4002 aabc
00000040: 8c47 a53d 2256 1ebc 0e2c 823d c467 f93b
00000050: 9ef6 c83b 91b6 93bd 6a0c 9f3d 3f16 0abd
00000060: 0e71 1f3d d07a 8c3d 4eda a03d f756 fbbd
00000070: a050 f2ba 8bad 563d b0d2 03bb 75f1 9abc
00000080: aed7 7ebc 484c 323c cc5e 463c 0769 01bc
00000090: 9720 9b3d 874f 803d 42d9 84bb 827f 953d
000000a0: c23e a6bd 92f5 17bd 3a36 cabc f8b2 35be
000000b0: e48f bcbd 7095 8f3d 88b6 a43d ac51 75bd
000000c0: 60f2 7dba 7c9d a3bd 466a 0f3c dc7e 95bc
000000d0: f0a6 943d b5c4 a43d a02e 0b3c 1ffa 9e3d
000000e0: 37a9 863c 349d 923c 4dda a53d 581e 0c3d
000000f0: a54e a53d 36a2 3bbc 8402 50bd 59ed b6bd
00000100: d84e aabb 49a1 96bd 27b5 a0bd ffa6 a1bd
00000110: 5ca7 473b de3a 223d 4d2d c83c bb1a a5bd
00000120: 150e a6bd 03e9 a13d 602c 21ba 9aff 583c
00000130: 6106 8bbd cae2 993d 8f9e 94bd df8e 0dbc
00000140: cc4f a2bd 691c 813d c9e6 d1bc f562 823d
00000150: f0a9 b83c 8d22 98bc e6d6 a5bd 11f3 b7bc
00000160: 9b9a 9bbd f016 463c 5ddf 923d d6d9 1bbd
00000170: 4a6b a53d c121 da3c 882f 523c ce68 8a3d
00000180: 32ee a33d 106f 653e ccd0 37bc ae12 f93c
00000190: e80c 58bc 0e56 a23d aa03 2bbd 5044 7ebd
000001a0: 63ba 8cbd 64b5 a63d 4451 b3bb 5421 8bbd
000001b0: 943e a73c 8c11 913c 708a 62bd 5e4b 7dbc
000001c0: dc90 3fbd 7cf5 bebc e2c0 44bd a021 33ba
000001d0: e3d2 66bd 6857 f0bc c82a 413b 1017 fc3b
000001e0: bd91 9d3d 241e 37bd 6776 9c3d c804 9d3c
000001f0: 8078 8b3d 0126 993d c038 9f3d 3e22 99bd
00000200: 4782 c1bc 06d9 c13c 16a8 983d 89a6 88bd
00000210: 0ac5 d0bc 8dde 293e 4253 8c3d 457a b63c
00000220: 49c7 c43c 8876 15bb a909 d23c b299 1d3d
00000230: 81ad 9abd 62a1 c03c 4c98 90bd 454c 853d
00000240: c877 9dbd 8b67 a1bd fab7 883d b8df 883b
00000250: 70cc 8c3d b831 56bd 858e 47bc 4d9e bebe
00000260: 29dd 9cbd d891 273e 92ad 583d 3435 3a3c
00000270: 1c17 7c3d 25df 85bd f293 8ebd a9df a4bd
00000280: c50d 793d 7820 82bb 09c9 9d3d b433 433c
00000290: 0738 a5bd bcac a03c 78ec cfbc ebc7 a0bd
000002a0: 5b42 2b3c af81 cebd 90ad 37bb 372c afbd
000002b0: 120d 93bd c8db a3bd 3e6f 4cbc 8670 aebc
000002c0: f657 a5bd d45a bdbc 24a4 be3b 50a0 073d
000002d0: 2f0f c8bc 34e8 cebb 96bf c5bc 2d91 92bc
000002e0: 3ec8 c2bc 1549 71bd 578f c8bc 04f8 9e3d
000002f0: 81fe aa3c e0cb 09bd e67d b2bb 0842 9cbd
00000300: e81b 443c 4007 cb3b 09d1 7d3d 8634 f4bb
00000310: 184c 3c3b e659 a5bd a5d8 a2bd f864 b8bc
00000320: cc38 83bd 0e8d a8bb 2c1c b53b 1005 ffbc
00000330: 75b4 a43d 3b4a 4fbd dfd6 96bd 46a8 fa3c
00000340: 4112 03bc c0c3 a3bd 1b78 463d fe60 4ebd
00000350: 028d 14bd 4af9 3fbc 0077 7bba 0423 6d3d
00000360: d7bf 8f3d b212 95bb 2c38 a5bd db8b 943d
00000370: 7019 0a3c 5c5b 93bd 812b a1bd 7a0f 7ebd
00000380: 02c7 88bd 60a5 203d 4c20 07bb 3c19 3a3b
00000390: 45b8 3ebd f8fc a33d b6d1 c2bb ccc1 eabb
000003a0: 9a75 a8bc 9f77 72bd c041 a53d 34f9 a1bb
000003b0: ab98 a1bd ac43 a0bd ce18 26bc ebbe 813d
000003c0: 06dc a1bd c5ce 8f3d 6c72 abbd e0ef 433d
000003d0: 8cf3 b03b e89d d43b 1dfe e5bc 9486 343c
000003e0: 14bd 823b 4960 92bc 28e1 f93b 74e1 be3c
000003f0: e041 28bc 6a58 65bc 4c08 1b3d e3a4 0bbc
-0.076729365 0.010430587 0.06820388 -0.07747923 0.08116255 -0.050936483 -0.07990782 0.18971631
-0.027101584 0.0331508 0.010216834 -0.027870301 0.07426281 0.07464493 -0.055776343 -0.020753026
0.08070287 -0.00966409 0.06356059 0.007611247 0.0061329147 -0.07212556 0.0776604 -0.03371262
0.038926177 0.06859362 0.07854138 -0.122724466 -0.0018487163 0.052411597 -0.0020114593 -0.018913964
-0.015554352 0.010882445 0.012107562 -0.007898576 0.075745754 0.06265169 -0.0040542195 0.07299711
-0.08117439 -0.03709943 -0.02468406 -0.17744052 -0.092071325 0.07010925 0.080426276 -0.05989234
-0.0009687301 -0.07989022 0.008753365 -0.018248968 0.07258403 0.080453314 0.008495003 0.077625506
0.01643811 0.017897226 0.08098278 0.034208626 0.08071641 -0.011452248 -0.05078365 -0.08931989
-0.005197387 -0.073549815 -0.07847052 -0.0789318 0.0030464744 0.03960692 0.024435664 -0.08061739
-0.08108155 0.079057716 -0.0006148275 0.013244534 -0.06788326 0.0751396 -0.07256805 -0.00864002
-0.07925376 0.06304247 -0.025622742 0.06366531 0.02254197 -0.018571163 -0.08097629 -0.02245477
-0.07597848 0.01209043 0.071715094 -0.03804954 0.080771044 0.026627423 0.012828715 0.06758271
0.080044165 0.22405648 -0.011219215 0.030404415 -0.013186671 0.0792657 -0.04175154 -0.062076867
-0.06871488 0.08140066 -0.005472334 -0.06793466 0.020415582 0.017708562 -0.055307806 -0.0154598635
-0.046769008 -0.023310415 -0.04803551 -0.00068333186 -0.05635346 -0.029338554 0.0029474963 0.007693179
0.07693813 -0.04470648 0.07639771 0.019167319 0.06810093 0.07477952 0.07774496 -0.07477234
-0.023621691 0.023663055 0.07453935 -0.06672389 -0.02548458 0.16588803 0.06851818 0.0222751
0.024020808 -0.0022806246 0.025639372 0.038476653 -0.075526245 0.023514453 -0.07060298 0.06508688
-0.07688862 -0.078810774 0.06675716 0.00417706 0.06874931 -0.05229351 -0.012179975 -0.3723015
-0.076593705 0.16364229 0.052899905 0.011365224 0.061545476 -0.06536702 -0.06961812 -0.08050472
0.060804147 -0.0039711557 0.0770436 0.011914182 -0.08067327 0.019613616 -0.025381312 -0.07850631
0.010452832 -0.10083329 -0.0028027035 -0.08553355 -0.07180227 -0.08000904 -0.012477694 -0.02129389
-0.08073418 -0.0231146 0.005817907 0.03311187 -0.024421303 -0.006314302 -0.024139207 -0.01789149
-0.023777124 -0.058907587 -0.024482412 0.07762149 0.02087331 -0.033641696 -0.005447137 -0.07629782
0.011969544 0.0061959326 0.06196693 -0.0074525503 0.002873188 -0.080737874 -0.07951478 -0.022509083
-0.064073175 -0.005143768 0.00552704 -0.031130344 0.08042232 -0.0506079 -0.07365202 0.030597817
-0.007999958 -0.07996321 0.048454385 -0.050385468 -0.036267288 -0.01171715 -0.00095926225 0.05789472
0.070190124 -0.004549348 -0.080673546 0.07253238 0.008428916 -0.0719516 -0.07869626 -0.06202648
-0.06678583 0.039220214 -0.0020618616 0.0028396389 -0.046562452 0.08007234 -0.0059454096 -0.0071642157
-0.02056389 -0.05919611 0.080691814 -0.0049430374 -0.07890447 -0.078254074 -0.01013775 0.06335243
-0.07903294 0.0702186 -0.083714336 0.047836185 0.005400127 0.0064885505 -0.028075272 0.011018414
0.003989825 -0.017868178 0.0076257177 0.023300864 -0.010269612 -0.01399813 0.03784971 -0.008523199

bias f4 [100]
00000000: 7e2e 7d3d e465 1dbe 0bdc f43d c2a2 25be
00000010: 29b1 f8bd 2367 bbbc c742 da3c 8070 6239
00000020: acbe 703d 0e7c 033e f2d3 243d c548 a1bd
00000030: 4b9e 05be fa74 0abd 34ff 21be 03a7 a13d
00000040: 4217 49bc 356f bdbc 59fb 253d 6818 7e3b
00000050: 9e39 0ebe d61b 253d 6e5f e13d c4ee f63d
00000060: b591 10be 3294 313d f6be 103d 5445 4a3d
00000070: e919 8dbd 4cad c1bd 7fe8 b4bc 658d d1bd
00000080: e0a1 e3bd f25e 25be 3468 4cbd 5b6f d4bd
00000090: 683a 00be 6392 febd 8a91 9e3d 142e 42bd
000000a0: 57ab 82bd c4e1 1fbd 015c c93d 2f88 2c3e
000000b0: a21a 20be aa3a 683d 3b74 f03d ec54 f0bb
000000c0: 6b2e e13d a8b6 27be 98fd 53bd e888 4a3d
000000d0: d049 d13d f3f2 1bbe 2625 04be edfd 3b3d
000000e0: 4a04 df3d dadd 313d ba6e f6bd cabf 97bc
000000f0: 9992 20be 6ebb 89bc 6239 03be 420b 573d
00000100: 0671 ed3d de87 2bbe f737 18be 51d3 bcbc
00000110: c2e5 f33d 868e 81bc dafb a03d 204e 7ebd
00000120: 97c0 b8bd 4a76 49bd 5462 0a3e 06c7 cd3d
00000130: b296 bb3d 5dd2 4abd 00a6 a93d b65e 2abe
00000140: 545b 24bd ee78 d73d ed95 063e 1ff2 0d3e
00000150: 3f60 b83c 3ea2 e2bc bc4c 98bd 94e1 993d
00000160: f4fd 853d 4cd1 74bd 0bf0 06be d8d6 c23d
00000170: 1c4b 0a3d caad 0d3d f247 613d e00c f83a
00000180: a83d 8b3d ba7d e1bc eb75 c03d f30d 05be
0.061811917 -0.153709 0.11956032 -0.16175368 -0.121431656 -0.022876328 0.02664317 0.00021594949
0.05877559 0.12840292 0.04024119 -0.07875208 -0.13048665 -0.033802964 -0.15820009 0.07893183
-0.0122736115 -0.023124317 0.040522907 0.0038771871 -0.13889167 0.04030975 0.1100453 0.1205726
-0.14118083 0.04335422 0.035338365 0.049382523 -0.068897076 -0.09456882 -0.022083519 -0.10232047
-0.111148596 -0.161495 -0.049904063 -0.10372802 -0.1252228 -0.12430265 0.07742603 -0.047407225
-0.06380337 -0.039033666 0.098320015 0.16848825 -0.1563516 0.05669657 0.11740919 -0.007334342
0.10995182 -0.16378272 -0.051755518 0.04944697 0.10219157 -0.15229397 -0.12904796 0.04589646
0.1088949 0.043424465 -0.12032838 -0.01852407 -0.15680923 -0.016813006 -0.12814859 0.05250097
0.11593823 -0.16751048 -0.14865099 -0.023049982 0.11909057 -0.01581503 0.07860537 -0.062086225
-0.090211086 -0.049185075 0.13514072 0.10047726 0.09159602 -0.049517024 0.08283615 -0.16637692
-0.04012616 0.105211124 0.1314313 0.13861893 0.022506831 -0.027665254 -0.07436511 0.07513729
0.06542578 -0.059769914 -0.13177507 0.095136344 0.033763036 0.034589566 0.055000253 0.0018924735
0.06798869 -0.027525771 0.09397491 -0.12993602

weight f4 [100, 100]
00000000: b5d5 9b3d 068c f7bb debc c2bd 9253 1ebd
00000010: 2463 b8bc b815 973d 3c7f f03c 5661 a13d
00000020: c8e7 a8bd 9920 483d aa3c 92bc caa6 203d
00000030: 4042 36bb 642c f13c 56fc 26bd c5ca dfbc
00000040: 6053 afbc 2637 3cbd 6ff9 5c3c d468 12bd
00000050: 8ec3 9e3d cbe7 cabd ef39 9e3d 52ed 6f3d
00000060: eec7 453c f6b3 153d c343 dcbc 90c6 fb3a
00000070: fa01 333b 278f 183d 23fe 003d 1fc3 febc
00000080: 9669 b8bc 8e11 953c 342a b43d 152b 29bd
00000090: 64b6 89bd a709 8bbd 0b22 3a3d bef5 593c
000000a0: a605 233d 3083 f739 a7cb c1bd 8e6f 4b3c
000000b0: b212 b7bd 5083 0a3c 96ec 0fbc e72f 333d
000000c0: 8db3 cfbd 001f 9fb8 3b0e 9d3d 1e1a 743d
000000d0: a818 a2bd 9392 9ebd fe46 08bd 33e4 87bd
000000e0: fc1f 513b aaf8 e63c c01f 153d c80c b53c
000000f0: 1857 b6bd 7f1c 9d3d a4e0 673c d643 8a3d
00000100: ac2e 87bd c8bd 103b f90c 6a3c 2b82 fcbc
00000110: a0a9 4dbb 609a 123d a426 6b3d 27d2 2a3d
00000120: 55b4 083d 8071 f33c ec56 873c 1a92 523d
00000130: 2035 1c3a cb6d 143d 18a9 1f3c a04b 95bb
00000140: 91e1 ae3d fef2 a23d 6429 773d aa88 a0bd
00000150: dac8 6b3d a50d 2bbd ff4d aebc 9461 52bc
00000160: 09aa e13c e270 1b3c 1440 9f3d 65e7 e7bd
00000170: 9a59 41bc 6520 86bd 82c4 1cbd d0df e0ba
00000180: 7dcf ebbc c06b 813a a342 b8bc fad9 98bc
00000190: 2150 9ebd 8a08 ba3c ff6e a43d 9d04 933c
000001a0: 6087 1e3b 7075 33bb 4230 85bd c8c0 0d3d
000001b0: b313 95bd 7909 fd3c 0e51 93bd 218c ecbc
000001c0: 3aa6 a1bd 0ea6 8f3c d52a 62bd 0ecc 94bd
000001d0: 2a15 9bbd d753 943c ac12 d13b a380 9abd
000001e0: 7e11 36bd bdf6 a43d 63ad 0e3c 8437 3bbd
000001f0: dc19 1fbd 726f c83c 10bb 98bd 2d01 223d
00000200: 79a6 9b3d bce1 163c 44df 70bd c11d 373d
00000210: 0770 83bd 7ef7 81bc 9728 9bbc 9935 0abd
00000220: 37cf 8fbd 5ce2 d8bb 4cc1 6fbd 5d15 e6bc
00000230: ccf8 e93b 5b19 4abd 8072 b83a 578b b03c
00000240: a397 61bd e24e 97bc 4973 873d 628c b83c
00000250: 0067 323a 4f0d e53c 0057 5e3d 60c1 09bc
00000260: 98f1 723c 24d2 4fbd 71b7 8dbd a2ea 86bb
00000270: 90a8 50bb 4cbc 8abd ec0d 8cbd d600 233d
00000280: 2a7e 8ebd 6cf5 b1bc aead 763c e010 ab3a
00000290: 6377 74bd 6c2c cd3b f290 923d 746b 91bd
000002a0: 0840 753b 8672 f73c 9a0f 513d 64f5 813b
000002b0: cc23 56bc c071 f4bc baa3 80bd 25d0 75bd
000002c0: a07c 81bd 6016 7b3a bfe9 79bc b8e3 65bd
000002d0: e053 8b3d d01b 89ba 6321 a23d 0af6 d5bc
000002e0: e511 2bbd 6180 6ebd 04c0 94bd d6ac c4bc
000002f0: 12b5 9cbb 9cc8 d93b 723f 7ebd c0d0 a8ba
00000300: 43b6 4bbd 4ca5 173d 8499 873d a4f6 7c3c
00000310: 00ef 1f3d 561d 8e3d 8081 a2bd cb52 8dbd
00000320: 2dc7 973d 7a43 4bbc 10ee c83c da6b 923d
00000330: 9c33 6a3c 70f5 b3bc 0f6a 903d 4d58 d63c
00000340: deea 8dbc b02b a43c f2f8 723c c48e 7dbd
00000350: 4edf 5dbd 8a4c 51bd 50e1 84bc c4c6 873d
00000360: cc67 a0bc 1e94 84bd 6ac0 99bd 96c2 4e3d
00000370: ea87 1c3d 38d9 393d 8a5f 0f3b b049 e33b
00000380: 1df3 6c3c 177d b83d da36 403c 4a7f 993c
00000390: 328d c1bc 8f7f 7b3b d21b 083d 0a29 fb3c
000003a0: 3300 bb3c e05f 5dbd 64f5 04bc a6fa 6ebd
000003b0: ccaa 3d3d 4590 803c f015 c83c d8e3 abbc
000003c0: 584c 713d aa79 ac3d 150e c4bd c8c0 953c
000003d0: 399c cbbb 3814 d4bc e401 9ebd 748f 393b
000003e0: 241b 793c ab89 2c3d 70b6 42bd c6b6 a23d
000003f0: 8e5a b33c 92be 7ebd 80ab 55bc a0db 41bc
0.07609121 -0.007554534 -0.0950868 -0.038653918 -0.022508211 0.073771894 0.029357545 0.078798935
-0.08247334 0.048859213 -0.017851193 0.039221562 -0.0027810484 0.029440112 -0.04076799 -0.027318368
-0.021402061 -0.04595103 0.013487204 -0.035744503 0.07752143 -0.09907492 0.07725894 0.058575936
0.012071593 0.036548577 -0.02688778 0.0019208957 0.002731441 0.037245896 0.031492364 -0.0310989
-0.022511285 0.018196847 0.08797112 -0.04130085 -0.067242414 -0.067889504 0.045442622 0.013303218
0.03980031 0.00047209254 -0.09462672 0.012416733 -0.08939113 0.008454159 -0.008784434 0.043746855
-0.101416685 -7.587485e-05 0.0766873 0.05959522 -0.07914859 -0.077428006 -0.03327083 -0.066353224
0.0031909933 0.028194744 0.036407232 0.022100821 -0.089033306 0.07671451 0.01415268 0.0675122
-0.06600699 0.0022085775 0.0142853195 -0.030823788 -0.0031381622 0.035791755 0.057409897 0.041704323
0.033375103 0.029717207 0.01652094 0.051408865 0.0005958844 0.03623752 0.009744905 -0.0045561343
0.08539117 0.07956503 0.060342208 -0.078385666 0.057564594 -0.04176106 -0.021277426 -0.012840647
0.0275469 0.009487363 0.07775894 -0.11323432 -0.011801148 -0.065491475 -0.038273342 -0.0017156545
-0.028785462 0.0009874031 -0.022492712 -0.018658627 -0.07730127 0.02270915 0.08028983 0.017946536
0.0024189577 -0.002738323 -0.06503345 0.03460768 -0.07279148 0.030888306 -0.07193194 -0.028875412
-0.07893033 0.017535236 -0.05521663 -0.07265483 -0.07572396 0.018106384 0.0063803997 -0.07544067
-0.044450276 0.08054874 0.008708331 -0.04570724 -0.03884302 0.024467204 -0.07457554 0.039551903
0.076001115 0.009209093 -0.058806673 0.04470611 -0.06417852 -0.015865084 -0.018940253 -0.03374252
-0.07021945 -0.006618781 -0.05853395 -0.028086359 0.0071402546 -0.049340587 0.001407221 0.021550817
-0.055076253 -0.018470231 0.06613786 0.022527877 0.00068055093 0.027960448 0.05428219 -0.008407921
0.014828108 -0.050737515 -0.06919754 -0.004117326 -0.0031838752 -0.06774196 -0.06838593 0.03979572
-0.06957658 -0.021723472 0.015056057 0.0013051294 -0.05968417 0.006261399 0.071565524 -0.07100573
0.0037422199 0.030205976 0.05104027 0.0039660204 -0.013070058 -0.029839396 -0.06281228 -0.060012955
-0.063225985 0.0009578224 -0.015253483 -0.056125373 0.06803107 -0.0010460559 0.07916524 -0.026118297
-0.041765112 -0.0582279 -0.072631866 -0.024008196 -0.0047823275 0.006646229 -0.062072225 -0.0012879595
-0.049734365 0.037022874 0.06621078 0.015439663 0.039046288 0.06939189 -0.079348564 -0.06900557
0.07411037 -0.012406224 0.02452758 0.07149477 0.014294531 -0.02196762 0.07051479 0.026165152
-0.017323907 0.020040363 0.014829861 -0.06190373 -0.054168038 -0.051098384 -0.016220719 0.066297084
-0.019580744 -0.064735636 -0.07507403 0.05047854 0.038215555 0.04537317 0.0021877014 0.0069362745
0.01446226 0.09008234 0.011731828 0.018737454 -0.023626897 0.0038375591 0.033229657 0.030659217
0.022827243 -0.05404651 -0.008115146 -0.058344506 0.046305463 0.015693793 0.024424523 -0.020982668
0.058910698 0.08421643 -0.095729984 0.018280402 -0.0062136916 -0.025888547 -0.07715204 0.0028314264
0.015204225 0.042123478 -0.047537267 0.079450175 0.021893766 -0.06219346 -0.013041377 -0.011832148

bias f4 [100]
00000000: ea83 8fbc 7c5f 11bc 8999 29be 8078 6f3d
00000010: d791 88bd 907f 09bd ae76 a63d 74b0 2dbe
00000020: e7f5 9dbb 4978 e13c c121 2f3d c6e6 2cbe
00000030: 0c50 02be 7c6d 27be 20ad 353c fe81 ee3c
00000040: abed 4d3c cd42 68bc bd7e 44bd 2c3f bebc
00000050: 3a61 583c bd0e 523d ecfd 793d 511d cd3c
00000060: a87e 66bc 03b4 173d 4c6b 92bd 752e a23d
00000070: 68b4 363d 6e34 53bd 7b08 983d bf22 1bbe
00000080: de86 a83d 4dd7 353c 5229 af3d d301 29be
00000090: 33bf 26be 4f04 b53c fedf 6a3d 12e0 a93c
000000a0: 02a4 2ebc f2b9 81bd e8a9 aabc e877 8b3d
000000b0: e8d9 f3bc c0c5 abbd 6cf2 e2bb da6a ca3c
000000c0: 8898 9e3d ccab 8ebc e68d 073c de4a 913d
000000d0: c7d8 a0bc ae18 2f3d d5e5 2dbe 05d7 80bd
000000e0: 27fa abbd 6f7b 8fbd 21ef b43d ae75 26bd
000000f0: f6d8 2dbe 2b13 873d e00b 28be 9815 2abe
00000100: 4654 6dbd eab5 58bd 3700 23be 9533 40be
00000110: cf95 03bd 8e96 d23d 1b3b 12be 2108 b7bc
00000120: 01ad 2abe 2a2b b83c e405 2bbe 4fcc a73d
00000130: b431 2bbe 98d3 54bc 08b2 3cbb 2c83 3f3c
00000140: dc59 5a3d 2257 29be ba30 dfbd b02a 07bb
00000150: 1438 24bc 8bdc 2bbe 2581 843d 068c 2cbe
00000160: 16c8 ca3d 32c8 393d 39ce 823d 09f5 23be
00000170: 78b4 0f3b df9f 8abc 9c33 85bb 181c 68bc
00000180: dc59 7f3d 236d 1dbd 6fa9 02be 8ae3 983d
-0.017518956 -0.008872863 -0.16562475 0.058464527 -0.06668442 -0.03356892 0.08128105 -0.16961843
-0.0048205736 0.027523177 0.0427568 -0.16884908 -0.12725848 -0.16350359 0.0110886395 0.02911472
0.0125688715 -0.014176083 -0.04797243 -0.023223482 0.013206774 0.051283587 0.061033174 0.025038393
-0.014068283 0.037036907 -0.071493715 0.07919017 0.044605643 -0.051563673 0.074234925 -0.15149973
0.08228849 0.011098695 0.08552803 -0.16504602 -0.16283874 0.022096781 0.05734252 0.020736728
-0.01065922 -0.063342944 -0.02083297 0.0680998 -0.029766992 -0.08387327 -0.0069258716 0.024709154
0.07743937 -0.017415904 0.008273577 0.07094358 -0.019634617 0.042748146 -0.16982205 -0.06291012
-0.08397322 -0.07005965 0.08834673 -0.04063957 -0.16977295 0.06595453 -0.1641078 -0.166098
-0.057941698 -0.05290786 -0.1591805 -0.18769677 -0.03212529 0.10282622 -0.1428036 -0.022342743
-0.16667558 0.02248152 -0.16701466 0.08193266 -0.16718179 -0.012989901 -0.0028792638 0.011688989
0.053308353 -0.16537145 -0.10897966 -0.002062481 -0.010023136 -0.16783349 0.06469945 -0.1685029
0.099014446 0.045356937 0.0638699 -0.16011442 0.0021927636 -0.016921936 -0.00406499 -0.014166854
0.062341556 -0.03843416 -0.12759946 0.07465275

weight f4 [100, 100]
00000000: cb5c 68bd ebbe 85bd e2c7 66bd 2373 27bd
00000010: 8049 79bd 1d67 edbc a47b a4bb 94e4 923d
00000020: 4d8e a43d a1c6 2f3d 0a39 32bd 65f4 91bd
00000030: 2e50 6ebc 4543 463d 86a1 86bc 528a bc3c
00000040: c973 14bd be4e 59bd 12c1 90bd 4889 0bbb
00000050: c624 81bd beba 723c 9c30 e8bc 7edd 503c
00000060: aa7a dbbb f18a 10bc 4008 1ebd 51d9 22bc
00000070: d888 563b 6602 c53c 9b81 083d b6a1 613d
00000080: f013 78bb 8e3f cebc 7222 6c3c 9208 4b3d
00000090: b64f 82bd 3747 8cbd ffb7 43bd b93a d93c
000000a0: 1535 a2bd 8aed eebb f29e 533d ccb9 06bd
000000b0: 121f 64bc b5cd 853d da9b 46bc aa40 fcbc
000000c0: 5a07 9ebd 8075 1739 66b2 cc3c e5a0 ce3c
000000d0: 8201 4cbd 2267 b0bc 378e a23d a009 993d
000000e0: 2429 d1bb 8488 b7bd 4020 2e3d 2937 993d
000000f0: 08b4 9c3d 3cf5 f6bc 79a3 0b3c 11e1 4cbd
00000100: 568f b9bd 8065 da3b 1641 793d 0aa9 8abd
00000110: 2263 5abd 77de 303d edb7 8d3c 636b 4f3d
00000120: 34b2 423c c747 08bd 0f2e 8cbd 4642 7cbd
00000130: 7cdc dcbc 3ec7 cebc 9cdc 25bc 7299 3e3d
00000140: f2db 8ebc ef28 54bd d0aa 4cbc 0f2a d03c
00000150: 89ca c33c 0c33 2cbc bae6 11bc 7a9b 573d
00000160: 0921 863c 305a a3bc a99d a33d 76a0 123d
00000170: 1aec db3b ec51 8cbd 37ed 01bd 5dd1 a7bd
00000180: 0546 e53c 6976 643d ba5a 8bbb 6003 5abd
00000190: 6898 89bc e829 3fbc 8ca7 89bd 0952 af3c
000001a0: fa73 c13c 15f4 763d f88e 513d 48ab 393b
000001b0: f276 883c a454 dd3c ecb5 00bd ee1e 6ebd
000001c0: 6d1f 363d b660 c5bc d6fe 403c dabe aebd
000001d0: 2fd5 723d f094 4ebd 8a6b 3ebd d807 e53c
000001e0: 42fd a4bd 0006 e4b8 4ce2 f2bc 9400 a4bd
000001f0: 500c cbba e8ae fd3b 62a1 9abd 29c4 5fbd
00000200: f0ac e0ba 30e1 903d c513 303d 2908 423d
00000210: d693 b23c b1e3 81bc 9281 95bd bf36 6a3d
00000220: 2009 d7bb 517a 0bbc c57c 12bd 4e79 6b3c
00000230: 6844 c93c 9c55 a4bd d49d 99bd 3db2 ddbc
00000240: f84e 46bb 12e4 a3bc 169b 253d 5609 903d
00000250: 363e 2bbd e674 c3bb 33c1 943d f0fd 25bd
00000260: e9eb 553d ab75 cebc f8ff 96bd 68c8 57bd
00000270: 0799 3dbd 5d9a a3bd efc3 893c 441b 8d3d
00000280: c4ad c73c 1c39 1bbd 894f 983d 0e8c 4bbc
00000290: f299 933c aace 293d dfb3 17bc 910d 11bc
000002a0: f9cf a63c 76ba 75bd bfcf 76bd 82a6 04bc
000002b0: 51b8 8cbd b8cb 0b3b 90c6 023c dbba 92bd
000002c0: 0a44 06bc bc51 8abb 62cd b8bd ab23 85bc
000002d0: 0122 23bd 7266 babd 4744 233c ae1c b03b
000002e0: a256 583c c0f2 d7bc 1678 9abd 5d54 b0bd
000002f0: 1645 abbd 282d 8abd 985c a4bc c4ed 593d
00000300: 0593 363d 7542 bd3c b7a3 033d 55f3 cabc
00000310: 2b04 c83c 2487 a73b 2c63 223b 61e8 a13d
00000320: 2428 8dbb 83e2 7cbd a0d2 dd3b 7850 40bd
00000330: 5a67 053d 2a5f f1bb 244f 4cbd f4fb 773c
00000340: b9e5 a0bd 7dfe c13c 7412 553c 4c93 98bd
00000350: 3cf1 8cbd 94a0 bd3b b902 8d3c 7b81 ca3c
00000360: d3b1 97bd 2707 853d d868 c33c 5cf7 0dbb
00000370: 12b5 52bd 64a2 cc3c 8611 6dbd f228 a93c
00000380: 4a0d 87bd ac18 89bd 76a1 273c f900 53bd
00000390: c12f 653d 0f97 cabc b1a1 33bd 5937 203d
000003a0: 4174 52bd 0076 95bd f2b5 0dbe e084 98bd
000003b0: 0010 ab39 279f 9abd b9c9 80bc e29e 123c
000003c0: 051d 823c e09f 38bd 7964 a53d 20fc 913d
000003d0: 884d c6bd 6c66 8f3b da52 ad3c 69f1 a23d
000003e0: 7b44 8cbd da81 123d 0374 30bd f497 8b3b
000003f0: 49f8 133c c833 91bd 4060 9ebd 58fb 983d
-0.05672912 -0.06530555 -0.056342967 -0.040881287 -0.06086111 -0.028979832 -0.005019622 0.07172504
0.08034954 0.042914037 -0.043511428 -0.07126693 -0.0145454835 0.048403997 -0.016434442 0.023015175
-0.036243234 -0.05305361 -0.07068075 -0.0021291543 -0.06305842 0.014815031 -0.028343491 0.01274812
-0.0066979723 -0.008822189 -0.038582087 -0.009939508 0.0032735374 0.024048995 0.033326726 0.05508586
-0.003785368 -0.02517679 0.014412509 0.04956872 -0.0636286 -0.06849521 -0.047782894 0.026517259
-0.07920281 -0.0072915005 0.051665254 -0.032892033 -0.013923423 0.06533376 -0.012122119 -0.030792553
-0.07716246 0.00014444254 0.02498741 0.025223205 -0.049806125 -0.021533553 0.079372816 0.07472539
-0.006383078 -0.08961585 0.042511225 0.07481224 0.07651526 -0.030146234 0.008522862 -0.050019328
-0.09060542 0.006664932 0.060853086 -0.06770523 -0.053317197 0.04318091 0.017299617 0.05063952
0.011883307 -0.033271577 -0.068447225 -0.06158664 -0.026960604 -0.02524149 -0.010123398 0.046533056
-0.017438862 -0.05179685 -0.012491897 0.02541068 0.023900287 -0.010510217 -0.008905107 0.05263851
0.016373174 -0.019940466 0.07989056 0.03579756 0.006711495 -0.06851563 -0.031720366 -0.0819423
0.02798749 0.055776987 -0.004252759 -0.053225875 -0.016796306 -0.011667706 -0.0672141 0.021401422
0.023614872 0.06029137 0.051161736 0.0028330851 0.01665828 0.027017899 -0.031423494 -0.058134966
0.044463564 -0.024093967 0.011779508 -0.08532496 0.05928534 -0.050435007 -0.046489276 0.027957842
-0.080561176 -0.00010873005 -0.029648922 -0.08007923 -0.001549134 0.0077417977 -0.075503126 -0.054630432
-0.0017141383 0.07074201 0.042987604 0.047371063 0.02179901 -0.015855642 -0.07300104 0.057181116
-0.006562367 -0.008513049 -0.03576352 0.014372183 0.024568751 -0.08024141 -0.075008065 -0.02706253
-0.0030259471 -0.020006213 0.040431105 0.07033031 -0.041807376 -0.005964863 0.07263412 -0.040525377
0.052226935 -0.025202593 -0.07373041 -0.052681357 -0.046288516 -0.07988427 0.016817061 0.06889966
0.02437485 -0.03789626 0.07437045 -0.012423528 0.018017743 0.041456856 -0.009259193 -0.008853332
0.020362841 -0.059992276 -0.060256716 -0.008096339 -0.06871093 0.0021331143 0.007981911 -0.07164546
-0.008194933 -0.0042211693 -0.09023549 -0.01625236 -0.03982735 -0.09101571 0.009965009 0.0053745126
0.013204249 -0.02636087 -0.07542436 -0.08609841 -0.083627865 -0.06746894 -0.020063683 0.053205267
0.044573803 0.023102978 0.032138553 -0.024774233 0.02441605 0.0051125456 0.002477835 0.07905651
-0.0043077637 -0.061739456 0.006769493 -0.04695174 0.032569267 -0.007366081 -0.049880162 0.015135754
-0.07856316 0.02368092 0.013004888 -0.0744997 -0.06881949 0.0057869647 0.017213212 0.024719944
-0.07406964 0.06495505 0.023853704 -0.002166233 -0.051442213 0.024979778 -0.05787804 0.020649407
-0.065943316 -0.06694159 0.010231366 -0.0515146 0.055953745 -0.024730233 -0.043855373 0.039115284
-0.0513804 -0.07297897 -0.13838938 -0.07447219 0.00032627583 -0.07549887 -0.015721189 0.008949013
0.015882978 -0.045074344 0.08075804 0.07128167 -0.09682757 0.0043762233 0.02115767 0.079562016
-0.06848999 0.035768367 -0.043079387 0.0042600576 0.009031364 -0.070899546 -0.07733202 0.07469815

bias f4 [25]
00000000: 0000 0000 0000 0000 0000 0000 0000 0000
00000010: 0000 0000 0000 0000 0000 0000 0000 0000
00000020: 0000 0000 0000 0000 0000 0000 0000 0000
00000030: 0000 0000 0000 0000 0000 0000 0000 0000
00000040: 0000 0000 0000 0000 0000 0000 0000 0000
00000050: 0000 0000 0000 0000 0000 0000 0000 0000
00000060: 0000 0000
0.0 0.0 0.0 0.0 0.0 0.0 0.0 0.0
0.0 0.0 0.0 0.0 0.0 0.0 0.0 0.0
0.0 0.0 0.0 0.0 0.0 0.0 0.0 0.0
0.0

weight f4 [25, 100]
00000000: 45cc c63d f305 c03d 08d9 32be 1cf1 a93d
00000010: c4b5 0e3e de68 253e 3559 d03d fcfd bebd
00000020: 9390 f93d 3e38 6d3d c033 cf3d 45e8 3e3e
00000030: 87ed 3a3e bf4c 83bc e1f6 063e 1c51 d93c
00000040: 5a0f 42be 8c20 973c a374 5f3d dea4 09be
00000050: 1a01 163e 2db3 3e3e cd5d dbbd 3651 92bd
00000060: 8e34 b3bd 8e68 37bd 2cd1 99bd 7d1c c83b
00000070: 1ec4 5abe c593 a03d 54f4 f93d 3fb1 333d
00000080: 567b bb3d 2251 0b3e d9fc ac3c 84e2 25bd
00000090: ff6c 1abe 8151 b8bd f2cb c4bd 37fd 423e
000000a0: d833 0abe 4b6e 273e d2ca 923d c530 fcbd
000000b0: 0870 853d 7f4e 4e3e c215 c4bd 8b48 a63d
000000c0: 516d c0bd 37b6 49bd 607d d63d 70e3 d2bd
000000d0: 7e1d cb3c 6475 b53d 2c25 05be 6f84 003d
000000e0: a595 0fbe e7e1 773d c103 0f3e d91e 1cbe
000000f0: c7ac 49be c8f4 373e d93f 413e e6f2 ba3d
00000100: 00af 473e b1d2 413e 3b5a edbd 6600 5dbe
00000110: b23a dcbd ab00 a8bd 73cf 6e3d 1e84 debd
00000120: f51d 5bbe bb68 bebc e4ad 32be 026b 883c
00000130: 0a1f 3bbe 8659 5abe e0c1 afbc f517 7c3c
00000140: 5c34 b73d 936c 27bd b93f 603e ae34 553e
00000150: 05c6 2bbe e1c1 d0bd f835 40bd 6505 063e
00000160: fb36 093e f24f 873d 3da9 54be 97a5 063e
00000170: d9a2 083e 3e90 213e 375e 4d3d db95 cbbd
00000180: 6039 0b3d 080e 51be 772d 563d 8c78 5c3e
00000190: afa8 43be 3d3b eabc 696f 4b3e 1d20 acbc
000001a0: ab76 5b3e cf45 5b3d e4f6 74bd 2ad8 1abe
000001b0: c3ec fabd 7ee8 f83d 659a 633d b652 ed3d
000001c0: 9209 3a3e 076c 05be 632f dcbc 94a7 65bd
000001d0: cea2 0f3e 8b2f 3dbd 135f 03be 31ea 15be
000001e0: 1523 4c3e da70 e6bd 1df6 c33d 0946 b43d
000001f0: 95d7 0bbb 67c1 1abd 652e 5a3e 19cb c73d
00000200: 5c7f 673c f51f 303e 4d9c e13c 1275 1abe
00000210: 5308 12be 5772 0ebe c3d6 393e a505 a73d
00000220: 615a 16be f37f c23d cf3e 493d 878d 283d
00000230: eeeb 303e 2caf dabd 7a6e 523e bd10 0c3e
00000240: 3b29 4ebe 0a60 1e3d 497a d43d 2c45 853d
00000250: a06e 343e 74f2 133e 1acd edbd c55a 86bd
00000260: 4ae9 1b3e e822 523e bb23 103e a34b 4bbe
00000270: 99b9 4cbc 23eb 4e3e ae24 a8bd 9aba 3a3e
00000280: d869 21be d7a7 04bd 1eb8 243d 79b7 a4bd
00000290: 97a9 533e 5a87 833a 45f0 e43d a549 a73d
000002a0: 8409 0b3e 493f cbbc 1d13 5a3e ca55 983c
000002b0: a6f6 55be e8d3 343e d44b d5bc 2a8d 1dbd
000002c0: 104f e93c 30ba c0bb 9d43 e9bc e286 cdbd
000002d0: 6a9d 013e 3564 893d cdf7 753d b09b b5bd
000002e0: ca2c b0bd fa12 303e 85b1 38bd 8c71 d63d
000002f0: 79a0 f43d 61b1 453e 4a3e 583d 9ede b2bd
00000300: 94d7 e6bd d215 913d 1248 13be 1980 c43c
00000310: 098d 4bbe 9d8e 813d 62a8 443d 5f60 7d38
00000320: f891 1abe f334 3a3c 114f 573e fb19 b63d
00000330: 74f9 6dbd 0559 19be 9d0f 7ebd 4a08 d43d
00000340: 6f75 5d3e fda7 a9bd ac72 cdbd 5bc4 783b
00000350: 1342 2abe 1acb e83d ddc7 f6bd 6236 be3d
00000360: abbd 1abe fae7 283e 1488 463e 9b9c 5ebe
00000370: 24a0 443c fdcd 22be 4ad9 393d 7e96 afbb
00000380: 7b00 5d3d 157c c83d b196 533e f2ac 383e
00000390: 958d 323d 9a85 313e 4cfb b3bb abc2 dc3b
000003a0: 22f8 5d3e 8b88 00be 3af8 54be 8076 433e
000003b0: 8016 23be 2030 aabd c70e e03d f9e0 c83d
000003c0: 9fd5 1e3e 63e7 0b3d 7961 25bd 20db b43d
000003d0: a057 023e c67b 03be 3832 45be 2b2d cdbd
000003e0: 4236 25bd a756 473b 3508 31bc b607 413e
000003f0: e95d 2dbe e8f4 17be b157 33bd d682 08be
0.0970693 0.09376135 -0.17465603 0.08297941 0.13936526 0.16153285 0.10173265 -0.093257874
0.121857785 0.057914965 0.101172924 0.18643291 0.18254672 -0.016027806 0.13180114 0.026527934
-0.18951169 0.018448137 0.054554593 -0.13441798 0.14648858 0.18623038 -0.107112505 -0.07144396
-0.087502584 -0.044777445 -0.075105995 0.0061069117 -0.21363875 0.07840685 0.12204805 0.043870207
0.09154384 0.13605168 0.02111666 -0.040499225 -0.15080641 -0.08999921 -0.09609212 0.19041906
-0.1349634 0.16350667 0.07167591 -0.123139895 0.06515509 0.20147131 -0.095744625 0.08119305
-0.093958504 -0.04924604 0.10473132 -0.102972865 0.024794336 0.08860281 -0.13002461 0.0313763
-0.14021929 0.06051817 0.13966276 -0.15246142 -0.19694816 0.1796447 0.18872012 0.091283605
0.19500351 0.18928029 -0.11589476 -0.21582183 -0.10753383 -0.082032524 0.058303308 -0.10865043
-0.21398146 -0.023243299 -0.17449147 0.016652588 -0.18273559 -0.21323213 -0.021454751 0.015386571
0.08945534 -0.04087503 0.21899308 0.20820877 -0.16774757 -0.101932295 -0.04692647 0.13087995
0.1339988 0.06607045 -0.20767684 0.13149105 0.13343371 0.1577768 0.05013868 -0.09940692
0.033990264 -0.20415509 0.052289452 0.2153036 -0.19107316 -0.0285927 0.19866718 -0.021011407
0.21431987 0.05353337 -0.059805766 -0.15121523 -0.1225219 0.12153719 0.055567164 0.115880415
0.18167713 -0.1302949 -0.026878064 -0.056068018 0.14026949 -0.04618792 -0.12829237 -0.14640118
0.19935258 -0.112519935 0.09568427 0.08802421 -0.0021338214 -0.0377821 0.2130676 0.09755535
0.014129486 0.1719969 0.02754035 -0.15083721 -0.14260988 -0.13910805 0.18148331 0.081553735
-0.14682914 0.094970606 0.049132165 0.041150596 0.172775 -0.10677943 0.20549956 0.1367826
-0.20132916 0.03866581 0.103748865 0.06507334 0.17620325 0.14447957 -0.11611386 -0.06560282
0.15225711 0.20521128 0.1407613 -0.19853072 -0.012495422 0.20206885 -0.08210121 0.18235245
-0.15763032 -0.032386627 0.04021465 -0.08042807 0.20670162 0.0010034845 0.1117864 0.081683435
0.13577849 -0.02481045 0.21296354 0.018595595 -0.2089487 0.17658961 -0.026037134 -0.038464703
0.028480083 -0.0058815703 -0.028474623 -0.100354925 0.12657705 0.06708566 0.060050774 -0.08867586
-0.08602293 0.17194739 -0.04509117 0.10470876 0.1194467 0.19305946 0.05279378 -0.08733867
-0.11271587 0.0708424 -0.14382961 0.023986863 -0.1987802 0.063260294 0.048012145 6.0409653e-05
-0.15094745 0.011365163 0.21026255 0.08891674 -0.058099225 -0.14975365 -0.06202661 0.103531435
0.21626829 -0.08283994 -0.100316375 0.0037958834 -0.16626768 0.113668635 -0.1204984 0.092877164
-0.15111415 0.16494742 0.19387847 -0.21739428 0.012001071 -0.15898891 0.04537324 -0.0053585162
0.053955536 0.09789292 0.20662953 0.18034723 0.043592054 0.17336121 -0.0054926034 0.0067370734
0.21676686 -0.12552087 -0.20797816 0.19088173 -0.15926552 -0.0830996 0.109403186 0.09808535
0.15511177 0.034156214 -0.04037616 0.08830857 0.12728739 -0.12840185 -0.19257438 -0.10018381
-0.040334947 0.003041664 -0.010805179 0.18850598 -0.16930355 -0.14839518 -0.0437848 -0.1333116
