deep_learning/models/GCNLinkPrediction26.pth (torch, 564000 bytes, 10 tensors)

bias f4 [200]
0	0xbe35c059	-0.17749156
1	0xbe845988	-0.25849557
2	0x3e0826de	0.13296077
3	0xbe408e05	-0.18804176
4	0xbe359bb0	-0.17735171
5	0xbe358037	-0.17724691
6	0x3ddb2893	0.10701098
7	0x3e1152c6	0.14191732
8	0xbe35c0ac	-0.1774928
9	0xbe2a5d27	-0.16637097
10	0x3e1585d2	0.1460183
11	0xbe3cbb60	-0.18430853
12	0x3e1f4d48	0.15556824
13	0xbd40c3d4	-0.047061756
14	0x3e0fd456	0.14045843
15	0xbe36e42b	-0.17860477
16	0x3de833f8	0.11338037
17	0xbe395b26	-0.18101177
18	0x3d8446b1	0.06458796
19	0x3e1afafd	0.15134807
20	0xbe35c4af	-0.1775081
21	0x3cf8fdd9	0.030394481
22	0xbe33cb59	-0.1755804
23	0x3e0cd530	0.137532
24	0x3e419bfb	0.18907158
25	0xbe41ccc1	-0.18925764
26	0xbe81fac1	-0.25386623
27	0x3e1ea58e	0.15492842
28	0xbe374eb1	-0.17901112
29	0xbe099a80	-0.13437843
30	0x3e25c3a6	0.16187915
31	0xbe35c07e	-0.17749211
32	0xbe35cdf0	-0.1775434
33	0xbe364742	-0.1780062
34	0x3d1ea5ec	0.038732454
35	0x3e074178	0.13208568
36	0xbe2c72b9	-0.16840638
37	0x3dc18423	0.09449031
38	0x3d07b862	0.033134826
39	0xbe276edb	-0.16350882
40	0xbe359a4a	-0.17734638
41	0xbe35745d	-0.1772017
42	0xbc1edcab	-0.009696166
43	0x3d746604	0.059667602
44	0xbe38fea0	-0.18065882
45	0xbe35b82e	-0.1774604
46	0xbe0bb69f	-0.13643883
47	0x3d3be9cb	0.04587726
48	0xbe35c912	-0.17752483
49	0x3e2b7eb4	0.16747552
50	0x3de5fe27	0.11230116
51	0xbe35bc56	-0.17747626
52	0x3e316b29	0.17326035
53	0xbe35a6ed	-0.17739458
54	0xbe40a2f1	-0.18812157
55	0x3de5ddcd	0.11223946
56	0xbe3ae402	-0.1825104
57	0xbe35bba0	-0.17747355
58	0x3e1f007c	0.15527529
59	0x3e203c67	0.15648042
60	0xbe361666	-0.17781982
61	0x3e22f0f0	0.15912223
62	0xbe0fec7a	-0.14055052
63	0xbe35c2d8	-0.17750108
64	0xbe35f368	-0.17768633
65	0xbe35bfcf	-0.1774895
66	0x3e168bba	0.14701739
67	0x3e2ced82	0.16887477
68	0x3dfe009a	0.124024585
69	0x3e1b7fbe	0.15185449
70	0x3e2178be	0.15768716
71	0x3e1fd8c6	0.15610036
72	0xbe354b0d	-0.17704411
73	0xbe365eba	-0.17809573
74	0x3e165e37	0.14684378
75	0xbc3e4eb8	-0.011615448
76	0xbe32155e	-0.17390963
77	0x3df145ab	0.11780866
78	0xbe2f4190	-0.17114854
79	0xbe35bbc4	-0.17747408
80	0x3db326a4	0.087476045
81	0x3deb88c1	0.11500693
82	0x3dd29046	0.10281424
83	0xbe35c082	-0.17749217
84	0x3de90f7a	0.11379905
85	0x3e2d5b89	0.16929449
86	0x3e00a988	0.12564671
87	0x3e1d7f76	0.15380654
88	0xbe382733	-0.17983703
89	0x3e0300a7	0.12793218
90	0xbe7295f4	-0.23690015
91	0x3e2703d1	0.1631005
92	0xbe35af7e	-0.17742726
93	0xbe35fbde	-0.17771861
94	0x3e21378c	0.15743846
95	0x3e282bc8	0.16422951
96	0x3e358e0d	0.1772997
97	0xbe304709	-0.17214598
98	0x3e0e19ed	0.13877077
99	0xbe3599bb	-0.17734425
100	0x3df07d83	0.117426895
101	0xbe3e8f45	-0.1860934
102	0x3dc808d9	0.097673126
103	0x3e2be794	0.16787559
104	0xbe35c1ec	-0.17749757
105	0x3def75b7	0.11692374
106	0xbe367250	-0.17817044
107	0x3e36a0c7	0.17834769
108	0xbe35bebb	-0.17748539
109	0xbe2f46e6	-0.1711689
110	0xbe35c137	-0.17749487
111	0xbe3fdeb6	-0.18737301
112	0xbe0cd07a	-0.13751402
113	0xbe35c01f	-0.1774907
114	0xbe35c112	-0.17749432
115	0x3e1896fe	0.14901349
116	0xbe338654	-0.17531711
117	0x3e009f4d	0.12560768
118	0xbe36d49c	-0.17854542
119	0x3e24f77d	0.16110034
120	0x3e2cca67	0.16874085
121	0x3e1538a4	0.14572388
122	0xbe35af20	-0.17742586
123	0x3df71bd2	0.12065853
124	0xbe2385c4	-0.15968996
125	0xbe194513	-0.14967756
126	0x3e0ee0b3	0.13952903
127	0x3e0ee41e	0.13954207
128	0xbe35a56e	-0.17738888
129	0xbe35c11a	-0.17749444
130	0x3e14cf97	0.14532314
131	0x3e241f44	0.16027552
132	0xbe35d09d	-0.17755361
133	0xbe35f49a	-0.1776909
134	0xbe35bdd3	-0.17748193
135	0x3e1c8a4e	0.15287134
136	0xbe35bfac	-0.17748898
137	0xbd35e87b	-0.044411164
138	0xbe35f9ae	-0.17771026
139	0xbe3619be	-0.17783257
140	0xbe389a1d	-0.1802754
141	0x3bf07556	0.0073382063
142	0xbe35c0bb	-0.17749302
143	0xbe383164	-0.17987591
144	0xbe35bbe8	-0.17747462
145	0x3d92282d	0.07136569
146	0xbe35c10b	-0.17749421
147	0x3e038f88	0.12847722
148	0x3e238803	0.15969853
149	0x3e0b7cdc	0.13621849
150	0xbe349d14	-0.17638046
151	0x3e3409be	0.17581841
152	0xbe2a7ec8	-0.16649926
153	0xbe35b76a	-0.17745748
154	0xbe351607	-0.17684184
155	0xbe35be87	-0.17748462
156	0xbe357a61	-0.17722465
157	0x3df773a3	0.12082603
158	0xbe35c12b	-0.17749469
159	0x3da58b48	0.080832064
160	0xbe35919a	-0.17731324
161	0x3e17cbb2	0.14823797
162	0xbe35cc29	-0.17753662
163	0x3e17b1f8	0.14813983
164	0xbe35c0ee	-0.17749378
165	0xbe593fa4	-0.21215683
166	0xbe358704	-0.17727286
167	0x3dc98cc1	0.098413
168	0xbe3706f4	-0.17873746
169	0x3e1fc5c2	0.15602782
170	0xbe370799	-0.17873992
171	0x3cb57b89	0.022153633
172	0x3e2f827b	0.17139618
173	0xb9961c7b	-0.0002863145
174	0x3df47399	0.11936111
175	0x3e160fe4	0.146545
176	0x3e16a240	0.14710331
177	0x3e31d328	0.17365706
178	0xbe35c0bb	-0.17749302
179	0xbe365045	-0.17804058
180	0x3e036185	0.1283017
181	0x3e0feeeb	0.14055984
182	0x3e3c5e33	0.18395309
183	0xbe35d2a4	-0.17756134
184	0xbe360d4d	-0.17778511
185	0xbe35c10b	-0.17749421
186	0xbe35e054	-0.17761356
187	0xbe35c0ee	-0.17749378
188	0x3e1eb0c7	0.15497123
189	0x3e142fef	0.1447141
190	0xbe36d1bb	-0.17853443
191	0x3e1ae514	0.15126449
192	0xbe35bda0	-0.17748117
193	0xbe3849bc	-0.17996877
194	0xbe34cb1a	-0.17655602
195	0xbe3829bc	-0.1798467
196	0x3d9ced24	0.076624185
197	0x3de6f476	0.11277096
198	0xbe209c4b	-0.15684621
199	0xbe390e54	-0.18071872

weight f4 [200, 18]
0	0xbdf27770	-0.11839187
1	0xbd9476f4	-0.07249251
2	0xbe3f2693	-0.18667059
3	0x3c229338	0.009922795
4	0xbe989aa5	-0.29805484
5	0x3de2e9e3	0.110797666
6	0xbe837c9a	-0.25681
7	0x3c555e8e	0.013023032
8	0xbe68fdc1	-0.2275305
9	0xbe9496ff	-0.2902145
10	0xbe7c5fc9	-0.24645914
11	0xbd3a0cff	-0.04542255
12	0xbe329c9b	-0.17442553
13	0xbe64d0d2	-0.22345284
14	0xbd0b3b78	-0.03399226
15	0xbdf7254a	-0.12067659
16	0xbe6b52e2	-0.22980836
17	0xbda2da1c	-0.07951757
18	0xbe19e565	-0.15028913
19	0xbe457f54	-0.19286853
20	0xbdc3d531	-0.095621474
21	0xbd7dd012	-0.06196601
22	0xbe1fdaa3	-0.15610747
23	0x3dd7eeed	0.10543618
24	0xbe5dace7	-0.21647988
25	0xbe017589	-0.12642492
26	0xbd81d16d	-0.06338773
27	0xbd05ca0c	-0.03266339
28	0xbeb8ccf1	-0.36093858
29	0xbeb658ea	-0.3561471
30	0xbe9c7c51	-0.30563596
31	0xbebd90e8	-0.37024617
32	0xbe814106	-0.2524492
33	0xbe8a9915	-0.27069917
34	0xbe0fbccc	-0.14036864
35	0xbe9db5e6	-0.3080284
36	0x3e9b65ff	0.30351254
37	0x3e6eb28d	0.23310299
38	0x3ea8bb21	0.32955268
39	0x3eac69e6	0.33674544
40	0x3ebfea7a	0.3748358
41	0x3e6c7ffe	0.230957
42	0x3e92d82b	0.28680548
43	0x3e81c31f	0.25344178
44	0x3eb7fb23	0.3593379
45	0xbd86368c	-0.06553373
46	0x3d73d2fd	0.059527386
47	0x3cab675b	0.020923307
48	0x3e336b35	0.17521365
49	0x3d290856	0.041267715
50	0x3dddeb8c	0.108359426
51	0x3e762844	0.24038798
52	0x3e9b9f65	0.30395046
53	0x3e3a853d	0.18214889
54	0xbe0a494b	-0.13504522
55	0xbd9f6335	-0.07782594
56	0xbe12a779	-0.14321698
57	0xbc6e00c8	-0.014526553
58	0xbeaa4a80	-0.33259964
59	0xbdb71170	-0.08938873
60	0xbe897f4a	-0.26854926
61	0xbd9b8acc	-0.07594833
62	0xbe1934c7	-0.14961539
63	0xbd4b9a98	-0.04970798
64	0xbe6b0002	-0.22949222
65	0xbea8975f	-0.32927987
66	0xbe72e7c1	-0.2372122
67	0xbdd6a37c	-0.10480401
68	0xbe81048f	-0.2519879
69	0xbdbf5066	-0.09341507
70	0xbd35ba16	-0.04436692
71	0xbe65a469	-0.22425999
72	0xbe3c84a1	-0.18409969
73	0xbe3171a3	-0.17328505
74	0xbe915ce3	-0.2839118
75	0xbcced048	-0.0252458
76	0xbd926d4a	-0.071497515
77	0xbe8afe96	-0.2714736
78	0xbd03d512	-0.03218562
79	0x3d8240bc	0.06360003
80	0xbe9a7bc9	-0.30172566
81	0xbdbe330e	-0.09287082
82	0xbd38c34d	-0.04510813
83	0xbea646fa	-0.32476026
84	0xbea8cd2a	-0.32969028
85	0xbd5afede	-0.053465717
86	0xbe2cf5e1	-0.1689067
87	0xbe483aa4	-0.1955362
88	0xbe7957eb	-0.24349944
89	0xbdcb6626	-0.09931593
90	0xbe1f583f	-0.15561007
91	0xbda1416e	-0.07873808
92	0xb92b6bc0	-0.00016347971
93	0x3e2a1893	0.16610937
94	0xbe9394b0	-0.28824377
95	0x3e6c26c3	0.23061661
96	0xbe6491ef	-0.22321294
97	0x3d3aaf95	0.045577604
98	0xbeacf80e	-0.33783
99	0xbe174806	-0.14773569
100	0xbeacb6a6	-0.337331
101	0xbe754256	-0.23951086
102	0xbe0a1ca4	-0.13487488
103	0xbc3f2426	-0.011666333
104	0xbd751c76	-0.059841596
105	0xbe3b83a6	-0.18311939
106	0xbe35d3eb	-0.17756622
107	0xbe004efc	-0.1253013
108	0xbc914a43	-0.017735606
109	0xbe84a236	-0.25905007
110	0xbe88e6ca	-0.26738578
111	0xbe98eaa8	-0.2986653
112	0xbeacad5b	-0.3372601
113	0xbe525446	-0.2053996
114	0xbd6eca71	-0.058298532
115	0xbea3bb6f	-0.31978938
116	0xbb1f453c	-0.0024302742
117	0x3deb9a47	0.115040354
118	0x3cdeb3f0	0.02718541
119	0x3d8741b6	0.0660433
120	0xbdbc8bc3	-0.09206345
121	0x3cb00b73	0.021489834
122	0xbd3fccc2	-0.04682613
123	0x3cd4c720	0.025973856
124	0x3c94c99f	0.018162547
125	0x3e3eb7e5	0.18624838
126	0xbcb4afd7	-0.022056503
127	0x3d8586ba	0.06519838
128	0x3d30c22c	0.043153927
129	0xbe629cf2	-0.22130182
130	0x3d7ccda8	0.061719567
131	0xbeb179ca	-0.3466323
132	0xbd33d0e6	-0.043900393
133	0xbea01d84	-0.3127252
134	0xbc8f1dd0	-0.01747027
135	0x3ca7e908	0.02049686
136	0x3cf414fe	0.029795166
137	0x3e6bd0c7	0.23028861
138	0x3aa0ad4c	0.0012258678
139	0x3e705e03	0.23473363
140	0xbcf4a2e6	-0.029862832
141	0x3e5df12e	0.21674034
142	0x3d904a7a	0.07045455
143	0x3e410c0e	0.18852255
144	0xbdf56c3c	-0.11983535
145	0xbde9c399	-0.114142604
146	0xbe4c138c	-0.19929332
147	0xbe05aab8	-0.13053405
148	0xbe8a2cc3	-0.26987275
149	0xbdbcca6d	-0.09218297
150	0xbe14ed24	-0.14543587
151	0xbe13846c	-0.14405984
152	0xbe18401b	-0.14868204
153	0xbe825201	-0.2545319
154	0xbea82156	-0.32837933
155	0xbe35b5e4	-0.17745167
156	0xbe1e7308	-0.15473568
157	0xbe246f95	-0.1605819
158	0xbe2d7982	-0.16940883
159	0xbea0513c	-0.31311977
160	0xbe19ae57	-0.15007912
161	0xbd8066d6	-0.062696144
162	0xbd88766d	-0.06663213
163	0xbdb97029	-0.09054596
164	0xbe97112f	-0.29505298
165	0xbdeda6e8	-0.116041005
166	0xbc6611b0	-0.014042303
167	0xbc030476	-0.007996669
168	0xbdc23e2c	-0.094845146
169	0x3ec3fd02	0.38278967
170	0xbded8385	-0.11597351
171	0xbd9bcf35	-0.07607881
172	0xbd3eb514	-0.04655941
173	0xbdaab0f5	-0.08334533
174	0xbe4b7c77	-0.19871698
175	0xbe503ae9	-0.20334972
176	0xbe97732f	-0.29580066
177	0xbe824d9d	-0.2544984
178	0xbe2eeea6	-0.17083225
179	0xbe1930f2	-0.14960077
180	0x3d4803fd	0.04883193
181	0x3e26182e	0.16220161
182	0x3da7ff52	0.08202995
183	0x3e272f52	0.16326645
184	0x3e3afc4f	0.1826031
185	0x3e91f49c	0.28506935
186	0x3e83da13	0.25752315
187	0x3e8fa822	0.28057963
188	0x3dc80799	0.09767074
189	0x3e5cc0db	0.21557944
190	0x3c6981a4	0.0142521
191	0x3e102f3d	0.1408052
192	0x3de9611e	0.11395477
193	0x3ea05a62	0.31318957
194	0x3e4e53cd	0.20149155
195	0x3ca14361	0.01968545
196	0x3d80a0f0	0.062806964
197	0x3dde472f	0.10853421
198	0x3e16a2b2	0.14710501
199	0x3e86f79f	0.26360795
200	0x3da1dd4c	0.07903537
201	0x3e55c048	0.2087413
202	0x3e14fcaf	0.14549516
203	0x3e172bbc	0.14762777
204	0x3e9a6405	0.30154434
205	0x3e3a0b5a	0.18168393
206	0x3e8eb2f6	0.2787091
207	0xbd80cdb2	-0.06289233
208	0xbe30e5f2	-0.17275217
209	0xbdf66528	-0.12031013
210	0x3c517500	0.012784243
211	0xbebf8c2e	-0.37411636
212	0xbd86ef64	-0.06588629
213	0xbe75df9f	-0.24011086
214	0x3d19ddec	0.037565157
215	0xbe0e1d9f	-0.13878487
216	0x3e027063	0.12738185
217	0xbe14e44c	-0.14540213
218	0xbde29b8a	-0.11064823
219	0x3de95414	0.1139299
220	0x3e1507d2	0.14553764
221	0xbea784a3	-0.3271838
222	0x3e399bf2	0.18125895
223	0xbebfe165	-0.3747665
224	0xbcf4b0f8	-0.029869542
225	0x3c65a6c8	0.0140168145
226	0x3e3e0c17	0.185593
227	0x3e9199ec	0.28437746
228	0x3e07a7ae	0.13247558
229	0x3e8635a9	0.26212814
230	0x3cf922cc	0.0304121
231	0x3d906a2f	0.07051503
232	0x3e21cfee	0.15801975
233	0x3e36e1af	0.17859529
234	0xbe90782c	-0.28216684
235	0xbe840682	-0.25786215
236	0xbe9ee320	-0.31032658
237	0xbea7e428	-0.32791257
238	0xbea1419b	-0.31495366
239	0xbda68fb2	-0.081328765
240	0xbe9354c6	-0.28775615
241	0xbe69ea16	-0.22843203
242	0xbe5ac991	-0.21365954
243	0x3e2a517f	0.16632651
244	0xbeba225e	-0.36354345
245	0xbdfeeffb	-0.124481164
246	0xbea188c1	-0.31549647
247	0xbe39babc	-0.1813764
248	0xbe9de28e	-0.3083691
249	0xbe3379cf	-0.17526935
250	0xbe80f60a	-0.25187713
251	0xbeb8b590	-0.3607602
252	0x3e6c293e	0.23062608
253	0x3e3168c7	0.17325126
254	0x3e84d4b5	0.25943533
255	0x3df1d7ae	0.11808716

bias f4 [200]
0	0xbe294abf	-0.1653242
1	0xbe35bc61	-0.17747642
2	0x3df201df	0.11816763
3	0xbe7bc293	-0.24585943
4	0xbe374699	-0.17898025
5	0xbe35c0f1	-0.17749383
6	0xbc0a90cd	-0.008457375
7	0xbe35c134	-0.17749482
8	0x3e0f3d17	0.13988148
9	0xbe35c08c	-0.17749232
10	0x3df17448	0.11789757
11	0xbe35c12c	-0.1774947
12	0x3e33517b	0.17511551
13	0xbe2c414a	-0.16821781
14	0xbe35c112	-0.17749432
15	0x3ca98c6c	0.020696841
16	0x3e2ddc04	0.1697846
17	0x3e3af3cd	0.18257065
18	0x3e3112ab	0.17292278
19	0xbe35c08f	-0.17749237
20	0xbe1b492e	-0.15164635
21	0x3e23d05d	0.15997453
22	0xbe35c03a	-0.1774911
23	0x3e12e3b2	0.14344671
24	0xbe34bedc	-0.17650932
25	0xbe35c140	-0.177495
26	0xbe35c130	-0.17749476
27	0xbe371550	-0.17879224
28	0x3e3e4cee	0.18584034
29	0xbe35285e	-0.1769118
30	0xbe35c005	-0.17749031
31	0x3e38d6f6	0.18050751
32	0x3e2ffb56	0.17185721
33	0xbe333ad3	-0.17502908
34	0xbe35c139	-0.1774949
35	0x3e18f896	0.14938578
36	0xbe379f30	-0.17931819
37	0xbe386ea6	-0.18010959
38	0xbe35ae01	-0.17742158
39	0x3e572acf	0.21012424
40	0x3dbe74f9	0.092996545
41	0xbe35c134	-0.17749482
42	0xbe6ab293	-0.22919683
43	0xbe35c121	-0.17749454
44	0xbe367564	-0.17818218
45	0xbe35c10e	-0.17749426
46	0x3e22fde3	0.15917163
47	0x3da8ddb4	0.082454115
48	0xbe35bfed	-0.17748995
49	0xbe35c167	-0.17749558
50	0xbe357425	-0.17720087
51	0x3e2bdfdd	0.16784616
52	0x3db71229	0.08939011
53	0x00000000	0.0
54	0x3e6fac14	0.23405486
55	0x3e291721	0.16512729
56	0xbe35c047	-0.17749129
57	0xbe26afaf	-0.16277955
58	0xbe35c141	-0.17749502
59	0x3e2911b8	0.16510665
60	0xbe646ae3	-0.22306399
61	0x3e3130ea	0.17303815
62	0x3e34466f	0.17604993
63	0xbe35c0e3	-0.17749362
64	0xbe35bd60	-0.17748022
65	0xbe35bc6c	-0.17747658
66	0xbe36e9a2	-0.17862561
67	0xbe35c10a	-0.1774942
68	0x3e2fa0e1	0.17151214
69	0xbe35c1c1	-0.17749692
70	0xbe35c138	-0.17749488
71	0x3e3070b9	0.172305
72	0xbe35c0a2	-0.17749265
73	0xbe362b66	-0.17789993
74	0x3e2fac2f	0.17155527
75	0xbe35c13b	-0.17749493
76	0x3e26463f	0.16237734
77	0x3d6cccfa	0.05781267
78	0xbe35c127	-0.17749463
79	0x3e1309d8	0.14359224
80	0xbe35aee8	-0.17742503
81	0xbe36c989	-0.17850317
82	0x3e316b7c	0.17326158
83	0x3ca65683	0.020304924
84	0x3e344669	0.17604984
85	0x3e300ce3	0.17192416
86	0x3e35c9d6	0.17752776
87	0xbe35c139	-0.1774949
88	0x3e1b9507	0.15193568
89	0xbe35c128	-0.17749465
90	0xbe35bebc	-0.1774854
91	0x3dcc788e	0.099839315
92	0xbe35c0e4	-0.17749363
93	0xbe0bbee2	-0.13647035
94	0xbe35c134	-0.17749482
95	0xbe451636	-0.19246754
96	0xbe36a68a	-0.17836967
97	0xbe36cab9	-0.1785077
98	0xbe36e24c	-0.17859763
99	0xbe35bff0	-0.17749
100	0x3e2cde35	0.1688164
101	0xbe3a058f	-0.18166183
102	0x3e30a13c	0.17249006
103	0x3e289093	0.164614
104	0xbe35c122	-0.17749456
105	0x3dd6d475	0.10489742
106	0x3e04c828	0.12966979
107	0x3e2b0dd0	0.16704488
108	0xbe356e5f	-0.17717884
109	0x3e3eb67c	0.186243
110	0xbe35c13d	-0.17749496
111	0xbe3737c0	-0.1789236
112	0xbe7568f1	-0.23965813
113	0x3d40b86b	0.047050875
114	0xbdb501b6	-0.08838217
115	0xbe35c13b	-0.17749493
116	0xbe235b16	-0.15952715
117	0xbe35c12d	-0.17749472
118	0x3da218c0	0.07914877
119	0xbe35c138	-0.17749488
120	0x3dbb9319	0.09158916
121	0xbe3c37c4	-0.18380648
122	0xbe35c110	-0.17749429
123	0xbe35c131	-0.17749478
124	0x3e407071	0.18792893
125	0xbe35c134	-0.17749482
126	0xbe35c13c	-0.17749494
127	0xbe35c133	-0.17749481
128	0xbe35c129	-0.17749466
129	0xbe35bdcf	-0.17748187
130	0xbe3c8d0d	-0.18413182
131	0xbe3b941e	-0.18318221
132	0x3e2c38dc	0.16818565
133	0xbe36dccb	-0.17857663
134	0xbe373b65	-0.17893751
135	0xbdf3061a	-0.11866398
136	0x3e2370e9	0.1596104
137	0x3e36c65e	0.17849109
138	0xbe35c0bf	-0.17749308
139	0xbe35c134	-0.17749482
140	0x3e580581	0.2109585
141	0xbe35c113	-0.17749433
142	0x3e2beb30	0.16788936
143	0x3e3142b8	0.17310607
144	0xbe35b9ea	-0.17746702
145	0xbe35c120	-0.17749453
146	0x3e26767c	0.16256136
147	0xbe35c0e1	-0.17749359
148	0xbe35c117	-0.17749439
149	0xbe363475	-0.17793448
150	0x3e584d24	0.21123177
151	0x3e2f0fde	0.17095897
152	0x3e330889	0.17483725
153	0xbe35c0ea	-0.17749372
154	0xbe35c132	-0.1774948
155	0xbe35c0aa	-0.17749277
156	0x3e385583	0.1800137
157	0x3e3325c9	0.17494883
158	0xbe326a99	-0.17423476
159	0x3db11efc	0.08648488
160	0xbe35c0c8	-0.17749321
161	0xbe364c8e	-0.17802641
162	0x3e1ad93b	0.1512193
163	0x3e30a85a	0.17251721
164	0xbe342729	-0.17593063
165	0x3e34c2f8	0.176525
166	0x3e2cf4d6	0.16890272
167	0x3e15dd4f	0.14635204
168	0xbe35c12d	-0.17749472
169	0x3e326185	0.17420013
170	0xbe35c138	-0.17749488
171	0xbe35b07f	-0.17743109
172	0x3e0afb35	0.1357239
173	0xbe35bf0b	-0.17748658
174	0xbe35dce5	-0.17760046
175	0xbe35c138	-0.17749488
176	0xbe35c131	-0.17749478
177	0x3e4247c4	0.18972689
178	0xbe35c131	-0.17749478
179	0xbe35c119	-0.17749442
180	0xbe377197	-0.17914425
181	0xbdaefed3	-0.085446976
182	0x3e2edc1a	0.1707615
183	0x3e3a73b1	0.18208195
184	0x3e31b0e4	0.17352635
185	0x3e3198e1	0.17343475
186	0xbe35c12a	-0.17749467
187	0x3e2d6b41	0.16935445
188	0x3e26a7d5	0.1627496
189	0x3e31bd03	0.17357258
190	0x3e1bb41b	0.15205424
191	0x3e2055df	0.15657757
192	0x3e30ff22	0.17284825
193	0xbe35c136	-0.17749485
194	0xbe35c0c0	-0.1774931
195	0xbe35c0e3	-0.17749362
196	0x3e09c853	0.13455324
197	0x3e307fc7	0.17236243
198	0x3e0f0c12	0.13969448
199	0xbe36b4c6	-0.17842397

weight f4 [200, 200]
0	0x3daba565	0.08381156
1	0xbe46f72e	-0.19430229
2	0xbe698c0e	-0.22807333
3	0xbe876765	-0.2644607
4	0x3e037e70	0.12841201
5	0x3db5e9e8	0.08882505
6	0x3ea65eaf	0.32494113
7	0x3e998842	0.2998677
8	0xbe8f32e0	-0.27968502
9	0xbd8aaef9	-0.06771655
10	0xbe07bd7d	-0.13255878
11	0xbe4a3ca8	-0.19749701
12	0x3e6988e3	0.22806124
13	0x3e25358e	0.1613371
14	0xbe82dd78	-0.25559592
15	0xbdee38bd	-0.11631916
16	0xbdf79107	-0.12088209
17	0xbe81189b	-0.25214085
18	0x3ea46195	0.321057
19	0x3ea57456	0.3231532
20	0xbd6c4a02	-0.057687767
21	0xbe38e1c2	-0.1805487
22	0x3e00016d	0.12500544
23	0xbe11db52	-0.1424382
24	0x3e4d114b	0.20026128
25	0x3e81c3e9	0.2534478
26	0xbe085436	-0.13313374
27	0xbe31d80a	-0.17367569
28	0xbd93804c	-0.07202205
29	0xbe07f161	-0.13275672
30	0xbd074222	-0.033022054
31	0x3e64e30a	0.22352234
32	0xbe868fe4	-0.26281655
33	0xbe7adb5d	-0.24497743
34	0xbe5f9698	-0.2183479
35	0xbe839aa7	-0.25703928
36	0xbd6aa18a	-0.057282962
37	0xbe8d848d	-0.2764019
38	0x3e01484f	0.1262524
39	0x3e86b022	0.26306254
40	0x3e259d5e	0.16173312
41	0xbd5c15dc	-0.053731784
42	0x3e57133a	0.21003428
43	0x3e0a7609	0.1352159
44	0xbdf014e2	-0.11722733
45	0x3e954d56	0.29160565
46	0x3e7ab5c1	0.24483396
47	0xbe87889c	-0.26471412
48	0xbdc9ced4	-0.098539025
49	0xbe3910a3	-0.18072753
50	0x3db141de	0.08655141
51	0x3db3c270	0.087773204
52	0x3eb127cf	0.34600684
53	0xbe43d241	-0.19123174
54	0xbd9f88f2	-0.07789792
55	0x3e42ae59	0.19011821
56	0xbe978ae9	-0.29598168
57	0x3d9e06ac	0.07716116
58	0xbde0ce43	-0.10976841
59	0xbe06e6d0	-0.13173985
60	0xbe823b77	-0.25435993
61	0xbdd01ffc	-0.101623505
62	0xbe96071b	-0.29302296
63	0x3e66e3dd	0.2254786
64	0x3e90ffb5	0.2832009
65	0x3e33fb1a	0.17576256
66	0x3e04db61	0.12974311
67	0xbe88ee5e	-0.2674436
68	0xbe95b9b8	-0.29243255
69	0xbd6d17c1	-0.05788398
70	0x3e964d94	0.29356062
71	0xbd04029f	-0.032229062
72	0x3e95bda7	0.29246256
73	0xbe8ef5a4	-0.27921784
74	0xbe898000	-0.2685547
75	0xbdd7c0c8	-0.10534817
76	0x3d911d3d	0.07085655
77	0x3e378522	0.1792188
78	0xbdb05b14	-0.08611122
79	0x3e90c51f	0.2827539
80	0x3dafec28	0.08589965
81	0x3e24c3ad	0.1609027
82	0x3d916592	0.07099451
83	0x3dde2ec0	0.108487606
84	0xbe10f19c	-0.14154667
85	0x3e47973e	0.19491288
86	0xbde0486a	-0.10951312
87	0xbe68c06b	-0.22729652
88	0x3e2b5a6d	0.16733713
89	0x3e7d4c81	0.24736215
90	0xbe7fe0ff	-0.24988173
91	0x3e32e15a	0.17468777
92	0xbd706d41	-0.058697943
93	0x3e7e9f21	0.2486539
94	0x3e90b65a	0.28264123
95	0x3e9a24fb	0.3010634
96	0x3e722844	0.23648173
97	0xbe26c4d4	-0.16286021
98	0x3e609f64	0.21935803
99	0x3e85ba6e	0.26118797
100	0x3ea0e0bc	0.3142146
101	0xbe2d2ac2	-0.16910842
102	0xbe42b098	-0.19012678
103	0x3e569300	0.20954514
104	0xbe556409	-0.20838942
105	0x3e4851f2	0.1956251
106	0x3e3991a2	0.18121961
107	0xbe5781bd	-0.21045585
108	0x3e76f74f	0.24117778
109	0x3e97dafd	0.29659262
110	0xbdaeba73	-0.08531656
111	0xbe846bfa	-0.2586363
112	0xbe80dedf	-0.25170037
113	0x3e2b8847	0.16751204
114	0x3e554a62	0.20829156
115	0x3e61577d	0.2200603
116	0xbe473545	-0.19453914
117	0x3e8b94cd	0.27261963
118	0xbd960d6f	-0.07326781
119	0xbe79b34a	-0.243848
120	0xbe64c26b	-0.2233979
121	0x3e5b3f0e	0.21410772
122	0xbe2e050c	-0.16994113
123	0x3e7aeb24	0.24503762
124	0xbdc79473	-0.09745111
125	0x3e74e856	0.23916754
126	0xbe54096e	-0.20706722
127	0xbe2c0d6d	-0.16801997
128	0xbe8f5d43	-0.2800084
129	0x3db842b9	0.08997101
130	0x3e9f16fd	0.31072226
131	0xbdac7d56	-0.084223434
132	0x3e689267	0.22712098
133	0xbdeec843	-0.11659291
134	0x3e16a525	0.14711435
135	0x3e7d9552	0.24763992
136	0xbe5ddbe7	-0.21665917
137	0xbe4c5436	-0.19953999
138	0xbe8f689e	-0.28009504
139	0x3e5282cd	0.20557709
140	0x3db12c92	0.08651079
141	0xbdea8497	-0.11451071
142	0x3e5abf05	0.2136193
143	0x3e551346	0.20808133
144	0xbe971ec2	-0.29515654
145	0x3deadbac	0.1146768
146	0x3e96ee12	0.29478508
147	0x3e57ee66	0.21087036
148	0x3e40af86	0.18816957
149	0xbd5dcc46	-0.05414989
150	0x3d6e807b	0.058227997
151	0x3e4c28bf	0.19937418
152	0xbe831ca6	-0.25607795
153	0x3e8f6b7c	0.28011692
154	0x3dfb1881	0.12260533
155	0x3e8a9df7	0.27073643
156	0x3dece73e	0.115675434
157	0xbe740bd9	-0.23832645
158	0xbe7c5c72	-0.2464464
159	0xbdce3ba6	-0.10069971
160	0x3de22f2b	0.11044153
161	0x3e70cb76	0.23515114
162	0xbe86ed7b	-0.26353058
163	0x3e900290	0.28126955
164	0xbe73fda1	-0.2382722
165	0xbdc35880	-0.095383644
166	0xbe6bfb9f	-0.23045205
167	0xbde9cabc	-0.11415622
168	0xbdf7d8d7	-0.12101906
169	0xbe75ccfe	-0.2400398
170	0xbe50c0d9	-0.20386066
171	0xbe3263fc	-0.17420954
172	0xbe3ab2ab	-0.18232219
173	0xbc8d646c	-0.017259799
174	0x3e87fa00	0.26557922
175	0xbe8c04b0	-0.27347326
176	0x3e758648	0.23977005
177	0xbe14cad7	-0.14530502
178	0xbde0541b	-0.10953542
179	0xbe974656	-0.2954585
180	0xbb7118c8	-0.0036788452
181	0x3c2166ed	0.0098512
182	0xbe366430	-0.17811656
183	0xbe63555c	-0.22200531
184	0x3e843a5d	0.25825778
185	0x3e1048f9	0.14090337
186	0xbe63690f	-0.22208045
187	0x3e0efa65	0.13962705
188	0x3e95ed1e	0.2928247
189	0x3e8e4dd3	0.2779375
190	0xbe836eef	-0.25670573
191	0x3e8589a4	0.26081574
192	0x3e229d7e	0.15880391
193	0xbd702965	-0.058633227
194	0xbd768dcf	-0.060193833
195	0xbe2a1365	-0.16608961
196	0xbc8218de	-0.015880998
197	0xbdf881b8	-0.12134117
198	0xbe86ddef	-0.26341197
199	0x3e080a32	0.13285139
200	0x3e663187	0.2247983
201	0xbe8c36a9	-0.27385452
202	0xbe932f30	-0.2874694
203	0xbdd0c918	-0.101946056
204	0x3e5315e0	0.20613813
205	0x3e6f7819	0.23385657
206	0xbd618896	-0.0550619
207	0x3e6f7a25	0.23386438
208	0xbe88501d	-0.26623622
209	0xbe45abd7	-0.19303833
210	0xbe716220	-0.23572588
211	0xbdd8db7a	-0.10588737
212	0x3e4afb10	0.19822335
213	0xbe99407f	-0.2993202
214	0xbe2c38ea	-0.16818586
215	0xbe52b267	-0.20575868
216	0xbe51afd8	-0.20477235
217	0xbdcb3f6a	-0.09924205
218	0xbe1f3d39	-0.15550698
219	0x3e3c7677	0.18404566
220	0xbe1ee8b7	-0.15518461
221	0xbe148ed5	-0.14507611
222	0x3c8bd833	0.017070865
223	0xbe1c9165	-0.15289839
224	0xbe0e995b	-0.13925688
225	0xbe3c2fd6	-0.18377623
226	0xbe3e86ca	-0.18606105
227	0xbe7ba2d4	-0.24573833
228	0xbe8bedcc	-0.27329862
229	0xbe54d31b	-0.20783655
230	0xbe4146be	-0.18874642
231	0x3db14884	0.086564094
232	0xbe3d4dd8	-0.18486726
233	0xbe883c45	-0.26608482
234	0xbe8d6ffa	-0.27624494
235	0xbe53542e	-0.20637581
236	0xbdb1c2c1	-0.086797245
237	0xbe7d5412	-0.24739102
238	0x3df0c22d	0.11755786
239	0xbdd18c29	-0.102318116
240	0xbde8f2ee	-0.1137446
241	0xbe3cf7f4	-0.18453962
242	0x3e851d1d	0.25998774
243	0xbe68ab38	-0.22721565
244	0xbe2b119e	-0.16705939
245	0xbdd503d6	-0.10401122
246	0xbdd07955	-0.10179392
247	0xbe95adb7	-0.29234096
248	0xbe2ad9c9	-0.16684641
249	0xbdf7d5d5	-0.12101332
250	0xbe35fccc	-0.17772216
251	0xbde4d145	-0.111727275
252	0x3e8813b2	0.26577526
253	0xbdf29ff5	-0.11846916
254	0xbe96c924	-0.29450333
255	0xbdd83e33	-0.105587386

bias f4 [200]
0	0x3e2ddcb9	0.1697873
1	0x3e32be08	0.17455304
2	0xbe35c138	-0.17749488
3	0x3e35488e	0.17703459
4	0xbe35c123	-0.17749457
5	0x3e31cde6	0.173637
6	0xbe35bd99	-0.17748107
7	0x3e260e3a	0.16216365
8	0x3e26e94e	0.16299936
9	0xbe35c12d	-0.17749472
10	0x3e30326c	0.17206734
11	0x3e2bf0d8	0.16791093
12	0xbe361b9e	-0.17783973
13	0x3e34c05f	0.17651509
14	0x3e3549d9	0.17703952
15	0x3e34eeaf	0.17669176
16	0xbe37829d	-0.17920919
17	0x3e360d5c	0.17778534
18	0x3e1ba4b7	0.15199552
19	0x3e34bbf1	0.17649819
20	0x3e2ee447	0.17079268
21	0xbe35c137	-0.17749487
22	0xbe35c0e7	-0.17749368
23	0x3e34ed9b	0.17668764
24	0x3e2bf060	0.16790915
25	0xbe35bedb	-0.17748587
26	0x3e2ed260	0.17072439
27	0xbe35c141	-0.17749502
28	0x3e72c443	0.2370768
29	0x3e33426b	0.17505805
30	0x3db6ba87	0.08922296
31	0x3e6eaf3e	0.23309037
32	0x3e34a180	0.17639732
33	0x3e3823cb	0.17982404
34	0x3e52660a	0.20546737
35	0x3e21bb80	0.15794182
36	0xbe35c112	-0.17749432
37	0xbe2645c9	-0.16237558
38	0xbe35941c	-0.1773228
39	0xbe35c0d7	-0.17749344
40	0xbe35bff5	-0.17749007
41	0x3e349004	0.17633063
42	0xbe35b2fd	-0.1774406
43	0xbe31547a	-0.17317382
44	0x3e29e89b	0.16592638
45	0x3e309596	0.17244563
46	0x3e3472c6	0.17621908
47	0xbe35c13d	-0.17749496
48	0xbe35c13f	-0.17749499
49	0x3e33fccb	0.17576902
50	0x3e2baeb5	0.16765864
51	0xbe35d20b	-0.17755906
52	0x3e3102b4	0.17286187
53	0xbe35c105	-0.17749412
54	0xbe35c13b	-0.17749493
55	0xbe35c13b	-0.17749493
56	0xbd205613	-0.039144587
57	0x3e3426a6	0.17592868
58	0xbe35c143	-0.17749505
59	0x3e2f5154	0.17120868
60	0xbe35c11a	-0.17749444
61	0x3e2d849a	0.16945115
62	0x3e3418ad	0.17587538
63	0x3e33c1fc	0.17554468
64	0xbe324324	-0.17408425
65	0xbe06b62f	-0.13155435
66	0x3e2e64be	0.17030618
67	0xbe35c120	-0.17749453
68	0xbe32c522	-0.17458013
69	0x3e350970	0.17679381
70	0xbe355013	-0.17706327
71	0xbe35ba96	-0.17746958
72	0x3e31afc9	0.17352213
73	0xbe35c0bb	-0.17749302
74	0xbe35c113	-0.17749433
75	0xbe35c140	-0.177495
76	0x3e354822	0.17703298
77	0xbe35c13e	-0.17749497
78	0xbe35c13b	-0.17749493
79	0xbe35c141	-0.17749502
80	0xbe39ab80	-0.18131828
81	0xbe35c143	-0.17749505
82	0x3e2d1a68	0.16904604
83	0x3e343a47	0.17600356
84	0xbe35c131	-0.17749478
85	0x3e34fa84	0.17673689
86	0xbe35c12b	-0.17749469
87	0xbe34b0d2	-0.17645577
88	0x3e25cc55	0.16191228
89	0x3d7148c2	0.058907278
90	0xbe35c13b	-0.17749493
91	0xbe35bf8e	-0.17748854
92	0x3e33d401	0.17561342
93	0xbe35c824	-0.17752129
94	0xbe35b0d4	-0.17743236
95	0xbe35d06a	-0.17755285
96	0xbe39bea9	-0.18139137
97	0x3e34de76	0.17662987
98	0x3e357bbd	0.17722984
99	0xbe35c135	-0.17749484
100	0x3e333dbf	0.17504023
101	0x3e2bd2f2	0.16779688
102	0x3e33f89c	0.17575306
103	0x3e2fc9eb	0.1716687
104	0x3e332b52	0.17496994
105	0xbe35c129	-0.17749466
106	0x3e234257	0.15943275
107	0x3e321d06	0.17393884
108	0xbe35c061	-0.17749168
109	0x3e3083b7	0.17237745
110	0x3e31aba4	0.17350632
111	0xbe36107d	-0.17779727
112	0x3e347028	0.17620909
113	0x3e321468	0.17390597
114	0x3e711bbf	0.2354574
115	0x3e36d34e	0.17854044
116	0xbe35c140	-0.177495
117	0x3e34598d	0.17612286
118	0x3e328d64	0.17436749
119	0x3e8520ec	0.2600168
120	0xbe35c015	-0.17749055
121	0x3e80f245	0.25184837
122	0xbe3df1dc	-0.18549293
123	0xbe357a48	-0.17722428
124	0xbe35c144	-0.17749506
125	0x3e350a7d	0.17679782
126	0x3e3321d9	0.1749338
127	0x3e31d6cf	0.17367099
128	0xbe35b904	-0.17746359
129	0xbe346422	-0.17616323
130	0x3e3324e2	0.17494538
131	0x3e36c3ac	0.1784808
132	0xbe35af46	-0.17742643
133	0x3e49a7e8	0.19692957
134	0x3e2bbbd5	0.16770871
135	0x3e34659b	0.17616884
136	0x3cf5673a	0.029956449
137	0x3e34741a	0.17622414
138	0x3e32fa21	0.17478229
139	0x3e27cbcf	0.1638634
140	0x3da8792d	0.082262374
141	0xbe35b3c3	-0.17744355
142	0xbe35c13e	-0.17749497
143	0xbe35c143	-0.17749505
144	0xbe287e33	-0.16454391
145	0x3e32d590	0.1746428
146	0x3e3642f0	0.17798972
147	0x3e69cf78	0.2283305
148	0x3e2319e8	0.15927851
149	0xbe360b99	-0.17777862
150	0xbe35c0a7	-0.17749272
151	0x3e3c5d21	0.18394901
152	0xbe35bc60	-0.1774764
153	0x3e148c22	0.14506581
154	0x3e2f52e6	0.17121467
155	0x3e115359	0.14191951
156	0x3e300a2e	0.17191383
157	0xbe35c143	-0.17749505
158	0xbe41eba5	-0.18937548
159	0x3e32e77c	0.17471117
160	0xbe35b0eb	-0.1774327
161	0x3e610b65	0.21977003
162	0x3e3324ba	0.17494479
163	0x3e2cbfb0	0.16869998
164	0xbe35c13b	-0.17749493
165	0x3e335c59	0.17515697
166	0xbe35d126	-0.17755565
167	0x3e2fc404	0.17164618
168	0x3e283a5e	0.16428515
169	0x3e316958	0.17325342
170	0x3e2ec124	0.17065865
171	0xbe35c11b	-0.17749445
172	0xbe35c13b	-0.17749493
173	0x3e34ec47	0.17668258
174	0xbe35bfb2	-0.17748907
175	0x3e32e789	0.17471136
176	0x3e34bda6	0.1765047
177	0x3e36b796	0.1784347
178	0x3e342281	0.17591287
179	0x3e3444d0	0.17604375
180	0xbe35c13e	-0.17749497
181	0xbe35c126	-0.17749462
182	0xbe35cb27	-0.17753278
183	0xbe35c13f	-0.17749499
184	0xbe34a9b5	-0.17642863
185	0xbe35c12b	-0.17749469
186	0x3e3140d9	0.17309894
187	0x3e5dd939	0.21664895
188	0xbe35c144	-0.17749506
189	0x3e340d14	0.17583114
190	0x3e7f3cfa	0.24925604
191	0x3e314ee8	0.17315257
192	0xbe35c129	-0.17749466
193	0xbe382c7f	-0.17985724
194	0x3d2ee9f4	0.042703584
195	0xbe3f727c	-0.18696016
196	0x3e329496	0.17439494
197	0x3e45d815	0.1932071
198	0xbe35c133	-0.17749481
199	0x3e2ccfad	0.16876097

weight f4 [200, 200]
0	0x3e2cc5a9	0.16872276
1	0x3dfd8a42	0.12379886
2	0x3e801bd4	0.2502123
3	0x3e8d58f2	0.27606922
4	0x3d84bea5	0.06481675
5	0x3e087590	0.13326097
6	0x3c38dfe1	0.011283846
7	0x3dc2d522	0.09513308
8	0xbe88bdf8	-0.26707435
9	0x3d4067a3	0.046973836
10	0x3e90b9f2	0.28266865
11	0x3e75176f	0.2393472
12	0xbda25c12	-0.07927717
13	0xbc0f9716	-0.008764049
14	0x3db0c0d4	0.08630529
15	0x3e84f4af	0.2596793
16	0xbd22373e	-0.039603464
17	0x3e3736d1	0.17892005
18	0x3e6d1292	0.23151615
19	0x3e4997a6	0.19686756
20	0x3e8eff65	0.27929226
21	0xbe3a900a	-0.18219009
22	0xbd4c60ae	-0.04989689
23	0x3eab0939	0.33405474
24	0xbe455e08	-0.19274151
25	0x3e42d56e	0.1902673
26	0x3d9540cb	0.07287749
27	0x3b9c9980	0.004779041
28	0xbe758807	-0.23977672
29	0xbde71203	-0.11282732
30	0x3e2d3d7a	0.16917983
31	0xbe68befe	-0.22729108
32	0x3e175c8a	0.14781395
33	0x3e102578	0.14076793
34	0x3e8b0eb2	0.2715965
35	0x3e075b0c	0.13218325
36	0x3ec320cb	0.38110957
37	0x3e2a7c88	0.16649067
38	0x3e8cc3c5	0.2749311
39	0x3e8e2352	0.27761322
40	0x3e4376ef	0.19088338
41	0x3d66391b	0.056206804
42	0x3e0a7649	0.13521685
43	0x3e427d09	0.1899301
44	0x3dafa50f	0.08576404
45	0x3e23c1e8	0.15991938
46	0x3eadf579	0.33976343
47	0xbe7c053c	-0.24611372
48	0x3d598e2e	0.05311411
49	0x3e923209	0.285538
50	0xbdc3322e	-0.095310554
51	0xbbfa3662	-0.0076358775
52	0xbe20a585	-0.1568814
53	0x3daa0bac	0.083030075
54	0xbc53756e	-0.012906415
55	0x3d3d6146	0.046235345
56	0x3e7584c8	0.23976433
57	0xbd9858a7	-0.07438784
58	0x3e085112	0.13312176
59	0xbd9a7983	-0.07542708
60	0x3dd95505	0.10611919
61	0xbd4797d7	-0.04872879
62	0x3de91197	0.11380308
63	0x3e58e7b5	0.21182139
64	0x3e719067	0.23590241
65	0x3e648fe3	0.22320513
66	0x3d1e1da1	0.038602475
67	0x3e5e3345	0.21699245
68	0x3dac8eca	0.08425672
69	0x3ce1fe04	0.027586944
70	0x3e0abf79	0.13549604
71	0x3d8f5de5	0.07000331
72	0x3d86b42f	0.06577336
73	0xbd9091b3	-0.0705904
74	0xbe246df4	-0.16057569
75	0x3e2f644b	0.17128102
76	0x3cb038b8	0.02151142
77	0x3dcd09e4	0.10011652
78	0x3e4faddf	0.2028117
79	0x3d042752	0.03226406
80	0x3dea5834	0.11442605
81	0x3db55e94	0.0885593
82	0x3e90e303	0.28298196
83	0x3e3c95ec	0.18416566
84	0xbe8ef2d2	-0.27919632
85	0x3e7fe973	0.24991398
86	0xbe35dafb	-0.17759316
87	0x3e70067f	0.23439978
88	0x3d35a666	0.044348143
89	0xbcafb7ce	-0.02144995
90	0x3d96d4db	0.07364818
91	0xbdeaa4c0	-0.11457205
92	0xbd343301	-0.043993954
93	0x3d6245ae	0.055242233
94	0x3df74fb1	0.12075747
95	0x3c541070	0.012943372
96	0x3e91931d	0.2843255
97	0xbdbcb25f	-0.09213709
98	0xbdb35fc7	-0.087585025
99	0x3e16e3f9	0.14735402
100	0x3e09d418	0.13459814
101	0x3dcf2cf9	0.10116
102	0xbe3bd764	-0.18343884
103	0x3e5d3e26	0.21605739
104	0x3d839fae	0.06426941
105	0x3e66c1cc	0.22534865
106	0x3e866b6f	0.2625384
107	0x3ebdacb6	0.3704583
108	0xbd72a2d6	-0.059237324
109	0xbe515a7e	-0.20444676
110	0x3e65c1ee	0.2243726
111	0x3e8fc35a	0.2807873
112	0xbd7d134e	-0.06178599
113	0x3e9d44dd	0.307166
114	0xbe1f9f47	-0.15588103
115	0x3e80dfe9	0.2517083
116	0x3eb8a255	0.3606135
117	0x3e97a7df	0.29620263
118	0x3eb0c5e9	0.34525993
119	0x3d8a2eca	0.067472056
120	0xbcd3210d	-0.025772596
121	0x3e8ab345	0.27089897
122	0x3d79903e	0.060928576
123	0x3e497c28	0.19676268
124	0xbe2c4864	-0.1682449
125	0x3e5c3abd	0.21506782
126	0x3e045675	0.12923606
127	0x3e458961	0.19290687
128	0x3e3edbfd	0.18638606
129	0x3d7ac37e	0.061221592
130	0x3eb69e8d	0.3566784
131	0xbc9e260c	-0.019305252
132	0xbd4ba3ca	-0.04971675
133	0x3e8db30b	0.2767566
134	0x3dbd826c	0.092533916
135	0x3e9d7c63	0.30758962
136	0x3e8e3e53	0.27781925
137	0x3e48e0b6	0.1961697
138	0x3e47cf3b	0.19512646
139	0x3df2ca18	0.118549526
140	0xbe5252a3	-0.20539336
141	0x3e235979	0.159521
142	0xbe496678	-0.19667995
143	0x3d1a9b91	0.037746016
144	0x3e89612a	0.26831943
145	0x3e25b9b8	0.16184127
146	0x3e282141	0.16418935
147	0x3e5ebe3b	0.21752255
148	0x3dd44a2a	0.10365708
149	0x3e89431b	0.2680901
150	0x3e5a3ece	0.2131302
151	0x3c879282	0.016549353
152	0xbd96f1fc	-0.073703736
153	0x3df0cbc8	0.11757618
154	0x3e3f6838	0.186921
155	0x3e581ff0	0.21105933
156	0x3e6cd538	0.23128211
157	0xbdb34589	-0.08753497
158	0x3eb94b5d	0.3619031
159	0xbe94589d	-0.28973857
160	0x3e406192	0.1878722
161	0x3e3adea4	0.18248993
162	0xbe3dfd1b	-0.18553583
163	0x3e4b7069	0.198671
164	0x3d0072f7	0.03135964
165	0xbe144635	-0.14479907
166	0x3eb9e98a	0.3631099
167	0x3d3d9a0e	0.046289496
168	0x3e94eafb	0.29085526
169	0xbd93b235	-0.07211725
170	0x3e973511	0.29532674
171	0x3e89be50	0.2690301
172	0xbe2e28f9	-0.17007817
173	0x3e25cc83	0.16191296
174	0x3e67e928	0.22647536
175	0x3da22d09	0.07918746
176	0x3e511e16	0.20421633
177	0xbe7e1010	-0.24810815
178	0x3d8e11d9	0.06936998
179	0x3e83eb74	0.25765574
180	0x3e5f3c4d	0.21800347
181	0x3ebab265	0.3646423
182	0x3d244ef2	0.04011435
183	0xbe3b5258	-0.1829313
184	0xbdd5c1f8	-0.10437387
185	0xbe0ce80c	-0.13760394
186	0x3e2473e7	0.16059838
187	0xbbef55e8	-0.007303942
188	0x3ec9bc7f	0.39401624
189	0x3e5400b3	0.20703392
190	0x3eb1bcad	0.3471426
191	0xbe915761	-0.28386977
192	0x3ea3b08c	0.31970632
193	0x3dd3c626	0.10340528
194	0x3e194f18	0.14971578
195	0x3e140782	0.14455989
196	0xbe5661bf	-0.20935725
197	0x3dc41013	0.095733784
198	0xbe0b9010	-0.13629174
199	0x3e61888b	0.22024743
200	0x3e891d09	0.26779965
201	0x3e24a478	0.16078365
202	0xbe0b9d59	-0.13634242
203	0x3e8a8882	0.27057272
204	0x3e2875a2	0.16451123
205	0xbe077ef8	-0.13232028
206	0xbd92449c	-0.071419924
207	0x3e71ba38	0.23606193
208	0xbe9c760c	-0.30558813
209	0x3e812ad0	0.25227976
210	0xbe0b9ea0	-0.1363473
211	0xbe07ce6e	-0.1326234
212	0xbc886f4e	-0.016654637
213	0xbe9f36e7	-0.31096575
214	0x3e744bf2	0.23857096
215	0x3d83d9e8	0.06438047
216	0xbe90afea	-0.28259212
217	0x3e231db3	0.15929298
218	0x3e1b5ecb	0.1517288
219	0x3dc87b04	0.09789088
220	0x3e2cbc23	0.16868643
221	0xbeb34eb4	-0.35020983
222	0xbe17c809	-0.14822401
223	0xbd3c8df4	-0.046033815
224	0x3e8c0eec	0.27355134
225	0xbe8069dc	-0.25080764
226	0x3e57d15e	0.21075961
227	0x3decc556	0.11561076
228	0xbeaee28b	-0.34157214
229	0x3ddc1b58	0.10747403
230	0x3d65a9a0	0.05606997
231	0xbe1dce2d	-0.15410681
232	0x3d4f8e2a	0.050672688
233	0x3e22c200	0.15894318
234	0x3dcd502c	0.10025057
235	0xbbcab894	-0.006186554
236	0x3e8cd83c	0.27508724
237	0x3e323de3	0.1740642
238	0x3e2a4926	0.16629466
239	0x3dfa2965	0.12214927
240	0x3e2fed1c	0.17180294
241	0x3e6d62e5	0.23182257
242	0x3def3ad8	0.116811454
243	0x3e9548f7	0.2915723
244	0x3e65f130	0.22455287
245	0x3e370c53	0.17875795
246	0x3e4a26eb	0.19741409
247	0xbd41e27f	-0.047335144
248	0xbe6986db	-0.2280535
249	0xbe5a211a	-0.2130169
250	0x3e414724	0.18874794
251	0xbeb1b378	-0.34707236
252	0xbe76b76c	-0.24093407
253	0x3caeae8f	0.02132347
254	0xbe925e52	-0.28587586
255	0x3e15d895	0.146334

bias f4 [200]
0	0xbe35c03d	-0.17749114
1	0x3e32f4bb	0.1747617
2	0xbe35c106	-0.17749414
3	0xbe35c144	-0.17749506
4	0x3e355bab	0.1771075
5	0x3e367dfa	0.17821494
6	0xbe35c141	-0.17749502
7	0x3e35b55b	0.17744963
8	0x3e3585d5	0.17726834
9	0x3e37c0b9	0.17944612
10	0x3e2de7a0	0.16982889
11	0x3e353f78	0.17699993
12	0x3e340435	0.1757973
13	0x3daf1d20	0.08550477
14	0xbe35c13c	-0.17749494
15	0x3dc27f0b	0.09496888
16	0x3e2c8d32	0.16850737
17	0x3e307294	0.17231208
18	0xbe35a64a	-0.17739215
19	0xbe35c143	-0.17749505
20	0x3e34f84c	0.17672843
21	0xbe35c13e	-0.17749497
22	0x3e29f86a	0.16598669
23	0x3e35c8c2	0.17752364
24	0xbe35c035	-0.17749102
25	0x3e2b0d8a	0.16704383
26	0xbe35c0d0	-0.17749333
27	0x3e34b398	0.17646635
28	0x3cd7eb4b	0.026357314
29	0x3e329ff5	0.17443831
30	0xbe35c144	-0.17749506
31	0x3e353386	0.17695436
32	0x3e3446bf	0.17605112
33	0xbe35c138	-0.17749488
34	0xbe359936	-0.17734227
35	0x3e35c18b	0.17749612
36	0x3e363ef1	0.17797448
37	0x3e35ffee	0.1777341
38	0x3e35f66f	0.17769788
39	0xbe35c044	-0.17749125
40	0x3e359942	0.17734244
41	0x3df31ab2	0.11870326
42	0x3e35f271	0.17768265
43	0x3e35286e	0.17691204
44	0x3e374928	0.17899
45	0xbe35c141	-0.17749502
46	0x3e35de20	0.17760515
47	0xbe35c143	-0.17749505
48	0xbe35c0ea	-0.17749372
49	0x3e2ac569	0.16676868
50	0x3e2f3005	0.17108162
51	0x3e35a979	0.1774043
52	0x3e327ced	0.17430468
53	0xbe35c140	-0.177495
54	0x3e274b5b	0.1633734
55	0xbe35c143	-0.17749505
56	0x3e356f8d	0.17718334
57	0x3e34ce75	0.17656882
58	0x3e24cf82	0.16094783
59	0x3e35ef39	0.17767037
60	0x3e354be7	0.17704736
61	0x3e34173f	0.17586993
62	0x3e354f54	0.17706043
63	0x3e2b53d2	0.16731194
64	0xbe35c142	-0.17749503
65	0x3e3611f9	0.17780294
66	0x3e33a004	0.1754151
67	0x3e351492	0.17683628
68	0x3e3398b8	0.17538726
69	0xbe35c128	-0.17749465
70	0x3e318cb6	0.17338833
71	0x3e34a7e7	0.17642175
72	0xbe35bf12	-0.17748669
73	0xbe358dfb	-0.17729943
74	0x3e2b8157	0.16748558
75	0x3e32705c	0.17425674
76	0x3d491c94	0.04909952
77	0xbe35c141	-0.17749502
78	0x3e348091	0.17627169
79	0xbe35bfea	-0.1774899
80	0x3e340c7c	0.17582887
81	0x3e347fe6	0.17626914
82	0x3e336b22	0.17521337
83	0x3e335ac6	0.17515096
84	0xbe35c144	-0.17749506
85	0x3dcc7f16	0.09985177
86	0xbe35c141	-0.17749502
87	0x3e338f9b	0.1753525
88	0xbe35b7be	-0.17745873
89	0x3e322f0d	0.17400761
90	0xbe35c143	-0.17749505
91	0x3e3510d3	0.17682199
92	0x3e355831	0.17709424
93	0xbe35c144	-0.17749506
94	0x3de578a4	0.11204651
95	0x3e2c2bb8	0.16813552
96	0x3e34d203	0.17658238
97	0x3e0adbae	0.13560364
98	0xbe35c143	-0.17749505
99	0xbe2499a4	-0.16074234
100	0x3e305708	0.172207
101	0x3d84dc6d	0.064873554
102	0xbe35c13c	-0.17749494
103	0x3e3607b2	0.17776373
104	0x3e3520aa	0.17688242
105	0xbe35c143	-0.17749505
106	0x3e321b5a	0.17393246
107	0xbe35c133	-0.17749481
108	0x3e34fec2	0.17675307
109	0x3e33b433	0.1754921
110	0xbba16f94	-0.004926631
111	0x3e346256	0.17615637
112	0x3e356263	0.17713313
113	0xbe35c103	-0.1774941
114	0x3e3933f8	0.18086231
115	0x3e34f0c8	0.17669976
116	0x3e351acf	0.17686008
117	0xbe35c0d4	-0.1774934
118	0x3e2febbf	0.17179774
119	0xbe35c143	-0.17749505
120	0x3e34db71	0.17661835
121	0x3e343be4	0.17600971
122	0x3e349627	0.17635404
123	0xbe35c108	-0.17749417
124	0xbe35bf6f	-0.17748807
125	0xbe35c141	-0.17749502
126	0x3e350102	0.17676166
127	0xbe359958	-0.17734277
128	0x3e2d6b64	0.16935498
129	0x3e00c53a	0.12575236
130	0xbe35c144	-0.17749506
131	0xbe36accd	-0.17839356
132	0xbe35bf19	-0.17748679
133	0x3e34d620	0.17659807
134	0x3e35267e	0.17690465
135	0xbe35c141	-0.17749502
136	0x3e33f752	0.17574814
137	0x3e33a188	0.17542088
138	0xbe35c143	-0.17749505
139	0x3e35261f	0.17690323
140	0x3e33d854	0.17562991
141	0x3e360a16	0.17777285
142	0x3e32e1e6	0.17468986
143	0xbcc59ee4	-0.024123617
144	0xbe35c141	-0.17749502
145	0x3e3421fc	0.17591089
146	0x3e352ae5	0.17692144
147	0x3e34ea07	0.176674
148	0x3dc31382	0.09525205
149	0x3e34d50d	0.17659397
150	0x3e2efca3	0.17088561
151	0xbe355135	-0.1770676
152	0xbe35c12e	-0.17749473
153	0xbe35bed0	-0.1774857
154	0x3e33c83b	0.1755685
155	0x3e3589cf	0.17728351
156	0x3e350063	0.17675929
157	0x3e3502f4	0.17676908
158	0x3e356269	0.17713322
159	0x3e2eb0ee	0.17059681
160	0xbe35c13d	-0.17749496
161	0x3e31280b	0.17300431
162	0x3e359a38	0.17734611
163	0x3e3328b2	0.17495993
164	0xbe35ae4d	-0.17742272
165	0xbe357953	-0.17722063
166	0x3e352c0c	0.17692584
167	0x3e3474d1	0.17622687
168	0x3e347583	0.17622952
169	0x3e353067	0.17694245
170	0xbe35c02f	-0.17749093
171	0xbe35c143	-0.17749505
172	0x3cf3c1f0	0.029755563
173	0x3e3658ec	0.17807359
174	0xbe35c144	-0.17749506
175	0xbe35bfe6	-0.17748985
176	0x3e36254d	0.17787667
177	0x3e34093f	0.17581652
178	0x3e32b689	0.17452444
179	0x3e34f78c	0.17672557
180	0x3e3540e8	0.17700541
181	0x3e351c6a	0.1768662
182	0xbe35c0d3	-0.17749338
183	0xbe35c144	-0.17749506
184	0xbe35c13c	-0.17749494
185	0x3e347e92	0.17626408
186	0x3e0771b6	0.13226971
187	0xbe35c0f3	-0.17749386
188	0x3e344c86	0.17607316
189	0xbe35834c	-0.17725867
190	0x3e2e505b	0.1702284
191	0x3e31b8a3	0.1735559
192	0x3e121518	0.14265859
193	0x3e32a6c7	0.17446433
194	0x3e34efcc	0.176696
195	0x3e343ee3	0.17602114
196	0x3e1b9d3e	0.15196702
197	0x3e353595	0.17696221
198	0x3e355cf3	0.17711239
199	0xbe35c143	-0.17749505

weight f4 [200, 200]
0	0xbe7c1f3c	-0.2462129
1	0xbe93b9fb	-0.2885283
2	0x3df768ea	0.12080558
3	0xbd9b5721	-0.07584978
4	0xbe039956	-0.12851462
5	0xbda96adc	-0.08272335
6	0xbe854441	-0.26028636
7	0xbe9a13d1	-0.30093244
8	0xbe850a3e	-0.25984377
9	0xbe139dea	-0.14415708
10	0xbdb2f9b1	-0.08739031
11	0xbe49154e	-0.19637033
12	0x3dd3d6c4	0.10343698
13	0x3e9bfea2	0.30467707
14	0x3e954c28	0.29159665
15	0x3e1bc6f7	0.15212618
16	0xbe416c4f	-0.18888973
17	0xbd049aba	-0.03237412
18	0xbe8a9624	-0.27067673
19	0xbdde0691	-0.10841096
20	0xbe07a04e	-0.13244745
21	0xbdde0237	-0.10840266
22	0xbe0b4f0d	-0.13604374
23	0x3d9b1d37	0.07573932
24	0xbe2970ba	-0.16546908
25	0x3e4f7f6c	0.20263451
26	0xbe0f5b7b	-0.13999741
27	0xbdbb2fbf	-0.09139966
28	0xbe3aafa6	-0.18231067
29	0xbe3874b2	-0.18013266
30	0xbd7af4d6	-0.06126865
31	0xbd5e8345	-0.054324407
32	0x3df08c46	0.11745505
33	0xbdfb1fc2	-0.12261917
34	0xbd5b3436	-0.05351659
35	0xbe83812b	-0.25684485
36	0xbe8b7928	-0.27240872
37	0xbe39a636	-0.1812981
38	0xbe578874	-0.21048146
39	0xbe7d681a	-0.24746743
40	0xbe2d2413	-0.16908292
41	0xbe80bbc1	-0.25143245
42	0xbe2db92b	-0.16965167
43	0xbe8923f3	-0.2678524
44	0xbdf3c322	-0.11902453
45	0x3e410035	0.18847735
46	0x3e7cba6a	0.24680486
47	0xbe84face	-0.259726
48	0xbd70998a	-0.058740176
49	0x3de91020	0.11380029
50	0xbdeaeee0	-0.11471343
51	0xbe375837	-0.17904745
52	0xbe2148e3	-0.1575046
53	0xbddacea2	-0.10683943
54	0xbdaccde2	-0.084377065
55	0xbe8a2190	-0.2697873
56	0xbe1972ff	-0.14985274
57	0xbe25f7ae	-0.16207764
58	0xbd86a418	-0.06574267
59	0xbd690e37	-0.056898322
60	0xbdfcb56f	-0.12339293
61	0xbd1868b6	-0.037209235
62	0xbdcb933c	-0.09940192
63	0xbe301037	-0.17193685
64	0xbe2e78da	-0.17038289
65	0xbe04e2c2	-0.12977126
66	0xbe8a8952	-0.27057892
67	0xbe69a731	-0.22817685
68	0xbe5fcb4b	-0.21854894
69	0xbe85d4ab	-0.26138815
70	0xbcf87a5e	-0.030331787
71	0xbdddad5f	-0.108240835
72	0x3e6e96f4	0.23299772
73	0xbe2ef070	-0.17083907
74	0x3e4830bf	0.19549845
75	0xbe150b64	-0.14555126
76	0x3e3c14d3	0.18367319
77	0xbe0bd9cc	-0.13657302
78	0xbde0c55a	-0.10975142
79	0xbe3117f4	-0.17294294
80	0xbdb882f4	-0.09009352
81	0xbe45104e	-0.19244501
82	0xbe672edc	-0.22576469
83	0xbe18fd25	-0.14940317
84	0xbe831fa9	-0.25610092
85	0x3e90ef86	0.28307742
86	0xbe1ff675	-0.1562136
87	0x3e8caf34	0.2747742
88	0xbd17a4e6	-0.037022494
89	0x3d33aa57	0.04386362
90	0xbe1e25a8	-0.15444052
91	0xbe7ed537	-0.24886023
92	0xbe73d4e6	-0.23811683
93	0xbe2a6189	-0.16638769
94	0x3e4c689f	0.19961785
95	0xbe6dbb0b	-0.23215882
96	0xbe44d9a6	-0.19223651
97	0x3e8a4685	0.27006927
98	0xbe6c7816	-0.23092684
99	0xbd83bb14	-0.06432167
100	0xbdc8d8be	-0.09806965
101	0xbe672bfc	-0.22575372
102	0xbe1eb786	-0.15499696
103	0xbe8666a4	-0.26250184
104	0xbdb28839	-0.08717389
105	0xbe72575a	-0.23666134
106	0xbc1eb1a6	-0.009685909
107	0x3e2a1aca	0.16611782
108	0xbe7648fe	-0.24051282
109	0xbd85d4e1	-0.06534744
110	0xbe2d7cac	-0.1694209
111	0xbdef5372	-0.11685838
112	0xbe85eedf	-0.26158807
113	0x3e862b0d	0.2620472
114	0x3da26e54	0.079312
115	0xbe59ca49	-0.21268572
116	0xbe85dbd7	-0.26144287
117	0xbe3a2ac4	-0.18180376
118	0xbd779894	-0.060448244
119	0x3e6888e4	0.2270847
120	0xbe4f3ee1	-0.2023883
121	0x3c95b2b9	0.018273698
122	0xbe395e3b	-0.18102352
123	0xbe8eedfe	-0.2791595
124	0xbe3f817a	-0.18701735
125	0xbda0227b	-0.07819077
126	0xbe08caac	-0.13358563
127	0xbe248f2e	-0.16070244
128	0xbe763baa	-0.24046198
129	0xbdc2d277	-0.09512799
130	0xbe907fcf	-0.2822251
131	0x3e50fa97	0.20408092
132	0x3dcbd90a	0.09953506
133	0xbe917cdf	-0.28415582
134	0x3e9703b1	0.29495004
135	0xbd897c52	-0.06713165
136	0xbe3b210f	-0.1827433
137	0xbe56888e	-0.20950529
138	0xbe827ba8	-0.25484967
139	0xbdbcb044	-0.092133075
140	0xbdc6eac6	-0.09712748
141	0xbd9a0f76	-0.0752248
142	0xbda55e41	-0.08074618
143	0xbe2ad943	-0.16684441
144	0xbc090067	-0.008361912
145	0xbe238656	-0.15969214
146	0x3e5e0558	0.21681726
147	0x3c1ffb88	0.00976456
148	0xbe052a05	-0.1300431
149	0xbd6c41ae	-0.057679825
150	0x3dba7cac	0.091058105
151	0xbd9d33e1	-0.07675911
152	0xbe0acf16	-0.1355556
153	0xbe08ecfc	-0.13371652
154	0xbe5d9f71	-0.21642853
155	0xbbf421e0	-0.0074503273
156	0xbe03bee4	-0.12865788
157	0xbe8c773e	-0.27434725
158	0x3e50bbf2	0.20384195
159	0xbe365864	-0.17807156
160	0xbe39d2c9	-0.18146814
161	0xbda1b172	-0.07895173
162	0xbe2021df	-0.15637921
163	0xbe5d0ca1	-0.21586849
164	0xbdc3edec	-0.09566864
165	0x3d8bec08	0.06832129
166	0xbe2f401d	-0.17114301
167	0xbda75603	-0.08170702
168	0xbdb5fdc8	-0.088862956
169	0x3e03e7ea	0.12881437
170	0xbe2d188a	-0.16903892
171	0x3e21fa66	0.15818176
172	0x3db9e59c	0.09076998
173	0x3e80808d	0.25098076
174	0x3e0eaf37	0.13934027
175	0xbe84292f	-0.2581267
176	0xbe8f0780	-0.2793541
177	0x3eaaba36	0.33345193
178	0xbe8e42ed	-0.27785435
179	0x3e82f606	0.25578326
180	0xbd83f251	-0.064427026
181	0xbe806b3a	-0.25081807
182	0xbe956429	-0.2917798
183	0xbd9185f8	-0.07105631
184	0xbe50881a	-0.20364419
185	0xbe8cdc17	-0.27511665
186	0x3e855baf	0.26046512
187	0xbc1cc344	-0.009568039
188	0xbdbe0e31	-0.092800505
189	0xbd8281fb	-0.06372448
190	0x3daf9378	0.08573049
191	0xbe83ecaa	-0.25766498
192	0xbd8fc515	-0.07020012
193	0xbe6ab9e7	-0.22922479
194	0xbe11ecc8	-0.14250481
195	0xbe23d338	-0.15998542
196	0xbe04648e	-0.12928984
197	0xbda9f53b	-0.08298727
198	0xbdda4260	-0.10657191
199	0xbe3503ad	-0.17677183
200	0x3dec44ef	0.115365855
201	0x3e045819	0.12924232
202	0x3d624882	0.05524493
203	0x3e9cae0a	0.3060153
204	0x3e8d0f5e	0.27550787
205	0x3d995c64	0.07488325
206	0x3e680e34	0.22661668
207	0xbac679e4	-0.0015142527
208	0x3e8f4b9e	0.2798738
209	0x3dd4f96f	0.10399138
210	0x3e23bcd4	0.15990001
211	0x3eb1d840	0.34735298
212	0x3e5f1e2e	0.21788856
213	0xbe4c4bd8	-0.19950807
214	0xbe08304a	-0.13299671
215	0xbdb2e64e	-0.087353334
216	0x3e7b811f	0.24560975
217	0xbe7c9bf9	-0.24668874
218	0x3dc6ceea	0.097074345
219	0xbe13413c	-0.14380354
220	0xbe0f8d69	-0.14018787
221	0x3e98446b	0.297397
222	0x3e78e634	0.24306566
223	0xbe474c9f	-0.19462822
224	0xbbbbaa45	-0.005727085
225	0x3e8002b8	0.25002074
226	0xbda30a6b	-0.079609714
227	0x3e09abfe	0.13444516
228	0xbd83b19a	-0.06430359
229	0xbe2cba33	-0.16867904
230	0x3dc80288	0.09766108
231	0xbd61c173	-0.05511613
232	0xbdd742b2	-0.10510768
233	0xbdaff50e	-0.08591662
234	0xbe038fd8	-0.12847841
235	0x3ea52813	0.32257137
236	0x3d94efe6	0.072723195
237	0x3cc58bd3	0.024114525
238	0x3db9de31	0.09075583
239	0x3e6216a7	0.22078954
240	0x3e0c7b49	0.13718905
241	0xbe5a3ebe	-0.21312997
242	0x3dd48828	0.10377532
243	0x3e534eb5	0.20635493
244	0xbdf52cc2	-0.119714275
245	0xbd437456	-0.04771837
246	0xbddf505e	-0.10904001
247	0x3e90b071	0.28259614
248	0x3e69b843	0.22824197
249	0xbe0d234c	-0.13782996
250	0x3e4627f7	0.19351183
251	0x3c547e86	0.012969619
252	0x3dac7b6a	0.08421977
253	0x3e20491e	0.15652892
254	0x3e2cef22	0.16888097
255	0x3e77816f	0.24170469

bias f4 [25]
0	0x00000000	0.0
1	0x00000000	0.0
2	0x00000000	0.0
3	0x00000000	0.0
4	0x00000000	0.0
5	0x00000000	0.0
6	0x00000000	0.0
7	0x00000000	0.0
8	0x00000000	0.0
9	0x00000000	0.0
10	0x00000000	0.0
11	0x00000000	0.0
12	0x00000000	0.0
13	0x00000000	0.0
14	0x00000000	0.0
15	0x00000000	0.0
16	0x00000000	0.0
17	0x00000000	0.0
18	0x00000000	0.0
19	0x00000000	0.0
20	0x00000000	0.0
21	0x00000000	0.0
22	0x00000000	0.0
23	0x00000000	0.0
24	0x00000000	0.0
