deep_learning/models/GCNLinkPrediction22.pth (torch, 394576 bytes, 8 tensors)

bias f4 [200]
00000000: 3608 5bbe 88f9 273e f3a0 35be a3ba 133e
00000010: cedf 413e dfd3 3b3e 85f2 333e 3533 473e
00000020: 6426 37be 5bbf 35be d081 7c3d fcb9 913c
00000030: b63c 3fbe fafb 313e 6cf3 31be 4de7 35be
00000040: e5ea 503e 0000 0000 4023 5d3e af4e 34be
00000050: 9f2f 30be 7f5e 3abe 4006 5e3e 3a8b 6dbe
00000060: 7119 f63d 5a02 1abd 0436 52bd 6866 34be
00000070: e3f7 d43d a4b6 35be 2c52 32be 5651 043e
00000080: 3889 38be 7550 2cbe f5b9 35be 43f8 35be
00000090: 33be 35be db43 2ebe 21fe 3ebe 00d3 343e
000000a0: 1e77 87be 8eb2 723e fef5 1a3e ffb7 143e
000000b0: 06e4 35be ecd7 973d b200 7f3e 3bcc 35be
000000c0: 03b8 35be 4f8b 293e 1b4f ef3d e0bb 733a
000000d0: 3480 cfbd 83f8 523e 3321 363e 09c1 35be
000000e0: a633 45be 4fd7 31be 5281 9a3d fcbd 203e
000000f0: 96c0 35be 2e9b 9a3d 4c0b 36be c00a b93c
00000100: dd21 39be a81d 36be fad8 0d3d 8f5d 41be
00000110: a7c3 37be 8e2b 083e 8be9 2cbe bdc1 39be
00000120: 3009 47bb 9f49 38be a6f2 3cbe f84e 113e
00000130: 8dbd ee3d 6cb4 0f3e c260 423e dfbb 45be
00000140: 0a74 35be db9d 233e 714e 34be 8128 0e3e
00000150: 39e7 543e 3cbf 35be 0bf1 37be a624 35be
00000160: fb77 28be a62b 20be 083d 43be a4dd 48be
00000170: 22e5 ae3c b56f 39be 9d17 323e 6238 36be
00000180: 1175 da3c 616e 35be 6c88 0f3e ccbf 57be
00000190: 6ae2 353e 54d4 b83d 8cde 543e 0455 923c
000001a0: 9abf 36be f7c9 f53d f676 35be b1f8 163e
000001b0: c4d0 0d3e 9c45 8f3d 4e56 38be 7991 0e3e
000001c0: 4991 853d 7955 36be 2c3d 31be e30d 063e
000001d0: 1077 35be d963 35be 0116 333e aeed 163e
000001e0: 2e8e 543d 344e e8bb 0054 0e3e e34e 39be
000001f0: 878e 1c3e 1948 183d f9fd b3bc d580 6b3e
00000200: 8e78 3bbe 8b81 8e3d c4bf 35be b872 093e
00000210: 5cf3 1e3e b031 fd3d 3db7 35be e453 853d
00000220: 93cb c03d 9efd 35be 54c5 35be db4e 37be
00000230: 362b e33c afe5 37be db49 47be 4fc0 35be
00000240: b56f 5c3e ffbe 913d ebe5 fa3d edc1 043e
00000250: 8187 553d 9c15 3abc 0ac2 35be f3ac 18be
00000260: ad6e c1bd 5722 203e b1d1 35be 6387 35be
00000270: 2d23 df3d 0fef 3bbe 57b0 e53d fdae c13d
00000280: 461d 1c3e f42b 36be 842e 0c3e 82d1 37be
00000290: ae4a 903d 3c22 643e af15 38be c8c0 35be
000002a0: b0de 133e 0817 36be 14a6 c93d c216 62be
000002b0: 3042 c83d 96c0 35be ed24 36be ab26 c83d
000002c0: ace6 35be 4cad 35be 4b6b 4d3e 7248 34be
000002d0: c0ac 34be a2a1 5e3e 5aff 39be 672d 36be
000002e0: cff1 8bbe c3bf 35be c3d7 233c ec8e 103e
000002f0: dbd5 13be 0428 ffbd 50bf 35be fb49 98be
00000300: a8c2 42be 5485 35be fcc1 35be 04c1 35be
00000310: 403c 30be a4c3 35be f77f 56be 6dbe 35be
-0.21389851 0.16403782 -0.17737179 0.14426665 0.18933031 0.18342541 0.17572983 0.19453128
-0.17885739 -0.17748778 0.061647236 0.01778888 -0.18675503 0.17381278 -0.17378014 -0.17764015
0.20402105 0.0 0.21595478 -0.1760814 -0.17205666 -0.1820011 0.21682072 -0.23197642
0.12016571 -0.0375999 -0.051321045 -0.1761719 0.10398843 -0.17745453 -0.17414159 0.12921652
-0.18021095 -0.16827567 -0.17746718 -0.17770486 -0.17748336 -0.17018072 -0.1865163 0.17658615
-0.26458067 0.23700926 0.15132901 0.14523314 -0.17762765 0.07414231 0.24902609 -0.17753689
-0.17745976 0.16557048 0.1168501 0.000929771 -0.10131875 0.20602612 0.17786102 -0.17749418
-0.19257984 -0.1736729 0.07544197 0.15697473 -0.17749247 0.075491294 -0.17777747 0.022588134
-0.18079324 -0.1778475 0.034630753 -0.18883346 -0.17945729 0.13297865 -0.16885965 -0.18140312
-0.0030370466 -0.17996834 -0.18451938 0.1419028 0.11657248 0.14033669 0.18982223 -0.19309948
-0.17720047 0.15978186 -0.17608048 0.13882639 0.2079133 -0.17748731 -0.17963044 -0.17689762
-0.16452019 -0.1564165 -0.1906625 -0.19615799 0.021349493 -0.18109019 0.1739182 -0.17794946
0.02666715 -0.17717887 0.14016885 -0.21069258 0.17762151 0.090248734 0.2078802 0.017862804
-0.17846528 0.12001412 -0.17721161 0.14743306 0.13849169 0.06995699 -0.18001673 0.13922681
0.065218516 -0.17806043 -0.17308491 0.13091235 -0.177212 -0.1771387 0.17488863 0.14739105
0.051893406 -0.0070894007 0.13899231 -0.18096499 0.15288745 0.037178133 -0.02197169 0.22998364
-0.18307707 0.06958302 -0.17748934 0.13422668 0.15522522 0.12362993 -0.17745681 0.065101415
0.09413829 -0.17772529 -0.17751056 -0.17901175 0.027730566 -0.17958711 -0.19461767 -0.17749141
0.21526988 0.07116508 0.122508846 0.12964602 0.05213118 -0.011357691 -0.17749801 -0.14909725
-0.09444938 0.156381 -0.17755772 -0.17727427 0.10895381 -0.18352912 0.11215275 0.094572045
0.15245542 -0.17790204 0.1368962 -0.17951015 0.07045494 0.22278684 -0.17977022 -0.17749321
0.14440417 -0.17782223 0.0984613 -0.22078994 0.09778249 -0.17749247 -0.17787524 0.09773
-0.17763776 -0.17741889 0.2006046 -0.1760576 -0.17644024 0.21741346 -0.18163815 -0.17790757
-0.27332923 -0.17748933 0.010000172 0.1411702 -0.14437048 -0.12458804 -0.17748761 -0.29743943
-0.19019568 -0.17726642 -0.1774978 -0.17749411 -0.17210484 -0.17750412 -0.20947252 -0.17748423

weight f4 [200, 18]
00000000: d3ae a4be eda9 74be 8b89 acbc 2dda 7abe
00000010: 872d 57be d486 97be 81f7 7bbe ebfa 36be
00000020: 7e59 70bd 8355 073e cf1e 28be b4fc 95be
00000030: 972a 7cbe 67aa 08be 86b5 18be 55e9 51be
00000040: f0ed c1bd b981 48be 5677 343e 2c81 023e
00000050: 536f fb3d e854 d13e 9d3c 933e 6594 003e
00000060: d2bd a23e e777 ca3e 9c6c 843e 19d5 533d
00000070: 560c c33e ea6a 7b3e 40ae c53e 83cc 263e
00000080: f6cd 903e 20aa 813e 1f0b 343e cfe2 a13e
00000090: b29f 53bd 0750 4dbe c25a 84be 805b dcbc
000000a0: 358b a6be 03bb bfbd 5029 65be 2df7 84bd
000000b0: f447 77be 67ca 3fbe 6ee2 34be 87d0 33be
000000c0: dc62 a6be 2d0b c0bc efa4 a6be f4c3 58bd
000000d0: c833 46be aae1 3bbe 86ae 103d b0a4 48be
000000e0: 0685 d4bd 82c5 c9bd 184d a5bd c95b a9be
000000f0: 3b19 863c 9cbc 9cbe 18d0 e7bd 2589 183e
00000100: 813e 833e c91c 593e e651 fd3d 6cbd 05bd
00000110: 9059 513e 0673 723e 609f 063b f302 d53d
00000120: 5025 e63d 1847 3d3b e028 8c3a e792 efbc
00000130: 76fc eabc 0fa8 103e 0c14 773e 6f3d d7be
00000140: 22a6 50bd 6ef2 b03d 1b5f 853e 789f 353e
00000150: 902e 683e 1fc8 11bd 8c85 2c3e c47b fa3c
00000160: f1f3 d13d e77f d33c 26b3 dd3d cbc5 363e
00000170: 2b6d 2c3e 2e95 813e 3136 a13d 4f64 9a3e
00000180: 0a78 443e df97 c03e 2b95 b03e 87b1 003e
00000190: 1f48 453e 1558 683e cc17 603e c649 723d
000001a0: 7c31 5e3e 8639 be3e e80c 803e c020 bd3e
000001b0: fa2f a13d cacb bbbd 6f99 c6bd e894 7c3d
000001c0: 9198 7a3d f3c9 80be a269 693e 1a86 bebe
000001d0: 9376 6fbd ac9a 043e 6e10 c63c 3931 903d
000001e0: 35d3 8e3d b4bd 323e df47 2f3e 180e 623e
000001f0: ab08 793d d8ff 813e 7757 45be b7e8 66be
00000200: 8cf4 41bc e602 89be 21d4 4bbe d806 a1be
00000210: 97d8 4b3e a346 d8be 80bc 3fbe 4040 063e
00000220: 7bd7 743e 77d5 9e3d 28a2 5c3e 8c16 213e
00000230: acf7 953c a3e5 eb3d 0a48 443d 9260 043e
00000240: 5a47 7f3e 2987 cd3d a8b7 4a3e 0157 2d3d
00000250: cdc1 673e df49 153e c9c1 a23d 5326 773e
00000260: b79d 743e 7748 ccbd 1de8 64be 05b3 25be
00000270: 9d08 98be aae9 a8be ce8f 39be e94b 18be
00000280: 4ceb 42bd 0aad d9bd 0e25 51bd 7b8a 38be
00000290: 614c d5bd f0b8 22be de9c 98be 5cd4 053e
000002a0: d196 8abd 2b9c 563d d1cf 9bbe 66e8 3ebe
000002b0: a858 72be ae48 72be e4bc 55be f701 d2bd
000002c0: c2c7 92be 1ce4 5ebe 6f67 50be 8490 a8bc
000002d0: 1825 5cbe bdcf 48be f15a 97be 8fdb 86be
000002e0: 2ca9 25be bf4f b1be 6a3b 73bd aec4 63be
000002f0: 2d24 44be 7e28 033d b1d7 27be 66ae b5bd
00000300: 6934 973c 4ac7 29be dac3 3abd 25dd b23d
00000310: 26bb 993c 4412 22bc 0bba d3be 20fe 5abe
00000320: abbb 10be b278 7cbe 7761 5ebe d404 b2be
00000330: 3753 b3bd 556e 85be fc83 6fbe 7485 fa3c
00000340: 282b 88be 18ed 18be 15f7 38be 6610 e8bd
00000350: ac12 a2be 52db b1be 2b67 a1be 016e d2bc
00000360: a3dc a13d a47b 3f3d e5ac 5d3e 3a8f 91bd
00000370: bf61 77bd 9638 a13d 6e19 e1bd 4272 673e
00000380: c6f2 133c 485a dfbd 336b 69be 7ed5 acbe
00000390: bedf 91be a59d 84be c309 acbe c0b2 90bd
000003a0: 4287 0fbe b4b7 2abe 99a9 893d 22ec 3dbe
000003b0: 77d5 fdbc ec57 393c d129 b33d 082d adbe
000003c0: e46d 2c3e 8efa b6be d0a4 823d 7ba7 1a3e
000003d0: 5b2a 003d 8e43 063e 9947 943d 10f6 8a3e
000003e0: 208d 253e 4fb0 6e3c e724 ec3d e1ff 2d3d
000003f0: feef d5bd 41cb b9bd b890 2abe 439b 5abe
-0.3216463 -0.23892947 -0.02106168 -0.2449729 -0.21013461 -0.29595053 -0.24606134 -0.17869155
-0.058679096 0.13216214 -0.16418003 -0.2929436 -0.24625622 -0.13346253 -0.14912996 -0.20499165
-0.09469211 -0.19580735 0.17623648 0.12744588 0.12277093 0.4088509 0.28757182 0.12556608
0.31785446 0.39544603 0.25864112 0.051716898 0.3809535 0.24552503 0.38609505 0.16288953
0.28282136 0.25325108 0.17582367 0.31618354 -0.05166597 -0.2005006 -0.25850493 -0.0268991
-0.32528082 -0.093618415 -0.2237904 -0.064924575 -0.24148542 -0.18729554 -0.17664501 -0.17560016
-0.324973 -0.023442829 -0.3254771 -0.05292125 -0.1935569 -0.18347803 0.03532269 -0.19594073
-0.10376935 -0.09852125 -0.08071345 -0.3307784 0.016369453 -0.30612648 -0.113189876 0.14896066
0.25633624 0.21202387 0.123691365 -0.03265135 0.20444322 0.2367669 0.0020541772 0.10400953
0.112375855 0.0028881487 0.0010693334 -0.029244853 -0.028684836 0.1412661 0.24128741 -0.42039058
-0.050939687 0.0863999 0.26049122 0.17736614 0.22674012 -0.03559124 0.16847819 0.030576594
0.10251606 0.025817825 0.108251855 0.1784889 0.1683852 0.25309128 0.07871664 0.30154654
0.19186416 0.37615868 0.34488806 0.12567721 0.19265793 0.2268985 0.21884078 0.059152387
0.21698564 0.37153262 0.25009847 0.3693905 0.07870479 -0.09169729 -0.09697234 0.061665446
0.061180655 -0.25154075 0.22794202 -0.37211686 -0.05846269 0.12949628 0.024177756 0.070406385
0.06973878 0.17455178 0.1711726 0.22075689 0.060799282 0.25390506 -0.19271646 -0.22549711
-0.01183809 -0.26760024 -0.1990514 -0.31450534 0.19906841 -0.42241392 -0.18724251 0.13110447
0.23910324 0.07755559 0.21546233 0.15731257 0.018306576 0.11518409 0.047920264 0.12927464
0.24929562 0.100355454 0.19796622 0.0423193 0.22632523 0.14578961 0.07947118 0.24135713
0.23888288 -0.09974759 -0.22354169 -0.16181572 -0.2969407 -0.32990772 -0.18121263 -0.14872707
-0.047587678 -0.10628708 -0.05106073 -0.18021576 -0.10414959 -0.1589086 -0.2980718 0.1306929
-0.06767047 0.052395027 -0.3043199 -0.1864334 -0.23666632 -0.23660538 -0.20872837 -0.10254281
-0.28668028 -0.21766704 -0.20351957 -0.020576723 -0.21498525 -0.19610496 -0.2956157 -0.26339385
-0.16177815 -0.34631154 -0.059382834 -0.22242996 -0.19154425 0.03202104 -0.16390873 -0.088711545
0.018457608 -0.16579929 -0.045596935 0.08733586 0.018765997 -0.00989205 -0.41352877 -0.21386003
-0.1413409 -0.24655417 -0.21716867 -0.3476931 -0.08756106 -0.2606074 -0.23390192 0.030581214
-0.26595426 -0.14934194 -0.18063004 -0.11331253 -0.3165487 -0.3473764 -0.31524023 -0.02568722
0.07903411 0.046748772 0.21647985 -0.071073964 -0.060395952 0.07872121 -0.109911785 0.2260218
0.00903005 -0.10905892 -0.227948 -0.33756632 -0.28491014 -0.25901523 -0.33601198 -0.07065344
-0.1401644 -0.1667164 0.06721801 -0.18547109 -0.030985577 0.011312466 0.0874821 -0.3382342
0.16838795 -0.35738033 0.06379092 0.15102951 0.031290393 0.13111708 0.07240219 0.27140856
0.16167116 0.014568402 0.11530476 0.042480353 -0.104461655 -0.09071971 -0.16656768 -0.2134829

bias f4 [200]
00000000: e8c0 35be d838 37be d9a6 1c3e f8c0 35be
00000010: 5cd0 35be 34c1 35be 2949 35be d730 b7bd
00000020: 3bc1 35be 15c1 35be c381 a33d f062 273e
00000030: 4cfe 66ba 43c1 35be 3a04 4a3d 33c1 35be
00000040: 4ca5 39be 37c1 35be ca94 2a3e c552 303e
00000050: 01f9 34be 0cdd 6ebe 540b 2d3e 2fc1 35be
00000060: f700 36be ceb7 d53d 8ff0 2b3e d72a 303e
00000070: 3cc1 35be 8951 2d3e 5ab3 35be 209a 35be
00000080: 00c1 35be 9ed1 3fbe 68e9 293e 9fd9 443e
00000090: 9592 263e 2dc1 35be b867 2d3e 77d1 103e
000000a0: 828c 313e db7a 33be 34c1 35be 80f4 1e3e
000000b0: 983e 363e e28c 3bbd 3cc1 35be f6c4 623e
000000c0: 30e8 d83d c817 1e3e cb28 07be 53a7 35be
000000d0: b00e 033e 40c1 35be abb6 32be ff52 293e
000000e0: e09b 3bbe 3a05 323e b825 2e3e d314 3abe
000000f0: 2e50 303e c6fa 2ebe 3c1a 36be 5c22 2e3e
00000100: 2581 233e 9ab7 35be 7d0c 2d3e 34c1 35be
00000110: 3dc1 35be 483c 253e 5860 853e 6003 35be
00000120: 34c1 35be 0efd d33d 26c1 35be 41c1 35be
00000130: b45f 8f3d 3cc1 35be 39c1 35be 3cc1 35be
00000140: 9608 2b3e 4b6f 023e 0bf1 35be 13c1 35be
00000150: fb1d 233e e426 293e f8b5 233e 29c1 35be
00000160: 0d1f 68be aad8 44be afc8 263e 35d5 733d
00000170: 5f7d 133e 5ccd 203e fa46 823d 4b12 2c3e
00000180: 54bf 37be d9f2 263e 2fc3 283e 8c56 f03d
00000190: 4991 263e 70a3 35be f094 3cbe d29f 2e3e
000001a0: 8509 b8bd 1bbf 35be 90f3 1c3e 611b 38be
000001b0: caf7 34be 21c1 35be 63db 253e 0ee3 32be
000001c0: 89bb 35be f0d4 50be 39fa 2a3e 1f70 293e
000001d0: 34c1 35be 6115 cabd 2e25 39be 3e1e 2b3e
000001e0: 7eac 74be b5ea 243e 25c0 35be ca65 303e
000001f0: d41b 1c3e b07d 05be 33c1 35be d0f3 333e
00000200: e622 303e 72a9 3b3e f5ed 2d3e 32bd 35be
00000210: 5d3c 1d3e 3bc1 35be 7eda 35bc 63d2 35be
00000220: 2203 e43d 40c1 35be 20c1 35be 195a 2b3c
00000230: 16e0 283e 34c1 35be 61c1 253e 2061 3d3e
00000240: 72db 2c3e dc2a 423e 8639 b33d 07c0 35be
00000250: 41c1 35be 022c 2f3e dc26 1e3e 41c1 35be
00000260: 5836 36be 59aa ee3d 6af6 113e 2c2e 35be
00000270: 96c0 35be ee41 2c3e 1fd8 34be 40c1 35be
00000280: f9bd 35be bcb3 993d 37c1 35be eb79 32be
00000290: 5894 ae3d 3337 f73d c6c0 35be bcc0 35be
000002a0: beba 0b3e fc7f 8dbe 86cd 35be b885 37be
000002b0: 4a20 183e bc24 a53d e256 f83d f56c 283e
000002c0: be06 2d3e 7fae 193e 7839 1c3e a9bd 3a3e
000002d0: b39f 35be 4f8d 7a3e 28d2 313e 3bc1 35be
000002e0: 1e5e 083e 3bc1 35be 3bc1 35be 41c1 35be
000002f0: 38c1 35be 90c4 ef3d d944 243e 41c1 35be
00000300: f8c0 35be 4f7e c13d 722d 1b3e a7da 0e3e
00000310: 0ec3 0f3e 6e2d 4c3e a598 5cbd d392 313e
-0.17749369 -0.17892778 0.15298022 -0.17749393 -0.17755264 -0.17749482 -0.1770369 -0.08944862
-0.17749493 -0.17749436 0.079837345 0.16346335 -0.0008811697 -0.17749505 0.049320437 -0.17749481
-0.18129462 -0.17749487 0.16658321 0.17219074 -0.17673112 -0.2332651 0.16898853 -0.17749475
-0.17773806 0.104354486 0.16790985 0.17203842 -0.17749494 0.16925634 -0.17744198 -0.17734575
-0.17749405 -0.18732306 0.16592944 0.19223641 0.16266854 -0.17749472 0.16934097 0.14142404
0.17338756 -0.17527334 -0.17749482 0.15522957 0.17797315 -0.045788653 -0.17749494 0.22145447
0.10591161 0.1543876 -0.13199155 -0.1773961 0.12798572 -0.177495 -0.17452495 0.16535567
-0.1832118 0.17384806 0.17006576 -0.18172006 0.17218086 -0.1708785 -0.17783445 0.17005295
0.15967233 -0.1774582 0.16899295 -0.17749482 -0.17749496 0.16136277 0.26050067 -0.17677069
-0.17749482 0.10351001 -0.17749462 -0.17749502 0.07000676 -0.17749494 -0.1774949 -0.17749494
0.16702494 0.12737767 -0.17767732 -0.17749433 0.15929405 0.16518742 0.15987384 -0.17749466
-0.22668095 -0.19223276 0.16287492 0.059529502 0.14403294 0.15703338 0.06361194 0.16803853
-0.1794408 0.16303577 0.16480707 0.117352575 0.1626636 -0.17738128 -0.1841619 0.17053154
-0.08986191 -0.17748682 0.15327287 -0.17979194 -0.17672649 -0.17749454 0.1619697 -0.17469427
-0.1774732 -0.20393729 0.16697015 0.16546677 -0.17749482 -0.09867359 -0.18080589 0.16710755
-0.23893926 0.16105159 -0.17749079 0.1722633 0.1524499 -0.13036227 -0.17749481 0.17573476
0.17200813 0.18326357 0.16985305 -0.17747954 0.15355058 -0.17749493 -0.011099456 -0.17756037
0.1113341 -0.177495 -0.17749453 0.010458493 0.16491732 -0.17749482 0.1618705 0.18494081
0.16880587 0.18961662 0.08751206 -0.17749034 -0.17749502 0.17106631 0.15444511 -0.17749502
-0.17794168 0.11653585 0.14254156 -0.17693394 -0.17749247 0.16822025 -0.17660569 -0.177495
-0.1774825 0.07504985 -0.17749487 -0.1742932 0.08524388 0.12071075 -0.17749318 -0.17749304
0.13645455 -0.27636707 -0.17754182 -0.17922103 0.14856067 0.08063647 0.121259466 0.16447814
0.16897103 0.15007971 0.15256298 0.18236412 -0.17736702 0.24467967 0.17365324 -0.17749493
0.13317153 -0.17749493 -0.17749493 -0.17749502 -0.17749488 0.11707413 0.16041888 -0.17749502
-0.17749393 0.094479196 0.15154055 0.13950597 0.14039251 0.19939205 -0.05385651 0.17341165

weight f4 [200, 200]
00000000: b93f 92be 1c38 80be 5eee 8cbe de8b 26be
00000010: 4a5d 92be 255a 85be 681b c7bd 3d78 12bd
00000020: b68a 92be 9a6c 38be f528 60be 2d0e 74be
00000030: bfeb d1bd f9b9 85be 616e c9bd e611 17be
00000040: 8d20 09be 8747 c7bd f022 e6bd 9144 73be
00000050: 483e 49be 123a f5bd fe17 f9bd d5dc c8bd
00000060: 7ac0 cfbd 0d45 3fbe 259e f6bd a33c 22be
00000070: 28d4 7abe 3ec6 83be 9696 8ebe 7ca6 c0bd
00000080: f27a 18be 2612 19be 21d8 76bd b5d3 3abe
00000090: 7ab7 56be a5ba 82be 6220 6cbe 9191 94be
000000a0: 8621 77bd d5ff 44be 3700 5bbe f2b1 39be
000000b0: a90e 14be 8e04 8abe 1d7e 41be 522d 75bd
000000c0: 3bbd 35be 6ffd 30be 3538 64bd d594 58be
000000d0: 7990 21be 21cb 83be d735 8ebe 9806 8dbd
000000e0: 4ee8 3abe d14a 40be 3d55 f0bd 4c8b febd
000000f0: b8af 8dbd 6c9d 82be c4af 88be cdc9 6ebe
00000100: addc 89be 3eea 76be cb2a 90be 15f1 55be
00000110: c28c 2abe 38f8 24be e9ff 89be 7a16 44be
00000120: 5994 d3bd fd06 88be 8432 debd b7c0 57be
00000130: 2d4c 6fbe ead7 69be cc0b 8dbe 2444 2fbe
00000140: 65fe ddbd d98e 70be a557 bebd 4a67 86be
00000150: 7f6b 0abe 2a0f b4bd bcf9 61be 0135 43be
00000160: b455 d3bd 5639 40be ac8e b6bd 98d9 94be
00000170: 7377 16be 4433 64be 0700 fbbd 2ac8 7fbe
00000180: 637d 96be be35 c5bd 1d44 90be 53aa 45be
00000190: ce99 02be 2c8e aebd 4e25 7ebe 8bdf 87bd
000001a0: f5ed 49be e946 93bd df66 e1bd c0f7 1bbe
000001b0: c637 96be c568 31be 615a 60be a65c a1bd
000001c0: 348a 7bbe 071f 50be 27c8 7abe 81a9 97bd
000001d0: 952f 79be e24e 2a3d ad63 6abd 71ec 83be
000001e0: b870 2bbe adb6 90be 192e 18be 1666 76be
000001f0: d052 81be d463 30be 403f 96be e2d0 04be
00000200: 00ea 2ebe c631 59be 92fc f7bd 74a3 0fbe
00000210: 5656 8fbe cec8 53be b0ad 1cbe 0b3c 79be
00000220: 0db2 0ebe edfd 04be cca3 87be ff33 a7bd
00000230: 0521 81be d4e0 5ebe cacd 30be 9264 afbc
00000240: 0a54 68be 599d 98bd 564e 2cbe 9e75 87be
00000250: fa0a 73be c751 8abe 9235 33be fa1f 43be
00000260: 1324 c9bd 0612 d8bd f2b0 e7bd f4c5 5dbe
00000270: faf8 2abe f3a5 62be 715e 4cbe f424 14be
00000280: a61f 52be f60e 66be 4bdf ccbd 0c82 26be
00000290: eb0f 24be c6f6 90be 6f50 ddbd 8666 78be
000002a0: 030a 4abe e4db 5ebe 0477 19be 412c 62be
000002b0: bbf0 6abe 6549 73be 6635 58be 5bae 52be
000002c0: 1810 73be a8b5 d0bd e77b 33be 30d5 60be
000002d0: 5803 16be ae8b 27be c867 93be 2685 dfbd
000002e0: 80dc 80be d3f2 89bd 017f 0dbd cc65 70bd
000002f0: dff6 8ebe a358 f8bc c883 2fbd 82c8 56be
00000300: 7907 08be 06ea 38be 3a8e 1ebe 266d 20be
00000310: 8fb9 48be 819f 6fbe 0974 ebbd 1fa4 00be
00000320: 5d31 19be 8925 a03d d9ff 753e 89d4 91be
00000330: 8e20 d3bd 3de5 273e 44ed 1abe 7d7e 5cbe
00000340: 6019 49be ef6f 3dbe d0e5 97be 5bd6 debd
00000350: 3bb5 8cbe 4fd4 88be c460 573e db2f 103e
00000360: 244d b53d 56d8 a3bd 9e6e 08be 23d2 c9bd
00000370: 432c 60be 11e2 543e 1ba1 a8bd 1a27 5b3d
00000380: ea9e 983d 4e08 36be 71cc efbd 19ba 80be
00000390: c218 96be 2fba a3bd 9b42 183e 5cc4 82be
000003a0: 953b edbd f762 31be 6786 70be 9acd 0b3e
000003b0: 5e74 02be 2caa cebd 4cda 89be 50b2 9fbe
000003c0: ab9d 92be f89d 20be 80dc 4cbe 3278 1dbe
000003d0: bb32 93be 24cf 58be 5dc4 12be f5ba 99bd
000003e0: 6f29 febd 4e67 553c edc3 b93b cc53 4fbe
000003f0: 36af 85bd 4349 a8be 0565 013d d866 a2bd
-0.28564242 -0.25042808 -0.2752561 -0.16264293 -0.285868 -0.26045337 -0.09722024 -0.0357592
-0.28621453 -0.18010178 -0.21890624 -0.23833533 -0.10250043 -0.26118448 -0.09835506 -0.14752921
-0.13391323 -0.0973044 -0.112371325 -0.23756625 -0.19652665 -0.11973967 -0.12162779 -0.09807745
-0.10144134 -0.18678685 -0.120418824 -0.15843444 -0.24494994 -0.25737184 -0.27849263 -0.094067544
-0.1489065 -0.1494833 -0.06026471 -0.18244822 -0.20968428 -0.25533023 -0.23059228 -0.29017308
-0.060334705 -0.19238217 -0.213868 -0.18134287 -0.14458717 -0.269566 -0.18895765 -0.059857674
-0.17747967 -0.17284177 -0.055717666 -0.21150525 -0.15777768 -0.25740913 -0.27775452 -0.06886023
-0.1825268 -0.1877854 -0.11735008 -0.124289125 -0.06918281 -0.25510728 -0.266966 -0.23319168
-0.26926175 -0.24112794 -0.28157648 -0.20892747 -0.16655257 -0.16110313 -0.26953056 -0.19149199
-0.103310294 -0.26567832 -0.10849479 -0.21069609 -0.23368903 -0.22836271 -0.27548063 -0.17115837
-0.108395375 -0.23491992 -0.092940606 -0.26250678 -0.13517569 -0.08791955 -0.22067922 -0.19063188
-0.10319081 -0.18771872 -0.08913931 -0.2907226 -0.14694004 -0.22285181 -0.122558646 -0.249787
-0.29392537 -0.09629391 -0.28176966 -0.19303255 -0.12753984 -0.08523211 -0.24818918 -0.06634434
-0.1971968 -0.071912594 -0.11005949 -0.15231228 -0.29339427 -0.17325123 -0.21909477 -0.078789994
-0.24564439 -0.20324336 -0.24490415 -0.07405377 -0.24334557 0.041579135 -0.057223964 -0.25766328
-0.16742218 -0.2826437 -0.14861335 -0.2406238 -0.25258493 -0.17225581 -0.2934513 -0.12970307
-0.17081451 -0.21210393 -0.12108721 -0.14027196 -0.27995557 -0.2068207 -0.15300632 -0.24339311
-0.13935108 -0.1298749 -0.26492155 -0.08164214 -0.25220504 -0.21765453 -0.17266002 -0.02141026
-0.22688308 -0.07451887 -0.16826758 -0.26456922 -0.23734656 -0.27015516 -0.17500904 -0.19055167
-0.09821334 -0.10550313 -0.113130465 -0.21657544 -0.1669654 -0.22133617 -0.19957902 -0.14467221
-0.20519885 -0.22466645 -0.10003527 -0.16260546 -0.16021697 -0.28313273 -0.10806357 -0.2425786
-0.19730382 -0.21763569 -0.14986807 -0.22087194 -0.22943394 -0.23758467 -0.2111412 -0.20574324
-0.23736608 -0.10190898 -0.17527734 -0.21956325 -0.14649713 -0.16361877 -0.28790116 -0.10914068
-0.25168228 -0.06735768 -0.03454495 -0.05869083 -0.27922723 -0.030315703 -0.042850286 -0.20974925
-0.132841 -0.18058023 -0.15483943 -0.15666637 -0.19602035 -0.2340069 -0.11496741 -0.12562607
-0.14960237 0.07819659 0.2402338 -0.28482464 -0.10308944 0.16396041 -0.15129572 -0.21532626
-0.19638586 -0.1849973 -0.2966752 -0.10880729 -0.27482018 -0.2672448 0.21033007 0.14080755
0.08852604 -0.08000247 -0.13323447 -0.098545335 -0.21891885 0.20789362 -0.082338534 0.053504087
0.074521855 -0.17776605 -0.11708916 -0.2514198 -0.29315764 -0.07994496 0.14869158 -0.25540435
-0.1158363 -0.17322908 -0.2348877 0.1365265 -0.12739703 -0.100910515 -0.2692436 -0.3119073
-0.28635916 -0.1568526 -0.20005989 -0.15377882 -0.28749642 -0.21172768 -0.14332719 -0.07506362
-0.124102466 0.013025118 0.005669108 -0.2024681 -0.065275595 -0.32868394 0.03159048 -0.07929772

bias f4 [200]
00000000: ab10 34be cc9e 2bbe 43c1 35be 3bc1 35be
00000010: 606c 79bd 82b2 323e a514 2a3e a073 2f3e
00000020: 2f0c 80bd bac1 313e 68fa 313e 48d9 293e
00000030: 37c1 35be 8d83 33bd e97d 293e b800 333e
00000040: 44c1 35be 6924 243e 4217 0f3e ff32 ba3d
00000050: 95e7 233e 1db4 363e 3cc1 35be 43c1 35be
00000060: 547e 363e 43c1 35be 565c 303e 7e81 323e
00000070: 7611 383e de51 053e 34c1 35be 2daa 333e
00000080: b87e 33be d3bb 2e3e 061c 7d3e d3ad 313e
00000090: 1bfc 2f3e dcc0 393e a94e 333e f95d b23d
000000a0: 40c1 35be 5bd1 2b3e d802 a73d 43c1 35be
000000b0: 44c1 35be 1719 303e f817 393e 34c1 35be
000000c0: f8b9 2e3e 6cfd 30be 7fad 35be aef6 1b3e
000000d0: 06af 2e3e 44c1 35be ab2c 2c3e b4c1 35be
000000e0: 43c1 35be 29d8 2c3e bbcb 293e 85b8 35be
000000f0: d040 363e 35c3 313e 033e 313e 753c 2e3e
00000100: 6ed5 393e 5a4a 333e 2f17 333e 8d63 2cbe
00000110: 10ff 313e 45c1 35be 0688 353e 0ac1 35be
00000120: 26f9 2f3e bc88 35be 681f 34be 3bc1 35be
00000130: ac61 353e 42c1 35be 446b 2f3e 4915 323e
00000140: 2ec1 35be 7a01 243e ee18 9a3d b41a 243e
00000150: 317d 2e3e ff29 1abe a68b 35be 8acb a93d
00000160: 9ec0 35be 3dc1 35be 38c1 35be 76ab 3c3d
00000170: b1aa 2d3e 9acd df3d 88f9 253e 0720 323e
00000180: 42dc 34be 70cf 2f3e 6c75 323e f8bf 35be
00000190: 4c2a db3d b051 273e 5ab8 35be 43ae 35be
000001a0: 98c7 2b3e 4a16 34be 38c1 35be 3408 35be
000001b0: 146c 0e3e 8818 2d3e 02eb 2e3e b8e3 0c3e
000001c0: 43c1 35be 0bc1 35be 44c9 34be 60cf 2c3e
000001d0: 1ac0 0e3e a157 333e 0865 c33d 3bc1 35be
000001e0: ff7f c9bc 43ce 373e 0dff fc3d 00d6 373e
000001f0: 7154 09be e359 1c3e 431b 353e 44c1 35be
00000200: 428c 283e e06d c43d 2a07 303e 3fed 2c3e
00000210: 1b95 35be 3fc1 35be a264 313e 1486 35be
00000220: 42b4 24bd 3ddb 313e 334e 2f3e 882f 253e
00000230: 38c1 35be 6459 333e 2e50 2f3e bcc0 2e3e
00000240: c091 2dbe d128 8cbc 7c84 d53d 7f2b 0b3e
00000250: 7aac 363e 3edb 2f3e b332 f43d 40c1 35be
00000260: 1ea4 d33d 3db3 333e 43c1 35be 801c 0f3e
00000270: 840b 2f3e a558 363e 2fb8 303e 2cb7 35be
00000280: 2bc1 35be 62f7 363e 7a98 293e 3ec1 35be
00000290: 3dc1 35be 43c1 35be 43c1 35be 082c 313e
000002a0: 57f6 123e 41c1 35be 34c1 35be 3dc1 35be
000002b0: ec82 9dbb 3ac1 35be 31d8 34be a9c5 f13d
000002c0: c476 363e be5d d53d 8f40 2c3e 40f4 303e
000002d0: d05d 2bbd 3dc1 35be 9c33 1f3e 43c6 1e3e
000002e0: 2d5d 73bc d3a4 e8bd fc4b 293e 44c1 35be
000002f0: e34b 15bd 75f2 303e 15c1 35be 78b8 2f3e
00000300: 8de6 303e a6cc e2bc a898 00be 292f 053e
00000310: 41c1 35be a7c7 313e f2d5 35be 8677 47bc
-0.17584483 -0.16759795 -0.17749505 -0.17749493 -0.06089437 0.17450908 0.16609438 0.17133951
-0.06252324 0.17359057 0.17380679 0.16586792 -0.17749487 -0.04382663 0.16551937 0.17480743
-0.17749506 0.16029514 0.13973716 0.09091758 0.1600631 0.17842145 -0.17749494 -0.17749505
0.17821628 -0.17749505 0.17222723 0.1743221 0.17975411 0.13019511 -0.17749482 0.17545386
-0.17528808 0.17063837 0.24717721 0.17351465 0.17186014 0.18139976 0.17510475 0.0870933
-0.177495 0.16779082 0.08154839 -0.17749505 -0.17749506 0.17197071 0.1807555 -0.17749482
0.17063129 -0.17284173 -0.17741965 0.1523082 0.17058954 -0.17749506 0.16813914 -0.17749673
-0.17749505 0.16879334 0.16581623 -0.1774617 0.17798162 0.17359622 0.17308812 0.1701525
0.18147823 0.17508832 0.17489313 -0.1683485 0.17382455 -0.17749508 0.1772767 -0.1774942
0.17184886 -0.17727941 -0.17590106 -0.17749493 0.1771304 -0.17749503 0.17130762 0.17390932
-0.17749473 0.16016188 0.07524286 0.16025811 0.17039944 -0.15055083 -0.17729053 0.08290775
-0.17749259 -0.17749496 -0.17749488 0.046061955 0.16959645 0.10927887 0.1620847 0.1739503
-0.17662147 0.17168975 0.17427605 -0.17749012 0.10701427 0.16339755 -0.17746106 -0.17742257
0.16775358 -0.17586628 -0.17749488 -0.1767891 0.13908416 0.16903889 0.17081836 0.13758743
-0.17749505 -0.17749421 -0.17654902 0.16875982 0.13940468 0.17513897 0.095407546 -0.17749493
-0.024597166 0.17949776 0.123533346 0.17952728 -0.13411118 0.15268664 0.17686181 -0.17749506
0.16459754 0.095912695 0.17190233 0.16887377 -0.1773266 -0.17749499 0.17323545 -0.17726928
-0.04021097 0.17368789 0.17119674 0.16131413 -0.17749488 0.17514569 0.1712043 0.1706571
-0.1695013 -0.017109307 0.1042566 0.13590811 0.17839232 0.17173478 0.119237326 -0.177495
0.10334037 0.17548843 -0.17749505 0.13975716 0.17094237 0.17807253 0.1725776 -0.17745656
-0.17749469 0.17867807 0.16562071 -0.17749497 -0.17749496 -0.17749505 -0.17749505 0.17301953
0.14351784 -0.17749502 -0.17749482 -0.17749496 -0.004806867 -0.17749491 -0.17660595 0.11805279
0.17818743 0.104182705 0.16821502 0.17280674 -0.041837513 -0.17749496 0.15547031 0.15505318
-0.014853758 -0.11359563 0.16532892 -0.17749506 -0.036449324 0.1727999 -0.17749436 0.17160213
0.17275448 -0.027685475 -0.12558234 0.13006271 -0.17749502 0.17361318 -0.17757395 -0.012174493

weight f4 [200, 200]
00000000: a73e 91be 11ea 25be cbc7 333e 2c38 18be
00000010: d96f 80be f941 653e 6d78 8abd 23df 723e
00000020: 9181 a33d 601a 83bd 40a1 b43a d57b 1dbe
00000030: f5e7 00bd 078d 6e3d d5a4 a73e 213d 78be
00000040: 023d 38be d43d 963d fc00 9cbe b023 87be
00000050: 472e 913e 4b83 af3d eee9 483e 50aa 1abe
00000060: f7cc 103e 6948 7a3e 2734 a2bd 6604 2dbe
00000070: 2500 55be aae7 19bd a9a4 983e d0b2 763e
00000080: e608 0ebe 097e aabd b85a 643d 12e1 a2be
00000090: 5fe7 0abe fb9a 88be cda2 38be 2a40 313e
000000a0: c989 84bd c4ce 023e 7dc1 973d 3e5c 403e
000000b0: 4dd3 63be 9eb4 8e3d 1375 f23d e095 92bd
000000c0: 7d68 053e b43b 123e ce38 823e 5432 183e
000000d0: 4777 18be fd2b 823e e59a c93d 23ad 883e
000000e0: e47b 91be 5a9c 3a3e 5ca2 87be daec 853e
000000f0: e740 4fbe cf20 6b3e e413 78be 19bc 053e
00000100: 70c2 373e a5f2 8dbe 420f d7bd da36 2d3e
00000110: 8202 7f3d 7c97 223e 42f3 44be 3aff b4bc
00000120: 5e52 763e f073 bfbd b370 83bd 1097 47be
00000130: 1956 a73e a73c 7bbd faf7 70be 22f7 0fbe
00000140: 582a 16be d11c bb3c e295 8f3e 3011 423e
00000150: ee68 a53e 6447 9c3e e625 003e f90a 933e
00000160: dffe ed3d 69ed 3a3e 9764 803e a8a0 e9bc
00000170: c428 0e3e 1c03 c7bd 3bcb 6b3e 0169 b8bd
00000180: e8dc a1bd 91f5 023e 700d 5bbd db23 873e
00000190: 6470 8abe 5874 80be a67f 9d3e 2706 81be
000001a0: e97c 933e 2452 353e 3bcb a13e bb33 8dbe
000001b0: ebd8 25bd cfee 50be 07d8 78be b2f1 e8bd
000001c0: a879 6dbe 2ee7 313e f42f 8a3e 1b2c b3bd
000001d0: 0096 8dbe efdb 9b3e 2d8e 14be b229 7cbe
000001e0: e0fa 723e 5253 4d3e 6103 063e 625f a43e
000001f0: 0cbd e33d a51a 4b3d 5ce0 49be 165e 42be
00000200: c837 a6bd 95c4 2cbe 70f1 73be 04eb cf3d
00000210: 4e34 173e cc9b 5c3e 18ed 013e 1cb4 8b3d
00000220: ce37 083e dbc8 41be f0f9 af3d 600a 503e
00000230: 7f57 003e 89e9 8e3e 9dc7 4fbe 3427 ffbd
00000240: 3ca0 1abe 36c6 cd3d 2558 503e df7e 7c3e
00000250: 075a 743e 12b2 a2bd 005c 743e d408 0ebe
00000260: c81a e1bd ea53 0fbe c513 7bbe 2fad 78be
00000270: 71f2 6c3e 163d c33d 5074 ae3d 3496 8a3e
00000280: 6c21 7ebe 37eb 4c3e 9e95 973e adc0 6abe
00000290: de82 0e3e 4e05 5b3e 17ec 953e 9074 fa3d
000002a0: a03a de3d 2a9e b43e 85d9 10be 5e27 973e
000002b0: 0976 ebbd 39a7 9dbe 233f 1a3e 8690 463e
000002c0: c7d5 253e ac2f c7bd c859 2abe 14b9 5bbe
000002d0: 6488 9b3d e249 4ebe b849 653e 1b12 6fbe
000002e0: 29f4 8b3e a565 6f3e cd2e c83d 73dc 8ebe
000002f0: 99f2 35be dec0 0e3e d371 0b3e 3a0a 80be
00000300: d2b8 983e 48a6 38be 303a 643e 9c9a 713e
00000310: d2f9 6a3e 0cad f43d 83bd 3f3e dd4d 953e
00000320: 86b1 653d 8f1d cfbd b881 64bc d2b4 e23d
00000330: d499 78be 9a7a 85be 9563 703d b1ea 69be
00000340: 70a8 9abd f554 303e 11fa 413d ff52 1f3e
00000350: e69e 22bd 8381 8dbe bd8e 87bd 6e9a 6f3e
00000360: 89d6 613e 0ea3 c7bd 3d19 093e af23 873e
00000370: ee14 5dbe 2835 f1bd 5723 54be 0824 223e
00000380: 2cad 96be 5e7f 483d 1f4b c03d d25b db3d
00000390: 078b 903d 2fd4 4c3e 353c f0bd 931d 86be
000003a0: 72e3 533e 3802 b43e 33bb 10be 1f38 a83e
000003b0: 9fde 813e c126 fc3d 5b7e cb3d 3dd2 e8bd
000003c0: 26e8 fd3d f95a 60bd 1368 67bd b473 b9bd
000003d0: b695 1b3e fba1 60be 01ff 87bd d468 9dbd
000003e0: 38c6 75be 59af 28be 7e19 5abe 3e37 6cbc
000003f0: bef4 0d3e 640a 8dbe 2afd 91bd 4967 6abe
-0.28368112 -0.1620257 0.17556684 -0.14865178 -0.25085333 0.22388448 -0.06761251 0.23717932
0.07983697 -0.06401515 0.0013780966 -0.1537927 -0.03147121 0.058239963 0.32742944 -0.24242069
-0.17992023 0.073360115 -0.304695 -0.26394415 0.2835562 0.08569964 0.19620487 -0.15104032
0.14140688 0.24441685 -0.079201035 -0.16896209 -0.20800836 -0.037574448 0.29813126 0.24091649
-0.13870582 -0.083248205 0.05575058 -0.3181234 -0.13564824 -0.2668074 -0.18030854 0.17309633
-0.06471593 0.12774187 0.07409952 0.18785188 -0.22248574 0.06968044 0.118387364 -0.07157493
0.1302814 0.14280587 0.25433964 0.14862949 -0.1488925 0.25424185 0.09843997 0.26694593
-0.28414834 0.18223706 -0.26491058 0.26157266 -0.20239602 0.22961734 -0.24226338 0.13060035
0.17945266 -0.27724186 -0.10500957 0.16915455 0.06225825 0.15878099 -0.1923342 -0.022094358
0.24054858 -0.09348285 -0.0641798 -0.1949122 0.32682875 -0.06133714 -0.23532096 -0.14059117
-0.1466459 0.02284089 0.2804404 0.18951869 0.32306617 0.30523217 0.12514457 0.2871931
0.116208784 0.18254627 0.25076744 -0.02851899 0.13882738 -0.0971739 0.23026745 -0.09004403
-0.07903463 0.12788989 -0.053479612 0.26394543 -0.27038872 -0.25088763 0.3076145 -0.25200006
0.28806236 0.17707115 0.31600365 -0.2757853 -0.040490072 -0.20403598 -0.24301158 -0.11374225
-0.2319094 0.17373344 0.2698971 -0.08748647 -0.27653503 0.30441234 -0.14507361 -0.2462528
0.23728514 0.20051315 0.13087226 0.3210402 0.11120042 0.049585957 -0.19714493 -0.18981203
-0.08116108 -0.16871865 -0.2382257 0.101522475 0.14766046 0.21543807 0.126881 0.068214625
0.13302538 -0.18924277 0.08592594 0.20316458 0.12533377 0.27912548 -0.2029099 -0.12458649
-0.15100187 0.10047571 0.20346124 0.24657772 0.23862468 -0.079441205 0.2386322 -0.13870555
-0.10991436 -0.13996854 -0.2451926 -0.24284814 0.23139359 0.095331356 0.085182786 0.2706772
-0.24817437 0.20011602 0.29606336 -0.22925062 0.1391711 0.21388742 0.29281685 0.12229264
0.108510256 0.3527692 -0.14145477 0.29522222 -0.11497123 -0.30791643 0.15063147 0.19391069
0.16194831 -0.097258896 -0.16635811 -0.2145732 0.07594374 -0.20145372 0.22391403 -0.2334675
0.27334717 0.23378618 0.097745515 -0.27902564 -0.17768325 0.1394076 0.13617639 -0.25007802
0.29828507 -0.18032181 0.22287822 0.23594135 0.22946861 0.119470686 0.18724637 0.29160967
0.056077503 -0.1011306 -0.013946943 0.11069645 -0.24277431 -0.260701 0.05868872 -0.22843434
-0.07551658 0.17219909 0.047357623 0.15559004 -0.03970232 -0.27637872 -0.06619022 0.23398754
0.22054495 -0.09747897 0.13388534 0.26394412 -0.21590015 -0.11777717 -0.20716606 0.15834057
-0.29428995 0.04894959 0.09389328 0.10710873 0.07057767 0.20002817 -0.117302336 -0.26194438
0.20692232 0.35157943 -0.14133911 0.32855317 0.2536516 0.12312079 0.0993621 -0.11368225
0.123977944 -0.05477426 -0.056495737 -0.09055272 0.15193829 -0.2193679 -0.06640435 -0.0768601
-0.24001396 -0.1647314 -0.21298787 -0.014417468 0.13862893 -0.2754699 -0.07128365 -0.22890963

bias f4 [25]
00000000: 0000 0000 0000 0000 0000 0000 0000 0000
00000010: 0000 0000 0000 0000 0000 0000 0000 0000
00000020: 0000 0000 0000 0000 0000 0000 0000 0000
00000030: 0000 0000 0000 0000 0000 0000 0000 0000
00000040: 0000 0000 0000 0000 0000 0000 0000 0000
00000050: 0000 0000 0000 0000 0000 0000 0000 0000
00000060: 0000 0000
0.0 0.0 0.0 0.0 0.0 0.0 0.0 0.0
0.0 0.0 0.0 0.0 0.0 0.0 0.0 0.0
0.0 0.0 0.0 0.0 0.0 0.0 0.0 0.0
0.0

weight f4 [25, 200]
00000000: 31b9 0d3d 6d49 203e 3e0d 6cbc b391 153e
00000010: 5f0e 223e fc5b 013e f469 aeba 4901 843c
00000020: 1c77 1c3e 970e 213d d29c 013e cf68 d93d
00000030: c9a4 643d b4bd 0a3d 1583 2ebd 7584 70bd
00000040: a20b 5cbd c690 27ba 9540 0fbe bf91 c7bd
00000050: 7411 3abd b0a7 b53c ba5b 08be 8882 f0bd
00000060: 017e f3bc 6af9 aabd a59e 043d df6e 243d
00000070: ac5d 033e a91f 85bd c0d2 823d 0434 213e
00000080: e197 d53d 3eeb 11be 315c ba3d b9e0 8f3d
00000090: 24ad 01be bbd1 f9bd 53e8 0bbe 37c1 babd
000000a0: 2329 83bd 09c5 2ebd cf6d 293d cbfb a2bb
000000b0: 4698 ab3d 9a6a 34bd 5fde e93d 03c5 43bd
000000c0: 0c5f 463d 485f 11bd bb74 b2bd f994 a0bb
000000d0: 7d19 06be dc79 35bd f019 29bd 0ef1 823d
000000e0: 1a59 263e b592 183e 9173 e3bd 9fa5 b7bd
000000f0: 931e 4f3d 94d9 f53d 8939 dfbd 932b 26be
00000100: 14ea d0bd 5060 263e 5866 c5bd de4d b83d
00000110: 054b 103d 16e6 96bc d46d 23be f11a 11bd
00000120: e88f b53d 784f f13d cb4e 5e3b 1605 0b3e
00000130: dec8 9f3d 0671 8d3d 2385 ffbb 0263 133e
00000140: a298 fb3d 8275 87bd 8233 b9bd 67c6 cdbb
00000150: a87b 213e 579d 6b3d bb44 b7bd aaf4 05be
00000160: 1cac 05bd 2ce7 d0bd f5dd 083e aed4 1fbe
00000170: d277 09bd 1590 7c39 a5c8 f03d 6cbf d73d
00000180: dcd8 ca3d 261b d83d ca59 0cbd 6de7 023e
00000190: 0e73 cbbc 801a 373c d089 ac3d 3533 023e
000001a0: 76cf 1abd 79d1 0e3d 7ec9 06be 2b14 0b3e
000001b0: 1e0d 273e 2656 e0bd e9a0 ebbd 470e 6abd
000001c0: 60f1 b53b a428 4fbd ec4d 9a3d f838 283d
000001d0: 025c 0bbe a5e1 8cbd c49c 9fbd 3ab8 e33c
000001e0: 21cf 703b 18c5 1c3d 9c97 7abd 3e7e 0ebe
000001f0: 0d15 68bd 461c 59bd 44fe 073e eb37 343d
00000200: b086 90bc 7ef7 0ebe 4750 213e a2c0 00be
00000210: 82dd 00be 7e97 123b eb5a efbd fa4e e73d
00000220: 0acc 453d 2053 493d 86fc 853d 7651 193d
00000230: 65a7 673d b2ab 60bd 38d6 d1bd 0cb2 31bd
00000240: b239 a0bd bcc7 b5bc 498b a0bd dd82 213e
00000250: 2388 99bd 589d c5bd daee fa3c 7945 b93c
00000260: 9584 f9bd 277a 18be 6d20 1b3e ef1c f8bd
00000270: 98ff c3bc 17b8 b13c ad9b 1d3e ca47 4f3b
00000280: 50e8 84bd faa0 5b3d 5406 243e 7ed9 c73d
00000290: ef9a a03c 038e 8abd 6498 a9bc 2253 3bbd
000002a0: 6788 203e 46a4 52bd 7a70 2f3d 080b a33d
000002b0: ce1f 1a3e b81b 16be 47fa a83d cc95 eabd
000002c0: a78c 293d ee22 c4bd cbad 863c f88d fc3d
000002d0: 5fd6 a33d 92c8 e13c d8f5 b0ba f3c2 163e
000002e0: 7565 fbbd fa57 3abd d831 b03d b39f 21bd
000002f0: 53c7 043d ebfa 27bc 1141 e73b 01d4 213e
00000300: a988 e5bd b03a ae3d 683a 4e3d e2f1 b03d
00000310: 13bb d2bd 828e f23d ad91 193e 4e97 f33d
00000320: a8f8 823c 795c cebc 3754 c5bd f0c1 4f3a
00000330: ddc9 d7bd 2775 993d a233 00bd d6ad bb3d
00000340: 2472 f93d 1c9f 14bb d470 b13d 1e02 c13d
00000350: 4d8b e93d f7d1 8f3d e9fe 22be d467 16be
00000360: 00f2 22be c1af bbbd 9bad 9abd 69e4 f1bc
00000370: fec8 503d 98c7 06bd d833 d8bd ebe4 0fbe
00000380: 6641 e93d 2c7c 8b3c cfcf d5bd 7247 5e3c
00000390: d323 093d 8021 b73d c6f8 edbc 20db 30bd
000003a0: c212 063e 8bef f03d f4be cdbd 8e8d d63d
000003b0: f875 993d 015a 87bd a0e0 c1bc b77d f63c
000003c0: ce8c ccbd b2c7 f8bd 08a7 1e3d 6ae9 4fbd
000003d0: 54a3 253e e70e adbd e8ed c23c cb28 7cbc
000003e0: f168 8e3d 45a1 483d 33fb 2fbd 8339 c23d
000003f0: 6bc4 c73d 00bb 0e3e 8700 9e3d 9a7a f1bd
0.03460044 0.1565301 -0.014407454 0.14606361 0.15825795 0.12632746 -0.0013306723 0.016113894
0.15279812 0.039320555 0.12657478 0.10615694 0.055821214 0.03387232 -0.04260548 -0.05872007
-0.05372203 -0.00063921174 -0.1398948 -0.09744596 -0.0454268 0.022174686 -0.13316241 -0.11743647
-0.02972317 -0.08348353 0.032377858 0.040144797 0.12828702 -0.06500179 0.063878536 0.15742499
0.10429359 -0.14249894 0.09099615 0.07025284 -0.12663704 -0.12198206 -0.13662843 -0.09118884
-0.064043306 -0.042668376 0.041364487 -0.0049738637 0.08378653 -0.044046976 0.11419367 -0.047795307
0.048430488 -0.035491258 -0.08713671 -0.0049005714 -0.1309566 -0.044305667 -0.0412845 0.06393634
0.16244927 0.14899714 -0.11106027 -0.089671366 0.050566267 0.1200439 -0.10899646 -0.1622756
-0.10200897 0.16247678 -0.09638661 0.08999227 0.035227794 -0.01842026 -0.15959865 -0.035426084
0.088653386 0.117827356 0.0033921476 0.13576159 0.07801984 0.06906323 -0.0077978536 0.14393237
0.12284972 -0.0661421 -0.090430275 -0.006279755 0.15769827 0.057523098 -0.08948656 -0.13081613
-0.03263484 -0.102003425 0.1336592 -0.15608475 -0.033561535 0.00024086268 0.1175702 0.10534558
0.09904644 0.10552053 -0.034265317 0.12783594 -0.024835136 0.011175752 0.08424723 0.12714846
-0.037795506 0.034867737 -0.131628 0.13581912 0.16313598 -0.109539315 -0.115053006 -0.057142522
0.005552456 -0.050575867 0.07534394 0.041069955 -0.13609317 -0.06878976 -0.077935725 0.027797807
0.0036744552 0.0382739 -0.061179742 -0.13915345 -0.0566607 -0.05300548 0.13280588 0.04399864
-0.017642349 -0.13961598 0.1575328 -0.12573484 -0.12584499 0.0022368128 -0.11687263 0.112943605
0.04829029 0.04915154 0.06542306 0.037431203 0.056556124 -0.05485124 -0.10245937 -0.04338269
-0.078235045 -0.022189967 -0.078390665 0.15772577 -0.07496669 -0.096491516 0.030631471 0.022616135
-0.12183491 -0.14890347 0.15149088 -0.12114894 -0.023925588 0.021694226 0.15391417 0.0031628483
-0.064896226 0.053620316 0.16018039 0.0975828 0.019605128 -0.06765368 -0.020702548 -0.04573358
0.15677033 -0.051426195 0.042831875 0.079610884 0.15051195 -0.14659011 0.082508616 -0.11454353
0.041393902 -0.09576975 0.016440293 0.12331766 0.079998724 0.02756146 -0.0013501002 0.14722805
-0.12275211 -0.045494057 0.08603257 -0.03945894 0.032416653 -0.010252695 0.007057317 0.1580353
-0.112077065 0.085072875 0.05034867 0.086398855 -0.10289588 0.118435875 0.14996977 0.118940935
0.01598771 -0.025190579 -0.09635203 0.0007925322 -0.10536549 0.07493048 -0.03129924 0.09164016
0.12179974 -0.0022677844 0.086640984 0.09424232 0.11403523 0.070224695 -0.15917553 -0.14688045
-0.15912628 -0.09164382 -0.07552644 -0.02952786 0.05097293 -0.03290519 -0.105567634 -0.14052169
0.11389427 0.017026983 -0.10440027 0.013566839 0.03348143 0.089419365 -0.029049288 -0.043177724
0.13093093 0.11764439 -0.10046187 0.10476218 0.07493204 -0.06608964 -0.02366668 0.030089242
-0.09987794 -0.12147464 0.038733512 -0.05075971 0.16175586 -0.08450108 0.023795083 -0.015390585
0.0695361 0.048981924 -0.04296417 0.09483626 0.09754261 0.13938522 0.07714944 -0.117909625
