deep_learning/models/GCNLinkPrediction17.pth (torch, 225088 bytes, 6 tensors)

bias f4 [200]
00000000: 8d8f 60bc 47dd 53bd 683b d6ba e4a3 d8bb
00000010: e020 e8b8 161f 18bc a2c3 db3c 2cbb 4a3d
00000020: 2614 29bd 6319 d1bb 7e0b 26bc cb39 d1bc
00000030: 0832 5fbc 0268 743d 0a06 573c c462 b13b
00000040: 8893 dbbc 1a7a 303c 52c3 e8bc 84ee 13bc
00000050: d4e7 42bd fd39 91bc 452a 093d bc04 75bc
00000060: d081 41bd d3cd c1bc 8d1d fa3c 5992 72bd
00000070: 0497 dbbc 2075 8a3c c145 e7bc 378d 383d
00000080: 1124 c4bb 2e2b 3bbd 412e 223d f742 003d
00000090: 1c13 a2bc 5eef b93b 7c0a 0fbd 789f 87bc
000000a0: bc1b e83c f73b 373d f0a4 c0bc d500 2cbd
000000b0: 52c1 13bc bc4e 01bc 74f9 27bd baf5 b0bc
000000c0: eabd 4ebd 1645 3abd 0e42 1dbd 506f 1fbd
000000d0: 0a70 d3bc 28da 7c3d c1cc e3bc afed 0c3d
000000e0: 109c 1a3d 3a48 36bd 7489 82bd 8c68 413d
000000f0: da6f fa3c c1dd f23c c410 843d 3392 643d
00000100: bbc8 7fbc d9a6 0ebb f825 55bd 4a3e 7e3d
00000110: 74f4 4ebb 9051 123d 833b 833c b539 2ebd
00000120: b17c 40bd 9fbd 1abd f573 aeba 1fdb c1bc
00000130: 0240 20bd 2b76 b6bc 55f2 633d 79b4 4c3c
00000140: 5413 3a3d d0e1 2c3d 179d 863c 5a4a 7abd
00000150: 56c4 f23a 46d0 363b 301f 013a dd25 893d
00000160: 2d38 0dbd c825 293a dbd7 6e3d 0354 763d
00000170: fb0b 3dbc a8de 483c 8326 93bb a47d d73b
00000180: 6ada 4dbd 3e4c 3c3c f208 da3c 0d47 30bd
00000190: db8e a7bc 20f3 d23b e85b eb3a ab94 c33b
000001a0: dca3 55bd e278 94bb 0268 6e3d 9fca 823c
000001b0: edc7 a7bc 39a2 2abc 429f 21bd cb01 133d
000001c0: bf7c 96bb 1c9c 1cbd 4d52 0c3d 9e6b 903c
000001d0: f934 2cbd 0578 1dbd c9d1 12bc 516b 773b
000001e0: 8b0a 6fbd c5a5 be3c 1aff 83bc 15b3 b9bb
000001f0: 1a1b 0bbc d368 5abd 56d3 12bd aee9 12bd
00000200: e289 e53a c98b 81bc 2f46 923c ad50 11bd
00000210: 43c4 a0bc ace9 293c 95ff 1ebd 5100 41bd
00000220: 3a35 87bd 66db eaba d6f0 333c 33bc b0bc
00000230: 58e3 afbc b294 0f3d c20a 053d 81e0 0d3d
00000240: 1423 a73a 385e 753d d335 fbbc e91c ee3c
00000250: a228 4a3d 1643 2dbd b1aa 21bd 02b5 493d
00000260: 3da9 51bc 66ba 47bd a73e 593d b8f5 0abd
00000270: b497 873b 60d9 18bd 8c4c a9bc 50f8 17bd
00000280: ee3a 19bc a0e8 14bd 7396 15bd 35ef 22bd
00000290: 9ca8 55bd e5f0 2bbc 3834 84bd e469 5bbc
000002a0: a928 0bbd ee33 49bd 1f82 263c 7bdc 743d
000002b0: 2605 3bbd 9ef8 3f3c da05 0fbc 7c19 8abb
000002c0: 08cc 0c3c ea28 a4bc cbb3 463d 5e50 19bd
000002d0: e6a8 543d c1c2 a6bc 9ce3 efbc 5164 74bc
000002e0: 7750 b03c cca9 1c3b 445c 4e3c e456 b1bc
000002f0: a543 1a3d d4db ea3c 9fe0 2cbd e7b7 48bc
00000300: 6d6e 14bd 2520 a93b 5cb7 17bd c17b dcbc
00000310: 8dfe 3a3c 3111 2fbd 75ab 25bc d392 94bc
-0.0137061 -0.0517247 -0.0016344609 -0.006611334 -0.000110687455 -0.009284755 0.026826683 0.049494907
-0.04127898 -0.0063812 -0.010134576 -0.025540253 -0.013622768 0.059669502 0.013123998 0.005413385
-0.026803747 0.010771299 -0.028413448 -0.0090290345 -0.04758437 -0.017727846 0.033487577 -0.014954742
-0.04724294 -0.023657715 0.030531669 -0.0592216 -0.026805408 0.016901553 -0.028231503 0.045056548
-0.0059857448 -0.045695476 0.039594892 0.031313863 -0.019784503 0.0056742867 -0.034922108 -0.016555533
0.028333537 0.04473492 -0.023516148 -0.04199298 -0.009018259 -0.007892307 -0.04100938 -0.021601547
-0.050474085 -0.04547604 -0.038393073 -0.038924515 -0.02581026 0.061731488 -0.027807595 0.03440636
0.03774649 -0.044502474 -0.06373873 0.047218844 0.030570913 0.029646756 0.0644851 0.05580349
-0.015611823 -0.002176693 -0.052038163 0.062071122 -0.003157881 0.035722315 0.016019588 -0.042535502
-0.046993915 -0.037778493 -0.0013309704 -0.023664055 -0.039123543 -0.022273144 0.055651028 0.0124942
0.04542859 0.04220754 0.016432328 -0.061106063 0.0018521647 0.0027895137 0.0004925607 0.06696675
-0.0344774 0.0006452468 0.058311325 0.060138714 -0.011538501 0.012260117 -0.004490675 0.006576257
-0.050257124 0.011492787 0.026615594 -0.04303651 -0.020453861 0.006437674 0.0017956467 0.0059686503
-0.05215822 -0.004531012 0.05820466 0.015965758 -0.020481074 -0.010414653 -0.03945852 0.03589038
-0.0045925076 -0.038234815 0.034258176 0.01762944 -0.042042706 -0.038444538 -0.0089611495 0.0037753175
-0.058359664 0.023272404 -0.016112853 -0.0056671 -0.008490348 -0.053322624 -0.035846077 -0.035867386
0.0017512406 -0.015813725 0.017855732 -0.03547733 -0.019624835 0.010370653 -0.03881796 -0.047119442
-0.06601949 -0.0017918169 0.010982713 -0.021574115 -0.02147071 0.035053916 0.032480963 0.03463793
0.0012751543 0.059904307 -0.030665314 0.02906652 0.049355157 -0.042300306 -0.039469425 0.049244888
-0.012796697 -0.048761748 0.053038266 -0.033925742 0.0041379575 -0.03731668 -0.020666383 -0.037102044
-0.009352429 -0.03635466 -0.036520433 -0.039778907 -0.05216275 -0.010494445 -0.064552724 -0.0133919455
-0.033974323 -0.04912179 0.010162859 0.05978058 -0.045659207 0.01171699 -0.008729422 -0.0042144638
0.008593567 -0.02003904 0.048511308 -0.03743016 0.051918887 -0.020356538 -0.029283337 -0.014916495
0.021522744 0.0023904918 0.01259524 -0.021647878 0.037662167 0.028669275 -0.042206403 -0.012250877
-0.036238123 0.0051613026 -0.0370401 -0.02691448 0.011413229 -0.042741004 -0.010111679 -0.018136417

weight f4 [200, 18]
00000000: 48cb 77bd e436 3ebe 4b4f c3bc e38f 64bd
00000010: 3271 f13c d637 4e3e 7d02 19be 5c30 2abe
00000020: b022 5ebd ac76 b93d 5ea4 0e3e 5c03 8dbd
00000030: 4bf3 0ebe 0445 ebbd d939 8ebd 82b7 6abd
00000040: 2540 383c b03a 7e3d 05c5 ffbd 45d9 f6bc
00000050: 2bd0 53be c33a 8bbd 348c abbd 0716 eebc
00000060: 453c 883d 1769 1fbe dcc7 963d 369e 0f3e
00000070: 0bb5 5abd efb7 2a3d 54ab b03d 62e9 b4bd
00000080: 66e3 23be f986 3f3d f035 bf3c f2e0 87bd
00000090: 0402 b63d bbf6 babd 25b8 99bc e434 ad3d
000000a0: 561c 013d e5c0 c83d 0469 763d 9e45 173e
000000b0: 21ce d83d 0c26 bcbb def8 843d 89c3 223d
000000c0: 58f8 bebc 6f4b 1cbe 607a 083e 8710 1abe
000000d0: 0152 043e 7e00 b7bd 34a8 723d 1ab9 823d
000000e0: 021c 2f3e d6c1 e3bd 5bda 013d 97d8 013d
000000f0: 7cc5 013e ae90 2f3e 774e 063e cbae 623d
00000100: f5b8 933d 8d51 1e3e fd38 94bd e619 a43c
00000110: aec3 573d 9975 f83d 316a 17bd c483 733c
00000120: 3ab9 91bd 6ec4 073e b654 f83d 1eee bfbd
00000130: 5a74 073e 88c3 c4bd 721e 0ebc a5e1 1cbe
00000140: 855b d6bd 4d64 8abc 6db2 1ebe 38bc 21be
00000150: 58de b23c c225 79bd 6c75 07be 6605 95bd
00000160: 5acb 05be a4c9 c5bc 3ff7 6ebd b823 d9bd
00000170: d7c8 44be d9f8 cc3d de9b b3bd 738f 6b3e
00000180: 7139 b5bd f435 72bd cbde 47be 0cb3 db3d
00000190: c336 9cbd 8c7d 2b3d ae9f 4a3d e65f 873d
000001a0: 1a8e 2bbe e1ee 58bd 8924 33be 78b5 77bd
000001b0: 9c2f ae3d 82b7 523e 158c dd3d 5d7f 40bd
000001c0: 4413 4a3d a87b 44bc 03d6 0d3d e1ca 323e
000001d0: 1b98 7b3d 7e19 d5bd be61 0a3e c00a 43bc
000001e0: 50ed 2b3e 72ee 383e 41fd cb3d bbf3 d8bd
000001f0: 3224 753b 5871 3cbd 52fe 64bc 4d13 d13d
00000200: 03e8 d33d 62af a13c 19d6 19bd 1dc5 713d
00000210: d481 2a3e cab2 01be 0af8 b13d d728 8d3c
00000220: 064c 8fbc 30cd 15bd 44c9 943d 66d0 44bd
00000230: 6054 533d 1370 2ebd ceff 67bd 3c9c 2c3e
00000240: 788a ab3d 8d04 0bbe 7a17 0fbe d012 9439
00000250: 1cf3 cd3c 6058 25be 4744 d6bd 78be e63d
00000260: 6094 553c ccd6 603d 1a34 41bd 6db5 28be
00000270: 59b4 a23d 330f 3cbe 5641 f43c c388 453d
00000280: c6c6 e9bd 02cf b33d 6c86 d6bd 4faa c4bc
00000290: 36b7 893d 1f02 25bd acdf 08be e0fd 07be
000002a0: f5ed 5a3d b620 8cbd 93e1 003e 4b8e 94bd
000002b0: 1fd8 22be 0c31 183e eb91 adbd 0d66 13bc
000002c0: e73c 053e c754 febd ff78 9c3d f911 c53d
000002d0: fa1a 97bd b696 623c be83 af3c ebde 29be
000002e0: 6a0c 95bd 8ad3 173d 232e dc3d fdcf 1dbe
000002f0: d62d 77bd 2da7 163e 0619 1b3c 1dd3 0bbb
00000300: ee77 83bc 118d 003e ac89 32be 70ac dc3d
00000310: 3e60 35be 7308 1fbe d671 f1bd bcaa a63c
00000320: c2e7 b8bc 391e 993d de4d 08be 9890 86bd
00000330: 27e2 bb3d e53d 9bbb 419f 0dbe 2387 963d
00000340: 6ef0 18be 9abf 7abd 83ee c7bd 7389 5e3d
00000350: ecd2 0d3e 4c07 14be 2ba7 46be bc2e 113e
00000360: e126 5bbd c3c5 abbd 78de 1c3d 3925 c1bd
00000370: 964f 923d ecb0 353e 23c1 fbbd 07e3 7e3d
00000380: f23d 24be df28 6a3d 9b3c 54bc 1ee7 b83d
00000390: 584a bcbd da8b 12be 3947 70bb 8817 593d
000003a0: 9e75 b23d 710c 033e ef39 9abc c70e 7ebd
000003b0: 0916 5c3e 1289 dd3d 855c 363e 66ef 13bd
000003c0: fefb c1bd 2cca 373e 1f0f 3e3e f2b9 a83d
000003d0: 7eb6 72bd 0011 38bc 65ef ff3d 9045 483d
000003e0: 9ba0 513e 5e5a 233c c6aa 703d 724e e0bd
000003f0: c0c6 02be cbbb 3f3c 5092 893d b890 07be
-0.0604966 -0.18575627 -0.02384152 -0.055801284 0.029472921 0.20138487 -0.14942355 -0.1662001
-0.0542323 0.09055838 0.13929889 -0.068854064 -0.13959996 -0.11487773 -0.06944627 -0.057303913
0.011245762 0.062067688 -0.1248875 -0.030132899 -0.20684879 -0.06798317 -0.08376351 -0.029063238
0.066521205 -0.15567432 0.07362339 0.14025196 -0.053395312 0.04167932 0.08626428 -0.08833577
-0.16004714 0.04675958 0.02334115 -0.06634702 0.08887103 -0.09129091 -0.018764565 0.08457354
0.031521164 0.09802417 0.060158744 0.1477265 0.10586191 -0.00574184 0.0649278 0.039737258
-0.023311779 -0.1526315 0.13327932 -0.15045367 0.12921907 -0.08935641 0.059242442 0.063829616
0.17100528 -0.11120956 0.03170238 0.031700697 0.1267299 0.17145035 0.1311587 0.055342477
0.07213012 0.15460797 -0.07237432 0.02003188 0.05267685 0.12131805 -0.036966506 0.014862958
-0.07115407 0.13258526 0.12125532 -0.09371589 0.13227978 -0.09607607 -0.008674251 -0.15320452
-0.10466675 -0.01689353 -0.15497752 -0.15794456 0.021834537 -0.060827024 -0.13228387 -0.0727642
-0.13065854 -0.024144001 -0.05834126 -0.10602516 -0.1921724 0.100084014 -0.08769964 0.2300394
-0.08848847 -0.059133485 -0.19518583 0.1072751 -0.076276325 0.041867778 0.04946869 0.06610088
-0.16753426 -0.052962188 -0.17494406 -0.060475796 0.085051745 0.20577815 0.10817734 -0.046996463
0.04933478 -0.011992373 0.034627926 0.17460205 0.061424356 -0.10405253 0.13513848 -0.0119044185
0.16789746 0.1805971 0.09960414 -0.10593363 0.0037405607 -0.04600653 -0.01397665 0.102087595
0.10346987 0.01973695 -0.037557695 0.059025872 0.16651088 -0.12665859 0.08689888 0.017231388
-0.017492305 -0.036572635 0.07264951 -0.048050307 0.05159414 -0.04258735 -0.05664044 0.16856474
0.0837602 -0.13575955 -0.139738 0.00028242776 0.025140338 -0.16146994 -0.104622416 0.11266798
0.013035864 0.054892346 -0.04716883 -0.16475458 0.07944555 -0.18365173 0.02981631 0.04822613
-0.11414866 0.08779718 -0.10474858 -0.02400699 0.06724398 -0.040285226 -0.13366574 -0.1328044
0.05344959 -0.068421766 0.1258605 -0.07253703 -0.15902756 0.1486246 -0.08475097 -0.008996499
0.13011514 -0.12418514 0.07640266 0.09622569 -0.07378192 0.013829878 0.021425124 -0.16588943
-0.072777584 0.037066974 0.107509874 -0.15411372 -0.060346447 0.1471221 0.009466415 -0.002133555
-0.016048398 0.12553813 -0.1743533 0.10775077 -0.17712495 -0.15530567 -0.117892906 0.020345084
-0.022571448 0.07476468 -0.13310954 -0.06570548 0.091739945 -0.004737603 -0.13830282 0.07349994
-0.14935467 -0.06121788 -0.097622894 0.0543303 0.13849992 -0.14455909 -0.19399707 0.14177984
-0.053503875 -0.083873294 0.0382981 -0.09430928 0.07144086 0.17743272 -0.12292697 0.06222823
-0.16039255 0.057167884 -0.012953903 0.09028457 -0.091938674 -0.14311162 -0.0036663546 0.053000957
0.0871384 0.12797715 -0.018826453 -0.06202581 0.2149278 0.1081716 0.17808731 -0.03611698
-0.09471892 0.17948216 0.18560456 0.08238591 -0.05925607 -0.011234522 0.12496833 0.048894465
0.20471422 0.009970276 0.058756612 -0.10952462 -0.1277113 0.011702488 0.0671736 -0.132388

bias f4 [200]
00000000: 3ccb 0fbd 2a5a 11bd d487 e3bb e02e aabc
00000010: 6f85 8cbb 4690 96bc d620 11bd 3d57 11bd
00000020: 4896 52bd 37fc adbc a047 9abc 0969 58bc
00000030: 40d7 9abc 65bb fdbc 2e3a 87bc 1a93 90bc
00000040: 04e6 99ba 618a edba b569 9dbc 4bbe c7bc
00000050: 5825 10bd d8d8 febc 8e64 b2bc 8452 11bd
00000060: 5ee9 60bc 64c1 7bbb 84f9 0fbd 7e77 17bd
00000070: 9846 94bc 39b0 8dbc 0042 4cbc 0457 10bd
00000080: aab3 78bc 2b45 11bd 8a5f f1bc 72b7 d5bc
00000090: 4580 e8bb 35d5 60bc 1e6d 84bc 4ec0 a7bc
000000a0: f48f 173c ef1a 61bc 1360 c4bc 584d b5bc
000000b0: f7c9 91bc 46e1 10bd 6a0e 83bc 3cf6 243a
000000c0: eaef bfbb 56dc 2fbc 8b34 06bd 9498 c7bc
000000d0: ec25 8bbb 6845 10bd b8c4 98bc 7140 11bd
000000e0: ef2d dfbc 0fce f6bc 6a33 67bc 0ef6 ffbc
000000f0: 3cf8 3fba 8874 10bc cc0e 79bc 1a29 09bc
00000100: 72e7 8ebc 89fc cdbb 5262 33bc 8cac 90bc
00000110: 91d8 0cbd 4a85 6bbc 102b 43bc 1ada 0fbd
00000120: 9eb6 9ebc bc4c 08bd dd10 7abc f3ad df3c
00000130: e7da 9c3b f132 67bc 4865 85bc cefe 12bd
00000140: 6d18 09bc 81e5 483b cf88 abbc cbf0 e4bc
00000150: 68f1 08bd 6242 01bd 4d5b 17bd 9202 07bc
00000160: 3b8f ddbc 3e5d afbb fb04 82bc ea54 2abc
00000170: 9d87 92bc f160 0abd 454e 10bd 1472 80bc
00000180: 1f0b 5bbd c023 07bd ee8f 21bb 63f7 0cbd
00000190: de05 363c aba2 32bb 8c2a b8bc 07dc debc
000001a0: d0ca 17bd 6306 70bc 9578 72bd e002 a3bb
000001b0: 2c7c 11bd ce9b 0ebd 2c9d 2bbc 057a 9bbc
000001c0: eaae 01bc 3ade 02bd b4e1 a7ba ae60 a8bc
000001d0: f5b2 fdbc fa1e d6bc 769e eb3b 6bc6 fbbb
000001e0: 82d8 313b 8fd1 b5bc 8e9d 07bd d1fe 0cbd
000001f0: 6fb4 92bc 2078 61bc 242a 09bd 8b61 0abd
00000200: a4bb 1dbd 20fe 8fba b3b8 50bb dba1 e1bc
00000210: 6b2f 59bc 9fa1 82bc 0321 6abb 488e ecbc
00000220: 43f9 c1bc a2b6 a3bc e330 6dbc 2238 39bd
00000230: f814 f2bb d691 f6ba d0c1 58bc 8bdb 0fbd
00000240: e00a 83bc 16f2 f6bb 489e 32bc 68da 10bd
00000250: fcbe d6bc 43b1 04bd 69d1 0cbd 1607 bfbc
00000260: a00b c2bc 9a5d 67bc 778e 81bc 00d9 9c39
00000270: abeb 35bc 2be2 8dbc ad29 9ebb b32a e3bc
00000280: 3c9e 09bd 4f4c 07bd ae4b a7bc 1928 93bc
00000290: 7071 88bb 134c 64bc 387c 04bd 5c1b 8bbc
000002a0: 09c9 8dbc bdab a9bc c4d2 10bd fb66 75bd
000002b0: ddb4 45bd 002d 5e38 a214 d9ba b8ac c8ba
000002c0: 03dd ebbc 7a87 f0bb c6fd 81bb 011b 0cbd
000002d0: 1aca d7bc 7582 79bc ac15 8fbc 30d8 05bd
000002e0: 2f3d f7bc 1949 27bd 21a3 32bb c6a6 90bc
000002f0: 89a2 a0bb dc47 86bc c4d1 68bc 4405 76bc
00000300: ee78 233d fd51 5fbc a267 1abd 4a05 65bc
00000310: 37d9 86bc 64af d8bc 448b 0ebd 6abd c8bc
-0.03510593 -0.035486378 -0.006943682 -0.020774305 -0.0042883675 -0.018379342 -0.035431705 -0.035483588
-0.05141285 -0.02123843 -0.018832982 -0.013208636 -0.018901467 -0.030973146 -0.016507234 -0.017648268
-0.0011741524 -0.0018122905 -0.019215444 -0.024382731 -0.035191864 -0.031109259 -0.021776464 -0.035479084
-0.013727514 -0.003841483 -0.035150066 -0.03697919 -0.018100068 -0.017295944 -0.0124669075 -0.035239235
-0.015179554 -0.035466354 -0.029464502 -0.02608845 -0.007095369 -0.0137227075 -0.016165312 -0.02047744
0.00925063 -0.013739332 -0.023971593 -0.022131607 -0.0177965 -0.035371087 -0.015998084 0.00062927953
-0.0058574574 -0.0107336845 -0.032764953 -0.024364747 -0.004246464 -0.03522244 -0.01864849 -0.035461847
-0.027243583 -0.030127553 -0.014111379 -0.031245258 -0.00073230616 -0.008816846 -0.015201282 -0.008371616
-0.017444346 -0.006286208 -0.010948734 -0.017660402 -0.03438622 -0.01437504 -0.011912122 -0.035120107
-0.019374188 -0.033276305 -0.01526281 0.027304625 0.0047868374 -0.0141112665 -0.016283646 -0.035887532
-0.00836764 0.0030654373 -0.020939259 -0.02794685 -0.033433348 -0.03155745 -0.036952306 -0.008240359
-0.027045837 -0.0053516915 -0.015871515 -0.010396222 -0.017886931 -0.033783857 -0.035230894 -0.015679397
-0.053477403 -0.03299308 -0.002465244 -0.034415614 0.011109797 -0.0027257602 -0.022481225 -0.027204527
-0.03705865 -0.01464996 -0.059197027 -0.004974708 -0.03551881 -0.034816556 -0.010474484 -0.018979082
-0.007915238 -0.031950213 -0.0012808354 -0.020553913 -0.030969122 -0.026137818 0.007190521 -0.0076835654
0.0027137105 -0.022194652 -0.03310924 -0.0344227 -0.017908303 -0.01376155 -0.033487454 -0.03378443
-0.038509026 -0.0010985769 -0.003184837 -0.027542999 -0.013255934 -0.015946208 -0.0035725243 -0.028876439
-0.023678428 -0.019984547 -0.0144769875 -0.045219548 -0.0073877536 -0.0018811773 -0.013229802 -0.035121482
-0.015996397 -0.007536183 -0.010901995 -0.03536454 -0.026214115 -0.032395612 -0.034379397 -0.023318809
-0.023687184 -0.014121437 -0.015815003 0.00029916316 -0.011103551 -0.01731976 -0.0048267455 -0.027730322
-0.03359817 -0.033031758 -0.02042183 -0.017963456 -0.0041639134 -0.013934153 -0.032345027 -0.01698082
-0.017307775 -0.020711774 -0.03535725 -0.059912663 -0.048268188 5.2970834e-05 -0.0016561935 -0.0015310263
-0.02879191 -0.007340369 -0.0039670197 -0.03420544 -0.026341487 -0.015228857 -0.017466389 -0.032676876
-0.030180542 -0.040841196 -0.0027257877 -0.017657649 -0.004902188 -0.016391687 -0.014210168 -0.015015904
0.03991025 -0.013630387 -0.03769649 -0.013978312 -0.016460998 -0.02645082 -0.034800783 -0.024504382

weight f4 [200, 200]
00000000: be0e 1bbd 4d0b ccbd d6e7 24bd e52e e43c
00000010: ac7d f3bc 745e 6e3d 58d5 fcbd 8701 1abe
00000020: e69e 123b 0b3f 88bd d7d2 ab3d edd2 803d
00000030: ebdf fc3c eca5 8a3d bbd0 1bbe 1632 8fbd
00000040: d051 13be 6c3d 6e3d b4a2 8d3d 10da 463a
00000050: c0f8 333c 3bd8 0fbe 3298 c0bc b713 d5bd
00000060: 8c61 5e3d 9530 a73d f582 18be f9d5 0a3d
00000070: 1756 11be 83f3 83bd ef27 1e3d d95f debd
00000080: 7734 763d e51c 1b3c b92d 5f3d 95b4 4abd
00000090: 8b77 713b 222e 053d c3e9 993c c059 ddbd
000000a0: 346b 323d c18a 97bd d0ef 793d f4ef 943d
000000b0: fb66 d8bc f11a 04be e3e0 11be 7490 913d
000000c0: e23e 0bbe 7e4a 813a e45e 1b3d 098d dbbd
000000d0: 4abc 063d df24 84bc d4b3 40bd 32c9 593d
000000e0: e3ab 74bc f843 c8bd 4f45 283d d02f 5a3a
000000f0: 7da4 733c a295 7d3d e0cd 1fbd 48d4 01be
00000100: 2a9b 8c3c 658e 473d 71de 683d dfef c6bd
00000110: 47a3 8b3d e93d 78bd 3871 01be c883 043d
00000120: 2698 aebd 0b9c 26bd 2c72 bfbc 9ec4 863c
00000130: dcc8 ac3b 2b6f 09be 120a 98bd a18c b73c
00000140: 5c17 413d 910d debb 0eed 57bd 8cc7 4cbd
00000150: 9552 41bd a057 edbd 4659 a53d 7aca 963d
00000160: 6e68 95bd 713e 78bd 9fa3 f3bd 2067 0fbc
00000170: 0946 203b a2ab f4bc 9038 d03c 34b6 943c
00000180: d114 883d 4121 00be 26c4 8b3d 758e b5bd
00000190: db86 e5bc 7994 05be c050 983c 25a3 0bbe
000001a0: 7e0f 28bc d980 01be f6b6 b63d d69b 5fbc
000001b0: 36bf febc faf1 e3bd a9f9 b9bc 1305 c9bd
000001c0: 618d fcbc 1a53 463d 32d8 a33d ba30 76bd
000001d0: e1e4 21bd ee8f 7fbd 03c0 f9bd a96b 1ebe
000001e0: 5129 3c3d 285a c0bd fe28 cd3c d2c1 1bbd
000001f0: e8af 1dbe 90a6 933c 01b9 5bbb e0f1 12bd
00000200: 8414 9fbd 8cf2 083c f652 403d 422a 1f3d
00000210: fc33 18be 1aab d1bc 12ec 2bbd 58e0 233d
00000220: 54c9 8cbd 63e5 abbd e196 c0bd 9895 9f3d
00000230: e1b4 443d 54f3 f4bd a743 0a3d ea5f acbd
00000240: 98b6 cabd 4292 873c 0c10 7dbd bff6 03bd
00000250: cd0d cebd 5e8f abbd 89c9 adbd 445d 9fbd
00000260: ea19 c73c 06cc c23c 807b 5fbd 8631 de3c
00000270: 2f06 0fbd fc56 913d f74c 79bd b82e c33c
00000280: b21d 2fbc 2329 703c 9734 f8bc e516 6a3d
00000290: 5351 01be 46be 1cbe d8ab 89bc c6b6 703d
000002a0: c832 af3d c684 7d3b 742d 9dbd 68b2 50bd
000002b0: 8583 ce3c f6a2 d5bd 9109 113d 2ef1 13bd
000002c0: 4c96 7a3c ae7d 193d 8bc5 14bd 4d6f b6bd
000002d0: aec2 ab3d 828b c4bd a16a e7bd f2e1 15bd
000002e0: 15ad 7abd 9337 743d facc 00bd dadd 99bd
000002f0: 2b05 1f3c b166 85bc e850 9739 f175 1cbe
00000300: 33c3 0dbe dcc8 363c 5c07 8ebd d132 fdbd
00000310: e323 0fbe 5788 0d3d 96ee d03b 7526 1abe
00000320: 65a1 f4bc fab1 a5bd b2b5 37bd a08f 843d
00000330: 4337 dbbd dbf5 07be 380c 37bd f268 85bd
00000340: f7b5 123d a241 793d 5add aebd 4eaa d6bc
00000350: 4598 d7bd 29a6 fa3c 6114 a9bd c9ec ae3c
00000360: 3853 cc3c 8a10 bd3b 0e60 803d dd76 ecbc
00000370: 603e 703d a2bc 0abe 1f4b 903d cd7a 2e3b
00000380: 90f8 23bc 412e b13d 1ac5 aebd 7391 033d
00000390: c5f8 dfbd bd40 ab3d aea4 68bc 3b64 cbbd
000003a0: 1dc3 de3c c7a5 c3bc 3fc6 a9bd fc74 bcbb
000003b0: a090 62b9 caab 563d e54b c5bd dcb3 373c
000003c0: 8d46 5fbc e236 883d 46fe a6bc 6da5 a33d
000003d0: 6284 df3c 3a83 ae3c 5e2a e5bd d9fc 9f3d
000003e0: 8519 523d 21c7 50bb 9a69 57bc b516 01be
000003f0: 2d1c 90bd 2eed 08be d15a 1d3b 5a79 563d
-0.037855856 -0.09963093 -0.04026016 0.027854392 -0.029723011 0.058195546 -0.123453796 -0.15039645
0.0022372543 -0.066526495 0.08389824 0.06290231 0.030868491 0.06769928 -0.15216343 -0.06991975
-0.14386678 0.058164045 0.06915799 0.00075855944 0.0109846 -0.14047329 -0.023510072 -0.10404151
0.054292247 0.08163563 -0.14893706 0.033895466 -0.14192997 -0.064429305 0.038612302 -0.10858125
0.060108628 0.009467338 0.054486964 -0.049488623 0.0036844935 0.0325147 0.018788224 -0.10808134
0.043559268 -0.07399512 0.06101972 0.0727233 -0.026416292 -0.12900902 -0.14245944 0.0710763
-0.13598207 0.0009864119 0.03793229 -0.1072026 0.03289441 -0.016130863 -0.047046497 0.05317039
-0.014933559 -0.09778589 0.041081723 0.00083231647 0.01487076 0.06191028 -0.039014697 -0.12678635
0.017163832 0.048719782 0.05685276 -0.097137205 0.06818252 -0.060605917 -0.12640846 0.03235224
-0.08525114 -0.040676158 -0.023369871 0.016451176 0.0052729677 -0.13421313 -0.07423796 0.022405924
0.047141418 -0.0067765196 -0.052716307 -0.04999499 -0.047197897 -0.11588979 0.08073668 0.07362838
-0.07295309 -0.060606424 -0.118964426 -0.008752614 0.0024455807 -0.029866997 0.025417596 0.018153287
0.066445954 -0.12512685 0.06824522 -0.08865062 -0.028018406 -0.13044919 0.018593192 -0.13636453
-0.0102576 -0.12646808 0.08921616 -0.013647994 -0.031097036 -0.11130138 -0.022702055 -0.09815421
-0.030829133 0.048419096 0.0800022 -0.060105063 -0.039524917 -0.06239312 -0.121948265 -0.15470757
0.04593784 -0.09392196 0.02504396 -0.03802664 -0.15399134 0.01802376 -0.003352702 -0.0358752
-0.07767585 0.008358609 0.046954118 0.03885866 -0.1486358 -0.025594283 -0.04197318 0.040008873
-0.06874338 -0.083933614 -0.09403778 0.077922046 0.048024062 -0.11960474 0.033755925 -0.08416732
-0.09898108 0.016549233 -0.06178288 -0.032217737 -0.10061226 -0.083769545 -0.084857054 -0.07781461
0.024304349 0.023778927 -0.05456114 0.027123224 -0.034918007 0.07096669 -0.060864415 0.023825988
-0.010688232 0.014658245 -0.030298514 0.05715074 -0.12628679 -0.15306959 -0.016805574 0.058768056
0.08554608 0.0038683875 -0.07674685 -0.05095139 0.025209198 -0.10431473 0.035409514 -0.03611868
0.015294623 0.037473373 -0.036321204 -0.08907948 0.083867416 -0.095969215 -0.11299635 -0.03659243
-0.06120022 0.059623312 -0.03144548 -0.07513018 0.009705822 -0.016284319 0.00028861244 -0.15279366
-0.13843994 0.011156287 -0.069349974 -0.12363208 -0.13978533 0.034553852 0.006376098 -0.15053733
-0.029862115 -0.08090587 -0.044851013 0.06472707 -0.107039 -0.1327738 -0.044689387 -0.06514157
0.035818066 0.060853608 -0.08538313 -0.026204254 -0.1052709 0.03059681 -0.0825584 0.021353142
0.024942026 0.005769794 0.06268321 -0.028865272 0.058653235 -0.1354852 0.07045578 0.0026623488
-0.010007992 0.086514 -0.08533688 0.032121133 -0.10936121 0.08361957 -0.014199419 -0.09931227
0.027192647 -0.02388276 -0.082897656 -0.0057512503 -0.00021606917 0.052409925 -0.09633616 0.011212315
-0.01362766 0.06651093 -0.020384919 0.07990537 0.027284805 0.021302808 -0.111897215 0.07811899
0.05129387 -0.0031856971 -0.013147736 -0.12606318 -0.07036624 -0.13371727 0.002401043 0.052361824

bias f4 [25]
00000000: 0000 0000 0000 0000 0000 0000 0000 0000
00000010: 0000 0000 0000 0000 0000 0000 0000 0000
00000020: 0000 0000 0000 0000 0000 0000 0000 0000
00000030: 0000 0000 0000 0000 0000 0000 0000 0000
00000040: 0000 0000 0000 0000 0000 0000 0000 0000
00000050: 0000 0000 0000 0000 0000 0000 0000 0000
00000060: 0000 0000
0.0 0.0 0.0 0.0 0.0 0.0 0.0 0.0
0.0 0.0 0.0 0.0 0.0 0.0 0.0 0.0
0.0 0.0 0.0 0.0 0.0 0.0 0.0 0.0
0.0

weight f4 [25, 200]
00000000: 491f 86bd 4dec ff3c 9b17 92bd 0206 0fbe
00000010: 29db bfbd d3dd 203e 4342 863b 36a0 19be
00000020: 0c10 01bd 36c0 e5bd c80a a03c eb72 bdbb
00000030: 9e34 d6bd 0838 26be d558 ee3c fc14 0e3d
00000040: 591a 7bbd 9e28 1abe bdf3 87bc 44b2 aa3d
00000050: 1dce 4bbd 051b 04be 9561 f43d f763 d2bd
00000060: 68c1 e13d 3592 ec3c 938c 24be 1a71 03be
00000070: 6c5a 823d ec35 c3bc 6a21 e13d e5fb ff3d
00000080: 23b8 52bd 5e55 013e 42e4 94bd b0ba 073e
00000090: 720f cd3d cb9c 7a3d f070 22be 32c1 a53d
000000a0: da18 973d e13e 463d 1d53 823c 019b 853d
000000b0: 7905 a93d 00d9 88bd 710a a03d 79a8 d93d
000000c0: b412 873d b2c6 ef3d 81b1 8c3d 6588 783d
000000d0: 6a1c 78bc 0752 02be b11f 07be 3a5c b3bd
000000e0: f365 923d e9f1 813d 1457 35bd 9545 11be
000000f0: 702b d4bd 10fc a3bd c62b f33d f42a aabc
00000100: 9c90 bebc bdf9 c43d 7efe 1d3e 843d 1ebe
00000110: 468a 47bd c6a2 173e 9948 f9bc e607 c73d
00000120: 6388 da3d fcd2 b23d 5f0b f0bd 40e6 c23d
00000130: c151 ba3d cd54 153d 1415 0a3b bfcf 58bd
00000140: 3c36 843b 1e0c 05be 476d 003e bbda f8bd
00000150: 5f4d ab3d edfe 94bc 0d95 1bbe f0e6 a93c
00000160: dcd2 1abe 7767 d6bd 810b c8bd b3d9 adbd
00000170: ee5b 973d 4463 033e acae bfbd b727 5f3d
00000180: 62ec 883d 8472 063d 7b58 113e a3d0 8ebc
00000190: b7d9 01be fb7d 943d 09c2 0e3e 40d1 b2bc
000001a0: 18cd a9bd c673 1bbe fb97 1a3e c088 edba
000001b0: 5366 643d 5afa 1e3e cf48 0abe beff 99bd
000001c0: bcd6 af3d 459f f0bd ef60 5f3d 5391 b0bd
000001d0: 2d8e 1d3e 3c46 1d3e 6aa2 f03d f85e 04be
000001e0: a7f3 053e 82ae d9bd 5e29 c8bd a477 703d
000001f0: a4a5 14bd 95d8 f2bc 5cd2 e6bd a065 93bd
00000200: 893a f4bd f42f 4e3d 8f6d 9dbd b699 7f3d
00000210: 29a3 0b3e 88c1 85bd 132a 493b 7312 b0bc
00000220: 32d5 0dbd 5cd6 bdbd 4d71 623d cc66 d83d
00000230: 1444 bf3d 51f8 a3bd 6671 2c3d 3d8b 8bbd
00000240: 25d6 f23d b1a9 e8bd 4df2 b43c 7d03 093e
00000250: f083 8f3c f573 143e 7d53 26be 41d5 7abd
00000260: b1bb 283c 67d4 11be 72f6 46bc c426 6b3d
00000270: 537f d0bc e25a b93d fd67 13be af63 a8bd
00000280: 0c4d 02be aa57 2e3b 8f49 2e3d efcd ec3b
00000290: 6017 8ebd f238 ca3c 9051 8cbc bb21 05bd
000002a0: 0ffa 05be 86bd e03d d488 1d3d 93e4 4a3d
000002b0: f031 b13a d93e 84bc f24b 8abc 5b39 d73c
000002c0: 4b6f 2abd f0f5 1b3e dcbf fd3d b5a7 1fbe
000002d0: 7742 8a3d 3c14 873d 47b3 453c 1011 42bd
000002e0: 592a 79bb ad3a ccbd 39ad ecbd 696c 12be
000002f0: c7df 14be aed8 f0bc 65b3 f3bd d2eb c63d
00000300: 2b8a 4a3d e5d4 f1bb 473c 4c3d 9d2b 8f3d
00000310: 5080 d03d 07e3 1dbe 942f 193e 4869 a53d
00000320: 50f8 023e d0c8 0c3e 49a8 41bd d550 11bd
00000330: 7f48 123d 7e3e 1fbd 7205 b8bd 8f52 1e3e
00000340: b465 0b3e ab9c 20bd bdea 163e 5461 13bc
00000350: a25f 1cbe 6d0f b3bd 25ed e73c 6e3d 12bd
00000360: 1ef3 4ebd 6cd6 313d 6788 f23d 04ee 13be
00000370: 7abf fb3d 0873 ea3a 8d77 d63d eae5 d0bd
00000380: bb91 0c3e 1624 bd3d 96e8 4ebc 7330 ea3d
00000390: 8718 bfbd 9384 abbb 6058 583d 946d 5bbd
000003a0: b537 1e3e 0bfc 74bd 96a2 0e3d d1a2 c1bc
000003b0: 9d0e 303c 05dc 1c3e 6a34 573d 7f96 69bd
000003c0: 7a56 cbbc 020e e8bb dec0 0c3e f32c 2dbd
000003d0: c395 a63d 63c5 613d 6d4b 59bc 330b 0a3d
000003e0: 7115 15bd ca04 0ebe 96f0 033c a1d9 36bd
000003f0: a031 e8bd e106 1bbc e54a aebd af85 7d3d
-0.06548936 0.031240607 -0.07133409 -0.13967136 -0.09367973 0.15709619 0.0040972545 -0.15002522
-0.031509444 -0.11218302 0.01953639 -0.0057815216 -0.10459255 -0.16232312 0.029095093 0.03468798
-0.061304424 -0.15054557 -0.016595716 0.08334783 -0.04975711 -0.12900932 0.11932675 -0.10272973
0.110232174 0.02887831 -0.1606925 -0.12836114 0.06364903 -0.023829423 0.10992701 0.12499217
-0.051445138 0.12630221 -0.07270099 0.1325481 0.100127116 0.061184686 -0.15863395 0.0809349
0.07377787 0.04839981 0.015908772 0.06523705 0.08252997 -0.066820145 0.078144915 0.10627837
0.06595364 0.1170782 0.06869794 0.06067695 -0.015143493 -0.12726603 -0.13195683 -0.08757825
0.071483515 0.06344969 -0.044272497 -0.141867 -0.103598475 -0.080070615 0.118735835 -0.020772435
-0.023262314 0.09617946 0.15429112 -0.15453154 -0.048715852 0.14808187 -0.030430125 0.097183034
0.10670545 0.08731648 -0.11720919 0.09516573 0.090976246 0.036457825 0.0021069692 -0.052932497
0.0040347856 -0.12992904 0.12541686 -0.121510945 0.08364367 -0.018187964 -0.15193577 0.020740002
-0.15119499 -0.10468953 -0.09767819 -0.084887885 0.07390581 0.12830836 -0.09359488 0.054481234
0.066857114 0.032824054 0.14193909 -0.01743347 -0.12680708 0.07250591 0.13941206 -0.021828294
-0.08291072 -0.15180883 0.15097038 -0.001812242 0.055761646 0.15525189 -0.13504337 -0.07519482
0.08585879 -0.11749128 0.054535802 -0.086214684 0.15386267 0.15358824 0.11749728 -0.12926853
0.13081227 -0.10628988 -0.09773515 0.05870785 -0.03629078 -0.02964429 -0.112705916 -0.07197118
-0.11925227 0.0503387 -0.07686912 0.06240245 0.1363646 -0.06531054 0.0030695244 -0.021493172
-0.034627147 -0.092694014 0.055283833 0.10566482 0.09339157 -0.08006347 0.042100333 -0.06813667
0.11857251 -0.11360491 0.022088194 0.13380237 0.017518967 0.14497359 -0.16242786 -0.06123853
0.010298655 -0.14241181 -0.012143718 0.057410017 -0.025451338 0.09050538 -0.14395137 -0.08222138
-0.12724704 0.0026602545 0.04255062 0.0072266976 -0.06938052 0.024685357 -0.017128736 -0.03250287
-0.13083671 0.10973649 0.038460568 0.04953439 0.0013518911 -0.01614325 -0.016881917 0.026272466
-0.041610043 0.15230536 0.1239011 -0.15591319 0.067509584 0.06595656 0.012066669 -0.047379553
-0.0038019626 -0.09972129 -0.11556477 -0.14299168 -0.1453849 -0.029400196 -0.11899451 0.09712948
0.049448173 -0.0073801153 0.049862172 0.069907404 0.10180724 -0.15418635 0.14959556 0.080767214
0.12790036 0.13748479 -0.04727963 -0.035477478 0.03571367 -0.038877957 -0.089854136 0.15461181
0.13613015 -0.03921191 0.14737983 -0.008995373 -0.15270856 -0.087431766 0.028311322 -0.035703115
-0.050524823 0.04341738 0.11842423 -0.14446265 0.12292381 0.0017887065 0.10472021 -0.102001026
0.13727467 0.092353985 -0.012628695 0.11435022 -0.0933085 -0.00523431 0.052818656 -0.0535713
0.15450938 -0.05981068 0.034823023 -0.023637207 0.010745672 0.15318306 0.05254022 -0.05702829
-0.024821509 -0.007081748 0.13745448 -0.042279195 0.081340335 0.055119883 -0.013262612 0.033702087
-0.0363974 -0.13869014 0.008052966 -0.04464114 -0.1133759 -0.009462089 -0.08510379 0.06189507
