deep_learning/models/GCNLinkPrediction25.pth (torch, 564000 bytes, 10 tensors)

bias f4 [200]
000000 5f 08 ae 3c 97 2e 7c 3c 44 a4 51 3d 88 ab 68 3c
       0.021244226 0.015391967 0.051182047 0.0142010525
000010 a5 e5 74 3c 00 64 bf b8 84 59 02 bb c4 53 14 bd
       0.01494733 -9.126216e-05 -0.0019889781 -0.036212698
000020 50 43 67 3c d8 47 15 3d 2f f4 1f 3d fa 1a 84 3c
       0.01411517 0.03644547 0.03905123 0.016126145
000030 b7 1e 07 bd 98 21 e2 3c 27 cf 0c bc ef 7f d0 3c
       -0.032988276 0.02760391 -0.008594311 0.025451628
000040 d5 be 15 3c f1 4d 0c 3d d5 48 3b bd 37 1a 0f bd
       0.009139736 0.03425402 -0.045723755 -0.03493711
000050 e7 a3 cf bc c9 2d 4d bd 9d 14 03 ba 9b ec 2c bd
       -0.02534671 -0.050092492 -0.0005000325 -0.042217832
000060 8b 24 ce bc f4 c5 3b bd 9e 56 29 3d 8f d5 12 bd
       -0.02516391 -0.04584308 0.04134237 -0.035848197
000070 be 3c 37 3d ca 63 44 3c 9e ad 0c 3d 87 c8 47 bd
       0.044735663 0.011986682 0.03434526 -0.048775222
000080 ef e1 2d bc fc 00 1f bd 20 66 46 bd 12 d1 35 bd
       -0.010612949 -0.0388193 -0.048437238 -0.044388838
000090 d0 39 80 3c 23 f2 a6 3b 35 18 0b 3d 51 fd e7 3c
       0.015652567 0.005094783 0.033958632 0.028319033
0000a0 8f 45 30 3d 0d a1 47 bd 46 92 35 bd 50 2c 51 bd
       0.043035086 -0.048737574 -0.04432895 -0.05106765
0000b0 ee 30 21 bd c9 c1 cb bc 50 f3 46 3d 8a 88 2c bd
       -0.039353304 -0.024872677 0.048571885 -0.0421224
0000c0 7a 53 19 bd 90 d6 80 ba f3 c0 8a 3c f3 8b 0d bd
       -0.037433125 -0.000982957 0.016937708 -0.034557294
0000d0 57 28 d9 3b a2 2f 2c bd 8d 9d f8 bc 6a 36 0e 3c
       0.0066271233 -0.042037614 -0.030348564 0.0086799655
0000e0 2e 09 0e 3d bf 75 8f bc 0f 55 d5 3b c7 e9 49 3d
       0.034676723 -0.0175122 0.006510384 0.049295213
0000f0 bd f7 08 bd 23 7a 9a bc 5d a7 d0 3c a0 41 08 bd
       -0.033439387 -0.018857067 0.02547043 -0.03326571
000100 ae 3b 05 3c ad a7 36 bd d0 30 0c 39 e2 ee 19 3d
       0.0081319045 -0.0445935 0.00013369625 0.037581332
000110 d9 40 3c bd 9a 76 d7 3c 71 6f 48 3d 95 4b 19 3d
       -0.04596028 0.02630167 0.048934404 0.037425596
000120 0e 6e d0 bc 91 c1 f5 bc a0 21 f1 bc 1b 88 bf bc
       -0.025443103 -0.029999526 -0.029434979 -0.02338033
000130 73 c3 44 bd fb f9 18 3d b2 9f 3e bd ce 7b 2b bd
       -0.048037957 0.037347775 -0.046539016 -0.041866116
000140 5c 0e 06 bd 1e 9b c9 3b 5d 20 2e bd d2 d0 ab 39
       -0.032728538 0.0061525246 -0.042511333 0.00032771245
000150 5c f2 4d bd 1c d1 3d 3d 92 ae 2d bd f1 f6 64 3c
       -0.05027996 0.046342 -0.04240281 0.013974891
000160 c6 d4 53 bd 81 b0 c2 3c f0 55 3e 3d b7 15 cf 3b
       -0.05171659 0.023765804 0.046468675 0.0063197273
000170 62 3d 1d 3c 17 76 0e bd ac f6 32 bd bf ec 72 3c
       0.009597154 -0.034780588 -0.043692276 0.0148269525
000180 85 2b e1 3b 78 d6 0a bc 29 06 bb 3c e7 fd 3f 3d
       0.006871643 -0.008473985 0.022830086 0.046873
000190 e7 f1 1d bd c6 32 05 bd 72 78 21 bd 60 77 0d bd
       -0.038560774 -0.032519124 -0.039421506 -0.034537673
0001a0 66 6c b2 3b 5e 83 c8 3b 5f da 2d bd 80 4b 0a 3d
       0.005445051 0.006119176 -0.042444583 0.03376341
0001b0 b5 36 26 3d 03 53 e8 3c d1 e0 02 bc 65 e2 27 bd
       0.040579516 0.028359896 -0.007988171 -0.04098739
0001c0 fa 61 b0 3b 5d cc 0d bd 04 73 f0 bb 93 7f 50 bd
       0.0053827735 -0.034618724 -0.0073379297 -0.050902914
0001d0 aa 1a 77 bb d1 a3 0f bd 4a be 61 3c a6 83 d9 bc
       -0.0037705102 -0.035068337 0.013778279 -0.026552033
0001e0 d2 01 04 3d 65 21 d8 ba 42 e3 42 3c b9 34 42 3b
       0.0322283 -0.0016489445 0.011895003 0.0029633476
0001f0 30 1c 09 3d 80 92 55 ba 8e 72 9f bc 25 dd e6 bc
       0.033474147 -0.00081471354 -0.019463804 -0.028181622
000200 26 fc 1b bd 6f 4b ca bc 8e 05 29 3d e4 8e 25 bc
       -0.038082264 -0.024694173 0.041265063 -0.010104869
000210 56 4d e8 bc fc 9b 81 3c bc 77 01 bc 1c 0a 1b bd
       -0.02835719 0.01582145 -0.007902082 -0.037851438
000220 e3 b6 2f bd fb 0e 62 bd 90 7c 79 bc c1 15 ba 3c
       -0.042899024 -0.055190068 -0.015227452 0.022715451
000230 35 35 b6 bc 3b cf 00 3d 36 77 c9 bc 18 e7 dd bc
       -0.022242168 0.03144763 -0.024592977 -0.027087733
000240 d3 9c 86 bc ff ec 16 bd c7 e6 15 bd 91 7a 19 bd
       -0.016432201 -0.03684711 -0.03659704 -0.037470404
000250 77 24 4c bb 1f 1b f8 bc 4f ce 1b 3d f6 41 1f bd
       -0.0031149664 -0.03028637 0.038038548 -0.038881265
000260 ef 12 30 3c 64 a9 d2 bc a5 e2 99 bb 39 8f 14 3d
       0.010746702 -0.025715537 -0.0046962076 0.0362694
000270 2d c3 f0 3c 3b 5d fd bc 7a 00 0a 3d 88 94 cc 3c
       0.029389942 -0.030928245 0.03369186 0.024973169
000280 f3 f5 4a bc 44 e3 11 bd 6a a8 c6 bc c2 de 70 bb
       -0.01238774 -0.035617128 -0.024250228 -0.0036753868
000290 d6 f2 7a bb 5c e5 03 bd b0 e1 9f 3b fc c9 12 bd
       -0.0038291714 -0.032201156 0.004879199 -0.03583716
0002a0 02 f1 12 bd ea 65 00 3c 30 89 0c 3d 4c c8 3d bd
       -0.035874374 0.007836798 0.03431052 -0.046333596
0002b0 00 d6 de bc b6 1f e5 3b 20 ca 3f bd 2a 82 52 3d
       -0.027201653 0.0069923056 -0.04682362 0.051393665
0002c0 e3 d4 f5 bc ef 65 14 3d a9 96 0f bd cc 38 3b 3d
       -0.030008739 0.036230024 -0.03505579 0.045708463
0002d0 3a 1c fd bc f3 d0 23 bd 7d a4 01 bc 08 36 0e bc
       -0.030897249 -0.03999419 -0.007912752 -0.008679874
0002e0 45 ce 26 3d 85 d3 33 3d 41 07 d9 3c 0a 33 d4 bc
       0.040724058 0.043902893 0.026492717 -0.025903244
0002f0 1a e4 1b 3c fe ba 82 3b fa 69 b8 bb 10 48 17 3d
       0.009514833 0.0039895764 -0.0056278678 0.03693396
000300 ab c3 12 3d fc ff 2a bd 56 bd 12 3d 4f a0 0d bd
       0.035831135 -0.041748032 0.035825096 -0.03457671
000310 04 16 17 bc fc 92 51 bc 65 0d 7e 3b 0f b6 d3 3c
       -0.0092215575 -0.012791391 0.0038765308 0.025843648

weight f4 [200, 18]
000000 66 ab a9 3b 15 d3 2c be a6 50 2f be 58 7b 05 be
       0.005177903 -0.16877396 -0.17120609 -0.13035333
000010 92 ff 08 3a 52 55 44 3e 32 1a 9e bd ad c6 01 3d
       0.0005226071 0.19173172 -0.0771984 0.031683613
000020 91 bb fb bc 86 87 cd 3d 42 31 30 bc ef e9 86 3d
       -0.030729087 0.10035615 -0.0107539315 0.06587588
000030 cd 0f ef bd f1 9e b9 3d 01 ed 07 3d 18 41 fb 3d
       -0.11672936 0.09063519 0.03318501 0.12268275
000040 0b 1b c2 3c 7d 61 81 3d 27 d9 61 3d f3 a9 e1 bd
       0.023694536 0.063174225 0.055138733 -0.11018743
000050 f8 08 fd bc 3a 7d 5a be 00 cd 82 bd ad 0d 4b be
       -0.030888066 -0.21336833 -0.06386757 -0.19829436
000060 58 4a ee 3d 5a 64 2c be 33 15 e8 3c 5a fb 20 3e
       0.11635274 -0.16835156 0.028330421 0.15720883
000070 3b 87 2e 3e 9c a3 1b 3e 57 eb 19 3d 08 0d a2 3d
       0.17043774 0.15199131 0.037577953 0.07912642
000080 ab 7e 0e 3d cc b6 9f bd 74 c8 2c be 4c e7 ad bc
       0.03478877 -0.077985376 -0.16873342 -0.021228455
000090 71 f9 ca 3d 43 da 68 bd 67 e2 2a 3d 4c b8 05 bc
       0.099108584 -0.056848776 0.04171982 -0.008161616
0000a0 3e 00 21 3e 5d ef 90 bd d9 2c a2 bd 1a 7e 0d 3e
       0.15722749 -0.07076905 -0.0791871 0.13817635
0000b0 8d 72 d4 bd d8 81 16 3a d6 53 99 3c 6a ea f3 3d
       -0.10373411 0.0005741394 0.018716734 0.11909945
0000c0 d3 7c e0 3d 9e 94 89 3d e7 d7 a8 3d 6a d8 04 bd
       0.10961308 0.067177996 0.08244305 -0.03243295
0000d0 2a dd 8b bd f9 3a e4 bc aa fe eb 3d 89 0c a0 bd
       -0.06829293 -0.027860152 0.11523183 -0.07814891
0000e0 60 53 2f bb 15 bd e0 3d 27 0d 2a 3e 7b 8e f8 3d
       -0.0026752576 0.109735645 0.1660658 0.12136551
0000f0 f3 1d 0c 3e 63 61 49 3e 8b ee 32 3e 64 1c b8 3d
       0.136833 0.19666056 0.1747381 0.0898979
000100 18 ed 2d bc 25 64 b9 bd 14 92 4c bd 5a 1d a0 bc
       -0.01061561 -0.09052304 -0.049944 -0.019545246
000110 9d ca bd bd a3 ec b0 bc 06 cd 56 bd 20 e2 18 3e
       -0.09267161 -0.021597212 -0.05244162 0.1493001
000120 14 3d 3a 3e f2 3f 93 3c e0 8d 3a 3e 84 98 d4 bd
       0.18187362 0.017974827 0.18218184 -0.103806525
000130 88 65 07 3e 76 b7 85 3d 78 eb ba bd 8f a6 37 3e
       0.13222325 0.06529133 -0.09126943 0.17934631
000140 b9 44 bc bc 19 4c 57 3d a6 32 08 be ef 1a f9 bd
       -0.022981988 0.052562807 -0.13300571 -0.1216334
000150 7f ce c4 3d dc 82 4a 3d 2c 7c e5 bd f8 e9 93 bc
       0.096096985 0.049441203 -0.112053245 -0.018055901
000160 79 77 b1 3d e6 6a d8 3d 48 2b 90 bd 43 38 a3 bc
       0.08665366 0.10567264 -0.07039505 -0.019924289
000170 63 78 5d bd 83 ac 0e bc 3d 4e ef 3d e1 9c a8 bd
       -0.054069888 -0.008708122 0.11684845 -0.08233047
000180 97 ef 8f 3d 20 3a a9 bd c7 e7 cd bd 7e 6e e5 bd
       0.0702812 -0.082630396 -0.10053974 -0.11202715
000190 4c 0d 98 3d c9 e9 12 be 73 a0 0d 3e 4f 17 e6 3d
       0.07424411 -0.14346994 0.13830738 0.112349145
0001a0 20 f6 2d be 14 42 0f 3c 4c 0c 1f be 96 d2 39 3c
       -0.1698842 0.008743782 -0.15532035 0.0113417115
0001b0 41 51 4b bc 67 d1 dd bc 80 15 29 be ca 19 a3 bd
       -0.012409509 -0.02707739 -0.16512108 -0.07963903
0001c0 ba 44 82 bd 76 8d b5 bd 49 dd 09 be c2 65 f8 bc
       -0.06360765 -0.08864872 -0.1346332 -0.03032196
0001d0 7c 82 a2 bd ec e4 88 bd bb 89 fe bc 93 b5 d4 3c
       -0.07935044 -0.066842884 -0.031071534 0.025965488
0001e0 9f 18 be 3d da e3 eb bd 53 26 c5 3d 61 83 91 3d
       0.0928204 -0.115180686 0.096264504 0.07105137
0001f0 43 18 ca bd 08 82 f3 3d dd 63 e8 3d 0e 7b b5 3d
       -0.09867909 0.11890036 0.113471724 0.088613614
000200 04 62 db 3d c9 2a b1 bd 9e 75 0d be 0a 1e cf bd
       0.10712054 -0.08650739 -0.13814399 -0.10113151
000210 7d 8d 9b 3d a9 cd c6 3d bb cd 43 be 30 18 83 3a
       0.07595346 0.09707195 -0.19121449 0.0010001715
000220 7c 51 0d be c9 a1 80 3d a7 b9 29 be b9 2b 4d be
       -0.13800615 0.06280858 -0.16574727 -0.2003621
000230 e0 92 8c 3d 98 10 05 ba 1c d5 e5 bd 44 96 dd bd
       0.06863952 -0.000507602 -0.11222288 -0.108196765
000240 4e 6a f2 3c 5a 1b ba ba 7a 2e 4d 3e 00 ae 36 3e
       0.029591706 -0.0014198825 0.2003726 0.17839813
000250 e0 31 4e 3e 5e 68 3c bd 37 5b 37 bd 81 37 f5 3d
       0.20136213 -0.04599797 -0.044764724 0.11973477
000260 19 5c 35 bd d0 44 74 3d 3c 3e 05 bd 16 d9 f0 3d
       -0.044277284 0.059635937 -0.032530054 0.11760156
000270 b6 1d 46 3e 60 09 ae 38 64 11 10 bd ea 18 22 3e
       0.19347271 8.298713e-05 -0.035172835 0.15829816
000280 14 15 7f 3b 66 da 9c 3c 30 8e 91 bd 55 0f 25 3e
       0.0038922476 0.01914711 -0.07107198 0.1611913
000290 c4 57 98 bd e3 5c c3 3d 82 74 a1 3b e7 8b cc bd
       -0.07438615 0.09539201 0.004927219 -0.09987622
0002a0 a2 fa e6 3c 51 25 02 3e ba bb 51 3e 0e 82 82 3c
       0.028195683 0.12709548 0.20481768 0.015931156
0002b0 9e c5 c7 3d f9 96 a7 bd 2e 7f 2d 3e 4a 18 7c 3d
       0.09754489 -0.081830926 0.16943046 0.0615466
0002c0 87 49 0d 3e 84 df 95 3d 67 c4 b1 3c 6c db ee 3d
       0.1379758 0.07318023 0.021700097 0.11662945
0002d0 a9 d7 c2 3d cc b3 db bd e8 e0 c6 bd 72 a9 1b 3e
       0.0951379 -0.10727653 -0.09710866 0.15201357
0002e0 2b 14 92 3c b4 a4 37 3e d1 bd 98 3c 35 a4 26 3e
       0.017831882 0.17933923 0.018645199 0.16273578
0002f0 d8 95 89 3a f5 e3 c7 bc b2 33 cf 3d e9 3d 33 3d
       0.0010496927 -0.02440069 0.10117282 0.043760214
000300 5f 84 0e bd cc 48 4e 3e cc 17 50 3d 35 84 9c 3d
       -0.034794208 0.20144957 0.050803944 0.07642404
000310 b0 1a 99 3d 93 19 b6 3d b3 34 81 bd 8c c2 71 3c
       0.07475793 0.08891597 -0.0630888 0.014755856
000320 d3 30 c0 bd 20 25 2a be f3 64 e2 3d 7c ee b5 bd
       -0.093843125 -0.16615725 0.11054411 -0.08883378
000330 87 41 09 3e 53 20 a4 bd 19 b6 ef bc 7a 76 ac 3c
       0.13403903 -0.08013978 -0.029261636 0.021052588
000340 51 91 fd bd d9 f9 c8 3d 43 ef 4d 3d 4c 79 f2 bd
       -0.123812325 0.0981328 0.050277006 -0.11839542
000350 1c dc c3 39 fa d8 52 3d a0 ae 10 bd 80 5b 0a be
       0.00037357293 0.051476456 -0.035322785 -0.13511467
000360 2c 65 04 3e ee b5 09 be 08 95 0a be 96 bd c4 3c
       0.12929219 -0.13448307 -0.13533413 0.024016183
000370 ec 4b d7 bc ac f6 4a 3b ca ff 2d 3d 09 44 b5 3d
       -0.02628132 0.0030969782 0.042480268 0.08850867
000380 1e 68 1e be 10 21 f1 bd 67 65 0b bc 19 36 c5 bd
       -0.15469405 -0.11773884 -0.008508063 -0.09629459
000390 18 ba 1d 3d b6 9b ed bd 75 77 a2 3d 4a ad b1 bd
       0.03850755 -0.11601965 0.07932941 -0.086756304
0003a0 8c d6 2a bd 7c bc b0 bb 98 f8 12 be 5c b2 24 3d
       -0.041708514 -0.005393563 -0.14352643 0.04020916
0003b0 8b ba 94 3d cc 93 84 bd 60 0a 04 3d 8a cd 21 3d
       0.07262143 -0.064735025 0.032236457 0.039502658
0003c0 01 b7 24 be f7 9b fd bd f3 8f 79 bd 6f 5d 43 3d
       -0.16085435 -0.123832636 -0.060928296 0.047696527
0003d0 f7 81 6a bd dd e5 93 3d e2 f1 8a 3d b7 08 20 3e
       -0.05725285 0.07221577 0.06784417 0.15628324
0003e0 97 8b 93 bd 22 8b 4c 3d c7 6a b0 3c 8f aa 2b 3e
       -0.07204359 0.049937375 0.02153529 0.16764282
0003f0 48 6a 93 bd 9b c1 1a be 0e 93 c1 3d 47 30 d6 bc
       -0.07198006 -0.15112917 0.094518766 -0.026146067

bias f4 [200]
000000 29 a3 11 bd 86 12 28 3c 91 8b 0d bd 32 ae 18 3d
       -0.035555992 0.010258323 -0.03455693 0.0372755
000010 80 73 3b 3d 1a 3a 11 bd 84 79 ef 3b fa 66 11 bd
       0.045764446 -0.0354558 0.007308187 -0.035498597
000020 44 83 aa 3c 08 4e cb 3c b1 5c 11 bd 1d 2e a7 bc
       0.020814545 0.024817482 -0.035488788 -0.02040773
000030 a3 c8 58 bd 07 64 ca bc b7 ad 67 3c 83 c2 99 3c
       -0.052925717 -0.0247059 0.014140538 0.018769508
000040 a5 64 11 bd e6 4f 11 bd 26 76 11 bd 57 8c 4c bc
       -0.035496373 -0.035476588 -0.035513066 -0.0124846315
000050 b0 68 33 3c fd ec d5 3c 90 67 11 bd 88 a0 bc 3a
       0.010950252 0.026113981 -0.035499156 0.0014391104
000060 90 5b 30 bb 93 6a 0d bd d3 4f 30 3d 97 bf 82 3c
       -0.0026910044 -0.034525465 0.043044876 0.015960498
000070 f4 9f 21 bc dc 47 11 bd 42 49 07 bc 02 89 18 3d
       -0.009864796 -0.03546892 -0.008257212 0.037240036
000080 3b 10 ca bc da f4 08 bd d4 65 11 bd 3e 63 e4 bc
       -0.024665942 -0.033436634 -0.0354975 -0.027879354
000090 2a 57 25 3c 80 74 b4 3c 29 cc 12 bd b0 c2 0a 3d
       0.010091582 0.022028208 -0.035839234 0.033877075
0000a0 70 fe e1 3b 2e 00 0d bd ea c7 10 bd 76 d0 13 bd
       0.0068967864 -0.034424 -0.035346903 -0.036087476
0000b0 1b b2 04 bd b2 6d d2 3c 66 8b 11 bd 58 d4 55 3a
       -0.032396417 0.025687072 -0.03553333 0.0008156947
0000c0 a0 8f f4 3c be 8c 0f 3d 85 83 1e bb fb 2a 10 bd
       0.029853642 0.03504633 -0.0024187278 -0.03519724
0000d0 30 24 92 3c d9 82 67 3d 1e bc 65 3c b8 74 82 b9
       0.017839521 0.05652127 0.014021901 -0.00024882494
0000e0 7f af 05 bd 54 68 11 bd 64 d3 4f bc 2e 2e dd 3c
       -0.03263807 -0.035499886 -0.012684677 0.02699956
0000f0 b4 64 11 bd 6c 78 11 bd 75 d1 08 3d 33 60 11 bd
       -0.03549643 -0.035515234 0.03340288 -0.035492133
000100 45 90 0a bd d9 5c 11 bd e6 33 f3 ba ce 66 11 bd
       -0.033828992 -0.035488937 -0.0018554896 -0.035498433
000110 02 bd 80 bc c4 56 66 bc 03 f7 4d 3d b6 bb 02 bd
       -0.015715126 -0.0140587725 0.050284397 -0.031917296
000120 97 3e 10 bd 78 82 f7 3c 6b 1e 92 3c 44 68 11 bd
       -0.03521594 0.03021358 0.01783677 -0.035499826
000130 51 35 0a bb c6 4a f0 3c d8 47 1a bd a9 51 5e 3c
       -0.0021088908 0.02933253 -0.03766617 0.013569274
000140 43 65 11 bd 06 83 11 bd 92 08 46 3d 33 e7 10 bd
       -0.03549696 -0.035525344 0.048348017 -0.03537674
000150 24 9d 7c bc 86 86 81 3b 07 3f 71 bc 74 47 37 3b
       -0.015418325 0.003952804 -0.0147245 0.0027966173
000160 3e 27 06 bd 42 9c 22 3c c5 29 2e bc a2 53 11 bd
       -0.032752268 0.00992495 -0.010630076 -0.03548015
000170 68 71 32 3c 26 cb 31 bc 3e a5 11 bd 47 62 11 bd
       0.010891296 -0.010851657 -0.035557978 -0.035494115
000180 80 3e b5 bc 90 67 11 bd d3 63 53 bd e6 69 11 bd
       -0.022124529 -0.035499156 -0.05160887 -0.035501383
000190 23 83 0c bc d0 65 11 bd bc ff 58 3c 88 33 ee b8
       -0.008576187 -0.035497487 0.013244566 -0.00011358323
0001a0 33 73 69 3c eb e4 91 bc c6 5c 16 3d 9c 19 7e ba
       0.014248657 -0.017809352 0.03670957 -0.0009693147
0001b0 2c da 8a bb 92 da 11 3c 12 04 20 3d 94 fa 10 bd
       -0.004237434 0.008902209 0.03906638 -0.03539522
0001c0 2b 9c 0c 3d a0 b8 00 bd 72 61 26 3d 6f e2 1a bd
       0.03432862 -0.031426072 0.040620275 -0.0378136
0001d0 63 59 75 3c 26 3c 1b 3d f1 e9 64 bc 15 d2 0f bd
       0.014974925 0.03789916 -0.013971792 -0.03511246
0001e0 39 1a 3e bd 0e fc 10 bd 1f 1d 81 b9 ec 66 11 bd
       -0.046411727 -0.035396628 -0.00024626494 -0.035498545
0001f0 83 68 11 bd 38 52 11 bd 86 60 11 bd 71 dd 8c bb
       -0.03550006 -0.0354788 -0.035492443 -0.004298859
000200 17 66 11 bd ce f9 22 3d ab 3c 8d 3c 9a 38 0b bd
       -0.03549775 0.039789014 0.017240843 -0.033989526
000210 dc 0e 13 bd f6 45 11 3d 27 ec 2a 3d ca df 21 3d
       -0.035902843 0.03546711 0.04172912 0.039520063
000220 e9 9f 3f bc 3b 63 ea 3c 5e b2 94 bc 10 25 47 3c
       -0.01169584 0.02861177 -0.018151458 0.0121548325
000230 05 c1 91 3c b8 52 09 bd ab 3d 3d 3b 33 67 11 bd
       0.017792234 -0.033526152 0.0028875868 -0.03549881
000240 95 4b f7 bc 02 82 11 bd 8c d2 57 bd af 5f 5f bc
       -0.030187408 -0.035524376 -0.052691028 -0.013633653
000250 ab 09 29 bd 1c 6e 11 bd d8 09 94 bc e8 af 9d 3c
       -0.041268986 -0.0355054 -0.0180711 0.019248918
000260 53 66 11 bd bf 1f c4 3c aa 56 11 bd 9e b1 16 3c
       -0.035497975 0.023940919 -0.03548304 0.009197621
000270 c4 a8 a8 3c 4b 6a 11 bd 76 85 23 3d 93 1a ae 3c
       0.020588286 -0.03550176 0.0399222 0.021252906
000280 70 31 10 3c a8 71 f8 3b 60 60 11 bd 50 8c 1a 3d
       0.008800849 0.0075819083 -0.0354923 0.03773147
000290 f2 72 11 bd 04 c9 48 3c 26 06 93 3a 16 ec 10 bd
       -0.03551001 0.012254957 0.0011217042 -0.0353814
0002a0 e8 6b 13 3d 6b 23 f3 bc 11 a1 ad 3c 24 fa 11 bd
       0.03599158 -0.029679975 0.021194967 -0.035638943
0002b0 c0 6e 4c 3c b8 80 3f 3d d0 71 92 bc a4 7f 30 bd
       0.012477577 0.046753615 -0.017876536 -0.043090478
0002c0 d5 28 d1 bc 56 4f 6b bc 32 3f 13 3b 0c ae b5 3c
       -0.025532166 -0.014362177 0.0022468087 0.022177719
0002d0 37 45 11 bd 26 1f 3b bb 46 18 d2 bc 1f de 10 bd
       -0.0354664 -0.0028552501 -0.02564634 -0.03536808
0002e0 95 76 17 3d d4 89 2c bd e4 5b 2a 3c 0d 67 11 bd
       0.036978323 -0.04212363 0.010397885 -0.035498668
0002f0 35 c5 c8 ba e7 fd ba bc ff bc 7b bc 49 eb de bc
       -0.0015317561 -0.022826148 -0.015364884 -0.027211802
000300 0a cd af 3c d1 1a 61 3d 7d 62 11 bd 3d 49 8e bc
       0.021460075 0.054957215 -0.035494316 -0.017368907
000310 1c 7c 2c bd 14 fa 32 bd 37 d9 b8 bc 99 05 2f 3d
       -0.042110547 -0.043695524 -0.022564514 0.042729948

weight f4 [200, 200]
000000 6f 51 0d be 6b 28 93 bd 40 90 db ba 83 39 a5 bd
       -0.13800596 -0.071854435 -0.0016751364 -0.0806761
000010 77 4f c6 bd 98 3c c6 bd 37 c5 c2 3d 24 24 f8 bd
       -0.096831255 -0.09679526 0.09510272 -0.12116268
000020 d2 c5 99 3d 27 82 0d be b5 7b 33 3d 94 04 8d bd
       0.07508434 -0.1381918 0.043819148 -0.06885639
000030 58 b7 d8 3c 57 00 00 be 61 ff a1 bd 18 97 3a 3c
       0.026454613 -0.1250013 -0.07910038 0.011388563
000040 9c 37 42 bd 44 a5 92 3d 43 5f a7 3d 13 12 ed bd
       -0.047416314 0.07160428 0.081724666 -0.11575713
000050 2b bc bc bd d6 a9 c8 bc 9b 74 19 be 3f 61 05 3d
       -0.09215578 -0.024495047 -0.14985888 0.032563444
000060 2e 5c 56 3d 33 2b 1a be a2 e4 28 bd 2b 04 0a 3d
       0.052334003 -0.15055542 -0.041233666 0.03369538
000070 fe 29 76 3c 62 e7 84 ba 0f 1a ae 3d af dd 3d 3c
       0.01502466 -0.0010139758 0.08501064 0.011588498
000080 bd 18 83 bc fa d7 85 bd d9 c9 34 bd c6 9b 1e 3c
       -0.016003007 -0.06535335 -0.04413781 0.009680694
000090 6c c4 83 3d d2 7b 3b 3c ef b6 9e bd 56 65 70 3c
       0.06433949 0.011443095 -0.077497356 0.014672598
0000a0 1a aa c0 bd 44 cc 0c be 96 ee 3e bc cd 73 0f be
       -0.09407444 -0.13749796 -0.011653563 -0.14009018
0000b0 35 cf 82 bd f6 d3 20 be bb d1 ed bd 98 56 20 be
       -0.06387178 -0.15705857 -0.116122685 -0.15658033
0000c0 8e f5 af bd 6a 65 6f 3b 44 fa 22 3d 95 4c c9 3c
       -0.08591758 0.0036528953 0.039789453 0.02457265
0000d0 fe 9f d6 bd 3d 7c 86 bd fc 64 0c bd cb c6 58 3c
       -0.10479735 -0.06566665 -0.034275994 0.01323099
0000e0 3e 70 18 be 40 69 05 bd 88 40 c8 bb 9b 37 94 3d
       -0.14886567 -0.032571077 -0.0061112083 0.072371684
0000f0 41 a6 ec bd 76 9c 2a 3c d2 97 be bd 2e a9 c3 3b
       -0.11555148 0.01041328 -0.09306301 0.0059710955
000100 4c 11 3f 3c 3b 36 42 bd 08 1f 99 bd 38 e4 05 bd
       0.011661839 -0.047415 -0.07476622 -0.03268835
000110 1b 2a ed bc 57 02 04 be 7f 05 35 bd 79 ee 7a 3d
       -0.028950742 -0.12891518 -0.044194695 0.06126258
000120 02 8a c2 bd 5d d2 19 bd 32 5b 9a 3d 3e f1 c3 bb
       -0.09498979 -0.037554134 0.075369254 -0.005979686
000130 3d 20 09 3d 1a 4c 19 be 88 40 d2 bd 16 df ff bc
       0.03347801 -0.14970437 -0.102662146 -0.031234305
000140 18 cc f0 3c 44 60 17 be d2 38 01 3d 18 ff cc 3b
       0.029394194 -0.14782816 0.03154833 0.0062559955
000150 fe 39 83 bd 38 e2 24 3d eb 84 9b 3d 40 b0 20 be
       -0.064075455 0.0402548 0.075937115 -0.15692234
000160 82 e5 68 3d 58 21 84 3c 88 e2 a7 3c d6 8f cd bd
       0.0568595 0.01612918 0.02049376 -0.100372
000170 4a 28 a5 bc 22 ac 5c 3b 0b 72 61 bd e0 ac 07 be
       -0.020160813 0.0033671935 -0.0550404 -0.1324954
000180 53 55 6a 3c 63 aa c1 bb 0f 83 05 be 81 3a f3 3c
       0.014302569 -0.0059102043 -0.13038276 0.029690983
000190 3a a4 04 be 68 38 da bd e3 16 9f bc 1d 67 99 bd
       -0.12953272 -0.1065529 -0.019420093 -0.074903704
0001a0 80 7b 8e bd 7f 1f e5 bd 96 05 8b bd f9 c7 a5 3d
       -0.069571495 -0.11187648 -0.06788175 0.080947824
0001b0 0c 86 9e bd da d9 c4 3c 38 bb fe bd a7 d2 a6 bd
       -0.07740411 0.024029661 -0.12438053 -0.081456475
0001c0 60 f4 95 3d f5 9e 44 bc 21 8f 11 3d e0 e9 93 b8
       0.073220015 -0.012000789 0.03553689 -7.053069e-05
0001d0 43 2a dc bd 20 0a 03 bc 1c dd 26 3d 84 9b 9c 3d
       -0.10750248 -0.007998019 0.04073821 0.0764685
0001e0 50 cf e2 bd f1 cd 72 bd 67 03 b0 bd 1f 12 3e bb
       -0.11074698 -0.059278432 -0.08594399 -0.00290025
0001f0 c0 5a 94 3c ca bb 18 be 95 0d d8 bb 8c 4a 97 bd
       0.01810968 -0.14915386 -0.006593416 -0.073872656
000200 f3 f0 cb bd 18 79 ea bd f0 c2 73 3d 2b 99 2a bc
       -0.09958067 -0.11448878 0.05951208 -0.010412495
000210 02 a5 fa bd 49 53 fb bd 87 c1 d1 bc 1b 43 e4 bc
       -0.12238504 -0.12271745 -0.025604976 -0.02786403
000220 97 4d 51 bd c8 a7 0e 3d f6 13 8f 3d e0 12 9d 3c
       -0.051099386 0.034827977 0.06986229 0.01917404
000230 0d 86 c7 bc be 8b f8 3c 34 03 09 be 87 6e 84 bd
       -0.024355913 0.030340072 -0.13380128 -0.06466394
000240 b0 6b e7 3c 7a 1e 14 be b7 29 e6 bd 18 4d 18 bd
       0.028249592 -0.14464751 -0.11238425 -0.037182897
000250 81 fe f1 3c 48 07 39 bd 54 a8 f9 bd cc 12 23 bb
       0.029540302 -0.04517296 -0.12190309 -0.002488303
000260 41 a0 8e bd 4c a2 ab bc b4 a5 9d bd 83 14 dc bd
       -0.0696416 -0.020951413 -0.07697621 -0.107461
000270 72 1a ea bc 96 4c 40 bd fb c8 13 bd 4a 7c f4 3c
       -0.028577063 -0.046948038 -0.03608034 0.029844422
000280 ba 3c 02 be 72 49 21 bb 4e ac 28 3d 60 6e 9c ba
       -0.12718478 -0.0024610427 0.041179948 -0.001193475
000290 64 6f 46 bd 83 a8 ab bd 18 5d a8 3c bf 4a 03 be
       -0.048446074 -0.083817504 0.020552203 -0.12821482
0002a0 d9 fb 87 bd c0 bc 56 38 5d 34 d3 bd da 9e c2 bd
       -0.06639833 5.1197363e-05 -0.10312722 -0.09502955
0002b0 22 46 8a 3d 78 a8 67 bc d2 80 38 3d 63 85 17 be
       0.06751658 -0.014139287 0.045044728 -0.14796977
0002c0 e8 9f 9c bd 3a f1 a4 3d 3b 50 ad 3d 9c fd eb 3a
       -0.07647687 0.08053823 0.08462568 0.0018004659
0002d0 bc d3 82 bd b2 94 e0 bd 94 38 1b be 7c eb 9c 3d
       -0.063880414 -0.109658614 -0.15158302 0.076621026
0002e0 5c 15 fe bd b6 91 e6 3c 38 8e c7 3c fe 73 b5 3c
       -0.12406418 0.028145652 0.024359807 0.022150036
0002f0 e9 43 f8 bd 02 d3 e9 bd 92 ea ba bd 0d bb 1f be
       -0.12122328 -0.114172 -0.09126772 -0.15598698
000300 1e 04 ad 3d 2e cd fe bc 57 ba 30 3d 45 d8 d7 bc
       0.08448051 -0.031103697 0.043146458 -0.026348243
000310 5f 9c 70 3d a0 1f 38 3d 8f 59 3e bd 73 09 da 3b
       0.058742877 0.044952035 -0.04647213 0.0066539585
000320 22 22 77 3d 4c 47 a1 bc 7b 64 d2 bc b2 f8 9b bd
       0.060335286 -0.019687317 -0.025682678 -0.07615794
000330 e2 19 ab 3d e8 db df 3d ed 1f 24 bd 80 f1 6c b8
       0.08354546 0.10930616 -0.04006951 -5.64917e-05
000340 cd 5f d2 3d 75 2b a9 bd 73 44 3b 3d 14 5b 03 3e
       0.10272179 -0.08260242 0.045719575 0.12827712
000350 9e 33 66 3c 95 6b 0f 3e d7 e2 04 3e 3a 52 d0 3c
       0.014050392 0.14005883 0.12977158 0.025429834
000360 f9 3c 89 3c ea 8f 10 3e 69 9c e3 3d 6f 7d cb bc
       0.016752707 0.14117399 0.11113817 -0.024840085
000370 95 43 94 3d 41 50 fd 3c 31 3f e9 bd c9 5f f7 3d
       0.07239453 0.030922057 -0.11389006 0.120788164
000380 f4 b7 0e bd 08 d3 b1 bd a3 49 d7 bc 34 fa 00 be
       -0.0348434 -0.08682829 -0.02628023 -0.12595445
000390 a8 c0 eb bd bc f3 72 bb 22 d0 8c 3d 07 81 51 3d
       -0.11511356 -0.0037071547 0.06875636 0.05114844
0003a0 9b 8e 7f 3d ed bf 92 3d e8 a3 a9 bd f1 13 55 3d
       0.06239186 0.07165513 -0.08283216 0.05202097
0003b0 e5 97 b4 bd 8d 18 9c bd 30 68 f4 3d a0 cb 15 3e
       -0.08818034 -0.0762187 0.11933935 0.14628458
0003c0 96 8e 39 bd e5 e7 dc bc ae c7 33 bd 74 30 c6 bc
       -0.045301996 -0.026966045 -0.0438916 -0.024193026
0003d0 d7 ea 31 3d 5b 4d bc 3d 0e 90 06 3d 5e 6d 64 bd
       0.04343685 0.09194442 0.032852225 -0.055768363
0003e0 48 f1 0a bd 27 51 91 3d 14 4a ef bd f0 55 e7 3d
       -0.03392151 0.07095557 -0.11684051 0.11295688
0003f0 dd 2a c8 3d cd 82 d8 bd 05 c4 e8 3c d0 37 2a 3c
       0.097738005 -0.10571823 0.028413782 0.010389283

bias f4 [200]
000000 5a 30 55 3d c7 77 13 bd 0b eb 14 3d 82 d5 ed bb
       0.052048065 -0.0360029 0.036356967 -0.007258118
000010 ae 03 90 bc 2b 67 11 bd 16 62 8f 3c 38 45 01 3b
       -0.01757988 -0.03549878 0.017502826 0.0019725095
000020 05 23 06 bd b0 5f 8a bc 9e cb 0c 3c c3 f2 f6 bb
       -0.03274824 -0.01689133 0.008593468 -0.0075362637
000030 ad b8 0a bd 6e 66 11 bd d5 56 3d bd 8a 79 e6 bc
       -0.033867527 -0.035498075 -0.046225388 -0.028134126
000040 03 d6 5b bc a3 16 66 3b e1 b1 d7 3c bc c6 10 bd
       -0.013417724 0.0035108707 0.026329936 -0.035345778
000050 e3 ad 16 bd a5 ce 0b bd 01 12 0d bd 38 55 b3 bc
       -0.036786925 -0.03413262 -0.034440998 -0.021891221
000060 56 1c 0b bd 5b 88 11 bd 37 67 11 bd 5e c4 a4 3c
       -0.03396257 -0.03553043 -0.035498824 0.020113166
000070 61 54 43 bd 3c dc e9 bb 7b 26 9f 3c 9b 08 d6 bc
       -0.047687892 -0.0071368497 0.019427529 -0.02612715
000080 c4 33 94 3b da 82 76 bc 1c 21 16 bd 6e ce 98 bc
       0.0045227725 -0.015045846 -0.03665267 -0.01865312
000090 3b 2e 81 3b a6 2e 49 3c 68 a3 5e 3c c1 c7 d5 3c
       0.0039422787 0.012279188 0.013588764 0.026096227
0000a0 40 e4 43 38 cc 3d 41 bd 4d 67 11 bd ef 26 96 3c
       4.6704197e-05 -0.047178075 -0.035498906 0.018329112
0000b0 29 41 8c ba a2 44 3e bc 80 76 03 bd a9 df 93 bc
       -0.0010700572 -0.011613043 -0.032095432 -0.018050985
0000c0 28 8a 01 bd 47 06 29 bd ac 98 57 3c 53 53 11 bd
       -0.031625897 -0.041265752 0.013158958 -0.035479855
0000d0 28 7b 10 bd a8 7d 44 bd 17 d7 12 bd d8 4e a6 3c
       -0.0352737 -0.047971398 -0.035849657 0.020301268
0000e0 f0 5a 11 bd 21 63 65 3d ff 78 27 3d 41 51 08 3d
       -0.035487115 0.05600274 0.040886875 0.033280615
0000f0 74 b3 95 3a 11 e9 7d 3c 9a ad 6b bc dd 72 01 bc
       0.0011421279 0.015497462 -0.014384652 -0.007900921
000100 2e 0d 77 3c 62 45 13 bd 5d 68 2a bd 15 a3 dd bc
       0.015078826 -0.03595484 -0.041603435 -0.027055303
000110 f5 06 0a 3c 8c f9 51 3c c9 3b 45 bc 67 d2 86 bc
       0.00842451 0.012815844 -0.01203818 -0.01645775
000120 ff 58 45 3d a8 64 0d 3d 24 55 11 bd 90 64 11 bd
       0.048180576 0.03451982 -0.035481587 -0.035496294
000130 59 4a 16 bd 10 e8 10 bd ef 64 11 bd 63 67 11 bd
       -0.036691997 -0.035377562 -0.03549665 -0.035498988
000140 a8 ad 08 bd fc ac 20 bd 60 fe c9 b9 74 28 b4 bc
       -0.033368737 -0.03922747 -0.00038527232 -0.021991946
000150 fc 05 8f bc cd 65 11 bd 4c 8f 3c 3c 20 77 ec 38
       -0.017458908 -0.035497475 0.011508774 0.00011275546
000160 fa 49 c8 3a 6f 9c d9 3c fc 66 11 bd 46 b8 fa bc
       0.0015280836 0.026563851 -0.035498604 -0.030605447
000170 4e 67 11 bd ee 37 c1 3c 57 a6 35 bd 19 66 11 bd
       -0.03549891 0.02358624 -0.044348087 -0.03549776
000180 d2 18 0b bd 87 2e 18 bd 7d 15 09 bb be 31 11 bd
       -0.033959217 -0.037153747 -0.002091735 -0.03544783
000190 c2 2d 44 bd da 10 45 bc 47 09 24 bd 63 67 11 bd
       -0.0478952 -0.0120279435 -0.04004791 -0.035498988
0001a0 d9 03 8a bc 7f 69 c7 3c 82 66 11 bd fc 43 11 bd
       -0.016847538 0.024342297 -0.03549815 -0.035465226
0001b0 ac 06 ef bb ea f7 a7 3b 14 ab c7 3c 62 67 11 bd
       -0.0072944965 0.005125989 0.024373569 -0.035498984
0001c0 20 f4 fc bc c5 71 bb bb ab 15 96 bc 0d 20 fd bc
       -0.030878127 -0.0057203495 -0.018320879 -0.030899072
0001d0 b0 e5 50 3d 2b 36 02 bd 99 0c cc bc d2 93 a6 3c
       0.051000297 -0.03178994 -0.02490835 0.020334158
0001e0 4a 83 95 3c 33 5d cf 3c e3 57 93 bc 10 81 b0 3c
       0.01825108 0.025312996 -0.017986244 0.021545917
0001f0 42 f3 9a bc 28 80 11 bd c0 08 11 bd 56 f4 10 bd
       -0.018914822 -0.03552261 -0.035408735 -0.035389267
000200 93 67 11 bd 44 0f 13 3d 38 13 99 3b 32 22 33 bc
       -0.035499167 0.03590323 0.0046714805 -0.010933446
000210 d9 07 26 3d 4d 72 0c bd 45 72 e2 bc dd 5d 0b bd
       0.040534828 -0.034288693 -0.027642379 -0.034025062
000220 e4 54 23 bd 7c d1 8a bc 10 ca 98 3a 3c 05 eb bc
       -0.03987588 -0.016945593 0.0011656899 -0.02868902
000230 76 44 b8 bc fc 4f 8d bc fd 63 8a 3c 46 56 11 bd
       -0.022493582 -0.017250054 0.016893381 -0.035482667
000240 52 66 f2 3b 9b ae 91 bc 7c a1 da 3b 09 63 87 bc
       0.0073974514 -0.017783454 0.0066720825 -0.016526716
000250 2e 7b 3e bd 16 67 11 bd 79 66 bc ba b4 66 11 bd
       -0.046504192 -0.0354987 -0.0014373801 -0.035498336
000260 52 67 11 bd ba ec 40 bc eb d0 87 bc 4c 8d 43 3c
       -0.035498925 -0.01177519 -0.016579112 0.011935543
000270 3b b9 90 3c 75 d7 1c bc c8 fa 10 bd 70 e9 ef bc
       0.01766645 -0.009572853 -0.035395414 -0.029286116
000280 9d 3c 2f bd 3d 4c 97 bc cf 00 1e 3d 27 24 dd bc
       -0.042782415 -0.01846897 0.03857499 -0.026994778
000290 04 b0 5d bc ac 01 82 bc 5a 6b fb bb fc 1f fb bc
       -0.013530735 -0.015869938 -0.0076727094 -0.0306549
0002a0 98 30 4e bd 5d 2b 0e bd d7 ae 4c 3d 6c 0f 2e bc
       -0.05033931 -0.034709323 0.049971428 -0.010623794
0002b0 26 6c 11 bd 79 e9 99 bc a1 68 3c bd 18 0a 11 bd
       -0.03550353 -0.018788086 -0.04599822 -0.035410017
0002c0 0c 19 17 3d ca 45 88 bc 53 57 e2 ba c3 c1 47 3c
       0.03688912 -0.01663484 -0.0017268456 0.0121921925
0002d0 ba 6a 5f 3d 54 67 11 bd 6c 3c 38 3d 96 db ae 3c
       0.05454514 -0.035498932 0.044979498 0.021344941
0002e0 84 fa 02 bc 25 32 b9 bc 7c c1 de 3c 47 67 11 bd
       -0.007994298 -0.022606919 0.02719187 -0.035498884
0002f0 13 53 06 bc 90 7f 74 3c 8e 75 42 3c d7 68 11 bd
       -0.008198517 0.014922991 0.0118688475 -0.035500374
000300 8e 92 1d bd f4 ba 66 ba 3b 67 11 bd 65 f9 ed bc
       -0.038469844 -0.0008801662 -0.03549884 -0.029049585
000310 49 67 11 bd 6b ff ab bc 9b a2 7e 3a 29 af a8 bc
       -0.03549889 -0.020995816 0.0009713561 -0.020591335

weight f4 [200, 200]
000000 8b 7e 24 bb f6 a5 fa 3d f8 82 45 bd 26 d3 d2 3d
       -0.002509984 0.12238686 -0.048220605 0.102941796
000010 39 c8 67 3d 2e 3d 28 bd b6 2d 5f bd eb ea b0 3d
       0.05658743 -0.04107397 -0.054486953 0.08638557
000020 c6 71 72 bd 4a c5 8b 3d c3 d0 78 3d b2 7c 4e bd
       -0.059190534 0.06824739 0.060745966 -0.050411887
000030 32 6f 47 bb 1b b2 5f 3d 34 3c 19 bd 24 0a fa 3c
       -0.0030431268 0.054613214 -0.03741093 0.030522414
000040 2a 24 8b 3d 5b 78 11 bd ad af 13 bd c6 72 23 3d
       0.06794007 -0.03551517 -0.03605621 0.03990438
000050 cf d9 a7 bd 2b 8e 06 bd f0 5f 8e 3d f5 15 03 3e
       -0.081958406 -0.032850426 0.069518924 0.12801345
000060 b0 ce a5 3d 84 e3 26 3d 4f 5f 38 3c 71 f2 bc bc
       0.08096063 0.04074432 0.011253192 -0.023064824
000070 48 b9 94 3d f4 4b 3d bd c2 ed 65 bd 50 55 12 3e
       0.07261902 -0.046215013 -0.056134947 0.14290357
000080 59 0a 8f bd 42 40 02 bc bb f3 2f bd 71 6e ae 3d
       -0.069843955 -0.007949891 -0.04295705 0.08517159
000090 3a 8c 1a 3c 5f 83 a8 bd a1 b0 c2 bd c8 70 40 3c
       0.009432847 -0.08228182 -0.095063455 0.011745639
0000a0 1f c6 15 3e f0 8b b1 3d fb c1 b6 bd 1b 13 c3 bd
       0.14626358 0.08669269 -0.089237176 -0.095251285
0000b0 84 c1 73 bd 44 1f 75 bd 4b 9d 60 bd f0 2c b8 3c
       -0.059510723 -0.05984427 -0.054837506 0.022482365
0000c0 2d d9 d6 3d 0d 7d eb 3d c4 06 c6 bc 12 60 b7 3d
       0.10490642 0.11498461 -0.024173148 0.08953871
0000d0 a4 32 88 bb 4a d0 4a bd 7e f3 28 bd ae 6c 4f bd
       -0.0041564275 -0.049515046 -0.041247837 -0.050640754
0000e0 12 76 91 3d ce 6c 9f 3d 7a 99 8f bd d2 dc b4 bb
       0.07102598 0.07784425 -0.07011695 -0.005519488
0000f0 03 ef ef bd b5 21 b9 3d 22 4f b9 3c 2f 9f ba 3d
       -0.1171551 0.09039632 0.022620741 0.09112393
000100 bc cf 9f 3d 7a 7f da bd 12 7d b4 bd 91 47 b3 bc
       0.07803294 -0.106688455 -0.08812918 -0.021884711
000110 d8 95 57 3d a2 95 fc 3d f5 ac d4 3b 7a 45 af 3b
       0.052633137 0.12333228 0.0064903446 0.0053488584
000120 fb 4a ee 3d ee 51 2b 3d 65 77 50 bd 0e 9d e8 bc
       0.11635395 0.04182618 -0.050895113 -0.028395202
000130 50 56 a5 bb fc b5 ac bd 0c fe a9 3d a4 a9 df ba
       -0.0050456896 -0.08433148 0.08300409 -0.0017064107
000140 65 56 8a 3d b2 aa ba bd b7 54 92 3d 2a ac fc bc
       0.0675476 -0.09114589 0.07145064 -0.030843813
000150 08 ef 20 bd f8 df 99 3d 57 e4 75 3d c9 2c 92 bd
       -0.039290458 0.07513422 0.060032215 -0.07137448
000160 d4 cd f8 3c c4 96 78 3d 19 74 88 3d 48 34 03 bc
       0.030371584 0.060690656 0.06662769 -0.00800807
000170 7b ac 87 3b b5 b4 70 bd d9 3c 15 3c f7 22 c7 bd
       0.0041404343 -0.058766086 0.0091087455 -0.09723466
000180 ad df 1c bd d7 fe 06 3e 81 c7 0d 3e 04 88 59 3d
       -0.03829925 0.13183151 0.13845636 0.05310823
000190 ec b0 b2 3d 93 e8 b9 bd 8c dd 8a 3d 71 34 b6 bd
       0.087251514 -0.09077563 0.06780538 -0.08896721
0001a0 fa dd c9 bc 49 a8 cf bc 54 bf cf 3d e9 bb 83 3d
       -0.02464198 -0.0253488 0.10143915 0.064323254
0001b0 f9 30 0c 3e d4 36 b2 3c 05 06 ee bc 25 2b 8c bd
       0.13690557 0.02175466 -0.029055605 -0.06844167
0001c0 85 a7 1a 3e dd ee 64 bd 5e 59 27 3d bb 66 81 3d
       0.15102966 -0.05589186 0.04085671 0.063184224
0001d0 60 dc 40 bd 74 b3 ce bc 38 69 20 3d 95 fe d5 bd
       -0.047085166 -0.025232054 0.039162844 -0.10448948
0001e0 f7 c1 90 bd 96 a2 ad bd 42 0f 66 bd 10 e2 08 bd
       -0.07068246 -0.084782764 -0.056166895 -0.033418715
0001f0 37 fe d1 bb 1a 49 bc bb 27 99 ee 3d 04 24 93 bd
       -0.0064084786 -0.005746019 0.11650305 -0.07184604
000200 61 01 94 3d 07 65 c1 3d 92 3b 6f bd 00 ec b1 b8
       0.072268255 0.094430976 -0.05840642 -8.483976e-05
000210 63 a4 40 3d 54 e0 c6 ba c0 d5 27 3c ad 54 d2 3d
       0.04703177 -0.0015173056 0.010243833 0.10270057
000220 49 8d 25 3d d0 9c b7 bd 37 79 55 3b 18 4a a4 3d
       0.040417943 -0.089654565 0.003257347 0.08021945
000230 ee 3b ec 3d cc 96 4c 3d 6e 2f 68 bb 78 4d 2f 3c
       0.11534868 0.0499485 -0.003542866 0.010699622
000240 61 6d 29 3d 43 7a eb 3d cd 5d dc 3d 81 d6 19 bd
       0.041364077 0.11497929 0.107600786 -0.037558082
000250 21 c9 ef 3d 2f 64 ee 3d b9 39 91 bd 29 ce d6 3d
       0.11708284 0.11640202 -0.07091088 0.10488541
000260 ab 19 25 bd 47 03 a9 3d 59 f1 5c bd 24 08 e9 3d
       -0.040307682 0.08252578 -0.053941105 0.11378506
000270 5a 91 f5 bc d1 d3 9b 3d 1a dc 64 3d 01 78 9a bd
       -0.029976536 0.0760876 0.055873968 -0.0754242
000280 10 eb 06 3e 0a 41 47 3b 05 0e f5 3d a0 44 9e bd
       0.13175607 0.0030403757 0.11965565 -0.07727933
000290 7a eb 44 bc c5 e6 47 bd 05 b4 90 bc 3d 6e 71 3d
       -0.012019033 -0.048804063 -0.017663965 0.058943022
0002a0 7c df 4b 3d cf d1 be bd 43 ab 13 3d a9 fe f5 3d
       0.04977368 -0.093173616 0.036052 0.12011463
0002b0 c1 6d 0c bc 19 56 a6 3d 6b 2b 0e bc 12 a5 1e 3d
       -0.008571089 0.081218906 -0.008677344 0.038731642
0002c0 64 a8 f0 3a 31 61 99 bd 64 43 12 bc 10 1f 4e ba
       0.0018360731 -0.07489241 -0.0089272 -0.0007862905
0002d0 1a 08 ee bd 5a 93 cc bc 76 69 01 bd d6 51 d0 bd
       -0.11622639 -0.024972606 -0.031594716 -0.10171859
0002e0 d1 65 63 3d 60 17 c4 3a 10 fe b0 3d ff a6 bd 3d
       0.05551702 0.001496058 0.086422086 0.092603676
0002f0 5c 23 f7 bd ff 0c b6 3d 62 6b 86 bd c7 7d 23 3d
       -0.12067291 0.088891976 -0.065634504 0.039914872
000300 a3 72 67 bd 02 7f ee 3d dc c5 7e 3d cd 5a 5b 3b
       -0.05650581 0.116453186 0.062200412 0.003347087
000310 9c dc 03 3e 1e dd a1 bd d1 62 9b bd 42 ab 88 bd
       0.12877125 -0.07903503 -0.07587207 -0.0667329
000320 88 29 56 3d cf b9 64 bd 6d 3b e8 bd f5 5a bb bd
       0.0522857 -0.055841263 -0.113394596 -0.09148208
000330 f8 a8 c1 3c d0 93 08 3d b9 b4 a2 3d e7 ed 5b 3c
       0.02364014 0.03334409 0.07944626 0.01342342
000340 e1 c8 25 3b 33 58 98 bd b5 d1 a8 3d 41 12 b4 bd
       0.0025296735 -0.07438698 0.082431234 -0.08792544
000350 73 0f 5a 3d db a0 0c 3d 35 5c c0 bd 8f b0 06 be
       0.05323739 0.03433309 -0.09392587 -0.1315329
000360 ec 84 7e bd 95 47 c0 3c 18 f0 38 3c 17 c4 13 be
       -0.062138483 0.023471633 0.011287712 -0.14430271
000370 c8 8f b6 bd b2 59 11 be f6 e3 40 3d 9d c0 1b be
       -0.08914143 -0.14194372 0.0470924 -0.15210195
000380 7f e1 0b be d5 26 49 bb ce 77 2b 3d e9 4f a5 bd
       -0.13660239 -0.0030693312 0.0418623 -0.08071882
000390 76 45 d1 3c a8 22 65 3d a7 a6 e9 bd 51 0d ed bd
       0.025545817 0.055941254 -0.114087395 -0.115748055
0003a0 69 b3 7d bc 8e 19 dc 3c 88 e2 2e 3c ed fd ba 3d
       -0.015484669 0.026867654 0.010674126 0.09130464
0003b0 0e 7a 31 3d 16 5c 96 3b ff 4c 9a 3d b9 41 03 be
       0.04332929 0.004588614 0.07534217 -0.1281804
0003c0 af 63 6c 3b e4 83 8f 3d f0 51 7a bd 09 28 91 bb
       0.0036070158 0.07007578 -0.061113298 -0.0044298214
0003d0 04 79 b4 bd b0 4e 62 3d b3 6a 8c 3d 24 dd 30 3d
       -0.088121444 0.055250823 0.06856289 0.043179646
0003e0 d6 f4 fa bd ff 94 05 3d b5 c1 96 3b 24 ec 91 bd
       -0.1225373 0.032612797 0.0046007284 -0.071251184
0003f0 9d d8 74 bd 16 1e 45 3d 42 eb 0e be 7e 29 04 be
       -0.05977689 0.048124395 -0.13956931 -0.12906453

bias f4 [200]
000000 fb e0 0e bd 0c ba bd bc 3e cf 05 bd 56 99 03 3d
       -0.034882527 -0.023160003 -0.032668345 0.032128654
000010 7c e7 0f bd 1a 96 11 3d 92 75 e2 bc 1e 56 df bc
       -0.03513287 0.03554354 -0.027643953 -0.027262744
000020 20 40 9d bc 63 f5 65 3d 1f 2f 0c bd e2 6b f0 bc
       -0.019195616 0.056142222 -0.034224626 -0.029348318
000030 2a db 8a bc 11 41 ef 3b ba 51 9d 3c c0 b6 53 bc
       -0.016950209 0.0073014577 0.01920401 -0.012921989
000040 94 0b 65 bc df db a6 bc 78 39 b8 3b f6 c8 2e 3d
       -0.013979811 -0.020368515 0.005622085 0.04267212
000050 87 87 11 bd b7 b6 66 3b 2c 4d db bc 4c 7e a1 3c
       -0.03552964 0.0035204121 -0.026770197 0.019713543
000060 de ee ef 3c 0a e1 07 bd 93 ae fb 3c 30 95 5c 39
       0.029288705 -0.0331736 0.030722892 0.00021036412
000070 4c d7 03 bd 3b c1 00 3c d4 76 1e bd 0e a4 08 bc
       -0.032187745 0.00785857 -0.038687542 -0.008339895
000080 55 14 29 bd 64 de ee bc f3 e5 c7 3a 5e 18 ec bb
       -0.041279156 -0.029158778 0.0015251025 -0.007205053
000090 07 1a b4 3c 2e fd cf bc a7 40 94 3c 40 67 11 bd
       0.021985067 -0.02538928 0.018097235 -0.035498857
0000a0 1f 61 74 bc f6 69 af bc e9 8c 0f bd e5 94 07 bd
       -0.014915734 -0.02141283 -0.03504649 -0.03310098
0000b0 c3 e2 47 3c b3 b1 1c bc ce 42 fb bb bd 26 16 bd
       0.01220006 -0.009563851 -0.007667876 -0.036658037
0000c0 31 02 f0 3c 90 d7 d6 3a 2c 9e 24 bb 5b 67 11 bd
       0.02929792 0.0016391147 -0.0025118692 -0.035498958
0000d0 71 6c 16 bd 4c c9 0e bd d7 cb 0f bd cd 33 85 3c
       -0.03672451 -0.03485994 -0.035106506 0.016260052
0000e0 90 27 23 3d 2a 8d 0c bd 98 a9 72 3d 5c 67 11 bd
       0.03983265 -0.034314312 0.05924377 -0.03549896
0000f0 14 af 00 bd a9 62 11 bd d2 c8 76 bc 58 52 0d bd
       -0.031416968 -0.03549448 -0.015062528 -0.034502357
000100 26 2f 69 bb cd 24 87 3c d4 67 19 3c 2b df f1 bc
       -0.0035581081 0.01649704 0.009363133 -0.02952536
000110 2f f8 5a bc fb 71 0b bd 00 64 11 bd 5e 67 11 bd
       -0.013364836 -0.034044247 -0.035495758 -0.03549897
000120 4f d0 47 3c 49 d1 d2 3c d7 9d e7 bc 56 3f ae 3b
       0.012195661 0.02573456 -0.028273506 0.005317609
000130 15 05 5e 3b fe e5 de bc 0f 69 3a bd 03 e0 26 bd
       0.003387754 -0.027209278 -0.045510348 -0.040740978
000140 5a a4 d5 bc f9 9d 75 bc 80 c6 d3 39 08 ef f7 3c
       -0.026079345 -0.014991277 0.0004039295 0.030265346
000150 cd 2a a6 bc 1f 60 e0 bc 56 40 ac bc 5c fe a3 bc
       -0.02028408 -0.027389584 -0.021026772 -0.020018749
000160 e3 44 8a bc b7 5d c1 3c c7 81 fc 3c 67 5a 1a bd
       -0.01687855 0.023604257 0.030823601 -0.03768387
000170 70 9f cf bc 0f 67 d1 3c dc e5 f6 bc aa c6 12 bd
       -0.02534458 0.025561837 -0.030138902 -0.035833992
000180 d4 7b 57 bd 56 43 e2 bc f6 47 12 bd 69 96 a2 3c
       -0.052608326 -0.027619999 -0.03571316 0.019847112
000190 f0 df 81 bc 79 8c 8f 3c 0f ca 10 bd 4f a3 82 bc
       -0.015853852 0.017523037 -0.035348948 -0.015947012
0001a0 50 8a e9 b9 96 fc b7 3c 7a 9a 86 bc 13 3c 11 bd
       -0.00044544274 0.02245931 -0.016431082 -0.035457682
0001b0 53 62 cb bc c8 cd 0f bd 63 67 11 bd ad 43 07 3d
       -0.024827158 -0.035108358 -0.035498988 0.033023525
0001c0 dd f5 43 bb f7 c2 4e bc 6a e8 ed 3b aa 9c b6 bc
       -0.0029901185 -0.012619725 0.007260372 -0.0222915
0001d0 b6 e9 0d 3c 02 13 7a bd de 35 11 bd 74 02 11 bc
       0.008661678 -0.061053284 -0.035451762 -0.0088506825
0001e0 79 ce 1a bd 24 cb 10 bd 0d 84 0a bd 68 d7 10 bd
       -0.037794564 -0.03534998 -0.03381734 -0.035361677
0001f0 10 39 3f bd 08 4f 9b 39 7e 2d 1e bc 53 af ac bc
       -0.04668528 0.00029622787 -0.009654401 -0.021079695
000200 14 af d4 bc a6 35 e9 bc 40 3a 92 3c a1 de 0c 3d
       -0.02596239 -0.028467964 0.017850041 0.034392003
000210 36 d4 26 bc ea 74 8b 3c a6 5f b5 bc d6 7a 03 bd
       -0.010182431 0.017023522 -0.022140335 -0.032099567
000220 02 21 c0 3c b9 4b 7f 3b ec 01 98 bc d5 57 11 bd
       0.02345324 0.0038955046 -0.018555604 -0.035484154
000230 f8 3b 8e bc 78 3e af b9 d1 f3 08 bd 68 e6 ca 3c
       -0.01736258 -0.00033425144 -0.033435646 0.02476807
000240 31 86 3c bc 09 6a 60 3c 99 5c f2 bb 13 e1 fb bc
       -0.011506603 0.013697156 -0.0073962924 -0.030746972
000250 84 e2 0b bd 07 ed d1 bb 5b 1d 31 bb 31 db 12 bd
       -0.03415157 -0.0064064297 -0.0027025554 -0.03585357
000260 39 7b 0e 3d 0e a6 0c bd a6 45 85 bc f4 56 11 bd
       0.034785483 -0.03433805 -0.016268563 -0.035483316
000270 c3 db 0d 3c 59 67 11 bd 7e 79 74 3d 6a b7 8a bc
       0.008658352 -0.03549895 0.059686176 -0.016933162
000280 c4 ae 71 bc c7 4d 84 3c a8 cd a7 39 9b 1f f1 bb
       -0.01475114 0.016150368 0.00032005948 -0.007358504
000290 a6 a6 dd 3b 53 5d 35 bd 11 65 11 bd 94 15 0d bd
       0.006764251 -0.044278454 -0.035496775 -0.034444407
0002a0 5d 41 11 bd e5 42 19 bd 8a 9e e7 3a a9 5a 10 bc
       -0.035462726 -0.03741731 0.001767115 -0.008810678
0002b0 24 40 19 3d 73 0a e3 ba 62 67 11 bd e6 1f 0e bd
       0.037414685 -0.001732184 -0.035498984 -0.03469839
0002c0 2e c1 c8 3c 54 4e 1f bd 49 0e 16 bd 58 6b 11 bd
       0.024506178 -0.03889306 -0.036634717 -0.03550276
0002d0 a6 e5 32 3a ae 2c 27 bd 20 6e 35 b9 3b bc fd bc
       0.00068243814 -0.040814094 -0.0001730253 -0.030973544
0002e0 72 a7 01 3d 5c 67 11 bd e0 f1 2d 3c 08 86 5c 3d
       0.03165383 -0.03549896 0.0106167495 0.05383876
0002f0 de 1f 15 bd b8 0a c1 3b 36 5b 58 3d 20 5e ef bc
       -0.036407344 0.0058911704 0.05282136 -0.029219687
000300 30 b0 bf 3c a9 c4 a0 3c 6e f8 1b bd a6 64 11 bd
       0.023399442 0.019625025 -0.038078718 -0.035496376
000310 6a 2e 0e bd 5b 9b 24 bd d2 14 d6 bc a7 7b df bc
       -0.034712233 -0.04018722 -0.026132975 -0.027280642
