deep_learning/models/GCNLinkPrediction11.pth (torch, 185248 bytes, 10 tensors)

bias f4 [100]
0	0x3d1dffc4	0.038573995
1	0xbcb3b80b	-0.021938344
2	0x3ce40a6e	0.027837005
3	0x3d3ae3f5	0.045627553
4	0xbcbd769f	-0.023127852
5	0x3c9fdcc5	0.01951445
6	0xbcae1c3e	-0.021253701
7	0xbcda99c6	-0.026684653
8	0x3c8b1256	0.016976517
9	0xbc7e3070	-0.015514478
10	0xbd411b98	-0.047145456
11	0x3c5e1510	0.013554826
12	0xbc6a6b40	-0.014307797
13	0x39c7cc10	0.00038108276
14	0x3c10004b	0.008789132
15	0xbc220dad	-0.009890956
16	0xbb250fc4	-0.00251864
17	0x3d6beb22	0.057597287
18	0xbcd92b16	-0.026509803
19	0x3d0156bb	0.031576853
20	0xbd027b60	-0.03185594
21	0xbd14727d	-0.036241997
22	0xbd0521d4	-0.032502964
23	0x3cf68711	0.030093702
24	0xbc99b5aa	-0.018763382
25	0xbd00e5db	-0.031469207
26	0x3c7e3f1a	0.015517974
27	0x3d54b954	0.051934555
28	0xbc11f7cc	-0.008909177
29	0x3c22bf34	0.009933282
30	0x3cabd4c1	0.020975472
31	0xbb931ebc	-0.004489748
32	0xbc9bf798	-0.01903896
33	0xbceddec6	-0.02903689
34	0xbc2b4131	-0.010452555
35	0xbca91019	-0.020637559
36	0xbd002648	-0.031286508
37	0x3cb15619	0.0216475
38	0x3c223292	0.009899752
39	0xbc1eab50	-0.009684399
40	0x3cffffb1	0.031249853
41	0xbbc7e976	-0.0061008288
42	0x3d186170	0.0372023
43	0xbd36fac0	-0.044672728
44	0x3d436b80	0.047709942
45	0x3d5ca4c1	0.05386806
46	0xbd1b35be	-0.03789305
47	0x3cc8b9ba	0.024502624
48	0x3d53c7f8	0.051704377
49	0xbd335d0f	-0.04378992
50	0x3b1144ed	0.0022166327
51	0x3c086d8f	0.008326902
52	0xbd270655	-0.040777523
53	0xbc7b47df	-0.01533696
54	0xbc260f5c	-0.010135498
55	0x3d40596a	0.046960272
56	0x3d6660c0	0.05624461
57	0x3cf1ffef	0.029540984
58	0x3ce9294f	0.02846208
59	0xbc8f6879	-0.017505871
60	0x3a11ea60	0.00055662356
61	0x3b04709e	0.0020208727
62	0xba6b99c6	-0.00089874526
63	0xbd02696c	-0.03183882
64	0x3d15044d	0.036381055
65	0x3d33910e	0.043839507
66	0xbc00b200	-0.0078549385
67	0x3c4040ea	0.011734227
68	0xbc9e05c3	-0.019289857
69	0x3c858058	0.01629655
70	0xbcd16ea5	-0.025565455
71	0xbbf2dcd4	-0.0074115787
72	0xbcb95dd7	-0.022627754
73	0xbc4f715b	-0.012661303
74	0xbc383aeb	-0.011244516
75	0xbc99be47	-0.01876749
76	0x3d80e22d	0.062931396
77	0xba89f79c	-0.0010526064
78	0x3b4b4f6c	0.003102268
79	0x3d4844c3	0.0488937
80	0xbc15860a	-0.009126196
81	0x3bdd0376	0.0067447973
82	0x3d1e30c4	0.038620725
83	0x3cb65509	0.022257345
84	0xbbb7e644	-0.0056121666
85	0xbc2354a6	-0.009968912
86	0xbc93fd78	-0.0180652
87	0xbd34a8d1	-0.04410631
88	0x3d0eecfd	0.03489398
89	0xbb723792	-0.0036959392
90	0x3bfe3591	0.0077578505
91	0xbd189b90	-0.03725773
92	0x3b52374b	0.0032076414
93	0x3c23d58a	0.009999642
94	0xbc1a7a20	-0.009428531
95	0x3bc3bee4	0.0059736837
96	0xbd020a35	-0.031748015
97	0x3cb44875	0.022007206
98	0x3adc768e	0.001682
99	0x3c4eeef9	0.012630218

weight f4 [100, 18]
0	0x3de15bab	0.110038124
1	0xbc120662	-0.008912655
2	0xbd89c822	-0.067276254
3	0x3b56d316	0.0032779626
4	0x3dc70c5c	0.09719154
5	0x3e0012b2	0.12507132
6	0xbe0d523a	-0.13800898
7	0x3d86929c	0.06570932
8	0x3c5e1d10	0.013556734
9	0xbd5213c1	-0.05128837
10	0xbbf3c4f8	-0.007439252
11	0x3c998619	0.0187407
12	0x3d703c36	0.05865117
13	0xbd9fc45c	-0.078011245
14	0x3caa5129	0.020790653
15	0xbda6ab28	-0.08138114
16	0xbda5ce80	-0.080960274
17	0xbd32b7bf	-0.043632265
18	0x3bc70638	0.0060737394
19	0x3cec6ea3	0.02886135
20	0x3e1f34d5	0.15547498
21	0xbda622de	-0.08112119
22	0x3d06759e	0.032827012
23	0xbe14131d	-0.14460416
24	0xb8a41200	-7.823482e-05
25	0xbdf08356	-0.117438
26	0xbd01f76f	-0.03173011
27	0x3e20e52e	0.15712425
28	0x3c1d29bf	0.009592473
29	0x3d3a219c	0.04544221
30	0xba846d68	-0.0010103406
31	0xbc119044	-0.008884493
32	0xbda9c554	-0.082895905
33	0x3a1c52d8	0.00059632724
34	0xbbcb6c78	-0.006207999
35	0x3ba065e7	0.00489496
36	0xbc0f82b4	-0.008759189
37	0xbca64a10	-0.020298988
38	0xbbf66ee3	-0.007520543
39	0x3ab06598	0.0013458012
40	0x3bb07588	0.0053851046
41	0x3df5196c	0.119677395
42	0xbcdeed9f	-0.027212916
43	0x3de4ad3b	0.111658536
44	0xbdc5184d	-0.09623776
45	0x3d6f0d7a	0.05836246
46	0xbca78024	-0.020446844
47	0xbd46dcdf	-0.048550483
48	0xbc7697d6	-0.015050849
49	0xbdb3c094	-0.08776966
50	0x3c6f1ec6	0.014594739
51	0x3e142489	0.14467062
52	0x3ba94992	0.005166241
53	0x3c5925b3	0.013253617
54	0x3c4e5136	0.012592604
55	0x3c8262b9	0.015916215
56	0xbd9934e7	-0.074807934
57	0xbd44c0e6	-0.048035525
58	0x3c65a83f	0.014017164
59	0xbdb28cc6	-0.08718257
60	0xbb8be8a7	-0.0042696777
61	0x3da29e4a	0.079403475
62	0x3d8fba74	0.07017985
63	0xbd2a0bb6	-0.041515075
64	0xbdc07e83	-0.0939913
65	0x3bc05366	0.005869317
66	0xbe187b4a	-0.14890781
67	0x3dc92a9c	0.0982258
68	0x3de32b7f	0.110922806
69	0x3e152e67	0.14568482
70	0xbc3203e4	-0.010865185
71	0xbb118284	-0.0022203038
72	0xbddac1d2	-0.106814995
73	0xbc52470f	-0.0128343245
74	0x3d8d53fb	0.06900784
75	0xbd26ca69	-0.040720377
76	0xbc649160	-0.013950676
77	0xbcce63d8	-0.025194094
78	0x3a9034a8	0.0011002021
79	0xbc01fd3d	-0.007933912
80	0xbb4113c8	-0.0029461253
81	0x3d0d9ab3	0.03457136
82	0xbe0311ce	-0.1279976
83	0xbe1c6def	-0.15276311
84	0x3e1e468b	0.15456598
85	0xbbe449d7	-0.00696681
86	0x3c474b06	0.012163883
87	0xbe19b68f	-0.15011047
88	0xbde848ac	-0.11341986
89	0x3dd1caef	0.10243785
90	0xbc242685	-0.010018949
91	0xbc76b32d	-0.015057367
92	0xbc941a36	-0.018078905
93	0xbc0a7d32	-0.0084527
94	0x3cf36f0e	0.029716041
95	0xbd07ce46	-0.033155702
96	0x39129840	0.00013980363
97	0x3d945406	0.07242589
98	0x3da84b65	0.08217505
99	0x3c8d926c	0.017281733
100	0x3c887e26	0.016661715
101	0x3b7c875a	0.0038532824
102	0xbd1b4d48	-0.037915498
103	0xbc812ca2	-0.015768353
104	0x3c27698b	0.0102180345
105	0xbd952058	-0.0728156
106	0xbd17f825	-0.037101883
107	0x3e0b42dd	0.13599725
108	0x3d3f05fc	0.046636567
109	0x3cdcec76	0.026968222
110	0xbe05c2da	-0.13062611
111	0xbd964404	-0.07337192
112	0x3b59e034	0.0033245208
113	0xbbd71f46	-0.0065650074
114	0xbc4f59cf	-0.012655689
115	0xbe053df2	-0.13011912
116	0x3de048a2	0.109513536
117	0x3d08a98a	0.03336481
118	0xbc0246e6	-0.007951474
119	0x3c8dc5b8	0.017306194
120	0xbe0ed11f	-0.13946961
121	0xbe078291	-0.13233401
122	0xbcd0a15e	-0.02546757
123	0x3e1aa0bd	0.1510038
124	0x3d5a0fd4	0.05323775
125	0xbad07700	-0.0015904605
126	0x3b283d5e	0.0025671343
127	0xbd490a35	-0.049082
128	0x3c99a4be	0.018755313
129	0x3d85f019	0.065399356
130	0x3b570190	0.0032807328
131	0xbce152c2	-0.027505282
132	0x3e03cf5a	0.12872067
133	0xbd81f141	-0.06344844
134	0xbc3b6b70	-0.011439189
135	0x3e18e95c	0.1493277
136	0xbd10bd4b	-0.035336774
137	0xbdb7139a	-0.089392856
138	0xbb82a98a	-0.003987496
139	0xbcf21c49	-0.029554503
140	0xbe062f8e	-0.13104078
141	0x3d6f3e12	0.058408804
142	0x3dcea05b	0.10089179
143	0xbb9e3058	-0.0048275404
144	0xbdb0c021	-0.08630396
145	0x3abe586c	0.0014522201
146	0xbae9888c	-0.0017817183
147	0xbe144911	-0.14480998
148	0xbe1be4aa	-0.15223947
149	0xbcad263d	-0.021136397
150	0xbc62ee5f	-0.013850777
151	0xbe0f14c9	-0.13972773
152	0x3d5e2c67	0.054241564
153	0x3d4af110	0.0495463
154	0xbb5d2970	-0.0033746623
155	0xbb3bd2ba	-0.0028659538
156	0xbe0587ce	-0.13040087
157	0xbbbda4a3	-0.0057874485
158	0x3db7165b	0.08939811
159	0x3a1e3da8	0.0006036409
160	0xbd96ee93	-0.07369723
161	0x3a047380	0.0005052611
162	0x3c7f2389	0.015572437
163	0xbe0571ec	-0.13031739
164	0xbbaf215c	-0.005344553
165	0xba4e8a30	-0.0007878868
166	0x3c103399	0.008801364
167	0x3dd34584	0.103159934
168	0xbe000882	-0.12503245
169	0x3dd39149	0.10330445
170	0x3d96d2ae	0.07364403
171	0x3d843b41	0.06456614
172	0xbc43378d	-0.0119151
173	0xbb6a6194	-0.0035763728
174	0x3c5a1d58	0.01331266
175	0x3da1544f	0.07877409
176	0xbe1d0256	-0.15332922
177	0x3cdca474	0.026933886
178	0xbd2e6270	-0.042574346
179	0x3b034b90	0.0020034052
180	0xbc1461ee	-0.009056551
181	0xbd6ace21	-0.057325486
182	0xbc145a86	-0.009054786
183	0x3d6f14a8	0.05836931
184	0xbdc3166e	-0.095257625
185	0x3c0cca46	0.008593148
186	0x3e16843b	0.1469888
187	0xbd40e17b	-0.047090035
188	0xbddc47dc	-0.107558936
189	0x3dcf8f8e	0.10134803
190	0x3c83f21e	0.016106661
191	0x3e1ab8c9	0.15109552
192	0xbe036191	-0.12830187
193	0x3dffb1da	0.12485094
194	0xbce9386b	-0.028469285
195	0x3d84fff2	0.0649413
196	0xbd58c2fb	-0.052920323
197	0x3b105b4b	0.002202707
198	0xbe1b7ede	-0.15185115
199	0xbc46cb42	-0.012133421
200	0x3d7898ee	0.06069272
201	0x3e181899	0.14853133
202	0x3e0e6733	0.13906555
203	0x3cd439b1	0.025906416
204	0x3e1f82e9	0.15577282
205	0xbd626eb7	-0.055281367
206	0xbc725147	-0.014789886
207	0xbdad79ba	-0.08470483
208	0x3de9ef48	0.114225924
209	0x3d8c3936	0.068468496
210	0x3df9bb26	0.12193899
211	0xbb9d2d30	-0.0047966465
212	0xbdf50fd0	-0.119659066
213	0xbce1009c	-0.02746611
214	0x3e1a62dd	0.15076776
215	0x3c165fe1	0.009178133
216	0x3d9ac1e4	0.07556513
217	0x3c8834c4	0.016626723
218	0xbc6e6232	-0.014549779
219	0x3b87214e	0.0041238433
220	0x3bb2dea7	0.005458671
221	0x3c8f39a1	0.017483534
222	0x3c87c7cd	0.016574765
223	0x3e1dd54b	0.15413396
224	0xbc10361c	-0.008801963
225	0xbdc2948a	-0.09500988
226	0x3bc45c4b	0.0059924475
227	0x3b1f6b40	0.00243254
228	0xbd939296	-0.072056934
229	0x3b120996	0.0022283546
230	0xbb91c85f	-0.004448935
231	0x3d9b33d4	0.07578245
232	0x3db0951c	0.0862219
233	0xbbe1dace	-0.0068925386
234	0xbc9e5aaa	-0.019330341
235	0xbda476a0	-0.080304384
236	0x3e1eb10f	0.1549723
237	0xbc0c3e8d	-0.008559835
238	0x3c4b841e	0.012421636
239	0xbd0424f6	-0.03226181
240	0x3c511b32	0.0127628315
241	0xbadd82b6	-0.0016899917
242	0xbdf81c16	-0.12114732
243	0xbdac38f6	-0.08409302
244	0x3e03b70a	0.12862793
245	0xbd9383f0	-0.072028995
246	0x3deb6170	0.11493194
247	0x3d73c5ed	0.05951493
248	0xbda155ed	-0.07877717
249	0x3b2998b0	0.0025878362
250	0x3bf47c8a	0.0074611353
251	0xbbe6bf62	-0.0070418576
252	0x3e14b3fe	0.14521787
253	0x3dda05d5	0.106456436
254	0xb8326500	-4.253257e-05
255	0xbc5554ab	-0.013020675

bias f4 [100]
0	0xbb106bea	-0.0022036978
1	0xbb157608	-0.0022805948
2	0x3d13f02c	0.036117718
3	0x3bb717f2	0.0055875713
4	0xbc9fd4ea	-0.019510705
5	0x3bc2c88c	0.005944317
6	0x3cdd4f73	0.027015423
7	0x3c857a06	0.016293537
8	0x3c455605	0.012044434
9	0x3cf3455b	0.029696157
10	0x3c1479c2	0.009062232
11	0xbc621341	-0.013798536
12	0xbd24256f	-0.040074762
13	0x39e99101	0.0004454926
14	0x3d5c9fbb	0.05386327
15	0x3c8a2b66	0.016866397
16	0xbb101efb	-0.0021991122
17	0xbb71b002	-0.003687859
18	0xbd1c0fab	-0.03810088
19	0x3bb9c542	0.005669267
20	0x3ccdd6b8	0.0251268
21	0x3ad4e73a	0.0016243227
22	0x3a160514	0.00057228026
23	0xbd0778f5	-0.033074338
24	0x3c4730ba	0.012157613
25	0xbcbc9810	-0.023021728
26	0xbd0a48a8	-0.033760697
27	0xbd1242e7	-0.035708334
28	0x3cfb2077	0.030655129
29	0xbc348feb	-0.011020641
30	0xbc50c3d4	-0.012742002
31	0x3c5b7060	0.0133934915
32	0x3bdf6eca	0.006818627
33	0x3cea2018	0.028579757
34	0x3a110d08	0.0005533253
35	0x3cdbb7a4	0.026820965
36	0xbc3f3ebe	-0.011672674
37	0x3ba06d76	0.0048958613
38	0xbc8d1b01	-0.01722479
39	0xbcfd6660	-0.030932605
40	0x3bbca518	0.0057569854
41	0xbc8925c9	-0.01674165
42	0xbc88fa2c	-0.016720854
43	0x3ceaa7cc	0.028644465
44	0xbc8ddd21	-0.017317357
45	0x3b4507c4	0.0030064443
46	0x39371d50	0.0001746316
47	0x3d5b2b9c	0.053508386
48	0xbc1418d1	-0.00903912
49	0x3d5a5946	0.053307794
50	0xbd29ed87	-0.04148629
51	0xbd1a0f88	-0.037612468
52	0x3ba4436b	0.0050129197
53	0x3d2aa106	0.04165747
54	0x3c7aeff9	0.015316003
55	0x3d58a35d	0.05289017
56	0xbd0b6306	-0.034029983
57	0x3c63d289	0.013905176
58	0xbd0a889b	-0.033821683
59	0xbaaf8b01	-0.0013392867
60	0xbc66a810	-0.014078155
61	0xbc87c8ad	-0.016575182
62	0xbcd6ef3f	-0.026237128
63	0xbd11f014	-0.035629347
64	0xbc1b7c4c	-0.009490084
65	0xbade1f86	-0.001694665
66	0x3cb50e9e	0.022101697
67	0xbce978d7	-0.028500004
68	0xbd34065d	-0.04395138
69	0xbc34f6f3	-0.011045205
70	0x3b2fcd68	0.0026825313
71	0xbc8e71f0	-0.017388314
72	0xbd2dad08	-0.042401344
73	0x3c44b969	0.012007096
74	0xbc297040	-0.010341704
75	0xbcdc45d5	-0.026888767
76	0xbc8d8dcc	-0.017279528
77	0xbd19e2af	-0.037569698
78	0xbd18c273	-0.037294816
79	0x3cae9578	0.021311507
80	0x3baea6ba	0.005329934
81	0x3cf99ee6	0.030471276
82	0xbb009bae	-0.0019624042
83	0xbcd229f3	-0.025654769
84	0xbcb41ea3	-0.021987265
85	0xbc12a9d9	-0.008951628
86	0x3c8f5576	0.017496806
87	0x3aaa8bad	0.0013011597
88	0x3ba04fbb	0.004892317
89	0xbcae8330	-0.02130279
90	0x3d26c996	0.04071959
91	0x3d15a3f4	0.03653331
92	0xbcfce3cf	-0.030870346
93	0x3bee4e86	0.0072725443
94	0xbc906d4d	-0.017630244
95	0x3c42f0d4	0.011898238
96	0xbc45fcfa	-0.01208424
97	0xbca6a318	-0.020341441
98	0x3b61689a	0.0034394623
99	0xbcf3e635	-0.029772857

weight f4 [100, 100]
0	0xbca81267	-0.020516587
1	0xbd5deb11	-0.054179255
2	0xbd2d9a4a	-0.04238347
3	0xbc846dce	-0.01616564
4	0x3db5e552	0.0888163
5	0x3db17ba7	0.08666163
6	0xbda559d5	-0.08073775
7	0x3b845ff7	0.00403976
8	0xbaacf2d6	-0.0013194929
9	0xbca6e24c	-0.020371579
10	0xbd218a37	-0.039438453
11	0xbc86827c	-0.016419642
12	0xbc99ecec	-0.018789731
13	0x3d9fb3e0	0.0779798
14	0x3c947c2d	0.018125618
15	0xbaf2d3b0	-0.0018526223
16	0xbc15c1f9	-0.009140485
17	0xbd25c012	-0.040466376
18	0xbd5743a3	-0.052554738
19	0x3b640709	0.0034794232
20	0x3d0798a4	0.033104554
21	0x3da13af0	0.078725696
22	0xbc7d1234	-0.0154462345
23	0xbdc5cd0f	-0.096582524
24	0x3b90e989	0.004422371
25	0x3c4c0827	0.012453116
26	0xbb88c378	-0.0041736923
27	0x3a3fca0c	0.0007316179
28	0xbdb2ceb0	-0.08730829
29	0xbb933a98	-0.004493069
30	0xbc83c131	-0.016083332
31	0xbdbcf234	-0.09225884
32	0xbc514dd9	-0.012774908
33	0x3da4902f	0.08035313
34	0x3a3ea1c4	0.000727203
35	0xbd00558c	-0.031331584
36	0x3c81b0f3	0.015831446
37	0x3d3df036	0.04637166
38	0x3c4d9ee5	0.01255009
39	0xbc6f12bf	-0.014591872
40	0x3c843c51	0.016142042
41	0x3d487127	0.048936035
42	0x3d814df6	0.06313698
43	0x3cff3ab2	0.031155918
44	0x3d98362a	0.07432206
45	0xbd366ec6	-0.044539236
46	0x3c86febb	0.016478887
47	0xbc37f950	-0.011228874
48	0x3c694f45	0.014240091
49	0xbcf90c18	-0.030401275
50	0xbd97b88c	-0.074082464
51	0xbdb112d9	-0.08646173
52	0x3d706acd	0.058695603
53	0x39258740	0.00015786011
54	0xbd53477a	-0.051581837
55	0x3d883f0c	0.0665265
56	0xbc5fa404	-0.013649944
57	0x3c499598	0.012303732
58	0x3bc89a3c	0.006121902
59	0xbbe5a4b6	-0.0070081605
60	0xbdbede17	-0.09319704
61	0xbd811674	-0.06303111
62	0x3d9ce04a	0.07659967
63	0x3d96d540	0.07364893
64	0xbc42d7cc	-0.01189227
65	0x3da18733	0.07887115
66	0xbdc8a044	-0.09796193
67	0xbb1e0eac	-0.0024117632
68	0x3aac2400	0.0013133287
69	0xbc43fce7	-0.011962152
70	0xbcffc985	-0.031224022
71	0xba5cee7c	-0.0008427871
72	0xbb152aac	-0.002276103
73	0xbc848aa6	-0.016179394
74	0xbd92167d	-0.071331955
75	0xbc38aed6	-0.011272153
76	0xba58bb38	-0.0008267644
77	0x3d87ddfc	0.06634137
78	0xbd246694	-0.04013689
79	0x3d3b7d86	0.045774005
80	0x3dbb6994	0.09150997
81	0x3b694e20	0.0035599545
82	0xbb32ee6a	-0.002730275
83	0x3dcef8c2	0.101060405
84	0xbceb6db4	-0.028738834
85	0xbac0fd1c	-0.001472387
86	0xbdb1aa9a	-0.08675118
87	0xbc751096	-0.014957568
88	0x3aae9194	0.0013318532
89	0xbb309373	-0.0026943355
90	0xbd9f993b	-0.07792898
91	0xbc5685fc	-0.013093468
92	0x3d45b610	0.04826933
93	0xbdc0d5c5	-0.09415773
94	0x3dd075f9	0.101787515
95	0x3c4a0e1b	0.012332465
96	0xbc5fba17	-0.013655207
97	0x3c822904	0.015888698
98	0xba4d3e60	-0.0007829424
99	0xbd90ddca	-0.07073553
100	0x3b3b18ec	0.002854879
101	0xbd206eed	-0.039168287
102	0x3d4cae9d	0.04997121
103	0x3be89818	0.007098209
104	0x3b222900	0.0024743676
105	0x3ac486da	0.0014993802
106	0x3ccb2f94	0.02480296
107	0xbdb8353e	-0.0899453
108	0x3d260a83	0.04053737
109	0x3b372625	0.002794632
110	0xbc2e5bd8	-0.010642014
111	0x3db4a758	0.08820981
112	0x3d717bfe	0.05895614
113	0xbcaef964	-0.021359153
114	0x3bb13122	0.0054074684
115	0x3c7a1696	0.015264174
116	0x3c806577	0.015673382
117	0xbdd3e0df	-0.10345625
118	0xbb45a9d8	-0.003016105
119	0xbbe957bd	-0.007121055
120	0xbcb3a6bd	-0.021930093
121	0x3d722809	0.05912021
122	0x3da91f0a	0.08257873
123	0xbcd932f8	-0.026513562
124	0xbac5228e	-0.0015040205
125	0xbd647c27	-0.055782463
126	0x3a106850	0.0005508708
127	0x3ce9e3d2	0.028551016
128	0xbc1e2ec6	-0.009654706
129	0xbc0a721a	-0.0084500555
130	0x3d2cc57c	0.042180523
131	0xbd36b868	-0.044609457
132	0x3c770e88	0.015079148
133	0x3a825a7c	0.0009945179
134	0xbc03aa5e	-0.008036224
135	0x3c4fd0df	0.012684076
136	0xbc565410	-0.0130815655
137	0x3dcb1681	0.09916402
138	0x3d3386e7	0.043829825
139	0xb9acfbf0	-0.00032994105
140	0x3cc47398	0.0239809
141	0xbd835b18	-0.06413859
142	0x3c2e3472	0.010632621
143	0x3c2fed3c	0.010737713
144	0x3c6e6fe7	0.014553047
145	0x3c221546	0.009892767
146	0x3d10e537	0.035374846
147	0xbbd1da02	-0.0064041624
148	0xbda0843d	-0.078377225
149	0xbb08da2b	-0.0020881991
150	0xbd7f25ee	-0.062292032
151	0x3daee540	0.0853982
152	0xbd89b310	-0.067236066
153	0xbd65a76c	-0.05606787
154	0xbd7a5175	-0.06111284
155	0xbc6017f5	-0.013677587
156	0xbd976d5d	-0.07393906
157	0xbb38600b	-0.0028133418
158	0x3c864935	0.01639233
159	0xbbc2535e	-0.0059303483
160	0x3c35aefa	0.011089081
161	0x3c3e850f	0.011628403
162	0xbc18b803	-0.009321216
163	0xbd5f3b79	-0.054500077
164	0x3c9e9a2f	0.01936063
165	0x3d53ca4c	0.051706597
166	0xbc0530d7	-0.00812932
167	0x399f81c0	0.00030423515
168	0xbd4b34a8	-0.049610764
169	0xbd1af7ad	-0.03783386
170	0xbdce2b3d	-0.10066841
171	0x3da5f773	0.08103838
172	0xbdab575f	-0.08366274
173	0x3a94c690	0.001135068
174	0xbb281f6c	-0.0025653495
175	0x3c63d364	0.01390538
176	0x3dd0e44a	0.10199793
177	0x3cb598b8	0.022167549
178	0xbc28828a	-0.010285029
179	0x3db4684c	0.088089556
180	0x3d940a5f	0.07228541
181	0x3d68fa51	0.056879345
182	0xbc692702	-0.014230492
183	0x3c36906c	0.011142831
184	0xbd5c1610	-0.053731978
185	0xbc36fc2b	-0.01116852
186	0x3d0a2074	0.033722356
187	0xbd58d789	-0.052939925
188	0xbce29ed8	-0.027663633
189	0xbcd371f7	-0.025811179
190	0x3da66d12	0.08126272
191	0xba370348	-0.0006981385
192	0x3daf52e2	0.085607305
193	0xbc29e5bd	-0.010369715
194	0xbd800ecc	-0.06252822
195	0x3b953225	0.004553097
196	0xbd861d27	-0.06548529
197	0x3d2adc01	0.04171372
198	0xbb50ab10	-0.0031840242
199	0xbd3059ac	-0.043054268
200	0x3d64dc01	0.055873875
201	0xbd8db37f	-0.06919002
202	0xbc454753	-0.012040931
203	0x3bfd77e5	0.00773524
204	0xbbdd716b	-0.0067579052
205	0xbdcee5aa	-0.10102399
206	0xbd0dcb94	-0.034617975
207	0xba65ae50	-0.00087616313
208	0xbb95da2a	-0.0045731263
209	0x3d383f91	0.044982497
210	0xbda329c8	-0.079669535
211	0x3ba84064	0.005134629
212	0x3d0d30e7	0.034470465
213	0x3c4caf6a	0.012492994
214	0xbc46542c	-0.012105029
215	0xbb8bd7c4	-0.0042676646
216	0x3b84ceac	0.0040529575
217	0x3d90d5d7	0.07072037
218	0x3c828a58	0.015935108
219	0x3b4474fe	0.002997696
220	0x3d8bd245	0.06827215
221	0xbd39e8b7	-0.04538795
222	0xbb323c34	-0.0027196528
223	0xbdbe19b8	-0.09282249
224	0xbd7250b9	-0.059159014
225	0x3c40bd7c	0.011763927
226	0x3b134b2e	0.002247523
227	0x3dba6e61	0.09103084
228	0xbccbfc34	-0.024900533
229	0x3dcbd736	0.099531576
230	0xbdb631cf	-0.08896219
231	0xbc2bfaa5	-0.01049677
232	0x3d94f95f	0.07274126
233	0xbcface25	-0.030615875
234	0x3c7c1ff4	0.015388478
235	0xbd55e76c	-0.052222654
236	0xbd870b04	-0.06593898
237	0x3d85174e	0.06498586
238	0xbc58420c	-0.013199341
239	0xbd355ffc	-0.04428099
240	0xbd9a3129	-0.07528908
241	0x3c3716e1	0.011174888
242	0xbd8b1c48	-0.067925036
243	0x3d4b939e	0.049701326
244	0x3b19db7e	0.0023476775
245	0x3c3b0086	0.011413699
246	0x3c991f10	0.01869157
247	0x3bb5a329	0.005543132
248	0x3d79de2f	0.061002906
249	0xbb3acd49	-0.0028503707
250	0xbdad146a	-0.08451159
251	0x3d03277a	0.03202007
252	0x3c937175	0.017998436
253	0xbdcba9ac	-0.09944472
254	0x3d3b5db6	0.045743667
255	0xbcca9481	-0.024729015

bias f4 [100]
0	0x3b23f7ee	0.0025019604
1	0xbd1d8081	-0.03845263
2	0xbc2860b8	-0.010276966
3	0x3cfa99ef	0.03059098
4	0x3bfa11b5	0.0076315054
5	0xbab8ed5e	-0.0014108827
6	0xbafc7132	-0.0019259809
7	0xbcc4f538	-0.02404271
8	0x3d5d89c2	0.054086454
9	0x3d50f9f1	0.051019613
10	0xbce7f27e	-0.028313871
11	0xba95524c	-0.0011392324
12	0xbb311c63	-0.0027024976
13	0x3d662aff	0.056193348
14	0xb96a4100	-0.00022340193
15	0x3ae6c62c	0.0017606667
16	0xbb8b4b0c	-0.0042508896
17	0x3d7d5c57	0.06185564
18	0x3cb4e147	0.022080077
19	0xbd0d4b4e	-0.034495644
20	0xbd4bccd0	-0.04975587
21	0xbc394548	-0.011308022
22	0xbabf55d6	-0.0014597725
23	0xbc207e20	-0.009795696
24	0x3d39c626	0.045354985
25	0x3b5323d6	0.0032217405
26	0xbc41ffe4	-0.011840794
27	0x3cbeaa09	0.023274438
28	0x3ac9beb2	0.0015391915
29	0xbc5d1e1e	-0.01349595
30	0xbc1e2ab1	-0.009653733
31	0x3d1899ac	0.037255928
32	0x3b3d6a12	0.0028902334
33	0x3d183df7	0.03716847
34	0x3c1a43f6	0.009415617
35	0xbc03331e	-0.008007793
36	0x3d0d2c28	0.03446594
37	0xbbb2912a	-0.005449434
38	0xbd200b65	-0.039073367
39	0x3c1c85a0	0.009553343
40	0x3c74b56f	0.014935835
41	0x3b8b6af0	0.0042546913
42	0xbb87abc2	-0.004140348
43	0x3ca21e3f	0.019789813
44	0xbcbedadf	-0.023297725
45	0xba7d0aed	-0.0009652812
46	0xbc95bfda	-0.018279959
47	0x3cff1368	0.031137183
48	0xbc46b530	-0.012128159
49	0x3ccb7ba2	0.024839226
50	0x3c5e5f88	0.013572581
51	0x3d0cef26	0.034407757
52	0xbc6237fa	-0.013807291
53	0x3c07f8ca	0.008299062
54	0x3d1bb1ed	0.03801148
55	0x3cb9041b	0.022584965
56	0xbceea062	-0.02912921
57	0xbd35f9e0	-0.044427752
58	0xbd0ed758	-0.034873337
59	0xbca50686	-0.020144712
60	0x3c821d65	0.015883157
61	0xbcd38776	-0.025821429
62	0xbc65edc3	-0.014033738
63	0xbc22c5ab	-0.009934823
64	0xbb3f4198	-0.0029183384
65	0xbcff9c7e	-0.031202551
66	0xbd0e5a81	-0.03475428
67	0xbbf6ecee	-0.0075355684
68	0xba7955b8	-0.0009511369
69	0x3d1eaace	0.03873711
70	0x3c845dad	0.01615795
71	0x3bb30d76	0.005464251
72	0xbc259bc4	-0.010107938
73	0xbcf98b1d	-0.030461842
74	0xbcd254e8	-0.025675252
75	0x3ce85418	0.028360412
76	0x3d4087f4	0.047004655
77	0xbca23203	-0.019799238
78	0xbc986738	-0.018603906
79	0xbd09c63d	-0.03363632
80	0x3cd38b33	0.025823211
81	0x3caefee5	0.021361778
82	0x3d186f08	0.037215263
83	0x3d08a8b2	0.033364005
84	0xbc8982a5	-0.016785929
85	0xbd143aac	-0.036188766
86	0xbc57567b	-0.013143177
87	0xbd0bab54	-0.034098938
88	0x3d8052a6	0.06265764
89	0xbbea281a	-0.0071458938
90	0xbd58405c	-0.052795753
91	0xbbe715ea	-0.007052173
92	0xbc67b474	-0.0141421445
93	0xbc08cec6	-0.00835008
94	0x3cb7d551	0.022440584
95	0xbc4f56f1	-0.012655006
96	0xbd064f3f	-0.03279042
97	0xbce35ce3	-0.027754253
98	0x3d2a873e	0.041632883
99	0xbc3fafe9	-0.011699655

weight f4 [100, 100]
0	0x3d1c5116	0.038163267
1	0xbc45e363	-0.012078139
2	0xbda1aea7	-0.078946404
3	0xbdab555b	-0.0836589
4	0xbd8f28b7	-0.069901876
5	0x3c0cae32	0.008586453
6	0x3beda1da	0.00725196
7	0x3da79a40	0.08183718
8	0x3de41687	0.11137109
9	0x3cfbbe72	0.03073046
10	0x3ccbb8b6	0.02486835
11	0x3d0a9100	0.03382969
12	0x3d310e0f	0.043226298
13	0x3ba342c0	0.0049823225
14	0xbcfdd0e5	-0.030983398
15	0x3c3bb278	0.0114561245
16	0x3dba48d0	0.09095919
17	0x3d38c2e5	0.04510774
18	0x3c2944fc	0.010331389
19	0x3db2eec0	0.08736944
20	0x3dbe939b	0.09305497
21	0x3bae261c	0.0053146016
22	0xbbb03d70	-0.0053784177
23	0x3d75211a	0.05984602
24	0x3d5a3fda	0.05328355
25	0xbd2dac17	-0.042400446
26	0x3d4a24b0	0.049351394
27	0x3d85f8d7	0.06541603
28	0x3de39c34	0.11113778
29	0xbc73105d	-0.014835444
30	0x3c744b3f	0.014910518
31	0x3da0423a	0.07825132
32	0xbd6880f4	-0.056763604
33	0xbd87b984	-0.06627181
34	0xbc88d224	-0.016701765
35	0xbd4c5186	-0.049882434
36	0xbdd0d895	-0.1019756
37	0x3cdc97d5	0.026927868
38	0xbc023c0a	-0.007948885
39	0x3d96fad1	0.07372058
40	0xbc81dd1a	-0.0158525
41	0x3d904df2	0.07046117
42	0xbd532599	-0.051549528
43	0x3c750f3a	0.014957244
44	0xbd36edcb	-0.04466037
45	0x3c889dd9	0.01667683
46	0x3d252b22	0.040324338
47	0x3bca1a58	0.006167691
48	0xbd52a7fa	-0.051429726
49	0xbd3e6244	-0.046480432
50	0x3a8145d1	0.0009862726
51	0xbd53c47e	-0.05170106
52	0x3d4d0e8a	0.050062694
53	0xbd90f6c9	-0.070783205
54	0xbde41716	-0.11137216
55	0x3de9afd9	0.114104934
56	0x3d839b9e	0.06426166
57	0x3d83db70	0.06438339
58	0x3a3e1d24	0.0007252267
59	0x3d9dd97c	0.077074975
60	0xbceb022d	-0.02868756
61	0xbda66c9f	-0.081261866
62	0xbcf89598	-0.03034477
63	0x3d2bb7de	0.041923396
64	0x3d952396	0.07282178
65	0xbd5102ff	-0.051028248
66	0x3c541bbf	0.012946068
67	0xbccc3b2a	-0.024930555
68	0xbd7a93e2	-0.06117619
69	0x3d2224ec	0.039585993
70	0xbc66a231	-0.014076755
71	0xbd31ceb0	-0.043410003
72	0x3cd42515	0.025896588
73	0xbb9f3922	-0.0048591057
74	0x3df2bdd6	0.118526146
75	0x3c133b48	0.008986302
76	0x3b70c12e	0.0036736238
77	0xbbd015fc	-0.006350277
78	0x3d943a37	0.07237666
79	0x3e000cd3	0.12504892
80	0xbc6cc60e	-0.014451517
81	0xbb848c33	-0.0040450334
82	0x3daf3b6c	0.08556256
83	0x3d8f1c95	0.069878735
84	0xbce09680	-0.027415514
85	0x3d32c107	0.043641116
86	0x3d6341e7	0.05548277
87	0x3d294d6a	0.041333593
88	0x3dc2f3f5	0.09519187
89	0xbd53adc8	-0.051679403
90	0xbda91416	-0.08255784
91	0xbc56635e	-0.013085214
92	0x3b7cf7d5	0.0038599868
93	0x3c53211e	0.012886314
94	0xbddbfddf	-0.107417814
95	0x3d9de475	0.0770959
96	0xbdb02569	-0.086008854
97	0x3d341eff	0.043974873
98	0x3d8f427c	0.06995103
99	0xbcd0afe2	-0.025474492
100	0xbd4681a6	-0.048463486
101	0xbd97afa4	-0.07406548
102	0xbb287c16	-0.0025708727
103	0x3d9a9b55	0.075491585
104	0xbb95c914	-0.0045710895
105	0xbc673a72	-0.014113056
106	0xbd73bf44	-0.059508577
107	0xbd23b87a	-0.039970852
108	0x3d96c106	0.07361035
109	0xbd13b698	-0.036062807
110	0xbc0be3a4	-0.0085381605
111	0x3d6a71d9	0.05723748
112	0xbd74f6c5	-0.05980565
113	0x3ab073fc	0.00134623
114	0xbd5bdea4	-0.053679124
115	0x3d4816bf	0.048849817
116	0xbc4be076	-0.012443652
117	0x3ba02919	0.0048877117
118	0xbd84fdaa	-0.06493695
119	0x3db1a802	0.08674623
120	0x3d9fe30c	0.07806978
121	0x3c5585cc	0.013032388
122	0x3c8d9631	0.01728353
123	0xbc52b3e8	-0.012860276
124	0x39a6efa8	0.00031840545
125	0x3a58d920	0.00082721
126	0xbcc2b1f4	-0.023766495
127	0x3db07a68	0.08617097
128	0xbd8767ca	-0.06611593
129	0xbbeea062	-0.0072823027
130	0xbad33452	-0.0016113615
131	0x3cd93924	0.026516505
132	0xbc8ee4a5	-0.01744301
133	0x3c5893c6	0.013218826
134	0x3b80510e	0.0039159125
135	0xbcca0747	-0.024661673
136	0xbc7285c4	-0.0148024
137	0x3d655b00	0.055994987
138	0x3cf70c9d	0.030157382
139	0x3d80377a	0.06260581
140	0x3cf7520f	0.030190496
141	0x35a38000	1.2181699e-06
142	0x3d38207d	0.04495286
143	0xbc3a42ea	-0.011368493
144	0x3a4c3748	0.000779022
145	0xbdc582c1	-0.0964408
146	0xbdc6f7a8	-0.097152054
147	0x3c12cb2c	0.008959573
148	0xbb5b36e8	-0.0033449475
149	0xbc441317	-0.011967442
150	0xbda617e4	-0.081100255
151	0xbdc6e93c	-0.09712455
152	0xbcae4543	-0.021273261
153	0x3d04e50b	0.032444995
154	0xbd9655a5	-0.07340554
155	0xba63c920	-0.0008689333
156	0x3db6f6b8	0.089337766
157	0x3b045b16	0.0020195893
158	0xbc937825	-0.018001625
159	0x3b75415c	0.003742299
160	0x3d57866e	0.052618437
161	0xbd0b7614	-0.034048155
162	0x3dc1d3b0	0.09464204
163	0x3b6829b0	0.0035425238
164	0x3dc85dfd	0.09783552
165	0x3dd74cd2	0.10512699
166	0xbc791436	-0.015202573
167	0xbd16d49d	-0.036823858
168	0x3cd3a5b2	0.025835846
169	0xbc268f87	-0.0101660555
170	0x3ca6b8fe	0.020351883
171	0x3dbeb81d	0.093124606
172	0x3b807322	0.003919975
173	0xbc30d0f1	-0.010792003
174	0xbbc9377a	-0.0061406465
175	0x3dd2b2d6	0.102880165
176	0xbd95c0c2	-0.07312156
177	0xbc88c5fb	-0.016695967
178	0xbcbbc634	-0.022921659
179	0xbc0d45df	-0.008622616
180	0x3d4ba7da	0.049720623
181	0x3d9e3a5b	0.07725974
182	0xbd77cee4	-0.06050004
183	0x3d286654	0.041113213
184	0xbd647890	-0.05577904
185	0x3cc671c1	0.024224164
186	0xbce5f704	-0.028071888
187	0x3d8673b3	0.065650366
188	0xbc849620	-0.016184866
189	0x3be25d7a	0.006908116
190	0xbc9faf60	-0.019492805
191	0x3a010d7c	0.0004922969
192	0xbc7665c4	-0.015038911
193	0x3d70a4f2	0.058751054
194	0xbd09235c	-0.033480987
195	0xbc3d9d0a	-0.011573086
196	0xbc94e110	-0.018173724
197	0xbb13493c	-0.002247407
198	0xbbc4de90	-0.006007977
199	0xbd7d52a9	-0.06184641
200	0xbc83f9f4	-0.016110398
201	0x3d3ddd5b	0.04635368
202	0x3bd9c13c	0.00664535
203	0xbc782751	-0.0151460925
204	0x3d4dfe77	0.050291505
205	0x3d927dc5	0.07152895
206	0x3be1a4be	0.006886094
207	0xbd9f0290	-0.07764161
208	0xbc84c88a	-0.016208906
209	0xbd20040e	-0.039066367
210	0x3d260777	0.040534463
211	0x3da2d208	0.079502165
212	0xbda3312d	-0.07968364
213	0x3dbd933e	0.092566
214	0x3d4b00f6	0.049561463
215	0xbda8ae8b	-0.082364164
216	0xbde72b1e	-0.11287521
217	0x3c257d88	0.01010073
218	0x3dcd8993	0.10036006
219	0x3d736e90	0.059431612
220	0x3d11378e	0.03545337
221	0x3d5b0806	0.05347445
222	0x3c102849	0.008798667
223	0xbd2d6300	-0.042330742
224	0xbcb19311	-0.021676572
225	0x3d8de21f	0.06927895
226	0xbd9df154	-0.07712045
227	0x3c65971c	0.014013078
228	0xbd2348f4	-0.039864495
229	0xbdc9762a	-0.09836991
230	0x3b18bbc6	0.002330528
231	0xbdbf22cc	-0.09332809
232	0xbdc29abe	-0.09502171
233	0x3e024518	0.1272167
234	0xbc848a05	-0.016179094
235	0x3bd2e14c	0.006435549
236	0xbd0d8b0e	-0.03455644
237	0xbb9ec7ed	-0.0048456104
238	0x39748980	0.00023320876
239	0xbacbd8d6	-0.0015552293
240	0xbc57ced8	-0.013171874
241	0x3d4aa8cd	0.049477387
242	0xbc0d1126	-0.008610046
243	0x3dbc0834	0.09181252
244	0x3d89dc97	0.06731527
245	0x3ba2716e	0.0049573695
246	0x3d1931fc	0.037401184
247	0x3db8ed13	0.09029593
248	0xbd54fe55	-0.052000362
249	0x3d889c09	0.06670386
250	0x3cc7377e	0.024318453
251	0xbc4b2adf	-0.012400358
252	0x3d8dbc60	0.06920695
253	0x3e1aa4c2	0.15101913
254	0x3cf24c81	0.029577496
255	0xbd750e3b	-0.059828024

bias f4 [100]
0	0xbc62ab34	-0.013834763
1	0x3c9e8977	0.019352658
2	0x3cb6584c	0.0222589
3	0xbc528c61	-0.012850852
4	0xbd0ece73	-0.034864854
5	0x3c1f29d8	0.009714566
6	0xbd0e7b45	-0.034785528
7	0xbb89f7c8	-0.004210446
8	0x3c97905e	0.018501457
9	0xbb95f78c	-0.004576629
10	0x3c7a516d	0.0152782025
11	0xbcf1742f	-0.029474346
12	0xbbf7f877	-0.007567461
13	0xbd0e2424	-0.034702435
14	0x3b063556	0.0020478568
15	0xbc98533c	-0.018594377
16	0xbd0fbcd0	-0.035092175
17	0x3a85b434	0.00102008
18	0xbd11276f	-0.035437997
19	0x3be0f186	0.0068647293
20	0xbd0fe31a	-0.03512869
21	0xbb72fb64	-0.003707611
22	0xbc86b8e4	-0.016445585
23	0xbcc33aea	-0.023831803
24	0xb9b2c450	-0.0003409707
25	0xbc107a29	-0.008818188
26	0xbc5f9cb6	-0.013648203
27	0x3ab9285c	0.0014126408
28	0x3caf2401	0.021379473
29	0xbd0b6f5c	-0.034041747
30	0xbca7f1a6	-0.02050097
31	0xbca0340d	-0.01955607
32	0xbbd9569b	-0.0066326386
33	0xbce9fe4e	-0.028563645
34	0xbc9d5ea9	-0.019210177
35	0xbcef3bde	-0.029203352
36	0xbd31e839	-0.043434355
37	0xb92cbc30	-0.00016473304
38	0xba781f70	-0.0009465134
39	0x3ce12a5e	0.027486023
40	0xbcbc9940	-0.023022294
41	0x3c4b4b2c	0.012408059
42	0xbc5a92df	-0.013340681
43	0xbc255c42	-0.010092797
44	0xbb0ae6f4	-0.0021194788
45	0x3c7e037a	0.015503759
46	0xbc45d7eb	-0.012075405
47	0xbd0f2c4d	-0.034954358
48	0xbb9a1d72	-0.004703217
49	0x3c01a69f	0.007913261
50	0xbd210724	-0.03931345
51	0xbcdad130	-0.026711076
52	0xbc840d55	-0.016119638
53	0x3cc85027	0.024452282
54	0x3b79b14c	0.0038100062
55	0xbcb743b3	-0.022371149
56	0xba8ef508	-0.0010906765
57	0xb9266ec0	-0.00015872251
58	0x3a453c18	0.0007523908
59	0x3bfe000d	0.007751471
60	0x3b8c72c2	0.004286141
61	0x3c7bd27a	0.015370006
62	0xbc831d7b	-0.016005268
63	0xbc5cbb55	-0.013472398
64	0xbbc1e716	-0.00591744
65	0xbd15dbe1	-0.036586646
66	0xbd0f010c	-0.034913108
67	0xbd0e33c7	-0.034717347
68	0xbc69a36c	-0.014260154
69	0x3ca27296	0.01983003
70	0x3c60e677	0.013726822
71	0x3c293324	0.010327134
72	0x3ca0711f	0.01958519
73	0x3cef436b	0.029206952
74	0xbbaaaa9a	-0.0052083256
75	0xbd0f10f6	-0.034928285
76	0x3abafeae	0.0014266574
77	0xbc26672a	-0.010156432
78	0xbd065c3e	-0.032802813
79	0xbb6b2e9a	-0.003588593
80	0x3d0255c4	0.031820074
81	0xbbdf2e9c	-0.006810976
82	0x3d2b0bab	0.041759174
83	0xbc30c0e6	-0.010788178
84	0xbcd364db	-0.025804928
85	0xbcc474a3	-0.023981398
86	0xbd0624c6	-0.032749914
87	0xbc8db5d9	-0.017298626
88	0xbd014d9d	-0.03156816
89	0xbcbd29ca	-0.023091216
90	0xbd249613	-0.040182184
91	0xbc80e229	-0.015732842
92	0xbbddc837	-0.0067682522
93	0xba17f3f8	-0.0005796547
94	0xbc84ec7b	-0.016226044
95	0x3c1dbd2e	0.0096276235
96	0xbd00a2b3	-0.031405162
97	0x3abc8618	0.0014383225
98	0xbcfb8617	-0.030703587
99	0xbcd99d73	-0.026564335

weight f4 [100, 100]
0	0xba30bcf0	-0.0006742021
1	0xbc589802	-0.013219835
2	0xbcea5778	-0.028606161
3	0xbc5df8f7	-0.013548127
4	0x3dd36ea4	0.103238374
5	0xbc7c73d6	-0.015408477
6	0x3d325098	0.04353389
7	0xbd0e3374	-0.03471704
8	0xbca3702f	-0.019950954
9	0x3cb4cd80	0.022070646
10	0xbd037e6a	-0.03210298
11	0xbba29596	-0.0049616797
12	0xbdb42352	-0.08795799
13	0xbbc01368	-0.0058616884
14	0x3dc6516a	0.09683497
15	0xbc846716	-0.016162436
16	0x3d576498	0.052586168
17	0x3c96ce40	0.018408895
18	0xbc9ba9c1	-0.019001843
19	0xbd0e6f5d	-0.034774173
20	0xbd8c18f3	-0.06840696
21	0xbc0b0a47	-0.008486337
22	0xbc85400e	-0.016265895
23	0x3ba89850	0.00514511
24	0xbd197459	-0.037464473
25	0x3bc1c848	0.005913768
26	0xb98a3c00	-0.00026366115
27	0xbcc0f8dc	-0.023556165
28	0x3d4462ec	0.0479459
29	0xbd9480f0	-0.072511554
30	0xbd9ee2a9	-0.07758076
31	0xbd7e3f8f	-0.062072333
32	0x3dca5374	0.09879199
33	0x3dc2bed0	0.09509051
34	0xbdb53c0f	-0.08849346
35	0x3d6bcb8d	0.057567168
36	0x3dc0849f	0.094002955
37	0x3b5375cc	0.0032266257
38	0xbb219d14	-0.0024660276
39	0xbb5b3ab8	-0.0033451747
40	0x3be8740a	0.007093911
41	0x3c265ff6	0.010154715
42	0x3d5ae2ce	0.053438954
43	0x3d9776c7	0.07395702
44	0xbda719f9	-0.08159251
45	0xbd9e5921	-0.07731844
46	0xbd901d78	-0.07036871
47	0x3c997d50	0.018736511
48	0x3cadfbfa	0.021238316
49	0x3c64df3f	0.013969242
50	0xba7b8e80	-0.00095961243
51	0xbd813a8b	-0.06309994
52	0xbb7e452c	-0.0038798554
53	0x3d0c1c43	0.03420664
54	0xbd72f59e	-0.05931627
55	0x3cd25a4e	0.025677826
56	0x3db4de74	0.08831492
57	0x3d6b3a8d	0.057428885
58	0xbc2c91da	-0.010532821
59	0x3c9e44d1	0.019319924
60	0xbd0b3549	-0.033986364
61	0x3cef2cda	0.029196192
62	0xba94ec70	-0.0011361968
63	0xb5c8b000	-1.4952384e-06
64	0x3d990449	0.074715205
65	0x3d39c45b	0.045353275
66	0xbbf0c3b0	-0.0073475465
67	0x3b86e9b4	0.004117215
68	0xbd2ef76f	-0.04271644
69	0xbc1ed21a	-0.009693647
70	0x3cecdeeb	0.02891489
71	0xbd9ed0b4	-0.07754651
72	0x3c7482e7	0.014923788
73	0x3d9a5e12	0.07537474
74	0x3da440fd	0.08020208
75	0xbb71c5b4	-0.0036891522
76	0x3a968130	0.0011482593
77	0xbb6b6780	-0.0035919845
78	0x3c791e67	0.015205002
79	0x39f51968	0.0004674897
80	0x3d060e16	0.032728277
81	0x3c39c8ff	0.011339425
82	0xbc2fa84c	-0.010721277
83	0xbd5a2af0	-0.053263605
84	0x3c2817cc	0.01025958
85	0xbc856f09	-0.016288297
86	0x3dd32df6	0.10311501
87	0x3d8b8345	0.06812147
88	0xbc745006	-0.014911657
89	0xbda22e7d	-0.07919023
90	0xbd933866	-0.071884915
91	0x3d3a6c39	0.045513365
92	0x3b0304de	0.0019991915
93	0xbbd1d1ea	-0.0064031975
94	0x3da4b6b6	0.08042662
95	0xbd10dade	-0.035364978
96	0x3cd9bc68	0.026579097
97	0xbdac5e41	-0.08416415
98	0x3d04b88c	0.03240256
99	0xbd8f4ad4	-0.06996694
100	0xbc7560fd	-0.014976737
101	0xbc80bdf2	-0.015715573
102	0xbdab365a	-0.08359976
103	0x3d86b3d5	0.06577269
104	0x3dbe7e83	0.09301474
105	0x3d865804	0.065597564
106	0xbd945922	-0.07243563
107	0xbb97791c	-0.0046225917
108	0xbaebc9b4	-0.0017989189
109	0x3d077749	0.033072744
110	0x3d6b7070	0.057480276
111	0x3d59ed72	0.05320496
112	0xbc99e588	-0.018786207
113	0xbce1969b	-0.027537635
114	0xbd772dbb	-0.060346346
115	0x3ba4045e	0.0050054034
116	0xbd419f29	-0.047270928
117	0xbd009168	-0.03138867
118	0x3d49dc6e	0.049282484
119	0x3cf8d931	0.030377002
120	0xbc79a55a	-0.015237177
121	0xbd3f2a89	-0.046671424
122	0xbd6d2ade	-0.05790221
123	0xbdaa53cc	-0.08316764
124	0x3d8b069d	0.06788371
125	0x3dd04860	0.101700544
126	0x3c10c09b	0.008834983
127	0xbb87dc94	-0.004146168
128	0xbdae83f9	-0.085212655
129	0xbd0edec0	-0.0348804
130	0xbb8f9812	-0.004382142
131	0x3c37bfc0	0.01121515
132	0xbc7ee284	-0.015556935
133	0xbc3c31ea	-0.01148651
134	0xbd4ae014	-0.049530104
135	0x3c034164	0.008011196
136	0xbba86784	-0.005139293
137	0x3c82dad8	0.015973493
138	0xbcbc26e8	-0.02296777
139	0x3d06c17e	0.032899372
140	0xbd8bd8f2	-0.068284884
141	0x3dcc0493	0.0996181
142	0xbcea08e3	-0.02856869
143	0xbc9051e4	-0.017617173
144	0x3c16ccba	0.009204084
145	0x3dbc105d	0.091828085
146	0xbd68f381	-0.05687285
147	0x3d81aa6c	0.063313335
148	0xbdd403e1	-0.10352302
149	0xbc76c56d	-0.015061718
150	0xbd6ccdb3	-0.057813358
151	0xbc51cdca	-0.012805412
152	0x3d719c32	0.05898685
153	0xbbcdf1b2	-0.006284916
154	0xbc56b123	-0.013103756
155	0xbd9fa910	-0.07795918
156	0x3db7da42	0.08977176
157	0x3b6a3014	0.0035734223
158	0xbcfcc4a0	-0.030855477
159	0x3bcb1c14	0.0061984155
160	0x3ca28eb3	0.019843435
161	0x3d70f97d	0.05883168
162	0x3c842d16	0.01613478
163	0xbcf8b7fc	-0.030361168
164	0xbd9eafce	-0.07748376
165	0xbb500c08	-0.0031745452
166	0xbcdea294	-0.027177133
167	0x3d7d620e	0.06186109
168	0x3d84d971	0.06486786
169	0x3dbcc0aa	0.09216435
170	0xbdba5a5f	-0.09099268
171	0xbdac748a	-0.084206656
172	0x3adc9162	0.0016827995
173	0xbd2e449d	-0.042545903
174	0xbdd22c58	-0.10262364
175	0xbd898854	-0.06715456
176	0x3d97a19f	0.07403874
177	0x3d9034ae	0.07041298
178	0x3d93dadf	0.07219481
179	0x3ceed5fa	0.029154766
180	0xbc3e46ae	-0.011613531
181	0x3c0247dc	0.007951703
182	0xbc8bef08	-0.017081752
183	0xbbf05ad6	-0.0073350472
184	0xbc2afb08	-0.010435827
185	0xbc34a208	-0.011024959
186	0x3c54752c	0.012967389
187	0xbc9c0e48	-0.019049779
188	0xbdc82c42	-0.097740665
189	0xbc12cea6	-0.008960402
190	0x3d584391	0.05279881
191	0xbb71ba50	-0.0036884733
192	0x3d5ca1f6	0.053865395
193	0x3d1808f8	0.03711793
194	0xbdb469fb	-0.08809277
195	0xbda49710	-0.080366254
196	0x3d5c5918	0.053795904
197	0xbd596873	-0.053078126
198	0xbbfc41e0	-0.0076982826
199	0x3da15c14	0.07878891
200	0xbcffa17e	-0.031204935
201	0xbc228f65	-0.009921883
202	0xbcd547ab	-0.02603515
203	0xbcc59bf7	-0.024122221
204	0x3c73ad7c	0.014872905
205	0xbb9b78c4	-0.004744621
206	0xbdeb34ef	-0.11484706
207	0xbce03046	-0.027366769
208	0xbd007be2	-0.031368144
209	0x3c2733c5	0.010205214
210	0x3adaf2d4	0.0016704448
211	0xbc849785	-0.016185531
212	0x3d69a520	0.05704224
213	0xbdd2558c	-0.10270223
214	0xbd7a1b1e	-0.061061017
215	0x3cb50bc6	0.02210034
216	0xbdc0ac7f	-0.09407901
217	0x3d442138	0.047883242
218	0xbc0f19cb	-0.008734177
219	0xbc5a43e8	-0.013321854
220	0x3d9f02da	0.07764216
221	0xbc46e19d	-0.012138751
222	0x3d46ad9f	0.04850542
223	0xbc9041bf	-0.017609475
224	0xbdcb8f25	-0.09939412
225	0x3d7506d7	0.059820976
226	0x3caee712	0.021350417
227	0x3b08039c	0.0020754104
228	0xbcf1e5df	-0.029528556
229	0xbd68b39e	-0.05681192
230	0xbc424f8d	-0.011859787
231	0xbb1be598	-0.0023787972
232	0xbbc45f88	-0.0059928335
233	0x3baee59c	0.00533743
234	0xbc601e07	-0.013679034
235	0x3c052dd8	0.008128606
236	0xbbe9231d	-0.0071147815
237	0x3db3cbe1	0.08779121
238	0x3d0b6212	0.034029074
239	0xbb95f488	-0.0045762695
240	0xbce30faa	-0.02771743
241	0xbb54c9f4	-0.0032469006
242	0xbbe37a8f	-0.0069421004
243	0x3c4dbaa8	0.012556709
244	0xbd8f4d25	-0.06997136
245	0x3a0687f0	0.00051319506
246	0x3b3f6448	0.002920406
247	0xbbbde78a	-0.005795424
248	0x3b73f248	0.0037223268
249	0x3ca9b476	0.020715933
250	0xbcea9b02	-0.028638367
251	0xba22d7a0	-0.000621194
252	0xbd26040c	-0.040531203
253	0x3ccfc2ba	0.025361408
254	0xbce82c6e	-0.028341498
255	0x3c07c629	0.008286991

bias f4 [25]
0	0x00000000	0.0
1	0x00000000	0.0
2	0x00000000	0.0
3	0x00000000	0.0
4	0x00000000	0.0
5	0x00000000	0.0
6	0x00000000	0.0
7	0x00000000	0.0
8	0x00000000	0.0
9	0x00000000	0.0
10	0x00000000	0.0
11	0x00000000	0.0
12	0x00000000	0.0
13	0x00000000	0.0
14	0x00000000	0.0
15	0x00000000	0.0
16	0x00000000	0.0
17	0x00000000	0.0
18	0x00000000	0.0
19	0x00000000	0.0
20	0x00000000	0.0
21	0x00000000	0.0
22	0x00000000	0.0
23	0x00000000	0.0
24	0x00000000	0.0

weight f4 [25, 100]
0	0x3e40e7f5	0.18838485
1	0xbe0fbce4	-0.140369
2	0xbe0c09ed	-0.13675661
3	0x3e5478d9	0.20749225
4	0x3dab5b9e	0.08367084
5	0x3d864fbc	0.06558177
6	0x3c95ddaa	0.018294174
7	0xbddfbd27	-0.1092475
8	0xbdc1660d	-0.09443293
9	0xbdcef4b9	-0.10105271
10	0x3e0f7bfe	0.14012143
11	0xbd8768f3	-0.06611814
12	0x3e3f8646	0.18703565
13	0xbd1fc720	-0.03900826
14	0x3e4d8a1a	0.20072213
15	0xbe54e6f6	-0.2079123
16	0x3c682eda	0.0141713265
17	0x3daaaff6	0.08334343
18	0xbe07c743	-0.13259606
19	0x3e332c1f	0.174973
20	0xbc82ad86	-0.015951883
21	0x3e37be7d	0.1794376
22	0xbd8b3cb0	-0.067986846
23	0xbe5c3cd9	-0.21507587
24	0xbe100f9a	-0.14068452
25	0xbd489da4	-0.048978463
26	0xbdfa8e09	-0.12234122
27	0x3d3c179a	0.045920946
28	0xbe404ecb	-0.18780057
29	0x3e39251f	0.18080567
30	0x3e2acfdb	0.16680853
31	0xbe587795	-0.21139367
32	0x3d4083d4	0.04700072
33	0x3e3d1643	0.18465523
34	0x3e32f5f5	0.17476638
35	0xbe05e385	-0.13075073
36	0xbc83538a	-0.016031045
37	0xbe0c2f19	-0.13689841
38	0x3d252133	0.040314864
39	0x3cb89f95	0.022537032
40	0x3e3d9d60	0.18517065
41	0xbe5fb2e8	-0.21845591
42	0x3c386e3b	0.01125675
43	0xbe54dc8d	-0.20787258
44	0x3e3b91b8	0.18317306
45	0xbdaa5b34	-0.08318177
46	0x3e19d175	0.15021308
47	0x3dc62392	0.09674753
48	0x3d1a346b	0.037647646
49	0x3cead7e3	0.028667396
50	0x3da896ef	0.08231913
51	0x3c9ed3bf	0.019388078
52	0x3e1ed093	0.15509252
53	0xbdfb6d7e	-0.12276743
54	0xbe3f0060	-0.18652487
55	0xbdfc545f	-0.1232078
56	0xbe0c9b8a	-0.13731208
57	0x3e3f8839	0.18704309
58	0xbb0f614c	-0.0021878062
59	0xbe25306d	-0.16131754
60	0x3dd00145	0.10156492
61	0xbd4007e1	-0.046882514
62	0xbe047e6b	-0.1293885
63	0xbd8a61c3	-0.06756928
64	0x3e0397f8	0.1285094
65	0x3dbb4ae8	0.091451466
66	0xbd921424	-0.07132748
67	0x3e49ba85	0.19700058
68	0xbdd6f54d	-0.10496006
69	0x3dc4cfdc	0.096099585
70	0x3e1ad318	0.15119588
71	0xbe3a19a5	-0.18173845
72	0x3dc484a1	0.095956095
73	0x3e1037f3	0.14083843
74	0x3d23ebca	0.040019788
75	0x3d53dce9	0.05172435
76	0x3c3980a4	0.011322174
77	0x3e041e13	0.12902097
78	0x3e2120bf	0.15735148
79	0xbe50aeae	-0.20379135
80	0xbe57b1f8	-0.21063983
81	0xbe1beafb	-0.15226357
82	0x3e1aace5	0.15105017
83	0x3e4d304c	0.20037955
84	0xbc4bb48e	-0.012433184
85	0x3e2de300	0.16981125
86	0xbd0175df	-0.03160655
87	0xbe55a446	-0.20863447
88	0xbe3b94b8	-0.1831845
89	0xbc505d0e	-0.0127174985
90	0xbd75ca57	-0.06000742
91	0x3cca6ccc	0.024710082
92	0xbde9b978	-0.114123285
93	0x3e5bdce8	0.21470988
94	0x3bdb3737	0.0066899317
95	0xbd0738c7	-0.03301313
96	0xbe5f0368	-0.21778643
97	0xbe386ae7	-0.1800953
98	0x3d8facca	0.07015379
99	0xbd93bb81	-0.07213498
100	0xbe512332	-0.20423582
101	0xba11729e	-0.00055483903
102	0xbe02c749	-0.12771334
103	0xbcafe8a7	-0.021473242
104	0xbdc0e0ce	-0.09417878
105	0x3b841b05	0.0040315413
106	0x3d9cf4a7	0.07663851
107	0xbe1ac03b	-0.15112393
108	0x3e443957	0.19162498
109	0xbdecd799	-0.115645595
110	0x3dab1aa9	0.083546944
111	0xbe2bf304	-0.16791922
112	0xba59b83f	-0.0008305348
113	0xbdb65eca	-0.08904798
114	0xbe26028d	-0.1621191
115	0xbe31292c	-0.17300862
116	0xbda4b6ae	-0.08042656
117	0xbe4bbac3	-0.19895463
118	0xbdc8b77f	-0.09800624
119	0xbe262e89	-0.16228689
120	0x3dcae82c	0.099075645
121	0x3e51b7a6	0.20480213
122	0x3db76bb8	0.089560926
123	0xbe2b22e3	-0.16712527
124	0x3db16287	0.08661371
125	0xbe39a3da	-0.1812891
126	0x3e361435	0.17781146
127	0x3d62bb87	0.05535462
128	0x3e088c78	0.13334835
129	0xbdddd9bf	-0.108325474
130	0x3e33563f	0.17513369
131	0x3dada3ce	0.08478509
132	0xbc474b7a	-0.012163991
133	0xbe3bf27f	-0.18354224
134	0x3d8b04a4	0.067879945
135	0x3d3f4f30	0.04670638
136	0xbda5f021	-0.081024416
137	0x3d6ff15c	0.058579788
138	0xbe398315	-0.1811641
139	0x3e49fdb6	0.1972569
140	0xbd1a7441	-0.037708525
141	0x3e0bf971	0.13669373
142	0xbd60508c	-0.054764315
143	0xbd0f5d9a	-0.035001375
144	0xbc76def7	-0.015067807
145	0xbe3f773b	-0.18697827
146	0xbbb517e5	-0.00552653
147	0x3dbd3bb4	0.09239903
148	0xbcfb9376	-0.030709963
149	0xb8db08c4	-0.000104443665
150	0x3da5bb81	0.08092404
151	0xb9a66ced	-0.00031743143
152	0xbde350b3	-0.110993765
153	0xbe19b09f	-0.15008782
154	0xbd8fb504	-0.07016948
155	0x3bf8d068	0.0075932033
156	0x3dcd0b35	0.10011903
157	0x3e03a6fa	0.12856665
158	0xbe335e2b	-0.17516391
159	0xbde3a979	-0.11116309
160	0x3d0ccb9f	0.034373876
161	0x3e57a1af	0.21057771
162	0xbe3abe9b	-0.18236773
163	0xba5898cd	-0.0008262515
164	0xbb5ee54c	-0.0034011183
165	0x3e2e1409	0.1699983
166	0xbd8437b1	-0.06455935
167	0x3dc0fcfc	0.09423253
168	0xbe59a8dd	-0.21255822
169	0xbd84fa96	-0.06493108
170	0xbdb5ed00	-0.08883095
171	0xbd2ec85c	-0.042671546
172	0x3e0f891e	0.1401715
173	0xbe5df2f0	-0.21674705
174	0xbe439214	-0.19098693
175	0xbda612de	-0.081090674
176	0x3cab9871	0.020946713
177	0x3d157c47	0.036495473
178	0x3e58b2bb	0.2116193
179	0xbd01a7ee	-0.03165429
180	0x3e4a9282	0.19782451
181	0x3b7c669c	0.0038513308
182	0x3e30a8f2	0.17251948
183	0x3e2a7d52	0.16649368
184	0xbe0a1605	-0.13484962
185	0xbe523c11	-0.20530726
186	0xbe3c9da0	-0.18419504
187	0x3e2d0502	0.16896442
188	0x3ddadd52	0.10686745
189	0x3e2d2ac8	0.16910851
190	0x3db23f37	0.087034635
191	0xbcd5b6db	-0.026088169
192	0xbe24bc13	-0.1608737
193	0x3e25d17d	0.16193195
194	0xbdc9e943	-0.09858944
195	0xbe485214	-0.1956256
196	0x3d3759da	0.044763424
197	0x3e52f8b7	0.2060269
198	0xbddbc7a2	-0.10731436
199	0xbe3e3435	-0.18574603
200	0x3db11ad4	0.08647695
201	0x3dd7c702	0.105360046
202	0xbd70fbb7	-0.058833804
203	0xbd97d3d1	-0.07413448
204	0xbce81ebf	-0.028334973
205	0xbda15acf	-0.078786485
206	0x3c232802	0.009958269
207	0x3e5a36e3	0.2131
208	0x3e109baf	0.14121889
209	0x3c6f8fd6	0.0146216955
210	0x3e36fdcb	0.17870252
211	0x3bdef4a2	0.006804065
212	0x3d971340	0.073767185
213	0xbd010949	-0.031502996
214	0x3c7b35a3	0.015332612
215	0xbda26c7e	-0.079308495
216	0x3e28ea47	0.1649562
217	0x3e53e95d	0.2069449
218	0x3ce60129	0.028076725
219	0x3e430b81	0.19047357
220	0x3e4992f2	0.19684961
221	0x3df8bb78	0.12145132
222	0xbdc17658	-0.094464004
223	0x3d3fc339	0.04681704
224	0xbd6cdd4b	-0.05782823
225	0x3d179ea2	0.03701652
226	0x3e42abb8	0.19010818
227	0x3de6d552	0.11271156
228	0xbd5ea92f	-0.054360565
229	0xbe09730b	-0.13422792
230	0x3e0cb75b	0.1374182
231	0xbdadc6e3	-0.084852
232	0xbd9d7493	-0.076882504
233	0x3e2ff68d	0.17183895
234	0xbd81598d	-0.063159086
235	0xbe251373	-0.161207
236	0x3e5bedbe	0.2147741
237	0xbd8e4e9d	-0.06948588
238	0x3d9bc90c	0.07606706
239	0x3cb203e2	0.021730367
240	0xbd83bba9	-0.06432278
241	0x3e5020ad	0.20324965
242	0xbb6041a6	-0.0034218817
243	0x3c60bc72	0.013716804
244	0xbe0948f7	-0.1340674
245	0x3e05f4a9	0.13081612
246	0xbced8a83	-0.028996712
247	0xbceb170a	-0.02869751
248	0xbd3a6335	-0.045504767
249	0x3e251f15	0.16125138
250	0xbe2b8f00	-0.16753769
251	0x3d839d6a	0.06426509
252	0x3d184e88	0.03718427
253	0xbe312714	-0.17300063
254	0x3ccc8974	0.024967887
255	0x3cb5f484	0.02221132
