deep_learning/models/GCNLinkPrediction68.pth (torch, 225088 bytes, 6 tensors)

bias f4 [200]
00000000: c0b2 08bd b8c1 5abb 1626 8cbc 38c1 ca3d
00000010: 149d bd3c 421f 633d c7ec 91bd 8656 c0bd
00000020: bc4f 883d 4e64 113d b96b 913d 2b39 d0bd
00000030: f2b7 12be fa8c f0bd 10af 3ebd 56bc a73d
00000040: eccf e43d cbde 38bd 04a0 67bd ba50 b53b
00000050: 6c45 a2bd 3860 abbb 73b8 17bd f071 f13d
00000060: bda7 d4bc be74 dcbd fa33 0a3c b05e 6b3b
00000070: 501f f6bd bdde a0bd 96a3 6cbd 4638 bb3b
00000080: c015 203d 004d 723d 00b0 9b3d 1c5e 893d
00000090: 86ec 0f3e 5c1e b6bd 87c7 07be d0ac 94bd
000000a0: cb7f ed3d e670 3c3d dcdd 8ebc 0009 973d
000000b0: 667e a43d 4dce e93c ef51 f8bd 8e7c b8bd
000000c0: 6afa 6f3d f019 83bd 65b5 5bbd ce14 943b
000000d0: 78d6 d63d 16e7 153e 77c4 923d 0095 383a
000000e0: 088a ffbd f2e4 9bbd 354a 33bd 91fa 723d
000000f0: 5ed9 b43c 7dee 99bd 3483 b8bd 2489 c2bc
00000100: 3cf3 bbbb 81a4 48bd 7072 4dbd e8ba 833b
00000110: c933 b83d 97a6 d7bd 6ca9 15be 226c 703c
00000120: a2fd a3bd c0bb bf39 cd6c 03bc a50b cebc
00000130: 118f 933d da4c b13d 48cf 16bb 580b 293b
00000140: 8e99 433c d695 6ebc dcff d03d 40d5 2bbc
00000150: 9183 e53d 06cd 4bbd d813 a0bc 0caf 873c
00000160: b242 fc3c 94b1 9c3b 14ef cf3c f9e9 613d
00000170: 1d2b 22be 3213 00be 361e 213d 48d2 78bd
00000180: 98f8 e93b f044 443d 7535 ebbd 85cb 823d
00000190: 26f9 e03d f52a f43c acf2 203c 6d6e c8bd
000001a0: 60ba e33d d65e a5bd 0d18 cb3d 5f3d 3dbd
000001b0: b64b df3d 45ff e93d 7433 0b3d 5679 873d
000001c0: 86e9 5e3d 7632 b1bd 7a5b 603c ae2d 0abe
000001d0: 8f63 a9bd 0d9b d5bc ed4b a43c 803f 6f3c
000001e0: b847 15bd 661d 383d 7061 66bb 801e cdb9
000001f0: 1abe 12bd 8ccb 64bd 801e aab9 e80a 85bc
00000200: 832e fa3c 04ef 96bd fa4b 2b3d 6dd3 c7bc
00000210: 588b 26bb b6df 88bd 0018 acb8 fb0e b13c
00000220: 44f3 00be c425 b33d 48ae 893c 78fd 1bbe
00000230: 22ab 52bd 5e08 d43d 5cff 8abb 400c a63d
00000240: 61be 0e3d 9cd6 88bd 9d96 62bc bcbb e8bb
00000250: d736 ad3d 8c28 30bc fa12 093c 16c1 363c
00000260: 2708 a5bd 1216 5abc 013c 81bd 0610 2fbd
00000270: 3483 f93b 5c80 4dbb e995 2bbd 69d4 c6bc
00000280: b79a b9bd 8fcd 7d3d f9b0 843d f990 543c
00000290: b331 d6bd 4a6c a03d d66c 733d 62fb 95bc
000002a0: a489 df3c 18b4 20be a937 983d ea4e cdbd
000002b0: 9b38 e53d 8aa6 1abd b73e 54bd 3876 ae3d
000002c0: aad7 a53d 9326 5c3d f9f2 a6bd 2ce3 6c3c
000002d0: 383d c43d a40c cfbc 50a7 2d3c 4d9a 93bc
000002e0: e26c 98bd 80bb 8d39 de98 27be f238 3dbd
000002f0: 95b2 44bd b601 c9bc c951 19bd 37c7 81bd
00000300: b837 c03d a421 0dbe 7ac5 bbbc f8d5 57bd
00000310: f4ec d9bd 8e9c 603c 2d55 253e 4e9c c43d
-0.033373594 -0.0033379626 -0.017108005 0.09900135 0.02314619 0.05544973 -0.0712524 -0.09391503
0.06655833 0.03549605 0.071006246 -0.10167154 -0.14327982 -0.11745639 -0.04655367 0.08190219
0.111724705 -0.045134347 -0.056549087 0.005533305 -0.079233974 -0.005229976 -0.03704114 0.1178931
-0.02595889 -0.10764454 0.008435244 0.0035914592 -0.12017691 -0.07854984 -0.057773195 0.0057134954
0.039083242 0.059155464 0.07601929 0.06707403 0.1405507 -0.08892509 -0.13259707 -0.07259524
0.1159664 0.046006106 -0.017439775 0.073747635 0.08031921 0.028540755 -0.121250026 -0.09008132
0.058588423 -0.064014316 -0.05363979 0.0045190817 0.104901254 0.14638934 0.07166379 0.00070412457
-0.12477499 -0.07612027 -0.04377194 0.05932099 0.022076305 -0.07516191 -0.090094 -0.023747034
-0.005735783 -0.04898501 -0.050157964 0.0040200837 0.08994252 -0.10529821 -0.1461541 0.014674218
-0.08007361 0.00036570244 -0.008021546 -0.025152037 0.07205022 0.086572364 -0.0023011733 0.0025794115
0.011938466 -0.014562091 0.10205051 -0.0104878545 0.11206735 -0.049756072 -0.019540712 0.016562961
0.030793522 0.004781911 0.025382556 0.055154774 -0.15836759 -0.12507322 0.039335452 -0.060747415
0.0071402304 0.047917306 -0.114848055 0.063864745 0.10985021 0.02980564 0.0098234825 -0.09786687
0.111195326 -0.08074729 0.09916697 -0.046201106 0.109031126 0.11425642 0.033984616 0.0661494
0.054421924 -0.08652203 0.013693685 -0.13493988 -0.082709424 -0.02607491 0.020055735 0.014602542
-0.03644535 0.04494991 -0.0035153292 -0.0003912337 -0.035825826 -0.05585818 -0.0003244765 -0.016240552
0.030539757 -0.07369807 0.041820504 -0.024392808 -0.0025412645 -0.066832945 -8.2060695e-05 0.021613589
-0.12592798 0.087474376 0.016806737 -0.1523341 -0.051432736 0.103531584 -0.004241867 0.08107805
0.03484953 -0.066815585 -0.013829854 -0.007102458 0.084577255 -0.010751855 0.008366341 0.011154434
-0.080581956 -0.013310926 -0.06310273 -0.04273989 0.0076145176 -0.0031357026 -0.041891012 -0.024271207
-0.09062713 0.061963614 0.06479067 0.012974017 -0.10458698 0.078331545 0.059429966 -0.018308345
0.027287312 -0.156937 0.07432491 -0.10024817 0.11192437 -0.03775648 -0.051817622 0.08518642
0.08097775 0.053747725 -0.08151812 0.014458459 0.09581989 -0.025274582 0.010598972 -0.018017912
-0.07442643 0.00027033314 -0.16366908 -0.046196885 -0.04802187 -0.024536949 -0.037431512 -0.06336825
0.093856275 -0.13782364 -0.022921313 -0.05269429 -0.10640898 0.013709201 0.16145773 0.09600125

weight f4 [200, 18]
00000000: 15b0 a9bc 2887 e0bb d776 0ebc 9065 8bbb
00000010: 35fa a23c 5257 48bd f00d 423a 9249 843d
00000020: e4c1 5a3b b4f5 6f3c 54e0 3fbd f8b1 563b
00000030: 0137 61bc bfce b4bc 5b6a ae3c 4079 a7bc
00000040: ac14 c8bb b2ad 8abc 804f 8cbb c8d3 bc3a
00000050: 6ab7 043c f815 18bc 89e2 c23c 50a2 853a
00000060: c876 56bb 5bd4 4a3d ecfe 91bd 2ebe e23c
00000070: 713f 5e3d 8f07 93bd eab7 11bc 747f c3bc
00000080: 4629 003c c6c3 d7bc fa40 9dbd 9adf 1abc
00000090: f0a7 4abb 541f 00bc 7ed4 99bb 06e5 573d
000000a0: d8a9 433d c610 f2bc b0d9 38ba 7111 513d
000000b0: be2b 983d 5023 413d 1adb 573c 1c24 46bc
000000c0: e904 5d3d b0d0 36bb fbc6 02bc 0e0e 5e3c
000000d0: 380b 89bd 6b59 9e3d ba8e d03c 2a0f 7fbc
000000e0: 4293 293c 609b 12ba df39 98bd b64a 413c
000000f0: 18bf 8ebb 8561 643e 2015 ef3c 50c0 d23c
00000100: eb4d b83c 05ea 7abd 72c2 70bc 541b 33bd
00000110: f0af 45bc 6a28 cb3c f66b 4fbc ba9e dfbb
00000120: 3aaa a0bd 274b 9a3d 883a e83b 501e af3c
00000130: 8c5f a7bc 1107 c0bc 40f0 1b3c 0a13 133e
00000140: f467 5c3d 9ad8 49bc 13da 953d c95c a23d
00000150: baab 703c 54d7 56bd 0948 a43d a159 7f3d
00000160: f5fd 103c aa96 a03d 0e59 7abc 9cb7 c2bb
00000170: 8c5b 1dbc 217c debc 5217 4b3d 8599 353d
00000180: e692 6bbd a1bf 303e 9088 b43c da55 873c
00000190: 0a04 41bd 1b81 0a3d b45e a43d 481b a43d
000001a0: 98e6 5a3b 61e2 c8bc dcd9 9ebc 14f7 9c3b
000001b0: cfa2 0d3c 2a1e a9bc 27d5 d93c 2c75 5cbb
000001c0: e016 25bc df94 0f3d 5e0a 433d cc78 243e
000001d0: c657 0cbd 8abb 16bd cc71 95bd 0781 a2bc
000001e0: 7a0b 93bd 943f 843d a100 94bd 8e03 453d
000001f0: d0af 21ba 1211 2f3c a5e9 9dbd 0ed1 4d3c
00000200: 5893 c33a 8463 4ebc a03f 87bd dff3 1abd
00000210: a085 a03d 9c69 f6bd 2137 10bc 0012 87bc
00000220: c409 923d a52e 803d fdba 013c 7024 c53c
00000230: b8c5 a03d 06d7 bfbc 0c75 6bbd e4e9 ad3b
00000240: dfe3 8fbd 9600 be3c 9093 6b3b 9a7a 213d
00000250: a649 223d 8054 2d3d 66ac c43c 9090 193e
00000260: df59 7abd 364f 523c 9ea4 1bbc 58de e03b
00000270: ac36 503d a796 943c 04e3 8d3d 8806 493b
00000280: fabe 8d3b 2038 aabc 308d 1ebb 3502 a0bd
00000290: 043f a23d deb4 9d3d bec4 a23c 0072 b038
000002a0: 631c 8ebd b2dd 08be c49f 603d 41d7 663d
000002b0: 83ef ccbc 3e62 633c 800b 2dbb 100b 743d
000002c0: 027f a1bd 4998 86bc 60b4 663a ce48 cdbc
000002d0: 866d 893d 48fe 76bc 7a54 9fbc 2a63 293d
000002e0: 176b 823d 605b cbbc 9a5d f0bb 4ab0 0e3e
000002f0: 8278 c83c 4adb 903c 1205 bdbc f0bf 39bb
00000300: f010 c4bc 6ea7 afbc 6296 dc3c ea5e 763c
00000310: 8f3d afbc 8d92 c2bc f897 043c ff4c 963d
00000320: 5227 d13b b4ed 65bb 1ca0 b03c ae6e 9dbd
00000330: 3469 a03b f56f 9dbd 940a dfbc 0e5b 14bd
00000340: 1bf4 973d 145e 303c 0200 56bd b0d9 fe3a
00000350: 78ca 7c3c 28a8 9bbd 898c ccbc a710 99bd
00000360: 41fc c53c 8831 2bbb 8d78 a23d fc8d ebbc
00000370: 0aca a33d 21af 193d bcb4 903c 74e3 42bd
00000380: 068f 48bd 904d a7bd 09a7 30bd c4cf 1bbd
00000390: 274e 9dbd 800a a43b 9447 4ebc 73b9 9bbc
000003a0: f619 673d 8616 4ebc 3c86 72bb 1066 e43a
000003b0: 8cd4 1d3d 4b5c c7bc ec61 9d3c ee6c ee3c
000003c0: bb4f f13c 013a 9d3d abdb 8c3d d0e3 8ebd
000003d0: 2aba 9c3d 007d 8dbb d7ef 80bc b4ca f13b
000003e0: 7c10 0f3c 403a eb39 050c 0c3c 0622 8cbd
000003f0: 9e07 08bc c192 3a3d ab38 873d c8af 7dbc
-0.020713845 -0.0068520494 -0.008695326 -0.0042540506 0.019894699 -0.0489114 0.00074025895 0.06459345
0.0033379728 0.0146459825 -0.046844795 0.0032759886 -0.013746024 -0.02207124 0.021290949 -0.020443559
-0.00610598 -0.016928528 -0.004281938 0.0014406377 0.00810037 -0.0092825815 0.023789661 0.0010195468
-0.0032724608 0.049518924 -0.071287006 0.027678575 0.05425972 -0.07179176 -0.008893946 -0.023864485
0.00782234 -0.02633847 -0.07678409 -0.009452725 -0.0030922852 -0.007819969 -0.0046945205 0.05270865
0.047769397 -0.029549014 -0.0007051481 0.051042024 0.07430218 0.047152817 0.0131747965 -0.01209357
0.05395976 -0.0027895384 -0.007982011 0.013553156 -0.06691593 0.07731899 0.025458682 -0.01556758
0.01035005 -0.00055926107 -0.07432913 0.011797598 -0.0043562762 0.22302826 0.029184878 0.025726467
0.022498092 -0.061258335 -0.014694797 -0.043727234 -0.012065873 0.024799544 -0.012660017 -0.0068243416
-0.07844968 0.075338654 0.0070870556 0.021376759 -0.020431302 -0.02344087 0.009517729 0.14362732
0.053810075 -0.012319708 0.07316985 0.079278536 0.01468938 -0.052451447 0.08021552 0.062341336
0.008849611 0.07841237 -0.015280021 -0.005942298 -0.009604346 -0.027158799 0.049582787 0.04433586
-0.05751314 0.172606 0.022037774 0.01652043 -0.047122993 0.03381453 0.08025876 0.08013016
0.0033401605 -0.024522008 -0.019390993 0.004790196 0.008644774 -0.020644266 0.026590897 -0.0033639176
-0.010076255 0.035054084 0.04761731 0.16061705 -0.034263395 -0.036799945 -0.07297096 -0.019836916
-0.07179923 0.06457439 -0.072266825 0.048099093 -0.00061678607 0.010685222 -0.0771058 0.01256205
0.0014921231 -0.012596969 -0.066039324 -0.03783023 0.07837987 -0.12031862 -0.008802206 -0.016488075
0.07130769 0.06258897 0.007918117 0.024065226 0.07850212 -0.02341796 -0.05748467 0.005307423
-0.07025885 0.023193639 0.0035946108 0.039423563 0.039621018 0.042316914 0.024007987 0.14996552
-0.061120864 0.012836268 -0.009499697 0.006862443 0.05083339 0.018138243 0.069280654 0.003067406
0.0043257447 -0.020778716 -0.002419304 -0.07812921 0.079221755 0.07700513 0.019869205 8.413568e-05
-0.06939008 -0.1336582 0.054839864 0.056357626 -0.025016552 0.013878403 -0.002640456 0.059580863
-0.07885553 -0.016430037 0.00088006817 -0.02505913 0.06710343 -0.015075274 -0.019449461 0.041354336
0.06368082 -0.024823844 -0.007335377 0.13934436 0.024471525 0.01768269 -0.023073707 -0.0028343163
-0.023933858 -0.021442141 0.026927177 0.015037278 -0.021391658 -0.023751521 0.008092873 0.073389046
0.006382861 -0.003508431 0.021560721 -0.07687126 0.0048953537 -0.0768737 -0.027226724 -0.03621965
0.07419606 0.0107646175 -0.0522461 0.0019443538 0.015429132 -0.07600433 -0.024969356 -0.07473879
0.024168136 -0.0026122052 0.079331495 -0.028754227 0.0799752 0.03752053 0.017664306 -0.047580197
-0.048964523 -0.08169091 -0.043128047 -0.038039938 -0.07680922 0.0050061345 -0.012590308 -0.019009328
0.056421243 -0.012578612 -0.003700628 0.0017425437 0.03853278 -0.024336 0.019211732 0.029104676
0.029456964 0.07677079 0.06877836 -0.069770455 0.076526955 -0.0043178797 -0.015739365 0.0073789004
0.0087319575 0.00044866093 0.008547788 -0.06842427 -0.008302597 0.04555011 0.066026054 -0.015483804

bias f4 [200]
00000000: 8fd4 32bd e004 54bd a0f1 173c ee94 67bc
00000010: f9ff 9e3c 569e e9bc 186b 66bc 17e8 a3bc
00000020: 70a5 14bd b225 90bc dc8d b9bd 47da ecbd
00000030: 620a b7bc 0c09 13be f78f 85bd b9ad 1ebd
00000040: 3c78 dbbb 7e0b 1dbe cc3b 5dbd e54a c7bd
00000050: ce23 21be 31ff 19be 59fd 17bd a3e2 4bbd
00000060: b600 74bd b391 40bd 58cc 0cbe c701 bbbd
00000070: 6e2e 17be e28a 17be c863 3b3c 42ab 9cbc
00000080: 1bce fabc 687f 193c be06 153c ac7b 003d
00000090: c8fc 19bc cb47 3d3d ed80 26bd cb0b fcbc
000000a0: a219 91bd f510 51bd ff73 50bd a86e dfbd
000000b0: 05d7 96bd 66b6 0cbd ebdd 47bd ee05 15be
000000c0: c112 a1bc 48ab 14be 57f8 d73c 3772 1bbe
000000d0: 6679 f0bc 1a1d 03bd 627b aa3c 7244 77bc
000000e0: 57ad 26bd 5db9 b93c a4f1 ff3c 6ccc 19be
000000f0: 04c8 37bc b733 e7bc f950 85bc 0ca2 69bd
00000100: f29b c9bd 336a f8bc fb2a 20be 869a 99bc
00000110: a1a1 b93c f0a9 1abe da6e 21bd 9673 543d
00000120: d915 1dbe e60d 20be b71a d8bd c1ff 043d
00000130: 2019 dabc 543d e0bc 1a4c cdbc a126 08be
00000140: 2891 11be 40c0 febd 31b0 f9bc 2cd3 e2bd
00000150: ba56 1fbe e992 1cbe 82b5 1f3d 1d08 bcbd
00000160: 459f 8bbd 0b7d 22be c478 09be b514 26be
00000170: cb68 3cbd 42c4 31bd a41a 98bc c432 45bd
00000180: bbda 13bc 8592 373d dabc 11be a799 89bc
00000190: a4b6 23bb 1bac 133c cd6b 0bbe 71e3 25bd
000001a0: 3175 84bd 4827 4bbd ed71 f0bd fbd5 09be
000001b0: 6020 f73b 4c1e 6e3c 8ca1 1cbe e3d3 23be
000001c0: 4fba 08be 88e4 3cbd ba64 86bd 19eb c4bc
000001d0: a7f2 3fbd 80db c8bc 6a6c abbd c7fa f4bc
000001e0: 86cc 02bd 1c43 efbc 90a1 1dbd 3eb7 78bd
000001f0: d59d 913d c919 9cbd 168e 04bd 68b2 0fbe
00000200: 7066 95bd 29cd 07be 229a edbc 9068 0e3c
00000210: e208 01bd b0c3 27be a494 75bd 8a4f 213b
00000220: f46c 1b3d 347d 89bd 5a07 27be f0b3 ddbc
00000230: 04ce b43c 3626 12bd 411e 22be 6017 15be
00000240: d2ec 92bc a0ad 513a ad0a ce3a c2f1 e33c
00000250: cd15 1ebe edbc 44bd 1409 de3b 907d 83bd
00000260: 7410 90bd 1d64 02bd 2951 13bd 7b21 b1bd
00000270: f8f8 cabd 7d65 d8bd 8bc3 acbc a5ec bebc
00000280: c45b 4dbd b329 1dbd 487e 943d 663c bdbc
00000290: 6269 0ebb 2369 43bd 3f11 85bd 0def 443c
000002a0: 0dde 76bd b2e8 653c 5e0f 31bd 16a8 263d
000002b0: d297 f1bc 70fe a9bb f3b2 03be b875 01bd
000002c0: b694 31bd 85fc 82bd 728f cbbc d9de 0fbd
000002d0: da29 3cbc bec7 f7bd a8d3 50bd deae b8bd
000002e0: 8c9b 2b3d a9e9 91bc d1ba 8bbc 5f7f f5bc
000002f0: fdbd f6bc f0c9 29bd 29a9 8cbc a16a 1abe
00000300: 70ad 83bd 58ea 28bd 78f6 3cbd 8744 e9bd
00000310: edc6 ac3c 90c6 19be d54d 0cbe 1966 703c
-0.043659743 -0.05176246 0.0092739165 -0.014134629 0.019409167 -0.028517883 -0.014063619 -0.02000813
-0.036290586 -0.0175961 -0.09060261 -0.115650706 -0.022343818 -0.1435892 -0.065216 -0.038739894
-0.0066976827 -0.15336415 -0.054012105 -0.09731082 -0.15736315 -0.15038754 -0.037106846 -0.049776684
-0.05957099 -0.04701395 -0.13749826 -0.091311984 -0.14763805 -0.14799073 0.011437364 -0.01912463
-0.030615857 0.009368755 0.009095846 0.031367943 -0.009398647 0.046211045 -0.040650297 -0.030767342
-0.07084967 -0.051041562 -0.050891872 -0.10909778 -0.073652305 -0.034353636 -0.04879562 -0.14553043
-0.019662263 -0.14518464 0.026363535 -0.15180288 -0.029354762 -0.032010175 0.020810787 -0.015092002
-0.040692654 0.022671396 0.031243153 -0.15019387 -0.011217121 -0.028222902 -0.016273962 -0.057039306
-0.09844197 -0.030324077 -0.15641396 -0.01875044 0.022660078 -0.15103889 -0.039412357 0.051868044
-0.15340365 -0.15630302 -0.105519705 0.03247047 -0.026623309 -0.027372994 -0.025060702 -0.13295986
-0.14215529 -0.124390125 -0.030479522 -0.11075434 -0.15560427 -0.15290417 0.03899146 -0.09181235
-0.068174876 -0.15868013 -0.13424975 -0.16218837 -0.045998376 -0.043400057 -0.01856739 -0.048144117
-0.009024317 0.044817466 -0.14232197 -0.0167969 -0.0024980688 0.009013201 -0.13615341 -0.04050011
-0.06467665 -0.04959801 -0.117404796 -0.13460533 0.007541701 0.0145335905 -0.15296 -0.15998797
-0.13352321 -0.046116382 -0.06562181 -0.024037885 -0.04686227 -0.024518728 -0.08370288 -0.029904736
-0.03193333 -0.029206805 -0.038484156 -0.06072163 0.07110182 -0.07622106 -0.032362066 -0.140329
-0.07294929 -0.13261856 -0.02900416 0.008691922 -0.031502612 -0.16383243 -0.059956208 0.002461406
0.037945703 -0.06713334 -0.16311398 -0.02706334 0.022070892 -0.035680972 -0.15831853 -0.14559698
-0.01793519 0.00079985894 0.0015719734 0.02782524 -0.15438004 -0.048031736 0.0067759845 -0.064204335
-0.07034388 -0.031833757 -0.035966072 -0.08648964 -0.09910768 -0.10566232 -0.021089336 -0.0233062
-0.050136343 -0.038369846 0.07250649 -0.02310009 -0.0021730294 -0.047707688 -0.0649743 0.012019885
-0.060270358 0.01403253 -0.043227546 0.040687643 -0.029491339 -0.005187802 -0.12861232 -0.031606406
-0.043354712 -0.063958205 -0.024848673 -0.035124633 -0.011484588 -0.12098645 -0.0509831 -0.09017728
0.041896388 -0.017811613 -0.017056854 -0.029967962 -0.03011989 -0.04145235 -0.017170506 -0.15079738
-0.06429565 -0.041239113 -0.04613349 -0.11390024 0.021090949 -0.15017152 -0.13701566 0.0146727795

weight f4 [200, 200]
00000000: 908f e83a 3652 e7bc 807c 3aba 4ed8 00bc
00000010: e87d dabb 04bf 8d3c 8f5c cd3c 25e9 86bc
00000020: 1992 a4bc baef 38bc 5c38 4abc a05c ca3c
00000030: 4085 01ba d056 fcba d172 d4bc d63f 18bc
00000040: 44cb 77bd 0761 963c 7c51 e63b f019 afba
00000050: 105e 8f3a 7876 2ebb 0c85 edbc 8432 2a3d
00000060: c66a 30bc e0e2 bb3a 53d8 ea3c e05a 5fbc
00000070: 42bd 0ebd 4a92 653d f4f3 173d 4c2e 6dbd
00000080: 5c63 0dbc c264 bb3c 5d3d 223d 66c0 7b3c
00000090: c080 eaba 3c76 bebb 6418 80bc 16ca 23bc
000000a0: 9bbd 67bd 0001 a3b9 3d72 56bd 387b f93c
000000b0: 0071 3e39 402b 28bc 0249 963c 6a6b 9e3c
000000c0: 1b0d 3dbc 4609 c83b da64 4fbd fd12 18bc
000000d0: 1c2d a73b b0dd e03b 70c8 0d3c 22de 533c
000000e0: 88c9 a9bb 92d8 7fbc 4eea b2bc 2017 ec3c
000000f0: b80e 29bb ae64 4dbd 98b4 d5bb c8f5 91bb
00000100: 007a 3dbd bcac a03a 8a99 d03c 88fa 243b
00000110: 59d7 c23c 94aa 283c 548c 3e3d 9a6e a93c
00000120: 524c e23c 3ed7 3abd 6e05 ce3b f21c 21bc
00000130: b2db 2dbc ba05 7dbc facd 27bc e0f0 10ba
00000140: ba4b 99bc de45 19bb c0c0 92b9 9a4d 06bc
00000150: 8cd0 bebc 9098 223b 0cba e93c 811b a03c
00000160: 2ccb c43c ede6 b13c 5e7e b5bc 401a 1dbd
00000170: 30a9 51bc ba47 2a3d 364a 413c 6e85 86bb
00000180: 1367 77bc a5ef cd3c 5b61 7abc 666d f03c
00000190: a5c2 d33c 9cfa 5c3c a8e9 4b3b 7893 583b
000001a0: f5bc 1dbc be8c 38bc 2405 3a3c 465f adbc
000001b0: a8a9 b73b 703f 2fbc e0ac db39 fbc6 0c3d
000001c0: 1ae7 0a3d 9417 c43c 502b bc3b b69c b7bc
000001d0: a0af aebc a0d2 613d 98cc e3ba 6706 ad3c
000001e0: c739 67bd 8e1f 35bc 09d6 97bc 1c74 15bc
000001f0: e920 2cbd 01b0 5d3d 76b4 e73c 8413 dbbb
00000200: f045 0dbd 8ac4 49bd b0fc b5bb 11ab b13c
00000210: 1d1a 023d 47ee ce3c a810 a5bb d061 a63a
00000220: b259 0cbc e0b7 163b 46bc cd3c c400 3d3c
00000230: 40de 17ba d8eb 843b 4264 613d 1ad8 00bc
00000240: d079 4eba b8b7 903c f0fa c23c c8e1 c2bc
00000250: 9e4c b7bb 24e7 323c b4ca 6dbd 444a e03c
00000260: 1276 1bbc faab 03bc c6fd 1dbd 7670 23bc
00000270: 8017 f43c dedd 72bc ebbe acbc 0b79 3cbc
00000280: 0cbd 6ebc 60a6 6abc 65ec 3abc f012 953b
00000290: 69df a8bc 14fc d63b 6612 003d e4ff d1bb
000002a0: b6fc b73c 2033 763b eb62 bfbc 22a4 1dbc
000002b0: 7eb6 343d 7219 c73c db4a a3bc b03e 193c
000002c0: c761 03bd 2844 593c 16a0 c1bc c984 f9bc
000002d0: 3ca4 de3b 9e11 ad3c ec61 733c b09e 3abd
000002e0: 4908 4ebc 0c4c ff3b 60c6 33bb 52f2 91bb
000002f0: a1e3 ce3c 7236 fb3b f2bc 5a3d a094 69ba
00000300: 04f8 a8bc 0ec4 693c 0f1f 50bd da85 0dbd
00000310: 76e6 6ebd 98e1 843a 9c81 493d 4083 4e3d
00000320: 1bb2 88bc 510e 91bc 70a6 99ba d12a 453d
00000330: d321 3c3d feb3 8e3c 22c2 8ebc 87d5 69bc
00000340: 012c 153d 9482 dbbb b7a9 42bd 2cdf b9bc
00000350: 5a18 623c c0fc 963a f005 47bc f81b 52bb
00000360: d815 c5bc 1894 2dbc c077 c5ba 60dc 39bd
00000370: f493 273d dce5 0fbd ca22 2c3d 6962 183d
00000380: bac2 96bc 5aaf 30bd d66a 10bc ea9b 9c3c
00000390: c86b 09bb fe44 a2bb 5cc3 173c 8ee1 b43c
000003a0: 8865 533c 3c25 423c 1298 b53c aaa5 f1bb
000003b0: a4b4 2d3d a82c 073b c8f8 fdbb 9b24 09bc
000003c0: 7345 89bd 0894 8fbc ec7f a7bb c071 5dba
000003d0: edfd abbc 8640 1a3d ca28 f3bb e809 9b3a
000003e0: d4d3 c33c be10 2bbd fa29 a2bc 6569 73bd
000003f0: 06c3 d93c 61d7 31bc e6c9 543d a0c1 d2bc
0.001774298 -0.028237443 -0.0007113889 -0.007864071 -0.006667841 0.017302997 0.02506855 -0.016468594
-0.020089196 -0.011287624 -0.012342539 0.02470237 -0.0004940815 -0.0019251946 -0.025933655 -0.009292563
-0.060496584 0.018356813 0.0070287567 -0.001335917 0.0010938067 -0.0026620906 -0.028994106 0.04155208
-0.010767644 0.0014334582 0.028667605 -0.013632506 -0.03484846 0.056047715 0.037097886 -0.05790548
-0.008629646 0.022875194 0.0396093 0.015365696 -0.0017891154 -0.0058124345 -0.01563663 -0.0099969115
-0.056577306 -0.00031090528 -0.05235504 0.030454263 0.00018161908 -0.010264218 0.01834536 0.019338328
-0.011538769 0.006104621 -0.05063329 -0.009281871 0.005101813 0.0068623647 0.008653745 0.012931379
-0.005181495 -0.015615599 -0.02184024 0.02881962 -0.0025796127 -0.050144844 -0.0065217726 -0.0044543482
-0.046258926 0.001225851 0.025463838 0.0025173742 0.023784326 0.010294575 0.046520546 0.020682622
0.027624283 -0.045615427 0.0062872684 -0.009833561 -0.0106114615 -0.01544326 -0.01024198 -0.0005529057
-0.018712867 -0.0023387591 -0.000279909 -0.008197213 -0.023292802 0.0024810173 0.028531097 0.019544365
0.024022661 0.02171656 -0.022154983 -0.038355112 -0.012796685 0.04157231 0.011797478 -0.0041052615
-0.015100258 0.025138685 -0.015282 0.02934904 0.02584965 0.013487484 0.0031114612 0.0033046883
-0.00962757 -0.011264024 0.011353765 -0.021163594 0.0056049414 -0.010696277 0.00041899737 0.03436945
0.033911802 0.023937024 0.005742468 -0.022413593 -0.021323979 0.05513251 -0.0017379699 0.021121217
-0.056451585 -0.0110548865 -0.018534677 -0.009121921 -0.042023573 0.05412293 0.028284293 -0.006685676
-0.034490526 -0.0492597 -0.0055538043 0.021688016 0.031763185 0.025260104 -0.005037386 0.0012693945
-0.008566307 0.0022997782 0.02511419 0.011535827 -0.00057933107 0.004056435 0.055027254 -0.007864023
-0.0007876428 0.017665729 0.023801297 -0.023789302 -0.0055938503 0.010919366 -0.05805464 0.027379163
-0.009488599 -0.008036608 -0.038572095 -0.009975543 0.029796362 -0.014823405 -0.02108713 -0.011503468
-0.0145714395 -0.014321893 -0.0114089 0.0045493767 -0.020614343 0.006560812 0.031267546 -0.0064086784
0.02245937 0.0037567094 -0.023362597 -0.009621652 0.04411935 0.024304125 -0.019933155 0.009353325
-0.03207567 0.013260879 -0.023635905 -0.030458825 0.0067944806 0.021126565 0.014854889 -0.045561492
-0.0125752175 0.007791048 -0.0027431473 -0.0044539357 0.025255026 0.0076664025 0.05340285 -0.00089103915
-0.020626076 0.0142679345 -0.05081087 -0.03455148 -0.058325253 0.0010138033 0.04919587 0.05041814
-0.01668649 -0.017707022 -0.0011722576 0.048136536 0.045930695 0.017419811 -0.017426554 -0.0142721
0.03641892 -0.0066989157 -0.047525134 -0.022689424 0.013799751 0.0011519417 -0.012147412 -0.0032060128
-0.024058267 -0.01059439 -0.0015065596 -0.04537618 0.040912583 -0.03513132 0.042025365 0.037203226
-0.0184034 -0.04313598 -0.008814534 0.019117314 -0.0020968784 -0.004952072 0.009262886 0.02208021
0.012902625 0.011849698 0.02216724 -0.007374485 0.0424086 0.0020625982 -0.0077506043 -0.008370544
-0.067026995 -0.017526641 -0.005111685 -0.0008447431 -0.020995105 0.03765919 -0.007420634 0.0011828514
0.023904718 -0.041764013 -0.019795407 -0.059426684 0.026582252 -0.010854573 0.051950358 -0.025727093

bias f4 [25]
00000000: 0000 0000 0000 0000 0000 0000 0000 0000
00000010: 0000 0000 0000 0000 0000 0000 0000 0000
00000020: 0000 0000 0000 0000 0000 0000 0000 0000
00000030: 0000 0000 0000 0000 0000 0000 0000 0000
00000040: 0000 0000 0000 0000 0000 0000 0000 0000
00000050: 0000 0000 0000 0000 0000 0000 0000 0000
00000060: 0000 0000
0.0 0.0 0.0 0.0 0.0 0.0 0.0 0.0
0.0 0.0 0.0 0.0 0.0 0.0 0.0 0.0
0.0 0.0 0.0 0.0 0.0 0.0 0.0 0.0
0.0

weight f4 [25, 200]
00000000: 07d6 373d f708 0b3c 8ce4 77bd 89ae 9abd
00000010: 5e14 fe3c f43b 70bd f4fa 97bd 3838 17be
00000020: 46b2 50bd f1b7 c1bd 0fd6 cdbd fbe5 94b9
00000030: 9ce3 133e 1460 26be fadf b1bc 120a c63d
00000040: 2416 64bd 13e2 fa3c a0e5 ed3d 047d d5bb
00000050: f7e4 9fbd 1310 0dbe ac23 d1bd bd6d 6bbd
00000060: 0289 babd 9413 7d3d cd9c 74bd b89a 823c
00000070: 0cc6 1d3e b1bb f7bd d348 bf3d 4675 0d3e
00000080: 46cf 1c3e f8ae da3d 083d a73d aa3e 9abd
00000090: 87fd ec3d e87a a0bd 37bc e23c 30f1 c9bd
000000a0: 388d 13be 11e0 06be 5266 df3c af33 ea3d
000000b0: 9f1f f53d 9a2b 17be 4644 3bbd d724 afbd
000000c0: d08a 113e 14d6 c03c 20b5 993d 554e d0bc
000000d0: 842a 13be abf1 1ebe 0217 0fbe a159 b93d
000000e0: 78db 4a3d e387 ae3d b186 84bd 9131 dfbd
000000f0: 04f9 a1bd 42b3 13be 602e c6bd 503d d2bd
00000100: 9245 8f3d 039f 893b c2a5 d8bd 835b ebbd
00000110: c9ae f53d 209a 92bd e7aa 123e 71e8 b83d
00000120: a50d 0dbe 91fd 01be 68c2 133e 210b 083e
00000130: ada1 0d3b f2b1 acbd 9ea5 293d d83d b3bc
00000140: c1a2 173e 387a 36bd b704 023e 2609 e8bd
00000150: 1881 bcbd 6ee9 82bc d613 19bd e4cd fc3c
00000160: 7699 0b3e a5b4 db3d ed46 bbbc 5df6 c53d
00000170: 9e6f f53d 31f1 0b3e c2df cbbd d17b 09be
00000180: 51ba 6cbd 37c1 29bc 1f4e 213e 4644 26be
00000190: 702e 11bd 126a 4bbd f284 243e f4f9 013d
000001a0: 6496 a13d d692 c23d 7602 b13d 5eb1 003e
000001b0: 08b5 073c 3836 023e 6b34 c7bd da6d 02be
000001c0: ef9d a9bd 68b4 923d 6d4d 25be 7b21 b3bd
000001d0: 1baa 4b3d e672 153e 8c9c 633d 58cf 573c
000001e0: b3e3 9f3d 5d16 cd3d 01b0 e1bd 643c b1ba
000001f0: c55c 943d 8278 f43d b00c 20be 9cbf 9f3d
00000200: 6b7b f13d 7541 8bbd 5f97 e3bd f7a6 1c3d
00000210: 349a 7f3c db2b 00be 473d 0d3e 1011 73bd
00000220: 7d0e 87bd c4a9 ed3d bf3f e6bd ce4b 02bd
00000230: 6f85 b03d dda3 b63b e862 34bd 51a5 d23c
00000240: fed5 efbd 4210 efbc d41b 88bd cbd7 98bd
00000250: 1440 dfbd 2b7b ccbd 75d8 0bbd 13b4 cf3d
00000260: cfd6 d03c b64a 703d e903 f8bd 811b 9ebd
00000270: 5397 133e d5b0 bebd 44e6 8f3d 253a b6bd
00000280: 4c9e 85bd 84de 80bd dc00 813d 09ec bd3d
00000290: 9486 a33d a88e 9d3d 1970 fe3d e705 753d
000002a0: 8f7c 633d f46b f8bd 3e70 94bd fe98 20be
000002b0: 73d5 1b3e fc61 febd 0ed2 31bd 4032 233e
000002c0: e45c 8f3d dbc6 b03d 346b bd3d 7443 babd
000002d0: 9f95 fb3d 2233 c7bd 44d7 523d 2cb7 36bd
000002e0: c0f2 dfbd e37a 1abe 2f0c 353d 8ba1 cfbd
000002f0: dde8 89bc 0bd4 7b3c 59d8 76bd e25a 0c3e
00000300: 9c50 9f3d 4ae7 0cbe c0e4 11be 36ff 713d
00000310: 6492 4dbd a0ec 0d3e 452d 983d 9c8d 0a3e
00000320: 9519 01be 675b ce3d 61d2 34bd bed5 0d3e
00000330: 789a fcbd 4b0e 103c 3428 89bd a992 69bb
00000340: 4232 753d dafa 7dbc 6569 37bd f63d 5d3d
00000350: 64c5 16be b167 5cbd 19b5 c6bd d47d 7f3d
00000360: 1c31 733d 42a8 f73d 0820 563d c38d e9bb
00000370: a618 fdbd f96a d53d be29 66bc d838 123e
00000380: 0e7f 06be 88d6 8dbd 6f6b 143e 9475 1e3e
00000390: d751 a2bc 7e03 813c 3afa 8e3d 3bb9 77bd
000003a0: 46ff 11be 9a2a 92bd c254 9d3d fd6e 3c3d
000003b0: 20f5 adbd 12d8 c1bd f084 c83d 993d 79bd
000003c0: 0e0a a03d 7c25 cf3d b0d9 773d 6ef0 55bd
000003d0: d0c7 90bd 900b e2bb 1114 81bc 6fc8 b8bd
000003e0: e475 27bd d00b 183e f90d b63d 0646 18be
000003f0: 3871 93bd 8e2e 073d d4d2 4bbd 73b7 f0bd
0.044881847 0.008486024 -0.060520694 -0.07552821 0.031015571 -0.058650926 -0.074209124 -0.1476754
-0.050951265 -0.09458912 -0.10050594 -0.0002840011 0.14442295 -0.16247588 -0.021713246 0.096698895
-0.055685177 0.030625379 0.11616063 -0.006515147 -0.078073435 -0.13775663 -0.10211882 -0.0574777
-0.091081634 0.06178625 -0.05971985 0.015942916 0.1540758 -0.12096346 0.09340062 0.13814268
0.15313444 0.10677904 0.08165938 -0.075314835 0.11571794 -0.078359425 0.027677638 -0.09860456
-0.1440934 -0.13171412 0.02727047 0.11435639 0.11968922 -0.14762726 -0.045719407 -0.085519485
0.14213109 0.02353958 0.0750525 -0.025427977 -0.14371687 -0.15521877 -0.1397362 0.090502985
0.049525708 0.08522012 -0.06471003 -0.10898126 -0.07908824 -0.1442385 -0.09676814 -0.10265601
0.06995691 0.004199864 -0.10578491 -0.11492064 0.11996228 -0.07158303 0.14323007 0.0902871
-0.13774736 -0.12694384 0.14429629 0.13285495 0.002161126 -0.08432378 0.04141771 -0.021880075
0.1480818 -0.04455015 0.12697111 -0.1132987 -0.0920431 -0.015980449 -0.037372433 0.030859895
0.1363276 0.107278146 -0.022860968 0.09666131 0.1198418 0.13666226 -0.09954788 -0.13426138
-0.057794873 -0.010361007 0.15752457 -0.16236982 -0.035444677 -0.049661703 0.1606634 0.031732515
0.07890013 0.09500663 0.086430475 0.1256766 0.008282907 0.12715995 -0.09726795 -0.12737218
-0.082820766 0.07163316 -0.16142817 -0.0874662 0.049722772 0.14594612 0.055569217 0.013171993
0.07807102 0.10014031 -0.11019898 -0.0013522026 0.07244257 0.119370475 -0.1562984 0.078002185
0.11791118 -0.06799594 -0.11112856 0.038245168 0.01560073 -0.1251673 0.13792907 -0.059342444
-0.0659456 0.11604646 -0.11242627 -0.031810574 0.086192004 0.0055737332 -0.044039637 0.025713595
-0.11710738 -0.029182557 -0.06645933 -0.07463034 -0.10900894 -0.0998443 -0.034141976 0.10141768
0.025493054 0.058665 -0.12110121 -0.0772009 0.14413194 -0.09311072 0.070263416 -0.08897809
-0.06524333 -0.062924415 0.06298992 0.09273536 0.07984653 0.07693225 0.12423725 0.059820082
0.05553871 -0.121299654 -0.07247971 -0.15683362 0.15218143 -0.12421033 -0.043413214 0.15937138
0.07000139 0.08631679 0.09248963 -0.09094897 0.12284397 -0.0972655 0.051474825 -0.04460828
-0.10934973 -0.1508594 0.044201072 -0.10138234 -0.01683467 0.015370379 -0.06026492 0.13706544
0.07779047 -0.13760105 -0.14247417 0.05908128 -0.050188437 0.13859797 0.074305095 0.13530582
-0.12607415 0.10076027 -0.044145945 0.13851067 -0.1233415 0.00879247 -0.06697121 -0.0035640395
0.059862383 -0.015501702 -0.044778246 0.05401417 -0.14723736 -0.053809825 -0.097025104 0.06237586
0.059373006 0.120926395 0.05227664 -0.007127495 -0.12358217 0.10420794 -0.014048038 0.14279497
-0.13134405 -0.06925684 0.14494108 0.1547454 -0.019814415 0.015748736 0.06981321 -0.060479384
-0.14257535 -0.07137032 0.07682182 0.046004284 -0.084940195 -0.0946504 0.09790981 -0.06084976
0.07814418 0.101145715 0.060510337 -0.052231245 -0.07069361 -0.006898351 -0.015756639 -0.09022605
-0.040883914 0.14848256 0.08889384 -0.14870462 -0.07199329 0.033003382 -0.04976161 -0.1175374
