deep_learning/models/GCNLinkPrediction49.pth (torch, 87104 bytes, 6 tensors)

bias f4 [100]
0	0xbd15b47c	-0.036549076
1	0xbbf4ffb3	-0.007476771
2	0xbd1c4c51	-0.03815872
3	0x3d6c4314	0.05768116
4	0xbcd01811	-0.0254021
5	0xbc99b3d0	-0.0187625
6	0xbce4a1dd	-0.027909214
7	0x3b793d35	0.0038030867
8	0xbcad9ef6	-0.021193963
9	0xba91c525	-0.0011121376
10	0xbc19c9cd	-0.009386492
11	0xbc040c02	-0.0080595035
12	0xbcd9bea8	-0.02658017
13	0x3d190ec6	0.037367605
14	0x3c22ca24	0.009935889
15	0xbd6df687	-0.058096435
16	0x3abd4b10	0.0014441926
17	0xbcbc1d25	-0.022963116
18	0xbd141ac2	-0.03615833
19	0xbccc82aa	-0.02496465
20	0xbc16680d	-0.009180081
21	0xbc498bdb	-0.012301411
22	0xbd136ffc	-0.03599547
23	0xbd0d0fae	-0.03443878
24	0xbb2cdcb4	-0.0026376667
25	0x3ca0e856	0.019642036
26	0xbd3aa81d	-0.04557048
27	0x3d32cdfe	0.04365348
28	0xb9cbb4e0	-0.0003885394
29	0x3c684afe	0.014178036
30	0x3cf8a27d	0.030350918
31	0x3cf2ef1d	0.029655034
32	0xbc7077f3	-0.014677036
33	0x3b91965b	0.0044429726
34	0x3cc3c18e	0.023896005
35	0x3cc2c0e7	0.023773624
36	0x3bac2bb1	0.005254232
37	0xbd406ce2	-0.04697884
38	0xbd7c1b71	-0.061549608
39	0xbcda09f5	-0.026616076
40	0x3d3ed3ea	0.046588816
41	0x3c842817	0.016132398
42	0x3cbb3f58	0.022857353
43	0x3b90e2ce	0.0044215685
44	0xbc2d8ed0	-0.010593131
45	0x3cade3d4	0.021226801
46	0x3cf3a4c6	0.029741656
47	0x3bf5a6ae	0.0074966764
48	0xbd2d718f	-0.042344626
49	0x3c82a617	0.015948338
50	0xbcc7e9e8	-0.024403527
51	0x3d1fb46a	0.038990416
52	0xbd5ca2e1	-0.05386627
53	0x3c9e3ced	0.019316161
54	0xbcf48ff0	-0.029853791
55	0xbba43b40	-0.005011946
56	0xbc84b8f1	-0.016201468
57	0xbd38a4bd	-0.04507898
58	0xbc0d884f	-0.0086384555
59	0x3d18e9b9	0.03733227
60	0xbc06f014	-0.00823595
61	0x3b4297c6	0.0029692515
62	0xbd3e9c19	-0.046535585
63	0x3d1b6fbe	0.037948363
64	0xbd570006	-0.052490257
65	0x3d1c79da	0.038202144
66	0xbcb1d6c7	-0.02170886
67	0x3d5d08b7	0.05396339
68	0x3acea63c	0.0015766094
69	0xbcef6480	-0.029222727
70	0x3d057b4f	0.0325883
71	0x3c813715	0.015773335
72	0xbcfaec5c	-0.030630283
73	0xbaea0e76	-0.0017857093
74	0x3b8c90aa	0.0042897062
75	0x3beca3fa	0.007221696
76	0xbd0dc360	-0.034610152
77	0xb9bc06b8	-0.0003586316
78	0x3c2a94a1	0.010411412
79	0x3cef80b5	0.029236177
80	0x3cfa766d	0.030574048
81	0xbb893718	-0.004187476
82	0xbb4a7180	-0.0030890405
83	0xbaa928e6	-0.0012905865
84	0x3c197672	0.0093666185
85	0xbc68e378	-0.014214389
86	0xbbd069d4	-0.006360272
87	0xbc111feb	-0.0088577075
88	0xbd30d31d	-0.043170083
89	0xbccaf58c	-0.024775289
90	0x3d0bee3d	0.03416275
91	0xbd110e0c	-0.035413787
92	0xbbc09404	-0.00587702
93	0x3d4a73d1	0.049426857
94	0x3d0c96bf	0.03432345
95	0xbcd2b726	-0.025722098
96	0xbd0af1ae	-0.03392189
97	0x3b385afb	0.00281304
98	0x3d0a5b9c	0.03377877
99	0xbcc2572a	-0.023723204

weight f4 [100, 18]
0	0xbd450163	-0.048097026
1	0x3cd0b696	0.025477689
2	0xbdb77658	-0.08958119
3	0xbe1da2ac	-0.15394086
4	0xbced117d	-0.028939003
5	0xbdc1f63a	-0.09470792
6	0x3b57403f	0.003284469
7	0xbe2ff50c	-0.17183322
8	0x3e0d7f99	0.13818206
9	0x3c918310	0.01776269
10	0xbd9c6cdb	-0.0763795
11	0x3e1694d4	0.14705211
12	0x3e116887	0.1420003
13	0x3e059527	0.13045178
14	0x3e235199	0.15949096
15	0xbda37060	-0.07980418
16	0x3d952235	0.07281915
17	0x3d3142a9	0.043276463
18	0xbdc35e79	-0.095395036
19	0x3d9695c7	0.073527865
20	0xbe4d7cc8	-0.20067132
21	0xbdfdfdc1	-0.12401915
22	0xbe241052	-0.1602185
23	0xbdcbc6bd	-0.09950016
24	0x3e1aab88	0.15104496
25	0xbe655cd5	-0.22398694
26	0xbd0ed050	-0.03486663
27	0x3e591d25	0.21202524
28	0xbdb21b9b	-0.086966716
29	0xbc8cd86b	-0.01719304
30	0xbbeacb82	-0.0071653733
31	0xbe365831	-0.1780708
32	0x3e25dd9c	0.16197819
33	0xbe3b3aab	-0.18284099
34	0x3dc6f70b	0.097150885
35	0x3bc40aac	0.0059827175
36	0xbe1ee764	-0.15517956
37	0xbe082df4	-0.1329878
38	0x3e8d00d4	0.27539694
39	0xbd292011	-0.041290347
40	0xbddd110c	-0.10794267
41	0x3df936bd	0.121686436
42	0xbba5bdb0	-0.005058013
43	0xbd56f707	-0.052481677
44	0x3e860c0f	0.26181075
45	0x3e0cc930	0.13748622
46	0x3e291732	0.16512755
47	0xbe04b3a4	-0.12959152
48	0x3d728770	0.059211195
49	0xbe176a32	-0.14786604
50	0xbe2ddd99	-0.16979064
51	0x3dd8825c	0.10571739
52	0x3df0bb8f	0.11754524
53	0xbe1c4805	-0.15261848
54	0x3b0fe908	0.0021958966
55	0x3e38b8e1	0.18039276
56	0x3ca39522	0.019968573
57	0x3cd8f1bd	0.026482457
58	0xbd57e7f6	-0.05271145
59	0x3e50c063	0.2038589
60	0x3dc43a8f	0.09581482
61	0xbe616b9a	-0.22013703
62	0xbb3614f4	-0.0027783485
63	0xbd692dff	-0.05692863
64	0xbe422f49	-0.1896335
65	0x3e368b64	0.17826611
66	0xbd60fb8b	-0.05492739
67	0xbd1ac56c	-0.037785932
68	0xbe24be40	-0.160882
69	0x3e4f93c7	0.20271216
70	0x3e09806f	0.134279
71	0xbd4f45d9	-0.05060372
72	0xbdd89239	-0.10574765
73	0xbcb51e47	-0.022109164
74	0xbe50e1e7	-0.20398675
75	0xbe11e9d5	-0.14249356
76	0xbd94e614	-0.072704464
77	0x3de00b8c	0.109397024
78	0xbbb6b556	-0.005575816
79	0x3e3137ae	0.17306396
80	0xbcad9396	-0.021188539
81	0xbdd84432	-0.10559882
82	0x3d62de41	0.05538774
83	0x3e0ea122	0.13928655
84	0x3e23a1f3	0.15979747
85	0x3e23e496	0.16005167
86	0x3da1c324	0.07898548
87	0x3e0f2f90	0.13982987
88	0x3dc828fe	0.09773444
89	0xbe2a48b2	-0.16629294
90	0x3d01a087	0.03164723
91	0x3cc3dae1	0.02390808
92	0xbe7534bb	-0.23945896
93	0x3db5e692	0.088818684
94	0xbd1bcf43	-0.038039457
95	0x3e4b6ba2	0.19865277
96	0x3e2821e5	0.1641918
97	0x3d87908f	0.06619369
98	0x3e53592b	0.20639484
99	0x3e281a43	0.16416268
100	0xbe5afc6b	-0.21385352
101	0x3e3bc41a	0.18336526
102	0xbe23ae3c	-0.15984434
103	0xbd639f7e	-0.055572025
104	0xbd62d6e2	-0.05538071
105	0x3e483c40	0.19554234
106	0xbda4de90	-0.08050263
107	0x3e2c884e	0.16848871
108	0xbd427d11	-0.047482554
109	0xbe6419f4	-0.22275525
110	0x3e22e552	0.15907791
111	0xbe619d96	-0.2203277
112	0xbd860436	-0.06543772
113	0x3e10f53f	0.14156054
114	0xbe71c500	-0.23610306
115	0xbe16198f	-0.14658187
116	0xbd715e0b	-0.058927577
117	0x3d077ef6	0.033080064
118	0x3e137c2e	0.1440284
119	0xbca536b5	-0.020167688
120	0xbbb7b6a2	-0.0056064883
121	0xbe277e21	-0.16356708
122	0xbe45d618	-0.19319952
123	0xbe1dccc7	-0.15410148
124	0x3da9c449	0.082893915
125	0xbe79a18b	-0.2437803
126	0x3cd02cc6	0.025411975
127	0x3e4cf3a7	0.20014821
128	0xbe603aef	-0.21897481
129	0xbe10348a	-0.14082542
130	0x3e046a90	0.12931275
131	0xbe88fb19	-0.26754072
132	0xbe4a2324	-0.19739968
133	0x3e1aea44	0.15128428
134	0xbd7af321	-0.061267022
135	0x3dc2ddab	0.09514936
136	0xbddec51f	-0.108774416
137	0x3dde2dca	0.10848577
138	0xbe63546c	-0.22200173
139	0x3e41df4c	0.18932837
140	0x3d0d6a25	0.034525055
141	0xbd8c158f	-0.068400495
142	0xbe1ab254	-0.1510709
143	0x3b101fed	0.0021991685
144	0x3dd419f6	0.10356514
145	0xbdac2e9b	-0.08407327
146	0xbe3e8b40	-0.18607807
147	0xbde78621	-0.1130488
148	0x3ccea978	0.025227293
149	0x3e2499f8	0.1607436
150	0xbcf3811e	-0.029724654
151	0xbdccd6fa	-0.10001941
152	0x3e0702e9	0.13184704
153	0xbd8d6bcb	-0.069053255
154	0xbe3c5af6	-0.18394074
155	0x3dc3125d	0.09524987
156	0x3daec898	0.08534354
157	0xbce8b63d	-0.02840721
158	0x3dc2820e	0.09497462
159	0x3dfb4690	0.12269318
160	0xbde610ac	-0.11233649
161	0x3de07c3f	0.10961198
162	0xbd79f542	-0.06102491
163	0xbdd8342e	-0.105568275
164	0x3b240870	0.0025029443
165	0xbc3ff754	-0.011716682
166	0x3de3bde9	0.11120207
167	0xbe04b9f4	-0.1296156
168	0x3dd6df96	0.104918644
169	0xbe58da65	-0.21177061
170	0x3da70c8d	0.08156691
171	0x3e03d8e4	0.12875706
172	0xbde09aac	-0.10967001
173	0xbd403a9b	-0.04693089
174	0xbe174c03	-0.1477509
175	0xbc909e38	-0.01765357
176	0x3de617dc	0.112350196
177	0x3d843e61	0.0645721
178	0x3e0ed3b2	0.13947943
179	0xbda48cb3	-0.08034649
180	0x3da86102	0.08221628
181	0x3da59f8d	0.080870725
182	0x3e2cdc08	0.1688081
183	0x3dba8204	0.0910683
184	0xbe4b70c8	-0.19867241
185	0x3e6b7651	0.22994353
186	0x3cb40b44	0.021978028
187	0xbd968e19	-0.07351322
188	0x3bbcff73	0.0057677566
189	0x3e52ab6b	0.20573203
190	0x3e0575bb	0.13033192
191	0x3dd31be8	0.10308057
192	0xbdbf0247	-0.09326606
193	0xbaf1b634	-0.0018441142
194	0x3c341072	0.010990249
195	0xbdcd34fc	-0.100198716
196	0xbd42de1a	-0.047575094
197	0xbc413ace	-0.011793805
198	0x3df2f1d9	0.11862535
199	0xbe2ed1a3	-0.17072158
200	0x3d2b1261	0.041765574
201	0x3e08609d	0.13318105
202	0xbe435094	-0.19073707
203	0xbe56932f	-0.20954584
204	0x3d14a680	0.0362916
205	0xbe3100b6	-0.17285427
206	0xbe7341ae	-0.23755524
207	0x3c750e6d	0.014957053
208	0xbe3cb1f2	-0.18427256
209	0x3e0344bd	0.1281919
210	0x3ca48ed2	0.020087633
211	0xbe62022e	-0.22071144
212	0x3dcd2045	0.100159205
213	0x3e2d6c0b	0.16935746
214	0x3e40fdce	0.18846819
215	0xbcd4abd1	-0.025960835
216	0x3e73c1bd	0.23804374
217	0xbc345bcb	-0.011008213
218	0xbc444794	-0.011979956
219	0x3d59c984	0.053170696
220	0x3e6a0ea3	0.22857146
221	0x3e794272	0.24341753
222	0x3e0a741b	0.13520853
223	0x3e2577fd	0.16159053
224	0x3dee3af1	0.11632336
225	0x3e08f82e	0.13375923
226	0xbe10c9fc	-0.14139551
227	0xbe42de0b	-0.19030015
228	0xbd17029f	-0.036867734
229	0xbe363586	-0.17793855
230	0x3e1c2ba7	0.15251027
231	0xbd1bfe1c	-0.038084134
232	0x3dfab5fc	0.12241742
233	0x3d3a29f0	0.04545015
234	0x3e81a2bc	0.2531947
235	0x3d9e61be	0.077334866
236	0x3e876af8	0.26448798
237	0xbd68cafe	-0.056834213
238	0x3e677ba6	0.22605762
239	0x3d6d9bd6	0.058009945
240	0xbe33dc51	-0.17564513
241	0xbe1c7039	-0.15277185
242	0x3d483b0e	0.048884444
243	0xbe1b6d13	-0.15178327
244	0x3df09852	0.11747803
245	0xbe0df550	-0.1386311
246	0xbddcbe45	-0.107784785
247	0x3e65d3de	0.22444102
248	0x3db16e90	0.08663666
249	0x3e83279f	0.25616166
250	0x3d647cce	0.055783086
251	0xbe0e3c4a	-0.13890186
252	0x3d908efa	0.070585206
253	0xbd863553	-0.065531395
254	0xbe18a47b	-0.14906494
255	0x3e3e922b	0.18610446

bias f4 [100]
0	0xbbb9362f	-0.005652211
1	0xbd1d15a4	-0.038350716
2	0x3c1dc468	0.009629346
3	0xbceee4b8	-0.029161796
4	0xbcb395a7	-0.021921946
5	0xbd0e88ef	-0.03479856
6	0x3b2049ec	0.0024458123
7	0x3c0a76bf	0.008451163
8	0xbce821dd	-0.02833646
9	0xbccec47e	-0.02524018
10	0xbd0b2af8	-0.033976525
11	0xbd059384	-0.032611385
12	0xbd524d96	-0.051343523
13	0xbd048d68	-0.032361418
14	0xbcfceaa7	-0.03087361
15	0x3c888213	0.016663587
16	0xbb5f9a03	-0.0034118898
17	0xbcec4972	-0.028843615
18	0xbaff710a	-0.0019488644
19	0xbcbdfe81	-0.023192646
20	0xbd69b247	-0.057054784
21	0x3c10496a	0.008806566
22	0xbc1e93e2	-0.009678813
23	0x3b8d7c8f	0.004317827
24	0xbb8eb359	-0.004354876
25	0xbbdc899a	-0.0067302706
26	0xbc5928a2	-0.0132543165
27	0xbc0deb4f	-0.008662059
28	0xbaa1f1f4	-0.0012355433
29	0xbca43949	-0.020046847
30	0xbc5258a6	-0.012838518
31	0xbc115ddf	-0.008872478
32	0xbd42b8ba	-0.04753945
33	0xbd124397	-0.03570899
34	0xbc7a17b8	-0.015264444
35	0xbbc1fb8a	-0.0059198784
36	0xbd188034	-0.03723164
37	0xbd012e2d	-0.031538177
38	0xbc53db4e	-0.012930704
39	0xbcce1977	-0.025158627
40	0x3c31c991	0.01085128
41	0xbcfd0b70	-0.030889243
42	0xbcff92dd	-0.03119796
43	0xbd32345b	-0.04350696
44	0xbbe272ee	-0.0069106733
45	0xbd4d995e	-0.05019509
46	0x3bead468	0.007166434
47	0xbc0cc8ef	-0.008592828
48	0xbd1c424a	-0.038149156
49	0xbd0863d4	-0.03329833
50	0xbd0d473c	-0.034491763
51	0xbcfafaba	-0.030637134
52	0xbcf76252	-0.03019825
53	0xbc4b82c8	-0.012421317
54	0xbd09451b	-0.03351317
55	0xbca733cf	-0.020410446
56	0xbd02588e	-0.031822734
57	0xbbdf2854	-0.0068102274
58	0xbc9e6478	-0.019335017
59	0xbc7fb9e8	-0.015608288
60	0xbc0dc686	-0.008653289
61	0xbd037f7b	-0.032103997
62	0x3b4fb37a	0.003169267
63	0xba9c8958	-0.0011942787
64	0xbc869bb0	-0.01643166
65	0xbd218f1d	-0.039443124
66	0xbcb5c814	-0.022190131
67	0xb9893a40	-0.00026174076
68	0xbd6915e7	-0.056905653
69	0x3c7187a3	0.014741811
70	0x3bd054b0	0.006357752
71	0xbd098bc1	-0.033580545
72	0xbd3c4e12	-0.04597289
73	0xbd011150	-0.03151065
74	0xbc9777f2	-0.018489812
75	0xbd098309	-0.03357223
76	0xbc113ed1	-0.008865074
77	0xbd1bf55d	-0.038075794
78	0xbc22a805	-0.009927754
79	0xbc8eaa91	-0.017415317
80	0xbd078a05	-0.03309061
81	0xbce8ad99	-0.02840309
82	0x3c358aba	0.011080438
83	0xbc2daea3	-0.010600719
84	0x3cf0b1b8	0.029381618
85	0x3becb72c	0.007223984
86	0xbba0d394	-0.0049080346
87	0xbce9f998	-0.028561398
88	0xbb642ca1	-0.003481664
89	0xbd0c6ac6	-0.034281515
90	0xbc784836	-0.015153935
91	0xbcf50c28	-0.029913023
92	0x3bc79f06	0.006091955
93	0xbca64a53	-0.020299112
94	0xbc899266	-0.016793441
95	0xbccf307c	-0.025291674
96	0xbc8b9675	-0.017039517
97	0xbcc566d3	-0.024096882
98	0xbb095f90	-0.00209615
99	0x3c8b439e	0.017000016

weight f4 [100, 100]
0	0xbd12ae05	-0.03581049
1	0x3d31ddcb	0.04342441
2	0x3d344ed6	0.044020496
3	0xbe17edf4	-0.14836866
4	0xbe449047	-0.19195662
5	0xbcefba06	-0.029263508
6	0x3deca4ae	0.11554848
7	0xbc2e13f0	-0.010624871
8	0xbe12f0c3	-0.14349656
9	0x3dbdcb02	0.09267236
10	0xbd9ddd0a	-0.077081755
11	0x3cd15b0a	0.025556106
12	0xbe14a91c	-0.14517635
13	0xbe1b8a4e	-0.15189478
14	0xbc9974ac	-0.018732391
15	0x3e0969d7	0.13419281
16	0x3deb25b6	0.11481802
17	0x3cc1db4a	0.023664135
18	0x3d315a24	0.043298855
19	0x3cf94396	0.030427735
20	0x3bfde8d0	0.0077487007
21	0x3db25fd9	0.08709688
22	0xbe191f07	-0.14953242
23	0xbd3a0242	-0.04541231
24	0xbb239822	-0.0024962504
25	0xbdd1f655	-0.10252062
26	0x3d8a17ea	0.067428425
27	0x3dc26c4d	0.09493313
28	0xbcece7d7	-0.028919144
29	0xbd1aa764	-0.037757292
30	0xbd25a5a8	-0.040441185
31	0x3dc07a7b	0.09398361
32	0x3dca97c0	0.09892225
33	0x3e1189c7	0.14212714
34	0xbd4f35f7	-0.050588574
35	0xbe31d6bf	-0.17367075
36	0x3e0bf4ea	0.13667646
37	0xbc0893cb	-0.008336018
38	0xbd65dcfa	-0.056118943
39	0xbcff10c0	-0.031135917
40	0xbdcf9cb3	-0.1013731
41	0xbe37bb5e	-0.17942569
42	0xbdcff9b8	-0.10155052
43	0x3d8116d6	0.06303184
44	0xbe139c48	-0.14415085
45	0xbd9ebc56	-0.07750766
46	0x3d0d8a74	0.034555867
47	0xbd920646	-0.07130103
48	0xbdea833b	-0.114508115
49	0xbd8a6513	-0.067575596
50	0x3e060c8f	0.13090728
51	0xbdb96aec	-0.09053597
52	0xbdf6f395	-0.12058178
53	0xbda7e44e	-0.081978425
54	0x3de157e2	0.110030904
55	0xbd21c9be	-0.039499037
56	0xbe04978b	-0.12948434
57	0x3cddc872	0.027073119
58	0xbe2299cc	-0.15878981
59	0xbbfc5b87	-0.0077013406
60	0x3de0cae7	0.109762006
61	0xbda120e0	-0.078675985
62	0xbde3cefb	-0.11123463
63	0x3dd722b4	0.10504666
64	0xbe02627f	-0.12732886
65	0xbdc0ad25	-0.09408025
66	0xbdedbec6	-0.11608653
67	0xbde521e2	-0.11188103
68	0xbe18fe02	-0.14940646
69	0x3d5c13b2	0.05372972
70	0xbe1c770c	-0.15279788
71	0x3d65cc9c	0.056103334
72	0x3d860681	0.06544209
73	0x3e037fd9	0.12841739
74	0xbdb00a2c	-0.0859569
75	0x3dff1c22	0.12456538
76	0x3d2b9e3f	0.041898962
77	0x3e18d2fa	0.14924231
78	0x3dd0ca0e	0.10194789
79	0x3dbd000b	0.09228524
80	0xbe0ed16a	-0.13947073
81	0x3d5825f0	0.052770555
82	0xbe05c86b	-0.13064735
83	0x3d645be3	0.055751693
84	0xbe315431	-0.17317273
85	0xbe0a30a6	-0.1349512
86	0x3d5a747e	0.05333375
87	0xbd7529c4	-0.059854284
88	0xbe28fa35	-0.16501696
89	0x3ded8e76	0.11599438
90	0xbe375e46	-0.17907056
91	0x3e14171f	0.14461945
92	0xbe144062	-0.14477685
93	0x3dd39b86	0.10332398
94	0x3e1f4864	0.15554959
95	0xbcb707a2	-0.022342507
96	0xbdf3c859	-0.11903448
97	0xbdb57ae9	-0.08861334
98	0xbcb00f1e	-0.021491583
99	0x3ce31d01	0.027723791
100	0x3db6930c	0.08914766
101	0xbd3ffb48	-0.0468705
102	0xbe1e8b28	-0.15482771
103	0xbd8a500f	-0.06753551
104	0xbd9ff4ce	-0.07810365
105	0x3dc1b990	0.09459221
106	0xbddecdbb	-0.10879084
107	0x3dc179cc	0.09447059
108	0x3e32945a	0.17439404
109	0xbe107f84	-0.14111143
110	0x3df1de42	0.118099704
111	0x3e4d2ba0	0.20036173
112	0xbe561d88	-0.20909703
113	0xbda76b08	-0.081747115
114	0x3e27c345	0.16383083
115	0xbe3c0a28	-0.1836325
116	0xbccb734a	-0.024835248
117	0xbd9aa9fa	-0.07551952
118	0xbd791381	-0.060809616
119	0xbd95c4de	-0.0731294
120	0xbdbb1284	-0.09134391
121	0xbe080a42	-0.13285163
122	0x3c59e010	0.01329805
123	0xbda52270	-0.08063209
124	0x3ca57e89	0.020201938
125	0xbe54508c	-0.20733851
126	0x3dc49ecb	0.096006
127	0xbd328b82	-0.043590076
128	0x3e433c9b	0.19066088
129	0x3d9371a0	0.071994066
130	0xbd230312	-0.03979785
131	0x3dc8b0fe	0.097993836
132	0xbe06845b	-0.13136427
133	0xbd77c694	-0.060492113
134	0x3e48cd90	0.19609666
135	0xbd8ee938	-0.06978077
136	0x3d8edd66	0.06975822
137	0x3c8fe488	0.017565027
138	0xbc0467b0	-0.008081362
139	0x3d2d249c	0.04227124
140	0xbcd6d77d	-0.0262258
141	0x3e5d843c	0.21632475
142	0xbe540906	-0.20706567
143	0xbe2efc02	-0.17088321
144	0x3dbc8a43	0.09206059
145	0xbe11cecb	-0.14239042
146	0xbd17c807	-0.037055995
147	0xbdb0483d	-0.08607528
148	0x3e420fee	0.18951389
149	0xbd526942	-0.051369913
150	0x3a66b4bc	0.0008800735
151	0x3d48e9ad	0.049050976
152	0xbca3b879	-0.019985424
153	0xbe2d83c1	-0.16944791
154	0xbe164a26	-0.14676723
155	0xbd57f03b	-0.052719336
156	0xbb41b88c	-0.0029559461
157	0xbcf91d70	-0.030409545
158	0x3de739b7	0.11290305
159	0xbd5c3a33	-0.05376644
160	0x3daf5910	0.08561909
161	0x3e4ff789	0.20309271
162	0xbd51556d	-0.05110686
163	0x3c86b55d	0.016443903
164	0xbe12da70	-0.1434114
165	0xbe506c3d	-0.2035379
166	0x3dde37c1	0.10850478
167	0xbd4fca06	-0.050729774
168	0x3db00c63	0.085961126
169	0xbe0171c8	-0.1264106
170	0x3d4859cf	0.048913773
171	0x3e237427	0.15962277
172	0x3da1d383	0.07901671
173	0xbd564067	-0.052307513
174	0xbdc0da10	-0.09416592
175	0xbd8b56e8	-0.068036854
176	0xbcff1e46	-0.031142365
177	0xbcf4e092	-0.02989224
178	0xbcf77091	-0.030205043
179	0x3dc439cd	0.09581337
180	0x3c7835c1	0.015149535
181	0xbd8f418e	-0.069949254
182	0x3d4406b2	0.047857948
183	0x3c73409c	0.014846947
184	0xbe173a91	-0.14768435
185	0xbcf8f9d5	-0.030392567
186	0x3d5af643	0.05345751
187	0xbe2c635a	-0.16834775
188	0x3dfce4b0	0.12348306
189	0x3dae8046	0.0852056
190	0x3da88423	0.08228328
191	0xbd41fe6f	-0.047361787
192	0xbd1707aa	-0.036872543
193	0x3d84284f	0.06453001
194	0xbd3863e7	-0.04501715
195	0x3d7cf850	0.061760247
196	0x3dda9bc4	0.10674241
197	0x3e06b8a0	0.13156366
198	0x3b9960b3	0.004680717
199	0xbe44f8f1	-0.19235589
200	0x3d3ad8db	0.045616966
201	0xbdf31eae	-0.11871086
202	0x3d97c219	0.07410068
203	0xbda8e3e3	-0.08246591
204	0xbde17b6d	-0.1100987
205	0x3e12b07b	0.14325134
206	0x3e0e0ea8	0.13872778
207	0xbdc53a6e	-0.09630285
208	0xbe253da2	-0.16136792
209	0xbe22fdf7	-0.15917192
210	0xbe0d00c0	-0.13769817
211	0xbd0d6536	-0.03452035
212	0x3e05a059	0.13049449
213	0x3e504fb4	0.20342904
214	0xbd8352c6	-0.06412272
215	0x3e2896ac	0.16463727
216	0x3dabf17e	0.0839567
217	0x3d87b5b2	0.066264525
218	0xbd83621e	-0.06415199
219	0x3d2a67ee	0.04160302
220	0xbc92c8a4	-0.017917939
221	0xbe0e0c56	-0.13871893
222	0x3e1867c9	0.14883341
223	0x3d8e05ad	0.06934676
224	0x3d167c0d	0.036739398
225	0xbdaba72a	-0.083814934
226	0xbe0572cf	-0.13032077
227	0xbda1f3ef	-0.07907855
228	0x3d64bce6	0.05584421
229	0xbcf2fa33	-0.02966032
230	0x3e1e0f02	0.15435413
231	0xbe13e811	-0.14443995
232	0x3d57b465	0.052662272
233	0xbe1d7396	-0.15376124
234	0xbdbfc550	-0.09363806
235	0x3ccce3e1	0.025011005
236	0x3d9de0a4	0.077088624
237	0x3de0b7ad	0.109725334
238	0xbcd0ab37	-0.025472267
239	0xbe08d2da	-0.13361683
240	0x3dd255c6	0.10270266
241	0xbdccd77b	-0.10002037
242	0xbd72d3f2	-0.059284158
243	0xbcaa0af9	-0.020757185
244	0xbc0a7c61	-0.008452506
245	0x3d848906	0.06471448
246	0x3e08078a	0.13284126
247	0x3d4e46ef	0.050360616
248	0x3dca67c0	0.0988307
249	0x3bd14fd2	0.006387689
250	0xbc8bb184	-0.01705242
251	0x3dccc1dd	0.09997914
252	0x3dc10cc4	0.09426263
253	0xbc8e00ce	-0.017334368
254	0x3d801878	0.06254667
255	0xbdc15ba2	-0.09441306

bias f4 [25]
0	0x00000000	0.0
1	0x00000000	0.0
2	0x00000000	0.0
3	0x00000000	0.0
4	0x00000000	0.0
5	0x00000000	0.0
6	0x00000000	0.0
7	0x00000000	0.0
8	0x00000000	0.0
9	0x00000000	0.0
10	0x00000000	0.0
11	0x00000000	0.0
12	0x00000000	0.0
13	0x00000000	0.0
14	0x00000000	0.0
15	0x00000000	0.0
16	0x00000000	0.0
17	0x00000000	0.0
18	0x00000000	0.0
19	0x00000000	0.0
20	0x00000000	0.0
21	0x00000000	0.0
22	0x00000000	0.0
23	0x00000000	0.0
24	0x00000000	0.0

weight f4 [25, 100]
0	0x3db34baf	0.0875467
1	0x3e03c133	0.12866668
2	0xbe39238c	-0.18079966
3	0xbe358309	-0.17725767
4	0xbda45ecc	-0.080258936
5	0xbbe28523	-0.006912844
6	0x3e45d880	0.1932087
7	0x3e5f23b7	0.21790968
8	0xbd3d5622	-0.04622472
9	0x3e13cc51	0.1443341
10	0xbdb21f84	-0.086974174
11	0x3dc6c189	0.09704883
12	0xbe3e741e	-0.18598983
13	0x3d18046d	0.037113596
14	0x3e41c665	0.18923338
15	0x3e1fb057	0.15594612
16	0xbd9b3922	-0.075792566
17	0xbcc3d678	-0.023905978
18	0xbe1b9b2d	-0.15195914
19	0xbe195b0e	-0.14976141
20	0xbe132e93	-0.14373235
21	0x3d4a60bf	0.04940867
22	0xbe520d7a	-0.20512953
23	0xbe25269b	-0.16128008
24	0x3d206c35	0.039165694
25	0x3d3570f4	0.044297174
26	0xbe189e85	-0.1490422
27	0x3dc39512	0.09549917
28	0x3d8f2680	0.06989765
29	0x3e5616aa	0.20907083
30	0x3e32c3d6	0.17457518
31	0x3e114ed4	0.14190227
32	0x3d4ed2b2	0.050493903
33	0xbe0dd1c6	-0.13849553
34	0xbd8a0591	-0.06739343
35	0xbd889028	-0.066681206
36	0xbdfbb322	-0.12290026
37	0x3df881b7	0.12134116
38	0xbe340002	-0.17578128
39	0xbdcfc2a3	-0.10144546
40	0x3d9bdc88	0.076104224
41	0x3d4fd4d6	0.050740086
42	0xbe3fcadb	-0.18729727
43	0xbdb29dc8	-0.08721501
44	0xbcaab586	-0.02083851
45	0x3db69688	0.0891543
46	0x3ce6a0a8	0.028152779
47	0x3e4da0a1	0.20080806
48	0x3e3ccf77	0.18438517
49	0x3e2f9f6e	0.17150661
50	0xbe5bb4fc	-0.21455759
51	0x3de46d64	0.11153677
52	0x3e482877	0.19546686
53	0xbe5aad1e	-0.21355101
54	0x3e5bedfd	0.21477504
55	0xbd7026ae	-0.058630638
56	0x3e3a28ab	0.18179576
57	0x3d3a5c32	0.04549808
58	0x3dae8232	0.085209265
59	0xbda4d3b6	-0.08048193
60	0x3e2f415f	0.17114781
61	0x3db55f38	0.08856052
62	0xbe2848b1	-0.1643398
63	0x3de64e28	0.11245376
64	0x3e57664d	0.21035118
65	0x3e3baed6	0.18328413
66	0xbd688fc5	-0.056777734
67	0xbd0b156a	-0.03395597
68	0xbd1840e5	-0.037171263
69	0x3cfb8aeb	0.03070589
70	0xbe4f7bb2	-0.2026203
71	0xbe461927	-0.19345532
72	0x3ca458fa	0.020061959
73	0xbc2a45bb	-0.010392602
74	0xbe518147	-0.20459472
75	0xbe395fba	-0.18102923
76	0x3d281e3b	0.041044455
77	0xbd69207a	-0.056915738
78	0xbe5bf9f3	-0.21482067
79	0xbe506537	-0.2035111
80	0x3da25d83	0.07927992
81	0xbddd6d26	-0.10811834
82	0xbe461dd7	-0.1934732
83	0xbdd9b95e	-0.10631059
84	0x3e4e0d58	0.20122278
85	0x3d09fa37	0.03368589
86	0xbe48cb43	-0.19608788
87	0x3def138f	0.116736524
88	0xbe577fb9	-0.21044816
89	0xbdf4032e	-0.11914669
90	0x3d6d99d2	0.058008023
91	0x3c409aa4	0.011755619
92	0xbe401eeb	-0.18761794
93	0xbdff2495	-0.12458149
94	0xbd1a4ad9	-0.037669037
95	0xbd3dc60f	-0.04633146
96	0xbddcae6e	-0.10775457
97	0x3d8ac25b	0.067753516
98	0x3d472f4c	0.04862909
99	0x3e05f49f	0.13081597
100	0x3cf092e9	0.029366927
101	0x3e49fd0c	0.19725436
102	0x3d6d5307	0.05794051
103	0xbe2d84fd	-0.16945262
104	0x3d142a4e	0.036173157
105	0xbc129408	-0.008946426
106	0x3de45f19	0.11150951
107	0xbe3cb59a	-0.1842865
108	0x3d3cdff6	0.046112023
109	0x3e15006e	0.14550945
110	0x3dc1126a	0.0942734
111	0x3df7a322	0.12091662
112	0x3e1ffc6b	0.15623634
113	0xbd130e11	-0.035902087
114	0xbe157ed5	-0.14599164
115	0x3e11ee8c	0.14251155
116	0x3e5c89df	0.21536969
117	0xbdddde1a	-0.10833378
118	0xbe141e1f	-0.14464615
119	0x3c9976fd	0.018733496
120	0xbe2fcf5e	-0.17168948
121	0xbe26bb98	-0.16282499
122	0x3d35cf1b	0.044386964
123	0xbe4c911d	-0.19977231
124	0x3e22de47	0.15905105
125	0x3d2d5bcb	0.04232387
126	0xbe4dd9fd	-0.20102687
127	0x3e57f95a	0.21091214
128	0xbdbfebcb	-0.09371146
129	0xbe287a35	-0.16452868
130	0xbc714ee3	-0.014728281
131	0x3ddd57a6	0.10807733
132	0x3b3126fd	0.0027031295
133	0x3e01bd21	0.12669803
134	0x3defc402	0.117073074
135	0xbdcde0ba	-0.10052629
136	0xbd33dd79	-0.043912385
137	0x3e0903c1	0.13380338
138	0xbe0f4314	-0.13990432
139	0xbe2eccbd	-0.17070289
140	0xbde9fb16	-0.11424844
141	0xbdcdb86d	-0.10044942
142	0xbd63b782	-0.05559493
143	0xbdfdb6a7	-0.12388354
144	0xbc05bbf2	-0.008162485
145	0x3c8ef7dc	0.017452173
146	0x3e5a95e2	0.21346238
147	0xbdcc49a5	-0.09974984
148	0xbe564ccf	-0.20927738
149	0x3c17423b	0.009232099
150	0xbe258e39	-0.16167535
151	0x3d1b3426	0.03789153
152	0xbe4b6667	-0.19863282
153	0xbe46b4bd	-0.19404884
154	0xbe34daf4	-0.17661649
155	0x3bbeaf01	0.005819202
156	0x3d57de1c	0.052702054
157	0xbde0c78d	-0.10975561
158	0xbbf31faf	-0.0074195485
159	0xbe356f94	-0.17718345
160	0xbdf683ec	-0.12036881
161	0xbd210809	-0.039314304
162	0x3e5d7f16	0.2163051
163	0xbe2d767f	-0.16939734
164	0x3d02027f	0.03174066
165	0x3dbf27c7	0.09333759
166	0x3e01e829	0.12686218
167	0x3cf51638	0.029917821
168	0xbe513f78	-0.20434368
169	0x3e1c6f0e	0.15276739
170	0xbe4daa1a	-0.2008442
171	0xbe41e02e	-0.18933174
172	0xbdbec8a7	-0.09315615
173	0xbe50e358	-0.20399225
174	0x3e4121b2	0.1886051
175	0xbe19951f	-0.14998291
176	0x3e57cf8a	0.21075264
177	0xbb738246	-0.0037156506
178	0x3c264481	0.010148169
179	0x3abbc341	0.0014325158
180	0x3d938bf2	0.07204427
181	0x3daf2601	0.085521705
182	0x3dbeaf2b	0.093107544
183	0x3e242b84	0.16032225
184	0xbd3b4c43	-0.045727026
185	0x3d7484c6	0.059696935
186	0xbe0cbbe0	-0.13743544
187	0x3d812231	0.063053496
188	0xbe272868	-0.16324008
189	0x3de9f54f	0.11423742
190	0xbe39751a	-0.18111077
191	0x3d0f0939	0.034920905
192	0xbdcabdf1	-0.0989951
193	0xbc966068	-0.018356517
194	0x3c5613ea	0.013066271
195	0x3d8b28c4	0.06794885
196	0xbe3ef428	-0.18647826
197	0x3d12557c	0.035726056
198	0x3e325357	0.17414604
199	0x3c8b98b4	0.017040588
200	0x3dc8a90c	0.09797868
201	0x3e08246d	0.13295145
202	0x3e52c9c1	0.20584776
203	0xbc29d262	-0.010365101
204	0x3d442ff7	0.047897305
205	0x3e346dc5	0.17619999
206	0x3cdc8a87	0.026921524
207	0xbd76942d	-0.060199905
208	0x3e1bb61e	0.15206191
209	0xbdad5d7e	-0.08465098
210	0xbe0aa439	-0.13539208
211	0x3e5a7e72	0.21337298
212	0x3e1a8637	0.15090261
213	0xbe4f7844	-0.20260721
214	0xbe04607e	-0.12927434
215	0x3daffc20	0.08593011
216	0x3d0df964	0.034661666
217	0x3df7d640	0.12101412
218	0x3e300b99	0.17191924
219	0x3e479c76	0.19493279
220	0xbe1e20b0	-0.15442157
221	0x3d709cfd	0.058743466
222	0xbe06b7cd	-0.13156052
223	0x3c9c2884	0.019062288
224	0x3d92f206	0.071750686
225	0x3e38f134	0.18060762
226	0xbd96117e	-0.07327555
227	0x3e156811	0.1459048
228	0xbd9cd445	-0.07657675
229	0x3e59cb1f	0.21268891
230	0x3d95c5cf	0.073131196
231	0x3de50cf5	0.11184112
232	0xbd9d6ea8	-0.07687122
233	0xbe3f6944	-0.186925
234	0x3c8feb8b	0.01756837
235	0xbddb2951	-0.1070124
236	0x3e032641	0.12807561
237	0xbcd01283	-0.025399452
238	0x3e4570d2	0.19281319
239	0x3e1063d1	0.14100577
240	0x3e3cc0bd	0.18432899
241	0xbe268c7d	-0.1626453
242	0x3e230787	0.1592084
243	0xbd792700	-0.06082821
244	0x3dd967b8	0.10615486
245	0xbe43c6c7	-0.19118796
246	0x3d9e742e	0.07737003
247	0x3e2c29cc	0.16812819
248	0x3dc29941	0.09501887
249	0x3e118e27	0.14214383
250	0xbb382954	-0.0028100805
251	0xbd6e6a6c	-0.05820696
252	0xbd1c1d9e	-0.038114183
253	0x3db24805	0.08705143
254	0x3e247ea8	0.1606394
255	0xbe07f3ef	-0.13276647
