deep_learning/models/GCNLinkPrediction59.pth (torch, 185248 bytes, 10 tensors)

bias f4 [100]
-0.038120925 -0.02785555 -0.02005947 0.035776395 0.028895332 0.03702593 -0.026165193 -0.03733298
-0.02997704 0.0492732 0.00084390165 0.01909285 0.05001397 0.0343713 0.010496337 0.023676092
-0.0219382 0.040181164 -0.016755352 -0.008081353 0.038665086 0.04559479 -0.026004348 0.017102262
-0.028742826 -0.036897164 0.03575853 -0.053250417 0.026972022 0.022240506 -0.025571663 0.009999556
-0.04472687 0.04267809 0.04672858 -0.011579728 0.007138048 0.005045354 -0.021139704 -0.01594845
-0.015762318 0.030856417 0.0070586 0.049576193 -0.038889397 0.026338834 0.018578932 0.004511845
-0.001980474 0.0034239779 0.025347799 0.038352653 0.0025603375 0.0010965317 0.010090703 -0.046143174
0.005094748 -0.042063717 -0.007312895 -0.0489807 -0.03186558 0.050316945 -0.027588764 0.0517046
-0.015373224 -0.009490074 0.031032424 0.014923222 0.03896691 -0.0050343196 0.045430914 -0.02599919
-0.0045234803 -0.009057329 0.028811768 -0.033174336 -0.04640961 -0.014575515 -0.002372014 -0.05197612
-0.008825697 0.001298594 -0.0165087 0.054423094 -0.0021554776 -0.0020832787 0.001951013 0.058291536
-0.0023622 -0.003757312 0.048562843 0.038667448 -0.014503474 -0.042994194 -0.03643358 0.0005864932
-0.0093444 0.030809816 -0.017810497 -0.022127766
00000000: b024 1cbd 5331 e4bc c253 a4bc 458a 123d
00000010: e7b5 ec3c 80a8 173d 6358 d6bc 78ea 18bd
00000020: 6992 f5bc b2d2 493d 4839 5d3a 9c68 9c3c
00000030: 73db 4c3d ecc8 0c3d d4f8 2b3c 5df4 c13c
00000040: bdb7 b3bc 0195 243d 8542 89bc a767 04bc
00000050: 485f 1e3d 9ac1 3a3d 1207 d5bc 0b1a 8c3c
00000060: 1376 ebbc 7b21 17bd 8977 123d 1c1d 5abd
00000070: 6ef4 dc3c b931 b63c aa7b d1bc 2dd5 233c
00000080: 8633 37bd 39cf 2e3d 7866 3f3d e6b8 3dbc
00000090: 49e6 e93b 7f53 a53b 2c2d adbc 53a6 82bc
000000a0: fa1f 81bc 99c6 fc3c d44b e73b 6810 4b3d
000000b0: 7d4a 1fbd 8ac4 d73c d832 983c 19d8 933b
000000c0: d7ca 01bb d164 603b 30a6 cf3c ac17 1d3d
000000d0: 56cb 273b 80b9 8f3a 7a53 253c a000 3dbd
000000e0: d8f1 a63b 014b 2cbd 02a1 efbb fd9f 48bd
000000f0: 7b85 02bd 2419 4e3d d501 e2bc 34c8 533d
00000100: fadf 7bbc 417c 1bbc b637 fe3c 8880 743c
00000110: c49b 1f3d eff6 a4bb c415 3a3d 41fc d4bc
00000120: b439 94bb 3165 14bc a806 ec3c d0e1 07bd
00000130: 0118 3ebd 24ce 6ebc cb73 1bbb e9e4 54bd
00000140: a899 10bc 9635 aa3a 413d 87bc c0ea 5e3d
00000150: ea42 0dbb 9e87 08bb 22b9 ff3a 1bc3 6e3d
00000160: 24cf 1abb 3c3d 76bb d5e9 463d c261 1e3d
00000170: fb9f 6dbc ae1a 30bd 613b 15bd e4be 193a
00000180: 4119 19bc de64 fc3c 52e7 91bc 4a45 b5bc

weight f4 [100, 18]
-0.005695086 0.0032856166 0.002021023 -0.016106367 -0.014525665 -0.03675317 0.0059762364 -0.1629751
-0.012371484 0.111721806 0.14883682 -0.06630861 -0.00024263095 -0.121041164 -0.0030263725 -0.08836796
-0.09183096 -0.044352707 0.13886517 0.0061186906 0.01589635 0.016080467 0.123109184 -0.0012366446
-0.034755893 -0.12677798 0.0015711142 -0.09798847 -0.119599886 -0.03950914 0.019354649 0.043795057
-0.051497653 -0.08539494 -0.11835094 -0.046778798 0.009647976 0.029709138 0.06502863 -0.11682691
0.029962488 -0.14890264 0.13374966 -0.0995672 0.088052996 0.089612834 0.08595842 -0.010664997
-0.1119163 -0.14059874 0.0077341264 0.12411321 0.04682557 0.011262282 0.037921447 -0.09983278
-0.08678631 -0.014951402 0.010083503 -0.058505464 -0.016172081 -0.11792524 -0.009912665 -0.11063543
0.008311977 0.11668122 0.040739484 0.007876555 0.095814414 -0.12922156 0.00922692 0.08423563
-0.06419562 0.1366464 0.09327421 0.12103716 0.14283937 -0.0053418097 0.0033160034 0.18227212
0.036512528 0.06628126 0.014409974 -0.007760575 -0.13166441 -0.00035091722 -0.014147201 -0.038038615
0.002740611 -0.14277607 0.1448564 0.009319484 0.08622364 3.216765e-05 0.048677687 -0.018971432
-0.09466616 -0.09476623 -0.12149135 0.16555098 0.007822454 0.0025352258 0.0061045107 0.0028733043
0.14048684 -0.043079503 -0.054367926 -0.07846777 -0.022973666 0.0697948 0.015089505 -0.0026593548
-0.0014535706 0.1370792 -0.03759873 -0.14987907 0.014606839 0.12266659 -0.0014805151 -0.030415036
-0.10610417 0.09780014 -0.13880125 -0.00815957 -0.055735603 0.016690094 0.031714253 -0.12126381
0.11765789 0.14359972 0.017980173 -0.011806646 -0.027001709 -0.13900506 0.08135981 -0.16808201
0.08556584 -0.095925845 -0.0002076414 0.045872763 0.0007644426 0.08024479 -0.11122129 0.15232784
0.04853436 -0.013690637 -0.097501904 0.06997433 -0.01193069 -0.008054494 0.07530839 -0.020043459
0.025046919 -0.02578388 0.080193706 -0.0015151091 -0.002101765 -0.002769107 -0.0037794882 0.06883568
-0.09070314 0.10364245 0.13680252 -0.081376314 0.043535527 0.0893049 0.0061275386 0.03395563
0.13700701 0.23931637 -0.07758966 0.03753292 -0.09128931 -0.0069764145 0.15020308 0.05251302
-0.04432437 -0.0069127823 0.0017380808 -0.007260609 -0.0033798264 0.1118192 0.0074690953 -0.061754707
0.13403359 0.10640505 -0.02979865 -0.007814318 -0.08963758 -0.08522053 -0.08730417 -0.051888186
0.040241756 -0.009859106 -0.13988441 -0.021402506 0.0018082354 -0.0021376263 -0.014169389 -0.014263963
0.007172902 -0.14505357 -0.14145768 0.06811919 0.015989462 0.12385344 -0.07849497 -0.08748278
-0.14299712 0.016790628 -0.15373063 0.064723164 -0.014775914 0.06285787 0.015731689 0.037966024
-0.14458093 0.0017998472 -0.1096647 -0.004826039 -0.013835614 -0.15456724 0.016084045 -0.161227
-0.0059211757 0.17416385 -0.07341093 0.031349868 0.11706405 0.12267751 0.004496528 0.086949274
-0.1132354 -0.11130144 0.029575495 -0.043364827 -0.029697988 0.1037626 0.06642964 0.051525958
0.014910052 0.17662238 -0.0816873 0.10944389 0.13226551 -0.08503534 -0.14892723 -0.14891541
-0.041130062 0.15431051 0.0032469714 -0.00072236825 -0.0044288468 -0.13487072 -0.021955851 -0.0024926607
00000000: d89d babb 8053 573b 2473 043b 80f1 83bc
00000010: 0efd 6dbc 7e8a 16bd 4ed4 c33b f2e2 26be
00000020: c4b1 4abc 67ce e43d ae68 183e cfcc 87bd
00000030: c06a 7eb9 6ee4 f7bd 1b56 46bb 43fa b4bd
00000040: df11 bcbd 2fab 35bd ac32 0e3e 4c7f c83b
00000050: 1039 823c 2fbb 833c ab20 fc3d e816 a2ba
00000060: 325c 0ebd 16d2 01be d8ed cd3a 2eae c8bd
00000070: c9f0 f4bd 56d4 21bd a48d 9e3c 7262 333d
00000080: 34ef 52bd 8be3 aebd fa61 f2bd 209b 3fbd
00000090: 8b12 1e3c 9460 f33c bb2d 853d f242 efbd
000000a0: e473 f53c ef79 18be acf5 083e e3e9 cbbd
000000b0: 2155 b43d ef86 b73d f80a b03d 3dbc 2ebc
000000c0: 6034 e5bd 1ef9 0fbe 8e6e fd3b 112f fe3d
000000d0: 2bcc 3f3d 6f85 383c 8553 1b3d 2175 ccbd
000000e0: 05bd b1bd baf6 74bc 4735 253c 6da3 6fbd
000000f0: 507b 84bc ca82 f1bd bb68 22bc d494 e2bd
00000100: f52e 083c 90f6 ee3d 72de 263d ab0c 013c
00000110: 593a c43d a852 04be 822c 173c bb83 ac3d
00000120: fe78 83bd 09ed 0b3e 8d06 bf3d 55e2 f73d
00000130: 7c44 123e 590a afbb 4e51 593b 8ba5 3a3e
00000140: 298e 153d 78be 873d d017 6c3c 6c4c febb
00000150: 09d3 06be 50fb b7b9 a9c9 67bc 61ce 1bbd
00000160: d39b 333b e433 12be 3c55 143e c0b0 183c
00000170: 0596 b03d c0eb 0638 4162 473d fa69 9bbc
00000180: 55e0 c1bd cc14 c2bd 75d0 f8bd 3286 293e
00000190: c029 003c 0826 263b 5908 c83b 0c4e 3c3b
000001a0: c8db 0f3e 2274 30bd e7b0 5ebd b6b3 a0bd
000001b0: 4533 bcbc 93f0 8e3d f939 773c 9248 2ebb
000001c0: bc85 beba 7d5e 0c3e 2001 1abd e679 19be
000001d0: 8651 6f3c 9f38 fb3d d80d c2ba f428 f9bc
000001e0: 254d d9bd 714b c83d ea21 0ebe b8af 05bc
000001f0: 044b 64bd aab9 883c cee6 013d 2959 f8bd
00000200: 9ff6 f03d ce0b 133e 284b 933c aa70 41bc
00000210: b032 ddbc 5857 0ebe f99f a63d b11d 2cbe
00000220: 253d af3d c574 c4bd 50ba 59b9 14e5 3b3d
00000230: e064 483a 6157 a43d fdc7 e3bd d4fb 1b3e
00000240: f7cb 463d b24e 60bc 14af c7bd b44e 8f3d
00000250: f178 43bc fff6 03bc 493b 9a3d 2e32 a4bc
00000260: 322f cd3c b738 d3bc 993c a43d a096 c6ba
00000270: c4bd 09bb e879 35bb 4ab1 77bb b9f9 8c3d
00000280: 91c2 b9bd 7e42 d43d f615 0c3e a0a8 a6bd
00000290: 4f52 323d 7de5 b63d 85c9 c83b 0f15 0b3d
000002a0: 914b 0c3e 5a0f 753e 54e7 9ebd 1ebc 193d
000002b0: e4f5 babd 689a e4bb d6ce 193e e417 573d
000002c0: 788d 35bd 9f84 e2bb 50d0 e33a 67ea edbb
000002d0: 1480 5dbb 7701 e53d 50bf f43b 81f2 7cbd
000002e0: 1a40 093e e4ea d93d 4c1c f4bc a007 00bc
000002f0: e893 b7bd 1a88 aebd 87cc b2bd b588 54bd
00000300: 8ad4 243d 1688 21bc dc3d 0fbe 4f54 afbc
00000310: 5002 ed3a 6b17 0cbb ba26 68bc 66b3 69bc
00000320: aa0a eb3b ec88 14be 48da 10be 1382 8b3d
00000330: 55fc 823c dfa6 fd3d f9c1 a0bd 2c2a b3bd
00000340: d66d 12be 808c 893c 906b 1dbe 948d 843d
00000350: ad16 72bc a0bb 803d bedf 803c 4382 1b3d
00000360: 060d 14be dae8 eb3a e397 e0bd c023 9ebb
00000370: c5ae 62bc e046 1ebe b0c2 833c b118 25be
00000380: 6c06 c2bb 0258 323e 7858 96bd b868 003d
00000390: 47bf ef3d 593e fb3d 9c57 933b 7612 b23d
000003a0: f6e7 e7bd 02f2 e3bd 4f48 f23c 519f 31bd
000003b0: 3249 f3bc 7c81 d43d 430c 883d e20c 533d
000003c0: 4a49 743c 7fdc 343e ac4b a7bd 1e24 e03d
000003d0: 9c70 073e 0227 aebd 6180 18be 487d 18be
000003e0: ff77 28bd 9303 1e3e 24cb 543b 505d 3dba
000003f0: dc1f 91bb 8d1b 0abe c2dc b3bc e85b 23bb

bias f4 [100]
-0.033588834 0.009602313 -0.027400685 -0.0022158278 -0.004705697 -0.004141081 0.0074769137 -0.019577464
-0.038343992 -0.0048172106 0.017676525 0.023820087 -0.044682 0.05982894 0.044894304 0.009397319
0.0123651195 0.03851784 0.007106162 0.039713126 0.041757844 -0.003413578 0.03391311 -0.005241035
0.026653966 0.03174754 -0.015991937 -0.039362453 0.019663228 0.005010098 -0.029698748 -0.0037788828
0.012750715 -0.04221692 -0.024692543 -0.028122576 -0.0040891455 0.0021637345 0.0008201926 0.020131815
0.011857699 0.03361916 -0.0058806306 0.029562574 0.047174983 0.034882803 0.0071464702 0.034727514
0.004145842 -0.017585171 0.031901527 -0.003256857 0.049709495 -0.034822356 0.0021737763 0.010413429
-0.017687628 0.034553256 -0.03758857 -0.04701091 -0.035800442 0.041617185 0.042149793 0.024978004
0.039600465 0.020428177 0.010196284 5.122274e-08 -0.033795934 0.040635422 -0.013627658 0.047750715
0.034682173 0.04293032 -0.016017474 0.045502182 0.0017956397 -0.018192692 -0.017927652 -0.022111358
-0.00097475783 -0.034393374 0.009814883 0.024311526 -0.019604258 -1.9720057e-05 0.039720505 0.02956571
0.013896724 0.005749944 0.0009940405 0.009612113 -0.040521972 -0.03200064 0.027200079 -0.044609405
0.0 -0.006761836 0.013841279 0.030480072
00000000: 7294 09bd 0553 1d3c 6777 e0bc 6c37 11bb
00000010: 3f32 9abb e8b1 87bb e600 f53b eb60 a0bc
00000020: 970e 1dbd b1d9 9dbb 5cce 903c 5822 c33c
00000030: 7904 37bd 310f 753d 17e3 373d 36f7 193c
00000040: 1297 4a3c e2c4 1d3d cfda e83b 3baa 223d
00000050: 460a 2b3d 56b6 5fbb 79e8 0a3d fdbc abbb
00000060: 6b59 da3c b509 023d 8601 83bc 863a 21bd
00000070: c714 a13c c02b a43b ca4a f3bc 22a7 77bb
00000080: 60e8 503c a6eb 2cbd 0448 cabc 5161 e6bc
00000090: 3dfe 85bb 71cd 0d3b 3202 573a 7aeb a43c
000000a0: cb46 423c 3fb4 093d 4eb2 c0bb 362d f23c
000000b0: 8e3a 413d 45e1 0e3d f02c ea3b 703e 0e3d
000000c0: d8d9 873b c70e 90bc 2dab 023d fe70 55bb
000000d0: 2f9c 4b3d e3a1 0ebd ea75 0e3b 169d 2a3c
000000e0: a5e5 90bc b787 0d3d 79f6 19bd 838e 40bd
000000f0: 7ca3 12bd c876 2a3d 43a5 2c3d ac9e cc3c
00000100: 1934 223d fe58 a73c 510e 273c 0000 5c33
00000110: 9b6d 0abd 5471 263d 8a46 5fbc 4196 433d
00000120: e50e 0e3d b4d7 2f3d 1437 83bc 7f60 3a3d
00000130: ac5b eb3a d708 95bc 03dd 92bc e122 b5bc
00000140: e486 7fba 11e0 0cbd 9ace 203c f728 c73c
00000150: 1c99 a0bc 806c a5b7 f8b1 223d ca33 f23c
00000160: 16af 633c 076a bc3b 774a 823a 207c 1d3c
00000170: 5efa 25bd 1a13 03bd b3d2 de3c 5ab8 36bd
00000180: 0000 0000 6492 ddbb 88c6 623c 58b1 f93c

weight f4 [100, 100]
0.025439078 -0.008950391 0.1026056 0.0920806 -0.08027606 -0.06499718 -0.063302025 0.015330417
-0.07220994 -0.00019295514 -0.10292696 0.025589678 -0.123322904 -0.099884786 0.07384237 0.062448896
-0.11269858 -0.054769978 -0.10041503 0.019663583 0.040427875 -0.003817746 0.0099055385 -0.035323497
0.079211526 -0.07256719 0.0030413384 0.08221227 0.04589119 -0.0086966455 0.011369723 0.009904398
-0.01335516 0.051743545 -0.05501084 -0.09525296 -0.019748414 0.0068340963 -0.046469443 -0.0891569
-0.06288171 -0.07821461 0.01601786 0.060526714 0.10483116 0.1013944 -0.0558422 -0.0018771281
-0.00090958364 0.063078985 -0.113243975 -0.09593595 0.0038480235 -0.09789272 -0.13348186 0.102666214
0.061638054 0.070355564 -0.10152402 -0.11456183 0.09240806 0.069055416 0.020036228 0.075034074
0.0040489035 0.099537455 -0.048970975 0.033455387 -0.012163019 0.021435887 -0.11480574 0.04555134
-0.0806648 0.053879336 0.009153817 0.056544885 0.0779712 -0.0985214 -0.0019265981 0.02954569
0.10822983 0.083294585 -0.14134231 0.054889366 0.07430926 0.004283966 0.014727309 0.06200937
0.10134146 0.002322347 -0.022086829 -0.01171495 -0.009348566 0.035623156 -0.01579919 -0.029247291
0.09016495 -0.08352234 -0.04035054 -0.011450122 0.10800545 0.07368051 -0.048245117 -0.010453882
-0.074432805 0.092013374 -0.10094842 0.08278609 0.0312015 0.015494291 -0.01580881 0.03181252
0.107152104 -0.09726554 -0.111291915 -0.09816567 -0.0260895 -0.017650703 0.017968073 0.03691825
-0.06364576 0.006273365 -0.0034148863 0.12884042 0.004986567 -0.012819909 0.001634377 -0.073288895
0.10752967 0.096459754 -0.08056673 0.12464129 -0.07921632 -0.0024028104 0.00010199286 0.0062955595
-0.0060776453 -0.07105018 0.004669916 -0.0074035027 -0.008509539 -0.027084202 0.05069762 0.015572468
0.0035844469 0.01942854 -0.032603245 0.03681315 -0.0014906889 0.014256361 0.08477342 0.054757375
-0.035395302 -0.009971702 0.06850588 0.00063046627 -0.059906796 0.094440036 -0.05834972 0.09377125
-0.074261926 -0.041817084 0.013146008 0.006840774 0.008904607 -0.03430319 -0.0944373 -0.0030853497
-0.087286115 -0.00217695 0.057740025 -0.054715663 -0.017403029 0.09913867 -0.064862505 -0.004428819
0.014031475 0.008196571 0.03826202 0.008830991 0.071661435 -0.03087015 0.02476628 0.055497248
0.035966262 0.053302396 -0.0031640127 0.0035335636 -0.04469193 -0.052447118 0.0050871847 -0.08822075
0.06964168 0.092578016 -0.010156372 0.09781131 -0.015113381 -0.10050351 -0.015559876 -0.01775578
-0.056610562 0.0410307 0.056824714 0.018245097 0.0029426282 -0.03502703 -0.016253537 0.004285516
0.09357958 -0.007923102 -0.0016668991 0.013177466 -0.07500382 0.094682746 -0.008873852 0.018443488
-0.07290178 -0.10232732 0.027741525 0.091099545 0.0056085717 0.0681189 -0.006103271 0.026395228
0.0968218 -0.037964262 -0.046926208 -0.007845965 -0.0066753575 0.079485886 0.0863285 0.0011903886
0.015784755 0.016288783 -0.011776969 0.017733885 0.0432025 0.00034074206 0.028466083 -0.060393956
-0.02539938 -0.05384768 -0.006872643 0.009668862 -0.0094165895 -0.023795538 -0.004610463 -0.01322449
0.002090633 0.006544133 0.0132410005 0.005202693 -0.101427436 -0.013896571 0.08310084 0.024505824
00000000: 9d65 d03c a9a4 12bc e322 d23d c194 bc3d
00000010: c667 a4bd 3e1d 85bd 7ea4 81bd 6e2c 7b3c
00000020: cee2 93bd 0054 4ab9 5fcb d2bd 72a1 d13c
00000030: b890 fcbd 6590 ccbd ab3a 973d 6aca 7f3d
00000040: 83ce e6bd 7c56 60bd 65a6 cdbd 8615 a13c
00000050: b397 253d 2633 7abb d74a 223c 5faf 10bd
00000060: a739 a23d 1b9e 94bd 3151 473b e85e a83d
00000070: 67f8 3b3d 607c 0ebc 1348 3a3c 0e46 223c
00000080: 9acf 5abc 0af1 533d 0c53 61bd fc13 c3bd
00000090: 6dc7 a1bc 8ef0 df3b be56 3ebd e597 b6bd
000000a0: 20c8 80bd fb2e a0bd e337 833c dcea 773d
000000b0: b8b1 d63d dea7 cf3d caba 64bd f809 f6ba
000000c0: 2071 6eba 8e2f 813d 75ec e7bd 117a c4bd
000000d0: 1f2f 7c3b fa7b c8bd 78af 08be aa42 d23d
000000e0: 2f78 7c3d 9416 903d d3eb cfbd 659f eabd
000000f0: 7040 bd3d ed6c 8d3d 0423 a43c 77ab 993d
00000100: aaac 843b 4bda cb3d ca95 48bd 8408 093d
00000110: 6647 47bc 509a af3c 461f ebbd 0b94 3a3d
00000120: 9633 a5bd 94b0 5c3d e4f9 153c 9c9b 673d
00000130: 5daf 9f3d 96c5 c9bd e885 fcba ce09 f23c
00000140: 9aa7 dd3d 5a96 aa3d 0abc 10be acd3 603d
00000150: 742f 983d 8360 8c3b d04a 713c 8afd 7d3d
00000160: 1d8c cf3d 8432 183b 70ef b4bc 10f0 3fbc
00000170: ba2a 19bc 96e9 113d 4e6d 81bc 0498 efbc
00000180: 67a8 b83d c30d abbd 9c46 25bd 4b99 3bbc
00000190: f631 dd3d cfe5 963d ac9c 45bd c246 2bbc
000001a0: 3a70 98bd 8271 bc3d 0cbe cebd c18b a93d
000001b0: 4a9a ff3c c4db 7d3c 7a81 81bc d84d 023d
000001c0: 9072 db3d 2833 c7bd 04ed e3bd 150b c9bd
000001d0: a6b9 d5bc 3598 90bc c831 933c 9737 173d
000001e0: b558 82bd cd90 cd3b 49cc 5fbb beee 033e
000001f0: 5b66 a33b 980a 52bc 9838 d63a 7d18 96bd
00000200: 8438 dc3d b18c c53d 2b00 a5bd ef43 ff3d
00000210: 2a3c a2bd 7878 1dbb 00e5 d538 fb4a ce3b
00000220: fc26 c7bb c282 91bd 1806 993b 1599 f2bb
00000230: 986b 0bbc b0df ddbc 4fa8 4f3d aa23 7f3c
00000240: 0ae9 6a3b 9a28 9f3c fb8a 05bd 63c9 163d
00000250: 3863 c3ba 8393 693c b09d ad3d 4549 603d
00000260: aafa 10bd 5960 23bc d04c 8c3d e045 253a
00000270: d460 75bd c769 c13d 1e00 6fbd 240b c03d
00000280: a316 98bd 6448 2bbd 5b62 573c 9228 e03b
00000290: a1e4 113c 8081 0cbd 5868 c1bd 9433 4abb
000002a0: 10c3 b2bd 29ab 0ebb ce80 6c3d 881d 60bd
000002b0: cc90 8ebc 3709 cb3d a2d6 84bd a01f 91bb
000002c0: 46e4 653c e94a 063c a3b8 1c3d dcaf 103c
000002d0: 3bc3 923d 66e3 fcbc a7e2 ca3c 1551 633d
000002e0: 5c51 133d 9d53 5a3d 535b 4fbb 5c93 673b
000002f0: e30e 37bd cad2 56bd 66b2 a63b 15ad b4bd
00000300: 4ca0 8e3d 8b99 bd3d e966 26bc 4c51 c83d
00000310: 1d9e 77bc c9d4 cdbd daee 7ebc 9274 91bc
00000320: 7ae0 67bd cf0f 283d 08c1 683d be76 953c
00000330: 1cd9 403b 8178 0fbd 2326 85bc 846d 8c3b
00000340: a7a6 bf3d e6cf 01bc da7b daba 4ce6 573c
00000350: 9a9b 99bd 07e9 c13d a263 11bc cc16 973c
00000360: 874d 95bd fc90 d1bd 3242 e33c 6692 ba3d
00000370: 1cc8 b73b ec81 8b3d f3fd c7bb ce3a d83c
00000380: 824a c63d 6a80 1bbd b235 40bd 5d8c 00bc
00000390: f5bc dabb 7fc9 a23d ffcc b03d d006 9c3a
000003a0: 084f 813c 0e70 853c 30f4 40bc a746 913c
000003b0: 1bf5 303d a0a5 b239 b431 e93c a75f 77bd
000003c0: 5c12 d0bc 638f 5cbd e833 e1bb 266a 1e3c
000003d0: 0a48 1abc dcee c2bc 5e13 97bb 88ab 58bc
000003e0: 0003 093b 2b70 d63b c8f0 583c 5a7b aa3b
000003f0: 30b9 cfbd 71ae 63bc c630 aa3d 70c0 c83c

bias f4 [100]
-0.015771776 -0.010953512 -0.03396352 0.0275163 0.021774044 0.026715897 -0.03399203 0.0061824806
0.019191097 0.041996654 -0.032332215 -0.0008385426 -0.014953992 0.041218728 -0.0020205372 0.006162555
-0.015784523 0.04725354 0.016720453 -0.010800183 0.021444434 -0.0046355724 0.024161428 -0.0062224907
0.018981706 -0.019280972 -0.017960124 -0.035269603 -0.03371547 0.022764226 -0.003924245 -0.036177427
0.029366376 -0.005302856 0.004484646 -0.036372885 -0.015927257 -0.018049544 -0.017148435 -0.003238068
0.037623808 -0.012422703 0.0074666776 -0.012074073 -0.0069552376 -0.012460239 0.003065474 -0.028603237
-0.034637015 0.048063524 0.020060576 -0.009066345 0.01336944 0.03075658 -0.039030395 -0.004943589
-0.030971017 0.033905305 0.048373688 0.03055093 -0.022079406 0.009274941 -0.02980103 0.0048988503
-0.00013385597 0.020684946 0.011304769 0.024705984 -0.03510845 0.020925555 0.044849847 -0.0364618
-0.03487514 -0.03365682 0.016791333 0.018599445 -0.03354932 -0.034426875 -0.037789814 -0.029459683
0.0106206145 -0.049836878 -0.030839244 -0.031903557 0.051093046 -0.025581677 -0.028671157 0.004452711
-0.007901482 0.050174955 -0.023377992 -0.03338294 -0.019035874 -0.034523536 -0.034867916 0.052345406
-0.020820523 -0.0062100347 -0.033480156 -0.03380021
00000000: d033 81bc 5c76 33bc 551d 0bbd dd69 e13c
00000010: 7b5f b23c 4cdb da3c 3a3b 0bbd 6896 ca3b
00000020: a636 9d3c af04 2c3d c96e 04bd a4d1 5bba
00000030: 9701 75bc f8d4 283d fd6a 04bb 42ef c93b
00000040: 8b4e 81bc ee8c 413d 55f9 883c 40f3 30bc
00000050: 3dac af3c 00e6 97bb 30ee c53c 09e6 cbbb
00000060: 867f 9b3c 21f3 9dbc 1c21 93bc dc76 10bd
00000070: 3c19 0abd 0b7c ba3c f496 80bb c82e 14bd
00000080: c191 f03c 95c3 adbb f0f3 923b bcfb 14bd
00000090: e179 82bc a3dc 93bc e07a 8cbc c435 54bb
000000a0: 6c1b 1a3d 9888 4bbc 08ab f43b 55d2 45bc
000000b0: c3e8 e3bb 0826 4cbc 1fe6 483b 5651 eabc
000000c0: 8bdf 0dbd 42de 443d 1456 a43c 028b 14bc
000000d0: 7f0b 5b3c 39f5 fb3c 56de 1fbd d5fd a1bb
000000e0: eeb6 fdbc 4ae0 0a3d 7d23 463d f245 fa3c
000000f0: dfdf b4bc ecf5 173c 4a21 f4bc 8986 a03b
00000100: b05b 0cb9 7a73 a93c a337 393c 3464 ca3c
00000110: e1cd 0fbd 126c ab3c 79b4 373d f858 15bd
00000120: 3cd9 0ebd bcdb 09bd fa8d 893c dd5d 983c
00000130: 036b 09bd 3203 0dbd 7ec9 1abd 6f55 f1bc
00000140: 1602 2e3c c121 4cbd 95a2 fcbc 4ead 02bd
00000150: f146 513d aa90 d1bc c6df eabc 0ce8 913b
00000160: 3875 01bc 4184 4d3d 3483 bfbc 8dbc 08bd
00000170: 1ff1 9bbc 8d68 0dbd a9d1 0ebd 2368 563d
00000180: cd8f aabc 8c7d cbbb 7d22 09bd 1772 0abd

weight f4 [100, 100]
0.08763906 -0.11133544 -0.0038994984 -0.10203627 0.008078211 0.014952406 0.084564224 -0.0139832385
-0.035922814 0.13037054 0.096214846 0.00348587 -0.11427697 0.10689564 0.068558946 0.014623569
0.009697521 -0.0011638803 0.004970727 -0.084103815 -0.010649983 0.09964793 0.0052651754 -0.09362644
0.013894658 -0.018768227 0.027824689 -0.03634761 -0.10412576 -0.028455734 0.023918968 -0.036591876
-0.030925166 -0.06274411 0.010741646 -0.079316005 0.07367754 0.0785954 -0.010460941 -0.026478576
0.0077737696 0.11530609 -0.1049273 -0.0037295925 0.08212799 0.02282347 0.013588416 -0.044636358
-0.09510564 0.064507574 0.029744271 -0.1212625 -0.016678337 0.048945434 0.10876281 -0.08317078
0.007749064 -0.031419586 0.040390763 0.034003474 -0.12447565 0.088938504 0.08266859 0.100279965
0.017432442 0.08998745 0.028334485 0.0016758288 -0.026833305 -0.0247238 0.08256242 0.05691911
0.16568553 -0.09496013 0.11817618 0.016716449 0.030107385 0.047340035 0.11757348 0.05734624
-0.02631715 0.041299224 0.06637787 0.06491476 -0.105211005 0.05307831 -0.086265355 -0.00127446
0.022367716 0.03136821 0.0019775883 0.0072481604 -0.08265525 -0.015573363 0.052325945 -0.06447864
0.0018062484 -0.06439761 -0.031637315 -0.0014192061 -0.029929534 -0.05064198 0.09726528 0.014368072
0.03972992 -0.016131673 0.08405396 -0.0020699576 -0.020725496 -0.09774745 -0.00904371 0.029492792
-0.013724138 -0.09346075 0.026985621 -0.002219346 0.012049271 0.009079219 -0.013952443 0.03263728
0.10004103 0.03063465 0.09524064 0.027836366 0.08570572 0.011799775 0.00020294031 0.07154762
-0.010379113 0.0034654578 -0.071734995 0.010241108 0.08014039 0.017708397 -0.022853903 0.0076305214
-0.042531274 0.013415948 0.02322996 0.053210124 0.0012850645 0.013192357 0.056432735 0.075408235
-0.11244161 -0.03347909 0.075094804 0.05855508 -0.043281823 0.009438396 -0.049990933 -0.08663923
-0.021219628 0.034166638 -0.0077132517 0.05887396 0.0018137232 -0.0040303133 -0.039775267 0.13263954
0.048919637 -0.059481345 -0.13866006 -0.041164827 -0.0020996658 0.0010841191 0.10503152 0.0056692706
-0.0141480025 -0.09030124 -0.0498274 0.11472243 -0.1125172 -0.10658739 0.061939284 -0.104439005
0.022568319 0.06142278 -0.082323894 0.06952725 0.004789479 0.059357245 -0.05789312 0.10715415
0.023797762 -0.030940298 0.02247493 -0.108207844 -0.012617305 0.034329813 -0.035448365 -0.0125687625
0.0008962699 0.07343987 -0.036932502 0.094208814 0.0012980597 0.08881972 -0.00095843105 -0.0030231494
-0.0360217 0.058447935 -0.05369346 0.021764569 0.08522714 0.008428097 -0.00013129367 -0.03341633
0.047624234 -0.056177706 0.01883357 -0.09495259 -0.02115269 -0.022610748 0.09646324 0.058831543
-0.12023176 0.015337448 0.01998505 0.07978023 0.0066003306 0.06966525 0.034519237 0.011643135
-0.041251406 -0.08260225 0.05740703 0.07728903 0.0290656 0.00190021 0.010318855 -0.0005640455
0.08145755 -0.014537119 0.09910262 -0.023847958 -0.05315582 0.046065316 -0.084779486 0.016174903
0.016158182 0.08487194 -0.0044861143 -0.050314452 -0.04528729 -0.0066787554 0.048520118 0.0044519017
0.000803109 0.08742381 -0.0842383 -0.063386835 0.006318614 -0.030531868 0.073347345 0.002304664
00000000: 1c7c b33d d603 e4bd ba8e 7fbb 64f8 d0bd
00000010: 795a 043c f0fa 743c 0230 ad3d f419 65bc
00000020: cd23 13bd db7f 053e 4a0c c53d 3273 643b
00000030: 0b0a eabd 1aec da3d a268 8c3d b297 6f3c
00000040: 5ae2 1e3c 588d 98ba 7be1 a23b 9f3e acbd
00000050: 447d 2ebc 3714 cc3d 7e87 ac3b 38bf bfbd
00000060: 6ba6 633c d3bf 99bc 9af0 e33c 3be1 14bd
00000070: e33f d5bd 001c e9bc b6f1 c33c 5de1 15bd
00000080: c656 fdbc fc7f 80bd bbfd 2f3c 6e70 a2bd
00000090: 40e4 963d a0f6 a03d 5e64 2bbc 99e9 d8bc
000000a0: 1bbb fe3b 9925 ec3d 20e4 d6bd 2e6c 74bb
000000b0: b832 a83d 49f8 ba3c f3a1 5e3c 9dd4 36bd
000000c0: bfc6 c2bd 8c1c 843d 42aa f33c 7958 f8bd
000000d0: 02a1 88bc 027b 483d 09bf de3d 7155 aabd
000000e0: dceb fd3b d3b1 00bd c970 253d 3a47 0b3d
000000f0: 17ed febd 6425 b63d 264e a93d 955f cd3d
00000100: 7bce 8e3c 574b b83d b91d e83c 7ca7 db3a
00000110: 85d1 dbbc 9189 cabc 7c16 a93d 0324 693d
00000120: 78a9 293e 757a c2bd 5a06 f23d eff0 883c
00000130: c3a3 f63c a0e7 413d 5dca f03d e4e3 6a3d
00000140: 1097 d7bc 6029 293d 1ff1 873d 08f2 843d
00000150: de78 d7bd a468 593d e4ab b0bd c80b a7ba
00000160: 803c b73c f47b 003d 6d9a 013b fa81 ed3b
00000170: 2847 a9bd 6b27 7fbc bb53 563d 610d 84bd
00000180: a4bf ec3a e5e2 83bd 2196 01bd a804 baba
00000190: c82e f5bc f76d 4fbd 0533 c73d 1068 6b3c
000001a0: d7bb 223d 9226 84bc 7c24 ac3d 20a8 07bb
000001b0: 84c8 a9bc d12f c8bd 122c 14bc de9a f13c
000001c0: 35db 60bc 5a68 bfbd f310 dd3c 7272 11bb
000001d0: 4e6a 453c 01c1 143c ca98 64bc abae 053d
000001e0: 50e2 cc3d 84f5 fa3c 860d c33d 1709 e43c
000001f0: 7b86 af3d d853 413c 60cc 5439 8f87 923d
00000200: 280d 2abc bc1c 633b cce9 92bd 52ca 273c
00000210: a520 a43d 3311 913c 1c38 bbbc 7409 fa3b
00000220: 4635 2ebd 90ce 5b3c c24c be3c dcf2 593d
00000230: 9c6f a83a c124 583c 0326 673d a26f 9a3d
00000240: c947 e6bd 5f21 09bd 4ecb 993d 74d7 6f3d
00000250: 4848 31bd 81a3 1a3c 4bc3 4cbd e96f b1bd
00000260: c9d4 adbc 51f2 0b3d 72bf fcbb d225 713d
00000270: 74ba ed3a b810 84bb 64eb 22bd a9d2 073e
00000280: f55f 483d b6a2 73bd e7fc 0dbe 739c 28bd
00000290: 8c9a 09bb 0019 8e3a c41a d73d 4ac5 b93b
000002a0: 06cd 67bc dbef b8bd d117 4cbd 98f3 ea3d
000002b0: 6b6f e6bd 7d4a dabd 0cb4 7d3d 1ee4 d5bd
000002c0: 32e1 b83c 7496 7b3d 6e99 a8bd 4e64 8e3d
000002d0: 10f1 9c3b 9520 733d 5621 6dbd a373 db3d
000002e0: 86f3 c23c 8276 fdbc 581d b83c 139c ddbd
000002f0: d0b8 4ebc 6b9d 0c3d 4e32 11bd 36ed 4dbc
00000300: a8f3 6a3a a467 963d 8946 17bd 8df0 c03d
00000310: a823 aa3a 1de7 b53d 383f 7bba 0820 46bb
00000320: 7d8b 13bd 1a67 6f3d aced 5bbd 9c4b b23c
00000330: 918b ae3d 0016 0a3c e0ab 09b9 90df 08bd
00000340: a111 433d 981a 66bd dc48 9a3c 8176 c2bd
00000350: 6848 adbc 2d3a b9bc 858e c53d 58f9 703d
00000360: 123c f6bd eb49 7b3c b0b7 a33c d163 a33d
00000370: 9647 d83b a8ac 8e3d 0b64 0d3d d9c2 3e3c
00000380: 3cf7 28bd 5e2b a9bd a223 6b3d b649 9e3d
00000390: fb1a ee3c 7810 f93a 6a10 293c 74dc 13ba
000003a0: 37d3 a63d 192d 6ebc 50f6 ca3d cb5c c3bc
000003b0: ebb9 59bd fcae 3c3d dea0 adbd 3b81 843c
000003c0: 2a5e 843c 57d1 ad3d 4100 93bb 8716 4ebd
000003d0: 2a7f 39bd 76d9 dabb 08bd 463d 42e1 913b
000003e0: bc87 523a 410b b33d 2185 acbd f5d0 81bd
000003f0: 600c cf3b f81d fabc 2237 963d d909 173b

bias f4 [100]
0.0042395554 -0.01608752 -0.029925577 -0.026141886 -0.028961454 -0.030172518 0.03411248 -0.0014207056
0.024816588 -0.03580008 -0.010895506 0.020253424 -0.017409127 -0.027851576 0.028434345 -0.022244684
-0.03400354 -0.034048703 -0.017686723 -0.026091075 0.01022289 -0.02502795 -0.032372568 -0.034105122
-0.010329462 0.018075282 -0.015325685 -0.015462657 0.02357081 0.008146524 0.023162091 0.018224128
-0.015182677 0.013230055 -0.039337013 0.011115232 0.0061953054 -0.0074793785 -0.0014570982 0.018216684
-0.026326444 0.037109494 -0.007823567 0.03425315 -0.03534656 -0.032365132 -0.020522738 -0.0011390634
-0.012937106 -0.013912435 -0.04738082 -0.0120157115 -0.016132927 -0.019439729 -0.01838501 -0.013420746
0.013964135 -0.0006033166 0.015418996 -0.021169793 -0.020669458 0.042199753 0.0018477675 -0.032072652
-0.034550633 -0.014634745 0.028928677 -0.00989569 -0.03468108 0.04126355 -0.0018775209 -0.030271765
-0.035283662 -0.0077271736 -0.012604775 0.0045288163 -0.035254218 0.044360712 -0.020906474 -0.040045515
-0.0005658532 0.0015353886 0.040429477 0.02087272 -0.035107642 -0.0150722135 -0.042180903 -0.0015986927
-0.03523713 -0.012186417 -0.034800954 -0.03546015 0.018982025 -0.025880225 -0.011219729 -0.031407263
-0.03325766 0.022608925 0.006542386 0.005712013
00000000: f8eb 8a3b fac9 83bc 7c26 f5bc 8227 d6bc
00000010: 9240 edbc 5b2c f7bc 87b9 0b3d f836 baba
00000020: 284c cb3c 1ba3 12bd 1083 32bc 82ea a53c
00000030: 969d 8ebc fd28 e4bc 25ef e83c 7c3a b6bc
00000040: 4c47 0bbd a776 0bbd bfe3 90bc f3bc d5bc
00000050: e97d 273c 6a07 cdbc 1999 04bd d0b1 0bbd
00000060: e73c 29bc 9d12 943c 9518 7bbc 1657 7dbc
00000070: 9217 c13c 0079 053c 6dbe bd3c c44a 953c
00000080: c3c0 78bc dfc2 583c d91f 21bd a91c 363c
00000090: fd01 cb3b 9315 f5bb 1afc beba 283b 953c
000000a0: 8eaa d7bc 2000 183d 6b2e 00bc 084d 0c3d
000000b0: 8ec7 10bd 4d91 04bd 4d1f a8bc a04c 95ba
000000c0: 28f6 53bc fbf0 63bc 6412 42bd 8cdd 44bc
000000d0: 3329 84bc 1140 9fbc 299c 96bc b0e2 5bbc
000000e0: d4c9 643c e427 1eba f59f 7c3c 466c adbc
000000f0: ff52 a9bc a6d9 2c3d ca30 f23a 9d5e 03bd
00000100: f784 0dbd 92c6 6fbc d5fb ec3c 8821 22bc
00000110: c00d 0ebd f803 293d 2617 f6ba 7efc f7bc
00000120: 9a85 10bd 3b34 fdbb 4284 4ebc 7766 943b
00000130: ba66 10bd 94b3 353d 0e44 abbc c406 24bd
00000140: c455 14ba 183f c93a 6199 253d 44fd aa3c
00000150: 08cd 0fbd 72f1 76bc e2c5 2cbd 3a8b d1ba
00000160: cf54 10bd 8aa9 47bc 728b 0ebd aa3e 11bd
00000170: 3180 9b3c c402 d4bc f4d2 37bc e7a4 00bd
00000180: 2f39 08bd 5a36 b93c 8361 d63b d72b bb3b

weight f4 [100, 100]
-0.003735249 0.009993553 -0.058953177 0.016282938 -0.027917093 0.012843788 -0.010477738 -0.10267301
-0.11808121 -0.033467364 0.031018427 -0.021719798 -0.025512794 -0.0393752 0.05544757 -0.10124327
-0.0072707916 0.03059008 -0.017210709 -0.016092181 -0.11876016 0.07709152 -0.0066078543 0.0960107
0.068728775 -0.07796125 0.0020508834 -0.015496045 -0.09433415 -0.10469441 -0.0076843593 -0.0136752
-0.09551507 0.0014637286 0.06017367 -0.0055689253 0.083621554 -0.005187444 -0.039317966 0.0049986513
-0.11320435 0.013725321 0.08438871 0.0024254248 -0.011047656 0.015291906 0.02255452 -0.013038329
-0.0070758564 0.10140951 -0.029884893 -0.09392564 -0.058202412 -0.0114295725 0.09362671 -0.086060286
-0.037010375 0.059129268 -0.0876881 -0.026851296 0.08947264 0.004596453 0.009118181 -0.037673872
0.047738295 -0.051278915 0.057818484 0.0055121286 -0.003964548 0.000709889 -0.06434414 0.02459447
0.09860122 0.014276967 -0.099462956 -0.12508692 -0.08458252 0.023255177 -0.0071876966 -0.025076617
0.10850115 -0.032632843 -0.015021019 -0.0012436155 -0.027414108 0.09961109 -0.008820007 -0.11624432
-0.00130329 -0.013771242 0.07239354 0.02444781 -0.0029613469 0.020897403 -0.014606239 0.0029622274
0.07828201 -0.017135242 0.099099986 -0.003581883 0.099537075 -0.012787906 0.006405592 0.032361936
0.064670235 0.015862547 0.0076229963 0.10205543 0.032052785 0.06903161 -0.038018625 0.0047615096
-0.054114737 -0.05948189 0.005693868 -0.049909923 0.0059444713 -0.036405444 -0.033990104 0.0072012474
0.099554345 -0.0073143765 -0.025105204 -0.060570937 0.016343836 0.026034303 0.001112714 -0.015118876
-0.00677984 -0.06369738 -0.04352328 -0.06441096 -0.08248963 -0.094596066 -0.015640363 0.044130616
0.0033666412 0.07930542 0.0126557555 -0.0009496948 0.042116884 0.025459606 -0.05516286 0.0870304
-0.012696595 -0.005087806 0.07326895 -0.0071085277 -0.0073694144 -0.027658524 -0.011783873 0.014658313
-0.04704448 -0.013302973 0.08293373 -0.016553964 0.015500195 -0.070680946 0.0055451435 -0.04414021
-0.015687507 -0.013687346 -0.01589936 0.010670897 -0.099986136 0.05657726 -0.008625848 0.10079603
0.005875947 -0.037142303 -0.0133823175 -0.06715707 -0.07486541 0.0036176369 -0.026460817 0.011695094
-0.007777069 0.015867589 -0.01598544 -0.0024331622 0.0057751387 -0.026882295 0.0068563684 0.001891242
0.025781255 -0.016499955 -0.09997661 0.024078626 -0.008926087 -0.026476793 0.0028685052 0.0147736715
0.07745886 -0.07881343 0.00022911537 -0.03488707 -0.010030926 -0.054743268 0.094809465 0.0617554
0.026352324 0.0077008363 -0.011718858 -0.08504152 -0.11279815 -0.05320214 0.04578819 -0.024726354
-0.07843364 0.057070985 -0.061506458 -0.00091260066 -0.10242551 0.12390145 0.10095957 0.0042824475
-0.002299047 0.06304119 -0.0988325 0.009556672 0.08011877 -0.019797059 -0.11555992 -0.014089746
0.020808136 -0.015545667 0.037919693 -0.018040892 -0.074031375 0.07017969 0.0833576 0.05433494
-0.0748911 0.05812175 0.10379162 -0.010481616 -0.103720434 0.019156646 0.011271795 -0.053886928
-0.083631374 -0.010786764 -0.13789053 0.08141588 0.0005895102 0.09270572 0.049809117 -0.091080785
0.013721965 0.05903648 0.008670832 -0.010421494 -0.08039996 -0.033928644 -0.083724976 0.012897281
00000000: 14cb 74bb 00bc 233c e378 71bd cc63 853c
00000010: 63b2 e4bc c06e 523c d2aa 2bbc 3a46 d2bd
00000020: 90d4 f1bd 1315 09bd 5b1a fe3c b8ed b1bc
00000030: 3500 d1bc e447 21bd fe1c 633d a258 cfbd
00000040: d23f eebb 0c98 fa3c 79fd 8cbc c0d3 83bc
00000050: 8738 f3bd 29e2 9d3d b386 d8bb 42a1 c43d
00000060: acc1 8c3d 26aa 9fbd 1d68 063b 20e3 7dbc
00000070: 4332 c1bd 066a d6bd 14cd fbbb f20d 60bc
00000080: 689d c3bd 95da bf3a ab78 763d 887b b6bb
00000090: c741 ab3d 6ffb a9bb e00b 21bd bacb a33b
000000a0: afd7 e7bd 2be0 603c fdd3 ac3d e0f3 1e3b
000000b0: 3a01 35bc e78a 7a3c 42c4 b83c b79e 55bc
000000c0: 96dc e7bb caaf cf3d 2ad1 f4bc 165c c0bd
000000d0: a765 6ebd 1a43 3bbc 5cbf bf3d 6040 b0bd
000000e0: 3198 17bd 8831 723d d295 b3bd 40f7 dbbc
000000f0: 6e3d b73d d89d 963b 6c64 153c eb4f 1abd
00000100: 3b89 433d d709 52bd 13d3 6c3d 169f b43b
00000110: 0ae9 81bb d817 3a3a dcc6 83bd 587a c93c
00000120: 70ef c93d f1e9 693c 3cb3 cbbd c916 00be
00000130: 9a39 adbd a481 be3c c586 ebbb 7a6d cdbc
00000140: da35 de3d 04aa 05bd b81a 76bc d000 a3ba
00000150: 8d93 e0bc e600 cc3d ca81 10bc 8111 eebd
00000160: 28d3 aaba c7a0 61bc 1043 943d c646 c83c
00000170: 2813 42bb 0831 ab3c 024f 6fbc ee21 423b
00000180: 5252 a03d 355f 8cbc eff4 ca3d 06be 6abb
00000190: 18da cb3d 5e84 51bc 00e6 d13b f38d 043d
000001a0: d471 843d 2cf2 813c 54ca f93b 7002 d13d
000001b0: c849 033d 7260 8d3d 6bb9 1bbd 7006 9c3b
000001c0: 6aa7 5dbd 48a3 73bd a093 ba3b 596e 4cbd
000001d0: d7c9 c23b e01d 15bd 3539 0bbd 71f8 eb3b
000001e0: 26e3 cb3d 70ad efbb 6ea9 cdbc 3b19 78bd
000001f0: 82e3 853c e445 d53c 7cd8 913a 29b5 77bc
00000200: 6c29 debb c673 82bd 7845 32bd e5e9 83bd
00000210: 53f0 a8bd 95bb c1bd 3820 80bc 4ec2 343d
00000220: dea2 5c3b e16a a23d 165a 4f3c f0f4 78ba
00000230: c182 2c3d aa90 d03c 73f2 61bd ff3c b23d
00000240: 6105 50bc 9cb7 a6bb 080e 963d a7ee e8bb
00000250: 217b f1bb 2194 e2bc 2511 41bc 6c29 703c
00000260: b6b1 40bd b6f4 59bc 29d9 a93d 2e9c 87bc
00000270: 88f4 7d3c 2cc1 90bd 09b4 b53b 5dcc 34bd
00000280: 1683 80bc e440 60bc 603f 82bc fcd4 2e3c
00000290: 88c5 ccbd 8fbd 673d 6e53 0dbc 266e ce3d
000002a0: 048b c03b 8722 18bd 8241 5bbc a589 89bd
000002b0: 0953 99bd e015 6d3b 5bc4 d8bc c89c 3f3c
000002c0: c9d6 febb bffc 813c e6f3 82bc b075 1fbb
000002d0: 603d bd3b 4238 dcbc 63ab e03b 8de3 f73a
000002e0: 3633 d33c ea2a 87bc 89c0 ccbd 8a40 c53c
000002f0: b93e 12bc dce5 d8bc 88fd 3b3b 450d 723c
00000300: c0a2 9e3d f068 a1bd b03e 7039 bfe5 0ebd
00000310: c158 24bc 7a3a 60bd 772b c23d 3bf3 7c3d
00000320: d4e0 d73c 4c57 fc3b 7400 40bc 402a aebd
00000330: b702 e7bd 7dea 59bd 668c 3b3d ec8e cabc
00000340: d1a1 a0bd 44c3 693d 32ee 7bbd 983b 6fba
00000350: 77c4 d1bd 0bc0 fd3d e4c3 ce3d c653 8c3b
00000360: 9cab 16bb bd1b 813d b268 cabd 9693 1c3c
00000370: 4f15 a43d 712d a2bc aeaa ecbd aed8 66bc
00000380: d375 aa3c 41b3 7ebc ae51 1b3d 7eca 93bc
00000390: c39d 97bd 5fba 8f3d 64b7 aa3d 508e 5e3d
000003a0: 8160 99bd 1211 6e3d b390 d43d 15bb 2bbc
000003b0: 616b d4bd 66ee 9c3c 56ad 383c 8ab8 5cbd
000003c0: ed46 abbd f8ba 30bc 2d33 0dbe 5ebd a63d
000003d0: 5c89 1a3a 7fdc bd3d a504 4c3d 9088 babd
000003e0: 18d2 603c 3cd0 713d 1b10 0e3c eabe 2abc
000003f0: bca8 a4bd c3f8 0abd 0078 abbd 1e4f 533c

bias f4 [25]
0.0 0.0 0.0 0.0 0.0 0.0 0.0 0.0
0.0 0.0 0.0 0.0 0.0 0.0 0.0 0.0
0.0 0.0 0.0 0.0 0.0 0.0 0.0 0.0
0.0
00000000: 0000 0000 0000 0000 0000 0000 0000 0000
00000010: 0000 0000 0000 0000 0000 0000 0000 0000
00000020: 0000 0000 0000 0000 0000 0000 0000 0000
00000030: 0000 0000 0000 0000 0000 0000 0000 0000
00000040: 0000 0000 0000 0000 0000 0000 0000 0000
00000050: 0000 0000 0000 0000 0000 0000 0000 0000
00000060: 0000 0000

weight f4 [25, 100]
0.01859228 0.020133208 0.17061691 -0.10148589 0.012211447 -0.08389347 0.1546139 -0.011591054
0.1221706 -0.05201227 0.07605481 -0.12799366 -0.096520364 -0.09888151 0.095104955 0.15256271
0.10094688 -0.026072577 0.17114258 -0.10665657 0.21729739 0.18326469 -0.1353594 0.04711488
0.094649546 0.056134254 -0.09509631 -0.21109316 -0.034565214 0.030321179 0.14112134 -0.15855345
-0.05284808 0.1510756 -0.035527978 0.04465582 -0.06828265 -0.20748 0.025301432 -0.047584105
-0.08307145 -0.14491639 -0.14156781 0.123983905 0.0785869 -0.15925369 0.113252066 -0.18007511
0.11417359 0.15359916 0.13994773 0.13923424 0.03744291 -0.21054062 0.19368836 -0.03451637
0.20498735 -0.12520654 0.11720136 -0.05150389 -0.097528785 -0.21216497 -0.11293886 -0.026267752
0.16743651 -0.17109461 0.14816137 0.19398028 -0.047675464 -0.2017193 -0.014067301 -0.21151848
0.11058114 -0.064453885 0.056060184 0.21589072 0.069868736 0.110402755 0.019274335 -0.06251783
-0.012275565 -0.07875371 0.16509798 0.17858899 -0.12547503 0.093884826 0.0074954457 0.1549324
0.109392636 0.19956654 -0.01842228 0.08146431 -0.07636657 0.2042934 -0.008158046 0.19660558
-0.07398885 -0.10993295 0.0943598 -0.022425171 0.007463452 -0.16652559 0.019254277 -0.11213734
-0.086139545 -0.20237878 -0.21821481 0.0048697283 0.20872903 0.076329336 0.017625645 -0.102488145
-0.08030467 -0.15780877 0.06312947 -0.18398145 -0.18331501 0.07361158 -0.20036647 0.041072268
0.19896503 0.1823011 -0.01745805 0.0040605315 -0.03827663 -0.0052700043 -0.12531796 0.18896544
-0.061563574 -0.062253308 0.022855926 -0.2024915 0.14865223 -0.08073018 0.13088866 -0.10195078
-0.14722244 -0.07930837 -0.06549801 0.21327005 0.13100785 -0.11257288 -0.043714624 0.19341171
-0.069651596 -0.04671155 -0.057526626 0.2170169 -0.05845479 0.00012034919 -0.16390993 -0.10845283
-0.08745393 -0.12990484 0.09881883 -0.09676806 -0.16971903 0.12349666 -0.08220072 -0.19037093
0.13112052 0.015499294 0.18375657 -0.077388786 -0.14748056 -0.083679646 0.18332049 0.010213541
0.042259306 0.14424989 -0.21460405 -0.06219157 -0.064499825 0.17458841 -0.19870125 0.02281393
-0.14980273 0.17190905 0.08537221 0.060031995 0.2106223 0.113129176 -0.20426175 -0.1286257
0.07411786 -0.10146547 -0.07771557 0.13299364 -0.080176175 -0.070258334 -0.06599294 -0.060729355
0.14072496 0.045613937 -0.2009196 -0.1470783 -0.21021232 0.11564155 0.20185111 -0.21778366
0.21188812 -0.17833982 -0.072264075 0.06799173 -0.14210962 -0.026087776 0.05813686 0.09375131
-0.051480778 -0.07244209 -0.071941234 0.20539036 0.14868657 0.025586557 -0.14021268 -0.0639978
-0.039251726 0.20806588 -0.0027053757 -0.025562711 0.18777391 -0.1716227 0.19627342 -0.1724581
-0.20189358 0.1149427 -0.14190966 0.15391928 0.08463604 0.1883504 -0.0799682 0.03719678
0.17294432 -0.14127013 0.07543974 0.122125335 0.13006827 -0.19333209 -0.20725791 -0.17736976
0.19642325 0.04077137 0.09717803 0.15121216 -0.010862977 -0.009657997 0.12704884 0.13697678
-0.088328026 -0.09901456 0.21458094 0.12874188 -0.058877263 -0.084303565 -0.109788366 -0.025380412
00000000: d64e 983c 66ee a43c 33b6 2e3e d6d7 cfbd
00000010: 8512 483c 57d0 abbd 1b53 1e3e 67e8 3dbc
00000020: 9434 fa3d d10a 55bd a0c2 9b3d c510 03be
00000030: 78ac c5bd 6482 cabd 63c6 c23d 6639 1c3e
00000040: 3dbd ce3d 2896 d5bc 0040 2f3e c36e dabd
00000050: 3583 5e3e bda9 3b3e a89b 0abe 88fb 403d
00000060: 9fd7 c13d 08ed 653d dbc1 c2bd ce28 58be
00000070: 4194 0dbd 1f64 f83c 1d82 103e d65b 22be
00000080: 3a77 58bd 90b3 1a3e c985 11bd 05e9 363d
00000090: c6d7 8bbd a375 54be f344 cf3c 8de7 42bd
000000a0: 5d21 aabd f664 14be 27f7 10be 46eb fd3d
000000b0: 2bf2 a03d 6613 23be b3f0 e73d 9c65 38be
000000c0: d8d3 e93d 1949 1d3e 754e 0f3e 6c93 0e3e
000000d0: bd5d 193d f697 57be 3e56 463e 0a61 0dbd
000000e0: 34e8 513e 2536 00be 4407 f03d bef5 52bd
000000f0: 2cbd c7bd c641 59be 7d4c e7bd 782f d7bc
00000100: 7a74 2b3e 6d33 2fbe 9db7 173e c4a2 463e
00000110: 5947 43bd 818f 4ebe 897a 66bc 4d98 58be
00000120: 5d78 e23d 6600 84bd 5d9f 653d 7512 5d3e
00000130: 5717 8f3d d71a e23d 36e5 9d3c 5909 80bd
00000140: 741f 49bc a049 a1bd 720f 293e 08e0 363e
00000150: 877c 00be b046 c03d 5b9c f53b 99a6 1e3e
00000160: 3f09 e03d 2c5b 4c3e 52ea 96bc c3d6 a63d
00000170: 1466 9cbd 4a32 513e 53a9 05bc f952 493e
00000180: 7787 97bd 8724 e1bd b63f c13d feb4 b7bc
00000190: f98f f43b af85 2abe 25bb 9d3c 43a8 e5bd
000001a0: ee69 b0bd 623c 4fbe b473 5fbe 3e92 9f3b
000001b0: 10bd 553e 8e52 9c3d a863 903c 4ee5 d1bd
000001c0: c676 a4bd 9f98 21be 064a 813d a265 3cbe
000001d0: eeb6 3bbe abc1 963d de2c 4dbe 653b 283d
000001e0: 7dbd 4b3e 24ad 3a3e 2f04 8fbc 350e 853b
000001f0: f5c7 1cbd 00b0 acbb 5a53 00be 2880 413e
00000200: 162a 7cbd 53fd 7ebd 5a3c bb3c ef59 4fbe
00000210: 4a38 183e dd55 a5bd ad07 063e 92cb d0bd
00000220: 7bc1 16be 6d6c a2bd d223 86bd 7763 5a3e
00000230: ec26 063e 9c8c e6bd 1b0e 33bd b80d 463e
00000240: 7fa5 8ebd 9c54 3fbd 0aa1 6bbd ae39 5e3e
00000250: 4a6e 6fbd fb63 fc38 01d8 27be 841c debd
00000260: 0c1b b3bd c605 05be 8761 ca3d 552e c6bd
00000270: d3ca 2dbe d1eb fc3d da58 a8bd 99f0 42be
00000280: 7544 063e c0f0 7d3c af2a 3c3e 037e 9ebd
00000290: 2505 17be 3c60 abbd 5eb8 3b3e b256 273c
000002a0: 1818 2d3d 3eb6 133e 2ac1 5bbe 96bc 7ebd
000002b0: 7c18 84bd 4ec7 323e 5778 4bbe 47e4 ba3c
000002c0: e365 19be ed08 303e a0d7 ae3d 1ce4 753d
000002d0: 5fad 573e 45b0 e73d fe29 51be 75b6 03be
000002e0: 1bcb 973d 21cd cfbd 5729 9fbd 7c2f 083e
000002f0: 6833 a4bd 9ae3 8fbd 4e27 87bd 58bf 78bd
00000300: 341a 103e aed5 3a3d debd 4dbe b29b 16be
00000310: e641 57be 7ad5 ec3d 0fb2 4e3e ae02 5fbe
00000320: 33f9 583e b79e 36be 30ff 93bd 403f 8b3d
00000330: 2f85 11be 08b6 d5bc eb20 6e3d b000 c03d
00000340: 82dd 52bd 855c 94bd ed55 93bd da51 523e
00000350: 4b41 183e e69a d13c ea93 0fbe 4711 83bd
00000360: 6bc6 20bd 390f 553e ac4c 31bb e468 d1bc
00000370: ce47 403e dcbd 2fbe e6fb 483e db98 30be
00000380: 31bd 4ebe 1467 eb3d c450 11be 049d 1d3e
00000390: a955 ad3d edde 403e 5ec6 a3bd a75b 183d
000003a0: 5118 313e 1ea9 10be 2780 9a3d d91c fa3d
000003b0: 9e30 053e d9f8 45be 6b3b 54be 6ba0 35be
000003c0: 2d23 493e e1ff 263d 4605 c73d 5cd7 1a3e
000003d0: a1fa 31bc 933c 1ebc 1719 023e a443 0c3e
000003e0: 53e5 b4bd 25c8 cabd 1bbb 5b3e e9d4 033e
000003f0: 4929 71bd 59a7 acbd b9d8 e0bd 95ea cfbc
