deep_learning/models/GCNLinkPrediction103.pth (torch, 136220 bytes, 8 tensors)

bias f4 [100]
0	0x3d33ef87	0.043929603
1	0xbc433380	-0.011914134
2	0x3ce3bcfe	0.02780008
3	0xbc6c8cfb	-0.014437909
4	0x3c0ffaf5	0.00878786
5	0x3b8cbe4e	0.004295147
6	0xbccaabe2	-0.024740163
7	0xbb8fba31	-0.0043862094
8	0xbc8e1782	-0.017345194
9	0xbc3e40cc	-0.0116121285
10	0x3ca744cf	0.020418553
11	0xbcb149ba	-0.0216416
12	0xbcb0c532	-0.021578405
13	0x3d3c231f	0.04593193
14	0xb9b7e860	-0.00035077613
15	0x3c74bd5a	0.014937723
16	0x3c80395f	0.015652357
17	0xbcadcdfd	-0.021216387
18	0x3c01163a	0.007878834
19	0x3b6118b8	0.003434701
20	0x3c851a31	0.01624784
21	0x3bf25c85	0.007396283
22	0x3cf760d5	0.03019754
23	0xbc49f194	-0.012325663
24	0x3bc0bb89	0.005881731
25	0xb91ff040	-0.00015252922
26	0xbbc5bcb3	-0.0060344576
27	0xbab200e6	-0.001358059
28	0x3bbe8a2c	0.005814811
29	0x3c3187f8	0.01083564
30	0xbc3997aa	-0.011327663
31	0xbc462aa7	-0.01209513
32	0x3c6b24d4	0.014352042
33	0xbc85f61c	-0.016352706
34	0xbcedb3b7	-0.029016359
35	0xbc080e86	-0.008304244
36	0x3aa370a1	0.0012469479
37	0xbccbe966	-0.024891566
38	0xbd04858e	-0.03235393
39	0xbb549e5f	-0.003244303
40	0xbc4a20a9	-0.012336888
41	0x3d3e12c5	0.04640462
42	0x3c6062f1	0.0136954645
43	0xbb95da02	-0.0045731077
44	0x3d0211b5	0.031755168
45	0xbcc820f3	-0.024429774
46	0xbc178362	-0.009247633
47	0xbcb1a568	-0.021685317
48	0xbb71802c	-0.0036850078
49	0xbd035d57	-0.032071438
50	0xbb8c03c9	-0.004272912
51	0xbd1754c6	-0.03694608
52	0xbca9d8c3	-0.020733243
53	0x3ca6f641	0.020381095
54	0xbbd1d619	-0.0064036963
55	0x3d1a0f2d	0.03761213
56	0x3a33da34	0.0006860823
57	0xbcac894d	-0.021061564
58	0x3ccf3d03	0.025297647
59	0x3c14dde0	0.009086102
60	0x3d73bc33	0.059505653
61	0x3c7d787b	0.015470619
62	0x3d648806	0.055793785
63	0x3c113376	0.008862367
64	0x3c8cbeb1	0.017180772
65	0x3c359a10	0.011084095
66	0x3c5f390a	0.013624439
67	0xbc5aa729	-0.013345518
68	0x3bbfbcb8	0.0058513544
69	0x3d41d318	0.047320455
70	0x3c965738	0.018352136
71	0x3cb2271e	0.021747168
72	0x3b1f174c	0.002427536
73	0xbb104551	-0.0022013972
74	0x3d3c9be3	0.046047103
75	0xba946aa2	-0.0011323283
76	0xbd21a469	-0.039463434
77	0x3aa5cd5e	0.0012649705
78	0x3d3653ce	0.044513516
79	0xbc1f055b	-0.009705867
80	0x3b9670c7	0.004591081
81	0xbad78fbf	-0.0016446038
82	0x3d471d1e	0.048611753
83	0xbd3830c1	-0.04496837
84	0x3d349bdc	0.04409395
85	0xbc4c095f	-0.012453406
86	0x3c8977d5	0.016780773
87	0xbc782cc0	-0.015147388
88	0xbbb6ed99	-0.005582523
89	0x3cc58253	0.024109995
90	0xbb533620	-0.0032228306
91	0xbc437530	-0.011929795
92	0x3c4aa557	0.012368522
93	0x3d4172e2	0.0472287
94	0x3c87dcce	0.01658478
95	0x3c6794fd	0.014134643
96	0x3cec7c64	0.028867908
97	0x3a59165f	0.00082812266
98	0x3bdb3e80	0.0066908
99	0x3d1ba175	0.037995774

weight f4 [100, 18]
0	0xbca8732c	-0.02056273
1	0x3a531950	0.0008052783
2	0x3dd882a6	0.10571794
3	0xbad5bebc	-0.0016307454
4	0xbb6d8bb3	-0.0036246597
5	0x3c9f7952	0.01946703
6	0x3b09ff2e	0.002105664
7	0x3e5e6473	0.21718006
8	0x3e03e350	0.12879682
9	0xbdbaf0ca	-0.09127958
10	0xbd2bdbde	-0.04195773
11	0x3cf69e26	0.030104708
12	0x3b0bc1f7	0.002132533
13	0x3dc035ac	0.09385237
14	0x3c869637	0.01642905
15	0xbc201b95	-0.009772201
16	0xbbc1c1cc	-0.005912995
17	0xbc6e5d00	-0.01454854
18	0xbcd2d9e6	-0.025738668
19	0xbdb3b7b0	-0.0877527
20	0x3d51439f	0.05108988
21	0x3b8ecc2a	0.0043578343
22	0xbdf34ad0	-0.11879504
23	0x3d4fea25	0.050760407
24	0xbc5057a4	-0.012716208
25	0xbb861566	-0.0040919064
26	0x3c0ebfcc	0.00871272
27	0xbe0b2062	-0.13586572
28	0x3aef228c	0.0018244549
29	0xbdfab1cd	-0.12240944
30	0x3dec2a1e	0.11531471
31	0xbdb5a8a0	-0.08870053
32	0x3e190c86	0.14946184
33	0x3dcba0f6	0.0994281
34	0xbc188176	-0.00930821
35	0x3e17140e	0.14753744
36	0x3e0b768a	0.13619438
37	0xbd04f29e	-0.03245794
38	0x3d117438	0.035511225
39	0x3c0adeaa	0.008475939
40	0xbde07cd8	-0.10961312
41	0x3d55a34b	0.05215768
42	0xbd10c459	-0.0353435
43	0x3e181c12	0.14854458
44	0xbd9cf184	-0.07663253
45	0x3da9dc03	0.08293917
46	0x3bc0e0de	0.0058861813
47	0xbd852c15	-0.065025486
48	0x3d2cd9ae	0.042199783
49	0xbbc465a6	-0.0059935628
50	0xbcb7c07e	-0.022430655
51	0xbd10a3db	-0.035312515
52	0x3db61c83	0.08892157
53	0x3c7a12f7	0.015263311
54	0xbdd46c2c	-0.10372195
55	0xbc20e4fe	-0.009820221
56	0xbc477636	-0.01217418
57	0x3e03e67a	0.12880889
58	0x3c5ccfd0	0.013477281
59	0x3d2bf52f	0.041981872
60	0xbc7e022e	-0.015503449
61	0x3e84adda	0.25913888
62	0xbd42b02b	-0.047531288
63	0x3e21f110	0.15814614
64	0x39cd6150	0.0003917315
65	0x3dc69b81	0.09697629
66	0xbdcce193	-0.10003962
67	0x3d225940	0.039635897
68	0x3b9c0589	0.004761402
69	0xba8e2e50	-0.0010847542
70	0x3c191709	0.009343871
71	0x3e07dc97	0.13267742
72	0x3c7b773d	0.015348253
73	0x3dc71d66	0.09722404
74	0xbc3ccaf9	-0.011523002
75	0x3e071abe	0.13193795
76	0xbc76cbf9	-0.015063279
77	0x3dfdbdd9	0.12389726
78	0x3d079653	0.033102345
79	0x3dc59493	0.09647479
80	0x3d8ebc7c	0.06969544
81	0x3e03734e	0.12836954
82	0x3c81b32e	0.01583251
83	0xbc5e922f	-0.013584658
84	0x3c850d67	0.016241742
85	0x3caacea8	0.020850495
86	0xbc1ac60a	-0.00944663
87	0x3de64191	0.112429745
88	0x3dd69f9f	0.10479664
89	0xbd5236d0	-0.051321805
90	0xbd9e5311	-0.077306874
91	0xbc00ac04	-0.007853512
92	0xbc37e2d0	-0.01122351
93	0xbb6dced7	-0.0036286616
94	0xbdfd6743	-0.12373211
95	0x3c77830d	0.015106929
96	0x3c661c4e	0.014044834
97	0x3c081816	0.008306524
98	0xbca87db1	-0.020567747
99	0xbe1e8e28	-0.15483916
100	0xbdd6cc35	-0.10488168
101	0xbb60a256	-0.0034276447
102	0x3db953f9	0.0904922
103	0x3dd2e52d	0.10297618
104	0xbdf1008f	-0.11767685
105	0x3dd1bd68	0.102412045
106	0x3c75aad8	0.014994346
107	0xbd527b46	-0.051387094
108	0xbaa428ba	-0.0012524344
109	0x3de5dae3	0.1122339
110	0x3d8f83a7	0.070075326
111	0xbc0c1ec0	-0.008552253
112	0xbdf5680d	-0.11982737
113	0xbe21261b	-0.15737192
114	0xbd951677	-0.072796755
115	0x3a2e12c0	0.0006640367
116	0xbc9bd8e2	-0.019024316
117	0x3d90fe39	0.07079739
118	0x3d8e5d7f	0.06951427
119	0xbdfca665	-0.12336425
120	0x3bc06816	0.005871783
121	0xbc718246	-0.014740532
122	0x3d437b87	0.047725227
123	0xbc1cf50c	-0.009579908
124	0xbd21dea9	-0.039518986
125	0xbe093c2a	-0.13401857
126	0xbb9851c6	-0.00464842
127	0xb98b8d98	-0.00026617642
128	0xbc74eaaa	-0.014948526
129	0x3dc913ca	0.098182276
130	0xb9e2f3d0	-0.00043287734
131	0x3d89b3a6	0.06723718
132	0x3dd1241f	0.10211968
133	0xbdab7d0b	-0.083734594
134	0xbbbcf864	-0.005766915
135	0x3db46a80	0.08809376
136	0xba49ac68	-0.0007693232
137	0x3d50ebc1	0.051006082
138	0x3d72162b	0.059103172
139	0x3d8d81cc	0.069095224
140	0x3c18843a	0.009308869
141	0x3ddf94eb	0.10917076
142	0xbdd8c4aa	-0.10584386
143	0x3dabba64	0.083851606
144	0xbdbd1ea8	-0.09234363
145	0xbe0b376f	-0.13595365
146	0xbe00974d	-0.12557717
147	0xbdca2881	-0.09871007
148	0xbe126fc4	-0.14300448
149	0xbc1cfb49	-0.009581395
150	0x3e01091b	0.1260113
151	0xbd5c369f	-0.05376303
152	0x3e14dfeb	0.14538543
153	0x3c9385c8	0.018008128
154	0x3df3b98c	0.11900625
155	0x3dbeb524	0.093118936
156	0x3def7da0	0.11693883
157	0x3db71cb2	0.0894102
158	0xbdac1771	-0.084029086
159	0x3b9775b8	0.0046221875
160	0xbc31a522	-0.010842593
161	0xbb9cdb86	-0.0047869114
162	0xbba3bb65	-0.0049967044
163	0xbdeacc51	-0.114647515
164	0x3d16fa54	0.036859825
165	0x3db35b64	0.08757666
166	0x3dc99e40	0.09844637
167	0x3e033b67	0.12815629
168	0x3c0057e4	0.007833455
169	0x3d825e46	0.063656375
170	0xbdb6eb4f	-0.089316
171	0x3df36ae4	0.11885622
172	0xbbf912aa	-0.007601102
173	0xbb237822	-0.002494343
174	0x3bb4c942	0.005517156
175	0xbdd71478	-0.10501951
176	0xbdabf869	-0.0839699
177	0xbe07d219	-0.1326374
178	0xbdc6bb5c	-0.09703705
179	0xbc57bba0	-0.013167292
180	0x3c779329	0.015110769
181	0xbdcfdb5e	-0.10149263
182	0xbbecfe92	-0.0072324956
183	0x3aa68278	0.0012703678
184	0x3ba73694	0.0051029418
185	0xbdd3c8b0	-0.103410125
186	0x3cfe4e77	0.031043274
187	0xbe0ffa92	-0.14060429
188	0x3c8cacc1	0.01717222
189	0xbd5d29cd	-0.053994942
190	0x3a8d8b84	0.0010799025
191	0x3cd39993	0.025830066
192	0xbb921fa8	-0.00445934
193	0xbe05a568	-0.13051379
194	0xbbdd5575	-0.006754572
195	0x3e1bc584	0.15212065
196	0xbddaf299	-0.10690803
197	0x3db3fcb6	0.08788435
198	0xbd0f16b5	-0.034933764
199	0x3c8ccd57	0.017187757
200	0xbdf651b0	-0.120272994
201	0x3d85f443	0.0654073
202	0x3e1bfa96	0.1523231
203	0x3c15688d	0.009119165
204	0x3c30800c	0.010772716
205	0x3ddeabca	0.1087261
206	0xbe0da525	-0.13832529
207	0x3c8ab2bb	0.016930928
208	0xbcc88d77	-0.024481518
209	0x3c7f77ad	0.015592498
210	0xbe103bc6	-0.14085302
211	0x3cbc082c	0.022953115
212	0xbc87198b	-0.016491672
213	0xbdab094d	-0.08351383
214	0xbdc38eed	-0.09548745
215	0x3c692b01	0.014231444
216	0x3b513992	0.0031925184
217	0xbe0a3de2	-0.13500169
218	0x3b8f2cdb	0.004369361
219	0xbc499e06	-0.012305742
220	0xbce647b0	-0.028110355
221	0x3c319e70	0.010840997
222	0xbb8ff542	-0.0043932507
223	0x3d89f948	0.06737
224	0xbc4e7df0	-0.012603268
225	0xbc86467a	-0.016391028
226	0xbc561b8e	-0.013068093
227	0x3ba4b13a	0.00502601
228	0xbd2eb130	-0.042649448
229	0x3b7b064c	0.0038303314
230	0xbc81f2f7	-0.015862925
231	0xbe1998a0	-0.14999628
232	0x3c81b694	0.01583413
233	0xbdc7370a	-0.09727295
234	0x39ec58b8	0.00045079528
235	0x3d8ee67a	0.06977554
236	0xbbbdd026	-0.0057926355
237	0x3dac4d54	0.08413187
238	0x3ba8afb2	0.0051478976
239	0x3daafe4d	0.08349285
240	0xbe140208	-0.144539
241	0x3e62822c	0.22119969
242	0xbd72c715	-0.05927189
243	0xbd12b1eb	-0.035814207
244	0x3e11cdc3	0.14238648
245	0xbe1ddf9f	-0.15417336
246	0xbc62e9e2	-0.013849707
247	0x3d98d1c7	0.07461887
248	0x3df70cbc	0.12062976
249	0x3db6580a	0.08903511
250	0xbe1fba89	-0.15598501
251	0xbb9f0bb1	-0.0048536886
252	0xbb127370	-0.0022346638
253	0xbd7e541e	-0.06209194
254	0xbe0226d3	-0.12710123
255	0xbe18a429	-0.14906372

bias f4 [100]
0	0xbc0efe08	-0.008727558
1	0xbc4cd921	-0.012502939
2	0x3cef9367	0.029245092
3	0x3ce92383	0.028459316
4	0x3b7c62eb	0.0038511108
5	0x3cb24f4b	0.021766325
6	0x3c03cc7b	0.008044357
7	0x3c948e4b	0.018134257
8	0xbc55e9cd	-0.013056231
9	0xbcac5f2c	-0.021041475
10	0xbcc6a372	-0.024247859
11	0x3ce24cae	0.027624454
12	0xbad55d9c	-0.0016278508
13	0x3b595782	0.003316373
14	0xbc72d87f	-0.0148221245
15	0xbc9821bd	-0.018570775
16	0x3be2bc9f	0.006919458
17	0x3c8c9039	0.017158614
18	0x3c8332cf	0.016015438
19	0x3c5ce670	0.013482675
20	0x3b68d400	0.0035526752
21	0x3ce68cfc	0.028143398
22	0xbc935af9	-0.017987715
23	0x3bb94c9a	0.0056548836
24	0xbac51aac	-0.0015037856
25	0xbcbfb2cc	-0.023400687
26	0x3b7d8263	0.0038682453
27	0xbcda8292	-0.026673589
28	0xbcc72b82	-0.024312738
29	0xbc81dfd9	-0.01585381
30	0x3d0838e8	0.033257395
31	0xbc74b362	-0.014935346
32	0x3c54412d	0.012954992
33	0x3b0b4c23	0.0021255098
34	0xbd0fd884	-0.035118595
35	0xb9306610	-0.00016822689
36	0x3c12f1e9	0.008968809
37	0x3ce77030	0.028251737
38	0xbcdd2ec4	-0.026999839
39	0x3b712734	0.0036797049
40	0x3c1c8ede	0.009555547
41	0xbd157bf5	-0.036495168
42	0x3b87972c	0.004137894
43	0xbca1bbbe	-0.019742843
44	0x3b9fd9b2	0.004878246
45	0x3ca3b2d7	0.019982738
46	0x3d31ce94	0.0434099
47	0xbbd65c87	-0.006541792
48	0xbb061339	-0.0020458235
49	0xbb3ccd98	-0.0028809067
50	0x3b80f406	0.00393534
51	0xbbff4d68	-0.00779121
52	0x3b6bbd3e	0.0035970951
53	0x3c37b5fc	0.011212822
54	0x3b0fe19a	0.0021954537
55	0xbad99ce8	-0.0016602548
56	0x3cecd0f2	0.028908227
57	0xbbc7a9b4	-0.0060932282
58	0x3c17638e	0.009240044
59	0x3c4e1d33	0.012580204
60	0x3ceb03ae	0.028688278
61	0x3d6e3fc0	0.058166265
62	0x3b1fce5a	0.002438447
63	0xbbb21d0c	-0.0054355916
64	0x3ca0a8cf	0.019611744
65	0x3bd39424	0.0064568687
66	0x3b679f90	0.003534291
67	0xbd205525	-0.0391437
68	0xbb12cefa	-0.00224012
69	0x3cb6e220	0.022324622
70	0xbcaed425	-0.021341393
71	0x3b1549af	0.0022779515
72	0xbc0e4438	-0.008683257
73	0x3ccf9451	0.025339277
74	0x3ca3e034	0.02000437
75	0xbcd8b044	-0.026451237
76	0xbc4d83ef	-0.012543662
77	0xbb2adfc6	-0.002607332
78	0x3d4da896	0.050209604
79	0x3b4213d2	0.0029613865
80	0x3c57a484	0.013161782
81	0x3ba042b5	0.0048907646
82	0xb9ff9c28	-0.00048753736
83	0xbc15fe5b	-0.009154881
84	0xbd18fc9d	-0.037350286
85	0xbc0c25ca	-0.0085539315
86	0xbd088ab5	-0.033335406
87	0xbd04733e	-0.032336466
88	0xbd36555d	-0.044515003
89	0x3be5b66c	0.007010272
90	0x3b25a89a	0.0025277496
91	0x3c826812	0.015918765
92	0x3ca58e2d	0.020209396
93	0xbb78b340	-0.0037948638
94	0x3cef5116	0.02921347
95	0xbba75361	-0.005106375
96	0x3ceed8a2	0.029156033
97	0xbb06b07d	-0.0020551973
98	0x3ceaa95e	0.028645214
99	0xbce8a9bf	-0.028401254

weight f4 [100, 100]
0	0xbc822217	-0.015885396
1	0x3d8193a2	0.06326987
2	0xbbea1402	-0.0071434984
3	0x3da07ed8	0.078366935
4	0x3d61916f	0.055070337
5	0x3c87dfa4	0.016586132
6	0x3d9bc664	0.076061994
7	0x3cf0e498	0.029405877
8	0x3aa9dccc	0.0012959479
9	0xbbbd5e2c	-0.0057790484
10	0x3d98c6dc	0.074598044
11	0x3db71d58	0.08941144
12	0x3c3b05ae	0.011414928
13	0xbc78c922	-0.015184673
14	0x3d802aad	0.0625814
15	0xbd6616ea	-0.056174196
16	0xbca628a8	-0.020283058
17	0x3c5c05b4	0.013429094
18	0x3c517f0e	0.01278664
19	0xbda710f4	-0.081575304
20	0x3c625a6a	0.013815502
21	0xbc2e4cdc	-0.010638442
22	0xbdaf74ab	-0.085671745
23	0xbcca2da9	-0.024679976
24	0xbc8642f0	-0.01638934
25	0x3d798a12	0.06092269
26	0xbd368492	-0.044560023
27	0xbaa4001c	-0.001251224
28	0xbdd4280e	-0.10359202
29	0xbc80ce12	-0.015723262
30	0x3d8d3d43	0.0689645
31	0xbd91ee1c	-0.07125494
32	0x3cf02e69	0.029319005
33	0x3cc44972	0.023960803
34	0xbc961b22	-0.018323485
35	0x3dc3b92f	0.09556805
36	0x3d229945	0.03969695
37	0x3db0aa47	0.08626228
38	0x3ca32199	0.019913482
39	0xbb810f1a	-0.003938568
40	0xbde8a8ae	-0.11360298
41	0x3b9d163e	0.0047939112
42	0xbca6b2ab	-0.020348867
43	0x3d122e60	0.035688758
44	0x3c220b0e	0.009890331
45	0x3d6f8c2c	0.058483288
46	0x3bb9c401	0.0056691174
47	0x3c6a60ed	0.0143053355
48	0x3d99a668	0.075024426
49	0xbc44bfa0	-0.012008578
50	0x3c447d2c	0.011992734
51	0x3d741732	0.059592433
52	0x3c90474a	0.017612118
53	0xbdcdcfa8	-0.10049373
54	0x3c6ba9f4	0.014383782
55	0xbc14cd3f	-0.009082138
56	0xbdc81d9d	-0.09771273
57	0x3c3eced6	0.011645993
58	0xbd58840c	-0.052860305
59	0x3d9ef2a8	0.07761127
60	0xbcfd8b3f	-0.030950187
61	0xbb8c196d	-0.004275492
62	0xbc462e72	-0.012096034
63	0xbd2bdb49	-0.041957173
64	0x3c51990d	0.012792838
65	0xbceea4c7	-0.029131306
66	0xbd42c4bc	-0.0475509
67	0xbb1fa28e	-0.0024358365
68	0xbd12f54d	-0.03587847
69	0xbdb9f25a	-0.09079428
70	0xbc2f6c23	-0.010706934
71	0x3cc4cbeb	0.024023017
72	0xbc2049de	-0.009783236
73	0xbbd327d4	-0.006443957
74	0xba80a986	-0.0009816147
75	0xbb4570fc	-0.0030127158
76	0xbd882213	-0.06647124
77	0x3c794b04	0.015215639
78	0xbc8c9f0c	-0.017165683
79	0xbcee8df6	-0.029120427
80	0x3c335fe4	0.010948155
81	0x39f3bf70	0.00046491204
82	0x3c73efac	0.014888685
83	0x3dbbcd7e	0.09170054
84	0xbd8b4e26	-0.06802015
85	0xbd4d8699	-0.05017719
86	0xbdcc1487	-0.09964853
87	0xbdc1344d	-0.09433804
88	0xbd7ff407	-0.062488582
89	0xbc622ca6	-0.01380459
90	0x3d448235	0.047975738
91	0xbb878c82	-0.004136623
92	0x3d94b4bb	0.07261034
93	0xbd094106	-0.033509277
94	0xbdbab625	-0.091167726
95	0xbce691d5	-0.02814571
96	0xbc8fd58c	-0.017557882
97	0x3dd762d4	0.10516897
98	0xbc5a9aa5	-0.013342534
99	0xb8e74c40	-0.00011029141
100	0x3dbeecdc	0.09322521
101	0xbb6cb0aa	-0.0036116042
102	0x3b96da00	0.0046036243
103	0xbdacdafa	-0.08440204
104	0x3ba805f1	0.0051276614
105	0xbcf2a0be	-0.029617663
106	0xbd0e70e4	-0.03477563
107	0xbd7df0e8	-0.061997324
108	0x3d398b50	0.045298874
109	0x3de1e854	0.11030641
110	0x3cdefe02	0.02722073
111	0x3b37099c	0.0027929312
112	0x3db02ab1	0.08601893
113	0x3bd9a2e8	0.0066417344
114	0x3c96604f	0.01835647
115	0x3dbfbd81	0.09362317
116	0x3b69e83a	0.0035691396
117	0x3b679a40	0.0035339743
118	0x3c47a2fa	0.012184853
119	0xbc8f83f4	-0.017518975
120	0xbae55002	-0.0017495158
121	0x3b540e6c	0.003235723
122	0xbc2152ba	-0.009846384
123	0xbbeb282e	-0.0071764207
124	0xbd912a68	-0.070881665
125	0x3c3d3f2c	0.011550706
126	0x3cbcd174	0.023049094
127	0x3c4837be	0.012220321
128	0x3b46a23c	0.0030309102
129	0x3bdafa54	0.0066826735
130	0xbd1eb928	-0.038750798
131	0x3d9f6d7a	0.07784553
132	0x3be7af81	0.0070704822
133	0xbd22bc2a	-0.03973023
134	0xba946d8e	-0.0011324154
135	0xbd138709	-0.03601745
136	0x3d915efd	0.07098196
137	0x3bf37b83	0.007430495
138	0xbccdf0ba	-0.025139201
139	0x3d6e69d6	0.0582064
140	0x3dd5002c	0.104004234
141	0xbd8e91b1	-0.06961382
142	0xba87f258	-0.0010371907
143	0x3dae6fb3	0.08517399
144	0xbb2cf8f6	-0.002639351
145	0x3d0ce7bc	0.034400687
146	0xbba08566	-0.004898715
147	0xba9ee348	-0.0012122178
148	0xbd44123d	-0.047868956
149	0x3db0d5ad	0.086345054
150	0x3c1865d8	0.009301625
151	0xbc643296	-0.013928076
152	0x3d95acbb	0.07308336
153	0xba234ee0	-0.000622971
154	0xbdb03054	-0.08602968
155	0xbda7418d	-0.081668
156	0xbd2d19b3	-0.042260837
157	0x3c877927	0.016537262
158	0xbba96dfc	-0.005170582
159	0xbcb58595	-0.022158423
160	0xbd21d2db	-0.039507728
161	0xbaef44e2	-0.0018254782
162	0xba53612a	-0.000806349
163	0x3c744637	0.014909319
164	0xbd7aeca5	-0.061260838
165	0xbbbed09b	-0.0058232076
166	0xbc6a001e	-0.0142822545
167	0x3d122d64	0.03568782
168	0xbdf9fbb5	-0.122062124
169	0xbdc2084d	-0.094742395
170	0xbd139c75	-0.03603788
171	0xbd3787cc	-0.04480724
172	0x3c585c4c	0.013205599
173	0xbd09da4d	-0.033655453
174	0x38933500	7.019378e-05
175	0x3c02860a	0.007966528
176	0xbd987332	-0.07443847
177	0x3dbe9b49	0.09306962
178	0xbdb82a2a	-0.08992417
179	0x3dcfbd95	0.10143582
180	0x3dcab1a4	0.098971635
181	0xbd9c3fbd	-0.076293446
182	0x3d557f7e	0.05212354
183	0xbb8fd540	-0.004389435
184	0x3ad31ea0	0.001610715
185	0x39e81ea0	0.00044273306
186	0x3ddc5641	0.10758639
187	0x3d502cfe	0.050824158
188	0xbda3a739	-0.079908796
189	0x3cd30ec2	0.025763873
190	0x3c1ba83e	0.009500561
191	0x3c857918	0.016293094
192	0x3d1200f8	0.035645455
193	0x3c8fb31d	0.017541463
194	0x3d812c7a	0.06307311
195	0x3d982058	0.07428044
196	0x3a265580	0.0006345138
197	0x3c986aca	0.018605608
198	0xbc5be760	-0.013421863
199	0xbbee4d5a	-0.0072724046
200	0x3cdfbf10	0.027312785
201	0x3c66107c	0.014042016
202	0x3dad6d08	0.08468062
203	0xbc94ab34	-0.018148042
204	0x3da360ab	0.07977422
205	0x3d178e72	0.03700108
206	0xbd3071a2	-0.04307712
207	0x3d931967	0.071825795
208	0x3dcdea4b	0.100544535
209	0xbd9b9601	-0.0759697
210	0x3b51c8e0	0.00320106
211	0xbdcab8d0	-0.098985314
212	0xbd6a0700	-0.057135582
213	0x3bce6ab4	0.006299341
214	0xbdac469c	-0.08411905
215	0x3cf4a476	0.029863577
216	0x3c09acdd	0.00840303
217	0xb7d18e00	-2.4980865e-05
218	0xbc948b16	-0.018132728
219	0x3dcff2e2	0.10153748
220	0x3c6ad019	0.014331841
221	0x3d78f4c3	0.060780298
222	0xbd486554	-0.04892476
223	0x3c1a75ad	0.00942747
224	0x3d7ec945	0.062203664
225	0x3dc410a3	0.09573486
226	0xbd040718	-0.032233328
227	0x3be2c285	0.006920161
228	0x3d5dad78	0.05412051
229	0x3b773549	0.003772097
230	0x3c71ad93	0.014750856
231	0x3d9b8e4a	0.07595499
232	0x3c00fc4c	0.007872652
233	0xbd1d0610	-0.03833586
234	0xbd8a21d9	-0.06744737
235	0x3d22dde8	0.039762408
236	0xbb63e496	-0.00347737
237	0x3d86c121	0.06579805
238	0xbcd69ee6	-0.026198816
239	0xba9f141c	-0.001213673
240	0xbdb05ad0	-0.08611071
241	0xbd399d35	-0.04531594
242	0xbcdabc00	-0.026700974
243	0x3c2f146a	0.010686019
244	0x3d717164	0.05894603
245	0x3c37a0ae	0.011207743
246	0x3c4a0310	0.012329832
247	0x3be7d40a	0.0070748376
248	0xbba4874d	-0.005021012
249	0xbd8b2487	-0.067940764
250	0x3b2762cc	0.0025541065
251	0x3c11c690	0.008897439
252	0xbd1f7ebd	-0.038939226
253	0xbaae3d80	-0.0013293475
254	0x3ca0e37e	0.019639727
255	0x3b81a612	0.0039565647

bias f4 [100]
0	0x3c7c0b94	0.01538362
1	0xbb5258fc	-0.0032096496
2	0xbc4bb536	-0.012433341
3	0xbcbc403d	-0.02297985
4	0x3ce24e9d	0.027625376
5	0xbb6e86dc	-0.00363963
6	0x3cfe060c	0.031008743
7	0x3c42ec64	0.01189718
8	0xbca2bf86	-0.019866716
9	0x3c444268	0.011978723
10	0xbd1ea66c	-0.03873293
11	0xbba781c6	-0.0051119057
12	0x3c66d69e	0.014089255
13	0xbca67677	-0.02032016
14	0xbc588035	-0.013214161
15	0xbc1d8051	-0.009613113
16	0xbd1837b9	-0.037162516
17	0xbc3129b7	-0.010813168
18	0xbc5172a8	-0.012783684
19	0xbb489555	-0.0030606587
20	0xbba97110	-0.005170949
21	0xbc4dbb5f	-0.01255688
22	0xbc5b3830	-0.013380095
23	0x3d2ff1c4	0.042955175
24	0xbd21f798	-0.039542764
25	0xba6728d4	-0.00088180345
26	0xbc577440	-0.013150275
27	0x3bf70b6d	0.007539204
28	0x3c308c8c	0.0107756965
29	0x3c1d198e	0.009588612
30	0xbc8a9c5d	-0.016920263
31	0xbcd0e79c	-0.025501065
32	0xbd067f68	-0.032836348
33	0xbc60d849	-0.013723441
34	0xbbfbcbca	-0.0076842057
35	0x3c947d2b	0.018126091
36	0xbcb4cda0	-0.022070706
37	0x3d2f59d8	0.04281029
38	0x3ca95196	0.020668786
39	0xbc467a78	-0.01211416
40	0xbca987bb	-0.020694604
41	0x3bc6c953	0.00606648
42	0xbc4bdd6b	-0.012442927
43	0xbc0b72a8	-0.008511223
44	0xba0e38a8	-0.00054253126
45	0xbcbf0d24	-0.023321696
46	0xbc7a41e6	-0.0152745005
47	0xbd38f7da	-0.045158245
48	0x3c36df18	0.011161588
49	0x3cef94a9	0.029245691
50	0xbc7079c2	-0.014677467
51	0x3cff6d99	0.03118019
52	0xbd2acb18	-0.04169759
53	0xbc627016	-0.013820669
54	0xbafe1b82	-0.001938686
55	0xbc64bc45	-0.013960903
56	0xbbc1be28	-0.005912561
57	0x3b485060	0.0030565485
58	0x3bc3b26c	0.0059721973
59	0x3abd6cf8	0.0014452031
60	0xbd3066f2	-0.043066926
61	0xbc4b8c30	-0.01242356
62	0xbc96d05b	-0.018409899
63	0x3c379fbb	0.011207516
64	0xbc19e3e3	-0.009392711
65	0xbd099390	-0.033587992
66	0xbbce4fa6	-0.006296116
67	0x38c76460	9.507756e-05
68	0x3cd90dee	0.0264959
69	0xbb93bc5e	-0.004508539
70	0x3cfd7677	0.030940278
71	0xbcce5df7	-0.02519129
72	0x3b0b2cf1	0.0021236504
73	0x3c755325	0.0149734365
74	0x3b59155a	0.0033124299
75	0xbc8d153e	-0.017222043
76	0x3c8edc3b	0.017438998
77	0x3ca95db9	0.020674573
78	0xbc44e45a	-0.012017334
79	0xbd421782	-0.0473857
80	0x3b67dfca	0.0035381191
81	0xbd009c87	-0.031399276
82	0x3a2243b0	0.0006189896
83	0x3c8938dd	0.016750747
84	0x3c458682	0.012055995
85	0xbcf84bda	-0.030309606
86	0x3c97de9c	0.018538766
87	0xbcc7af70	-0.024375647
88	0xbccb01af	-0.024781076
89	0x3bd6bb52	0.006553092
90	0xbd0d38f6	-0.03447815
91	0xbc32649f	-0.010888248
92	0x3c8a9112	0.016914878
93	0xbafd235a	-0.0019312904
94	0x3cccf307	0.025018228
95	0xbc9f58f2	-0.019451592
96	0x3bc88b98	0.0061201565
97	0x3c89b860	0.01681155
98	0xbca38c1e	-0.019964274
99	0x3d0636b8	0.032767028

weight f4 [100, 100]
0	0xbd88a7a1	-0.06672598
1	0x3ac1c7e8	0.0014784308
2	0xbb9bdb1a	-0.0047563436
3	0xbdab921a	-0.08377476
4	0xbd9988f8	-0.07496828
5	0xbb04d869	-0.0020270592
6	0xbb1afe8c	-0.0023650257
7	0x3d0565bc	0.032567725
8	0xbdcc5a75	-0.09978191
9	0x3acec214	0.0015774393
10	0x3dd3a6af	0.10334527
11	0xbceac4b2	-0.028658245
12	0xbcb98f47	-0.022651328
13	0x3c66ceec	0.01408742
14	0x3b978c3a	0.0046248706
15	0xbc6ac0a6	-0.0143281575
16	0xbbe53a8e	-0.0069955057
17	0xbbb9cb61	-0.0056699966
18	0x3c7388f0	0.014864191
19	0xbc4d16a0	-0.012517601
20	0x3b554bd6	0.0032546422
21	0x3cf89667	0.030345155
22	0xb9f64e6c	-0.00046979205
23	0x3da52d6a	0.08065303
24	0x3b99704b	0.004682576
25	0x3c6e76dc	0.0145547055
26	0x3d4c562c	0.049886867
27	0xbcf9460e	-0.030428912
28	0xbdd0925d	-0.101841666
29	0x3dc3ca3e	0.09560059
30	0x3c0278bf	0.007963358
31	0xbbaaae04	-0.0052087326
32	0x3c251514	0.010075826
33	0xbbaf52a5	-0.005350428
34	0xbbf25acc	-0.0073960777
35	0xbc9256e5	-0.0178637
36	0xbb8eef6b	-0.004362037
37	0xbd2c6c94	-0.042095736
38	0xbc8314e3	-0.01600117
39	0xbd96c173	-0.07361116
40	0xbd1db793	-0.03850515
41	0xbc2044cf	-0.00978203
42	0x3c67f733	0.014158058
43	0x3b89e8e0	0.004208669
44	0xbc0744c2	-0.008256139
45	0xbdc9220f	-0.09820949
46	0xbc526117	-0.012840531
47	0xbce55e14	-0.027998962
48	0xbca46446	-0.020067345
49	0x39703a58	0.00022909918
50	0xbc904446	-0.01761068
51	0xbc0b7a2f	-0.008513018
52	0x3d3b1486	0.04567387
53	0x3bac8ad7	0.0052655744
54	0x3b9857c8	0.004649136
55	0x3cd5a6c4	0.026080497
56	0xbb70988f	-0.0036712026
57	0x3c84143c	0.01612293
58	0xbcf56776	-0.02995656
59	0x3dc1e80c	0.094680876
60	0x3d470950	0.048592865
61	0xbd98c935	-0.07460252
62	0xbd8cd276	-0.0687608
63	0xbb7b7238	-0.003836764
64	0x3b84a108	0.0040475167
65	0xbc812492	-0.015764508
66	0xbcc166ef	-0.023608653
67	0x3c3d7512	0.011563556
68	0x3c813ffb	0.015777579
69	0xbd388f08	-0.04505828
70	0xbbd74ccc	-0.006570434
71	0x3dd413d7	0.10355347
72	0xbc3e25b6	-0.011605671
73	0xbbea754f	-0.0071550976
74	0xbcd33fc6	-0.025787245
75	0xbb893242	-0.0041868994
76	0x3a57ef24	0.0008237234
77	0xbd8b6a15	-0.06807343
78	0x3da41558	0.080118835
79	0x3a066e14	0.0005128097
80	0x3c4e01f8	0.012573712
81	0xbc1d5906	-0.009603744
82	0xbad81691	-0.0016486218
83	0xb97ee0c0	-0.00024307054
84	0x3c77241e	0.015084295
85	0xbc236953	-0.009973842
86	0x3d8d8fba	0.06912179
87	0xbdc6da06	-0.097095534
88	0xbc7cd4fe	-0.015431641
89	0xbc7ea9a8	-0.015543379
90	0xbc6e0af6	-0.0145289805
91	0xbd8747e4	-0.06605509
92	0xbd7c031f	-0.061526414
93	0xbba907ea	-0.005158414
94	0xbd8d5905	-0.06901745
95	0x3c249c26	0.010046994
96	0xbd972446	-0.073799655
97	0xbd03d137	-0.032181945
98	0x3dabac44	0.083824664
99	0x3c45262a	0.012033025
100	0xbc87f27c	-0.016595118
101	0xbc2685df	-0.010163753
102	0xbc374298	-0.011185311
103	0xbc777cfa	-0.01510548
104	0xbbf821a5	-0.00757237
105	0xbd03cb8b	-0.032176536
106	0x3c86d629	0.016459541
107	0xbc91babd	-0.017789239
108	0xbd37c5f2	-0.04486651
109	0xbc3de075	-0.011589159
110	0x3be77ee2	0.007064686
111	0xbda4f1de	-0.08053945
112	0x3dd34b22	0.10317065
113	0x3bccf047	0.006254229
114	0x3cfd2d88	0.0309055
115	0xbc7b9906	-0.015356308
116	0x3b485224	0.0030566538
117	0x3b88649f	0.0041623856
118	0x3bcbcf6e	0.006219796
119	0xbcdb7cd4	-0.026792921
120	0x3db02090	0.08599961
121	0xbda0fb63	-0.07860448
122	0xbd9965cc	-0.07490119
123	0xbdc4869c	-0.09595987
124	0xbdb33c2a	-0.0875171
125	0xbd0e090b	-0.034676593
126	0xbbfd8a5e	-0.007737442
127	0x3db5d0f6	0.08877747
128	0xbc392e90	-0.011302605
129	0x3ce1c36e	0.027559008
130	0x3cb26369	0.021775918
131	0x3dbe54ab	0.09293493
132	0xbd6ad192	-0.057328768
133	0xbd256a6f	-0.040384706
134	0x39a3b840	0.0003122706
135	0x3dcbfc09	0.09960181
136	0xbb782445	-0.0037863415
137	0x3c4b3281	0.012402178
138	0xbb873f04	-0.004127385
139	0xbc6236ba	-0.013806993
140	0xbe0c5d1e	-0.13707396
141	0x3b9f29f1	0.0048572947
142	0x3c81495a	0.015782047
143	0xbdb0e5d9	-0.0863759
144	0x3bc430be	0.005987256
145	0x3c5c61e8	0.013451077
146	0xbd0b3ad4	-0.03399165
147	0xbbd57bb1	-0.0065149893
148	0xbd1521fc	-0.036409363
149	0xbc6243be	-0.013810096
150	0x3d8532ad	0.06503806
151	0x3c3fceec	0.011707049
152	0x3bc66d15	0.006055484
153	0x3c8300ce	0.015991595
154	0xbc0c71e4	-0.0085720755
155	0xbc6149ba	-0.013750488
156	0x3cb90d00	0.022589207
157	0xbd284a92	-0.04108674
158	0xbcfc8010	-0.030822784
159	0x3da08296	0.07837407
160	0xbb7ca907	-0.0038552897
161	0x3d11b3bf	0.03557181
162	0xbd8e410e	-0.06946002
163	0x3bb3cff3	0.005487436
164	0x3dbd289c	0.09236261
165	0x3db5e1bc	0.08880946
166	0xbd5d0aaa	-0.05396525
167	0x3c601a65	0.013678168
168	0xbcf17a08	-0.029477134
169	0xbc30e51b	-0.0107968105
170	0x3da4009e	0.0800793
171	0xbcf16ba2	-0.029470269
172	0x3d49a650	0.049230874
173	0x3caad038	0.02085124
174	0x3da993d4	0.08280149
175	0xbc7bb3b9	-0.015362673
176	0x3c834e00	0.016028404
177	0xbd2f98d7	-0.04287037
178	0x3d190778	0.03736064
179	0x3c61b604	0.013776306
180	0xbca7b18e	-0.020470407
181	0x3973f960	0.00023267185
182	0x3c87afe4	0.016563363
183	0xbc67aae9	-0.014139869
184	0x3ba279b2	0.004958355
185	0xbd5959e8	-0.053064257
186	0x3d14d52f	0.03633612
187	0xbb6c792e	-0.003608297
188	0xbc7f3f97	-0.015579126
189	0x3d797558	0.060902923
190	0xbda0331d	-0.07822249
191	0xbc0281f3	-0.007965553
192	0x3c59b036	0.013286641
193	0x3dd256ed	0.10270486
194	0xbda245a8	-0.07923442
195	0xbb8cdf26	-0.0042990623
196	0x3c842343	0.016130095
197	0xbc087b6d	-0.008330208
198	0x3d960071	0.07324303
199	0xbdd457cf	-0.10368311
200	0x3d5e3d83	0.05425788
201	0x3c1f8c17	0.00973799
202	0xbd01b7bf	-0.031669375
203	0x3cbad02b	0.02280434
204	0xb9908e60	-0.00027571898
205	0xbdf39a8d	-0.118947126
206	0xbbc09fed	-0.0058784396
207	0x3dcfc28c	0.10144529
208	0x3d8bc44f	0.06824552
209	0x3c59ad84	0.013285998
210	0x3c5b8314	0.013397951
211	0xbd5283de	-0.05139529
212	0xbc7e0853	-0.015504914
213	0x3d94baa2	0.0726216
214	0x3ca7ce7c	0.020484202
215	0xbd299f47	-0.041411664
216	0xbda2d00b	-0.07949837
217	0x3c292f56	0.010326227
218	0x3c793e56	0.015212616
219	0x3d5e7fd6	0.054321133
220	0xbd99e35e	-0.0751407
221	0xbde4fadc	-0.1118066
222	0x3cbed9b3	0.023297166
223	0x3dbfbe80	0.09362507
224	0xbb364baa	-0.0027816095
225	0x3cec0ad2	0.028813753
226	0x3dc1f9c5	0.09471468
227	0x3dc77b28	0.09740287
228	0x3c65b7e7	0.0140208965
229	0xbd87cacc	-0.06630477
230	0x3c336ef0	0.0109517425
231	0xbd4aa8f4	-0.049477533
232	0x3c8482f4	0.016175725
233	0xbcac030e	-0.02099755
234	0xbd2b4a89	-0.04181913
235	0x3ceeb00e	0.029136684
236	0xbbfefd28	-0.0077816434
237	0xbcf4e965	-0.029896447
238	0x3ba0a057	0.0049019265
239	0x3a19a524	0.00058610947
240	0x3cec6308	0.028855816
241	0x3c9c9250	0.019112736
242	0xbd52ce3d	-0.051466215
243	0x3d864bd9	0.065574355
244	0x3c09b70e	0.00840546
245	0xbdc81527	-0.097696595
246	0x3d7a9166	0.06117382
247	0x3c369af8	0.011145346
248	0xba09b1a0	-0.00052526034
249	0x3caf3314	0.02138666
250	0x3dcb56fa	0.09928699
251	0x3c21f4b6	0.009885004
252	0xbde21a38	-0.11040157
253	0xbd4f0872	-0.050545163
254	0xbd3eda44	-0.046594873
255	0x3bf23432	0.007391476

bias f4 [25]
0	0x00000000	0.0
1	0x00000000	0.0
2	0x00000000	0.0
3	0x00000000	0.0
4	0x00000000	0.0
5	0x00000000	0.0
6	0x00000000	0.0
7	0x00000000	0.0
8	0x00000000	0.0
9	0x00000000	0.0
10	0x00000000	0.0
11	0x00000000	0.0
12	0x00000000	0.0
13	0x00000000	0.0
14	0x00000000	0.0
15	0x00000000	0.0
16	0x00000000	0.0
17	0x00000000	0.0
18	0x00000000	0.0
19	0x00000000	0.0
20	0x00000000	0.0
21	0x00000000	0.0
22	0x00000000	0.0
23	0x00000000	0.0
24	0x00000000	0.0

weight f4 [25, 100]
0	0x3e21663b	0.15761654
1	0xbd991582	-0.074748054
2	0xbe5acc39	-0.21366967
3	0xbe120044	-0.14257914
4	0xbd8a6502	-0.06757547
5	0xbe0a043a	-0.13478175
6	0x3d87b0cf	0.066255204
7	0x3e036f77	0.12835489
8	0x3c42b88f	0.0118848225
9	0x3de598ff	0.11210822
10	0xbe13e4c2	-0.14442733
11	0x3d8441d7	0.064578705
12	0x3d9f2b26	0.07771902
13	0x3e102456	0.14076361
14	0x3dbe7d5e	0.09301256
15	0x3df8db0c	0.12151155
16	0x3dbf9037	0.09353679
17	0xbcd3c06e	-0.025848594
18	0x3e1472f8	0.14496982
19	0x3ddf511e	0.10904144
20	0xbe340c02	-0.17582706
21	0x3e20e619	0.15712775
22	0xbe5af0a2	-0.21380857
23	0xbe1529bb	-0.145667
24	0x3dcb509c	0.099274844
25	0x3c6e6d6f	0.014552458
26	0xbde5078c	-0.1118308
27	0x3dce1678	0.10062879
28	0xbd591914	-0.053002432
29	0x3d853962	0.065050855
30	0xbce9bf74	-0.028533675
31	0x3d50671b	0.05087958
32	0xbdbaa577	-0.09113591
33	0xbe2dcc6d	-0.16972513
34	0x3da3dee4	0.080014974
35	0x3da97ec5	0.082761325
36	0xbd64aba7	-0.055827763
37	0x3d633b1e	0.0554763
38	0xbd824363	-0.06360509
39	0xbdffa64c	-0.124828905
40	0x3d5ba4ad	0.053623844
41	0x3d035b5f	0.03206956
42	0x3c5224c3	0.0128261475
43	0xbbc4cdb6	-0.006005968
44	0xbd5b3a6b	-0.05352251
45	0x3e1aa9ae	0.1510379
46	0x3e02b2d4	0.1276353
47	0x3d8c2b5f	0.0684421
48	0x3cea8b43	0.028630858
49	0xbcd95234	-0.026528455
50	0xbdf285d1	-0.1184193
51	0xbc53f9f0	-0.012938008
52	0x3e07d8a5	0.13266237
53	0xbdde932a	-0.10867913
54	0xbe5925a2	-0.21205762
55	0xbd90aa49	-0.07063729
56	0x3d6434b7	0.055714335
57	0x3e4b4392	0.19849995
58	0xbd998756	-0.074965164
59	0xbdeb1646	-0.11478858
60	0x3e26944d	0.1626751
61	0xbe05db68	-0.13071978
62	0x3a6e55a9	0.0009091744
63	0xbe179c27	-0.14805661
64	0x3e21a526	0.15785655
65	0x3d58239e	0.052768342
66	0x3d923655	0.07139269
67	0xbe113be1	-0.14182998
68	0xbce6bb46	-0.02816547
69	0x3dced6f8	0.10099596
70	0xbdd89229	-0.10574753
71	0xbe066965	-0.13126142
72	0x3e15dea6	0.14635715
73	0x3dff4780	0.124648094
74	0x3e0aac0a	0.1354219
75	0xbe3b3627	-0.18282376
76	0x3e5e5f84	0.21716124
77	0x3e1b0743	0.15139489
78	0x3dd8c8e1	0.105851896
79	0xbd95c308	-0.0731259
80	0x3bd72b24	0.006566422
81	0x3d4a0586	0.049321674
82	0x3e30c6eb	0.17263381
83	0xbe43db10	-0.19126534
84	0x3b92e15f	0.0044824327
85	0xbc707a0b	-0.014677535
86	0x3d731e90	0.05935532
87	0x3baa1711	0.005190738
88	0xbe254d53	-0.16142778
89	0xbda394e1	-0.07987381
90	0xbe34481a	-0.1760563
91	0xbb9fee43	-0.004880698
92	0x3d3b2863	0.045692813
93	0x3e0905e0	0.13381147
94	0x3e349537	0.17635046
95	0xbddf18fd	-0.10893438
96	0x3d4834ba	0.04887841
97	0x3e22762b	0.1586539
98	0x3d37e842	0.044899233
99	0xbcac6440	-0.021043897
100	0x3dc00edd	0.09377835
101	0x3d840c3e	0.064476475
102	0xbd94dab0	-0.07268274
103	0xbdd5a36d	-0.104315616
104	0x3d035904	0.032067314
105	0x3d22e53d	0.0397694
106	0xbdf7a149	-0.120913096
107	0x3dd58c06	0.10427098
108	0xbe51c71f	-0.20486115
109	0xbd859dc8	-0.06524235
110	0x3e25695b	0.16153471
111	0xbe5fce86	-0.21856126
112	0x3da7c913	0.08192649
113	0x3d019f01	0.03164578
114	0xbe4685e1	-0.19387008
115	0x3cba938b	0.022775432
116	0x3e3df99f	0.18552254
117	0xbe604d44	-0.21904474
118	0xbd5b3409	-0.05351642
119	0xbe22c501	-0.15895464
120	0xbe31229d	-0.1729836
121	0x3ddc4df3	0.10757055
122	0xbcb3278c	-0.021869443
123	0xbe354edf	-0.17705868
124	0xbb2aa499	-0.002603805
125	0xbe2cc670	-0.16872573
126	0x3c9df693	0.019282615
127	0x3bf4e6f3	0.0074738204
128	0x3e25f53c	0.1620683
129	0x3c304b3e	0.010760127
130	0x3c9a372f	0.018825142
131	0xbdd07ce8	-0.10180074
132	0x3cd1e9d3	0.025624191
133	0xbe5ca23e	-0.21546265
134	0x3e064068	0.13110507
135	0x3d9febcf	0.07808649
136	0xba2be8d9	-0.00065578293
137	0xbdf0b755	-0.11753718
138	0x3dce9a9c	0.10088083
139	0xbe3d3c0a	-0.18479934
140	0xbd095879	-0.03353164
141	0x3c46efe6	0.012142157
142	0x3d40a9e5	0.047037024
143	0x3cad2ebe	0.021140452
144	0x3d925ed2	0.07146992
145	0xbdd1d11c	-0.102449626
146	0xbde72aff	-0.11287498
147	0xbe5f030b	-0.21778505
148	0xbd9ded2e	-0.07711254
149	0x3e5202dd	0.20508905
150	0xbc2d0b40	-0.010561764
151	0xbe1c0d4d	-0.15239449
152	0xbcd57f6d	-0.026061738
153	0xbe557df6	-0.20848832
154	0xbe260753	-0.16213731
155	0xbdcf1c79	-0.101128526
156	0xbe3c08af	-0.18362688
157	0x3d2a3769	0.04155675
158	0x3d01dd16	0.031704985
159	0x3ab04b76	0.0013450223
160	0x3df18ee7	0.117948346
161	0x3e5a2edd	0.2130694
162	0x3b05783f	0.0020365862
163	0x3e5bb2b8	0.21454895
164	0xbe37128f	-0.17878173
165	0x3e362b77	0.17790018
166	0xbd46caa7	-0.048533108
167	0x3e1f1f2b	0.15539233
168	0xbe078ea9	-0.13238014
169	0xbdf59c7e	-0.11992739
170	0xbdbd8ef9	-0.092557855
171	0xbcf3cf73	-0.029762005
172	0xbdc4a65f	-0.09602045
173	0xbdc353b7	-0.09537452
174	0xbd82050b	-0.06348618
175	0xbbfee81a	-0.0077791335
176	0x3c9d0266	0.019166183
177	0xbe4b7d62	-0.19872048
178	0x3e5302fa	0.20606604
179	0x3de26a93	0.11055484
180	0xbbd6b937	-0.006552841
181	0xbd9e7136	-0.07736437
182	0x3cb0e390	0.021592885
183	0xbd521c61	-0.051296595
184	0x3e503568	0.20332873
185	0xbe285746	-0.16439542
186	0x3e2c6a9e	0.16837546
187	0x3dee4649	0.116344996
188	0xbe51c6c9	-0.20485987
189	0x3d4f7c68	0.050655752
190	0x3dd0f783	0.10203459
191	0xbe04885d	-0.12942643
192	0xbaf84e7d	-0.001894429
193	0x3bb844b7	0.005623426
194	0xbccff2cc	-0.02538433
195	0xbcab5f97	-0.020919604
196	0x3dbfb40d	0.09360514
197	0x3db92d82	0.09041883
198	0x3e05ea1c	0.13077587
199	0x3e46f83f	0.19430636
200	0x3d4d02a3	0.050051343
201	0x3d205cdf	0.03915107
202	0x3da26d93	0.07931056
203	0xbe4d33cd	-0.20039292
204	0xbd115aca	-0.035486974
205	0x3e3fd858	0.18734872
206	0x3dc121d1	0.09430278
207	0x3e539b9c	0.20664829
208	0x3e5d6304	0.21619803
209	0xbdad153c	-0.08451316
210	0x3ce164a7	0.027513815
211	0x3e2909ea	0.16507688
212	0x3c29498f	0.010332479
213	0x3e3be662	0.18349603
214	0x3d309fd6	0.04312118
215	0xbdeba6df	-0.115064375
216	0xbe2143f0	-0.15748572
217	0xbe54d22c	-0.20783299
218	0x3c934147	0.017975463
219	0xbd857d7a	-0.065180734
220	0x3d152e41	0.036421064
221	0xbc9d55ed	-0.019206012
222	0x3d6078e3	0.054802787
223	0xbd92c0c8	-0.07165676
224	0x3e13c180	0.14429283
225	0xbbecc21a	-0.007225287
226	0xbdc9fdcd	-0.09862862
227	0xbd246851	-0.040138546
228	0x3d9e55ac	0.07731184
229	0xbe4e67e0	-0.20156813
230	0xbe3a1ad8	-0.18174303
231	0xbdeb93da	-0.1150281
232	0xbc89178a	-0.016734857
233	0xbd0c0c0e	-0.034191184
234	0x3e16d189	0.14728369
235	0x3e13aaf2	0.14420679
236	0x3dfe7efb	0.12426563
237	0x3d82f327	0.06394034
238	0xbddc2a21	-0.10750223
239	0xbd8c9a29	-0.06865341
240	0x3e28f678	0.1650027
241	0xbdc6f1aa	-0.097140625
242	0x3d9f3dbb	0.07775446
243	0xbe33fdcc	-0.17577285
244	0x3d21b683	0.039480697
245	0xbdf205e9	-0.118175335
246	0x3e4e9d13	0.20177107
247	0xbc656900	-0.014002085
248	0xbde0f562	-0.10984303
249	0x3c9c8169	0.019104676
250	0xbe3f1e8e	-0.18664
251	0xbe017125	-0.12640817
252	0x3da076d9	0.078351684
253	0xbdbdff13	-0.09277167
254	0x3e40f220	0.18842363
255	0xbd10c1ec	-0.03534119
