deep_learning/models/GCNLinkPrediction80.pth (torch, 733490 bytes, 12 tensors)

bias f4 [200]
000000 18 fb 80 3b 52 ee be 3d d8 ca f3 3c fc 05 f2 bc
       0.0039361827 0.093228 0.02975981 -0.02954387
000010 47 63 f8 3c 30 cd 2c bc 8b 78 0d bd e7 ef 9c 3c
       0.030320777 -0.010546967 -0.034538787 0.019157363
000020 e8 f8 bc 3c db 80 9b bc f6 86 47 bd 1c 10 bb 3c
       0.023067906 -0.018982342 -0.048712693 0.02283483
000030 f1 98 9a bc 31 ba f6 bc 80 ef a7 3b ea 29 e8 bd
       -0.018871756 -0.03011808 0.005124986 -0.113361195
000040 e5 0d b9 3c 09 94 10 bd 92 7d f4 bc 34 5d 9d bc
       0.022589633 -0.035297427 -0.029845033 -0.019209482
000050 72 6f 01 3d f1 3f 87 3c 8a ae 3a 3d 40 63 23 3a
       0.031600423 0.016509982 0.04557661 0.0006232746
000060 0e 36 1c bc aa 7c 02 bd 1c 8c d4 bd 7d 6e 03 be
       -0.009534372 -0.03185717 -0.10378286 -0.12835117
000070 c8 06 98 3b f8 a2 ed bc 73 d7 0d 3d 51 61 a5 bd
       0.0046394803 -0.029008374 0.034629297 -0.08075202
000080 90 21 08 3c da 5f ea bc d4 6b 5c 3c d9 ff b4 3d
       0.008308783 -0.028610159 0.013453443 0.088378616
000090 d6 c8 c4 bd 00 70 27 ba b4 44 fa 3d 40 d7 92 39
       -0.09608619 -0.0006387234 0.12220135 0.00028007664
0000a0 14 2c d8 3b bc a1 b9 3b 64 58 b2 3c ba c7 b4 bd
       0.0065970514 0.005665032 0.021770664 -0.08827157
0000b0 10 d7 bb 3c 86 4b ac 3d ec 3a cb 3b 56 34 24 3c
       0.022929698 0.084128425 0.0062020924 0.0100222435
0000c0 06 49 64 3c 56 97 91 3c 2a ff d5 bc 07 14 f7 3c
       0.013933426 0.017772358 -0.026122648 0.030160917
0000d0 5c 14 a9 3d 7d c6 dd 3d a3 cb 98 bc 33 ba c1 3d
       0.08255836 0.10828874 -0.018651789 0.09459343
0000e0 34 ab b1 3d e6 8b d5 3c 4e 5a 50 bc c5 c6 da 3c
       0.086752325 0.026067685 -0.012716843 0.026706109
0000f0 c3 b4 6e bc c4 d7 9c 3c 38 e3 8c bb 84 2e b8 3c
       -0.014569464 0.019145854 -0.0042995475 0.022483118
000100 0b bd 11 bd c8 0d dc bb 6c 4f d7 bd 4c 91 f7 bc
       -0.035580676 -0.00671551 -0.105131954 -0.03022065
000110 d8 1a 0b bd 14 1b 08 3b 70 57 aa 3b b1 72 aa 3c
       -0.033961147 0.0020768093 0.0051984116 0.020806642
000120 78 e8 7d bb 3e 6c e4 bd 59 07 08 bd b1 da a4 bc
       -0.0038743299 -0.11153458 -0.033210132 -0.020123811
000130 99 93 93 bc 96 f5 b3 bd 99 34 24 3d 56 cd d3 3d
       -0.018014716 -0.08787076 0.040089224 0.10341899
000140 82 76 8f 3d 10 1d 11 bd 84 1c c1 3b 54 06 11 bd
       0.070050254 -0.035428107 0.005893292 -0.035406426
000150 f2 31 68 bd 50 44 c7 ba bc d7 c3 3c 3b 5f a5 bd
       -0.056688257 -0.0015202854 0.023906581 -0.080748044
000160 dc 14 0c 3d b2 64 a6 bc 6a a6 d2 bc 51 32 dc bd
       0.03419958 -0.020311687 -0.025714118 -0.107517846
000170 02 45 8c bd d8 d9 3d 3d 58 68 2a 3b 97 92 a3 bc
       -0.068491 0.04635033 0.0026002135 -0.01996736
000180 d0 4f 72 3d 81 e4 a5 bd 8c 77 84 3d 3e c1 9b 3d
       0.059158146 -0.08100224 0.06468114 0.076052174
000190 cf 1c 12 bd 0b a4 11 bd 12 14 ea bd de 52 09 bd
       -0.035672005 -0.035556834 -0.11429609 -0.033526294
0001a0 f8 69 4b bd 44 69 d9 bb fa 91 20 bc f0 a9 91 bd
       -0.049661607 -0.006634863 -0.0098004285 -0.07112491
0001b0 68 19 eb bb 0b e9 69 bc 38 d8 c9 bb 35 77 e4 bd
       -0.0071746595 -0.014276753 -0.0061598085 -0.111555494
0001c0 8e 33 ea 3c ba 38 04 bd ce b4 0f 3d 10 3a a7 bd
       0.028589036 -0.03228066 0.03508454 -0.081653714
0001d0 17 a3 a1 3c fa db 74 3c 7c 25 05 3d 62 a7 6f bc
       0.019731088 0.014945025 0.03250645 -0.0146273095
0001e0 36 23 0e bc f0 ac 8c bb 37 30 ad bc 3b e3 af 3c
       -0.008675387 -0.0042930767 -0.021141155 0.021470657
0001f0 73 a6 16 bd e6 90 53 bc 8e 62 23 bd cd 1d 6a bd
       -0.036779832 -0.012912964 -0.03988891 -0.057157326
000200 fe 07 e2 3c 84 be eb 3c 46 82 04 be b1 f5 31 bc
       0.027591702 0.028777368 -0.1294032 -0.0108618
000210 49 15 02 3d 2c cd dd bc fc da 49 bc 0d 73 86 bd
       0.03175858 -0.027075373 -0.012320276 -0.06564913
000220 08 7e f0 3c 7c 99 81 3b 00 36 ab ba cb 5a 05 3d
       0.029356971 0.0039550643 -0.0013062358 0.03255729
000230 25 00 c4 3c d1 b3 b2 bd bc 7f 46 3c 28 08 16 bb
       0.02392585 -0.087257035 0.012115415 -0.0022893045
000240 a0 48 e5 3b 32 b0 83 3c e3 da 9c bc 4d 1e 80 bc
       0.006997183 0.016075227 -0.019147342 -0.015639449
000250 0d 90 84 3d 55 77 ba 3d fe 1e d9 3c a9 fe 71 3d
       0.06472788 0.09104792 0.026504036 0.059080753
000260 76 5a 0b 3c 05 1b b7 bc a2 ce f2 bc fc d6 82 bb
       0.008505454 -0.022351751 -0.029639546 -0.0039929133
000270 04 61 09 3d 28 57 a8 bc f0 1a 0c bc bc 99 99 3b
       0.033539787 -0.020549372 -0.008551344 0.004687516
000280 e3 09 c2 bd eb 77 73 bd 18 9d fe 3c 6e 4c 13 3c
       -0.09474542 -0.059440535 0.031080768 0.00899039
000290 6d 72 ea bc 82 3e f4 3c 32 59 7a bc e0 ae 69 bb
       -0.028619016 0.029814962 -0.015280055 -0.0035657212
0002a0 21 45 1b bc 68 44 f2 bb e1 a2 05 3d 87 f8 bf 3d
       -0.009476931 -0.0073934086 0.032626037 0.09373575
0002b0 24 be 03 bc a4 a7 9e bc 27 07 14 3d 82 87 59 bd
       -0.0080409385 -0.019367047 0.036139634 -0.053107746
0002c0 dd 87 06 3d 44 b9 f1 3b 42 8f ef bc e5 fc e4 bc
       0.032844413 0.0073768217 -0.029243115 -0.02795262
0002d0 43 6a 68 3d 08 07 92 3c 3d 3e b5 3d c6 07 ae bc
       0.056741964 0.017825618 0.08849762 -0.021243941
0002e0 5c 17 e2 bc 58 54 51 3c fd 0a b5 3c 60 59 8e 3b
       -0.02759903 0.012776457 0.022099966 0.0043441504
0002f0 58 25 e4 3b 00 bc c1 3c 1f 98 0b 3d 70 36 f7 ba
       0.0069624595 0.023649216 0.03408062 -0.0018860828
000300 56 7c 5c 3d e6 b4 e1 bc 23 aa f4 3c db b9 8b bc
       0.053829513 -0.02755208 0.029866284 -0.017056396
000310 c3 be c0 3d 28 00 53 bb 78 9f 8a bc 5d 56 10 bd
       0.09411385 -0.0032196138 -0.016921744 -0.035238612

weight f4 [200, 18]
000000 5b d4 eb bc 16 fa a6 3b 12 f2 96 3d 1e 67 9b bd
       -0.028787782 0.0050957305 0.0737039 -0.075880274
000010 45 a1 9b 3d 27 2f 9b bd 51 be 90 bd 14 29 56 bc
       0.07599119 -0.07577353 -0.0706755 -0.013071317
000020 ea 65 b8 3c 91 d7 31 bd ee 92 44 3c 01 90 1c 3d
       0.022509534 -0.04341847 0.011997921 0.03822327
000030 89 5c 95 3d 14 0d c5 3c 82 95 44 3d f4 0a cf 3c
       0.0729304 0.024054088 0.047994144 0.025273778
000040 e2 91 81 3c 68 19 fa bc c6 af 9f bb fa b5 a3 3d
       0.015816633 -0.030529693 -0.0048732487 0.07993694
000050 88 f9 9e bd 19 bd 8a 3c 7a e6 cd 3c d8 55 54 bb
       -0.07762438 0.016935872 0.025134314 -0.00323998
000060 34 db a3 bd 70 4f fb bb f1 65 9a 3c b2 f6 45 3d
       -0.08000794 -0.007669382 0.018847438 0.04833097
000070 78 4b de 3c 39 33 cd 3c 00 10 14 37 f6 6b f9 3b
       0.027135596 0.025048839 8.825213e-06 0.007611747
000080 d8 d0 1d 3b 86 09 63 3c 8b 98 44 3d 2a 34 46 3c
       0.002408078 0.013857251 0.04799704 0.012097398
000090 5d 4e ca 3c fa de 2f 3c 1c 59 f3 3c 6f d8 88 3d
       0.02469557 0.010734314 0.029705577 0.066819064
0000a0 92 00 45 bc 50 8d 5a bc 00 5e a6 b8 78 2e 02 bc
       -0.012024062 -0.013339356 -7.933006e-05 -0.007945649
0000b0 32 40 1f bc a4 c6 e1 bb e0 ef e7 3a a1 05 ce 3c
       -0.009719895 -0.006890135 0.001769539 0.025149168
0000c0 1d bb 0b bc 22 ab e6 3c 82 e3 9b 3d 8c 39 b3 3b
       -0.008528498 0.028157774 0.07611753 0.0054695066
0000d0 10 4c ca 3a 16 61 a5 3c 80 01 5e bd 60 9d 0a bc
       0.0015434045 0.020187896 -0.05420065 -0.008460373
0000e0 b8 6f bf 3c f4 8b cd 3b fb 8d ec bc 86 52 9b 3d
       0.023368701 0.006272787 -0.028876295 0.075840995
0000f0 eb 99 b0 bc 8e 54 9c bc 9c ea 72 bc a4 a7 c6 3c
       -0.021557769 -0.019083288 -0.014826443 0.02424986
000100 90 fa d0 bb 1b 5f 3c 3d 9e 63 af bc 0f 50 9c bd
       -0.0063775256 0.045989137 -0.021409806 -0.076324575
000110 82 8b d6 bb b0 dd 07 3d fa 63 9d bd 85 f9 c8 bc
       -0.0065473923 0.033170402 -0.07685085 -0.024533043
000120 c0 49 1e 3c 9c 8d 35 3c a4 ec ce 3c f0 31 90 ba
       0.009661138 0.011081126 0.025259323 -0.0011001211
000130 29 c9 c1 3c 73 01 10 bc 3e c7 9f bc 5d c3 9f 3c
       0.023655491 -0.008789408 -0.019504186 0.019502336
000140 15 63 b5 bc 2b c8 9e 3c 46 04 cd 3c 6c 20 12 bd
       -0.022141973 0.019382557 0.025026452 -0.03567545
000150 f2 64 84 3d da ff 77 bd c6 3c 8f 3d 2e 60 cf 3c
       0.06464566 -0.060546733 0.069940135 0.025314417
000160 cc 72 11 bc 39 09 c5 3c 0e b6 a3 3b 6c ab 37 bd
       -0.008877467 0.02405225 0.004996068 -0.044841215
000170 08 f2 29 bb b2 ed 5d 3d 60 34 a1 3d 9c 1a de bb
       -0.0025931615 0.054181762 0.07871318 -0.0067780744
000180 5b 89 a7 bc a5 19 89 bd 0e 26 09 3d ab cb ea bc
       -0.020451238 -0.066943444 0.033483557 -0.02866157
000190 80 18 7f 3a b4 b8 81 bd 50 6e cf ba 5c 4b 89 bc
       0.0009731129 -0.063340575 -0.0015825722 -0.016759567
0001a0 34 df 9e bb 92 8f 0a bc 7a c0 5d 3d 1e 16 f2 bb
       -0.004848385 -0.008457081 0.054138638 -0.0073878905
0001b0 99 db 9f 3d 20 e2 4c ba 5f 12 95 3d 85 ea 9d bc
       0.07805557 -0.00078156777 0.07278895 -0.019276867
0001c0 07 80 98 3c 26 41 0a 3d d6 c0 b3 3c 3f 06 97 3d
       0.018615736 0.033753537 0.021942537 0.07374238
0001d0 90 d9 67 bd 63 a2 9b 3d da 67 83 bd 52 53 97 bd
       -0.05660397 0.07599332 -0.064162925 -0.07388939
0001e0 93 27 71 bd 6b 1a 86 bd ab 72 9a 3d de 49 06 bd
       -0.05887563 -0.065480076 0.075414024 -0.03278529
0001f0 3e d0 ed bb 05 7a c9 bc b2 9c 23 3d a7 69 ca bc
       -0.0072574904 -0.024594316 0.03994436 -0.024708582
000200 d4 84 9f bd 16 cf f5 3c f0 78 97 3a 20 d4 82 3c
       -0.07789007 0.030005973 0.0011556428 0.01597029
000210 ac d7 cc bc 00 db 7a bc ef 84 9d bd 4b 40 cc 3c
       -0.025005184 -0.015311003 -0.07691371 0.024933001
000220 19 64 1d 3c 75 d0 3b 3d fc 9c 79 bb 9e fc 76 bd
       0.009606385 0.045853097 -0.0038087955 -0.06029951
000230 76 42 43 3c 1a cd 74 3d 49 a4 61 bd fe b2 7e bc
       0.011917701 0.059765913 -0.055088315 -0.015545605
000240 56 2d 47 3d 42 e5 aa bc cc 40 a3 bd fc bb 10 3d
       0.04862722 -0.020861272 -0.079713434 0.035335526
000250 1e 0a 4d bc 2a 8b 3c 3d 9b 14 81 3d 29 d3 9c 3c
       -0.012514619 0.046031155 0.06302758 0.019143658
000260 a6 e2 33 3c 69 58 8a 3d b4 30 c8 bb 36 dc 9e bd
       0.01097933 0.06755144 -0.0061093215 -0.07756846
000270 1c 3c 85 3d 3d 0c a0 bd 6c 0d 04 bd 3d 6e a1 bd
       0.065056056 -0.07814834 -0.032239363 -0.078823544
000280 b2 aa 88 bd 18 f6 d3 3a 16 a3 20 3c 88 85 ad 3c
       -0.066731825 0.0016171364 0.009804508 0.021181837
000290 2e 5c 44 bd f4 15 c3 3c e8 62 cd 3b 6d 0e 99 bd
       -0.047939472 0.023814179 0.006267894 -0.074734546
0002a0 02 96 91 bd 10 21 0f bd 46 3c 69 3c 6e 4a 87 bd
       -0.0710869 -0.03494364 0.014235562 -0.06605993
0002b0 4c a3 ce bc f8 2f 1c bb a8 ca a2 3d 04 bd c5 bc
       -0.02522435 -0.0023832303 0.0794881 -0.024137981
0002c0 c0 f3 a6 39 4c 43 ce bc 71 f6 cd 3c ba 8b f2 bc
       0.00031843595 -0.025178574 0.025141926 -0.029607642
0002d0 01 ab 00 bd 01 aa 83 3d 70 3b 8d 3b 27 a7 93 bd
       -0.031413082 0.0642891 0.004310064 -0.07209616
0002e0 d9 15 03 3d ac 89 a7 3c 74 55 3e 3d 2b 3e 88 bd
       0.032003257 0.02045139 0.046468213 -0.066524826
0002f0 87 d3 04 3d 98 22 e5 3c d2 0c 63 bc 4c 97 9f bb
       0.03242829 0.027970597 -0.013858037 -0.004870331
000300 e3 e1 b6 bc 25 5d 1c bd 82 f0 86 3d d2 83 95 3d
       -0.022324508 -0.038174767 0.06588842 0.07300533
000310 83 3d 04 3d 29 fc 92 3d 8d 54 8f 3c 2a 9a a3 bd
       0.032285225 0.07177002 0.017496372 -0.07988389
000320 ed c8 89 3c 1e b8 58 3d 09 38 29 3d 6c 69 f5 3b
       0.016819442 0.052909963 0.041313205 0.007489374
000330 ae 90 a3 3d 90 03 80 bd f9 79 36 3c 4b 99 98 3d
       0.0798658 -0.062506795 0.011137479 0.07451113
000340 6d fb 9f bd ae 80 c5 3b 76 1d ae bc 00 a4 2e 3a
       -0.078116275 0.0060273027 -0.021254282 0.0006662011
000350 60 69 f5 ba d6 ff 9f 3d 2c eb 85 bd 10 5d 00 bc
       -0.0018723421 0.07812469 -0.06538996 -0.007834688
000360 c0 f8 15 ba 74 cc b1 3c 22 c1 c9 bc b8 65 93 bc
       -0.00057209656 0.021703936 -0.024628226 -0.01799284
000370 f0 a2 6c 3b 98 34 1a bb b6 5a 9f bb 78 31 1f bd
       0.003610786 -0.0023529883 -0.0048631085 -0.038865536
000380 e3 e3 84 3d fc b9 56 3d 3c 29 ba bb c4 a8 18 3c
       0.064887784 0.052423462 -0.005681185 0.009317581
000390 be 15 02 bc bf fb a1 bd c0 d8 d9 3a 37 52 99 3d
       -0.007939754 -0.07909345 0.0016620383 0.07486384
0003a0 9c 1e 83 3d ea 15 38 3c eb da a2 3d 9e e8 4c bd
       0.06402323 0.0112356935 0.079519115 -0.05002653
0003b0 f0 a5 f4 bb 8c bf b9 bb 34 5f cd bc 74 a9 56 3b
       -0.0074660704 -0.005668586 -0.02506981 0.003275481
0003c0 15 29 a3 3d c4 36 67 bd cc 83 7e bd f6 3d a0 3d
       0.0796682 -0.056448713 -0.06213741 0.07824318
0003d0 18 9f 80 bd 00 14 a5 bc 15 73 d0 bc 26 5a c2 3c
       -0.06280345 -0.020151138 -0.0254455 0.023724627
0003e0 68 ae 97 3d 96 f8 f6 bc b4 2b 5b 3d 42 e8 56 bc
       0.07406312 -0.030147832 0.053508475 -0.013116898
0003f0 67 d4 34 bd b2 fa 63 3c 10 64 6e bb 1b 23 98 bd
       -0.044147875 0.013914751 -0.003637556 -0.07428571

bias f4 [200]
000000 b4 3a b9 bc dd 1b ce bd 91 2f d1 bc b1 12 fb bc
       -0.022611 -0.10063908 -0.025535377 -0.030648561
000010 70 a6 ce bb 00 f2 fd bb a6 08 e0 3d 4c 03 bc bc
       -0.006306462 -0.007749796 0.109391496 -0.02295079
000020 0f ac 9b 3d 80 41 06 3e 13 67 ce bc ab 94 ea 3d
       0.07601177 0.13110924 -0.025195634 0.114541374
000030 8e df 89 3d 0c 9a 12 3d 18 db d6 3d 6c 68 8a bb
       0.06732093 0.03579144 0.104910076 -0.004223874
000040 48 a8 21 3b 27 d6 11 3d 10 d5 c8 3c b9 fe 43 bd
       0.0024666954 0.035604622 0.024515659 -0.047850344
000050 48 6b 81 bb 84 06 12 bd b2 6f b7 bd 1b 60 a6 bd
       -0.0039495565 -0.035650745 -0.08956851 -0.081237994
000060 40 05 1a 3a a7 3e 85 bc 2d 7f f6 3d ac d9 e2 3b
       0.0005875416 -0.016265227 0.120359756 0.006922921
000070 2c ca 0f bd 70 19 dd 3a 8d 4d d9 bd 2c 85 5b bc
       -0.035104915 0.0016868543 -0.10610495 -0.01339845
000080 83 7d 04 3d 1a 42 49 bd f5 dd c1 bc 10 81 ae bd
       0.03234626 -0.049135305 -0.023665408 -0.085207105
000090 76 16 0b 3e d7 af e7 3c 70 e6 2b 3b a9 20 ea bd
       0.13582787 0.02828209 0.002622988 -0.11432011
0000a0 26 c5 e4 3c bb 70 c1 3d 78 33 db 3c a0 72 19 ba
       0.027926039 0.0944533 0.02675794 -0.0005853567
0000b0 74 1f 9b bb fe 23 04 bc e0 d8 1b bb 49 8f df 3d
       -0.004733974 -0.008065222 -0.002378039 0.10916001
0000c0 f6 d2 1d bc 29 15 14 3d b4 83 ba 3c 57 0b 12 3d
       -0.009632817 0.036152992 0.02276788 0.035655346
0000d0 6c 35 0c be ce b7 de bd ee bb a9 3d 94 b0 98 bd
       -0.13692254 -0.10874902 0.08287798 -0.074555546
0000e0 e0 66 86 ba 15 7d b8 3d 00 de 3b 3d c1 9c a3 3d
       -0.0010254048 0.090082325 0.045866013 0.07988883
0000f0 12 77 bf 3c a4 00 78 3d 92 0d 99 bd d4 18 a1 3d
       0.023372207 0.060547486 -0.074732915 0.07866064
000100 25 eb 0a be 67 98 bd 3d 88 fb 4b 3d c5 f0 62 bc
       -0.13566263 0.09257584 0.049800426 -0.013851349
000110 90 8f 61 bd 56 40 5f bc 0e d9 2a 3d 4c 78 6e bd
       -0.055068552 -0.013626179 0.041710906 -0.058220193
000120 b0 bc a9 3d 22 1e 0e 3e 3f 93 d1 3d bc 2d bb 3d
       0.082879424 0.13878682 0.10233163 0.091395825
000130 58 31 3e bc d0 75 ed 3d 09 62 d5 3c e5 30 7d bd
       -0.011608444 0.115947366 0.026047723 -0.061814208
000140 30 5d b3 bb 2a d0 04 3d 08 4b 92 3c 5a 5e 79 bc
       -0.0054737553 0.032425083 0.017858043 -0.015220249
000150 4c d8 86 3d 23 70 f5 3d 82 69 83 3c 7e 9b 0f 3c
       0.06584224 0.11984279 0.016041521 0.0087651
000160 26 75 32 3c c8 9d e9 3c 1f ad 55 bc 45 6f 90 3c
       0.010892188 0.028517619 -0.013041764 0.017631182
000170 54 93 79 bd 74 95 6c 3c 89 61 c3 3c 72 fc ed 3b
       -0.06093152 0.014439929 0.02385022 0.00726276
000180 04 f0 f9 bd 12 77 b0 3c d6 85 22 bd ac 70 b1 bb
       -0.122039825 0.021541152 -0.039678417 -0.005415043
000190 8c 4d 9d bb a4 ae 9b bc de 21 ea 3d f1 ef 9e 3c
       -0.004800504 -0.019004174 0.11432241 0.019401522
0001a0 a8 18 90 3d 3c 27 1d 3b 38 d2 5e bb 3c 2c 2e 3d
       0.07035953 0.0023979684 -0.0033999812 0.042522654
0001b0 e9 94 f1 3d 5b 22 06 be 90 ad ea ba 52 76 aa bc
       0.117959805 -0.13099043 -0.0017904509 -0.020808373
0001c0 9c 7e 12 bd 52 1d d2 3c c0 17 f2 3b b0 df d4 3a
       -0.035765275 0.025648747 0.007388085 0.001624098
0001d0 fb 82 0b be c4 03 0e 3d 20 b1 00 3b 02 6a 90 bc
       -0.13624184 0.03467156 0.0019636825 -0.017628673
0001e0 b6 63 47 3c 2e 89 95 bd 5f 13 f1 bd 71 6e fe 3d
       0.012169769 -0.073015556 -0.11771273 0.12423409
0001f0 14 61 af bd f9 25 60 3d 84 28 fd bb 30 44 1d 3b
       -0.08563438 0.054723714 -0.007725777 0.0023996942
000200 18 02 43 bb 04 da 1a bc 5f 6a b6 bc 21 08 ac 3d
       -0.0029755887 -0.009451393 -0.022267519 0.08399988
000210 7a 40 37 bd 23 79 d8 bc 64 ed bc 3d 3c f0 0b bd
       -0.044739224 -0.02642495 0.09224966 -0.034164652
000220 b2 cc d9 bd a6 49 1c be 44 54 95 3b 64 e4 ef bb
       -0.10634746 -0.1526247 0.0045571644 -0.0073209275
000230 20 6a 25 3b 3b 1a df bc 40 3c dd ba d2 e5 9c 3c
       0.0025240257 -0.027234187 -0.0016878918 0.019152556
000240 3b 05 ab 3c 9e 87 07 bd ac ec 67 bd da 48 37 bc
       0.020876518 -0.03308832 -0.056622192 -0.011186803
000250 03 18 a3 3d 98 b8 b4 bd 7a 5e 87 3c 30 c4 df ba
       0.07963564 -0.08824271 0.016524542 -0.0017072018
000260 64 b0 5e bd de bf 38 3d 1c 17 a6 3b 70 6c 8f 3a
       -0.054367438 0.045104854 0.005068673 0.0010942351
000270 69 02 cc bd 27 47 00 bd 5c 9c a0 3b 03 2f d8 3d
       -0.09961397 -0.031317856 0.004901452 0.10555842
000280 36 1c bf bd 32 f6 9d bd e0 01 83 bb 8c 1d b4 bc
       -0.09331553 -0.07712974 -0.0039980263 -0.021986745
000290 46 3f 0d 3e c2 8f 0f be 07 5b 9e bc 27 a3 db 3d
       0.13793668 -0.14019683 -0.019330515 0.10724478
0002a0 af 6e ac bd 23 fe d2 3c 09 6d a1 3c 24 19 57 3c
       -0.08419549 0.025755947 0.019705312 0.013128553
0002b0 32 eb 87 bd 86 55 0f 3d 33 be 01 be 0e 08 3b 3c
       -0.06636657 0.03499367 -0.12670211 0.011415495
0002c0 44 76 12 be ef 5a 71 3d b9 7f a8 bd 81 87 84 bc
       -0.14302927 0.05892461 -0.08227486 -0.016177895
0002d0 9d c6 f7 3c 0e 75 04 3d c0 45 a8 39 48 d1 90 3d
       0.030246073 0.032338195 0.00032095425 0.07071167
0002e0 10 a7 cb bd 98 e5 4f 3b 61 3e 06 3d 2d 22 dd bd
       -0.09943974 0.0031722542 0.032774333 -0.10797534
0002f0 68 6a 05 3b cf 56 85 3d 18 0e c0 bc c5 9b 8b 3d
       0.0020357613 0.06510698 -0.02344422 0.0681682
000300 a0 5f 13 3a 14 fc fb bc 54 6d 8a bb 2b 71 44 3d
       0.0005621854 -0.030759849 -0.0042244587 0.047959488
000310 f4 b6 98 3b 59 36 65 3d 7d 61 bc 3c 14 ac c1 3d
       0.0046604816 0.055960033 0.022995705 0.094566494

weight f4 [200, 200]
000000 7a 66 7c bc 12 e3 62 3d 61 ef e8 3c 22 37 53 bd
       -0.015405292 0.055392332 0.028434457 -0.05156625
000010 f0 9d 74 bb fe 4d 2f bd 5e 97 ce bb 98 ad ac bc
       -0.0037325583 -0.04279899 -0.0063046655 -0.02107887
000020 04 34 02 3c aa 65 b3 3c c5 c0 49 bd 2d 7c 44 3d
       0.007946972 0.021899063 -0.049256105 0.047969986
000030 b2 d0 cc 3c 7e 67 66 bc 0e 88 e9 bc e8 f6 97 bb
       0.025001857 -0.01406276 -0.028507259 -0.004637588
000040 f6 db 41 3d 6e b8 01 3c d9 a2 2e bc 58 d3 ae 3b
       0.04732891 0.007917507 -0.010658943 0.0053352527
000050 d0 5d 19 bc 36 5c 33 bc 44 24 83 bc 20 92 6d ba
       -0.009360746 -0.010947278 -0.016008504 -0.0009062607
000060 44 a7 50 bd 30 a6 1a bd 06 01 a1 bc b5 df 76 bc
       -0.050940767 -0.037756145 -0.019653808 -0.015067984
000070 19 7c 0e bc 12 f3 95 bc 63 24 88 bc 44 cf 31 3d
       -0.008696579 -0.018304382 -0.016618913 0.043410555
000080 22 90 ce 3b 84 4e 24 3c c9 0d 16 bd c1 ca 52 3d
       0.006303803 0.010028485 -0.03663424 0.051462892
000090 40 c4 16 bb d8 77 9a 3c cb 6b c6 3c 10 b9 a6 3c
       -0.0023005158 0.018855974 0.024221322 0.020351917
0000a0 fe eb 84 bc 73 84 9b bc 88 20 f8 bc 50 1c cf bc
       -0.016225811 -0.018984055 -0.03028895 -0.025282055
0000b0 f7 47 40 bc 88 ea 60 bb 73 8f 9b bc 40 c1 7a 3d
       -0.011735908 -0.003431948 -0.0189893 0.061219454
0000c0 30 06 d3 bc 76 25 a8 3c 34 60 a8 bc 98 40 ca bc
       -0.025759786 0.020525675 -0.020553686 -0.024689004
0000d0 11 bf 5b 3d 94 3f 65 bd 46 52 79 3c 0c f6 f3 bb
       0.053649012 -0.055968836 0.015217369 -0.0074451026
0000e0 b4 df d8 bc 3e a8 42 3c 5a f0 e8 bb c0 b5 c4 3a
       -0.026473857 0.011880932 -0.0071087303 0.0015007779
0000f0 d6 8d 01 3d 93 5b 26 bc 5c a7 5a 3d 24 75 57 bc
       0.031629406 -0.010153669 0.053382263 -0.013150487
000100 a6 95 fd bb b1 f8 50 3d 00 d9 7e b8 04 28 3c bd
       -0.0077387867 0.05101842 -6.0760416e-05 -0.0459366
000110 ba 13 14 bc e0 c9 09 bc 9b 53 dd bc c8 ef b9 3b
       -0.009037906 -0.008409947 -0.027017405 0.005674336
000120 4a 2e b2 3b 50 02 b6 ba 8a a9 68 bc cf 4a 04 3d
       0.005437647 -0.0013886187 -0.0142005775 0.032297906
000130 00 04 bf b8 5a 00 af 3b b4 bf 14 bc fa 5e b9 bc
       -9.108335e-05 0.005340618 -0.009078909 -0.022628296
000140 96 98 34 3c 30 27 8f bb 61 8f 63 3d e0 16 0a 3b
       0.011022707 -0.004368685 0.05555666 0.0021070763
000150 6c 1b 44 bc 7c 22 44 bc d6 d5 30 bc 3d 66 08 bc
       -0.0119694285 -0.011971112 -0.01079317 -0.008325157
000160 b6 8d 87 3c 20 eb 01 bb e0 2f d6 b9 aa ee ca 3c
       0.016547065 -0.0019823983 -0.0004085293 0.024772007
000170 2c dc 3e bc 6a 4e c8 3c b1 bb 89 3c 80 90 03 3c
       -0.011649173 0.024451453 0.016813131 0.008030057
000180 fa 09 00 3d b6 3f 6b 3c 0a 14 06 3c c3 39 cd 3c
       0.031259514 0.014358452 0.008183489 0.025051957
000190 90 99 1d bb b0 21 c9 bb 5d a0 10 3d e2 0a ed 3c
       -0.002404783 -0.006138049 0.035309184 0.028935853
0001a0 34 76 07 3d 08 cf ac 3c 78 a3 e5 ba dd 5b 47 3d
       0.03307171 0.021094814 -0.0017520031 0.048671592
0001b0 11 24 b7 3c c8 46 ce 3c 0f 2e c0 bc c4 fa 8c bc
       0.022356065 0.025180236 -0.023459462 -0.017209418
0001c0 ae b2 a1 bb 33 d5 5d bc 54 d5 fd bb 75 ab 6c bd
       -0.0049346304 -0.0135396 -0.007746378 -0.0577807
0001d0 9e cb 68 3d 10 7f cf bc b3 3c a3 3c c2 1f 96 bc
       0.05683481 -0.025329143 0.019926405 -0.01832569
0001e0 fc 78 e7 bb e0 23 00 bc ae d3 67 bc 8c 8b e4 bb
       -0.007063983 -0.007821053 -0.014149589 -0.006974643
0001f0 90 b3 30 bb 5a e9 1a bd 6a 97 9b 3c 88 f1 00 3c
       -0.0026962496 -0.037820198 0.018993098 0.007870086
000200 e1 a2 9e 3c 36 40 6b 3c 14 de 67 3c 16 4d 07 bd
       0.019364776 0.014358571 0.014152069 -0.0330325
000210 58 be cb 3c be f9 c1 3c 5a e6 b0 bb 5d 16 18 3d
       0.024871036 0.023678657 -0.005398554 0.037130702
000220 f1 0d 2b 3d 3c e9 1d bd 05 e0 0a bd e2 ba 52 3d
       0.041761342 -0.038552508 -0.033905048 0.051447757
000230 1b 9b 3e bd 20 2c f1 bb 10 6b ab 3c 14 b1 4e 3c
       -0.04653464 -0.0073599964 0.020925075 0.012615461
000240 4f 94 d8 3c d1 73 67 3d 28 aa b0 3c 1f e0 04 3c
       0.026437907 0.056506936 0.021565512 0.008110075
000250 f0 d3 05 3c ac 96 59 bd 86 f0 93 bc a2 31 2b 3c
       0.008168206 -0.053122208 -0.018059026 0.010448845
000260 64 45 d0 bc 9f 41 c1 bc e9 1e 9c 3c 49 90 e3 3c
       -0.025423713 -0.02359086 0.019057708 0.027778761
000270 f8 cf f7 ba f6 0f 1b bd 8a 4c a5 3c 40 12 65 bc
       -0.0018906584 -0.03785702 0.020178098 -0.013981402
000280 de d9 09 bd 28 a7 21 3d 51 56 8a bc ce a6 c4 bc
       -0.03365504 0.039466053 -0.016886862 -0.02400532
000290 48 b8 5d 3b b6 a5 9a bc 26 56 13 bc be 3a 40 3d
       0.0033831764 -0.018877845 -0.008992707 0.04693102
0002a0 08 77 d1 ba 14 d2 ae bb d0 f4 67 3d d1 75 b3 bc
       -0.0015980909 -0.005335102 0.056629956 -0.021906765
0002b0 fa 3e 02 bc 00 d1 da ba 1a 8c 5c 3d 71 ea ce 3c
       -0.007949585 -0.0016694367 0.05384455 0.025258275
0002c0 6a 09 27 bd 5e 7d dc 3c 98 65 56 bc 7e f1 c9 bc
       -0.040780462 0.026915248 -0.013085745 -0.024651285
0002d0 24 49 30 3d 98 bc 3f bd 77 06 c5 3c 5c be d8 3b
       0.043038502 -0.046810716 0.024050934 0.0066144895
0002e0 da 08 c5 3c de ee 74 bc 42 ba c4 bc 98 33 f3 bc
       0.024052072 -0.0149495285 -0.024014596 -0.029687688
0002f0 4a fb 5b bc 40 76 02 bb 77 e8 c6 3c c0 78 7c 3c
       -0.013426611 -0.0019906908 0.02428077 0.015409648
000300 23 11 21 bd 8b 19 b3 3c e0 f5 b0 3c 84 60 b6 3c
       -0.039322983 0.021862766 0.021601617 0.02226282
000310 22 75 bf 3c 76 97 b0 3c 60 46 eb 3b 42 ae 00 3c
       0.023371283 0.021556597 0.00718002 0.007854046
000320 1c ba a5 3c 42 b5 66 3d 73 f4 c0 bc 49 40 6e bd
       0.020230345 0.056325205 -0.023554062 -0.058166776
000330 4a bb 70 3d 19 5d 8c 3c d0 cd 6b bd fa f9 78 bd
       0.058772363 0.017134236 -0.057569325 -0.06078527
000340 22 15 b2 3c 44 7f b6 bc b9 db 55 3d ae a8 d6 bb
       0.021738593 -0.022277482 0.052211497 -0.00655087
000350 fc de 8c 3c 6a 83 cc 3c f8 d4 56 3b d8 5c 7b bb
       0.017196171 0.024965007 0.0032780748 -0.00383549
000360 1c 36 7f 3d 6b 78 b8 bc 44 b4 10 3d d8 b9 7e bc
       0.062307462 -0.022518357 0.035328165 -0.015547238
000370 d2 30 c8 3c de 03 26 bd ee e8 b2 bc 78 f8 1f 3b
       0.024437342 -0.04053103 -0.021839585 0.0024409574
000380 2a 1b 1e bd 56 36 e7 bc 7c b6 54 3d c0 96 14 bd
       -0.038600124 -0.028224152 0.051931843 -0.03627658
000390 6b b0 b4 3c bc 29 62 3c 5b 13 2d bd aa 7a 8f bc
       0.022056779 0.013803896 -0.042254787 -0.017514545
0003a0 5c 5d cb 3b 78 ed 8b 3a 56 84 c2 bc b6 59 c5 3c
       0.0062061977 0.001067563 -0.023744743 0.02409063
0003b0 97 5f 7a bd aa 89 75 3c 08 75 3a 3c c2 f0 7d bc
       -0.061126318 0.014986435 0.0113804415 -0.015499296
0003c0 5d 2a b4 3c 70 06 04 3d b6 76 5f bd 6e 94 85 3c
       0.021992857 0.0322327 -0.05455657 0.016306128
0003d0 f2 c1 af 3c d4 51 c1 bc 66 68 45 bc b9 2e 85 3d
       0.021454785 -0.023598589 -0.012048816 0.06503052
0003e0 26 e6 25 bc 56 c3 ee bc 3d 3b 29 3d 10 89 b7 3a
       -0.010125672 -0.029145878 0.04131626 0.001400264
0003f0 a6 61 6c 3c dd f3 f8 3c 82 85 6b bc 7a d6 73 bd
       0.014427578 0.03038972 -0.014375092 -0.059530713

bias f4 [200]
000000 43 b7 ba 3d da 57 4a 3d e2 85 0b 3d 74 ce 6b 3b
       0.09116986 0.049400188 0.034063227 0.003598121
000010 f5 ce 1d 3d b8 19 6a 3d f2 8e 07 3c 7e f7 82 3b
       0.038527448 0.057153434 0.008273827 0.0039967885
000020 2c a6 f1 3c e8 76 92 bc 80 56 96 bb e1 b3 77 3d
       0.029498182 -0.017878965 -0.0045879483 0.06047428
000030 62 5c 05 be 40 8d d1 bc 24 fd 17 bd 00 0f 51 bb
       -0.13023522 -0.025580049 -0.037106648 -0.003189981
000040 03 e3 98 3d 10 eb a6 bb 0a b4 9a 3d 4e 63 c5 bd
       0.07465174 -0.0050939396 0.07553871 -0.096380815
000050 88 11 0d 3d e9 fb 6c bd 4a 45 19 be c2 72 1e bd
       0.034440547 -0.057857428 -0.14967838 -0.03868366
000060 6d 92 74 3c 56 41 d3 3c 04 f3 0a 3e 02 43 01 3d
       0.014927489 0.02578799 0.13569266 0.031558044
000070 a0 64 28 3d 06 8d ab 3c 72 bc 35 bc 73 87 1b 3e
       0.04111159 0.020941269 -0.011092292 0.15188389
000080 bb f1 10 bd 79 56 b5 3c 25 fe 0c be f0 36 f6 bc
       -0.035386782 0.02213596 -0.13768823 -0.030055493
000090 d6 4b 32 bc 82 57 c8 bd 89 7b 02 be 5b 9f e1 bd
       -0.0108823385 -0.09782316 -0.12742437 -0.11016723
0000a0 66 be 48 bc 0c 8d 05 3e 91 2c e8 3d 39 bf 14 3d
       -0.012252426 0.13042086 0.11336625 0.036315177
0000b0 bc 09 0f bc 7d e0 fe bd a0 3a e3 3a 1c af f6 bc
       -0.008730348 -0.124451615 0.0017336197 -0.030112796
0000c0 58 ad ca bc 52 dd d6 bd 3c 45 0a bc 9f 31 23 3d
       -0.02474086 -0.10491432 -0.008439358 0.039842244
0000d0 80 4d 14 3b c4 da db 3b 8f da 1a be e8 06 da 3d
       0.0022629201 0.0067094285 -0.15122436 0.106458485
0000e0 45 6a 8c bc 2f ab 23 3d cd 51 99 3c 82 db b1 bb
       -0.017140517 0.039958175 0.018715763 -0.0054277787
0000f0 3e 76 c6 3b ee b9 39 3c 50 51 a1 bd 49 54 b8 bb
       0.006056576 0.011335833 -0.07876837 -0.005625282
000100 dd 2b 4c 3c ca bc 0c 3e 57 c1 08 3d 66 d2 ac 3d
       0.01246163 0.13743892 0.03338751 0.08438568
000110 6f 77 c2 3c 7e 3c ca bc d0 de 6a 3b db 61 fa 3d
       0.023738591 -0.024687048 0.0035838373 0.12225696
000120 de d5 0e be 86 b8 0f be 1d 6b e8 3c 31 82 0a be
       -0.13948771 -0.14035234 0.028371388 -0.13526227
000130 15 42 f8 bc 2d c3 99 3d 5a 4c f3 3d 80 61 fe ba
       -0.030304948 0.0750793 0.11879797 -0.0019407719
000140 60 a5 53 3c 3e 06 f4 bd 79 07 cc 3d 10 32 e7 bc
       0.012917846 -0.11915253 0.09962363 -0.028222114
000150 dd fa 1a be 2a 3c b8 3d 00 0d c4 bd 81 65 86 3c
       -0.15134759 0.089958504 -0.09572792 0.016405823
000160 94 69 22 3c 9e 02 14 3d 84 09 2b bb ff 1d e5 3d
       0.009912867 0.03613531 -0.00260982 0.11187362
000170 b8 ae b6 3b 01 5e b2 3c e4 5e 38 3b a2 d4 0c 3e
       0.0055750273 0.02177334 0.002813273 0.13752988
000180 30 a9 64 bb 2b 3b eb bd 60 01 a8 3b 90 79 fa 3d
       -0.0034890883 -0.11485895 0.005127117 0.122302175
000190 90 b2 13 be 78 5e 2d 3c e0 c7 83 bb 30 53 98 ba
       -0.14423585 0.010581605 -0.0040216297 -0.0011621471
0001a0 a9 f9 e0 bd d2 e2 c3 bc 57 f3 20 be 81 03 e6 3d
       -0.10985119 -0.023911867 -0.15717827 0.11231137
0001b0 52 9a 13 3d 71 8c d9 bd 2b 7c 11 3e 1e aa e9 3c
       0.036035843 -0.1062249 0.14207523 0.028523501
0001c0 90 4c 15 be 79 10 0a 3c 47 4c 15 3e b9 08 b9 3d
       -0.14579988 0.008426779 0.14579879 0.09034867
0001d0 bb 07 09 3e 74 65 6e bc d6 08 0d 3e d6 33 0c 3e
       0.13381855 -0.0145505555 0.13772902 0.13691649
0001e0 31 58 0b be 46 4d e0 bd 83 f8 8d bd da da 00 3e
       -0.13607861 -0.10952239 -0.069321655 0.12583485
0001f0 3e c3 88 3c ae f6 23 3e 2f 23 d2 bc b7 64 e2 3c
       0.016694661 0.1601207 -0.025651542 0.027635915
000200 da 4d 78 3c 75 da a7 bc 28 dd 31 3d 7f d5 04 be
       0.01515528 -0.02048991 0.0434238 -0.12972067
000210 18 b9 99 3c 1c af 7f bc 94 01 b3 3d db db de bd
       0.018765017 -0.015605714 0.087405354 -0.10881778
000220 e9 55 f2 bd b1 75 0b be d9 cd d6 bd 6e 8b b4 bd
       -0.11832792 -0.13619114 -0.10488481 -0.088156566
000230 4e 0d a7 bd e4 ba 09 be 0e 20 7b 3d 3e 8e f4 bd
       -0.081568345 -0.134502 0.061309867 -0.11941193
000240 02 02 ff 3d 70 59 38 3b f8 26 ad bd c0 32 a9 ba
       0.12451555 0.002812948 -0.08454698 -0.0012908801
000250 74 11 9d bb 8e 23 60 bc 70 97 ec bd 77 b4 d8 3d
       -0.0047933403 -0.013680352 -0.11552322 0.10581296
000260 dc 73 c4 bb 24 67 57 3c 6e 3f 0c 3e bc 9a c8 3d
       -0.005995257 0.013147149 0.13696072 0.09795138
000270 fe b8 97 bc 17 74 eb bd 80 5e 2b 39 37 50 e0 bc
       -0.018520828 -0.11496752 0.00016343035 -0.027382
000280 4b 3e 4b 3d 23 a5 ed bd 0a 75 f1 3d b9 fd e9 3c
       0.049619954 -0.11603763 0.117899016 0.028563367
000290 68 e9 03 bd d2 93 09 be 40 5b c6 3a 5c f8 01 3d
       -0.032205015 -0.13435295 0.0015133396 0.031730995
0002a0 b0 6f 6f bb 1b 9b bc bc f2 4c ba bd d7 84 eb 3d
       -0.0036535077 -0.023023179 -0.090967074 0.114999466
0002b0 e0 8d 12 be 1c d7 b6 bd d6 74 d3 3c 51 8e a0 3d
       -0.14311934 -0.089277476 0.025812548 0.07839645
0002c0 fa 04 85 bd 84 47 75 3d 01 d5 df bd fd 6a 96 3d
       -0.0649509 0.059882656 -0.10929299 0.07344625
0002d0 10 5e ea 3d 14 00 c9 3d 23 f2 c4 3d 0a ad 8a 3c
       0.11443722 0.09814468 0.096164964 0.016928215
0002e0 80 e0 83 bc dc 4e 44 bd f2 8e 0d 3e 12 90 00 3e
       -0.01609826 -0.04792677 0.1382406 0.12554958
0002f0 0f b5 03 3e e7 66 01 3e b2 4d cd bd 40 42 fe bc
       0.12862037 0.1263691 -0.10024585 -0.03103745
000300 4a a2 69 3c 98 d7 93 bc 20 4c 2b bb f0 27 00 bd
       0.014259884 -0.018047139 -0.0026137903 -0.031288087
000310 5b 55 0b be 8d f3 bc 3d 23 c2 e5 3d 5c 0f e9 3b
       -0.1360678 0.09226141 0.11218669 0.0071124267

weight f4 [200, 200]
000000 6e 9d 94 bb 74 eb 9c 3c 00 15 59 39 ea cf 08 bc
       -0.0045353686 0.019155242 0.00020702556 -0.008350352
000010 ac 07 b3 bc 89 67 63 bd 08 ad 61 bc 4d 7c d6 bc
       -0.021854244 -0.05551866 -0.013774164 -0.026182318
000020 9a 09 68 bc 36 7c f7 bc d3 52 ca 3c dd 72 58 bc
       -0.014162445 -0.030210596 0.024697697 -0.013210979
000030 16 30 9b 3b 2b 92 80 3c 2c 8a ca 3b 05 58 6a 3d
       0.004735957 0.015694698 0.006181022 0.05721285
000040 2c d5 a5 bc 5a 64 11 bd 31 1a c9 3c 28 83 85 3c
       -0.02024325 -0.035496093 0.024548622 0.016297892
000050 e0 65 32 3b 26 f6 ab 3c 1a 03 ef 3c fb 9d b8 3c
       0.0027221367 0.020991396 0.029176284 0.022536268
000060 49 97 f9 bc e8 de 87 3b 88 48 ae 3a 80 0a c3 ba
       -0.030467646 0.0041464455 0.0013296762 -0.0014880449
000070 c4 23 cc bb b5 75 83 3c 42 79 0c bc 6a 15 a6 3c
       -0.0062298495 0.016047338 -0.008573832 0.020273883
000080 e7 20 8b 3c 78 f0 82 3d 3a c4 d3 bc 89 94 e5 bc
       0.016983462 0.06393522 -0.025850404 -0.028024929
000090 d7 91 5a bd d4 2f 2d bc cc a6 3b 3d c1 5b c9 3c
       -0.05336174 -0.010570485 0.045813367 0.024579884
0000a0 d4 5c 34 3b a9 3e 82 bc f1 3d ca bc f9 25 2e bc
       0.002752115 -0.01589902 -0.02468774 -0.010629171
0000b0 c9 e5 11 3c 4b f0 9c 3c 86 4c 8d bc 65 9b ce 3c
       0.008904883 0.01915755 -0.017248403 0.025220582
0000c0 2b 23 10 3d c7 0a 59 3c 02 49 bc bb 60 d8 c5 bc
       0.03518979 0.013247198 -0.005746008 -0.024151027
0000d0 ca 8f 41 3c 48 19 7c bb ec e2 9c bc 6c d5 31 bc
       0.011814067 -0.0038467217 -0.019151174 -0.010854106
0000e0 60 28 45 bb b6 e5 12 3d de 79 2d 3d ce e7 1e bd
       -0.003008388 0.0358636 0.04235255 -0.038795285
0000f0 4d a6 64 3d 54 9d a6 3c 11 f3 eb bc 9f ca c9 3c
       0.05582266 0.020338692 -0.028802427 0.02463275
000100 1a b9 50 3d 48 bf cd 3c 9c 2e c7 bc c0 d0 9b bc
       0.050957777 0.025115624 -0.024314217 -0.019020438
000110 28 5d b4 3c 3d 9b 03 3c 31 41 21 3d f2 ba bf bc
       0.022017077 0.008032617 0.039368812 -0.023404572
000120 1e d8 b2 bc 16 a4 ca 3c 9e 81 98 3c 16 54 7c 3d
       -0.021831568 0.024736445 0.018616494 0.061603628
000130 ec 46 0e bd 6b 1a 1d 3d 06 ce d8 3c 2c 55 91 3c
       -0.034735605 0.038355272 0.026465427 0.017740808
000140 38 2c 18 bc ba c9 31 3c 98 67 e5 3c 32 3e 85 3c
       -0.009287886 0.010851318 0.028003499 0.016265009
000150 dd 9d ce bc 1e e9 c0 3c 08 ff 51 bd 9c d8 f4 3c
       -0.02522176 0.023548659 -0.051268607 0.029888444
000160 18 cc 77 3d 3e 94 51 bd 60 10 24 bd d0 0d c6 bc
       0.060497373 -0.051166765 -0.04005468 -0.024176508
000170 12 f6 b1 3c b0 97 4e bd 74 96 b3 3c 6c 91 90 bc
       0.02172378 -0.05043763 0.021922328 -0.017647468
000180 be 53 4f 3c 27 ae 2c 3c 50 a9 57 3c a6 96 06 3c
       0.012654243 0.010539568 0.013162926 0.008214628
000190 de 51 d6 3c 50 34 d3 ba 4b 4e 36 bd f4 31 21 bd
       0.026162084 -0.0016113613 -0.04450826 -0.03935428
0001a0 04 3a 5b bb a0 f7 c6 3c 40 31 cf 3c 3a cf 9d 3b
       -0.0033451328 0.024287999 0.025292039 0.004815963
0001b0 bc 41 84 3c f4 af 1f 3d 52 4a a1 3c 54 9d 44 3c
       0.016144626 0.03898616 0.019688759 0.012000401
0001c0 b0 32 ec bb 10 30 2b bc b2 ed cc 3c 96 79 8a bb
       -0.007208191 -0.010448471 0.025015686 -0.00422592
0001d0 da a5 04 bc 70 f3 19 3c 94 22 45 3d 46 3d 1f 3c
       -0.008096183 0.009396419 0.04812868 0.009719199
0001e0 34 21 cd bc 80 48 77 b9 00 9d 24 bd 00 32 2c b8
       -0.025040247 -0.00023582764 -0.04018879 -4.105456e-05
0001f0 ac fc fd bb e0 09 de 3c db 28 85 bc 14 64 e8 bb
       -0.007751068 0.027104318 -0.016254833 -0.0070920084
000200 72 b7 36 bd 40 9c df 3a f4 66 b3 3c 44 21 89 bc
       -0.04460854 0.0017060116 0.021899678 -0.016739495
000210 e2 84 6c 3c 40 35 34 3b 98 c4 86 bb f4 5d 71 3c
       0.014435979 0.002749756 -0.0041127913 0.014731873
000220 5a bc d5 3b aa 6e a0 3c 1c 74 56 bc 8e af ca bc
       0.0065226974 0.019584019 -0.013089206 -0.024741914
000230 6c 6b d8 3c 36 50 44 bc 47 2f 2a bd 75 c7 bc 3c
       0.02641841 -0.011982014 -0.041548993 0.023044327
000240 9e ca b5 3c 54 ad f8 3b 59 e3 81 3d 37 f3 29 3d
       0.022191342 0.0075890217 0.06342191 0.041491713
000250 99 f6 c7 bc dc 5f 26 3b b1 84 c8 3c ca 5e 10 3c
       -0.02440958 0.0025386726 0.024477335 0.008811662
000260 29 b5 49 3d ca cf 1d 3d b4 c3 1e 3d 60 21 aa 3c
       0.049245033 0.03852824 0.038760856 0.020767868
000270 7c 4c 3b bc 40 98 63 ba 43 15 48 3c a2 db 68 bc
       -0.0114318095 -0.000868205 0.0122121 -0.014212521
000280 68 1b c8 bc 5d 68 48 bd 34 15 48 3b 09 f8 08 bd
       -0.02442713 -0.048927654 0.0030530216 -0.03343967
000290 10 fe 37 bd ae b4 28 3d 96 e3 7d 3d c0 e6 82 3a
       -0.044920027 0.041187935 0.06198462 0.0009986982
0002a0 77 ee 1b 3c bc 1f a8 3c ac 99 64 3d c4 a7 f2 bb
       0.009517304 0.020522945 0.055810615 -0.007405253
0002b0 b4 4b 8c 3c 36 9c 78 3c 88 7a 89 bb 4a 6a c2 bc
       0.017125942 0.015173962 -0.004195515 -0.023732323
0002c0 66 cd 0d 3c 66 e2 08 3c a7 66 8a 3c 9c b0 86 3b
       0.008654928 0.008354759 0.016894652 0.004110409
0002d0 7e 3d ff 3c 40 2b 7c 3c 08 a2 80 bb 51 74 4b 3c
       0.031157251 0.015391171 -0.0039255656 0.012417869
0002e0 10 e0 f7 3a 10 c1 37 bd 82 34 e0 bb 1c fd 5e bd
       0.001891138 -0.044861853 -0.006842197 -0.054440603
0002f0 88 14 c9 3c 40 b0 f1 3c 4a 4e 65 3d d6 0d 21 bd
       0.024545923 0.029502988 0.055982865 -0.039319836
000300 c2 18 94 bc 6a 73 3c 3c cc 03 71 bd 28 f8 08 bd
       -0.018078212 0.011502126 -0.05884151 -0.033439785
000310 40 ae 29 3b cd b6 65 3d 3b be 9c 3c 70 ee aa bc
       0.0025891215 0.056082536 0.019133678 -0.020865649
000320 e9 7c ab bc 9f c5 a7 3c c8 ce 0f bd 97 82 80 3c
       -0.020933585 0.020479975 -0.03510931 0.01568727
000330 f0 95 2c 3d 02 34 f4 3c 2e 33 cf 3c 66 7b ff 3c
       0.04213518 0.029809956 0.025292959 0.03118677
000340 2a 94 1a 3c ae 79 51 3d f6 cc c9 bc d2 53 75 3d
       0.009434739 0.051141433 -0.024633866 0.05989439
000350 a8 a1 cd bc 12 76 5a 3d e2 36 e0 3b e2 57 2a 3d
       -0.025101498 0.053335257 0.00684248 0.041587718
000360 0e 5c 30 bc c6 12 36 bd 3c 50 a3 3b 2d 84 9b 3c
       -0.010764135 -0.044451497 0.00498393 0.018983925
000370 15 ff d9 bc a8 4d 14 3d 36 67 2f 3c 48 20 06 bd
       -0.02661089 0.03620687 0.01070576 -0.03274563
000380 34 73 cb bb a8 da 81 bc b0 04 0e 3d f0 96 55 3c
       -0.0062088016 -0.015851334 0.03467244 0.013036475
000390 10 b1 be 3c dd 73 88 3c 02 5a 39 bc 00 7d 76 3a
       0.02327779 0.01665681 -0.011312963 0.0009402782
0003a0 9b e3 19 3d ae d3 91 3c 26 e9 12 3c 22 2f 53 3d
       0.037570577 0.017801132 0.00896672 0.05155862
0003b0 2e 21 5d bc 5d 8a b8 bc 9e 9f de bc 92 ea 47 3d
       -0.01349668 -0.022526914 -0.02717572 0.048807688
0003c0 59 0d 65 bd 22 c7 3b bd 41 49 34 3d 7c 1e bd 3c
       -0.055920932 -0.045844205 0.044015173 0.023085825
0003d0 08 de aa bc 5b 79 99 3c 54 a7 bc 3b 88 95 cd bc
       -0.020857826 0.018734625 0.0057572518 -0.025095716
0003e0 84 d8 c9 bc d2 8f 51 3d ff 75 e8 3c a8 b9 f9 ba
       -0.024639376 0.05116255 0.028376577 -0.0019052522
0003f0 b0 a0 c6 3c f2 8f 47 bc 0e 0a 9b bc 2a 7c f1 3c
       0.024246544 -0.012180315 -0.018925693 0.029478151

bias f4 [200]
000000 78 5f 08 be 67 76 0c 3e 91 69 bf 3c 5e da b5 bc
       -0.13317668 0.13717042 0.023365768 -0.022198852
000010 7e 5a e8 bd 96 af 0a 3e 27 3c ad 3c 90 a3 ce bb
       -0.11345385 0.13543543 0.021146847 -0.0063061193
000020 42 7e aa bc e9 6e ad 3c 4d 03 1c be 2d 46 26 3d
       -0.020812158 0.02117105 -0.15235634 0.04059427
000030 66 c4 19 bc ac 16 c9 3d 01 13 81 bd bf bd bf bd
       -0.009385204 0.098187774 -0.06302453 -0.09362363
000040 f6 ab c8 3d 4a e2 a2 3c 9d 53 ec bc 24 f8 0e 3e
       0.09798424 0.019883294 -0.028848464 0.13961846
000050 78 97 d2 bc 25 74 c3 bc 50 a6 33 3c 74 35 dc 3b
       -0.025706992 -0.023859093 0.010964945 0.0067202393
000060 c9 0a c0 bd f3 ad 0d be c3 b5 53 3d 04 d3 19 bc
       -0.09377057 -0.13835888 0.051687013 -0.009388689
000070 65 bd 1e 3e 9a 15 28 bc d0 fd f6 3d 5e a3 7e 3b
       0.15501936 -0.010259056 0.1206013 0.0038854699
000080 3e 26 06 bc 72 08 88 bd bc b2 11 bd 67 5c 07 be
       -0.008187829 -0.06642236 -0.035570845 -0.13218842
000090 0c e1 86 bd 52 0c bb bc 14 9b a9 bc 9c 2f 77 bc
       -0.06585893 -0.022833023 -0.02070383 -0.015087035
0000a0 05 c2 ad 3d 13 b0 39 bc 5c 5d b1 3d ca 96 88 3c
       0.08484272 -0.011333483 0.08660385 0.016673464
0000b0 10 89 fb ba 1d bf e6 bc a6 81 94 3c b6 f2 e4 3d
       -0.0019190628 -0.028167302 0.018128227 0.11179106
0000c0 e2 53 0c be a4 aa 13 3e bb 19 c8 3d 70 b3 36 3b
       -0.13703874 0.14420563 0.09770533 0.002787795
0000d0 b4 1c bb 3c d0 2d 20 be a8 ee 19 bd b9 ab 17 3e
       0.022840835 -0.15642476 -0.037581116 0.148116
0000e0 94 5c 05 3e 77 4d 20 3d d7 fc 01 3e 1c 20 22 3d
       0.13023597 0.039136376 0.12694107 0.039581403
0000f0 07 e9 8f bd da d7 18 3c e4 28 58 bd cf 56 96 3d
       -0.07026868 0.009328807 -0.05277337 0.07340776
000100 98 fd aa 3b f5 ad 22 be 8d 31 f6 bc a6 a1 12 bc
       0.005218219 -0.15886672 -0.030052925 -0.008949673
000110 48 e7 05 bd 4e 1a f2 bc 1e c4 9e bc 2e c7 2c 3c
       -0.03269127 -0.029553559 -0.019380625 0.010545535
000120 17 fe 1a be 32 ab 79 3c a5 c5 0c be 46 b1 12 be
       -0.1513599 0.01523857 -0.1374727 -0.14325437
000130 6a 47 c2 bd 37 85 0d be 84 04 15 be 3d e1 f7 bd
       -0.094862774 -0.13820349 -0.14552504 -0.12103508
000140 ef e6 d2 3c d8 51 0a be 99 76 1f bc 70 82 cd 3b
       0.025744883 -0.13507783 -0.009732866 0.006271653
000150 b6 ba 18 3d ab 5c ce 3c 04 65 96 3c 08 23 0b 3e
       0.037287436 0.025190672 0.018358715 0.13587582
000160 5d 54 0c 3e 5d ec ae 3d c7 2d 1d 3d 0c 59 24 bd
       0.13704057 0.085411765 0.038373735 -0.040123984
000170 97 f1 24 be ad a6 0d be d0 cc 5e 3c 8d f4 cf 3d
       -0.16107784 -0.13833113 0.013598636 0.10154066
000180 2e 76 0f be 7e 5b 70 bc 48 dd 0f 3e 71 92 81 3d
       -0.14009926 -0.014670251 0.14049256 0.063267596
000190 bc e4 e3 bc 0a 64 f6 bc f3 a5 09 3e d6 72 1a be
       -0.02781903 -0.030077 0.13442211 -0.15082869
0001a0 c0 f5 cb 39 e0 63 f4 bb d2 4e 3b 3d 19 35 fc bd
       0.00038902275 -0.007458195 0.045729466 -0.12314815
0001b0 1e a9 3a bc 0f b6 d7 3d 6a 92 46 bc 3a fa 12 bd
       -0.01139286 0.10532772 -0.012119869 -0.035883166
0001c0 ad c0 be 3d 0e 13 20 be 4e 4c ff bc 3a 83 03 3d
       0.09314094 -0.15632269 -0.031164315 0.03210757
0001d0 31 75 3f 3d 87 36 d0 bd 53 e4 b7 bd 4c c1 5d bc
       0.04674262 -0.1016665 -0.08979096 -0.013534855
0001e0 c8 e2 43 bd e3 6b 0e bd 79 ad fe 3d 24 b2 87 bc
       -0.047823697 -0.034770858 0.12435431 -0.016564436
0001f0 00 52 02 3d d0 e2 3a bc 43 de d0 bc 0d ed d0 bd
       0.031816483 -0.011406615 -0.025496608 -0.10201464
000200 fd 7f e1 3d 51 1b e0 3d 45 2f 05 bd 02 bb b7 3c
       0.1101074 0.1094271 -0.032515783 0.02242804
000210 0e 48 4c bd 5b 57 df 3c 2d 3d ac bd 00 6e fe bd
       -0.049873404 0.027263334 -0.08410106 -0.124233246
000220 90 b8 72 ba a1 4c e5 3d 78 80 d3 3a d3 39 17 3e
       -0.00092590693 0.111962564 0.0016136309 0.14768152
000230 eb 7b 13 3d 7e 0b 16 be 18 dd d2 3d 61 09 94 bc
       0.03600685 -0.14652821 0.102960765 -0.018070878
000240 d7 f0 0b be da 28 6f 3d da af 30 bd 1f 27 58 bd
       -0.13666092 0.05838857 -0.043136455 -0.052771684
000250 b1 3b 92 3d 96 69 0f 3e 64 72 0b bc 72 4d 27 be
       0.071402915 0.14005122 -0.00851116 -0.16338137
000260 0a 02 a1 3d 0f 58 05 3e 4c 3a 1d be 78 cf 17 3e
       0.07861717 0.13021873 -0.1535427 0.14825237
000270 09 24 19 3e 47 c4 ce bd 65 df f3 bd 4b e8 7f 3b
       0.14955153 -0.10096031 -0.119078435 0.003904837
000280 85 3a 8d 3c 85 29 1f be 8e b6 18 3e ed 8b 59 3d
       0.017239818 -0.15543182 0.14913389 0.05311196
000290 c2 6c 03 be c3 9f e3 bc c4 27 f2 3c 10 fe 99 3c
       -0.12834457 -0.027786141 0.029559977 0.018797904
0002a0 36 96 13 be 72 1d ea bd e5 3d a4 bc 35 eb fc bc
       -0.1441277 -0.114313975 -0.020049045 -0.030873874
0002b0 1a 2c 03 3e ad b8 bd bc 22 f5 f4 bd 74 50 13 be
       0.12809792 -0.02315935 -0.11960818 -0.14386159
0002c0 18 2f 13 be 92 26 04 be 5d 42 0b 3e 3e 3e 00 be
       -0.14373434 -0.12905338 0.13599534 -0.12523744
0002d0 34 e1 c3 3c a8 ef 0f 3e a7 dc 14 be 52 c4 a9 3d
       0.023911096 0.14056265 -0.14537297 0.08289398
0002e0 b2 73 21 bd 09 a3 78 bd 48 52 54 bd 42 77 05 be
       -0.039416976 -0.060702357 -0.051836282 -0.13033774
0002f0 0f 81 f7 bd 7a 44 ad 3c a0 c4 20 bb 04 9a fe bd
       -0.12085163 0.021150816 -0.002453126 -0.1243172
000300 84 1f e8 3c 54 c6 ab bb fa 85 01 bd 0d 7c fc bc
       0.02833534 -0.0052421484 -0.03162191 -0.03082087
000310 08 0e 0b be c8 84 14 3d 24 ef d2 3c 48 da a6 3b
       -0.13579571 0.036259443 0.025748797 0.005091939
