deep_learning/models/GCNLinkPrediction109.pth (torch, 234370 bytes, 12 tensors)

bias f4 [100]
000000 bc 87 53 3d c2 ef d8 bc 60 47 56 3d 8a 3d ef 3c
       0.05164312 -0.026481513 0.052314162 0.029204149
000010 be e0 f5 3a 46 89 5b 3d 2f 80 52 3d df ae 30 bd
       0.0018758995 0.05359771 0.051391777 -0.04313552
000020 3b 2b 0a 3d 6b c9 35 3b 69 b2 dd 3c e2 e9 e3 3c
       0.033732634 0.0027738463 0.027062612 0.027821485
000030 de 76 0b 3b 61 28 a5 3c 1c b9 a7 3c 17 a4 41 3d
       0.0021280567 0.020160856 0.02047401 0.04727563
000040 89 f2 00 bd dc ef 7d 3c 48 3d ab 3c 2c 83 43 bd
       -0.0314813 0.015499081 0.020903245 -0.047732517
000050 3b da b7 3c 6a a0 ac 3c 98 42 b4 bc e2 38 b8 bc
       0.022442928 0.021072585 -0.02200441 -0.022488061
000060 52 96 00 3d 69 9b 7e bc b6 53 c9 bc 9f 90 5c 3d
       0.031393357 -0.015539982 -0.02457605 0.05384886
000070 1a ca c3 bc 42 5c 50 bc 15 2b 45 bc a8 f5 d0 bc
       -0.02390008 -0.0127173085 -0.012034197 -0.025507763
000080 46 09 9e 3c cd 4d 40 3d 1c b1 80 3c e5 f1 4d bd
       0.019291531 0.046949197 0.015709452 -0.050279517
000090 6e d2 ff 3c da d5 3a bd 4f c4 0e bd 94 3e 37 3d
       0.03122827 -0.0456141 -0.034855183 0.044737414
0000a0 5d b7 3e bd ee a3 26 bd d1 db a9 3c 5f 9a 42 3c
       -0.046561588 -0.04068368 0.0207347 0.011877625
0000b0 45 4d da ba c0 09 d7 bc a1 66 fa bc 3e 35 cc bc
       -0.0016655108 -0.026249766 -0.030566515 -0.024927732
0000c0 88 b3 ac 3c fc d2 10 bd 9e a9 1d bd 60 ca 95 3c
       0.0210817 -0.03535746 -0.038491838 0.018284976
0000d0 5e 32 52 3d ec fe bf 3c 06 b6 35 3c c0 4b 0f bd
       0.051317565 0.023436986 0.011090761 -0.03498435
0000e0 96 b1 ae bc da 14 32 bd 9f e2 90 bc 13 13 63 3c
       -0.021324914 -0.043476917 -0.017686186 0.013859528
0000f0 b6 7d 65 3b 31 2e 2b bd 52 f5 27 bd c4 8b 2e 3d
       0.0035017557 -0.0417921 -0.04100544 0.04261376
000100 97 8b 15 bd a4 23 36 bd d9 78 f7 bc d5 40 6a 3c
       -0.036510076 -0.044467583 -0.030208992 0.014297684
000110 db ea 96 3c 18 ed e5 3b 6b cd ec bc 01 3f 39 bd
       0.018422535 0.007016789 -0.028906545 -0.0452261
000120 65 a1 52 3c 23 cb 15 3d 21 91 27 bd 39 22 08 bd
       0.012855862 0.03657068 -0.04090989 -0.033235762
000130 5a 46 37 bd e2 88 3c bd 20 b1 38 3d 4b d1 5e bc
       -0.044744827 -0.04602898 0.045090795 -0.013599704
000140 79 21 3e bd 80 69 36 3b cf f3 53 3d 44 2e 58 3d
       -0.04641864 0.002783388 0.051746186 0.052778497
000150 f6 24 c7 bc 99 31 4e 3d 27 8d 27 3d 9b fb d6 bc
       -0.024309617 0.05034027 0.040906098 -0.026243022
000160 cc 9a 1e bc 66 c7 a8 bc 5d 09 a5 3c 35 e5 f8 3c
       -0.009680461 -0.020602893 0.020146066 0.030382732
000170 42 f9 23 3d c9 3e 6c bc 55 b6 af bc 80 3a 43 3d
       0.040032633 -0.014419266 -0.021449247 0.04766321
000180 38 cd 76 3b 6f 77 48 3d 4b ac f9 bc c1 92 2c bc
       0.003765894 0.048942026 -0.030477664 -0.010533036

weight f4 [100, 18]
000000 87 3c a7 3d a2 ad 2a 3e e5 02 58 3e e1 91 a2 3d
       0.081658415 0.16667798 0.21094854 0.079379804
000010 c7 33 43 be ae d8 60 3b 39 d2 c9 bd 4e e5 53 3e
       -0.1906272 0.0034308839 -0.0985455 0.20692942
000020 0b 63 43 3d 33 51 41 bd dc bf 07 3e 1e 4f d7 bd
       0.047701877 -0.04719658 0.13256782 -0.10513137
000030 c0 73 8d 3c e6 e5 d0 3d 92 e7 7b 3e 38 e7 16 3e
       0.017267108 0.102001 0.24600056 0.1473664
000040 3e 55 e1 bd 21 24 9b 3c 6c a5 24 be 23 51 6f be
       -0.11002587 0.018938126 -0.16078728 -0.23370795
000050 20 c8 c6 bc 19 d6 75 3d 38 7e 31 bd f7 15 25 be
       -0.024265349 0.060018633 -0.043333262 -0.1612166
000060 72 7a 42 bd 82 03 bf bd 18 05 a6 bc c7 5b 8a bd
       -0.047480054 -0.09326841 -0.0202661 -0.067557864
000070 bc d3 87 3d 89 d6 28 3e c3 b7 57 be e7 70 10 bd
       0.06632182 0.16488089 -0.21066193 -0.035263922
000080 f8 59 13 be ff c1 d0 bd 28 03 4d be af 96 80 be
       -0.14389789 -0.10193252 -0.20020735 -0.25114962
000090 6d ca 01 3e 02 79 17 3e aa 67 c2 3d d3 ec c1 3d
       0.12674876 0.14792255 0.094924286 0.09468999
0000a0 0c e3 e7 3d 08 7b 95 bd df 6e 02 be 94 13 25 be
       0.11322603 -0.07298857 -0.12737606 -0.1612075
0000b0 ed 15 b1 3c eb 7d 27 bd f6 8a 42 3e 49 d9 3d 3e
       0.0216169 -0.04089157 0.18998322 0.18539919
0000c0 60 54 10 3e 0b 66 2a 3e b0 c8 32 3e a4 27 f6 bd
       0.14094687 0.16640489 0.17459369 -0.120192796
0000d0 91 05 6f 3d de 4a a7 3d b6 a9 7e 3d d5 59 13 bc
       0.058354918 0.08168577 0.062173568 -0.008993586
0000e0 e6 1e 80 be c9 db be 3c bd 90 d0 bd 17 71 23 bd
       -0.25023574 0.023298161 -0.10183857 -0.039902773
0000f0 a1 ef 34 3e ad 54 56 be 7c 49 29 be 5c 04 84 3e
       0.17669536 -0.20930739 -0.16531938 0.25784576
000100 b1 52 0f be f6 ec 3a 3e 0c fc 32 3e fc ef 83 3d
       -0.13996388 0.18254456 0.17478961 0.06442258
000110 eb df 28 be d1 b2 08 be bb de 81 bb 72 9d 10 bd
       -0.16491668 -0.13349463 -0.003963319 -0.0353064
000120 c2 39 0a be c1 cc a9 3b d8 3f 76 bd 39 26 40 3e
       -0.13498595 0.0051818793 -0.06011948 0.18764581
000130 6e 57 d6 3c f9 9b db 3c 1b 71 62 be b3 22 52 be
       0.026164737 0.026807772 -0.22113459 -0.20521049
000140 5f 7d cb bd b5 37 33 3e 3a ba 36 3e fa 0f 25 be
       -0.09936022 0.1750172 0.17844477 -0.16119376
000150 19 f9 3d bd b6 40 9e bd 33 8f 58 3e 4b 86 d0 bd
       -0.046380136 -0.077271864 0.21148376 -0.10181864
000160 e8 cc 81 3d 1e 80 07 be 67 e3 49 3d 9e 33 c0 bd
       0.06337911 -0.13232467 0.049289133 -0.09384845
000170 00 66 0c 3d 08 c4 70 be f4 e1 e1 bd a7 49 37 be
       0.034276962 -0.2351228 -0.11029425 -0.1789919
000180 58 3b f2 bd 94 b7 94 bd a0 d5 e5 3d 07 fa 9b 3d
       -0.11827725 -0.07261577 0.11222386 0.07616048
000190 7f 0e 4f be 74 5b 53 be 15 b8 43 be cd a4 4f be
       -0.20220374 -0.20640355 -0.1911319 -0.2027771
0001a0 fe d6 44 bd 51 2d 39 bd b1 6c 04 3c 56 5c 51 3e
       -0.048056595 -0.045209233 0.008082555 0.2044538
0001b0 90 d0 8a 3e 67 3f 25 be 0a 51 91 bd 41 a6 27 be
       0.27112246 -0.16137467 -0.07095535 -0.16372015
0001c0 e3 28 8d 3e 44 cb 96 bc 2c 83 e4 3b 97 50 25 3d
       0.27570257 -0.018407471 0.0069736447 0.04036006
0001d0 a4 84 81 3e 0a a4 58 bd 0e 27 bd bd 02 da 63 3e
       0.2529651 -0.052890815 -0.09235965 0.22251132
0001e0 c2 f2 f2 bd 20 37 56 3e de 21 8b 3e ad 79 bb bd
       -0.11862709 0.20919466 0.27174276 -0.09154067
0001f0 10 e2 24 be 7e 13 96 3d 82 86 d9 3c 8e 44 63 3c
       -0.16101861 0.073279366 0.026553396 0.013871325
000200 a1 b4 fc bd e4 a0 0c be f4 9e 71 bd 44 de 96 bd
       -0.1233914 -0.1373325 -0.05898948 -0.073666126
000210 2c f1 cb 3c 34 22 83 3d 00 c6 01 bc ba ea 1e be
       0.024895273 0.06403008 -0.007920742 -0.15519229
000220 ca f0 38 3e af ef 22 be 68 74 0f be 1d b9 74 bd
       0.18060604 -0.15911745 -0.14009249 -0.05974685
000230 d2 81 3b be b7 76 41 be b1 a3 f2 3c 1a 45 50 be
       -0.18311241 -0.18892942 0.02961907 -0.2033886
000240 60 c9 10 be 53 4b a5 bb d8 56 3d 3d bf 9b 64 3d
       -0.14139318 -0.0050443797 0.0462254 0.055812594
000250 99 dc 14 3e fe d3 84 be e7 72 94 3d 3e d5 d2 bd
       0.14537276 -0.25942987 0.072484784 -0.10294579
000260 5a 6e bd bc 23 2b e4 3c 93 26 44 3c d6 5e 07 3e
       -0.023123909 0.0278526 0.011972087 0.13219771
000270 68 db d3 bd 68 98 bc bd da 4c 22 be b9 c7 75 3e
       -0.10344583 -0.09208757 -0.15849629 0.2400197
000280 44 f0 d6 3d 7e 76 41 3e 88 2c 74 3d ec 95 ce bb
       0.10495046 0.18892857 0.05961278 -0.006304493
000290 68 f4 6a 3d 0a bf 40 be 48 fe 85 3d 68 5d 4b 3d
       0.05736199 -0.18822876 0.06542641 0.049649626
0002a0 7f e4 35 be 67 8e 23 be b9 37 3b bd 53 c9 8f 3c
       -0.17762946 -0.15972291 -0.04570744 0.017552054
0002b0 1e 0c 9f 3c 71 b7 24 3e 98 bf d4 3c 15 3c 1c bd
       0.019414958 0.16085602 0.025970265 -0.038143236
0002c0 68 8e 41 bd f4 dc bb bc 21 cf fa bc e3 72 5e be
       -0.04725495 -0.022932507 -0.030616345 -0.21723513
0002d0 4c e6 d1 3c ff 77 c9 3d 5a c8 7c 3e 39 a2 38 3d
       0.02562251 0.098373406 0.24685803 0.045076583
0002e0 b3 28 27 3e 91 09 16 bb 0a ce b5 3c 4c ad 33 3e
       0.1632412 -0.0022893886 0.022192974 0.17546576
0002f0 b0 e4 c6 3c 43 90 35 be a2 ed 25 3c 15 ba e8 3c
       0.024278969 -0.17730813 0.010127457 0.028409043
000300 1e 68 09 be 53 bd 01 be 0b ae 87 bd 0c 6e 12 be
       -0.13418624 -0.12669878 -0.06624993 -0.14299792
000310 57 b0 1b be 5d 15 44 be f1 86 4e bb b0 bd 8a 3e
       -0.15203987 -0.19148774 -0.0031513537 0.27097845
000320 ae 87 f7 bd 6d 83 08 3d d2 08 90 bd 35 28 2e 3c
       -0.12086426 0.033328462 -0.07032932 0.010629703
000330 c6 75 57 3e 67 e6 02 3e 44 43 28 be b7 db a5 3c
       0.21041021 0.12783204 -0.1643191 0.02024637
000340 88 78 9f 3d c3 e1 12 3d 75 07 c2 bd 6e d5 51 3e
       0.077866614 0.035859834 -0.094740786 0.20491573
000350 13 dc e9 3d 69 7f 1c be bc 28 59 bd fc 3d 7d 3e
       0.11418929 -0.15282978 -0.053017363 0.24730676
000360 e9 ff 7c 3d 6e 59 fa 3d 8a ab ea 3d fa b0 42 3e
       0.061767492 0.122240886 0.114585 0.19012824
000370 f7 60 c8 bd 05 4d 63 3e dd 40 f1 3d 97 c2 7e 3d
       -0.097841196 0.2219735 0.1177995 0.062197294
000380 09 c3 87 3e 27 6e 53 3e 3d ef 32 be bd 42 40 bd
       0.26515988 0.20647489 -0.17474075 -0.046938647
000390 93 71 20 be 8f 24 20 be 1f 5f 8d 3b 1e 4c a3 3d
       -0.15668325 -0.15638946 0.004314318 0.079735026
0003a0 69 24 34 3e 93 bf 05 be 35 09 54 3d 4c 38 9c 3d
       0.17592014 -0.13061361 0.051766593 0.07627925
0003b0 5b 1d f5 bd 7d c4 07 be f8 90 4d be e2 00 8c be
       -0.1196849 -0.13258548 -0.20074832 -0.27344424
0003c0 f4 97 41 be 35 b7 c9 bd 6b 4c a3 3c 9e c4 b1 3d
       -0.18905622 -0.09849397 0.0199339 0.0868008
0003d0 a2 20 5e 3e 87 6a 6c 3e b8 4d 1c be 30 ec 9e 3d
       0.21692136 0.23087512 -0.15264022 0.07759893
0003e0 bc 21 4b 3e fd 9e 26 3e 71 cf 79 bd 54 b2 a0 bd
       0.19837087 0.16271587 -0.060988847 -0.078465134
0003f0 de 50 8e 3d fa 75 e6 bd ed 03 42 3e ac 63 aa 3d
       0.06949018 -0.11252971 0.1894681 0.08319792

bias f4 [100]
000000 e0 3e 0c bd 82 a1 ce ba 3e f5 bb bc 38 0d 4d 3c
       -0.03423965 -0.0015764686 -0.022944089 0.012515359
000010 06 2d 11 bd cc e6 0f bd 62 2e 0d 3d fc 69 1f 3b
       -0.03544333 -0.035132214 0.034468062 0.0024324646
000020 40 3c d2 3c 6b cc a7 3c cd c2 d6 bb 6b de 4c 3d
       0.025663495 0.020483216 -0.006553984 0.0500168
000030 bf 93 9c 3b eb dc 33 bc 24 8a 11 bd d7 c0 f5 3c
       0.004778355 -0.010977964 -0.03553213 0.02999918
000040 78 78 d0 bc 87 53 10 bd 32 f7 ca 3c 42 f1 b3 bc
       -0.025448069 -0.035235908 0.024776075 -0.021965627
000050 46 b2 38 bc 33 bc 0f bd f7 10 a5 3c 50 0b 16 3c
       -0.011272972 -0.03509159 0.020149691 0.009157971
000060 99 71 e6 3c b8 66 ab bc 04 fd 1f 3c 17 df b6 3c
       0.02813034 -0.020923004 0.0097649135 0.022323174
000070 be 88 96 bc 56 10 6e bc 7d eb e6 3c 03 ae 10 bd
       -0.01837575 -0.014530262 0.028188461 -0.0353222
000080 e0 5b 0d 3d 02 97 a9 bc 90 1f 12 bd 26 c3 37 bd
       0.034511447 -0.020701889 -0.03567463 -0.044863842
000090 25 61 11 bd 5c 7a 10 bd cc 2d 14 bd 09 8a f7 3c
       -0.035493035 -0.03527294 -0.036176488 0.030217187
0000a0 e0 04 dc 3c 6d f5 cb 3c 71 3d 94 bc a8 af d2 3c
       0.026857793 0.024897302 -0.018095704 0.025718525
0000b0 12 54 eb bb 04 e4 da 3c dd 3d 4d 3c 8e f1 da 3c
       -0.007181653 0.026720054 0.012526956 0.02672651
0000c0 0b 8f 11 bd e8 25 08 bd 19 52 35 bd 7e 7c dd ba
       -0.035536807 -0.033239275 -0.044267748 -0.0016898063
0000d0 ee 29 d6 3c b6 12 11 bd d9 65 ba bb 91 03 f3 bc
       0.02614304 -0.035418235 -0.0056884107 -0.029664787
0000e0 25 42 b7 bc 82 e2 c4 3c 8c ae 90 3b 46 3d 0f bd
       -0.022370407 0.024033789 0.004415339 -0.034970544
0000f0 f3 93 0c bd 1e 95 0f bd e3 e2 10 bd f6 ab 44 3d
       -0.034320783 -0.03505432 -0.035372626 0.048015557
000100 66 9d 11 bd 93 15 ec bb 33 ff 1b bd d3 b0 07 3b
       -0.035550497 -0.0072047203 -0.038085174 0.002070476
000110 08 f2 14 bd e7 96 13 bd 87 fa ae 3b e7 b0 f0 3b
       -0.03636363 -0.036032584 0.005339924 0.007345307
000120 26 78 65 ba 79 bf 10 bd c8 e7 4c 3c 24 6b 01 3d
       -0.000875356 -0.035338853 0.012506433 0.031596318
000130 a4 06 27 bd 6e 61 11 bd f7 40 f3 3c 78 11 ee 3b
       -0.040777817 -0.035493307 0.029694064 0.007265266
000140 f3 2c 10 bd af 72 25 bd 35 ee 9b 3c 21 96 32 3d
       -0.035199117 -0.040392574 0.019034484 0.043600205
000150 4d 0e 5f 3c 54 b5 8a bc 0e 60 10 bd 8a d3 91 bb
       0.013614249 -0.016932167 -0.035247855 -0.0044502662
000160 fb c3 fe 3c 00 84 10 bd f4 27 13 bd 90 e2 c5 bc
       0.03109931 -0.035282135 -0.035926774 -0.024155885
000170 db a0 98 3c f6 5f 50 3b b5 5f 18 bc e1 93 e8 ba
       0.01863139 0.0031795478 -0.009300162 -0.0017744267
000180 e1 d7 09 3d 98 67 b4 3c b6 55 97 bc 13 2c cd bc
       0.033653144 0.022022054 -0.018473487 -0.02504543

weight f4 [100, 100]
000000 c3 5c 0a 3e 38 7c 1f be 4a ba 5d bd d6 4e e6 3d
       0.13511948 -0.1557473 -0.054132737 0.112455055
000010 b7 a8 3f be 2c 5f 36 be 45 8d b0 bc b3 b7 23 3e
       -0.18716703 -0.17809743 -0.021551738 0.15988044
000020 b2 14 f4 3d d5 9a 56 3c 60 ab 70 3c 0d 5b fe 3c
       0.1191801 0.013098438 0.0146892965 0.031049276
000030 f4 c8 0c be e2 00 41 be 91 22 11 3e fd 48 7d bd
       -0.13748533 -0.18847993 0.14173342 -0.061837185
000040 bb b5 89 bd 6c 7d 90 bd 5e 02 80 bd 85 04 04 3e
       -0.067241155 -0.07055172 -0.062504515 0.12892349
000050 fc 74 0c 3d 5d 7f 69 3d 44 36 70 bc 90 38 3d be
       0.034291252 0.05700623 -0.014661375 -0.18478608
000060 1f 4a 3b be bd 5b d6 3d f9 64 ae 3d 54 c8 15 3e
       -0.18289994 0.104667164 0.08515353 0.146272
000070 17 71 05 be 86 3a 75 bc 17 ce a9 bd d5 76 0d 3e
       -0.13031422 -0.014967566 -0.08291262 0.13814862
000080 61 20 25 bd 9e 6c 47 3d c2 8a b1 3d 47 eb 96 3d
       -0.040314082 0.04868757 0.08669044 0.07369094
000090 3a 09 a3 bd f2 f5 e1 bd 49 d4 dd 3b fb b6 d5 3d
       -0.07960744 -0.110332385 0.006769691 0.104352914
0000a0 21 3b a0 3d 39 58 5a be 5c ab fb 3c 70 5c 15 be
       0.07823778 -0.21322717 0.030721359 -0.14586043
0000b0 8f ec af bd dd 6f 64 bb 0a 7c 7b 3d 74 09 9d bd
       -0.08590042 -0.0034856715 0.06139759 -0.07667819
0000c0 cc d1 11 3e 5a 7c 35 3d d2 7a be bd 8f f3 0a 3e
       0.14240187 0.044308044 -0.0930077 0.13569473
0000d0 7d 0a ed bc 92 6e 0e bd 7e ac fb 3d c7 47 a3 bd
       -0.028935665 -0.034773417 0.1228876 -0.07972675
0000e0 18 6b 5d bd 06 8b 8f 3d de 0a 78 3d 72 d6 bc bd
       -0.05405721 0.070089385 0.06055724 -0.0922059
0000f0 d4 d2 61 3d 03 c2 a9 3d 37 21 84 bd 66 25 ae 3d
       0.055132702 0.08288958 -0.06451648 0.08503227
000100 58 89 b1 3d 52 a0 03 be 68 cc 58 be 19 de 13 3d
       0.08668774 -0.12854126 -0.21171725 0.03610048
000110 8a 1c a3 bd f8 d7 28 be 01 68 91 3d 14 26 53 be
       -0.07964428 -0.16488636 0.07099915 -0.20619994
000120 d8 a2 86 3d 17 45 54 be 00 7d 1b 3e 6b 39 c7 3c
       0.06574029 -0.2072948 0.15184402 0.024319371
000130 19 a5 31 be f3 c0 c7 3d 10 6c c9 3d 55 17 93 3d
       -0.17348136 0.09753599 0.098350644 0.071821846
000140 81 f8 ee bd 92 23 cc 3d 93 ac 34 3e f8 3d 80 3d
       -0.11668492 0.09967722 0.17643957 0.062618196
000150 c8 12 24 be 1a 7a e2 3d c2 32 15 3e 32 61 05 3b
       -0.1602279 0.11058445 0.14570144 0.0020352122
000160 9d 71 99 3d 34 de ba bd e4 90 25 be 0f f6 a7 bd
       0.07492373 -0.09124413 -0.16168553 -0.08201229
000170 de ac 50 bd e4 24 97 3d 0a 11 4e bb f9 29 9b bd
       -0.05094611 0.07380083 -0.0031443262 -0.07576365
000180 e8 25 7f 3c 24 e7 1b 3e 17 22 e6 3d 4b 54 0a be
       0.015573002 0.15224892 0.11236971 -0.13508718
000190 21 39 27 be c2 f8 88 3d 01 dc f4 bc eb 7f 21 be
       -0.16330387 0.06688072 -0.029890062 -0.15771453
0001a0 2a 20 06 be a9 e2 25 3e d5 db f6 bd 65 37 31 3d
       -0.13098207 0.16199745 -0.120536484 0.04326572
0001b0 c0 50 b2 bd 4c 96 12 bd 19 be d9 3d 39 3f 2d 3e
       -0.08706808 -0.035787866 0.106319614 0.16918649
0001c0 31 12 8f 3d f0 86 4d 3c 12 3f 09 be 8a 56 d5 ba
       0.069858916 0.012544379 -0.13402966 -0.0016276401
0001d0 b6 82 d4 3b e0 7c 12 3e e5 72 e1 bb 84 e8 62 bc
       0.0064853085 0.14305449 -0.0068801516 -0.013849381
0001e0 e3 75 fa 3d 3e 02 b3 bd 53 0a 5d 3d 9f e8 cf 3d
       0.12229516 -0.08740662 0.053964924 0.10151791
0001f0 7f 50 ed 3d d4 aa a8 3c e0 87 ef 3d b7 b9 30 be
       0.11587619 0.02058927 0.11695838 -0.17258345
000200 3b 0f 3a be 64 57 8c bd e7 3b 01 be db 9f 68 3c
       -0.18169872 -0.06852606 -0.12620507 0.014198269
000210 30 ec 96 bd 6a e3 f2 3d db d5 b8 bd ce ab 3c be
       -0.07369268 0.11859782 -0.09025165 -0.18424913
000220 18 f7 7d bd 92 c8 54 bd 7f fd 14 3e 99 ab d5 bc
       -0.062003225 -0.05194909 0.14549826 -0.0260828
000230 2d 66 61 bd 42 b5 14 be ce 73 d0 3d ee d3 12 bd
       -0.055029083 -0.1452227 0.10178338 -0.035846643
000240 34 75 4b 3d 43 9a a0 3d 1d 7f 4a 3d 1e 07 fe 3d
       0.04967232 0.07841923 0.04943763 0.12403701
000250 79 a8 99 3d f4 65 fb bc 1b 8e a5 3d bf 27 32 bd
       0.07502837 -0.030688263 0.08083745 -0.043494936
000260 2a 44 ca 3d 03 c7 11 be b0 74 b6 bb af ef 50 be
       0.098762825 -0.14236073 -0.0055681095 -0.20403932
000270 69 f1 68 3d 3c 99 96 3c c5 14 b4 3d d4 da 99 3c
       0.05687085 0.018383615 0.08793024 0.018781103
000280 fd 65 1c 3e fd 64 cb bd 69 7c 3b be f2 78 84 3d
       0.1527328 -0.09931371 -0.18309177 0.06468381
000290 22 75 ab bd 8c ba 01 be 2a 90 91 bd c9 e9 06 be
       -0.08371951 -0.12668818 -0.07107575 -0.1317512
0002a0 73 16 b1 3c dc b7 0f 3e 46 5c b8 3d 7c 3b 4d 3d
       0.02161715 0.1403498 0.09001975 0.050105557
0002b0 c6 0b d3 bd a9 6a d3 3d f5 68 ea 3c b5 d1 b8 3d
       -0.1030498 0.10323078 0.0286145 0.090243734
0002c0 c1 97 cc bb 90 5b fd bc 58 f2 21 3d 93 1f ee bc
       -0.0062436764 -0.03092745 0.039537758 -0.02906779
0002d0 ba 01 5c bb f6 32 05 be f0 fe 01 3e 20 98 af bd
       -0.0033570365 -0.13007721 0.12694907 -0.085739374
0002e0 19 6f 8e 3d 8c be 95 3b cd c1 14 3e fe b7 1c 3e
       0.06954784 0.004569834 0.14527054 0.15304562
0002f0 87 9e 2e 3e ad 00 d1 bd 2d 10 6b 3d 35 b8 93 3c
       0.17052661 -0.10205207 0.057388473 0.018032173
000300 f9 1d 20 be 39 95 81 bd 31 a2 64 bd 45 97 41 3d
       -0.15636434 -0.0632729 -0.05581874 0.047263402
000310 72 07 2e be 08 8d d8 3b 82 08 24 3e 33 1c 2e 3d
       -0.16995028 0.006608609 0.1601887 0.04250736
000320 9d 99 46 be 4c 8c 9b 3d 85 47 c9 bd ec ba 0c 3e
       -0.19394536 0.07595119 -0.098280944 0.1374318
000330 83 59 05 3e 0c f2 af 3d fc 4d be 3d 74 7a c4 3c
       0.13022427 0.08591089 0.09292218 0.023984171
000340 44 2a 9b 3d 25 80 5b bc 60 99 c1 3d 97 bf ff 3d
       0.07576421 -0.013397251 0.09453082 0.12487715
000350 78 20 16 3d ac d7 34 bc 5e 4d 42 be ad 71 ac 3c
       0.03665206 -0.011037748 -0.18974826 0.021050299
000360 dd e9 34 bd 69 52 1d 3e 34 c3 b6 3d 8d 7a 89 3d
       -0.044168342 0.15363468 0.08923951 0.06712828
000370 de 52 09 3e ab 7b ac 3b 24 17 44 bc e5 58 6f 3d
       0.13410518 0.005263766 -0.011968408 0.058434386
000380 ef 36 b0 bd e2 cb 29 3c eb 06 2b bc ca ca dc 3d
       -0.08604228 0.010363551 -0.010438661 0.107808664
000390 03 62 02 3e 92 80 df 3c 45 30 08 be b7 55 4c be
       0.12732701 0.027282987 -0.13299663 -0.19954573
0003a0 a7 24 30 3d eb 16 25 bd de 7a 8a bc c2 a2 e5 bd
       0.043003704 -0.04030506 -0.01690429 -0.11212684
0003b0 d5 74 45 be 4a 5b d6 3d 08 b7 8b bd 38 05 23 3e
       -0.19282849 0.10466631 -0.0682202 0.1591996
0003c0 86 6e 17 3e 51 f2 7d 3d 1c 26 46 be b1 5e 0e be
       0.14788255 0.06199867 -0.19350475 -0.1390331
0003d0 c0 f9 e5 bd 12 49 f5 bc 12 aa f6 bd 4b 62 f5 bd
       -0.11229277 -0.02994207 -0.12044157 -0.119816385
0003e0 56 18 24 bc c7 7c d0 bd d9 4e ff 3c 42 87 03 3e
       -0.010015568 -0.101800494 0.031165527 0.12844566
0003f0 34 f9 32 be 97 6a de bb 03 c1 03 be 5f 45 35 3e
       -0.17477876 -0.006787609 -0.12866597 0.17702244

bias f4 [100]
000000 d1 cd 16 bd e9 3c 12 bd 94 db fe bc 39 03 0e bd
       -0.036817376 -0.03570262 -0.031110562 -0.034671042
000010 96 10 11 bd 5c 5f 82 bb 07 8b 7d 3b 89 96 04 3d
       -0.03541621 -0.003978653 0.0038687603 0.032370124
000020 ba bf af 3c b2 4a 17 bd c7 7c 0a bd 52 9c e6 3c
       0.021453727 -0.03693647 -0.033810403 0.028150711
000030 d7 ba 20 3d 48 c9 0f bd 07 69 10 bd 64 58 10 bd
       0.039240684 -0.035104066 -0.035256412 -0.035240546
000040 f7 3e 9b bc f9 20 2c bd b1 28 11 bd 6d 76 11 bd
       -0.018950922 -0.042023633 -0.035439197 -0.03551333
000050 c7 a0 af bb 2f c7 11 bd 39 69 f7 3c d8 d5 e6 3c
       -0.0053597423 -0.035590347 0.030201541 0.02817814
000060 09 8e 78 3d 90 57 04 bd cb 79 0e bd e5 58 1d bd
       0.06068233 -0.03231007 -0.03478412 -0.038414855
000070 b1 5e ea bc 1c d3 c8 3b d2 57 3d bd 28 6f 83 bc
       -0.028609606 0.006128682 -0.04622633 -0.016044214
000080 cb 6f 11 bd 85 d8 59 3c 5b f4 8e 3a 6d 7a 11 bd
       -0.035507005 0.013296251 0.0010906564 -0.035517145
000090 6d 79 0e bd a1 92 ec 3c 30 5a 29 bd a1 33 d5 3c
       -0.03478377 0.028878512 -0.041345775 0.026025595
0000a0 19 4a 11 bd 02 e5 2c 3c b4 26 bf 3b 72 3b 11 bd
       -0.035471056 0.010552647 0.005833471 -0.035457082
0000b0 18 eb 06 bd 1c 12 a5 3c c7 9e 0e 3d 28 1a e5 3c
       -0.032939047 0.020150237 0.03481939 0.027966574
0000c0 11 2e 1b bd f3 8b 10 bd 04 62 11 bd 65 87 0c bd
       -0.03788573 -0.035289716 -0.035493866 -0.03430881
0000d0 0e db 64 3b f4 f3 a6 bc e0 7f 11 bd 3c 06 88 3a
       0.0034920606 -0.020379998 -0.03552234 0.0010377835
0000e0 e2 33 09 bd 61 15 be bc c3 b0 29 bd f0 40 d7 3c
       -0.033496745 -0.023203554 -0.04142834 0.026276082
0000f0 d1 ba 15 3d ae f2 28 3d fa 1f 0d bd d6 86 ea 3c
       0.036555115 0.041247062 -0.034454323 0.028628748
000100 20 0e 64 3b 85 74 10 bd 91 ea 43 bc 8b 3a 3d 3c
       0.0034798458 -0.03526737 -0.01195778 0.011549602
000110 36 91 54 bc 9e ec 79 bc b8 b3 a4 bc ec ca 05 3d
       -0.012974074 -0.015254168 -0.020105228 0.032664225
000120 4a 41 56 3b cf 32 46 3c f3 a7 dc bc cc f3 f2 ba
       0.0032692724 0.012097075 -0.026935553 -0.0018535792
000130 c7 90 57 bb fa a1 97 3c 40 79 6d 3c f8 db 13 bd
       -0.003289269 0.018509854 0.01449424 -0.03609845
000140 a3 ac 12 3c dc 24 0e bd 86 92 3b 3c 5d 0e 22 bd
       0.008952293 -0.03470312 0.011448508 -0.03956448
000150 e0 70 fa bc ce 22 a5 3c 46 f8 0d bd 5e bc 10 3d
       -0.030571401 0.020158198 -0.0346606 0.03533589
000160 06 ac 18 3d 93 3d c0 bc 57 24 41 3d 95 a8 f9 3c
       0.03727343 -0.02346686 0.047153797 0.030475894
000170 dc f6 98 3c 1d 33 02 3d 85 db 09 3d ac f6 b3 bc
       0.0186724 0.031787027 0.033656616 -0.021968208
000180 01 b4 c4 bc 15 27 90 3c d6 29 ef 3b e8 de ef 3c
       -0.024011614 0.01759676 0.0072986884 0.029281095

weight f4 [100, 100]
000000 2d a7 51 3d 40 67 45 3e 58 09 c7 bd 59 15 0d be
       0.051184822 0.19277668 -0.09718579 -0.13777675
000010 21 6c 93 bd cb 79 16 bd 51 0d e6 bc df 85 73 3c
       -0.07198358 -0.036737245 -0.028082522 0.01486346
000020 48 f5 14 bd f3 37 b1 3d ae f7 42 3c 90 3a 89 3d
       -0.03636673 0.086532496 0.011899872 0.06700623
000030 a7 5c 57 bb 3e cd a5 bd 64 4a 21 be d8 9c 6c bd
       -0.0032861622 -0.080957875 -0.15751034 -0.057766765
000040 40 e0 14 be f3 17 28 be ab 7b ab 3d ab d2 ea bc
       -0.1453867 -0.16415386 0.08373197 -0.028664907
000050 69 6f 3a 3e 29 07 9e 3c 6f 89 48 be 56 22 2f 3e
       0.18206562 0.019290524 -0.19583677 0.17102942
000060 1d 4a d5 3d 56 33 6f 3c 73 3e 12 bd 84 0b 83 bd
       0.104145266 0.014599642 -0.035704087 -0.06398681
000070 4d db 01 3e fe a9 6f 3d a1 ba 85 bd dc 40 8e bd
       0.12681313 0.058511727 -0.06529737 -0.06945965
000080 61 02 ec 3d 8e ba a6 3d d3 c9 a7 3c b0 ac d7 3d
       0.11523891 0.08141051 0.02048198 0.105309844
000090 d3 aa e9 3d 53 ce 11 be 8d f8 ca 3d 2c d7 13 bd
       0.11409535 -0.14238863 0.099106885 -0.036093876
0000a0 70 39 f3 3c 48 57 8d 3d 09 91 7c 3d b9 f0 19 be
       0.029690474 0.06901413 0.061661754 -0.15033235
0000b0 4a f5 e2 3d c9 82 07 be a1 07 17 be 1a 8b 0f be
       0.110819414 -0.13233484 -0.14749004 -0.14017907
0000c0 a9 15 2e 3e 08 5f 3a 3d 05 10 43 3e 52 da 47 be
       0.1700045 0.045500785 0.1904908 -0.19516876
0000d0 50 89 6e bd 44 cd 03 be 4e 17 fb bb 05 c1 7a 3d
       -0.05823642 -0.12871271 -0.0076626902 0.061219234
0000e0 f1 16 01 3e f4 d6 0e 3d b1 9c 0b 3d f7 9f 13 bd
       0.12606408 0.034872964 0.03408498 -0.036041226
0000f0 0c 38 09 be 82 30 4c be 6d 49 2e bc d5 f9 c8 bd
       -0.13400286 -0.1994038 -0.010637623 -0.09813277
000100 52 4c 11 3e f8 2c 16 be b6 5b d0 bc fb 6c 2d be
       0.1418927 -0.14665592 -0.025434356 -0.16936104
000110 df f2 e8 bd 0c 7d 09 3e 30 2e 67 bd 10 ab 39 be
       -0.11374449 0.13426608 -0.056440532 -0.18131661
000120 79 4f 9d bd 96 d6 32 3d a1 42 0a be 91 bd 2f be
       -0.07681174 0.043661676 -0.1350198 -0.17162158
000130 d7 ee 29 be 75 01 5c bc 66 ab 26 bd 3c 6a 9c 3d
       -0.16595016 -0.013428082 -0.040690802 0.0763745
000140 28 7c b1 3d 6d d7 8e bd e1 e6 f5 bd 30 12 f4 bc
       0.08666259 -0.06974683 -0.12006927 -0.029793829
000150 15 45 fa 3c b5 36 42 bd 88 f2 ed 3d 17 10 19 be
       0.030550519 -0.047415454 0.11618525 -0.14947544
000160 a4 84 cb bd 77 86 04 3e 96 64 bc 3d ee 53 e6 3d
       -0.099374086 0.1294192 0.09198873 0.11246477
000170 6a 4f de bc 34 50 43 bd 77 cf 06 bd f9 a2 e6 3c
       -0.027137477 -0.04768391 -0.032912698 0.028153883
000180 a4 99 e2 3d 97 7d 4d bd 7c 3a 87 3d a8 04 1a be
       0.11064461 -0.0501686 0.06602952 -0.15040839
000190 cf 04 87 3c 64 00 b9 bd 99 c5 52 3d f1 33 03 3d
       0.016481785 -0.09033278 0.051457975 0.032031957
0001a0 47 4a 79 3d 93 28 10 3d 87 e5 4d be c2 f4 59 bc
       0.060861852 0.035194945 -0.20107089 -0.013302984
0001b0 98 e9 86 bb 3e 92 06 be 8b 6c 28 be c3 8b 08 3d
       -0.004117202 -0.13141724 -0.16447656 0.033336412
0001c0 0c 86 b6 3d 74 a6 7d bd b5 59 93 3d dd 84 1d be
       0.08912286 -0.06192632 0.07194845 -0.15382715
0001d0 fe b9 c7 3d 58 7c 9f 3d 21 76 50 bd 05 ad 98 bd
       0.09752272 0.077873886 -0.050893907 -0.07454876
0001e0 02 15 f4 3d aa 6f d3 bc ed 32 28 3e 2e a1 b4 bd
       0.119180694 -0.025810082 0.16425677 -0.08819805
0001f0 1f 63 d0 3d 43 5a e1 3d 2b 46 83 3d 92 c5 d9 bd
       0.10175156 0.11003544 0.06409868 -0.10633387
000200 b8 13 1a bb 61 c6 a7 3c f6 f6 cf bd 33 f0 17 3b
       -0.0023510288 0.020480337 -0.10154526 0.0023183941
000210 ae d5 b4 bd 28 c5 ab 3d 1d 06 e9 bc 8c 6a fb bd
       -0.08829819 0.08387214 -0.028445298 -0.122761816
000220 a0 d3 c7 3d 28 f2 c3 bd 4a 2a 47 3e 8a 40 35 be
       0.09757161 -0.09567672 0.19449726 -0.17700401
000230 c3 31 34 be aa c2 a7 3d ac 39 2f be 55 ea b8 bd
       -0.17597108 0.08191426 -0.17111844 -0.0902907
000240 27 41 15 be e2 02 f5 bd c1 ec 49 be f2 5c 24 3d
       -0.14575635 -0.119634405 -0.1971922 0.040127702
000250 57 73 be bd 97 65 1a 3d 73 ac 0e be 1b 75 56 bd
       -0.09299343 0.03769454 -0.13932972 -0.052357774
000260 e6 21 06 be be 07 0a 3e c1 c3 bf 3d 7d 19 df 3c
       -0.13098869 0.13479516 0.09363509 0.027233833
000270 ce d4 d0 bd 6b 00 6d bd e2 aa d6 bd 8e 0e e9 3d
       -0.10196839 -0.057861727 -0.10481812 0.11379729
000280 75 d2 73 bd 7f 6f 7e 3d 18 2f f3 bd a9 02 a3 3d
       -0.05952688 0.06211805 -0.11874217 0.07959492
000290 a7 6b 03 be 18 19 3d 3a 21 30 88 3d 9a c8 63 3d
       -0.12834035 0.0007213517 0.06649805 0.05561123
0002a0 a3 a2 b9 3d c9 15 09 be 3d 4c 35 bc 10 ed a1 bd
       0.090642236 -0.13387217 -0.01106554 -0.07906544
0002b0 8b be e3 3c 56 6d af bd e2 a3 db bd c3 b9 2e 3d
       0.027800819 -0.08565776 -0.107246175 0.042657625
0002c0 ad f2 b9 3d 9a 4d dd bc c7 b4 a8 3d e6 ec 8a bd
       0.0907949 -0.027014542 0.082376055 -0.06783466
0002d0 93 b7 dd 3d 15 6e d6 3d 0d 81 27 be c0 1e 37 3d
       0.1082603 0.10470215 -0.16357823 0.04470706
0002e0 e9 ec 14 be 89 9c 94 bd 64 7a 0a be e0 a9 3f 3e
       -0.14543499 -0.07256419 -0.13523251 0.18717146
0002f0 17 3c 05 3d 91 f9 2a be d5 b7 d2 bd dc 9c 28 be
       0.03252801 -0.16696765 -0.102889694 -0.16466087
000300 15 c8 48 bd c4 f6 5d bd 31 cd b9 3d 26 99 a4 3d
       -0.049018938 -0.054190412 0.0907234 0.08037023
000310 ef ed 15 be ac c1 b4 bd d5 91 bc bc bb 81 f8 3d
       -0.14641546 -0.088260025 -0.023018757 0.12134119
000320 a1 c7 ef 3d 52 9a c7 bd b7 90 ae 3d 26 a9 c3 bd
       0.11707998 -0.09746231 0.08523696 -0.09553747
000330 be 67 e1 3d 8a 7e 2a be be 87 6f 3d e2 6e 35 bc
       0.110061154 -0.16649833 0.058479063 -0.0110738
000340 26 50 da bb c1 e1 bc bd 5f db 37 3d a4 99 1e be
       -0.0066623865 -0.09222747 0.044886943 -0.15488297
000350 e7 1c a0 bc 29 36 40 be dc 77 eb 3d 99 99 36 3d
       -0.019545032 -0.1877066 0.11497471 0.044580076
000360 60 07 24 be b1 fb 2d bd e7 07 90 3d 7b 8d a1 3d
       -0.16018438 -0.04247636 0.07032757 0.078883134
000370 96 77 62 bd d3 54 c4 bd 4e 2e 01 be f9 03 54 3c
       -0.055289827 -0.095864914 -0.1261532 0.0129404
000380 0d 4b 9b 3d 62 bb 00 3e 06 d7 10 bc cd 6d 2d 3c
       0.07582674 0.12571481 -0.008840328 0.010585261
000390 44 eb ed bd 5e b9 1f be 7f 33 29 bc 13 ac fb 3c
       -0.11617139 -0.15598056 -0.010327219 0.0307217
0003a0 04 23 43 be 60 95 b1 bc 9c 75 0b 3e 74 c2 02 3e
       -0.19056326 -0.021677673 0.13619083 0.1276949
0003b0 67 08 33 be ce b8 b0 3d b1 56 27 be cb f4 a4 3d
       -0.17483674 0.08628999 -0.16341664 0.08054503
0003c0 e4 03 f3 3d ba 3a 83 3d d3 23 c2 bd 9d 41 82 bd
       0.118659765 0.064076856 -0.09479489 -0.06360171
0003d0 87 1f d4 ba b0 e9 96 bd 36 ff 03 be b7 72 ac bd
       -0.0016183712 -0.07368791 -0.12890324 -0.084203176
0003e0 d0 87 c7 3c 7f b8 f3 3d 75 de cd bd e4 d9 dd 3d
       0.024356753 0.11900424 -0.10052196 0.10832575
0003f0 88 93 28 be 4d 67 7f 3d 33 d5 0c 3e be 87 92 bd
       -0.16462529 0.062354375 0.13753204 -0.07154797

bias f4 [100]
000000 6b 15 0d bb 16 68 f6 bc 55 13 8c bc 0b 62 11 bd
       -0.0021527659 -0.030078929 -0.017099062 -0.03549389
000010 d8 e5 a9 3b f3 26 12 3b 7b 6a 13 bd 6a 64 11 bd
       0.00518487 0.0022301048 -0.03599022 -0.035496153
000020 97 45 64 3a ca 2b 71 bc b7 5b 11 bd 62 45 62 3d
       0.00087078795 -0.014719913 -0.035487857 0.05524195
000030 ed 24 c0 3c f0 6d 0f bd 1d ef eb 3b 37 47 11 bd
       0.023455108 -0.035016954 0.0072001354 -0.035468306
000040 c0 2b 6b 3c c4 75 2b 3d 21 7b d6 3c ca 66 0a bd
       0.0143536925 0.041860357 0.02618176 -0.033789434
000050 78 c0 fe bb b4 b4 cd 3c 32 71 8d bc 16 27 22 3d
       -0.007774409 0.02511058 -0.01726589 0.039588057
000060 03 fe 9a bb f8 63 04 bd 0e f7 c2 3c 08 69 11 bd
       -0.0047299876 -0.0323219 0.023799445 -0.035500556
000070 11 f1 2e bc 95 64 11 bd eb 11 bc 3b 0a 52 80 bb
       -0.010677592 -0.035496313 0.0057394407 -0.00391603
000080 7c 71 a5 3c 86 9f e5 3c 6c 69 a7 bc 8c 4c 01 3c
       0.020195715 0.028030168 -0.020436011 0.007891785
000090 5f 5d 23 bd 02 12 81 bc f7 70 a9 3c 1e b7 0a 3d
       -0.039883967 -0.015755657 0.020683749 0.03386604
0000a0 43 60 ec bc 28 4c 56 bc 52 e7 0b bd e1 e4 3d 3d
       -0.028854495 -0.0130796805 -0.03415615 0.046360854
0000b0 54 67 18 3c 20 95 71 bc a5 4f 15 3d ee b5 07 bd
       0.009301979 -0.014745027 0.036452908 -0.033132486
0000c0 68 ed 3c 3d 3f 44 2a bc 34 12 f6 bc e2 d6 13 3c
       0.046124846 -0.010392248 -0.030037977 0.0090234
0000d0 31 80 e4 3c 60 fe 2a 3d 8c 05 41 bd 61 74 17 3d
       0.027893158 0.041746497 -0.04712443 0.036976222
0000e0 8d ea db 3c c0 97 d8 bc 01 7b d3 3c cf a3 10 bd
       0.026845241 -0.026439548 0.025815489 -0.03531247
0000f0 fa ea c0 3c d5 15 e6 3c fa c3 19 bd 4c 09 22 bd
       0.023549546 0.028086582 -0.037540413 -0.039559647
000100 32 6b eb 3c ff ee 1b bd c5 e8 13 3d 2a 13 8a 3c
       0.028737638 -0.03806972 0.03611066 0.016854841
000110 35 1c 12 3d a1 b5 0e bd e0 02 4a 3d fb 1e 06 3d
       0.03567143 -0.034841184 0.049319148 0.03274439
000120 2a 49 03 bd 1d 1e 7b bc fd a2 13 3d 02 33 05 3d
       -0.032052197 -0.015327004 0.03604411 0.032519348
000130 17 4b c4 bc 62 94 35 bc 28 0f 1b 3d 2a 4f 01 3d
       -0.023961587 -0.0110827405 0.03785625 0.031569637
000140 b7 0d de bb 58 84 11 bd d0 e6 12 bd e7 66 11 bd
       -0.0067765373 -0.035526603 -0.03586465 -0.035498526
000150 88 0c dc bc 8a 66 11 bd 58 b3 88 3c 7b 45 11 bd
       -0.026861444 -0.03549818 0.01668708 -0.035466652
000160 9d 05 9b bc c8 86 0c 3d 63 a8 a3 bc 8c 0c e8 3c
       -0.018923575 0.034308225 -0.019977754 0.028326295
000170 ce 0f 27 3c 42 63 11 bd 41 3a 33 bd 75 00 fa 3c
       0.010196639 -0.03549505 -0.043756727 0.030517796
000180 63 41 11 bd f5 80 08 bd 40 fc 27 bd c1 ab 98 bc
       -0.03546275 -0.033326108 -0.04101205 -0.018636586

weight f4 [100, 100]
000000 23 1c 3e 3c 9f cf 71 3d 58 a0 3d 3e 4a 41 f4 3d
       0.011603388 0.059035894 0.18518198 0.119265154
000010 5f 4f 44 3d a1 e9 8f 3b 49 b6 24 be e5 c9 13 bd
       0.047927257 0.0043918644 -0.16085161 -0.036081214
000020 e7 f4 97 bc 39 0e 3f bd 97 98 56 bd d2 c9 1a be
       -0.018549396 -0.046644423 -0.052391615 -0.15116051
000030 81 e4 17 3e af 16 59 bd 5f 7e 08 3e 88 ef d5 bd
       0.14833261 -0.05300015 0.13329457 -0.104460776
000040 24 59 1e be fb 7b 51 bd 9c 04 e1 bd 28 df 0b be
       -0.15463692 -0.051143628 -0.10987207 -0.13659346
000050 16 9e c7 bd e9 24 e0 3c 6f 92 03 bd 6f e7 4c bd
       -0.097469494 0.02736135 -0.03212207 -0.0500254
000060 14 b4 ab bc dd 03 54 3e ed bf 00 be 34 56 cf 3d
       -0.020959891 0.20704599 -0.12573214 0.10123864
000070 e3 73 a5 bd a5 9d 1c 3d e7 f6 2a be 05 84 01 3d
       -0.08078744 0.03823628 -0.16695748 0.031620044
000080 c7 e7 59 bc a7 15 3f 3d 07 be 10 be 34 c3 7a 3d
       -0.013299889 0.04665151 -0.1413499 0.061221316
000090 16 e2 8b bc 02 70 06 3e 22 45 07 3c 3f 9c 23 be
       -0.01707558 0.13128665 0.008256229 -0.15977572
0000a0 c0 4a 12 3e ac 51 3f be ab 1e c9 bc e5 c0 55 bc
       0.14286327 -0.18683499 -0.024550756 -0.013046478
0000b0 f7 dc ec 3d c6 d7 20 3e 46 dd 0e 3d 55 b5 cc 3d
       0.11565583 0.15707311 0.03487899 0.09995524
0000c0 5b 52 c0 bd 41 88 26 be 06 1e c2 bd ad be b5 bd
       -0.09390708 -0.16262914 -0.09478383 -0.08874259
0000d0 17 08 84 bd a1 87 9a 3d 1e 34 39 3e 25 f0 13 3d
       -0.064468555 0.075454004 0.18086287 0.03611769
0000e0 94 81 b9 3a cf d3 21 3e e4 21 f4 bd 24 8c f8 bd
       0.0014152997 0.15803455 -0.119205266 -0.12136105
0000f0 f2 7b 1b 3e ef 9e 93 3d 25 db 36 be f4 8e 13 3e
       0.15184 0.072080486 -0.17857035 0.14410001
000100 de 0c 57 bd 6f 4b 62 be 00 37 06 be cb e3 b2 bd
       -0.052502505 -0.22099088 -0.13106918 -0.08734854
000110 ea a9 c2 3d 64 1c 10 be 8a c5 97 3d 8e 2d 87 3d
       0.09505065 -0.1407333 0.074107245 0.06600486
000120 83 bc 01 3d e2 0e 74 bd 01 f7 36 bd 81 af 06 bd
       0.03167392 -0.059584506 -0.044669155 -0.032882217
000130 8a 4d 05 be 44 b9 f1 bd f7 b6 1a bd 36 26 b0 bc
       -0.1301786 -0.11802915 -0.037772145 -0.021502595
000140 2c 81 15 be 30 00 bf bb ea 7e e6 bc f1 fa a4 bb
       -0.14600056 -0.00582888 -0.02813669 -0.0050347974
000150 92 b3 07 3d 1f 37 14 3c 60 23 09 be db ab 25 be
       0.033130236 0.009046345 -0.133924 -0.16178839
000160 d0 cc 27 be f2 db d4 bd 73 50 0d 3e ba 4a fe 3c
       -0.16386724 -0.10393514 0.1380022 0.031041492
000170 1e fe 1f be a2 b3 80 bc 08 f6 ca 39 21 79 ad bd
       -0.15624282 -0.015710656 0.0003871175 -0.08470369
000180 b5 68 fc 3d 8a 38 11 3d f1 de f4 3d f8 9b 96 3c
       0.12324659 0.03545431 0.11956585 0.018384919
000190 1b 6d 03 3e 97 d8 05 be 19 21 c8 3c da 82 95 3d
       0.12834589 -0.13070904 0.024429845 0.073003486
0001a0 be 27 33 bc e1 ad 58 3e 92 1d 80 3d d7 d5 13 be
       -0.010934768 0.2116008 0.0625564 -0.14437042
0001b0 0a 64 93 bc 97 10 83 3d 61 f4 15 3d 9b a0 c1 bd
       -0.017992038 0.06399649 0.03661001 -0.09454461
0001c0 06 c3 a2 bd 61 8d f8 3d 2e 09 17 3d 97 d4 63 3d
       -0.07947354 0.12136341 0.03687399 0.055622663
0001d0 fb d8 ac bd 7d bc e0 3d 08 f6 8a bd b1 b4 7d 3d
       -0.08439823 0.10973451 -0.06785208 0.0619399
0001e0 c3 0e 21 3e 57 77 e6 bd c0 4e 00 be 04 be 46 3e
       0.15728287 -0.11253231 -0.1253004 0.19408423
0001f0 95 b4 21 bd 70 cb 99 3c f0 82 d1 3c 4c 8f 1f bc
       -0.039478857 0.018773764 0.025575131 -0.0097387545
000200 7b 77 09 3e e5 af 1d bd 8c 60 e1 3d 10 b0 bd bd
       0.13424484 -0.038497824 0.11004743 -0.09262097
000210 39 8d 4d 3d 32 be 76 3d 5a 01 00 3e 77 dc 88 bd
       0.05018351 0.060239978 0.12500516 -0.06682675
000220 bd 54 58 3d 17 d1 63 3e 44 9d 10 be c8 55 ad bc
       0.052815188 0.2224773 -0.14122492 -0.021159068
000230 4c e6 08 3d ad 38 87 3b 2b c3 c6 3d bd 7a 1f 3d
       0.033422753 0.0041266293 0.09705194 0.03893541
000240 2c f8 84 bd 49 67 4c 3e e9 1c ba 3d 12 46 27 3e
       -0.064926475 0.19961275 0.090875454 0.16335323
000250 9d 5f 1d be 2c ec 91 bc ff 8b 06 3e 2b 91 8d bd
       -0.15368505 -0.01781281 0.13139342 -0.06912454
000260 e4 20 2f 3e c9 b1 10 3d d4 fc ac bd 70 3f 7e 3d
       0.1710239 0.0353258 -0.08446661 0.062072217
000270 e7 bb 31 be 32 26 08 bd 3d c4 09 3d 11 2b 30 be
       -0.17356835 -0.03323955 0.033634413 -0.17203929
000280 8e 99 d7 bd 50 01 46 be 74 d6 f0 bc a3 80 c6 3d
       -0.10527335 -0.19336438 -0.029399134 0.09692504
000290 cb 5e 17 3e 3a be 0b 3e b4 1e 0b be d6 1f 18 be
       0.14782254 0.13646784 -0.13585931 -0.14855894
0002a0 b3 07 0c 3d 4c 8c 53 bd 98 de d4 3d 76 76 0a be
       0.03418703 -0.05164747 0.10394019 -0.13521752
0002b0 48 94 45 3e 7b 20 3a be c5 04 12 be dd 7d e5 bd
       0.19294846 -0.18176453 -0.14259632 -0.11205647
0002c0 6e bb 8a bd b4 ef 26 be 55 07 da bd e0 47 38 be
       -0.067740306 -0.16302377 -0.1064593 -0.17996168
0002d0 23 87 1d be 36 0e f4 bb fb 93 c9 3d b7 96 57 3d
       -0.15383582 -0.007447983 0.09842678 0.052633967
0002e0 25 34 d8 3c 4d b0 61 3e c4 68 c9 3b ba 6a e3 bd
       0.026392052 0.2203991 0.0061465222 -0.11104341
0002f0 3a c4 e2 bd aa 04 e2 3c 80 dc c6 3d be e4 f2 bd
       -0.110725835 0.027590115 0.09710026 -0.11860035
000300 8b 71 fb 3d 17 17 a9 bd 32 ed d0 3d 88 3b cf 3d
       0.12277516 -0.08256357 0.102014914 0.101187766
000310 3d fd fe bd 73 0c 72 bc 4f 46 a7 bd 26 c0 3c be
       -0.12450645 -0.014773476 -0.08167707 -0.18432674
000320 07 07 42 3e 35 e1 21 be 6f df f7 bd ac 4a 56 bd
       0.18947993 -0.15808566 -0.121031635 -0.052317306
000330 30 a8 0c be 44 64 ad 3d 9c ca de bc 1b 24 f8 bd
       -0.13736033 0.0846639 -0.027196221 -0.121162616
000340 a8 03 06 be 30 88 f3 b9 6e b9 26 be 26 5e b7 3d
       -0.13087332 -0.0004645004 -0.16281673 0.08953504
000350 4f c3 ee bd bc 3e 8d bd b8 a0 34 bc 03 20 c0 3d
       -0.11658346 -0.06896731 -0.011024646 0.09381106
000360 28 43 bf 39 70 71 4c bd 65 54 7f bd 68 64 80 bc
       0.00036480394 -0.04991287 -0.062336344 -0.015672877
000370 4f 38 3b be 0a c5 1a 3e e6 ff d5 bb 7b a6 75 bd
       -0.18283199 0.15114227 -0.0065307496 -0.05997322
000380 16 bd 14 be f9 23 0a be 61 e7 83 3d a6 c5 d8 3c
       -0.14525256 -0.13490285 0.064406164 0.026461434
000390 ef f9 3a be c2 9d b2 3b ad a3 e0 3d 18 7e 81 ba
       -0.18259405 0.005450935 0.10968719 -0.0009879498
0003a0 55 9d 51 3d 5f 8a 09 bd 61 b5 36 3d d9 23 c7 3d
       0.051175434 -0.033579227 0.04460657 0.09723634
0003b0 0f d7 04 3e 6a 1c c9 3d bc 16 8b bd a7 34 a0 bd
       0.12972663 0.09819873 -0.067914456 -0.07822543
0003c0 da 49 dd bc 9d 59 c4 3c 6d 43 94 3c de 47 e9 bd
       -0.027012754 0.023968512 0.018098557 -0.11390661
0003d0 13 7d 68 3b f9 73 04 be 86 8a 0f 3c 7d 2e 24 3d
       0.003547494 -0.12934865 0.008761054 0.040083397
0003e0 45 35 87 bc 50 b2 f9 3b 16 92 b0 bd 0d bf 3e bd
       -0.016504893 0.0076201335 -0.08621614 -0.04656892
0003f0 4a 2c fd 3c 7e 52 1b 3e 17 23 12 3e e9 b1 ca 3b
       0.030904908 0.15168187 0.14271198 0.0061857593

bias f4 [100]
000000 3a 03 06 bd 75 66 11 bd 24 85 29 3c 53 82 bb bc
       -0.03271792 -0.0354981 0.010346685 -0.022889292
000010 44 00 96 3c 7c ad 72 bc 95 ef 5d 3c 54 37 0e 3c
       0.018310674 -0.01481187 0.01354589 0.008680183
000020 2e fe 63 3c ec 6d 35 3d ef 04 77 bc 87 3e 08 bd
       0.013915582 0.044294283 -0.01507686 -0.033262756
000030 e6 d2 16 bd 42 61 11 bd 11 03 0e bd 24 42 e4 3a
       -0.036822222 -0.035493143 -0.034670893 0.0017414731
000040 8a 73 16 bd 28 35 15 bc a7 22 9d bb c3 25 9e 3c
       -0.03673128 -0.009106912 -0.0047953906 0.019305116
000050 b4 b8 8b 3c 73 0c 94 3c ff 67 1b 3c 28 e6 0d bd
       0.017055847 0.018072343 0.009485244 -0.034643322
000060 fe d3 00 3c 0b 6d 0b bd 1c e3 18 bd a7 61 a3 bc
       0.007863043 -0.03403954 -0.037325963 -0.019944025
000070 e6 2a 11 bd d4 b5 26 3c dc 86 e8 3c 32 65 11 bd
       -0.0354413 0.010175187 0.028384618 -0.035496898
000080 e5 01 0e bd 0c 67 11 bd d7 a4 19 bd 51 5a 58 3b
       -0.034669776 -0.035498664 -0.03751072 0.0033012817
000090 2c 52 0d bb 03 63 11 bd 57 39 a7 bc 50 1f f7 bc
       -0.002156387 -0.035494816 -0.020413084 -0.030166298
0000a0 55 99 34 bd 8a 77 a6 bc 80 11 a6 3c a4 d8 be 3c
       -0.04409154 -0.020320673 0.020272017 0.023296662
0000b0 d5 50 c0 3c 97 65 11 bd cb a2 50 3c 3c de db bc
       0.023476044 -0.035497274 0.012734125 -0.026839368
0000c0 e5 02 82 bb 24 54 44 bd c8 5b 11 bd b4 5f 11 bd
       -0.00396763 -0.047931805 -0.03548792 -0.03549166
0000d0 f9 7f 57 3c a2 92 64 3b d8 2d 0e ba e9 b6 9d bc
       0.01315307 0.003487744 -0.00054237014 -0.019252257
0000e0 b5 35 0f bd c3 ff 7f bc 29 53 20 bd 19 7d ec 3c
       -0.03496333 -0.015624943 -0.039141808 0.028868245
0000f0 b9 14 09 3b 03 5b d1 bc b8 a3 88 3c c8 5a 11 bd
       0.0020916893 -0.025556093 0.01667963 -0.035486966
000100 96 19 11 bd d3 65 11 bd 97 48 be 3c ce d5 00 bd
       -0.03542479 -0.035497498 0.023227973 -0.0314539
000110 a7 ef f5 3c 4b 7e 1a bb 4b 8b bd 3c a0 0e 05 3d
       0.030021502 -0.0023573812 0.02313771 0.03248465
000120 fe 7b 17 bd d8 01 ee 3b e0 a6 3f 3c 90 db 96 3c
       -0.036983483 0.0072634034 0.011697501 0.018415242
000130 66 0d 90 ba 8c 85 0a 3d 63 39 1a bd e5 16 10 bd
       -0.0010990321 0.033818766 -0.037652384 -0.035178084
000140 42 63 62 3b e9 f8 b0 bc 1b 5a 11 bd e5 bb 07 bd
       0.0034544026 -0.021603065 -0.035486322 -0.033138175
000150 74 0d da 3a a3 31 2a 3b e9 14 11 3d 21 57 c6 ba
       0.001663609 0.0025969527 0.035420332 -0.0015132168
000160 aa e7 0c bd ba 8e 26 bd 74 75 11 bd 47 f3 0c bd
       -0.03440062 -0.04066346 -0.035512403 -0.034411695
000170 83 64 11 bd 60 ec 08 bc 8a 8c ed ba f0 45 d0 3b
       -0.035496246 -0.008357137 -0.0018123549 0.0063559934
000180 88 9d 06 3c 89 63 11 bd 80 3b 83 37 63 a9 ab bb
       0.008216269 -0.035495315 1.5644124e-05 -0.0052386983

weight f4 [100, 100]
000000 4b a8 fb 3d 02 fc 07 3e 3f 40 f3 3c f7 06 16 be
       0.12287959 0.13279727 0.02969372 -0.14651094
000010 ac 29 fb 3c 58 97 e6 bd 32 97 8e 3d 29 ca 93 3c
       0.03065952 -0.11259335 0.06962432 0.018040733
000020 9a 57 8a bd fc d4 12 3d ee 95 04 3e c3 99 38 bd
       -0.0675499 0.03584765 0.12947819 -0.045068514
000030 55 c1 8b 3c ac c0 a6 3d 98 ea ac bd 35 23 09 be
       0.017059961 0.08142218 -0.08443183 -0.13392337
000040 92 e4 9f 3d 6f 49 94 bd 06 41 b7 3d 79 9f 02 3e
       0.07807268 -0.07240569 0.08947949 0.12756146
000050 b3 fc c6 bd d1 ad 9b 3d f1 30 2b 3e 18 33 20 be
       -0.09716167 0.07601512 0.16717888 -0.1564449
000060 fd 74 b3 bd fc b9 09 be ab 9c 1e 3e e1 e9 12 be
       -0.08762548 -0.13449854 0.15489452 -0.1434703
000070 3f b4 8f bd 50 2f 9e bd 85 82 d4 3d 9b 7d ab 3d
       -0.07016801 -0.07723868 0.10376457 0.08373567
000080 bd 49 17 be 48 de 15 3d 43 4f 73 bc af 8b 76 bd
       -0.14774223 0.036588937 -0.01485044 -0.060191806
000090 86 70 91 3d 99 8a 20 bc 22 2a 06 3e f0 33 83 3d
       0.0710154 -0.009798669 0.1310201 0.06406391
0000a0 38 4f d7 3d 4f 2e 0a be ef ca 4e 3d 72 9c 8a bd
       0.10513157 -0.13494228 0.0504865 -0.06768121
0000b0 29 07 a7 3c db 0b 15 be 68 4b 98 3d ab 1f e1 bc
       0.020389156 -0.14555304 0.074362576 -0.02748092
0000c0 61 33 91 bd f6 c3 d9 bd 54 77 31 3e 0f 01 19 be
       -0.07089878 -0.1063308 0.17330676 -0.1494181
0000d0 29 f5 44 3d 20 06 cb 3d 3e be 85 bd 4b a4 8f 3d
       0.048085365 0.099132776 -0.065304264 0.07013758
0000e0 db cd 22 be ff a6 2c bd ad 8a 21 3e 2d 20 4b 3c
       -0.1589884 -0.042151447 0.15775557 0.012397808
0000f0 13 02 a9 3d 58 59 22 3e d1 44 18 3d 3f a6 a4 3c
       0.08252349 0.15854394 0.037175003 0.020098804
000100 46 84 25 3c 15 01 84 bc 54 d3 e7 bd ce 0a 36 be
       0.010102337 -0.016113797 -0.113196045 -0.17777559
000110 ea 7c e0 3d d6 a1 f8 3d 90 ec 1b 3e 3d a0 fa bd
       0.109613255 0.12140243 0.1522696 -0.12237594
000120 8a c5 d2 bd 3a d8 c5 3c 0b 8d 1d be 8e 86 1f be
       -0.10291584 0.024150956 -0.15385835 -0.15578672
000130 20 1b d0 3d 3f 26 ce bd 48 27 ef bd 7d 59 1e be
       0.10161424 -0.100658886 -0.11677414 -0.15463825
000140 c2 91 a3 3d 28 58 81 3d e4 9c 0f 3b f7 47 2c 3d
       0.079867855 0.063156426 0.0021913582 0.04206082
000150 c3 16 a0 3d 8d 1a 91 3d 48 8f 8e ba 7a 41 9c 3d
       0.078168415 0.07085142 -0.0010876441 0.07629676
000160 7b 37 08 3e 42 0b eb bd 35 b0 43 be d2 11 12 bd
       0.13302414 -0.11476757 -0.19110186 -0.035661526
000170 7d 76 09 be 21 65 dd bd 48 02 50 be 90 e8 e0 bd
       -0.13424106 -0.108103044 -0.2031337 -0.10981858
000180 fe 24 0d be 56 33 d6 bd 0e 87 33 3e 9c 6a f8 bd
       -0.13783643 -0.1045901 0.17531988 -0.12129709
000190 73 93 c7 bd e1 e8 91 3d a1 08 fc 3d b5 24 cf bd
       -0.097449206 0.07124496 0.12306333 -0.10114423
0001a0 7d fd 38 be e6 cd 0b be 4e 69 17 bc c8 89 61 bd
       -0.18065448 -0.13652763 -0.009241415 -0.05506304
0001b0 34 83 89 3c 28 b0 af 3d 8f 4f d7 bd 59 27 1b 3e
       0.016786195 0.08578521 -0.105132215 0.15151729
0001c0 b1 be bd 3d c1 f1 c7 3d 2e 0f 90 bd 10 0c 0b 3e
       0.09264887 0.09762908 -0.07034145 0.1357882
0001d0 6b 1e 37 bd 36 12 fb 3d cd b2 a8 3c 5b 59 65 3c
       -0.044706743 0.12259333 0.020593071 0.013998355
0001e0 95 79 42 bd 22 27 0d be c1 01 46 be 05 a1 70 bc
       -0.04747923 -0.13784459 -0.19336607 -0.014686828
0001f0 bc 62 b3 3d 06 60 ec bc 7d f5 f4 bd 26 89 74 3d
       0.087590665 -0.028854381 -0.11960886 0.059701107
000200 28 63 95 bd 6d 4f 8b 3d 62 dc b1 bd a0 09 0b be
       -0.07294303 0.06802259 -0.08684613 -0.1357789
000210 e5 79 23 be df c3 51 be d8 7a 44 bc 93 0b f6 bc
       -0.15964468 -0.20484875 -0.011992179 -0.030034816
000220 bc fc c0 bd d4 f9 2e 3d fc 8b 2d be a4 3c f2 3d
       -0.09423205 0.042718723 -0.16947931 0.118279725
000230 35 b6 17 3d d9 66 ce 3d 85 f0 39 3c ea b3 96 3d
       0.037039 0.100782104 0.011348848 0.07358535
000240 f5 a2 3e be 04 3a 70 bd f4 64 8e bd 85 3b d4 bb
       -0.1861685 -0.058649078 -0.06952849 -0.006476822
000250 63 89 9e 3c d3 68 f6 3d fd 95 36 3d 69 ef e6 bd
       0.01935262 0.120317124 0.044576634 -0.112761326
000260 c7 7b c6 3d 5a 92 8c bd 4a 23 e6 3b 17 0b 19 be
       0.096915774 -0.06863852 0.0070232498 -0.14945637
000270 c0 a5 0b be 54 6b a2 3d 05 b0 a5 bd db 0c 2a be
       -0.13637447 0.079306275 -0.08090214 -0.16606466
000280 f3 73 e2 bc db 34 d8 3d 7f bf 4c 3e 47 e6 07 bd
       -0.02764318 0.105569564 0.19994925 -0.033178594
000290 e8 c8 aa bd 50 49 1b 3d d5 59 00 3e 02 b4 fc 3c
       -0.08339101 0.037911713 0.12534268 0.030847553
0002a0 98 57 81 3d f2 55 d6 3c c4 f6 a3 bc 2d 5d 14 3e
       0.06315535 0.026164029 -0.020015128 0.14488669
0002b0 dd e6 04 3e ad 4d 91 3d f1 e5 b6 bd e7 f0 c4 3c
       0.12978692 0.070948936 -0.089305766 0.024040652
0002c0 f8 9f 8d 3d 13 6a 06 be a2 73 b5 bd 66 c2 84 bd
       0.06915277 -0.13126402 -0.08859946 -0.06482391
0002d0 d3 a7 cc bd 1b 1d b1 3c 53 c4 5a 3d d8 b3 4e 3d
       -0.099929474 0.021620324 0.053409886 0.05046448
0002e0 be 20 48 be ac 2b 41 be d4 da ba 3d 03 e9 b8 bd
       -0.1954374 -0.18864316 0.091237694 -0.090288185
0002f0 13 96 44 bd 2f 2b b5 bd cb 13 04 be 4e 29 bc bd
       -0.047994684 -0.08846127 -0.12898175 -0.09187566
000300 e7 2a 01 be 37 a6 7f 3d 69 11 3f be 4b fe b5 bd
       -0.12614022 0.062414374 -0.18658985 -0.08886393
000310 10 46 0c 3e 65 fe cc bd 1d cd 37 be 45 2b ec bd
       0.13698602 -0.100094594 -0.17949338 -0.115316905
000320 26 85 8f bd 85 12 38 3e fc f1 3c be c9 c8 a3 bc
       -0.07007818 0.17975815 -0.18451685 -0.019993203
000330 de 23 a6 bd fb a0 1a be 5b 51 a7 bd f6 16 63 bd
       -0.0811231 -0.15100472 -0.08169814 -0.05544182
000340 4d c2 c2 bd 97 63 6b 3c 03 c1 0b 3e ab c1 1c be
       -0.09509716 0.014367006 0.13647847 -0.15308253
000350 c3 83 28 be b1 8a 50 bd 61 ed 1d be 75 90 be bd
       -0.16456513 -0.050913516 -0.15422584 -0.09304897
000360 a7 8a 9c 3d fc e2 d0 bd d7 9f 11 3e 06 6e 1c 3e
       0.07643633 -0.10199544 0.1422113 0.15276346
000370 0c 80 d5 bd 07 ae ec bc 58 b1 fd bd ef 23 08 be
       -0.10424814 -0.028891576 -0.12387341 -0.13294958
000380 e8 f4 52 bc 86 dd 59 3e ab 7e 1d 3e df 65 02 3e
       -0.012875773 0.2127591 0.15380351 0.12734173
000390 4c 32 52 bd 7a 88 17 bc d2 32 2b 3e 24 58 ca bc
       -0.051317498 -0.009248847 0.16718605 -0.024700232
0003a0 6e 81 ee bd 79 27 ad bd d0 e6 c3 3d cc 48 d6 3d
       -0.116457805 -0.084547944 0.09565508 0.10463104
0003b0 b9 a5 9a 3d fd f7 c0 bd 8b 4e 03 3e 7b ef d7 bd
       0.0755114 -0.094223 0.1282293 -0.10543724
0003c0 0d 9a aa 3d d2 0e 0c 3e 9d f3 89 bc 08 45 43 bd
       0.08330164 0.13677529 -0.016839797 -0.047673255
0003d0 b4 67 1d bc 5f 02 73 3d 87 51 ec bd 58 2c b0 bd
       -0.009607244 0.059328433 -0.115389876 -0.08602208
0003e0 d8 35 5a 3d f4 72 34 be 5f 34 ec 3d 75 db 61 3c
       0.053274006 -0.17621976 0.115334265 0.013785233
0003f0 6f a9 e5 3d 74 7e 16 be 9f 62 85 bc 92 2d 59 bd
       0.112139575 -0.14696676 -0.016282378 -0.053021975

bias f4 [25]
000000 00 00 00 00 00 00 00 00 00 00 00 00 00 00 00 00
       0.0 0.0 0.0 0.0
000010 00 00 00 00 00 00 00 00 00 00 00 00 00 00 00 00
       0.0 0.0 0.0 0.0
000020 00 00 00 00 00 00 00 00 00 00 00 00 00 00 00 00
       0.0 0.0 0.0 0.0
000030 00 00 00 00 00 00 00 00 00 00 00 00 00 00 00 00
       0.0 0.0 0.0 0.0
000040 00 00 00 00 00 00 00 00 00 00 00 00 00 00 00 00
       0.0 0.0 0.0 0.0
000050 00 00 00 00 00 00 00 00 00 00 00 00 00 00 00 00
       0.0 0.0 0.0 0.0
000060 00 00 00 00
       0.0
