deep_learning/models/GCNLinkPrediction76.pth (torch, 564000 bytes, 10 tensors)

bias f4 [200]
0.07622515 -0.10736032 -0.04349008 0.021844607 0.028215798 0.057262223 0.060000338 -0.0015933355
-0.043670535 -0.033033233 0.07828818 -0.0030228638 0.002388272 0.028533066 0.015873186 0.070424125
-0.014167413 0.062424313 0.012897484 -0.087996796 0.088927485 -0.040732667 0.041476306 0.018723212
-0.0790678 0.064709194 -0.084490344 0.10240667 -0.03420882 -0.03440713 -0.03294854 -0.04701305
0.078624085 -0.05851226 0.0035862643 -0.02647083 0.03370385 -0.013719621 -0.026502104 -0.027321428
0.08788143 -0.0077409744 0.10397033 -0.029232787 -0.044771906 0.07143505 0.039318763 0.030591229
-0.017362138 0.0017036647 -0.08821978 0.075247854 -0.02366713 -0.06740023 0.047171053 0.10148395
0.023566894 0.013764693 0.0015087575 0.019749954 -0.035584956 -0.0008314382 -0.061631378 -0.08483232
-0.01920664 0.1315111 0.0051339706 0.062492162 0.080719 -0.040954694 -0.034483723 -0.03709002
-0.005875295 0.0071519203 -0.01166963 0.020604562 0.008533564 -0.01651018 -0.08412332 0.049100056
-0.077509195 0.01773591 -0.1109602 0.03629376 -0.04695761 -0.11146591 -0.0057743974 0.0044174185
0.12961347 0.02156536 0.08204499 -0.07721205 0.042795952 -0.022969685 -0.14773957 -0.10780728
0.10256826 0.098112084 0.038234584 0.065604195 -0.11426343 0.057441495 -0.015041709 -0.028249934
-0.059341796 0.013218415 0.018327333 -0.12970379 -0.012556359 0.0678093 0.03553782 -0.02102384
0.037612867 -0.009714525 0.01962158 -0.092296496 -0.025383297 0.0436538 -0.11439054 0.007859867
0.025370061 -0.008073809 0.068612486 -0.0005789688 -0.11569649 0.07087546 -0.008019685 -0.11687039
0.06605079 0.011122195 0.016620506 -0.016801056 -0.010223814 0.12769383 0.008071084 -0.030413771
-0.07432817 -0.07351702 0.03371492 0.09688667 -0.09867155 -0.1333361 -0.124997295 -0.010580188
0.065999895 -0.038667284 -0.10020156 -0.09062374 0.08714644 0.067520685 -0.097557746 0.014540903
-0.04573044 0.07495113 -0.11018931 -0.02687427 0.019015279 0.011595454 0.034409754 0.0765004
0.07166352 -0.12981027 -0.020510359 -0.0016119797 -0.063595824 0.0041208193 -0.016227257 -0.0618354
0.104750425 -0.0194893 -0.0010986906 -0.12251101 -0.1090062 0.08687035 -0.003630804 -0.014077472
-0.059430867 -0.0031528177 0.045324996 -0.12845622 0.051526282 0.038410272 -0.024046585 0.1404502
0.13968554 0.009692912 0.034495186 0.014073143 0.0527225 -0.023907369 -0.017422665 -0.020227771
-0.07379256 0.011678927 0.0018390347 0.009048203 -0.014635833 -0.0058909487 0.035433654 0.06751099
00000000: ee1b 9c3d badf dbbd a722 32bd 76f3 b23c
00000010: d124 e73c cb8b 6a3d eac2 753d 78d7 d0ba
00000020: e0df 32bd db4d 07bd 8e55 a03d 3d1b 46bb
00000030: 8e84 1c3b 2dbe e93c 7c08 823c 863a 903d
00000040: 701e 68bc a3b0 7f3d f84f 533c aa37 b4bd
00000050: 9d1f b63d 4cd7 26bd 0fe3 293d 6c61 993c
00000060: 4cee a1bd 4186 843d 4609 adbd 97ba d13d
00000070: 8c1e 0cbd 7eee 0cbd 0cf5 06bd c290 40bd
00000080: aa05 a13d 8daa 6fbd 8807 6b3b 5bd9 d8bc
00000090: 0c0d 0a3d 43c8 60bc f11a d9bc 30d1 dfbc
000000a0: 2efb b33d 00a8 fdbb 65ee d43d 9979 efbc
000000b0: bf62 37bd 8a4c 923d b60c 213d 759a fa3c
000000c0: 0b3b 8ebc 804d df3a 92ac b4bd 8c1b 9a3d
000000d0: 92e1 c1bc 2209 8abd 6f36 413d d1d6 cf3d
000000e0: 5c0f c13c 4f85 613c 80c1 c53a a8ca a13c
000000f0: 88c1 11bd e0f4 59ba 2f71 7cbd 91bc adbd
00000100: 3e57 9dbc d9aa 063e de3a a83b c8f7 7f3d
00000110: 0150 a53d 1cc0 27bd ce3e 0dbd b4eb 17bd
00000120: 8c85 c0bb a85a ea3b fa31 3fbc e6ca a83c
00000130: 5dd0 0b3c 5b40 87bc d948 acbd 241d 493d
00000140: 24bd 9ebd e64a 913c 1a3f e3bd c4a8 143d
00000150: 9f56 40bd 3d48 e4bd 2837 bdbb febf 903b
00000160: 65b9 043e d6a9 b03c 3407 a83d 5a21 9ebd
00000170: cf4a 2f3d ec2a bcbc 0b49 17be 10ca dcbd
00000180: 4f0f d23d fdee c83d de9b 1c3d 7e5b 863d
00000190: f202 eabd c647 6b3d 8071 76bc 686c e7bc
000001a0: 6210 73bd 0d92 583c 3423 963c 12d1 04be
000001b0: 30b9 4dbc 9adf 8a3d 1b90 113d 303a acbc
000001c0: f30f 1a3d ac29 1fbc 70bd a03c f205 bdbd
000001d0: a2f0 cfbc 54ce 323d 9645 eabd acc6 003c
000001e0: e0d4 cf3c 0248 04bc b484 8c3d f0c5 17ba
000001f0: 48f2 ecbd 2727 913d ff64 03bc be59 efbd
00000200: a345 873d de39 363c ba27 883c 5ea2 89bc
00000210: c981 27bc 2cc2 023e 943c 043c 4d26 f9bc
00000220: 5e39 98bd 1790 96bd a818 0a3d 856c c63d
00000230: 4f14 cabd 4289 08be 95fe ffbd 8658 2dbc
00000240: f42a 873d 9661 1ebd 7a36 cdbd f098 b9bd
00000250: d579 b23d 4948 8a3d 5bcc c7bd f83c 6e3c
00000260: d84f 3bbd fa7f 993d efaa e1bd 6e27 dcbc
00000270: eec5 9b3c dcfa 3d3c 3ef1 0c3d 3eac 9c3d
00000280: 53c4 923d fcec 04be 5705 a8bc 1049 d3ba
00000290: 873e 82bd f007 873b 06ef 84bc 1e47 7dbd
000002a0: 6487 d63d 06a8 9fbc f001 90ba 0de7 fabd
000002b0: a53e dfbd 15e9 b13d c8f2 6dbb 32a5 66bc
000002c0: c86d 73bd 819f 4ebb b4a6 393d 078a 03be
000002d0: 390d 533d 1754 1d3d 58fd c4bc 2dd2 0f3e
000002e0: ba09 0f3e 05cf 1e3c d34a 0d3d 0a93 663c
000002f0: 8cf3 573d 63d9 c3bc fab9 8ebc b6b4 a5bc
00000300: 8e20 97bd f858 3f3c c40b f13a ea3e 143c
00000310: 22cb 6fbc dc08 c1bb e122 113d 3443 8a3d

weight f4 [200, 18]
-0.002164268 0.020255242 -0.0039003221 0.029292336 -0.07020691 0.03718036 0.0070664417 0.20981768
0.052608874 0.040213328 0.07634025 -0.015388422 0.00040125474 0.0059256516 -0.075285666 0.0034225257
0.0073971944 -0.049632475 0.079745665 0.008642081 0.07850836 -0.075841434 0.01422984 -0.021038987
0.053090565 0.046623178 0.037064303 -0.05366453 0.010761971 0.07966985 -0.028194066 -0.062354036
0.023242224 -0.021154625 -0.077781536 0.07934458 -0.023112416 -0.0016004555 0.051759098 0.005900696
-0.05848523 -0.0021822564 -0.07656018 0.08595529 -0.0029591173 0.06867642 -0.07777132 -0.008829751
-0.022731293 -0.05367951 0.073460944 0.032604326 -0.02060404 0.0012682285 -0.007198965 -0.0036181333
0.0742638 0.005584337 0.027845025 -0.065860674 -0.0209626 0.091239996 -0.015486807 -0.027839962
-0.0057471097 -0.07762828 0.020933982 0.05094559 0.0010970272 -0.041615795 0.0792239 -0.010868993
0.019285496 -0.0039118184 -0.022589263 -0.06472137 0.057804536 -0.04535638 0.07970938 0.03366149
-0.07688396 0.035811134 0.010221241 0.024120275 -0.046247013 -0.053752825 0.03769362 0.044906743
-0.07210237 0.005964975 0.050007544 -0.00040582195 0.0047627203 -0.065683946 -0.078775264 -0.06395008
-0.04205451 0.03539674 -0.026390355 0.033117592 0.004253202 0.042037725 -0.009482304 0.04649634
-0.053909153 -0.07086545 -0.07354786 -0.012282693 -0.00999602 0.034704868 -0.039834484 0.022525745
0.04966466 -0.049968287 0.073968515 0.111900195 -0.0352783 0.04533985 -0.023672678 -0.06782556
-0.05535713 0.0022373628 0.012857076 -0.04030557 0.024477918 0.013120033 -0.024822237 0.03610476
-0.022593582 0.050022 -0.024185343 -0.039840426 0.01518923 0.121533714 0.02130308 0.041153036
0.0017631017 0.042408697 -0.04922279 -0.0046312194 -0.024624323 0.024313172 0.0030170567 0.025332376
0.062965706 -0.02131835 -0.0004953332 -0.06703168 0.020086868 0.004056979 -0.07877174 -0.06985836
0.051957324 0.06388281 -0.07446241 -0.077842936 0.006304467 -0.006835322 0.07839509 0.07636239
-0.001307643 0.07897437 0.07967162 -0.04627098 -0.003333388 0.025091317 -0.055033557 0.051360674
-0.0042118626 -0.025591513 0.0806357 -0.003349227 -0.00906889 0.02231266 -0.0002054125 -0.07410272
-0.0045780856 0.077762395 0.015078543 0.00017482787 0.027119927 -0.043860756 -0.009970969 0.079878114
0.057329167 0.011146339 -0.070374995 0.14769684 -0.045657113 0.036492176 -0.0146544855 -0.0007093465
-0.007141238 0.01818822 0.017047463 -0.033209175 0.054315932 0.00526342 -0.073107794 -0.0013115061
-0.05945913 -0.019191518 0.0014003767 -0.05914157 0.06425907 0.025803806 -0.07628349 0.0014943369
-0.024700362 -0.04017301 0.012242606 0.07187159 -0.07873368 -0.014281584 -0.076604955 0.009007683
0.021191586 0.07593022 0.071454816 0.017526437 0.0066889664 0.07183353 0.05326464 0.00918496
-0.027496174 0.06952654 0.007301702 -0.014392777 -0.0030471012 0.017147316 0.057028666 -0.014493164
-0.030132478 -0.0032927794 -0.019869309 0.056973845 -0.079657875 -0.052458905 0.049399186 0.049335845
0.060680993 0.09503016 -0.0069949906 0.021026779 -0.025201831 0.024749598 0.07991406 -0.022716455
0.0746875 0.026979996 0.03786152 0.008069865 0.057826336 -0.0059327083 0.023601295 -0.067740366
00000000: 64d6 0dbb 52ee a53c 8c9c 7fbb 7bf6 ef3c
00000010: a4c8 8fbd 6f4a 183d 9c8d e73b 72da 563e
00000020: 677c 573d bbb6 243d 4758 9c3d b81f 7cbc
00000030: 805f d239 f82b c23b 5f2f 9abd 744c 603b
00000040: 2a64 f23b 6c4b 4bbd b251 a33d 8497 0d3c
00000050: fec8 a03d c152 9bbd 4624 693c f459 acbc
00000060: 7e75 593d f2f7 3e3d bdd0 173d 57cf 5bbd
00000070: fa52 303c f229 a33d 3ef7 e6bc f266 7fbd
00000080: 7a66 be3c 774c adbc ed4b 9fbd 697f a23d
00000090: 4056 bdbc 60c6 d1ba 5901 543d a05a c13b
000000a0: 358e 6fbd 3004 0fbb 95cb 9cbd 5409 b03d
000000b0: c0ed 41bb 39a6 8c3d 9246 9fbd a9aa 10bc
000000c0: fa36 babc 0cdf 5bbd b172 963d 1d8c 053d
000000d0: cec9 a8bc b03a a63a 4ce5 ebbb 341e 6dbb
000000e0: 9f17 983d d0fc b63b 401b e43c f6e1 86bd
000000f0: c2b9 abbc 09dc ba3d 60bc 7dbc a210 e4bc
00000100: 4052 bcbb 93fb 9ebd be7d ab3c 53ac 503d
00000110: 20ca 8f3a 5375 2abd 2440 a23d dc13 32bc
00000120: 9efc 9d3c b62e 80bb 1e0d b9bc a38c 84bd
00000130: 73c4 6c3d 9dc7 39bd ac3e a33d a1e0 093d
00000140: 5675 9dbd b2ae 123d fe76 273c e297 c53c
00000150: 826d 3dbd ec2b 5cbd a064 1a3d 22f0 373d
00000160: 68aa 93bd d675 c33b b6d4 4c3d 80c4 d4b9
00000170: 9810 9c3b 4e85 86bd ed54 a1bd 42f8 82bd
00000180: 5a41 2cbd 2cfc 103d 9630 d8bc 50a6 073d
00000190: 725e 8b3b c02f 2c3d aa5b 1bbc f272 3e3d
000001a0: d8cf 5cbd e821 91bd 43a0 96bd 593d 49bc
000001b0: 59c6 23bc b126 0e3d 7c29 23bd e987 b83c
000001c0: 2c6d 4b3d 8cab 4cbd ce7c 973d ee2b e53d
000001d0: fb7f 10bd 47b6 393d 34ed c1bc 21e8 8abd
000001e0: 28be 62bd b8a0 123b 7ca6 523c 7417 25bd
000001f0: ea85 c83c 68f5 563c 0158 cbbc 96e2 133d
00000200: 2d16 b9bc dee3 4c3d 5720 c6bc b72f 23bd
00000210: 40dc 783c abe6 f83d cc83 ae3c 1690 283d
00000220: e017 e73a beb4 2d3d d69d 49bd 7cc1 97bb
00000230: f3b8 c9bc 6b2c c73c d0b9 453b d885 cf3c
00000240: 2af4 803d d2a3 aebc 40d9 01ba e847 89bd
00000250: 378d a43c 68f0 843b 1453 a1bd e611 8fbd
00000260: 34d1 543d fed4 823d bf7f 98bd 1e6c 9fbd
00000270: b495 ce3b d6fa dfbb 9b8d a03d e263 9c3d
00000280: 3865 abba 51bd a13d e02a a33d a486 3dbd
00000290: f874 5abb 4e8c cd3c de6a 61bd 925f 523d
000002a0: aa03 8abb 4ba5 d1bc 5424 a53d b47e 5bbb
000002b0: ae95 14bc 0ac9 b63c 0064 57b9 2bc3 97bd
000002c0: c403 96bb e441 9f3d fe0b 773c 0052 3739
000002d0: 9c2a de3c 56a7 33bd 465d 23bc 2397 a33d
000002e0: fdd1 6a3d 229f 363c c420 90bd d73d 173e
000002f0: f402 3bbd d278 153d 5e19 70bc 70f3 39ba
00000300: 0c01 eabb 76ff 943c 1fa7 8b3c 5806 08bd
00000310: 627a 5e3d c478 ac3b 8ab9 95bd d8e6 abba
00000320: 6b8b 73bd 8837 9dbc d88c b73a 6e3e 72bd
00000330: 429a 833d 8162 d33c 853a 9cbd a0dd c33a
00000340: 6a58 cabc 748c 24bd 3695 483c 6a31 933d
00000350: 203f a1bd 4efd 69bc 0fe3 9cbd f694 133c
00000360: fa99 ad3c 4e81 9b3d e756 923d 9a93 8f3c
00000370: 1e2f db3b 751d 933d 062c 5a3d 847c 163c
00000380: a83f e1bc ee63 8e3d 1e43 ef3b afcf 6bbc
00000390: e0b1 47bb 8778 8c3c e496 693d bc74 6dbc
000003a0: 63d8 f6bc accb 57bb f6c4 a2bc 685d 693d
000003b0: ab23 a3bd 26df 56bd cd56 4a3d 6214 4a3d
000003c0: a28c 783d 2c9f c23d 3c36 e5bb 5a40 ac3c
000003d0: 1274 cebc abbf ca3c fca9 a33d dc17 babc
000003e0: c3f5 983d 2705 dd3c ae14 1b3d 7837 043c
000003f0: 4fdb 6c3d 2a67 c2bb 8157 c13c 76bb 8abd

bias f4 [200]
-0.0015918277 -0.12828049 0.07885779 0.010988902 -0.048799224 -0.13158968 -0.14029899 0.08558981
0.057161443 0.021347402 0.13529573 0.078430824 0.08632684 -0.016741684 -0.09293738 0.008051991
-0.065849066 0.01493004 -0.12553827 0.014040951 -0.11143364 -0.16334654 -0.021573465 -0.013105372
0.08206777 -0.15552431 0.12890461 0.080222234 0.0019606631 0.0009940816 -0.034008346 -0.06043157
0.035708707 -0.015343984 0.030915834 0.026766658 -0.0067416616 0.11808302 -0.15105721 -0.0065139486
-0.0028940625 -0.0054542013 0.11631305 0.1370453 0.03501246 -0.045261428 -0.014383944 0.0002959557
-0.000777483 -0.020392062 -0.02279464 0.0021816734 -0.12670816 -0.12042801 -0.1296937 0.012528362
0.015073839 0.012314876 -0.010554172 0.05602485 -0.0033379663 0.006810872 0.046008207 -0.14830472
0.040661857 0.040598027 -0.109010994 0.011585709 -0.0053225253 -0.15647955 -0.0187951 0.026444696
0.010907366 0.110714264 0.041037276 0.12263708 -0.00593121 -0.019516079 0.00042562 0.12693024
-0.018689046 -0.12806468 0.10962959 -0.03137397 0.081108496 -0.1469751 -0.11158995 -0.040658526
-0.022978954 0.14468695 -0.0012456719 -0.01877304 0.124425 -0.12590848 0.096862435 -0.12829742
0.015732843 0.10137488 0.017674234 -0.016036723 -0.110130735 -0.0016840948 0.15046604 -0.11147278
-0.011014456 -0.006666541 0.055042304 -0.0036979606 -0.09246662 0.09107789 -0.10715831 0.01893142
-0.10738004 -0.019273615 -0.032445982 -0.007600289 -0.032664895 0.051673755 -0.1254419 -0.0015612505
0.015945738 -0.13921417 0.006950559 -0.06567166 0.017739031 -0.14494173 0.008545034 0.12576886
-0.15623699 -0.121959694 0.12988186 0.006369085 0.07818942 -0.009259192 0.007907582 -0.02079821
-0.07609886 -0.004454132 -0.07966811 -0.086580776 0.016809803 -0.010022196 0.00452906 0.034611426
-0.033325 -0.012105454 0.09492198 0.074674405 -0.020539973 0.12903655 0.12362869 0.08961143
-0.0029556397 0.02879092 -1.3325363e-05 -0.035677195 -0.011809597 -0.0005463972 -0.014835805 0.122002855
-0.1001053 0.009537628 -0.031597838 0.15097776 0.12280409 -0.008244302 0.1170084 -0.02562631
-0.12392327 -0.0112375915 0.08468966 -0.06538385 -0.037070654 -0.04478372 0.0049657496 0.021546297
-0.059257247 0.07363212 -0.078481026 0.012376301 0.018885659 -0.114663206 0.06196644 -0.050080217
-0.14751755 0.01127416 -0.05813893 -0.0654324 0.14987762 -0.09457951 0.03199216 -0.08371446
-0.07970477 0.0027547944 -0.096950516 -0.059283167 0.0893985 0.13432997 -0.008523898 -0.0068692006
00000000: e0a4 d0ba f65b 03be 3180 a13d cc0a 343c
00000010: b2e1 47bd 72bf 06be 8aaa 0fbe b649 af3d
00000020: 1e22 6a3d bfe0 ae3c f78a 0a3e 57a0 a03d
00000030: 20cc b03d db25 89bc f455 bebd 80ec 033c
00000040: e0db 86bd 209d 743c 1b8d 00be 040c 663c
00000050: 5237 e4bd 5144 27be d6ba b0bc eab7 56bc
00000060: 2613 a83d c441 1fbe 92ff 033e 8e4b a43d
00000070: 787e 003b d84b 823a 564c 0bbd 1887 77bd
00000080: 4b43 123d 5565 7bbc 3443 fd3c c045 db3c
00000090: 28e9 dcbb 83d5 f13d beae 1abe f672 d5bb
000000a0: 50aa 3dbb 28b9 b2bb 8935 ee3d 9a55 0c3e
000000b0: 3a69 0f3d 0c64 39bd a2aa 6bbc 802a 9b39
000000c0: 00d0 4bba 410d a7bc d3bb babc 68fa 0e3b
000000d0: c9bf 01be f6a2 f6bd 6dce 04be c243 4d3c
000000e0: 43f8 763c 55c4 493c 68eb 2cbc 507a 653d
000000f0: c8c1 5abb bc2d df3b 1a73 3c3d 31dd 17be
00000100: 0c8d 263d 1e4a 263d 2841 dfbd fcd1 3d3c
00000110: 9468 aebb 2d3c 20be 2ef8 99bc 8ca2 d83c
00000120: cfb4 323c 29be e23d b416 283d 2629 fb3d
00000130: 985a c2bb 2fe0 9fbc c025 df39 00fa 013e
00000140: c519 99bc 6323 03be 7a85 e03d fe81 00bd
00000150: 361c a63d a480 16be 4689 e4bd 8e89 26bd
00000160: 5c3e bcbc d128 143e d045 a3ba ebc9 99bc
00000170: 89d2 fe3d 27ee 00be d05f c63d 6660 03be
00000180: 2ae2 803c a29d cf3d 8ec9 903c 725f 83bc
00000190: 398c e1bd d8bc dcba c513 1a3e d74b e4bd
000001a0: fa75 34bc 0073 dabb 0a74 613d 7c59 72bb
000001b0: 245f bdbd 0b87 ba3d d175 dbbd 1116 9b3c
000001c0: 11ea dbbd b3e3 9dbc 14e6 04bd d80b f9bb
000001d0: a0cb 05bd dca7 533d d773 00be e0a2 ccba
000001e0: a3a0 823c 298e 0ebe 84c1 e33b dd7e 86bd
000001f0: 7251 913c 9b6b 14be 7800 0c3c 8dc9 003e
00000200: 97fc 1fbe 01c6 f9bd c0ff 043e c2b3 d03b
00000210: c621 a03d deb3 17bc ce8e 013c 0261 aabc
00000220: b8d9 9bbd f8f3 91bb 0929 a3bd 4351 b1bd
00000230: b6b4 893c 2334 24bc 8268 943b b6c4 0d3d
00000240: cc7f 08bd f455 46bc 7466 c23d e5ee 983d
00000250: 7243 a8bc 2822 043e 0a31 fd3d 3386 b73d
00000260: 68b3 41bb efda eb3c 0090 5fb7 4022 12bd
00000270: 0a7d 41bc 183c 0fba e011 73bc a2dc f93d
00000280: 0204 cdbd b643 1c3c bc6c 01bd ea99 1a3e
00000290: b680 fb3d 1c13 07bc 1aa2 ef3d 44ee d1bc
000002a0: 7ccb fdbd e01d 38bc c671 ad3d f8e7 85bd
000002b0: 66d7 17bd 226f 37bd bab7 a23b dc81 b03c
000002c0: bab7 72bd 70cc 963d a9ba a0bd f8c5 4a3c
000002d0: 19b6 9a3c 8bd4 eabd 86d0 7d3d ea20 4dbd
000002e0: d70e 17be 41b7 383c 1623 6ebd 6c01 86bd
000002f0: 8579 193e e7b2 c1bd 360a 033d 7d72 abbd
00000300: 413c a3bd c889 343b fe8d c6bd e8d2 72bd
00000310: 9016 b73d cc8d 093e d2a7 0bbc 0817 e1bb

weight f4 [200, 200]
0.022524195 -0.03450601 0.003524674 -0.0476131 -0.05285818 -0.026114084 0.012019327 -0.02509131
-0.0030819569 0.05471389 0.02490549 0.023979094 -0.02490734 -0.010801135 0.03995466 -0.0013366807
0.013538681 0.017695399 -0.04504516 -0.06191003 -0.0003128508 -0.016254213 0.019695193 -0.0034634192
0.012514942 0.025850013 -0.025740879 0.012522662 -0.020256685 0.020108182 0.00015724264 0.01062078
0.0034371149 -0.003910468 -0.05253749 -0.040629286 -0.01681248 0.0023291241 0.0072155613 -0.017539667
0.018836867 0.0041326024 -0.05237668 0.0109710805 0.0046130195 0.0255413 0.03742727 0.025315113
0.019552272 -0.0073005725 -0.0044874493 -0.0010115504 -0.0004216144 0.019747984 -0.01478833 -0.003461863
-0.015322541 -0.014878696 0.047487 0.0010511447 0.00032911915 0.05422143 0.048743792 0.0043499563
0.02146362 -0.039628 -0.007565314 0.04501457 -0.025101766 -0.008193603 -0.044872627 -0.05857458
-0.00069307536 -0.0074873827 -0.021485519 0.02420351 -0.001866322 0.029899387 -0.05334152 -0.025037805
0.025293382 -0.003817792 0.04718543 0.00494056 0.008152204 0.012061568 -0.010250766 -0.01820516
-0.059198745 0.025168942 0.0136792585 0.024367265 -0.006396912 -0.008925558 0.036342103 -0.0061370917
-0.055963375 -7.5886026e-05 0.02359469 -0.015740061 0.012948417 0.0024149567 0.04841072 0.023682153
0.008037992 0.01447114 0.0054249745 0.0057542026 -0.00878604 -0.02191918 -0.013130243 0.04406616
0.012025902 -0.021086939 0.015743915 -0.0029972587 -0.02783104 0.015172398 -0.014651347 -0.010388251
-0.015107144 -0.020584766 -0.024897933 -0.02805162 -0.016907236 0.0069146007 0.0023738015 0.01676858
-0.06174669 -0.025190528 -0.02189114 -0.00080292486 0.01817158 -0.034966394 -0.008622299 0.01821553
0.0077831615 0.034197964 -0.012242494 0.041269865 -0.023581384 0.0039592627 -0.0069103036 0.03752303
0.013018968 0.025349427 0.015634008 -0.014913669 -0.022141956 -0.063842006 -0.044364527 -0.0053563435
0.00394966 -0.018674068 -0.014807444 0.04487498 0.029430553 -0.017001614 -0.038955588 -0.019016027
0.028495569 -0.012776693 0.045749407 0.0059315655 0.0023365803 0.019880157 -0.0246846 -0.0127117075
0.013486741 -0.022737147 0.057640277 -0.012762265 0.023810368 0.021008963 0.013362765 0.016277282
-0.044362865 0.059252262 -0.021824699 0.00457553 0.021742556 -0.034740683 -0.053683456 0.028488642
0.008192206 0.019281285 -0.012078814 -0.03257991 -0.009916535 0.0008239178 -0.0388561 0.052753314
0.0084956465 0.04172425 -0.020681271 0.0041667726 -0.02056273 0.003311962 0.03616019 -0.011159806
0.023688816 -0.0022129808 -0.03150015 -0.021306736 0.022595704 -0.054618694 0.015121955 0.021826526
0.003183091 -0.03812405 0.0098659415 0.0021120068 0.008505857 -0.06310846 -0.01141955 -0.035891034
-0.020317439 0.0238017 0.017735302 -0.057488315 0.0045519136 0.009097141 0.009035852 0.005337715
-0.0031975769 -0.0020258632 -0.047762174 -0.012308046 -0.035426125 0.04453072 -0.052142188 -0.007977288
0.015720736 -0.021919059 -0.022462564 -0.060503207 0.00014167652 0.024203643 -0.057920814 0.011208286
0.040731084 0.01881777 0.010158133 0.0010558758 0.019490642 0.04831659 0.0027565379 -0.02375955
0.01042508 -0.048020303 0.01410242 0.024863718 0.031124614 -0.012825338 -0.049493164 0.01737551
00000000: a984 b83c 2d56 0dbd 38fe 663b f405 43bd
00000010: d281 58bd 34ed d5bc b6ec 443c 4a8c cdbc
00000020: a8fa 49bb ac1b 603d 9906 cc3c ce6f c43c
00000030: 7a0a ccbc 3ef7 30bc 7fa7 233d 9033 afba
00000040: 58d1 5d3c f1f5 903c 4681 38bd 5f95 7dbd
00000050: 2006 a4b9 8e27 85bc d057 a13c 88fa 62bb
00000060: 790b 4d3c 68c3 d33c 89de d2bc da2b 4d3c
00000070: 59f1 a5bc eab9 a43c 80e1 2439 c802 2e3c
00000080: 3841 613b 6223 80bb 8d31 57bd e56a 26bd
00000090: 53ba 89bc 38a4 183b 8470 ec3b 59af 8fbc
000000a0: c64f 9a3c c86a 873b ee88 56bd 0cc0 333c
000000b0: d028 973b fd3b d13c 564d 193d a461 cf3c
000000c0: 162c a03c a439 efbb 740b 93bb 0096 84ba
000000d0: 200c ddb9 86c6 a13c c04a 72bc 6ce0 62bb
000000e0: 650b 7bbc c6c5 73bc ba81 423d 90c6 893a
000000f0: a08d ac39 4a17 5e3d 92a7 473d 148a 8e3b
00000100: 79d4 af3c f850 22bd 74e6 f7bb 3361 383d
00000110: 38a2 cdbc 763e 06bc 5ccc 37bd e6eb 6fbd
00000120: 80af 35ba b858 f5bb 6602 b0bc 7046 c63c
00000130: 609f f4ba 8fef f43c a37c 5abd 151c cdbc
00000140: 1134 cf3c ec33 7abb 8245 413d 6ce4 a13b
00000150: d290 053c e29d 453c d4f2 27bc fd22 95bc
00000160: 627a 72bd 192f ce3c f81e 603c dc9d c73c
00000170: 309d d1bb 813c 12bc 75db 143d a819 c9bb
00000180: da39 65bd 0025 9fb8 a749 c13c 4df1 80bc
00000190: 9925 543c 4044 1e3b 524a 463d 1301 c23c
000001a0: c8b1 033c 5c18 6d3c fcc3 b13b c08d bc3b
000001b0: 53f3 0fbc da8f b3bc 3b20 57bc b87e 343d
000001c0: 4a08 453c 84be acbc 62f9 803c a86d 44bb
000001d0: ecfd e3bc a695 783c 340c 70bc 7c33 2abc
000001e0: f483 77bc 62a1 a8bc c0f6 cbbc 83cc e5bc
000001f0: 0b81 8abc e093 e23b c891 1b3b 435e 893c
00000200: 19ea 7cbd 5e5c cebc 0c55 b3bc 607b 52ba
00000210: 91dc 943c ec38 0fbd 8b44 0dbc bc38 953c
00000220: e409 ff3b 2a13 0c3d be94 48bc 970a 293d
00000230: bf2d c1bc b4bc 813b d46f e2bb c0b1 193d
00000240: 824d 553c 9aa9 cf3c e412 803c 7658 74bc
00000250: 0c63 b5bc 99bf 82bd 94b7 35bd 4484 afbb
00000260: 266c 813b 5cfa 98bc ec9a 72bc d4ce 373d
00000270: 5818 f13c f846 8bbc e58f 1fbd 80c7 9bbc
00000280: 8a6f e93c 5655 51bc bb63 3b3d 945d c23b
00000290: 5021 193b b6db a23c 5c37 cabc c444 50bc
000002a0: 7ef7 5c3c 4143 babc 3618 6c3d d218 51bc
000002b0: f60d c33c fd1a ac3c 80ef 5a3c ef57 853c
000002c0: d6b5 35bd 80b2 723d b6c9 b2bc 54ee 953b
000002d0: 721d b23c 3f4c 0ebd 2fe3 5bbd 0361 e93c
000002e0: 9a38 063c c9f3 9d3c 38e6 45bc 8372 05bd
000002f0: f678 22bc 30fc 573a 9327 1fbd dc13 583d
00000300: 5331 0b3c 0ce7 2a3d c56b a9bc 6c89 883b
00000310: 2c73 a8bc 800d 593b b51c 143d 9ed7 36bc
00000320: 0c0f c23c a807 11bb 4d06 01bd 778b aebc
00000330: a01a b93c dab7 5fbd 14c2 773c 8bcd b23c
00000340: 689b 503b f727 1cbd c2a4 213c 9869 0a3b
00000350: 265c 0b3c 023f 81bd 1019 3bbc 7a02 13bd
00000360: c270 a6bc c8fb c23c a049 913c de78 6bbd
00000370: 3828 953b 2d0c 153c 1c0b 143c 00e8 ae3b
00000380: 708e 51bb 58c4 04bb 45a2 43bd b0a7 49bc
00000390: fc1a 11bd d865 363d 0c93 55bd 2cb3 02bc
000003a0: c6c8 803c 998f b3bc 6903 b8bc 36d2 77bd
000003b0: 008f 1439 b846 c63c 603e 6dbd f5a2 373c
000003c0: a3d5 263d b927 9a3c 4c6e 263c 5065 8a3a
000003d0: d7aa 9f3c 9ee7 453d 08a7 343b 63a3 c2bc
000003e0: f4cd 2a3c f0b0 44bd d60d 673c ffae cb3c
000003f0: 0cf9 fe3c 5e21 52bc 58b9 4abd 1657 8e3c

bias f4 [200]
0.12976758 0.071676575 0.02623608 -0.03493994 0.017096754 0.050255354 -0.041884653 0.12513462
0.11395616 -0.12533939 0.088661 0.020822642 -0.05463783 0.12845519 0.099822 0.10667461
0.127325 -0.052855298 0.042907253 -0.058397852 0.014799731 0.031129135 -0.032353178 0.049437325
-0.15082525 -0.15192512 0.09067712 -0.052024905 -0.059059914 -0.053247545 0.054927114 -0.035039134
-5.19529e-05 -0.1493666 0.11434782 0.15811877 -0.032180008 -0.0028506601 0.0080245435 -0.15809123
-0.121261574 -0.15487903 0.0160017 0.07139358 -0.14514597 -0.036807634 0.020027753 0.103785336
0.10954722 0.046718962 0.025588248 -0.10867335 0.14150606 0.09195706 0.13020368 -0.024615964
0.06714682 -0.029568512 0.0827094 -0.046760038 0.032350726 0.03739922 -0.11104001 -0.15054303
-0.14874461 0.06794481 -0.006349137 -0.14498553 0.052592084 0.0104569625 0.07510618 0.11081568
0.0103299515 -0.016295442 0.03630583 -0.05087221 -0.00873776 -0.07039182 0.13002487 -0.15448567
0.14995411 0.007093925 -0.14555913 0.13019712 -0.14031334 0.011426752 0.035949282 0.026564404
0.06751469 0.02127314 -0.06760448 -0.1493559 0.13080668 0.025318228 -0.06835215 0.16062248
-0.056442633 0.07686376 -0.1267894 0.1367968 -0.14908785 -0.105904244 -0.077953234 -0.08495772
0.031215787 -0.023050724 -0.100838676 0.0779406 -0.16173252 0.034132533 -0.13962764 -0.15750274
-0.06150344 -0.021796558 0.13748398 -0.122379676 -0.06149134 -0.005959364 -0.05514443 -0.159539
0.047834467 -0.14630789 -0.11635343 -0.14568712 0.13419212 0.1075775 0.05303895 -0.11001584
0.07322611 -0.0781824 0.016376847 -0.039530233 -0.004997961 -0.14614336 -0.02760228 0.019977184
-0.023904024 -0.03382323 0.10435254 -0.032389972 -0.041672103 -0.00675009 -0.15382901 0.0017233975
-0.05609196 0.09784891 -0.052235737 -0.15099002 0.120241575 0.047675736 -0.056107096 -0.036342777
-0.031265605 -0.15151894 0.074180566 -0.045119308 -0.14934489 -0.1585646 0.08236241 0.0044730958
0.021667078 -0.00821838 0.083915465 0.01507232 -0.1325554 -0.074707955 -0.15268621 0.0736071
-0.14249356 0.08868349 -0.13171268 -0.08032021 -0.042152252 0.02712748 -0.03580489 -0.15614095
-0.12511575 -0.107877 0.14125152 0.062663645 -0.11264542 0.09181729 0.05167667 -0.14143457
-0.068838716 -0.036878504 -0.103562325 0.0017393902 0.02645003 -0.032261353 0.043278225 -0.15108
0.018550375 0.058657564 -0.026476497 -0.13394053 -0.09127518 -0.031451765 -0.025243457 0.027786747
00000000: cbe1 043e 2bcb 923d 0ced d63c 2f1d 0fbd
00000010: 7e0e 8c3c 8fd8 4d3d 3e8f 2bbd 4a23 003e
00000020: d961 e93d f858 00be e693 b53d 3f94 aa3c
00000030: ebcb 5fbd c289 033e 7a6f cc3d 3878 da3d
00000040: 7c61 023e cc7e 58bd 84bf 2f3d 9632 6fbd
00000050: 927a 723c 8702 ff3c c484 04bd cb7e 4a3d
00000060: ef71 1abe 4292 1bbe edb4 b93d 1118 55bd
00000070: cfe8 71bd 191a 5abd 41fb 603d 3285 0fbd
00000080: 00e8 59b8 8ff3 18be 312f ea3d e3e9 213e
00000090: 2fcf 03bd 24d2 3abb 6079 033c abe2 21be
000000a0: fd57 f8bd 9c98 1ebe ff15 833c cc36 923d
000000b0: 25a1 14be 9ac3 16bd 3e11 a43c 688d d43d
000000c0: 4b5a e03d 625c 3f3d 729e d13c 2290 debd
000000d0: f7e6 103e fc53 bc3d 1d54 053e 6ba7 c9bc
000000e0: 4684 893d aa39 f2bc 8c63 a93d 7487 3fbd
000000f0: 3282 043d ed2f 193d f268 e3bd f427 1abe
00000100: 8250 18be a626 8b3d 6c0c d0bb 1677 14be
00000110: cc6a 573d ae53 2b3c 45d1 993d 55f3 e23d
00000120: f53e 293c 057e 85bc 6cb5 143d 615f 50bd
00000130: d228 0fbc 9629 90bd 3d25 053e 7e31 1ebe
00000140: 928d 193e 2874 e83b 740d 15be 6552 053e
00000150: 4dae 0fbe 4637 3b3c 8e3f 133d 989d d93c
00000160: 2445 8a3d 0245 ae3c 3874 8abd c1f0 18be
00000170: 30f2 053e 2c68 cf3c 36fc 8bbd 387a 243e
00000180: 6430 67bd bf6a 9d3d 15d5 01be 7614 0c3e
00000190: 7caa 18be 53e4 d8bd f2a5 9fbd 50fe adbd
000001a0: 40b8 ff3c dfd4 bcbc 8284 cebd 529f 9f3d
000001b0: 369d 25be 8ece 0b3d 8cfa 0ebe 6648 21be
000001c0: 08eb 7bbd b28e b2bc 9ac8 0c3e 32a2 fabd
000001d0: 58de 7bbd c546 c3bb 20df 61bd 315e 23be
000001e0: 13ee 433d bcd1 15be b54a eebd 012f 15be
000001f0: a969 093e 9851 dc3d 5f3f 593d fc4f e1bd
00000200: 92f7 953d 181e a0bd bd28 863c 74ea 21bd
00000210: f0c5 a3bb 9ba6 15be 2d1e e2bc 31a7 a33c
00000220: 5fd2 c3bc 3a8a 0abd c9b6 d53d 59ab 04bd
00000230: 5eb0 2abd dc2f ddbb 5a85 1dbe a0e3 e13a
00000240: afc0 65bd 0265 c83d 24f5 55bd 219d 1abe
00000250: 3741 f63d a247 433d 8ed0 65bd 2adc 14bd
00000260: 5d10 00bd c827 1bbe fbeb 973d 06cf 38bd
00000270: deed 18be c25e 22be a0ad a83d 0c93 923b
00000280: 287f b13c 62a6 06bc dfdb ab3d e4f1 763c
00000290: 9abc 07be 7c00 99bd c659 1cbe 52bf 963d
000002a0: d5e9 11be b19f b53d b0df 06be ec7e a4bd
000002b0: d7a7 2cbd 733a de3c 26a8 12bd 6ae3 1fbe
000002c0: 581e 00be 9eee dcbd 3da4 103e cc55 803d
000002d0: a4b2 e6bd b40a bc3d eaaa 533d 39d4 10be
000002e0: 50fb 8cbd ea0d 17bd 7c18 d4bd 40fc e33a
000002f0: bcad d83c 7b24 04bd 8244 313d b7b4 1abe
00000300: f5f6 973c ea42 703d 3de5 d8bc b527 09be
00000310: 7bee babd 91d3 00bd 5ecb cebc 08a1 e33c

weight f4 [200, 200]
0.061562747 -0.0022478458 -0.03206687 0.061539635 0.027215384 -0.020666838 0.02596266 0.035530202
-0.023196593 0.009168038 0.015354052 -0.003887129 -0.0063569346 0.0050921794 -0.023369618 0.00031016953
0.024962641 7.6772645e-05 -0.044508263 0.038666666 0.03254235 0.021785146 -0.0030022617 -0.0037852926
0.051723607 -3.6573038e-05 -0.021958575 -0.0040416494 0.00041286275 -0.0218964 -0.010664476 -0.003347233
-0.015073216 -0.0076789362 -0.030657638 -0.008630095 -0.023735158 0.0026983358 0.012740051 0.0066661723
0.02007556 0.002230606 -0.0145425685 -0.008808253 0.024960287 -0.02751868 0.021915711 -0.030208234
-0.027933046 0.055567406 -0.017469281 -0.023107795 -0.015033859 -0.01626907 0.01535443 0.0030401964
0.014207143 -0.03677643 0.026007991 0.0029992666 0.0033933623 -0.056867324 -0.01965129 0.025054153
0.013864785 0.009071436 0.022742879 0.002034972 -0.017442431 -0.025640387 0.057096727 0.007424021
-0.057088725 -0.0085307835 -0.06543329 -0.017206227 -0.00955775 -0.012603072 -0.0009966064 0.0023716884
0.013182957 -0.029895699 -0.037861016 -0.008310378 0.0279796 -0.009853303 0.014353007 -0.011191007
-0.049299773 0.04458537 0.013715804 0.03869088 0.024161894 -0.026164839 0.01192431 0.017156124
0.0021441523 0.025521003 0.01009416 0.010920223 -0.021678433 0.020363443 0.016489247 -0.05648233
-0.0012188498 0.04538768 -0.024832996 -0.0015469424 0.01493879 0.0013489081 -0.025257 -0.031871647
-0.027205838 -0.054765165 0.040086273 0.024264947 -0.02562515 0.015238609 -0.04641613 0.038856834
0.020146657 -0.024766961 -0.03468827 0.018296186 -0.017242908 0.05655942 0.057696283 -0.06759946
0.026678342 -0.06839642 0.04364971 0.056739274 0.038167685 -0.025212737 -0.017922452 -0.003122013
0.007488043 -0.0019256473 -0.043486778 0.00329459 0.019555684 0.024145843 0.037947696 -0.0033714175
-0.004096804 -0.036539033 -0.02163542 0.06614004 -0.016465459 -0.039677203 0.042345263 -0.017678248
0.058414377 -0.00059119985 -0.01213219 0.021496829 0.0019506682 -0.027195668 -0.022878071 -0.045315716
-0.038336188 -0.026786692 0.031634077 -0.00034878845 -0.019303815 -0.04547064 0.023928449 0.03318442
0.013061224 0.005086369 -0.013825415 -0.000307668 -0.013005942 -0.02991096 -0.003251411 -0.0060744192
0.0013918784 -0.009906784 0.002892483 0.045106716 -0.032406494 -0.014514551 -0.033197984 0.0016407836
0.014853323 -0.007063358 -0.0054565887 0.018538902 -0.009606534 -0.01694544 -0.039251424 -0.03320292
0.05792345 -0.02584705 0.0050254744 -0.015878234 -0.04205274 0.0042685773 -0.02005452 -0.007670114
-0.025141278 -0.014048815 -0.014743948 0.036480427 0.0011054957 -0.0331311 0.027493995 -0.0047128717
0.05010759 0.023265809 -0.011364246 -0.020050459 -0.0014218753 -0.041205727 -0.024672393 -0.0052965246
0.030396992 0.037829228 0.010488657 0.045740906 0.01714039 -0.058965955 0.025975829 0.058676973
0.040915184 0.026321594 -0.0007912256 0.001630485 -0.011851812 0.03561266 0.0055036433 0.026100738
-0.012436137 -0.013121372 -0.0053329384 -0.005467734 0.04099995 0.018877748 0.01759921 0.021256667
0.025479686 -0.008845812 -0.0463579 0.029945485 0.0074179713 -0.04063293 0.010791076 -0.036292408
0.043761358 -0.05991527 -0.024705447 0.03830552 0.024495423 -0.014036605 -0.0068632774 -0.0039664693
00000000: 3829 7c3d 9850 13bb 8d58 03bd fc10 7c3d
00000010: ccf2 de3c 804d a9bc a5af d43c 1e88 113d
00000020: c806 bebc 8a35 163c 908f 7b3c 34bf 7ebb
00000030: d54d d0bb 4cdc a63b a471 bfbc 409e a239
00000040: 747e cc3c 0001 a138 4c4e 36bd f060 1e3d
00000050: 214b 053d c376 b23c 98c1 44bb ac12 78bb
00000060: 22dc 533d 0066 19b8 78e2 b3bc d06f 84bb
00000070: 8075 d839 1460 b3bc 0eba 2ebc 405d 5bbb
00000080: a6f5 76bc 969f fbbb ba25 fbbc 3e65 0dbc
00000090: 3c70 c2bc 90d6 303b a6bb 503c e86f da3b
000000a0: 8075 a43c 5c2f 123b f443 6ebc 7e50 10bc
000000b0: 8479 cc3c db6e e1bc 9488 b33c 4277 f7bc
000000c0: d8d3 e4bc a69a 633d bd1b 8fbc 8f4c bdbc
000000d0: 9350 76bc b646 85bc 2691 7b3c 083e 473b
000000e0: 14c5 683c e2a2 16bd b60e d53c 588f 443b
000000f0: 2c63 5e3b b6ed 68bd befb a0bc 5e3e cd3c
00000100: 2029 633c 5ca0 143c 464f ba3c 2a5d 053b
00000110: 6ee3 8ebc ca0b d2bc 42de 693d 3445 f33b
00000120: ded5 69bd b3c4 0bbc e401 86bd 13f4 8cbc
00000130: 1c98 1cbc 1e7d 4ebc 90a0 82ba 546e 1b3b
00000140: 54fd 573c d3e7 f4bc 2714 1bbd 4028 08bc
00000150: 7935 e53c c06f 21bc e028 6b3c 7c5a 37bc
00000160: 8fee 49bd 269f 363d 40b8 603c 547a 1e3d
00000170: 2aef c53c a557 d6bc 2e5e 433c 008b 8c3c
00000180: e884 0c3b 6c11 d13c fa61 253c bcea 323c
00000190: f896 b1bc 3cd1 a63c 7514 873c 045a 67bd
000001a0: d0c1 9fba 6fe8 393d 916e cbbc c6c2 caba
000001b0: d4c1 743c d8cd b03a c5e7 cebc d88b 02bd
000001c0: c7de debc 7051 60bd 8131 243d 48c7 c63c
000001d0: d6eb d1bc 5cab 793c d71e 3ebd 5828 1f3d
000001e0: 9a0a a53c 15e4 cabc 4a15 0ebd e2e1 953c
000001f0: 0041 8dbc daaa 673d f052 6c3d 9671 8abd
00000200: 8a8c da3c 6c13 8cbd 0aca 323d 7167 683d
00000210: b855 1c3d f18a cebc 1bd2 92bc b09a 4cbb
00000220: 425e f53b 0066 fcba 311f 32bd 0cea 573b
00000230: 3e33 a03c 81cd c53c 0b6f 1b3d 00f3 5cbb
00000240: 7c3e 86bb f4a9 15bd c43c b1bc 6e74 873d
00000250: 92e2 86bc 9084 22bd 3a72 2d3d f9d1 90bc
00000260: ea43 6f3d c0fa 1aba 18c6 46bc 1e1a b03c
00000270: 90ad ff3a 73c9 debc cb6a bbbc f99c 39bd
00000280: 6806 1dbd c46f dbbc bc92 013d 98dd b6b9
00000290: 0923 9ebc 6c3f 3abd 9805 c43c 63ec 073d
000002a0: befe 553c 8eab a63b fe83 62bc 804e a1b9
000002b0: e016 55bc d407 f5bc a015 55bb ec0b c7bb
000002c0: b06f b63a 1050 22bc d08f 3d3b d2c1 383d
000002d0: acbc 04bd 70ce 6dbc 9cfa 07bd 900f d73a
000002e0: 5a5b 733c be73 e7bb 2fcd b2bb e5de 973c
000002f0: b964 1dbc 2ad1 8abc 1ac6 20bd c9ff 07bd
00000300: 2441 6d3d 31bd d3bc bcac a43b 1213 82bc
00000310: 7e3f 2cbd 6cdf 8b3b 6049 a4bc 9455 fbbb
00000320: 15f5 cdbc 002d 66bc 9a90 71bc 806c 153d
00000330: 48e6 903a 7ab4 07bd 163b e13c 6f6e 9abb
00000340: 9e3d 4d3d f097 be3c 1a31 3abc dc40 a4bc
00000350: 385e baba 56c7 28bd c21d cabc 788e adbb
00000360: 1d03 f93c d2f2 1a3d 9ed8 2b3c d15a 3b3d
00000370: 016a 8c3c 4986 71bd 43cb d43c 4457 703d
00000380: ae96 273d 62a0 d73c 406a 4fba 00b6 d53a
00000390: 1a2e 42bc 95de 113d e857 b43b 37d1 d53c
000003a0: f0c0 4bbc 06fb 56bc eebf aebb ad2a b3bb
000003b0: 90ef 273d 82a5 9a3c 382c 903c 7622 ae3c
000003c0: c6ba d03c 06ee 10bc c8e1 3dbd 3c50 f53c
000003d0: 7412 f33b b76e 26bd 0ecd 303c 59a7 14bd
000003e0: 1c3f 333d b769 75bd 1463 cabc 40e6 1c3d
000003f0: a0aa c83c caf9 65bc 58e5 e0bb 28f9 81bb

bias f4 [200]
0.0067515858 0.11989705 -0.08522406 -0.03863297 -0.16225627 0.1173295 -0.14148499 -0.025444215
-0.14536208 0.06704289 0.03746251 -0.14772606 -0.08223442 -0.15380514 -0.052871503 -0.14254244
0.09194742 -0.15063445 -0.03567812 0.12848659 -0.165527 -0.018495101 0.02372913 0.07578117
0.013523394 0.11398553 0.08688824 -0.015392347 -0.04162199 -0.14809656 0.06997831 -0.0077302773
-0.04965417 0.16725066 -0.047831293 0.13601257 0.12642117 -0.044395037 -0.022389043 -0.16451338
0.1101379 -0.14288184 -0.15842116 0.04267113 0.013905944 -0.009497885 0.10310986 -0.032046482
0.068868235 0.111058235 -0.14804368 0.019862618 -0.06652739 -0.004385772 -0.03449706 -0.14139202
0.12826641 -0.116752215 -0.023408813 0.08375566 0.19691497 -0.024607869 -0.010911866 -0.1670827
-0.028911602 -0.100880094 -0.012209988 0.06733447 -0.06725677 -0.027875748 0.088450976 0.15322143
0.11869623 -0.03829717 -0.14670129 0.052584935 0.08684062 0.094116576 -0.15699264 -0.14712813
-0.013551157 -0.16322613 -0.043644667 0.13819471 0.042511906 0.11110983 -0.16198136 -0.011684498
0.1322238 -0.05339565 -0.034207 0.124122374 -0.0009856354 -0.012895938 -0.16584596 0.09124297
0.116250694 0.082974255 -0.021753255 -0.043263096 0.08821452 -0.04787422 -0.037692785 -0.057945877
0.013141008 -0.16257833 0.06273328 0.12982284 -0.0847333 0.12552947 -0.035651136 0.18626103
-0.15982309 -0.03144227 0.13619438 0.0007280139 0.09739551 -0.11983545 -0.16611761 -0.009930987
0.1777271 0.10173387 -0.16494244 0.005366414 0.090964034 0.0127993375 0.0048729256 0.0129186725
0.09572655 -0.1531973 0.020565998 -0.1620309 -0.1440345 -0.15825643 -0.16238283 0.12910014
-0.03905744 -0.16573346 -0.032802314 -0.16609532 -0.09632597 -0.029010225 -0.14148495 -0.011490371
-0.1664731 0.025420792 -0.09406189 -0.03765373 -0.16916336 -0.12322508 -0.06680112 0.18417548
-0.161233 0.093187585 0.088795416 -0.16217494 0.04583682 -0.031203767 -0.13098961 -0.15051568
0.09649754 0.11526414 -0.1619674 0.051675152 -0.15916343 -0.046526685 -0.0356331 0.025995728
-0.16226035 0.0871491 -0.084243104 0.109290205 -0.04183815 0.087997906 -0.13450444 -0.011318425
-0.030741816 0.059767082 0.07629325 0.013904795 0.14193755 -0.020196088 -0.14899437 -0.14056054
0.09964713 -0.07573256 -0.023163395 -0.15896893 -0.07375029 -0.028269595 0.0025317837 -0.008319565
-0.16187157 -0.03768063 -0.03964648 0.122306585 0.122050375 -0.04544389 0.10102199 -0.15489094
00000000: 683c dd3b 968c f53d f489 aebd 9b3d 1ebd
00000010: 8226 26be 734a f03d 71e1 10be 6370 d0bc
00000020: ccd9 14be c84d 893d 4a72 193d 8045 17be
00000030: 856a a8bd 187f 1dbe ca8f 58bd a5f6 11be
00000040: ee4e bc3d eb3f 1abe 3823 12bd fd91 033e
00000050: e97f 29be 0a83 97bc 9863 c23c 2833 9b3d
00000060: 3a91 5d3c 3f71 e93d 76f2 b13d 2f30 7cbc
00000070: d27b 2abd a0a6 17be ca50 8f3d 444e fdbb
00000080: 2c62 4bbd c243 2b3e bfea 43bd e146 0b3e
00000090: 8d74 013e 92d7 35bd 3a69 b7bc 3276 28be
000000a0: fb8f e13d 9e4f 12be 2839 22be ecc7 2e3d
000000b0: c2d5 633c 049d 1bbc 432b d33d 2c43 03bd
000000c0: ca0a 8d3d 8072 e33d c398 17be eeb6 a23c
000000d0: 833f 88bd 86b6 8fbb ca4c 0dbd 12c9 10be
000000e0: 4558 033e c91b efbd d7c3 bfbc 1688 ab3d
000000f0: 14a4 493e 7196 c9bc afc7 32bc ba17 2bbe
00000100: 06d8 ecbc 399a cebd 670c 48bc a8e6 893d
00000110: ebbd 89bd ae5b e4bc c925 b53d 14e6 1c3e
00000120: 0217 f33d 7edd 1cbd dd38 16be 4d63 573d
00000130: 7fd9 b13d 31c0 c03d aec2 20be c2a8 16be
00000140: ac05 5ebc c024 27be c0c4 32bd ea82 0d3e
00000150: f720 2e3d 8d8d e33d 71de 25be 5670 3fbc
00000160: ad65 073e 66b5 5abd a41c 0cbd df33 fe3d
00000170: 7030 81ba 7c49 53bc 86d3 29be 98dd ba3d
00000180: d814 ee3d 68ee a93d e233 b2bc a534 31bd
00000190: d0a9 b43d c217 44bd c063 1abd a858 6dbd
000001a0: 624d 573c ef7a 26be 4e7a 803d 47f0 043e
000001b0: a788 adbd cc8a 003e ed06 12bd 36bb 3e3e
000001c0: aaa8 23be 9cc9 00bd 8a76 0b3e 30d8 3e3a
000001d0: 4c77 c73d 4a6c f5bd bc1a 2abe 94b5 22bc
000001e0: 18fe 353e d959 d03d ace6 28be bed8 af3b
000001f0: 5a4b ba3d 50b4 513c 10ad 9f3b d7a8 533c
00000200: 480c c43d c1df 1cbe 067a a83c 6eeb 25be
00000210: c87d 13be f90d 22be af47 26be d432 043e
00000220: b2fa 1fbd 08b6 29be b85b 06bd e414 2abe
00000230: 8d46 c5bd daa6 edbc 6ee1 10be 1c42 3cbc
00000240: ed77 2abe 443f d03c 85a3 c0bd cc3a 1abd
00000250: 2939 2dbe 6e5d fcbd 07cf 88bd 7f98 3c3e
00000260: 431a 25be 22d9 be3d 5fda b53d 3011 26be
00000270: 64bf 3b3d 0b9f ffbc 2422 06be c820 1abe
00000280: 81a0 c53d 9b0f ec3d c8da 25be 53a9 533d
00000290: bdfb 22be c492 3ebd 03f4 11bd fef4 d43c
000002a0: 9427 26be 3a7b b23d a687 acbd 8bd3 df3d
000002b0: 7b5e 2bbd 3f38 b43d 88bb 09be ea70 39bc
000002c0: 43d6 fbbc 54ce 743d a33f 9c3d f0d0 633c
000002d0: 1458 113e 4472 a5bc fb91 18be 1aef 0fbe
000002e0: cb13 cc3d ac19 9bbd 29c1 bdbc c0c8 22be
000002f0: 640a 97bd a395 e7bc 48ec 253b c94e 08bc
00000300: a9c1 25be 0157 1abd 5964 22bd e07b fa3d
00000310: 8cf5 f93d 5f23 3abd 9ee4 ce3d bb9b 1ebe

weight f4 [200, 200]
-0.028408006 0.0072351666 -0.032932676 -0.008954434 -0.046391524 0.04747451 0.006733462 -0.033699974
-0.0077561475 0.017698396 -0.0056173103 -0.009984113 -0.0051764734 0.05625329 0.013516618 -0.0046987543
0.03316845 0.022199191 0.006771423 -0.0023475997 -0.01454573 -0.047552504 0.039237134 0.021072851
-0.025130898 -0.009065372 -0.03253817 0.0032159016 -0.021738078 0.041692577 0.0536422 -0.0213691
-0.013076356 0.02614724 0.026054226 0.012806881 9.4278716e-05 0.0049813557 0.00066333264 0.02379226
-0.00026452728 -0.007632344 0.05634489 0.00040392578 0.0077352216 -0.013560955 -0.012545676 -0.0076626684
0.013457835 -0.055169117 0.0031814277 0.003927023 -0.018143274 0.014898985 -0.046443593 0.0043075467
0.025252633 -0.010307111 0.017634084 -0.015039149 -0.046010993 0.006006958 0.042848743 -0.05887586
0.035209883 -0.01665352 0.020051558 0.045490257 0.021936063 -0.0027544443 -0.008229526 -0.028253112
-0.025871605 -0.022284102 0.026103193 0.0060873553 -0.022007573 -0.013217285 -0.011572083 0.0028700773
-0.004275676 -0.03595101 -0.008940518 -0.0036248043 -0.047415026 -0.008833302 -0.008571912 0.002669246
-0.0281728 -0.009325574 0.025107061 -0.005569388 0.017909728 0.050485045 0.05819369 -0.042525716
-0.023650786 -0.020804033 -0.010687346 -0.01818525 -0.013391817 0.022973003 0.005422483 -0.026876327
-0.046638135 0.01163151 -0.018934593 0.020995308 0.019836519 0.056056894 -0.008376902 -0.029933773
0.029307561 0.013621032 0.019107932 0.054721184 0.009646967 -0.010345489 -0.006196416 0.009087287
-0.012205347 -0.0006398652 0.04811631 0.034488052 -0.025140677 -0.024711486 0.0069047185 0.013612876
-0.053242575 -0.010077877 -0.0020132586 0.0011628214 -0.006218262 0.0018928684 -0.011629235 0.021356476
-0.035093714 -0.020190999 -0.002712653 0.024869977 0.0061507616 0.009223631 -0.015137538 -0.024106305
-0.023804605 0.011048565 -0.01312973 0.01648491 -0.073509425 -0.025090458 -0.02624332 0.01919435
0.016193962 -0.008989579 -0.006704377 -0.011129133 0.00023803208 0.021230236 -0.007412089 -0.023429276
-0.021667631 0.059074916 -0.058029585 0.01024247 -0.04752631 0.0031198766 0.014366858 -0.00805583
-0.021286987 -0.06919239 -0.023046657 -0.024799317 -0.007416239 -0.025263295 0.013990952 -0.008880197
0.02184989 0.014847863 0.0067980113 0.02695867 -0.024294779 -0.0593481 -0.010817306 -0.025202531
-0.016396075 -0.04968845 -0.022686806 0.022570241 0.043239288 0.017683076 0.0006694235 0.04385318
0.009038508 -0.060823955 -0.009315921 -0.02517876 0.004374182 -0.024020405 -0.005650241 -0.0026568603
-0.04591421 -0.019674562 0.036317423 -0.0052357577 -0.0026358003 -0.018378895 -0.004746382 -0.009759041
0.022822887 -0.061174992 0.0112697575 -0.032912556 -0.0044321828 -0.03263739 0.0073763262 -0.03904247
-0.04983016 0.016450418 0.01573015 0.021265645 -0.0007697437 -0.026442023 -0.009388357 0.060444295
-0.0069629382 0.029264703 0.025471212 -0.006890999 -0.017148908 0.00088242814 0.010972774 -0.01524774
0.029567601 -0.04110426 -0.052119672 -0.03067293 0.028750915 0.02160957 -0.0015972126 -0.008954084
0.017276239 0.02186715 -0.01399404 0.021094952 0.04291489 0.027120778 -0.010243386 -0.022063848
-0.006507676 -0.002027724 -0.014135721 0.057318475 0.014336789 0.025435925 -0.0008233655 -0.01800915
00000000: e8b7 e8bc fa14 ed3b 6ae4 06bd 9eb5 12bc
00000010: 0a05 3ebd a274 423d 60a4 dc3b fc08 0abd
00000020: 4827 febb 3afc 903c 6a11 b8bb 6894 23bc
00000030: 689f a9bb da69 663d ce74 5d3c 02f8 99bb
00000040: a4db 073d 14db b53c d0e2 dd3b 30da 19bb
00000050: 3751 6ebc 6ac6 42bd 1eb7 203d f9a0 ac3c
00000060: 50df cdbc ed86 14bc bf46 05bd e0c1 523b
00000070: 0e14 b2bc d6c5 2a3d ecb7 5b3d 400e afbc
00000080: 363e 56bc bd32 d63c ac6f d53c f4d3 513c
00000090: 80b7 c538 a43a a33b 80e3 2d3a fce7 c23c
000000a0: 40b0 8ab9 be18 fabb e6c9 663d 00c6 d339
000000b0: be77 fd3b c52e 5ebc 618c 4dbc 1f17 fbbb
000000c0: 407e 5c3c 03f9 61bd 807f 503b 42ae 803b
000000d0: 34a1 94bc df1a 743c a33b 3ebd 5226 8d3b
000000e0: 9cde ce3c 28df 28bc 5b75 903c c366 76bc
000000f0: 0676 3cbd 04d6 c43b 2a82 2f3d d027 71bd
00000100: 3d38 103d f66c 88bc 2a43 a43c fe53 3a3d
00000110: 42b3 b33c e883 34bb 22d5 06bc 1273 e7bc
00000120: b0f0 d3bc 268d b6bc 5dd6 d53c 7078 c73b
00000130: 3a49 b4bc 508d 58bc d698 3dbc e817 3c3b
00000140: f81a 8cbb 5e41 13bd 407b 12bc 208e 6dbb
00000150: 4236 42bd 8eb9 10bc 3471 0cbc 84ee 2e3b
00000160: a5ca e6bc 4bca 18bc 53ad cd3c 6a7f b6bb
00000170: 6cb7 923c 68c9 4e3d 825c 6e3d 722f 2ebd
00000180: 4bbf c1bc 386d aabc fa19 2fbc 3cf9 94bc
00000190: 5a69 5bbc e131 bc3c 16af b13b be2b dcbc
000001a0: a107 3fbd 1792 3e3c b81c 9bbc 5afe ab3c
000001b0: 3280 a23c ea9b 653d 463f 09bc ac37 f5bc
000001c0: 6916 f03c c02a 5f3c 3d88 9c3c 5223 603d
000001d0: 500e 1e3c 2080 29bc 4e0b cbbb d8e2 143c
000001e0: f0f8 47bc a0bc 27ba 9c15 453d 5843 0d3d
000001f0: d2f3 cdbc be6f cabc fa40 e23b 8a08 5f3c
00000200: e314 5abd ae1d 25bc e0f0 03bb d069 983a
00000210: 90c2 cbbb 201a f83a 8c88 3ebc c7f3 ae3c
00000220: 6dbe 0fbd 9867 a5bc c4c6 31bb 1fbc cb3c
00000230: 548c c93b b61e 173c 7003 78bc 967a c5bc
00000240: e001 c3bc 0a05 353c 141e 57bc 5d0b 873c
00000250: 1c8c 96bd 818a cdbc 3bfc d6bc 783d 9d3c
00000260: 33a9 843c 0749 13bc 64b0 dbbb f856 36bc
00000270: 4098 7939 08eb ad3c 1ce1 f2bb c1ee bfbc
00000280: 5180 b1bc 8af8 713d 6eb0 6dbd 08d0 273c
00000290: f3aa 42bd d876 4c3b f862 6b3c 9afc 03bc
000002a0: 0c62 aebc bdb4 8dbd 58cc bcbc f027 cbbc
000002b0: ec03 f3bb f8f4 cebc 4e3a 653c 3f7e 11bc
000002c0: 8afe b23c 7444 733c dac1 de3b 6ed8 dc3c
000002d0: d805 c7bc fe16 73bd 123b 31bc 8a75 cebc
000002e0: 1051 86bc 1e86 4bbd aed9 b9bc 3ae5 b83c
000002f0: ae1b 313d 19dc 903c 407c 2f3a 649f 333d
00000300: 4016 143c 8a22 79bd cea1 18bc b043 cebc
00000310: 4c55 8f3b 71c6 c4bc a825 b9bb b81e 2ebb
00000320: 8a10 3cbd 8c2c a1bc 94c1 143d b890 abbb
00000330: 64bd 2cbb 568f 96bc 8a87 9bbb 62e4 1fbc
00000340: 10f7 ba3c a192 7abd caa4 383c 51cf 06bd
00000350: d83b 91bb c9ae 05bd 1cb5 f13b ffea 1fbd
00000360: b61a 4cbd 07c3 863c 84dc 803c 4a35 ae3c
00000370: a0c8 49ba f19c d8bc a0d1 19bc 7094 773d
00000380: 5c29 e4bb 88bc ef3c 01a9 d03c e4cd e1bb
00000390: de7b 8cbc c052 673a 26c7 333c a8d1 79bc
000003a0: c137 f23c f15c 28bd 707b 55bd cc45 fbbc
000003b0: 0a87 eb3c 8e06 b13c 9059 d1ba 26b4 12bc
000003c0: e686 8d3c bd22 b33c 4247 65bc 52cf ac3c
000003d0: 86c7 2f3d 652c de3c e0d3 27bc 3ebf b4bc
000003e0: 583e d5bb 90e3 04bb 8399 67bc c7c6 6a3d
000003f0: dae4 6a3c 005f d03c 20d7 57ba ed87 93bc

bias f4 [25]
0.0 0.0 0.0 0.0 0.0 0.0 0.0 0.0
0.0 0.0 0.0 0.0 0.0 0.0 0.0 0.0
0.0 0.0 0.0 0.0 0.0 0.0 0.0 0.0
0.0
00000000: 0000 0000 0000 0000 0000 0000 0000 0000
00000010: 0000 0000 0000 0000 0000 0000 0000 0000
00000020: 0000 0000 0000 0000 0000 0000 0000 0000
00000030: 0000 0000 0000 0000 0000 0000 0000 0000
00000040: 0000 0000 0000 0000 0000 0000 0000 0000
00000050: 0000 0000 0000 0000 0000 0000 0000 0000
00000060: 0000 0000
