deep_learning/models/GCNLinkPrediction14.pth (torch, 234354 bytes, 12 tensors)

bias f4 [100]
00000000: 0156 203e 5ac2 35be be57 34be ea74 343e
00000010: 321d e83d 1c19 7c3e 8ba7 35be 8b97 323e
00000020: fee3 b93d 66e0 383e f967 35be f293 ca3b
00000030: bf4d 4c3e b4c5 223e 9a26 193e 3491 033e
00000040: c5bf 693e a8af 49be 97e7 5e3e c339 93bd
00000050: 817d 2b3e 7cc1 35be 4589 c43d 513b 963d
00000060: 8905 d43d f4f6 133e 383b 36be 3ee3 35be
00000070: 6c19 063e 80c7 e1ba b39d 35be fe09 42be
00000080: ac82 0b3e e1ce 1c3e dbc7 2fbe fcf5 37be
00000090: 046c a03d 6bbe a2bc f4c0 35be 971b 183e
000000a0: f3c1 35be 192c 36be cbae 35be 72c9 35be
000000b0: cec8 35be b2fc 233e a6be 633e 6839 693e
000000c0: ba31 37be 982c 483e 5c0c 35be 2a6c 33be
000000d0: 347b 84bb 56f1 35be b06d f0bd eba0 43be
000000e0: ce99 583e d4d4 253e 6db2 2cbe 707e 0dbd
000000f0: 3a07 fe3d f29f 173e eafa 623e 06be 35be
00000100: 4689 203e 5330 5a3e 9a36 37be bf42 31be
00000110: 5e2e 33be 5b4b fc3d 6c89 34be 3074 223e
00000120: 433c 35be 78f8 013e 72a8 35be 568f 35be
00000130: edf0 20be f645 36be 5dbe 35be 7492 28be
00000140: 497d 403e 4fbe 323e 0f0f 0e3e 74d3 22be
00000150: e4a4 34be 2fc1 35be 032c 473e 3850 203e
00000160: 0c1a 37be 0655 29be 29c1 35be 2bfb 35be
00000170: d578 673d 6e22 433e 47db 0e3e 8c7c ff3d
00000180: 82d3 35be 1c0f 503e 0433 37be 36d0 35be
0.15657808 -0.1774992 -0.17611596 0.17622724 0.113336936 0.24618953 -0.17739694 0.17440622
0.09076689 0.18054351 -0.17715444 0.0061821872 0.19951533 0.1589573 0.14956132 0.1284836
0.2282706 -0.19695914 0.21768032 -0.071887515 0.16747095 -0.1774959 0.095964946 0.073355325
0.10352618 0.14449674 -0.17796028 -0.17762467 0.13095635 -0.0017225593 -0.17735939 -0.18949124
0.13624066 0.15313293 -0.17166083 -0.1796493 0.07833102 -0.019866189 -0.17749387 0.14854275
-0.17749767 -0.1779026 -0.1774246 -0.17752627 -0.17752382 0.16014364 0.22240695 0.22775805
-0.17890063 0.19548261 -0.17680496 -0.1752173 -0.0040430073 -0.17767844 -0.11739671 -0.19104354
0.21152422 0.16194469 -0.16864939 -0.03454441 0.12403722 0.14807108 0.22166029 -0.1774827
0.15677366 0.21307497 -0.17891923 -0.17310618 -0.17498156 0.123190604 -0.17630547 0.15864635
-0.1769877 0.1269244 -0.17740038 -0.1773046 -0.15716906 -0.17800125 -0.17748399 -0.16462117
0.18797792 0.1745541 0.13872932 -0.15900975 -0.17641026 -0.17749475 0.19450383 0.15655601
-0.1788103 -0.1653634 -0.17749466 -0.17771594 0.05651172 0.19056103 0.13950835 0.12474927
-0.17756465 0.20318264 -0.17890555 -0.17755207

weight f4 [100, 18]
00000000: 0479 c73e 55a4 b23e 4602 2d3e 8b9f c43e
00000010: cc09 883e 3a6b 50be 9c94 023b 5eb7 8c3e
00000020: 7dff 9a3e ce68 6d3e e5a0 17bd 4626 323e
00000030: 9dea 70bc a068 9a3e 2816 093e 92c7 c43e
00000040: 40da 24bd 8a01 9e3e d836 e6bc dc74 5ebe
00000050: ff71 c5be e8a8 14bb 3da7 37bc ce9f 123d
00000060: 77da a9be 5ffa 0bbe b9db 8fbd de68 4dbe
00000070: 561b 3b3c 78e1 91bd e3df 9cbe db89 b3bd
00000080: c24c 9abe 1785 9dbe 1be8 85be 9eed ebbd
00000090: 4213 0d3d 90a7 c9be f47d cbbc f80d b83c
000000a0: 2acd 07be 8b98 01bd 0a04 d2bd 7cab 703d
000000b0: a253 d8bd 6625 ccbd c1b6 c9be f70c ccbe
000000c0: bfb3 81be ad70 8cbe 23d4 2dbe 960b 85be
000000d0: 8693 bebd f1f5 99be 9dce 753e 20de 233d
000000e0: c4cd a53e 791a 693e 04c2 7f3d cb2f bf3e
000000f0: 86d0 163d 7484 c93e 706f 403e aa1e 3b3d
00000100: 2a48 ac3e fe86 ab3d d764 983d 68df ba3e
00000110: b0f7 2ebd 4974 1d3e e59a d53c ee5c 903e
00000120: 60aa 883e 3b1d c93e dfd3 b73e a790 b23e
00000130: f4e1 c63d f531 9b3e aa44 6f3e eda7 833e
00000140: e2e6 4d3e b9a4 a8bd 165d 673d afa3 393e
00000150: 66e4 ac3e 16e1 973e d7f7 b33e 0167 24bd
00000160: 0acc c83e 20e3 963e 8460 38bd b4bd dabd
00000170: 5841 0cbd 0ac1 a03d 2b5d 41bd 4068 a5be
00000180: 6616 4d3e c893 ddbe 522b 6b3d 74d2 ee3d
00000190: a45d 1d3d 5c95 353e bcaf de3e 1d43 193e
000001a0: cd0f 9a3e 1fdb 2a3e 8281 473e 29c8 b13e
000001b0: faac 8cbd a465 bcbd 32c0 abbd 439b 9cbe
000001c0: dc29 36be 95ea 3fbe be56 9dbb ea53 a83d
000001d0: 9ec5 89be 4832 91be 8b26 a6be 130e babe
000001e0: 2098 22be 447e 00be 435d 86be 9800 c7ba
000001f0: 1354 02be 2c37 02be d64c 2a3d 471b 3d3d
00000200: 5647 e43d b233 843e 4847 bd3e 8559 3c3e
00000210: 8d73 693e c2c0 c83e e58c ac3e ea64 523d
00000220: f13a bd3e 3853 d13d 4ef2 b63e e207 743d
00000230: a676 813e 5113 8b3e fcfd 353d f40e f53d
00000240: 955e 38bd fd46 943e ec1a 883e 62fc 913b
00000250: cdc2 cd3d 1573 d53d 86a1 823e 5e95 01bd
00000260: 025f 9b3e f291 7bbd 89ac 5bbd 51ae 8f3e
00000270: bf2c 613e c91c 8d3e 3685 43bd 1b3b a73e
00000280: e64a 953c 6723 603e efd5 14be e94a 90be
00000290: 41a7 c9bd bb55 b9be bfe0 9bbe f92b 4abe
000002a0: 1927 673e 3439 c9be 55a6 863e 43cf 963d
000002b0: 5907 9e3e 8fa4 013e 405b 3e3e c7c9 c83e
000002c0: 46a0 a93d a068 dd3d 7511 9e3e 7a5f c9bc
000002d0: fa06 073d 8ae6 8cbe e3b2 05be 73e1 57bd
000002e0: 186e 8bbe fff9 47bd 0a94 85be da53 a63b
000002f0: 5549 d0bd 4913 a9be a04f 90be aec1 ce3c
00000300: 5576 8bbe 7795 33be e92c 29be 0e9a f83c
00000310: c8df 69be 90fd 42be 4c11 b0be c60d 64be
00000320: 0a4b 40bd 4348 c6be 65bd 18be 8ea7 26be
00000330: 280a 52be 3402 d9be 8531 2cbd cbf5 9f3d
00000340: ad39 6ebe 1eee d9bd b08f 17be 831f a4be
00000350: a4aa 8ebe 4ed6 6cbe 48a8 1ebe 8f64 9ebe
00000360: ae74 a43e 88ae 953d 10b7 e03d 3f80 963e
00000370: ea4d 193d 80e1 113e 4a19 9c3e 5408 8e3e
00000380: 527a a53e af33 fcbc 4fb3 c63e 87c1 ae3e
00000390: 60f5 b73e 1a69 ea3c 6f65 a93d 6719 073e
000003a0: 574d e43e b134 033d 30ea c73e 0c40 483d
000003b0: 6da0 7b3e b99e b33e 5a3c b03e 8613 fb3d
000003c0: 7f99 983e c674 913e f6a7 b23e 48ea 023c
000003d0: 4a05 bb3c b6f3 723e 21e8 bb3e 2852 93bb
000003e0: 24e0 923e 10fb 993e e93b 903e d05c 3e3d
000003f0: 1eb4 cb3e f1ec 943e 16e1 453e f94d 3e3e
0.38959515 0.34891 0.16895398 0.38402972 0.26569974 -0.20353404 0.0019925004 0.27483648
0.30273047 0.23184511 -0.037018675 0.17397413 -0.014704374 0.30157948 0.13387358 0.3843351
-0.040247202 0.3086055 -0.028102323 -0.21724266 -0.38563535 -0.0022683684 -0.011209306 0.035796933
-0.33174488 -0.13669728 -0.07024331 -0.20059535 0.011420092 -0.07123083 -0.30639562 -0.08766528
-0.30136687 -0.30765602 -0.26153645 -0.11519931 0.034442194 -0.39385653 -0.024840333 0.022467598
-0.13261858 -0.031639617 -0.10254677 0.05875729 -0.10562827 -0.09968071 -0.39397243 -0.3985364
-0.25332448 -0.27429715 -0.16975455 -0.25985402 -0.093054816 -0.3007045 0.24004598 0.040006757
0.3238355 0.22764005 0.062440887 0.3734115 0.036819957 0.39358866 0.1879251 0.04568354
0.33648807 0.08375357 0.07441109 0.3649857 -0.042716682 0.1537639 0.026074836 0.281959
0.26692486 0.39280114 0.35903832 0.34875986 0.09711066 0.30311552 0.23366037 0.25714055
0.20107606 -0.08234543 0.056485258 0.18128847 0.33768004 0.29663914 0.35150024 -0.040137295
0.3921817 0.29470158 -0.04501392 -0.10680714 -0.034242004 0.07849319 -0.047207993 -0.323061
0.20028076 -0.4327681 0.05741436 0.116612345 0.03841938 0.17732757 0.4349345 0.14967008
0.3009018 0.1668515 0.19482997 0.34723023 -0.0686893 -0.09199074 -0.08386268 -0.30587205
-0.17789406 -0.1874183 -0.0048016002 0.0821913 -0.26908582 -0.28358674 -0.3245128 -0.36338863
-0.15878344 -0.12548167 -0.26243028 -0.0015182672 -0.12727384 -0.12716359 0.041577183 0.04616859
0.11146419 0.2582069 0.36968446 0.18393524 0.22797985 0.39209563 0.33701244 0.05136577
0.3695903 0.10220951 0.3573174 0.05957783 0.25285834 0.27163175 0.04443167 0.11965743
-0.045012075 0.2896041 0.2658304 0.004455135 0.10046921 0.10422341 0.25513858 -0.03163659
0.30345923 -0.06141848 -0.05363134 0.2806268 0.21989726 0.27561024 -0.04773446 0.3266228
0.01822419 0.21888505 -0.14534734 -0.28182152 -0.09846354 -0.3619822 -0.30444905 -0.19743337
0.22573508 -0.39301455 0.26298776 0.07363751 0.3086498 0.1266043 0.18589497 0.39216444
0.08282523 0.10810971 0.30872694 -0.02458166 0.032965638 -0.27519637 -0.13056521 -0.05270524
-0.27232432 -0.0488224 -0.26089507 0.005075914 -0.10170237 -0.33022526 -0.2818575 0.025238838
-0.27238718 -0.17537485 -0.16521038 0.030346896 -0.22839272 -0.19042039 -0.34388196 -0.22270879
-0.046946563 -0.38727006 -0.14915998 -0.16274855 -0.20511687 -0.42384493 -0.042039413 0.07810553
-0.23264189 -0.106411204 -0.14800906 -0.32055292 -0.27864563 -0.23128626 -0.15493882 -0.30936095
0.3212027 0.0730868 0.109724164 0.2939472 0.03742782 0.14246178 0.30488044 0.2774073
0.32319885 -0.030786363 0.38808677 0.34132025 0.35929394 0.02861457 0.082713 0.13193284
0.44590256 0.032032672 0.39045858 0.048889205 0.24572916 0.35082033 0.34421045 0.12259583
0.29804608 0.28409404 0.3489377 0.007990427 0.02282967 0.23725781 0.36700538 -0.004495878
0.2868663 0.30074358 0.28170708 0.04647523 0.39785856 0.29087022 0.19324145 0.18584432

bias f4 [100]
00000000: fb29 263e 0624 403e 3cc1 35be 3cc1 35be
00000010: 0149 2b3e cac5 95bc a17f 46be 2611 253e
00000020: 55c9 723e 3b6e 2c3e 54df 203e 259e 35be
00000030: 41c1 35be 983b 323e 2d32 36be 0ac0 35be
00000040: 905f 2e3e ad8c 013e d7f3 2f3e 8d2a 303e
00000050: c215 193e f4c0 35be 9736 373e 5fda 1a3e
00000060: 8fdd 2c3e 50c0 35be 3bc1 35be f3fb 29be
00000070: d1c0 35be 558c 3d3e 43c1 35be 18a6 37be
00000080: 328f 2a3e aa0e 353e d046 293e 38c1 35be
00000090: deb8 2e3e a01e 263e 31c1 35be 2947 653e
000000a0: 4365 35be 5e4f 0e3e 0e7a 153e 0295 4bbe
000000b0: 1c10 893e 31c1 35be 3905 413e de09 46be
000000c0: 3cc1 35be 3bc1 35be 38c1 35be 75f3 2c3e
000000d0: 0cff 45be 141a f43d 03ba 273e c262 1f3e
000000e0: e0fa 35be dda7 2f3e a4a6 163e ec36 353e
000000f0: e384 35be 3387 35be 4652 273e 1d63 c3bd
00000100: 9ec2 35be 190c 36be 2bc1 35be 2bd6 36be
00000110: 848a 6c3e 38c1 35be a935 2a3e b243 36be
00000120: a8ab 213e 2ec1 35be 3cc1 35be 3bc1 35be
00000130: 5766 2cbe 40c1 35be 16b7 143e 81bb aa3c
00000140: b231 2f3e 5f1b 39be 7985 363e 0660 3cbe
00000150: 051d 323e 095a 293e 578e 35be 3dc1 35be
00000160: 38c1 35be 3ec1 35be 34c1 35be 99b7 35be
00000170: b2bf 35be 2a52 173e 20c1 35be f2a8 453e
00000180: 87fb 513e 938e 413e fc32 2d3e 09bf 35be
0.16226952 0.18763742 -0.17749494 -0.17749494 0.16727068 -0.01828279 -0.19384624 0.16119823
0.23709615 0.16838925 0.15710193 -0.17736109 -0.17749502 0.17405546 -0.17792578 -0.17749038
0.17028642 0.1265132 0.17182861 0.17203732 0.14949706 -0.17749387 0.17891918 0.15122364
0.16881393 -0.17749143 -0.17749493 -0.16600017 -0.17749335 0.18510564 -0.17749505 -0.17934453
0.16656187 0.17681375 0.16530919 -0.17749488 0.17062709 0.1622262 -0.17749478 0.22390427
-0.1771441 0.13897464 0.14597341 -0.1988106 0.26770103 -0.17749478 0.18849649 -0.19339702
-0.17749494 -0.17749493 -0.17749488 0.16889746 -0.19335574 0.119190365 0.16379552 0.15565017
-0.17771482 0.17153879 0.14712006 0.17696732 -0.17726474 -0.17727356 0.16339979 -0.09540389
-0.17750022 -0.17778052 -0.17749469 -0.17855136 0.23099715 -0.17749488 0.16622032 -0.17799261
0.15788138 -0.17749473 -0.17749494 -0.17749493 -0.16835915 -0.177495 0.14522967 0.020841362
0.17108801 -0.18076847 0.17824353 -0.18396005 0.17393883 0.16538252 -0.1773008 -0.17749496
-0.17749488 -0.17749497 -0.17749482 -0.17745818 -0.17748907 0.14777437 -0.17749453 0.19302729
0.20506106 0.18902044 0.1691398 -0.17748655

weight f4 [100, 100]
00000000: b964 113e 3cdb 833e 57f9 2dbe cc64 433e
00000010: d800 bb3d a31b d5bd 8d79 57be 519b a63e
00000020: 8fd4 02be dc92 b9be 634e ab3d 238f ecbd
00000030: 821a b53e 44f3 a03e 806a 883e 4867 363d
00000040: bb11 d4be 110e a73e 1cc5 7abe 5b6c a93e
00000050: 265e b8be bb0a 813e 6f3c 9a3e 1e08 313e
00000060: 369d 953e 3bab 4f3e a2cd 143d 364e aa3e
00000070: c237 cdbb ab48 173e ea7d 813e b11b b03e
00000080: 3d37 743e 4af6 3f3e c6bf aabd 8b54 4ebe
00000090: e769 2e3e a14f 1a3d ff1a 923d 2e40 ccbd
000000a0: 2c06 943e 0538 3cbe 63fb a4be d5ac 9f3e
000000b0: cc85 9a3c ac0d a43e 4d6a 903e 2887 1cbe
000000c0: 59c2 253e fe8e 73be af19 063e 446c 58be
000000d0: caf8 893e 0888 acbb ad99 90be 4ec6 10bd
000000e0: de98 9e3e 9b51 503e 9d8a 08be 003f 20bd
000000f0: 2de0 893d b020 403d 8776 21be 19d2 18bd
00000100: 5b76 ea3d c24d a4be 6900 2a3e dcc0 153e
00000110: ee69 a9be 6acf 9d3e 4ffd 943e a463 963e
00000120: 3485 1b3e 017d 0f3e ab7a a93d 6a9b 93bc
00000130: b6fc 20be f3dd 8c3c bda0 dc3d 179c ae3e
00000140: e56c a93e be68 893e 9120 c03e 1987 44be
00000150: 05a5 30be 9679 9a3e 5a9f 39be 61a4 883e
00000160: 602e 95be 2484 41be ae22 df3d b6da d3bd
00000170: e2ab 9a3e d6d5 afbe 1e3b 953e 9cb3 5f3e
00000180: b820 64be 3996 833e f416 5c3e bd01 92be
00000190: 3ccb 843e e687 82bd 7aca 8c3e 80af f1bd
000001a0: 2658 72be 7b29 f73c 3bbe 963e 3f3b 80be
000001b0: c6e3 7c3e 7381 f03d e7b7 73be f419 1a3e
000001c0: 83ce 2abe d262 73be 763b abbe 70ed a0be
000001d0: 0250 f43d 3faf c13d 9547 a03e ef6d dcbd
000001e0: 30ea 743e 72e5 95be 3ec2 08bd 82de 8fbe
000001f0: 1ec1 86be a347 66be 2a1c b2be 6d5e fdbd
00000200: 3b8f 863e 960a a9be 7ca9 25be 8a28 debd
00000210: e277 723e ccd6 66be c40c ee3b b38a 733e
00000220: 9f58 a9be 3bef 553d 66c9 a4bd 6fc6 063e
00000230: f40a 27be d7e3 913e 8a24 ac3e 2448 6abd
00000240: dfe4 1bbe ec16 30be 3d68 a7bc cdc9 523e
00000250: 1ad8 123e a854 633d b974 1abe e13d 313e
00000260: 4daa 0e3e 3645 a53d 4687 ab3e e1ea a63e
00000270: c080 e0bd 92d2 b7bd d4fe 493e 36c2 a73d
00000280: d00b 1c3c 5e21 86be ed10 1d3d cff1 6a3e
00000290: 45b7 983e 2554 3b3e 2144 903c 3ff0 9d3e
000002a0: 4eff 9d3e c4b3 a9be be88 2b3d d239 8fbd
000002b0: de27 d8bd 7ed9 9fbe fa40 96be 5069 9f3e
000002c0: 7810 743d 12f5 b5bd ed0d 68bd 58ca 06bd
000002d0: 5426 1cbe 56cb 30be ceeb bebd 4c32 713e
000002e0: feef c23d 456c 9dbe 9b64 b63d 1be4 78be
000002f0: 3fcc 623e 7ced 793c 4d53 8dbe e77e 293e
00000300: e20f 25be e4dd d13d c8b8 93be 8358 97be
00000310: 921e 133e 9644 2ebe d03d 433e 9dcc 863e
00000320: 01a7 b2be 0d99 2dbd db47 29be 30d2 3abd
00000330: 3f9e 90be 5b2b 15be 4de1 afbe 6670 adbe
00000340: 4b9b 93be c828 3ebd ca23 4dbe bad3 6fbe
00000350: a781 13be aeba a0be 3c65 e6bc 7c4d 63be
00000360: 0406 b7bd 586b 35be e0ce fcbd 573e a9bd
00000370: f285 aebc 41df 71be 230b 4bbe 6216 a7bb
00000380: 1c91 8abe 8d92 87be 9d30 5abd ba1f 2fbe
00000390: 6720 01be b720 24be 1875 3abe 279b a4bc
000003a0: 20aa d7bd 502e 64bd 8365 32be c8b9 1abd
000003b0: 7f2b 06be 16e0 84be 648d 6cbe 539b 60be
000003c0: f534 30bd e058 afbe b881 febd 49ba 6cbe
000003d0: 7e93 8dbc 4d75 90be b884 7abe d417 44be
000003e0: 1671 8fbb 43d9 83be 4d77 05be c4e7 98bd
000003f0: 51e4 1abe 7095 83be 3d74 93bd c8fa ffbd
0.14198579 0.257532 -0.16989647 0.1908142 0.0913102 -0.10405662 -0.21042462 0.32540372
-0.12776397 -0.36244857 0.083645605 -0.11550739 0.35371786 0.31435597 0.26643753 0.04453209
-0.41419777 0.3262792 -0.24489254 0.3309048 -0.3600933 0.252035 0.30124232 0.17288253
0.29221505 0.20280163 0.03632892 0.33262795 -0.0062627504 0.14773814 0.25291377 0.34396127
0.23849197 0.18746296 -0.08337359 -0.20149438 0.17032586 0.037673596 0.07134055 -0.09973179
0.2891096 -0.18380745 -0.32223043 0.31186548 0.018862627 0.3204168 0.282061 -0.15285933
0.16187419 -0.23785016 0.13095735 -0.2113505 0.26947623 -0.0052652396 -0.28242245 -0.035345368
0.30976003 0.2034363 -0.13334127 -0.03912258 0.06732211 0.046906173 -0.15767871 -0.03730974
0.11448356 -0.32090575 0.16601719 0.14624351 -0.3308863 0.30822307 0.2909951 0.29372895
0.15187532 0.14012529 0.0827535 -0.018018443 -0.15721402 0.017195677 0.10772846 0.34103462
0.33090892 0.26837724 0.37524846 -0.1919216 -0.1725045 0.30170888 -0.18127194 0.2668791
-0.29136944 -0.18898064 0.108952865 -0.1034445 0.3020926 -0.3434283 0.29146665 0.2184586
-0.22278106 0.25700548 0.21493131 -0.2851695 0.25936306 -0.06373577 0.27498227 -0.11801052
-0.23666438 0.030171147 0.2944201 -0.250452 0.24696264 0.117434405 -0.23800622 0.15048963
-0.1668034 -0.23768166 -0.33443803 -0.3143115 0.11929323 0.09457254 0.31304613 -0.10763156
0.2391746 -0.29276615 -0.03338837 -0.28099447 -0.26319212 -0.22488265 -0.34787112 -0.12371526
0.2628115 -0.3301589 -0.16177934 -0.10847576 0.23678544 -0.22542876 0.0072647054 0.23783378
-0.33075425 0.0522301 -0.08046226 0.13161634 -0.16312772 0.2849414 0.33621627 -0.057197705
-0.15224026 -0.17196244 -0.020435447 0.20584793 0.14340249 0.055500656 -0.15083589 0.17308761
0.13932152 0.080698416 0.33501643 0.32601073 -0.10962057 -0.0897571 0.19726115 0.0819134
0.009524301 -0.26197332 0.03834622 0.22943805 0.29827324 0.18293817 0.017610611 0.30847356
0.30858845 -0.33144963 0.041878454 -0.0699345 -0.10554479 -0.3122062 -0.29346448 0.31135035
0.05958602 -0.08884634 -0.056653906 -0.032907814 -0.15248996 -0.17265067 -0.0932232 0.23554343
0.09518431 -0.30746666 0.08905908 -0.24305765 0.22148226 0.015254375 -0.27602616 0.16552316
-0.1611934 0.102474004 -0.28851914 -0.29559717 0.1436713 -0.17018351 0.19066548 0.26327983
-0.3489304 -0.04238229 -0.16531317 -0.045610607 -0.28245732 -0.1456732 -0.34351578 -0.33874816
-0.28829417 -0.04642561 -0.20033184 -0.23420611 -0.14404927 -0.31392425 -0.028124444 -0.22197527
-0.08936694 -0.1771673 -0.12344146 -0.082638435 -0.021304104 -0.23620321 -0.19828467 -0.005099104
-0.27063835 -0.26478997 -0.053269017 -0.17101946 -0.12610017 -0.16028105 -0.1820873 -0.020093514
-0.10530496 -0.05570823 -0.17421536 -0.03777483 -0.1310253 -0.25952214 -0.23100811 -0.21934251
-0.043019254 -0.34247494 -0.12427086 -0.23117937 -0.017282244 -0.28214493 -0.2446469 -0.19149715
-0.0043774946 -0.25751695 -0.13033791 -0.07466081 -0.15126158 -0.2569995 -0.07199905 -0.124990046

bias f4 [100]
00000000: 3ec1 35be 44c1 35be 8ec2 35be 05ff 583e
00000010: 2ec1 35be a913 36be 0091 36be 4bf7 5f3e
00000020: b8a5 363e 2c85 333e 1734 313e 34c1 35be
00000030: 5c66 313e 6e52 2f3e 9bec 313e fa46 303e
00000040: 48ba 35be 8449 28be 22a1 8e3e 31c1 35be
00000050: 95e9 33be cfb8 323e f4bf 35be 13fe 2c3e
00000060: 41c1 35be 7e10 293e 36c1 35be 3e81 453e
00000070: 0a38 5c3e 4e67 3abe 3bc1 35be e6bf 35be
00000080: 0e7c 323e c65a 323e 0b1d 37be 6c84 323e
00000090: 2958 353e 2518 313e b1cb 303e d1ee 31be
000000a0: ae01 363e 44c1 35be 42c1 35be 01f0 333e
000000b0: e4eb 363e 3fc1 35be 42ed 35be d1c5 803d
000000c0: 44d0 333e cde7 2e3e 42c1 35be c621 1e3e
000000d0: 12bd 35be 3cc1 35be 4230 343e 42c1 35be
000000e0: fe8a 613e 57e6 2c3e f0b0 35be a328 293e
000000f0: f4c0 35be 3b29 2b3e 9e1e 5f3e 02aa 343e
00000100: 41c1 35be cec1 35be 41c1 35be 521f 303e
00000110: 43c1 35be 52bf 35be 305e 313e c0c0 35be
00000120: dce6 893d 44c1 35be e657 2d3e 16ae 35be
00000130: 366f 333e 9014 36be 43c1 35be 99d5 35be
00000140: 04c9 35be 615a 36be fdb6 35be e6a2 303e
00000150: 19f0 343e 40c1 35be 3cc1 35be 44c1 35be
00000160: cdbb 463e a688 35be 4cc0 313e fa66 2d3e
00000170: 5f86 3b3d f7c0 35be 6895 0b3e ce35 353e
00000180: 18c2 35be ea21 303e 7c41 2d3e 17b6 35be
-0.17749497 -0.17749506 -0.17749998 0.21191032 -0.17749473 -0.17780937 -0.1782875 0.21871679
0.17836654 0.1753127 0.17305027 -0.17749482 0.17324203 0.17121288 0.17375414 0.17214575
-0.17746842 -0.16434294 0.2785731 -0.17749478 -0.17569573 0.17453311 -0.17749006 0.16893797
-0.17749502 0.16510198 -0.17749485 0.19287583 0.21505752 -0.1820347 -0.17749493 -0.17748985
0.17430136 0.1741744 -0.17882173 0.17433327 0.17709412 0.17294367 0.17265202 -0.17376257
0.17774078 -0.17749506 -0.17749503 0.17572023 0.17863423 -0.17749499 -0.17766288 0.062877305
0.17559916 0.17080612 -0.17749503 0.15442571 -0.17747906 -0.17749494 0.17596534 -0.17749503
0.22025678 0.16884743 -0.17743278 0.16519408 -0.17749387 0.16714947 0.21789023 0.17642978
-0.17749502 -0.17749712 -0.17749502 0.17199448 -0.17749505 -0.17748764 0.17321086 -0.1774931
0.06733486 -0.17749506 0.16928062 -0.1774219 0.17522892 -0.17781281 -0.17749505 -0.17757262
-0.17752463 -0.17807914 -0.17745586 0.17249641 0.17669715 -0.177495 -0.17749494 -0.17749506
0.19407578 -0.17727908 0.17358512 0.16933814 0.045782443 -0.17749391 0.13631213 0.17696306
-0.17749822 0.17200437 0.16919512 -0.17745243

weight f4 [100, 100]
00000000: 386e 2ebe 3a51 a9bd aac7 59be 4b7e 8dbe
00000010: 9659 45be bebe 97be d0f8 8cbe 1059 0fbe
00000020: 2a7d 6cbe e830 4fbe 7f47 0abe b698 71bd
00000030: d9bb 8fbd 3392 ffbd c832 bebc 1867 5cbd
00000040: b4eb f1bc 654a 41be 1e44 8ebe 2798 f1bd
00000050: c902 443d e57f 39be 1221 e2bd a279 033e
00000060: fee0 f8bd 3cb1 333d 75a6 68bc eb9a c6bd
00000070: 5690 9ebe 67d0 03be 7e77 37be f850 2abe
00000080: 1f85 0fbe bb8a aebe 9e41 a2be 38d7 25bd
00000090: ec7e 32be 60d7 b8bd c084 a8be bc40 e83d
000000a0: 2699 2b3d 26cf 92bd a701 a6be 1cd2 25bd
000000b0: 092b 85bd cf2c 17bc 174e 2abe 9e8c 4fbe
000000c0: 6047 45be e223 a3be 29b8 aabe 863d 51be
000000d0: de48 e1bc c575 f2bd 4a0e 78bd cbfd 99be
000000e0: 497b 44be 4330 89be b0eb 17be 5537 64be
000000f0: c323 8abe 00b6 76be 9afb e8bd 52b5 a3be
00000100: ee67 85be 2404 8fbe b8b1 883e 1088 633e
00000110: 0b9e 6c3e ab61 b3be b5b8 1bbe 843a b0be
00000120: 990e 8ebd a412 1fbe bdb9 6dbd 1fe2 69bd
00000130: 71fe abbe 3ef0 e1bd 94be edbd ae32 88be
00000140: a696 58be a4fc 2abe f124 2cbe 4a3c 99bc
00000150: b457 ddbc bb6b a7be b9b2 09be c5a5 aebe
00000160: 248c 1fbe a299 50bd fe97 0b3e 12e5 84be
00000170: 109b 8abd 2cd1 98be b4c2 83be c0a7 333e
00000180: 7927 5a3e d048 973d 52c9 44be 6efd 32be
00000190: cf5a 17be 29ed 89bd b23b 36be 1051 a0be
000001a0: 0f65 36be c588 a6bd a6ba 11be 1fad 6abe
000001b0: 339b c53d df26 9bbe 4d18 abbe 807d a1bd
000001c0: 2423 a8be d5f1 e3bd e9a8 97be b524 40be
000001d0: 6498 c8bd 4d10 a3bd 6b14 1abe 7c1a 21be
000001e0: 88d6 45be b6be b03e 262b fe3d 9dcb 34be
000001f0: 7b38 90be bd54 8c3e 62d4 06be 0b1d e0bd
00000200: 0607 b9bb 809a 2ebd dc4f 81be 1c34 9ebe
00000210: f61e 47bd 39ef 80bc 4751 9fbd 94e7 81bc
00000220: bb2b dcbd ae45 53bd d93c 31bd a1e2 ddbd
00000230: ef9a 1dbe 7eb1 e0bc 3feb 74be 4297 76be
00000240: 8c43 42be 4ebd 9cbe 747a 5ebe 1778 26be
00000250: 4179 09be 9976 71bd a8b8 e2bd b477 5abe
00000260: d409 acbe 79d1 8e3d aa0c a1bd e9d2 46be
00000270: 5995 6fbd 08e8 89be 01de 95be 3b27 08bc
00000280: 1bae b2bd d77a dbbd ff47 a6be 1658 8fbc
00000290: 5178 2cbe bae7 5ebe d7aa 903d cc09 45be
000002a0: 94a9 e93d f091 65be 3c74 aebe b270 b3be
000002b0: 259e 5abe 75b8 26be dcdd c3bd c9c4 1ebe
000002c0: c2e2 2cbe 3d91 f2bd 8edc 4cbe 0ee7 aebe
000002d0: 4256 4fbe 8d8c 3dbd 7a5d 8bbd 3505 9bbe
000002e0: 2d5c a8be 7dcf 2bbe 5ebd 22be 9432 b0be
000002f0: df87 5abe 2447 96be 738e a7be c7ff 8dbe
00000300: 3b4c 34be bb5e 84be 5ed4 3dbd 647a 5fbd
00000310: ab8b 70be 8d8e 043d 2fe1 8cbe a042 1fbd
00000320: bf46 65be 4d5a 953d e7dd 29bd 850e 82be
00000330: 798d cc3d 1d38 803e b44e db3d 0534 f2bc
00000340: c196 923d ff59 48be 4acd a3bd 9392 18bd
00000350: 3206 03bd dfd2 8ebe 6792 683e 6350 873e
00000360: 19e6 34be e6c1 e13d 09af aabd 0472 ce3d
00000370: a4f9 723d 6c23 a43e 207a ab3d f4ca aebd
00000380: 5b2e 14be 6f74 683e 06b0 a1bd f96a 4b3d
00000390: 21fa 01bc 70d5 f2bd c94a 1cbe be63 78be
000003a0: 204d 0dbe e6b8 67be ddae b9bd c516 9ebc
000003b0: 4616 36bd 418a 8abd 80ea eabd 9dca d63d
000003c0: 3a62 a2bd 3526 a1bc 305c 83be 1eda 0bbe
000003d0: 2db9 223e fa32 0b3e c715 94bd 6275 0ebe
000003e0: 861e 963e 8e2c 09be 004f 8fbe 7259 36be
000003f0: 39da 01be 70cd c1bd 6493 3c3d 9281 30be
-0.17034233 -0.08267446 -0.21267572 -0.27635416 -0.19272456 -0.29637712 -0.2753358 -0.13998818
-0.23094621 -0.202335 -0.13503836 -0.058983527 -0.07018251 -0.12479057 -0.023217574 -0.053809255
-0.029531337 -0.18876036 -0.27786344 -0.11796599 0.04785422 -0.18115194 -0.11041464 0.12839368
-0.12152289 0.043870196 -0.014199843 -0.09697517 -0.30969495 -0.12872468 -0.17916676 -0.1663245
-0.14015625 -0.34090218 -0.31690687 -0.04048845 -0.1743123 -0.090254545 -0.3291378 0.11340472
0.0418941 -0.07168417 -0.32423136 -0.04048358 -0.06502349 -0.009226992 -0.16631351 -0.20268485
-0.19265509 -0.31863314 -0.33343628 -0.20433626 -0.027500566 -0.11838869 -0.060560502 -0.3007644
-0.19187655 -0.26794633 -0.14836001 -0.22286732 -0.2698041 -0.24092865 -0.11376114 -0.31974274
-0.26055855 -0.27932847 0.2669809 0.22219872 0.23107164 -0.35035452 -0.15207179 -0.34419644
-0.06936378 -0.15534455 -0.058038462 -0.05710041 -0.3359256 -0.11032151 -0.116086155 -0.26601166
-0.21151218 -0.16697937 -0.16810967 -0.018705506 -0.02701936 -0.3269938 -0.13447084 -0.34110847
-0.15580803 -0.050927766 0.13632199 -0.25956017 -0.06767857 -0.29847085 -0.25734484 0.1754446
0.2130412 0.07386935 -0.19217423 -0.17479488 -0.14780734 -0.06734688 -0.1779621 -0.31311846
-0.17811988 -0.081315555 -0.14231357 -0.22917603 0.096487425 -0.30303094 -0.33416978 -0.07885265
-0.3283931 -0.1113011 -0.29621056 -0.18764003 -0.09794691 -0.079620935 -0.15046851 -0.15732759
-0.19320118 0.345205 0.12410574 -0.17655797 -0.2816809 0.274084 -0.13166955 -0.109430395
-0.005646589 -0.04262781 -0.2525624 -0.3089913 -0.04861351 -0.01573907 -0.07779174 -0.015857495
-0.107505284 -0.051580124 -0.04327092 -0.10834242 -0.15391134 -0.027428385 -0.23917864 -0.24081138
-0.1897108 -0.30613178 -0.217264 -0.16256748 -0.13425161 -0.058950994 -0.11070377 -0.21334726
-0.33601248 0.069735475 -0.078637436 -0.19416393 -0.05849204 -0.26934838 -0.29270938 -0.0083101345
-0.08724614 -0.10716789 -0.32476804 -0.017498057 -0.16842772 -0.21768084 0.07063835 -0.19242018
0.114092976 -0.22418952 -0.34073055 -0.35046917 -0.2134939 -0.16281302 -0.09563801 -0.15504755
-0.16883376 -0.11844108 -0.2000601 -0.34160656 -0.20247748 -0.046276618 -0.068049386 -0.3027741
-0.32882825 -0.16778369 -0.1589255 -0.34413588 -0.21340893 -0.2935115 -0.32725868 -0.27734205
-0.17607205 -0.25853524 -0.046345107 -0.05456008 -0.23490779 0.03236251 -0.2751555 -0.038881898
-0.22390269 0.07292614 -0.04147139 -0.25401703 0.09987921 0.2504281 0.10708371 -0.02956582
0.0715766 -0.19565581 -0.0799814 -0.03724916 -0.03198833 -0.27895257 0.22712098 0.26428518
-0.176659 0.11023311 -0.083341666 0.100803405 0.059320107 0.32058275 0.08372903 -0.08534804
-0.14470808 0.22700666 -0.07894902 0.049662564 -0.007933171 -0.11857116 -0.15262903 -0.24256799
-0.13798952 -0.22629127 -0.09066556 -0.019297967 -0.044454835 -0.06764651 -0.114705086 0.10487864
-0.079288915 -0.019671539 -0.2565627 -0.13657424 0.15890951 0.13593665 -0.07230716 -0.13911965
0.29320163 -0.13395903 -0.2798996 -0.17807558 -0.12680902 -0.09463012 0.046039 -0.17236927

bias f4 [100]
00000000: 43c1 35be 190a 363e 95ba 35be 5526 353e
00000010: 5406 5abe 46c1 35be 44c1 35be 27f6 333e
00000020: 43c1 35be 9472 343e 5862 353e 2ea2 353e
00000030: 27c1 35be 42c1 35be 1cc1 35be 42c1 35be
00000040: 8d20 633e a7b4 353e 0903 373e 9f0f 37be
00000050: 7bda 343e 37d4 35be 7cc0 35be e80b 4fbe
00000060: 3d96 353e fce2 343e 7d00 76be ea44 36be
00000070: d3b7 353e 0012 363e 8503 353e 43c1 35be
00000080: a8bb 383e 84b3 343e 3cc1 35be 45c1 35be
00000090: c6b8 35be 3613 403e 423a 463e f7f1 333e
000000a0: 7ae0 323e fc82 353e f4d0 343e 3dc1 35be
000000b0: 41c1 35be 9bd3 2f3e 4021 65bd 648f 343e
000000c0: 0dce 353e b6ed 35be 55a4 35be 88cf 34be
000000d0: b6c0 35be cd13 373e 60cc 343e 76a8 02be
000000e0: 6ec3 38be 4cc1 35be 43c1 35be 68d5 343e
000000f0: f9d5 35be ef99 1a3e e3c0 35be 34c1 35be
00000100: c5c6 333e d5e7 8b3e 2d43 353e 04f6 35be
00000110: 46c1 35be 56c6 35be 6a3a 5c3e 8071 353e
00000120: 5c20 343e 44c1 35be 0891 2e3e 2ec1 35be
00000130: e15f 36be 40c1 35be d042 36be 44c1 35be
00000140: 44c1 35be 46c1 35be 43c1 35be 50c0 35be
00000150: 1707 f73d 827e 343e 4a1e 4cbe 40c1 35be
00000160: 43c1 35be a85b 36be 66fa 343e a8ac 353e
00000170: 8eb0 3fbe 42c1 35be 8591 323e 7095 333e
00000180: ebbc 35be 70f0 343e c487 323e 2375 3ebe
-0.17749505 0.1777729 -0.17746957 0.17690404 -0.21291476 -0.17749509 -0.17749506 0.17574368
-0.17749505 0.17621833 0.17713296 0.17737648 -0.17749463 -0.17749503 -0.17749447 -0.17749503
0.22180386 0.17744695 0.17872252 -0.17877053 0.17661469 -0.17756735 -0.17749208 -0.20219386
0.17733093 0.17664713 -0.24023624 -0.17799726 0.17745905 0.17780304 0.17677124 -0.17749505
0.18040335 0.17646605 -0.17749494 -0.17749508 -0.17746267 0.18757328 0.19358161 0.17572771
0.17468444 0.17725748 0.17657834 -0.17749496 -0.17749502 0.17170565 -0.055939913 0.17632824
0.17754383 -0.17766461 -0.17738469 -0.17657292 -0.17749295 0.17878647 0.17656088 -0.12759575
-0.180433 -0.17749518 -0.17749505 0.17659533 -0.17757405 0.15097784 -0.17749362 -0.17749482
0.17556293 0.2732531 0.17701407 -0.17769629 -0.17749509 -0.1775144 0.21506658 0.17719078
0.17590469 -0.17749506 0.17047513 -0.17749473 -0.17810012 -0.177495 -0.17798924 -0.17749506
-0.17749506 -0.17749509 -0.17749505 -0.17749143 0.12061899 0.17626384 -0.1993343 -0.177495
-0.17749505 -0.17808402 0.17673644 0.17741644 -0.18719694 -0.17749503 0.17438324 0.17537475
-0.17747848 0.17669845 0.17434603 -0.18599372

weight f4 [100, 100]
00000000: 0deb 353e 3c6b a3be f3b9 d9bd 37e1 b9bd
00000010: ce54 11bd c728 8fbe 0da8 87be 0caf 17bd
00000020: cc00 a53e d162 3dbe 38fd 51be ddab be3d
00000030: 1a43 a5bc c393 efbd 8cfd 8ebd b656 93be
00000040: a0e0 b039 9f7b 9ebc bca4 6cbd 65cc 623e
00000050: f56d 8dbc d0ed 80bd ef61 28bd c34e 8abd
00000060: 1979 47be 4815 0bbd 10f0 373c 7597 d93d
00000070: a521 a1be e880 a1bd e06c 6fbd ed27 94be
00000080: e56b 12be dad9 a03e 4445 6abe 51c3 aabd
00000090: 37b4 d73d c432 9abe 4d91 20be 0049 0dbe
000000a0: 1726 0d3e a76e 81bd 8d30 45be e4ea 9ebe
000000b0: 05f1 3ebe 90df a4bd 7ff1 4abe 3641 50bd
000000c0: 1714 6cbd 40ef 13bd e072 51be 041c 10be
000000d0: fe54 39be 9fd0 dabd f6d1 37be 7491 17bd
000000e0: 581c 9cbd 5b48 63be 8487 d2bd 438e 74be
000000f0: a7f9 8d3d fc6a 913e 59f5 c4bd 3689 85be
00000100: b5c3 9abe a539 a53d d7e0 823e 7023 7bbe
00000110: a58b 913d 87fc b2bb bdca 8cbe fb72 ae3e
00000120: 30f8 dbbd 3b81 99bd 8819 6d3d 48ff 17bd
00000130: 69a7 70be f7f7 5cbe 02ce f4bd 3a83 87be
00000140: 77d2 29be a3b4 7abe a2f4 8d3e 88f0 4cbe
00000150: fcf4 d6bd 1ae2 4fbe 50b5 24be 7a02 b43d
00000160: 1aad 18be bbb6 8ebe 6476 85be 00dc b3bd
00000170: edba 56be 6244 393d ef3c 933e 61e7 0cbe
00000180: 9089 fb3c bd94 1d3e 81e1 d1bd 76ac 08be
00000190: 188d 813c 9aaa 813e 43cd 24bd 088c 43be
000001a0: 0d99 893d 5b89 be3e 775e 793e 03d2 dc3e
000001b0: 9022 ae3e 83c0 7bbe bc28 7abd 5032 b13d
000001c0: 236e 04be fa53 ef3d 1948 c1bc 6b6b 993d
000001d0: b576 c23d c2e4 8b3c 0c76 db3d f47d 7c3e
000001e0: fd71 de3d bcca d23c 40d7 313e b74f 923e
000001f0: 90b9 a73e 8cec e3bd 58a9 393e a92a 8c3e
00000200: 4484 023e 8c25 4f3d be54 773e 529d ac3d
00000210: c323 d2bd 8f8d 663e d2c6 403d de02 92bd
00000220: 9eff 513e 0abb 8abe c820 63be 22bd a33e
00000230: 6131 2c3e 82fa 053e 8f86 b03e 1bfc 13be
00000240: acc5 8c3c f1dd a53e 1593 6b3e f0f8 feba
00000250: cad5 5a3d d256 55be 4faf 2f3d 8b81 50be
00000260: 8870 9a3d 5992 ad3e c46b b8bd 12e4 673e
00000270: 3594 4b3e d82c 3a3e 3cf3 383d eafb 873d
00000280: c620 b03e c1ff e23e 3a98 5dbe 50f9 29be
00000290: b66d 363e 724f ab3d ba8c 073e d0a3 273e
000002a0: 4168 9b3e 24d2 903e 0869 25bd bd35 a53e
000002b0: 149e 98be 2a6c 183e f0f8 193e 4763 b43c
000002c0: c4f0 b73d 1b8a a33e ce50 093e c951 c53d
000002d0: 86ba 683e d04f b53e 2c59 2a3c 66e4 b4be
000002e0: 2a6c 853d 13e6 553e cc67 843e 2be1 1d3e
000002f0: d216 b93e 045c 9a3e 6a87 83be 4987 ac3e
00000300: 680a 2e3e a24b 083c a424 8a3e 7f8c 4f3d
00000310: 7dff 8a3d 8ccb 003e 1e71 e63e 89d3 1cbe
00000320: 99fb 99be c8c9 0dbe 1175 06be 7072 0fbe
00000330: 8af8 0c3d 886e 89be 4d37 43bd c530 943a
00000340: b24a 3fbc f818 913d e748 f3bc 134e 61bd
00000350: 293c 843d e36a 723e e2f0 d13b 29ae 90bd
00000360: cee5 553c 251e 1bbe c2fa 81be 6480 66bd
00000370: 728d 77be 0ee8 a4bd 2724 9ebe cfaa 8dbe
00000380: 6b6d 94be 6746 6ebe 9b86 7bbe e215 1fbe
00000390: 3d42 803d 5dad 24be a725 88be 9213 42be
000003a0: e36d 88be 8a23 9cbe eee4 a23b 2d7f 8dbe
000003b0: bdc8 e5bd 1abf a53e b2e3 03be 0698 98be
000003c0: db24 59be dade 3abe 32d4 8cbe 990e 4dbe
000003d0: c478 afbe 4a6e dfbd 040b 36bd e615 5b3e
000003e0: 3e43 3bbc a5ff abbe be15 45bd c570 27bd
000003f0: a1fb 42bc 6e69 07be b06c a6bd 9b42 6cbe
0.17765446 -0.3191775 -0.1063117 -0.090761594 -0.035481267 -0.27960798 -0.264954 -0.037032172
0.3222717 -0.18494727 -0.20506752 0.09310124 -0.020173598 -0.11698105 -0.06981954 -0.28777093
0.00033736695 -0.019346057 -0.05777429 0.22148283 -0.017264346 -0.06295359 -0.04110902 -0.06753304
-0.19479789 -0.033955842 0.011226669 0.10624591 -0.3147098 -0.07885915 -0.05845344 -0.2893671
-0.14298971 0.31416208 -0.22877985 -0.08338035 0.1053242 -0.30116856 -0.15680428 -0.13797379
0.13784061 -0.063199334 -0.19256802 -0.31038582 -0.18646629 -0.08050454 -0.19818686 -0.05084344
-0.057636347 -0.03611684 -0.20453978 -0.14073187 -0.18098828 -0.106843226 -0.17951187 -0.03700395
-0.07622594 -0.2219557 -0.10279754 -0.23882394 0.06932383 0.28401935 -0.09617109 -0.26081246
-0.30227438 0.080676354 0.25562164 -0.24525237 0.07106713 -0.0054622325 -0.27498427 0.34072098
-0.107406974 -0.07495352 0.057885677 -0.03710869 -0.23501362 -0.21578966 -0.11953355 -0.26467305
-0.16584192 -0.2448297 0.27725703 -0.2001363 -0.10495946 -0.20301095 -0.1608479 0.08789535
-0.14909783 -0.27873787 -0.26066887 -0.08782196 -0.20969744 0.04523123 0.28757426 -0.13760139
0.030705243 0.1538877 -0.102480896 -0.13347039 0.015814349 0.2532547 -0.040234815 -0.19096386
0.06718645 0.3721417 0.24352442 0.43128976 0.34010744 -0.24585156 -0.061074004 0.086521745
-0.12932639 0.11685939 -0.02359395 0.074911915 0.09495298 0.017076854 0.10715875 0.24657422
0.10861585 0.025731437 0.17367268 0.28576443 0.3275876 -0.11129102 0.18131006 0.27376297
0.12745768 0.050572917 0.2415342 0.08428444 -0.10260727 0.22514938 0.04706461 -0.07129453
0.20507666 -0.27095824 -0.22180474 0.31980234 0.16815712 0.13083842 0.3447766 -0.1445164
0.017184101 0.3239589 0.23005326 -0.0019452851 0.05342654 -0.208339 0.042891797 -0.20361917
0.07540995 0.33900717 -0.0900493 0.22645596 0.19880755 0.18181169 0.04515384 0.06639846
0.34400004 0.4433575 -0.21640101 -0.16599011 0.17815289 0.08364762 0.13237277 0.16371083
0.30352977 0.28285325 -0.04038337 0.32267562 -0.29808104 0.14885011 0.15036368 0.022019995
0.08981469 0.31941304 0.13409731 0.0963474 0.22727403 0.35412455 0.010397237 -0.35330504
0.06514771 0.20888548 0.2586044 0.15417926 0.36150223 0.30148327 -0.2568925 0.33696964
0.16996157 0.0083188135 0.2698108 0.050671097 0.06787012 0.12577647 0.45008177 -0.1531507
-0.30074766 -0.13846505 -0.13130595 -0.14008498 0.034416713 -0.2684214 -0.04766016 0.0011306038
-0.011675524 0.070848405 -0.029697848 -0.055006098 0.06456787 0.23673587 0.0064068893 -0.070644684
0.013055278 -0.15148218 -0.25386626 -0.056274787 -0.24175051 -0.080520734 -0.30886957 -0.2766938
-0.2898973 -0.23269044 -0.24563067 -0.15535691 0.06262634 -0.16081758 -0.26591226 -0.18952778
-0.26646337 -0.30495864 0.004971138 -0.2763609 -0.112199284 0.3237236 -0.12879828 -0.29803485
-0.21205465 -0.18249074 -0.27505642 -0.200251 -0.34271824 -0.10909708 -0.0444441 0.21395072
-0.011429606 -0.3359348 -0.048116438 -0.04087903 -0.011900813 -0.13223812 -0.08126199 -0.23072283

bias f4 [100]
00000000: 122d 353e 46c1 35be 469b 323e e802 353e
00000010: 82ff 343e fbf4 363e f4af 333e 40a7 1d3d
00000020: 45c1 35be d17a 34be aeb7 193e 1338 883d
00000030: 16f4 333e 28c1 35be a6ef 293e 7c42 353e
00000040: 0eb0 023e 44c1 35be 5d5a 353e 002e 363e
00000050: 46c1 35be 7606 36be 071e 4e3e 1a0e 323e
00000060: 46c1 35be 6e94 373e 6ca9 343e 46c1 35be
00000070: f8a8 35be 44c1 35be 46c1 35be cc8c 323e
00000080: 0c61 343e 1240 333e 1b01 4d3e 7ac4 353e
00000090: d6a2 353e e8a3 083c 62cb 35be d01c 323e
000000a0: 34a6 343e 44c1 35be e33b 2d3e f5ea 343e
000000b0: 3272 383e 6ec0 35be 6856 6dbd d4a1 353e
000000c0: a1be 35be 43c1 35be 36f5 153e 1d62 3a3e
000000d0: 44c1 35be d844 bdbb 46c1 35be e4fe 323e
000000e0: 5594 333e 4c87 353e f28c 363e cd7b 343e
000000f0: e4ff 35be c2f4 353e 1eb6 343e fdc0 35be
00000100: b126 353e 7db7 343e a59e 303e ae7a 35be
00000110: 46c1 35be 7553 343e c01e 353e 9076 353e
00000120: 47c1 35be f720 333e 5fdf 303e d991 343e
00000130: 13c7 343e 95c2 343e 45c1 35be 9542 973d
00000140: aa06 5cbd b668 36be d649 333e 9192 353e
00000150: dc39 353e 37f0 cf3d 564d 353e e9ce 1d3e
00000160: e500 353e dff9 3a3e 0394 343e bf4b 353e
00000170: 0a96 153e 62a1 35be 76f8 353e ea18 363e
00000180: f6bf 35be 8e06 333e 81bc 35be b1de 333e
0.17692974 -0.17749509 0.17442045 0.1767689 0.17675593 0.1786689 0.1754759 0.03848958
-0.17749508 -0.17624976 0.15011474 0.0665132 0.1757358 -0.17749465 0.16595325 0.17701143
0.12762472 -0.17749506 0.17710252 0.17790985 -0.17749509 -0.17775902 0.20128642 0.17388192
-0.17749509 0.17927715 0.17642754 -0.17749509 -0.17740238 -0.17749506 -0.17749509 0.17436522
0.17615145 0.1750491 0.20019953 0.17750731 0.17737898 0.00833986 -0.17753366 0.17393804
0.17641526 -0.17749506 0.16917376 0.17667754 0.18012312 -0.17749187 -0.05794373 0.17737514
-0.177485 -0.17749505 0.14644322 0.1820149 -0.17749506 -0.005776029 -0.17749509 0.17480046
0.17537053 0.17727393 0.17827204 0.17625351 -0.17773396 0.17769149 0.17647597 -0.177494
0.17690541 0.1764812 0.17248018 -0.1772258 -0.17749509 0.17609961 0.17687511 0.17721009
-0.1774951 0.17493044 0.1727271 0.17633761 0.17654066 0.17652352 -0.17749508 0.073857464
-0.053717293 -0.17813382 0.17508635 0.17731692 0.17697853 0.10153239 0.17705283 0.15410961
0.17676122 0.18259381 0.17634587 0.17704676 0.14608017 -0.17737344 0.17770562 0.17782941
-0.17749009 0.17482969 -0.1774769 0.17565419

weight f4 [100, 100]
00000000: c666 963e 7c79 863e 596a a33e 9e18 35be
00000010: a965 0b3e a025 263e 82d8 073e 062f 2dbe
00000020: 5f74 153e 8b62 25be 2713 823e 1e4d 433e
00000030: e702 583c dc93 8d3c 1a6c a33d eb01 d63d
00000040: 6135 0ebe 3c8a c13e 36ed b43e e268 333e
00000050: 2868 c5bd e78d 243e 2e72 6e3e e791 29be
00000060: a937 acbe c82f 183d b174 6fbe e800 c93e
00000070: 2afd 9c3d dc28 d1bd e810 12bc 9a90 4e3e
00000080: b9ff 593e 2c84 80be 4d7b 633e 2076 ce3d
00000090: 937d 543e 93cd 933e eca6 26bc e9ae 9d3d
000000a0: 34d1 95be f9a6 033e ca57 b53e 7ea5 973e
000000b0: f921 7e3e 6cba f2bd fafe 283e 3db5 c83c
000000c0: 60f6 913e 07b9 bf3e 3296 ccbc f208 50bc
000000d0: 1366 9e3d 2899 abbd 8273 09be ab49 9c3e
000000e0: c3f2 203e 17b0 3e3d 425c 4f3e caa9 d63c
000000f0: cf1f 1dbe 3e91 2bbe 110f ad3d c263 0c3e
00000100: a8ca 953d 2114 a83c 14ca 7abe 6dce a93e
00000110: c3d7 4e3e 3e08 e03c 6020 a2be d7d9 c03d
00000120: fa76 87be 0c60 d43d 6c03 e33d 0a4d 043e
00000130: 04ea e23c b5cb 1e3e e0cb 9dbb 0f8f 873e
00000140: 7ea8 b13e e7fd a93e c521 5e3e ffa1 8d3d
00000150: 50e2 4cbd 7a8a 0bbd 74fa 23be c83c 323d
00000160: 2008 a93e 4507 a33d 2097 51be ccb9 68be
00000170: 0f51 163e 8732 1a3d c185 8dbe 0de1 9ebe
00000180: c4ee 5c3e 9b98 3d3d 8052 9bbd e52c 313e
00000190: b879 8ebd 531a 30be 8220 61be d8a6 99bd
000001a0: 7f57 6dbe 5410 aebd c4a5 1bbd 7841 b9bd
000001b0: aced 0cbd 988a a7be cdb3 5ebd a879 a4be
000001c0: 72ba 79be cb9f 6cbd 73c9 83be b464 20be
000001d0: 7a4f 15be b386 2abe d948 61be 42c9 89be
000001e0: 40f5 52be f80b 3cbd edd8 1ebe 71fc aabe
000001f0: 611a a4be c8dc 77bd 1e8b 83be 9714 7abd
00000200: 9542 d7bd db72 69be bcb5 92be f77e 7abd
00000210: 3d98 9cbe 4c25 babc 81d1 51be 1715 afbd
00000220: cef8 e8bd 6b6e 05be b736 87be f19f 45be
00000230: 36d1 8dbe b231 36be 83fe 53bd e15e 6dbe
00000240: 2837 eabd ad7c adbe 1fbf e13d 168f aabe
00000250: e544 8abe 31b0 91be 0ce4 3abe 99cc 71be
00000260: 03a3 9cbe d148 8dbe 45eb 00be f86d 00bd
00000270: 9d29 67be e878 83be 7888 15bc 5352 15be
00000280: eb2e 32be e053 48be 221b a9be aaaa 5bbe
00000290: f131 e4bd 5913 88be 76b2 7bbe a013 e1bd
000002a0: 0cb8 41bd 1d5e 06bd aeef 80bd 4522 f9bd
000002b0: 13d5 93be 8348 36bd 4625 f9bc b2d6 45be
000002c0: bf88 6bbe 4ea1 a3be e2c8 cabd f7cd 2bbe
000002d0: a383 1bbe 1f00 73be 4602 5bbe 5ed4 19be
000002e0: 9e86 a3be f4da a7be 6bf1 adbe 4f48 72bd
000002f0: b83f 9bbe e96c 12be d60a d8bd 52d9 b1be
00000300: 275d 5dbd 1afb 52bd 17c3 3dbd 6a83 5dbd
00000310: 3c0d 83bd c08f 84be b18c 70be d804 3abe
00000320: b1cd 893e 8e6e 3e3e 2f82 053e 1c35 07be
00000330: 3af4 60bd ce1e ac3e 79d9 a13e 8e77 38be
00000340: 7faf 8b3e cd0e 79be ee0c debb f4f8 793e
00000350: 7e5f 703e 2531 7f3d 3697 1a3d b216 d23d
00000360: 3bd6 62be 7c7c 713e c943 2fbe e404 b93d
00000370: aaa7 563e a447 3c3d 1440 853e b534 d4bd
00000380: 2435 60be ece9 1dbe b678 193e eb7f 273c
00000390: 561d 863d 34c2 44be 46a9 5fbd 592a 093e
000003a0: f5d4 273e 0d05 d6bd a65e 723e 100e f63d
000003b0: 0076 a43e 752c 14be e7bb 2fbe 5fce bebc
000003c0: 97aa 7dbe ff18 303e 38f5 e03d eff1 903e
000003d0: 3ce1 da3d ec4f 3e3e 9659 eb3d fb8a 2f3e
000003e0: 8552 e6bc 2d06 913e 9b43 2a3d d7c7 cb3d
000003f0: a63c 9f3e dbcf 3bbe adea 65be 94b6 48bc
0.29375285 0.2626456 0.31917074 -0.17685172 0.13612999 0.1622529 0.13266185 -0.1691247
0.14595173 -0.16150872 0.25405237 0.19072387 0.013184286 0.017282419 0.07979603 0.104495846
-0.1388755 0.37800777 0.35337228 0.17520478 -0.09639007 0.16069756 0.23285744 -0.16559564
-0.33636215 0.037154943 -0.23384358 0.39258504 0.07665475 -0.102128714 -0.008915164 0.20172349
0.21288957 -0.2510084 0.22215004 0.10081124 0.20751028 0.28867778 -0.010171633 0.07699377
-0.29261172 0.12856664 0.3541854 0.29618448 0.24817647 -0.118519634 0.16503516 0.024500484
0.28508282 0.37445852 -0.024973962 -0.012697445 0.07734313 -0.083788216 -0.13422969 0.30524954
0.15717606 0.04655465 0.20250037 0.026204009 -0.15344165 -0.16754624 0.08450139 0.1370993
0.07314044 0.02051741 -0.24491149 0.33165303 0.20199494 0.02734768 -0.31665325 0.0941655
-0.2645796 0.10369882 0.11084637 0.12920013 0.027699478 0.15507396 -0.0048155636 0.26476333
0.34698862 0.33201525 0.2169257 0.06915664 -0.050020516 -0.03406761 -0.16013509 0.043514997
0.3301401 0.07960371 -0.20467806 -0.22727126 0.14679359 0.037645843 -0.2764111 -0.31031075
0.21575457 0.046288114 -0.07584095 0.17302282 -0.0695681 -0.17197542 -0.21985057 -0.07502526
-0.23177908 -0.08499208 -0.037999883 -0.0904569 -0.03440635 -0.32722926 -0.05437069 -0.32124066
-0.2438753 -0.057769578 -0.2573963 -0.15663415 -0.14581099 -0.16652946 -0.22000445 -0.2691136
-0.20601368 -0.04590985 -0.15512438 -0.33395723 -0.32051376 -0.060513288 -0.25692075 -0.061054792
-0.105107464 -0.2279772 -0.28654277 -0.06115624 -0.305849 -0.022722863 -0.20490076 -0.085489444
-0.11375581 -0.13030402 -0.26408932 -0.19299294 -0.27698678 -0.17792395 -0.051756393 -0.23180725
-0.114363015 -0.33884183 0.110227816 -0.3331229 -0.27005687 -0.28454736 -0.18251055 -0.23613204
-0.30593118 -0.27594617 -0.12589748 -0.031354874 -0.22574468 -0.25678182 -0.009126775 -0.14582185
-0.1740071 -0.19563246 -0.33028513 -0.21451822 -0.11142338 -0.2657726 -0.24579796 -0.10990071
-0.04729466 -0.032804597 -0.06295715 -0.121647395 -0.288735 -0.044502746 -0.030413281 -0.19320181
-0.23001383 -0.31959003 -0.099015966 -0.16777788 -0.15186934 -0.23730515 -0.21387586 -0.15022418
-0.31938642 -0.32784235 -0.3397325 -0.05915099 -0.3032205 -0.14299358 -0.10548942 -0.34736115
-0.054043915 -0.051509 -0.04632863 -0.054080404 -0.06399009 -0.25890923 -0.2349117 -0.1816591
0.26914743 0.18596861 0.13037942 -0.13203853 -0.054920413 0.33617252 0.3161123 -0.18014356
0.2728233 -0.24322052 -0.0067764437 0.24411374 0.23473927 0.062302727 0.037741862 0.10258235
-0.22152035 0.23582643 -0.17115702 0.09034136 0.20962396 0.04596676 0.2602545 -0.103616156
-0.21895272 -0.15421265 0.14987454 0.010223369 0.06548564 -0.19214708 -0.05460479 0.1339506
0.1638983 -0.10450182 0.23668918 0.12014401 0.32121277 -0.14470084 -0.17161523 -0.023291765
-0.24772106 0.17197035 0.10984272 0.2830958 0.10687491 0.18585175 0.114916965 0.1714286
-0.02811552 0.28325024 0.04156838 0.09950226 0.3110096 -0.1834101 -0.22452803 -0.012250561

bias f4 [25]
00000000: 0000 0000 0000 0000 0000 0000 0000 0000
00000010: 0000 0000 0000 0000 0000 0000 0000 0000
00000020: 0000 0000 0000 0000 0000 0000 0000 0000
00000030: 0000 0000 0000 0000 0000 0000 0000 0000
00000040: 0000 0000 0000 0000 0000 0000 0000 0000
00000050: 0000 0000 0000 0000 0000 0000 0000 0000
00000060: 0000 0000
0.0 0.0 0.0 0.0 0.0 0.0 0.0 0.0
0.0 0.0 0.0 0.0 0.0 0.0 0.0 0.0
0.0 0.0 0.0 0.0 0.0 0.0 0.0 0.0
0.0

weight f4 [25, 100]
00000000: cd4c dc3d cf0d 4a3e 191b 0cbe d441 e3bc
00000010: 64ca 91bd 35d7 393d 9487 56be 7655 363c
00000020: 05a7 b63c d895 24be bdb0 13bd a3d2 093e
00000030: 399d f33c 2fa7 4abe af70 093d fd41 093d
00000040: 41eb 43bd 2b96 3dbe ff0f 0dbe 52db 2abe
00000050: 2250 81bd 7548 2a3e 817d a53d acb2 5b3c
00000060: 85dd cd3d dd78 243e 60f2 2fbd ee8f 7b3d
00000070: 4614 7abd d257 52be fae0 c43d 5a6a 973d
00000080: f449 973c 98cb ef3d 0e85 f1bc bf67 38be
00000090: 4061 93bd b9bd 22be 4785 bd3d 039a b6bd
000000a0: 8e3c 1c3e 7ba0 dabd 0304 67bb b1b7 953d
000000b0: dae8 04bc f42c a6bc 9433 233e cd89 59be
000000c0: 751b c73d fd82 10bd caf7 f83c c20f 453e
000000d0: eb3b 073e 17b8 c4bd 6197 95bd e4c7 5f3d
000000e0: 2c45 053e 6ca8 88bd a515 0fbe 5410 853d
000000f0: 59d4 943d 0756 1b3d ee2c ac3c 1ad3 193e
00000100: 37b2 0abe f9cd cebd 02a8 433e e04a 93bd
00000110: 7f65 143e 44e0 47bd 586a f9bd da63 ae3d
00000120: 1b30 8e3c f894 a7bd 2781 863d 009d 233e
00000130: 16a7 cc3c 14f9 0bbe 5c60 3dbe aa9b 0a3e
00000140: bf7d bb3c fd55 083e be13 32bd ebe6 46bc
00000150: 873f 22be 1d89 453e eff5 0a3e 81c1 11be
00000160: 0078 a83d aed1 30bd f2ba 143e 71d7 05bd
00000170: 9b86 d63b 244b 103e ed47 8a3d 24f5 9b3c
00000180: f085 593d 8ddb 5f3b 26d7 8ebd e396 40bd
00000190: 6fc7 2e3e 6afb 8dbc 08fa 8dbd 195b 22be
000001a0: 1326 8fbd 68c4 f23d 766a b03c 894a 273d
000001b0: 4d34 163e 25af 883a 31b3 f43c 2527 e6bd
000001c0: bb48 073e c44d e5bd deca 54be f4d3 41be
000001d0: 1eb7 a13c a03b 0cbd 9347 c23d 3407 433e
000001e0: 4509 bfbd 411d 5e3e 8211 233e 864f 38be
000001f0: 51b5 fc3d 7e6a 49bc d6a7 9f3d e598 8d3d
00000200: 60ae 2abe a9fc 38be 1633 92bc 691a 023e
00000210: be09 403d 8c98 e8bd ed8a 8dbd 1610 273e
00000220: b572 1fbe 90a8 243d 07e6 013e f777 c9bd
00000230: 6bf3 a8bd b518 a5bd a655 c43b 3a89 dc3d
00000240: 4f62 353e 7be3 4abe 4977 3b3e 4302 e53d
00000250: dae7 1abe f1d2 57be b411 7f3d aa5a 183e
00000260: 8b0b 493e ff8d e43d 543c 17be bfc5 e83d
00000270: 43df e9bd 9592 1c3e 5808 aa3d 070b 8cbd
00000280: 5796 d9bc 8707 94bd 03d7 233e 4763 d6bc
00000290: 7e88 e4bc 0772 5fbe 5ea7 f83d b740 ccbd
000002a0: 2155 483e 5398 05be 3de9 413e 6392 3ebd
000002b0: d1ba e23d 74df e1bc aa53 86bd fb19 4b3e
000002c0: e63f d7bc 3e6c 3e3e c8fa afbc 0208 213d
000002d0: 2945 22be 53a3 d43d c831 16be 73c8 9cbc
000002e0: d678 53be 2cc0 0c3e 0f68 363d 4745 63bb
000002f0: cad7 c43b aa23 113e efe7 5d3e ad51 a1bd
00000300: 8ca3 5abc 541c 263d a651 08be 926e 2b3e
00000310: 79a7 483e 3b9f 59be d584 973d 8828 86bd
00000320: 88ca 88bc 53a4 153e 1b1c 20be d39d 2abe
00000330: 4c93 2e3e f797 3ebe 432c 083e b16b 383e
00000340: 3c14 5cbe 683f b4bd 399a 493d 12a5 4dbe
00000350: 48fa 1fbd ff68 2cbe 5383 99bd 7e87 95bd
00000360: 3a8c 4cbe 24cb 983d 7c76 3f3e 3be4 18be
00000370: d574 5cbe 90f4 40be ad34 4ebd 37a2 4d3d
00000380: 68f4 d03d 430f 613c 1cc2 d5bd a4f3 5dbc
00000390: 9095 4abe c2c1 093e 3a96 4ebd 08ca 07be
000003a0: d593 903d efbc 83bd 4f89 fabd a526 aebb
000003b0: 2941 7f3d b0a1 4dbe 3ea7 dcbd 2524 19bd
000003c0: 5765 1dbe 99ec b9bc 6e9a 2e3d 483d 45be
000003d0: ebf9 bebd a35f 96bc 3e5d 12be cfc1 a8bd
000003e0: 86f5 87bc c538 1c3e d6a7 dd3b e0da b6bd
000003f0: 37cb 233e 8cf9 e83d cc53 5dbe b932 89bd
0.10756836 0.1973183 -0.13682212 -0.02774135 -0.07118681 0.045371253 -0.20950156 0.011128774
0.022296438 -0.16072786 -0.036057223 0.13459258 0.029738056 -0.19790338 0.03355473 0.033510197
-0.047831777 -0.18514316 -0.13775633 -0.16685227 -0.06314112 0.16629203 0.080805786 0.013409298
0.10052017 0.1606173 -0.042955756 0.06141656 -0.06105449 -0.20541313 0.096132234 0.07393332
0.01846788 0.11708754 -0.02948239 -0.18008326 -0.07196283 -0.15892686 0.09253936 -0.08916094
0.15257475 -0.106751405 -0.0035250194 0.07310427 -0.008112157 -0.020285107 0.15937644 -0.21243973
0.09722034 -0.03528117 0.030391593 0.19244292 0.1320645 -0.09605425 -0.07304264 0.05463399
0.13014668 -0.06672749 -0.139731 0.06497255 0.072670646 0.03792384 0.021017518 0.15021935
-0.13544546 -0.1009788 0.19107059 -0.07192016 0.14491843 -0.04879786 -0.121784866 0.08515139
0.017356923 -0.081827104 0.065676026 0.1597786 0.024982017 -0.13669235 -0.1849379 0.13535944
0.022887109 0.13314052 -0.04347586 -0.012140016 -0.15844546 0.19290586 0.13570379 -0.14233972
0.08226013 -0.043168716 0.14524439 -0.032676164 0.006546808 0.14091164 0.06752 0.01903779
0.05310625 0.0034157962 -0.0697463 -0.047018897 0.17068265 -0.017331798 -0.06932455 -0.15855063
-0.06989684 0.11853868 0.02153514 0.040842567 0.14668389 0.0010428174 0.029870601 -0.11237935
0.13211338 -0.11196473 -0.20780513 -0.1892851 0.019740637 -0.03423655 0.09486308 0.19045717
-0.0932794 0.21690847 0.15924647 -0.17999086 0.12339271 -0.012293456 0.07795684 0.06913928
-0.16668081 -0.18065132 -0.017846625 0.12705387 0.04688429 -0.11357221 -0.069112636 0.1631473
-0.15571101 0.040199816 0.12685405 -0.098373346 -0.08249553 -0.08061353 0.0059916554 0.107683614
0.17713283 -0.1981334 0.18307222 0.11182072 -0.15127507 -0.21076562 0.062272742 0.14878336
0.1963331 0.11159896 -0.14769107 0.11365842 -0.11419537 0.15290292 0.08302373 -0.06838041
-0.026560945 -0.07227998 0.15999989 -0.026170386 -0.027897116 -0.21820842 0.12141298 -0.09973281
0.19563724 -0.13046388 0.1893663 -0.046526324 0.11070789 -0.027572371 -0.065589264 0.1983413
-0.026275586 0.18595979 -0.021481887 0.039314277 -0.15846695 0.10382714 -0.14667428 -0.01913855
-0.20651564 0.13745183 0.04453283 -0.0034678744 0.0060071694 0.14173761 0.21670507 -0.078769065
-0.013344657 0.04055436 -0.13312396 0.16741398 0.19595136 -0.21252148 0.073983826 -0.065506995
-0.016698137 0.14613466 -0.15635721 -0.16661768 0.17048377 -0.18612657 0.13298135 0.18009831
-0.21492094 -0.08801156 0.049219344 -0.200825 -0.039057046 -0.16836928 -0.07495751 -0.07301234
-0.19975367 0.07460621 0.18697542 -0.14930813 -0.21528943 -0.18843293 -0.050343204 0.05020353
0.10202867 0.013736549 -0.10437414 -0.013546858 -0.19783616 0.13452819 -0.050436236 -0.13260663
0.07059447 -0.064325206 -0.12233221 -0.0053146654 0.062318 -0.2008121 -0.107740864 -0.037387986
-0.1537069 -0.022695826 0.042627744 -0.19261658 -0.09325012 -0.01835615 -0.14293382 -0.08240091
-0.016596567 0.15256031 0.0067643924 -0.08928466 0.15995489 0.11375722 -0.21613997 -0.06699128
