deep_learning/models/GCNLinkPrediction52.pth (torch, 87104 bytes, 6 tensors)

bias f4 [100]
0.11910047 -0.115311414 -0.0812964 -0.015061717 0.11467353 -0.019729134 -0.03671792 -0.0066808015
-0.15857404 0.0905228 -0.08141905 0.09273833 -0.036306553 0.06701126 -0.040844865 -0.003760688
0.058313303 0.051980123 0.0811109 -0.14864059 0.042421404 0.12788528 -0.053126484 0.15613458
0.031075105 0.10729858 -0.14415245 -0.028712492 -0.09310372 -0.049618006 0.027929658 0.04523673
0.039228167 0.052329004 0.15515515 -0.15548867 0.05599151 0.02483984 0.059117906 -0.0063233636
0.0031178677 0.053786453 -0.05576431 -0.054172426 -0.13384293 -0.15202442 -0.056952436 0.056450263
-0.006520845 -0.081628434 -0.10427864 -0.04396902 -0.08689017 -0.08591735 0.13915598 -0.018119315
-0.008453561 -0.11045261 0.04173114 -0.03866209 -0.07509329 0.07580473 -0.07645313 -0.10885003
0.15506414 0.006926461 0.07066943 0.0696098 0.0083892215 -0.055841014 0.12459599 0.092153095
-0.01705192 0.05030799 -0.13736261 0.13482158 0.07211071 0.039954457 0.003686646 -0.0018182918
-0.039464206 0.075503424 0.008549587 0.107598566 -0.17892373 0.057830036 0.07936203 -0.024289045
0.06283196 0.10540095 -0.07485045 -0.015967175 0.14764212 -0.12913255 0.08569016 0.026382834
-0.07408952 0.05748704 -0.08898159 -0.039374594
00000000: f2ea f33d 6428 ecbd ba7e a6bd 6bc5 76bc
00000010: f5d9 ea3d fe9e a1bc 8865 16bd a0ea dabb
00000020: 3c61 22be 0564 b93d 08bf a6bd 98ed bd3d
00000030: 2eb6 14bd 333d 893d f24c 27bd e075 76bb
00000040: eed9 6e3d 1ce9 543d 791d a63d 3d35 18be
00000050: 11c2 2d3d 5cf4 023e 289b 59bd bee1 1f3e
00000060: 3891 fe3c 5cbf db3d b39c 13be 7636 ebbc
00000070: 2aad bebd 403c 4bbd bdcc e43c 264a 393d
00000080: b7ad 203d f056 563d fee0 1e3e 6c38 1fbe
00000090: 5b57 653d ec7c cb3c 9e25 723d 3834 cfbb
000000a0: 2455 4c3b 2f4f 5c3d 1e69 64bd e8e3 5dbd
000000b0: 1f0e 09be 4aac 1bbe f546 69bd 6438 673d
000000c0: d0ac d5bb cf2c a7bd 0a90 d5bd dc18 34bd
000000d0: 79f3 b1bd 70f5 afbd e87e 0e3e f56e 94bc
000000e0: ce80 0abc fa34 e2bd 46ee 2a3d 245c 1ebd
000000f0: 83ca 99bd 833f 9b3d 7593 9cbd c4ec debd
00000100: 22c9 1e3e 5ef7 e23b 22bb 903d 958f 8e3d
00000110: f272 093c 8cb9 64bd 2f2c ff3d c3ba bc3d
00000120: 78b0 8bbc c00f 4e3d c9a8 0cbe ab0e 0a3e
00000130: c8ae 933d 49a7 233d a89b 713b c053 eeba
00000140: 38a5 21bd 8aa1 9a3d 9113 0c3c a35c dc3d
00000150: c837 37be 30df 6c3d 8f88 a23d d2f9 c6bc
00000160: 0bae 803d 74dc d73d 314b 99bd 98cd 82bc
00000170: 7f2f 173e 533b 04be 537e af3d d020 d83c
00000180: 3fbc 97bd 8877 6b3d fb3b b6bd 4147 21bd

weight f4 [100, 18]
0.07400681 -0.0034346357 -0.071381934 0.08129257 0.075184084 0.021814711 0.069355324 0.36495355
0.004311979 0.059021838 -0.002658872 -0.0792585 -0.078429475 -0.07592576 0.028643984 0.02394225
0.076315 -0.046573292 -0.022397105 -0.019482423 -0.07968686 0.0077180862 0.07838184 -0.038565945
0.01487064 0.052008536 0.05910622 -0.06513707 0.008984232 0.07984381 -0.02009964 -0.07439635
-0.079782434 -0.010277439 0.0027940776 0.0076348875 -0.073727086 -0.047019474 -0.011682985 0.06651338
0.080381304 -0.0012224484 -0.0807276 -0.03550706 0.08333073 -0.011938471 -0.05967324 -0.080671
0.020954462 -0.04382317 -0.06707764 0.07469298 0.07882853 0.025216214 -0.07781421 0.0045315158
-0.012442015 -0.052354172 -0.08089251 -0.027250296 0.025015349 -0.07358123 0.08176465 0.043684192
-0.079684995 0.010844451 0.06797385 -0.02152636 0.035948005 -0.07162071 -0.021948457 0.019038102
0.06740355 -0.080714956 0.021205025 0.08010204 -0.024521582 0.019679528 0.009103088 0.027362144
0.08025261 0.11520311 0.020955997 0.0797845 -0.0025470015 0.00082117785 -0.034295224 0.03111162
0.018234931 0.07607275 0.010370808 0.025889542 0.041485272 -0.077550404 -0.07396041 0.027766334
0.017347248 -0.016175466 -0.070880696 0.0053866953 -0.0037458278 0.026974509 -0.080886744 -0.02481198
-0.078141 0.07581791 -0.06916343 -0.07251154 0.028144747 0.063835144 -0.015491808 -0.07623335
0.06841488 -9.6263364e-05 0.08068412 -0.0064676628 -4.73205e-05 0.008097243 0.012494562 0.0027922997
-0.06475538 -0.0808008 0.024190627 0.001674423 0.07940554 -0.003519712 -0.07203942 0.023591174
-0.0022412688 -0.009077223 0.08017018 -0.052736565 -0.023271859 0.06126305 0.07656012 -0.0616526
0.0040841484 -0.004920478 0.00611261 -0.0119467415 0.004083446 0.049816195 0.07874038 -0.016997857
0.0074963234 0.077516094 0.06478705 -0.039142895 -0.005481112 -0.028595258 0.008549562 -0.0049117133
-0.075128034 -0.07812896 0.03240509 -0.08071566 -0.06903742 0.024386482 0.02382283 0.08104447
0.025286678 -0.021055114 -0.0079199225 -0.008756433 0.07855551 -0.005018972 -0.08119007 -0.08957846
0.06760386 -0.3438782 -0.026907394 0.1603162 -0.009247171 -0.07545917 0.0036338791 -0.07252383
0.07604847 0.0017341841 -0.009580965 0.013353661 -0.027528951 0.07224497 0.07508689 0.056073476
0.007847167 -0.043523178 -0.081172824 0.037341163 -0.049080048 -0.0028449227 0.024590097 0.0031373464
-0.07120355 -0.07173526 -0.069912344 -0.021190237 0.017024305 0.08050683 0.05927985 -0.0023043323
0.08130142 0.019838447 0.08111596 0.08143092 0.02177588 0.2829963 -0.05434661 0.024353385
-0.001240667 0.022928283 -0.08051074 -0.06522657 -0.07004293 -0.040153034 -0.08025348 -0.080482036
0.0058581894 -0.08116976 0.0291248 -0.018270224 0.08061891 0.053902764 -0.0115514975 0.03061495
-0.01584762 -0.02391528 -0.08112545 0.080623664 0.0803585 0.079562955 -0.010283395 0.07966155
0.06924981 0.07306473 -0.048803765 -0.07890588 -0.07912885 -0.019506315 -0.055365354 -0.09982778
0.028383847 -0.33478826 0.054534517 0.14240947 -0.02326861 0.073518276 -0.046428073 -0.073477775
-0.008887194 0.06734466 -0.077984735 0.08033754 0.08107913 -0.08072697 -0.077602185 0.029796487
00000000: e290 973d a017 61bb b130 92bd b87c a63d
00000010: 1dfa 993d c4b4 b23c 2a0a 8e3d 31db ba3e
00000020: 804b 8d3b e2c0 713d 7840 2ebb 4852 a2bd
00000030: a29f a0bd f77e 9bbd caa6 ea3c 8a22 c43c
00000040: 0a4b 9c3d a3c3 3ebd 227a b7bc 9a99 9fbc
00000050: dd32 a3bd 00e8 fc3b a886 a03d 53f7 1dbd
00000060: fca3 733c e706 553d 5d19 723d 9666 85bd
00000070: 9a32 133c 2785 a33d 00a8 a4bc 1d5d 98bd
00000080: f964 a3bd b462 28bc d81c 373b 142e fa3b
00000090: 3afe 96bd 7e97 40bd fe69 3fbc 2b38 883d
000000a0: f49e a43d 903a a0ba 8354 a5bd da6f 11bd
000000b0: 4da9 aa3d 9499 43bc ed6b 74bd d636 a5bd
000000c0: b1a8 ab3c ed7f 33bd 0060 89bd a2f8 983d
000000d0: da70 a13d 3c92 ce3c 0e5d 9fbd 1c7d 943b
000000e0: 98d9 4bbc 5471 56bd f9aa a5bd 033c dfbc
000000f0: fdec cc3c c2b1 96bd 3a74 a73d 32ee 323d
00000100: e331 a3bd edac 313c e035 8b3d 0d58 b0bc
00000110: 373e 133d e1ad 92bd 40cd b3bc cbf5 9b3c
00000120: df0a 8a3d e24d a5bd 29b6 ad3c 8a0c a43d
00000130: 7ce1 c8bc f636 a13c 1e25 153c 9326 e03c
00000140: 7b5b a43d 9cef eb3d e9ab ab3c 0e66 a33d
00000150: 98eb 26bb 5044 573a 2679 0cbd ccdd fe3c
00000160: 6c61 953c 08cc 9b3d 52ea 293c 4e16 d43c
00000170: 76ec 293d bfd2 9ebd 8e78 97bd 3976 e33c
00000180: d11b 8e3c 6982 84bc e629 91bd e082 b03b
00000190: 907c 75bb a5f9 dc3c f3a7 a5bd 7e42 cbbc
000001a0: 6308 a0bd 6c46 9b3d 8ea5 8dbd ee80 94bd
000001b0: d08f e63c 00bc 823d 5ad1 7dbc 3b20 9cbd
000001c0: 1a1d 8c3d 00e1 c9b8 b73d a53d b0ee d3bb
000001d0: 007a 46b8 4caa 043c feb5 4c3c 04ff 363b
000001e0: 789e 84bd e47a a5bd 6c2b c63c 5078 db3a
000001f0: 5f9f a23d f8aa 66bb 6789 93bd 4742 c13c
00000200: 40e2 12bb a2b8 14bc 4330 a43d 4c02 58bd
00000210: a0a4 bebc f7ee 7a3d 8dcb 9c3d 7087 7cbd
00000220: 52d4 853b f63b a1bb 4a4c c83b 44bc 43bc
00000230: 6ece 853b 110c 4c3d a342 a13d 173f 8bbc
00000240: b8a3 f53b c2c0 9e3d 13af 843d 4d54 20bd
00000250: e69a b3bb 9a40 eabc 7613 0c3c 70f2 a0bb
00000260: badc 99bd 1402 a0bd 33bb 043d 404e a5bd
00000270: 7e63 8dbd 29c6 c73c 1828 c33c a5fa a53d
00000280: 0226 cf3c c67b acbc 90c2 01bc 2477 0fbc
00000290: b6e1 a03d 3076 a4bb fb46 a6bd e974 b7bd
000002a0: e473 8a3d ce10 b0be e56c dcbc ee29 243e
000002b0: 7281 17bc 568a 9abd 6026 6e3b 6087 94bd
000002c0: 4dbf 9b3d 904d e33a 7bf9 1cbc 50c9 5a3c
000002d0: 6584 e1bc 2cf5 933d 28c7 993d 4dad 653d
000002e0: 6791 003c 5c45 32bd f03d a6bd 0cf3 183d
000002f0: 2908 49bd e271 3abb 2c71 c93c f09b 4d3b
00000300: 2bd3 91bd f0e9 92bd 342e 8fbd 2697 adbc
00000310: 8e76 8b3c c4e0 a43d 6ecf 723d 4804 17bb
00000320: 5c81 a63d 3d84 a23c 2020 a63d 41c5 a63d
00000330: 5563 b23c e4e4 903e 8d9a 5ebd c080 c73c
00000340: e09d a2ba 18d4 bb3c d1e2 a4bd 8295 85bd
00000350: ab72 8fbd 8277 24bd f05b a4bd c4d3 a4bd
00000360: 0ef6 bf3b 553c a6bd 2297 ee3c 70ab 95bc
00000370: 871b a53d 25c9 5c3d 7e42 3dbc 34cc fa3c
00000380: ded2 81bc fae9 c3bc 1a25 a6bd 051e a53d
00000390: ff92 a43d e7f1 a23d af7b 28bc 9825 a33d
000003a0: d8d2 8d3d f6a2 953d 75e6 47bd 6899 a1bd
000003b0: 4e0e a2bd b5cb 9fbc c8c6 62bd 8272 ccbd
000003c0: 3e85 e83c 5e69 abbe 965f 5f3d cad3 113e
000003d0: d09d bebc c090 963d 5d2b 3ebd 847b 96bd
000003e0: 989b 11bc ffeb 893d 76b6 9fbd 0288 a43d
000003f0: d10c a63d 2f54 a5bd e5ed 9ebd c317 f43c

bias f4 [100]
-0.15459159 -0.02552867 0.03422401 -0.09613965 0.0038309381 -0.017173892 0.033682074 0.026371846
-0.09437173 -0.0024281796 0.0011940447 -0.1576078 -0.008497898 -0.08612016 0.02040597 -0.00023686048
-0.13867311 -0.0016116444 -0.16739428 -0.15868573 -0.018271344 0.012013441 -0.031936772 0.011217482
-0.002577966 -0.13605957 -0.16119462 -0.16571474 -0.012909679 -0.06011766 0.00059839897 -0.016572498
-0.08976549 -0.06475311 -0.15982759 -0.03195016 -0.018055249 -0.028477497 -0.009223237 -0.075175
-0.15992853 -0.058819775 -0.018860944 -0.016290404 -0.15928109 0.011825756 -0.04678708 -0.15185924
-0.02122184 0.019592717 -0.01945196 -0.11853756 -0.037411578 -0.15511808 0.023359537 0.010855023
-0.05493323 -0.07458952 -0.020077327 -0.019549932 -0.020657714 0.0030285465 -0.051208694 -0.02969095
-0.09781363 -0.15404218 0.005524637 0.005653277 -0.011787271 -0.16614625 -0.12690115 0.024626493
-0.014793506 -0.037020147 -0.1636647 -0.0068708733 -0.14628103 -0.024763936 -0.04145935 -0.04330216
-0.028464995 -0.022132937 -0.016435035 -0.15606129 -0.04779938 -0.03576167 -0.049560294 -0.07443406
-0.04622188 -0.096044526 -0.061446942 -0.031299036 -0.041397944 -0.040077858 -0.01820297 -0.15397234
-0.009541713 0.013801003 -0.0023178551 -0.15882392
00000000: 424d 1ebe 8021 d1bc 7a2e 0c3d dde4 c4bd
00000010: 7a10 7b3b 43b0 8cbc 37f6 093d c509 d83c
00000020: f745 c1bd 1822 1fbb 7e81 9c3a f063 21be
00000030: c43a 0bbc c45f b0bd 6c2a a73c c05d 78b9
00000040: 5300 0ebe d03d d3ba 6869 2bbe 837e 22be
00000050: c9ad 95bc 06d4 443c 22d0 02bd 88c9 373c
00000060: 18f3 28bb 3353 0bbe 3410 25be 20b1 29be
00000070: 1e83 53bc ef3d 76bd e0dd 1c3a 0cc3 87bc
00000080: f8d6 b7bd 479d 84bd d8a9 23be 2cde 02bd
00000090: 9ae8 93bc a449 e9bc 0f1d 17bc 5af5 99bd
000000a0: 4ec4 23be 01ed 70bd 4482 9abc 7473 85bc
000000b0: 951a 23be d1c0 413c cfa3 3fbd fd80 1bbe
000000c0: 6dd9 adbc e880 a03c b859 9fbc d2c3 f2bd
000000d0: e23c 19bd 46d7 1ebe 805c bf3c 44d9 313c
000000e0: ab01 61bd 64c2 98bd 3579 a4bc 2e27 a0bc
000000f0: 5e3a a9bc 947a 463b 35c0 51bd 6f3a f3bc
00000100: 8352 c8bd 3cbd 1dbe 0408 b53b 203f b93b
00000110: 661f 41bc 3e22 2abe 60f2 01be 80bd c93c
00000120: 7660 72bc 70a2 17bd b897 27be 1025 e1bb
00000130: b2ca 15be bddd cabc 48d1 29bd 9b5d 31bd
00000140: 6c2f e9bc 2250 b5bc c4a2 86bc 88ce 1fbe
00000150: 48c9 43bd d47a 12bd bcff 4abd e270 98bd
00000160: 2753 3dbd feb2 c4bd caaf 7bbd 6b33 00bd
00000170: e490 29bd ae28 24bd 651e 95bc edaa 1dbe
00000180: d854 1cbc 9a1d 623c 28e7 17bb bda2 22be

weight f4 [100, 100]
-0.046334498 0.020909654 -0.010063142 -0.07179465 0.034226056 -0.023182021 -0.05174648 0.06341265
-0.073020004 0.0017617512 -0.051053863 0.019910634 -0.064938515 0.024939109 0.070185274 -0.0805857
-0.07489679 -0.07340636 -0.07834681 -0.060100496 -0.01835816 -0.024063224 -0.07316045 -0.0039071497
-0.046970055 -0.021524526 -0.060086068 -0.022372928 -0.0358816 0.051589284 0.013442012 -0.07255584
0.057017975 0.02469464 0.06491011 -0.061504673 -0.031298947 0.0633352 0.017769206 0.042931244
0.036828507 0.06141358 0.019906038 0.063435726 0.04251286 -0.071347564 0.044945374 0.007365886
0.053244293 0.080381356 -0.044789888 0.008066802 -0.0374477 -0.013320607 -0.061098482 -0.047673512
0.038017165 -0.073039934 -0.05284333 0.018902801 0.06137964 0.02558282 0.007422261 0.00076524913
0.0800653 0.025169294 -0.02268469 0.044343345 0.015454592 -0.0709641 -0.055392727 -0.060880836
-0.035465363 -0.010430634 -0.07242327 -0.07287781 0.046409868 0.035270628 0.018800477 0.035952292
0.033970952 -0.038884383 0.037739344 0.039218403 -0.050809868 -0.073519334 -0.07702474 0.06487611
0.0038864315 0.06528733 -0.014098974 -0.04487596 0.0800019 -0.074097805 0.021289682 0.020370966
-0.037269313 0.06407422 -0.06888352 0.04366892 0.057905026 0.06527572 -0.010143174 0.06244717
-0.06875938 -0.07446221 0.07877815 -0.06530647 0.0375478 0.020360447 -0.022859925 -0.03593333
-0.015633766 0.05294711 0.021767357 0.07377767 0.037439823 0.05784843 -0.042154126 -0.008228762
-0.037673064 -0.01906003 -0.023059182 0.053021446 -0.029977445 -0.068884484 0.009501661 -0.01672136
-0.08072268 -0.0130213965 0.024548978 0.0008855229 -0.016820097 -0.079934634 -0.0019789925 -0.007668158
0.00074476004 0.027232446 -0.009483911 -0.020209199 0.059165362 -0.08075256 0.004576958 0.078928135
0.06988674 0.021146456 -0.048879374 0.0196566 -0.04321175 -0.07795084 0.0031002194 0.072195664
0.06468719 0.010294486 -0.048901316 0.005085906 -0.021595782 -0.020762252 -0.00381237 -0.07116375
-0.03490525 0.054644544 -0.01887336 0.028199967 -0.0068122093 -0.0771081 -0.04011292 -0.034150366
0.017867468 -0.040988363 0.028361347 0.08087796 0.030147383 -0.023957223 0.034617357 0.07296324
0.077782705 -0.045545083 -0.066629365 0.08002694 0.024184436 -0.068875164 0.0069532106 0.011282656
-0.012716853 0.025098873 0.021916052 -0.023475341 -0.00023354124 -0.011854365 -0.07395846 -0.014198395
-0.058097124 -0.01528788 -0.056506947 -0.045382403 -0.027805846 0.036544755 -0.020416271 -0.036238488
0.073779166 -0.038067598 0.028040558 0.012735628 0.012875726 0.077910446 -0.015745657 0.008574415
-0.0395291 -0.004580999 -0.0002628276 0.031194154 -0.010468318 -0.09627439 0.01181378 0.010475099
-0.09708391 0.049333714 0.065308034 0.007561463 -0.09126909 -0.051649325 -0.020217624 -0.040651802
-0.0961476 0.040134307 0.06963616 0.035389066 0.05235219 -0.035705417 -0.082812 -0.025265
-0.009307405 -0.07806509 0.11214192 -0.005668455 0.09139471 0.061584983 -0.027233427 -0.077540785
-0.057287596 0.070089534 0.027700644 0.009792452 -0.011575114 0.055522498 0.035548046 -0.09610179
0.07534265 -0.02542723 0.025237566 -0.014605274 0.02849057 -0.025108572 0.10858514 -0.023428446
00000000: 3ec9 3dbd b94a ab3c e0df 24bc 1309 93bd
00000010: 9f30 0c3d 39e8 bdbc 1ef4 53bd 7ede 813d
00000020: 838b 95bd 90ea e63a db1d 51bd a01b a33c
00000030: 7cfe 84bd 1a4d cc3c 4cbd 8f3d 1e0a a5bd
00000040: 7d63 99bd 1356 96bd 4b74 a0bd f02b 76bd
00000050: da63 96bc 3d20 c5bc 25d5 95bd 8c07 80bb
00000060: ac63 40bd 3454 b0bc cf1c 76bd 6e47 b7bc
00000070: 96f8 12bd 494f 533d e23b 5c3c 2898 94bd
00000080: ae8b 693d 6a4c ca3c 97ef 843d 53ec 7bbd
00000090: 5333 00bd e3b5 813d ba90 913c acd8 2f3d
000000a0: 7dd9 163d ce8c 7b3d fd11 a33c 97ea 813d
000000b0: f721 2e3d ac1e 92bd a418 383d 885d f13b
000000c0: b016 5a3d fb9e a43d 9a75 37bd 9f2a 043c
000000d0: c262 19bd ad3e 5abc 6742 7abd 4d45 43bd
000000e0: e3b7 1b3d f695 95bd 3f72 58bd 0cda 9a3c
000000f0: 3869 7b3d 1093 d13c 7036 f33b 009b 483a
00000100: 47f9 a33d d62f ce3c 3ed5 b9bc 5ea1 353d
00000110: 4235 7d3c a055 91bd 7ce3 62bd 2f5e 79bd
00000120: 2144 11bd 40e5 2abc a752 94bd f640 95bd
00000130: 4618 3e3d ef77 103d 7503 9a3c b642 133d
00000140: 2025 0b3d 3b45 1fbd 9294 1a3d 7aa3 203d
00000150: 021e 50bd 4e91 96bd 26bf 9dbd c4dd 843d
00000160: 80b3 7e3b 5db5 853d 62ff 66bc dbcf 37bd
00000170: 09d8 a33d 97c0 97bd b367 ae3c 03e1 a63c
00000180: b5a7 18bd 5839 833d ce12 8dbd 2ede 323d
00000190: d22d 6d3d 47af 853d 8e2f 26bc 9bc8 7f3d
000001a0: b8d1 8cbd a57f 98bd 7056 a13d 66bf 85bd
000001b0: b9cb 193d f4ca a63c bd44 bbbc d42e 13bd
000001c0: 6212 80bc 12df 583d 7551 b23c bf18 973d
000001d0: 805a 193d 7af2 6c3d cea9 2cbd eed1 06bc
000001e0: 124f 1abd c823 9cbc 9ce6 bcbc 042d 593d
000001f0: 4293 f5bc 4f13 8dbd dbac 1b3c 3cfb 88bc
00000200: ef51 a5bd b257 55bc f01a c93c 7022 683a
00000210: 4dca 89bc c5b4 a3bd fcb1 01bb 2c45 fbbb
00000220: 003c 433a 9416 df3c 6862 1bbc c38d a5bc
00000230: 6157 723d 9961 a5bd 4efa 953b 13a5 a13d
00000240: c720 8f3d 553b ad3c bd35 48bd e106 a13c
00000250: cefe 30bd b1a4 9fbd 0d2d 4b3b 52db 933d
00000260: b87a 843d 34aa 283c bf4c 48bd aca7 a63b
00000270: a3e9 b0bc 9915 aabc f4d8 79bb 4dbe 91bd
00000280: cff8 0ebd f5d2 5f3d 4e9c 9abc 9e03 e73c
00000290: f438 dfbb daea 9dbd 724d 24bd 41e1 0bbd
000002a0: cc5e 923c 6ae3 27bd 0e56 e83c 58a3 a53d
000002b0: a5f7 f63c f041 c4bc eeca 0d3d c06d 953d
000002c0: 8a4c 9f3d 7b8d 3abd fa74 88bd 2ae5 a33d
000002d0: 701e c63c 6c0e 8dbd c2d7 e33b e4da 383c
000002e0: 595a 50bc 279c cd3c 4b89 b33c 5c4f c0bc
000002f0: c0e2 74b9 cf38 42bc 8877 97bd 63a0 68bc
00000300: 40f7 6dbd 047a 7abc d473 67bd e6e2 39bd
00000310: 16c9 e3bc f4af 153d 0640 a7bc cf6e 14bd
00000320: 8819 973d c5ec 1bbd 50b5 e53c 18a9 503c
00000330: b6f4 523c 838f 9f3d 09fd 80bc b47b 0c3c
00000340: 44e9 21bd 341c 96bb 20cc 89b9 e28a ff3c
00000350: 4f83 2bbc 822b c5bd 968e 413c c09f 2b3c
00000360: eed3 c6bd 2612 4a3d 38c0 853d 26c6 f73b
00000370: 4aeb babd 3e8e 53bd 6e9f a5bc 8182 26bd
00000380: 08e9 c4bd df63 243d 679d 8e3d 20f4 103d
00000390: 406f 563d d83f 12bd 5699 a9bd 8cf8 cebc
000003a0: 167e 18bc 97e0 9fbd aaaa e53d 72be b9bb
000003b0: 262d bb3d 8940 7c3d a318 dfbc b4cd 9ebd
000003c0: 66a6 6abd 1a8b 8f3d 76ec e23c 8570 203c
000003d0: 8ca5 3dbc 8f6b 633d d49a 113d 04d1 c4bd
000003e0: 3f4d 9a3d c44c d0bc 03bf ce3c f64a 6fbc
000003f0: 0e65 e93c 7eb0 cdbc e361 de3d 03ed bfbc

bias f4 [25]
0.0 0.0 0.0 0.0 0.0 0.0 0.0 0.0
0.0 0.0 0.0 0.0 0.0 0.0 0.0 0.0
0.0 0.0 0.0 0.0 0.0 0.0 0.0 0.0
0.0
00000000: 0000 0000 0000 0000 0000 0000 0000 0000
00000010: 0000 0000 0000 0000 0000 0000 0000 0000
00000020: 0000 0000 0000 0000 0000 0000 0000 0000
00000030: 0000 0000 0000 0000 0000 0000 0000 0000
00000040: 0000 0000 0000 0000 0000 0000 0000 0000
00000050: 0000 0000 0000 0000 0000 0000 0000 0000
00000060: 0000 0000

weight f4 [25, 100]
-0.03244513 0.16113971 -0.11001716 0.11539988 0.20919278 0.16457514 0.041536897 0.12646008
-0.06557741 -0.10205081 0.17722867 -0.095607296 -0.019568523 0.090804376 0.1677581 -0.20886566
0.024526712 -0.18133672 0.022018392 -0.079030715 -0.15556723 -0.018504811 -0.1595408 0.074424244
-0.15464377 -0.21034336 0.21608773 -0.12662412 0.0613474 -0.12842724 0.0033396902 -0.13591725
0.0028258816 -0.037979364 -0.05011366 0.16091648 -0.035694428 0.027039757 -0.1368709 -0.14443086
0.088018715 0.16562995 0.034628365 0.20681305 0.16122133 -0.15995152 0.21147893 0.14401244
0.016915094 -0.18375272 0.044355206 0.11652727 -0.030033967 -0.012203194 0.11631191 0.19916114
0.092496656 0.19425865 0.15303321 0.03622299 -0.14520697 0.03880355 0.10469834 0.13962848
0.073516876 -0.009240143 -0.14699194 0.014350779 0.16139475 -0.120687306 0.109787375 -0.19405502
-0.1247381 -0.01675583 -0.21833001 -0.011267144 0.10038429 -0.014326307 0.1853968 -0.19835918
-0.21587051 0.070803404 0.01901734 0.12137937 0.1262215 0.1909454 -0.20025045 -0.20283464
-0.11245271 -0.052254062 0.12666272 0.06891522 0.13810694 0.17964256 0.092236556 0.009186916
-0.17111798 -0.036053125 0.07705516 -0.102914646 -0.04163497 -0.052911542 0.21595897 -0.12901044
0.17662406 -0.1581147 0.08189929 -0.080674805 0.049034175 0.146618 0.12209726 0.19076128
0.027189594 -0.08123672 -0.1186999 0.06497122 0.13748246 0.12003134 0.1332955 0.07562584
-0.19944698 0.012843332 -0.088235624 -0.020401696 0.116297595 -0.0865265 0.1973604 -0.21191064
0.09487152 -0.19392024 -0.196224 -0.032105524 -0.038635798 0.08663666 -0.07171276 0.1723495
-0.1314045 0.11557578 0.10589611 0.21365385 0.042980827 -0.16712575 -0.19781382 0.04279325
0.1707593 0.0730003 0.073949955 0.104140446 0.059381645 0.12568146 -0.20405649 0.037944157
-0.2129973 0.20129141 0.2112034 0.16921355 -0.1362171 -0.14176048 0.14122815 -0.11238992
-0.122901805 -0.07761151 0.08681303 -0.073180564 0.1546741 -0.10627677 -0.15484451 -0.018891845
-0.15210265 0.008400859 -0.10423141 0.045002684 0.14834704 -0.05605705 0.20858346 -0.07813969
-0.14359696 0.053181387 -0.098947175 -0.14926086 -0.1341938 -0.18851222 0.18325761 0.100654654
0.1690312 0.04171557 -0.14487597 -0.12105172 -0.15650553 -0.042161394 -0.18799254 -0.051476467
0.015281814 -0.17378308 -0.0999195 0.133362 0.045038387 0.14736015 0.14375766 -0.21487857
-0.19048454 -0.19314559 0.029590257 -0.046735447 -0.10874445 -0.16201887 0.058266584 -0.049354766
0.17339852 0.14456694 -0.21873379 0.17678654 0.101984814 -0.089528985 0.1488879 -0.16537629
-0.09754485 0.19454002 -0.016374698 -0.130906 0.11601759 0.108631 -0.117954746 -0.14920865
0.16609523 0.0006007796 0.034189537 -0.12014501 -0.20759209 -0.1912931 -0.042157605 -0.10694538
0.141943 0.03797398 -0.020362675 0.08748553 -0.1002755 -0.1700288 -0.029286511 0.12699251
0.19258122 -0.12877436 -0.056335278 -0.07980755 0.21669875 -0.20842631 -0.20828006 0.048164174
0.003537817 0.026370341 0.09177634 0.09545219 -0.033914965 0.024492497 0.04705327 -0.086352244
00000000: 2fe5 04bd cf01 253e ad50 e1bd c656 ec3d
00000010: a236 563e 6386 283e 9822 2a3d c07e 013e
00000020: 734d 86bd 0400 d1bd 6f7b 353e c2cd c3bd
00000030: 2b4e a0bc a5f7 b93d c8c8 2b3e e1e0 55be
00000040: 3eec c83c 55b0 39be ea5f b43c dbda a1bd
00000050: 044d 1fbe 6797 97bc aa5e 23be bd6b 983d
00000060: f05a 1ebe 4064 57be 1a46 5d3e c1a9 01be
00000070: 6947 7b3d 6e82 03be b4de 5a3b e42d 0bbe
00000080: 6d32 393b 4090 1bbd fb43 4dbd 4ac7 243e
00000090: 5234 12bd 7b82 dd3c e327 0cbe afe5 13be
000000a0: 2843 b43d e69a 293e 79d6 0d3d cdc6 533e
000000b0: 3417 253e 55ca 23be ef8d 583e ff77 133e
000000c0: 8691 8a3c ac29 3cbe cead 353d d9a5 ee3d
000000d0: cb09 f6bc e8ef 47bc f034 ee3d e6f0 4b3e
000000e0: e36e bd3d bdeb 463e bdb4 1c3e 8f5e 143d
000000f0: 23b1 14be 79f0 1e3d 156c d63d c5fa 0e3e
00000100: 0490 963d f863 17bc 0e85 16be 881f 6b3c
00000110: aa44 253e e82a f7bd 34d8 e03d 5cb6 46be
00000120: b076 ffbd 8643 89bc e791 5fbe d499 38bc
00000130: 4796 cd3d e3b8 6abc a9d8 3d3e ab1e 4bbe
00000140: 290d 5dbe 6001 913d 41ca 9b3c bf95 f83d
00000150: 3540 013e 3187 433e 740e 4dbe e2b3 4fbe
00000160: 9b4d e6bd 5b08 56bd dfb3 013e 6c23 8d3d
00000170: e86b 0d3e 38f4 373e 85e6 bc3d b884 163c
00000180: 8d39 2fbe 71ac 13bd 19cf 9d3d eac4 d2bd
00000190: 6e89 2abd c6b9 58bd 5924 5d3e 501b 04be
000001a0: f0dc 343e d2e8 21be d1ba a73d d538 a5bd
000001b0: 0fd8 483d 0723 163e 210e fa3d ed56 433e
000001c0: b6bc de3c 705f a6bd ef18 f3bd a20f 853d
000001d0: 34c8 0c3e fed2 f53d 9e7e 083e b8e1 9a3d
000001e0: d43b 4cbe d76c 523c e1b4 b4bd 7521 a7bc
000001f0: 6f2d ee3d ce34 b1bd d818 4a3e 1aff 58be
00000200: 004c c23d 0793 46be f2ee 48be 1581 03bd
00000210: 9240 1ebd 906e b13d 24de 92bd 637c 303e
00000220: e78e 06be ffb2 ec3d 0fe0 d83d 13c8 5a3e
00000230: aa0c 303d 0323 2bbe b58f 4abe fa47 2f3d
00000240: 87db 2e3e 2e81 953d 1373 973d 9647 d53d
00000250: 2b3a 733d a4b2 003e 2ff4 50be 556b 1b3d
00000260: f71b 5abe 561f 4e3e b445 583e 5146 2d3e
00000270: 7f7c 0bbe a929 11be 1d9e 103e b02c e6bd
00000280: f1b3 fbbd c9f2 9ebd 08cb b13d b1df 95bd
00000290: e362 1e3e a3a7 d9bd 8f8f 1ebe 12c3 9abc
000002a0: ccc0 1bbe c2a3 093c 4777 d5bd bc54 383d
000002b0: 49e8 173e 149c 65bd e796 553e b407 a0bd
000002c0: 150b 13be bad4 593d d1a4 cabd d7d7 18be
000002d0: 196a 09be 5909 41be e2a7 3b3e 0724 ce3d
000002e0: 8416 2d3e f2dd 2a3d 5e5a 14be f7e9 f7bd
000002f0: fc42 20be 6db1 2cbd 1e81 40be fdd8 52bd
00000300: 9360 7a3c 31f4 31be 98a2 ccbd 0c90 083e
00000310: 2c7a 383d 94e5 163e 3535 133e 2109 5cbe
00000320: 610e 43be f5c7 45be 4467 f23c ab6d 3fbd
00000330: 69b5 debd 46e8 25be f1a8 6e3d 3928 4abd
00000340: 628f 313e 5b09 143e c0fb 5fbe 8807 353e
00000350: 6add d03d f95a b7bd 1276 183e 6758 29be
00000360: 98c5 c7bd 8035 473e 3b24 86bc 390c 06be
00000370: a19a ed3d ee79 de3d 4292 f1bd 27ca 18be
00000380: de14 2a3e a37d 1d3a 540a 0c3d 960e f6bd
00000390: 0593 54be 57e2 43be 74ad 2cbd 2e06 dbbd
000003a0: 8159 113e 9b8a 1b3d a0cf a6bc 9d2b b33d
000003b0: 3e5d cdbd 081c 2ebe 44ea efbc 530a 023e
000003c0: 0334 453e 6ddd 03be d2bf 66bd 2472 a3bd
000003d0: 47e6 5d3e b56d 55be 5e47 55be cc47 453d
000003e0: b8da 673b 9d06 d83c 3cf5 bb3d 707c c33d
000003f0: 6bea 0abd 7da4 c83c eeba 403d 72d9 b0bd
