deep_learning/models/GCNLinkPrediction135.pth (torch, 812892 bytes, 8 tensors)

bias f4 [300]
000000 4a af c8 bc 8e 4f 2d bc 2e fd b4 bc 65 81 b7 bc
       -0.024497647 -0.010578049 -0.022093382 -0.022400567
000010 86 0c 45 3c 82 66 b7 bc 30 66 95 3c 3f ef 9f bc
       0.012026912 -0.022387747 0.018237203 -0.019523261
000020 a0 cc 5c 3a 41 3f 4f 3d 96 20 dd 3c 11 fd d7 3c
       0.00084228255 0.050597433 0.026993077 0.026365789
000030 d0 85 ed 3c a9 97 94 3c e0 97 69 bc 69 b7 3c 3c
       0.02899447 0.018138723 -0.014257401 0.011518338
000040 8e be 88 3b 2f 7d 86 3b a2 75 c9 3b 03 be 5b bb
       0.0041731065 0.0041042785 0.006148056 -0.0033530004
000050 88 51 0f 3d 01 16 99 bc b2 31 6f 3c ef cc 65 bc
       0.034989864 -0.01868725 0.014599251 -0.014025911
000060 dd 68 87 bc 4a 74 b1 3b 68 e0 21 3d 88 3f aa 3b
       -0.016529495 0.005415474 0.03952065 0.005195562
000070 4b d9 19 3c 73 f2 90 3c 2c 71 14 3c bc 40 b6 bc
       0.009390186 0.017693734 0.009060185 -0.022247665
000080 6a 28 fb 3c 24 bc 08 bc 8f fa 7a 3c 7b 15 de ba
       0.03065892 -0.0083456375 0.015318527 -0.0016943658
000090 1e c6 1b 3d a7 ec 51 bb 7f 93 2a 3d 85 e9 cc 3c
       0.038030736 -0.0032031925 0.04164457 0.025013695
0000a0 4c e1 ab bc 38 8c 01 bd ee cb 05 bc 99 a1 6d 3d
       -0.020981453 -0.031627864 -0.008166296 0.05801544
0000b0 5d c0 e2 3b d3 d1 e3 3c c9 a2 18 3d eb 33 c5 3b
       0.006919904 0.027810013 0.03726462 0.006018152
0000c0 e8 9b 02 3c 4d 58 e8 3c 28 15 8f bc d5 6e 95 bc
       0.007971741 0.028362418 -0.017466143 -0.018241325
0000d0 eb 47 94 3b bc ff 7d bc 7f 39 be bc e0 a3 54 3d
       0.004525175 -0.015502866 -0.023220776 0.051914096
0000e0 14 d4 d7 bb 4c fa 0a 3c ac ae bd 3c f4 b0 7e 3b
       -0.006586561 0.008482527 0.02315458 0.0038862797
0000f0 c7 f4 47 3c 66 cc c4 3b 69 8d bc ba 08 d1 a0 ba
       0.012204356 0.0060058115 -0.0014385405 -0.0012269327
000100 59 ed b4 3c 86 69 4b 3d 49 a4 27 3d ac 07 af bb
       0.022085832 0.049661182 0.04092816 -0.0053414907
000110 d4 ed 5f 3c 78 63 d4 bb 98 cf 87 3b 99 fe 4a 3d
       0.0136675425 -0.006481584 0.00414462 0.04955921
000120 b2 2e 32 bc ca dd 53 3c b5 cb 79 bc b4 b4 5a 3d
       -0.010875391 0.012931297 -0.015246321 0.05339499
000130 ed 4d c1 bc f8 51 00 3d 8f c7 4a bd b0 27 3a 3d
       -0.023596728 0.03132817 -0.04950672 0.045448005
000140 65 9a 90 bc a2 fd 61 bc 29 6f bb bc e2 6d 36 bc
       -0.017651746 -0.013793381 -0.022880154 -0.011134597
000150 5d a0 54 3d c0 05 b8 b9 c3 d7 b1 bb 2e 0f 92 bb
       0.051910747 -0.000350995 -0.005427332 -0.004457376
000160 fc 5f 41 3a a2 c3 8b 3c 8b f1 57 3c 28 70 da 3c
       0.00073766685 0.017061058 0.013180147 0.026664808
000170 64 5b 20 bd a6 77 75 bb 62 67 0a 3d 4a 56 b7 3b
       -0.039149657 -0.003745535 0.03379 0.0055950033
000180 22 9c 3f 3d 38 3e 57 3d ce 82 da bb b5 49 9e bc
       0.04677976 0.05254957 -0.006668425 -0.019322256
000190 f8 f3 20 b9 58 f7 d9 b9 73 45 f2 bb 05 cf d6 bc
       -0.00015349675 -0.0004157375 -0.007393533 -0.026221761
0001a0 69 b4 67 3d eb cb 4f bc 20 4d 87 b8 b4 ea 57 bc
       0.056568537 -0.012682895 -6.451667e-05 -0.013178516
0001b0 81 90 63 3d bc 18 31 3d bb 95 26 3c c6 88 1e 3d
       0.05555773 0.04323648 0.010167534 0.038704656
0001c0 a1 78 44 3d 20 2a 67 3d e6 84 ce 3c f0 6f 37 3a
       0.047966603 0.056436658 0.025209855 0.0006997576
0001d0 8a 4d 60 3c 90 f0 78 bc b3 c0 6f 3d f3 ee 28 bc
       0.013690362 -0.015194073 0.05853338 -0.010310876
0001e0 5d 69 18 bd 28 a3 88 bc 59 02 e1 3b 21 3e 68 3d
       -0.037209857 -0.016679361 0.006866735 0.056699876
0001f0 d8 b2 38 bc 73 66 93 3b 90 07 68 39 72 07 f3 3c
       -0.011273108 0.004498297 0.00022128061 0.029666636
000200 2a 27 6d 3a e5 e7 03 3d 69 25 0a bd 78 78 86 3b
       0.00090466684 0.032203574 -0.033727083 0.0041037165
000210 96 b7 c4 bb 74 35 b8 bc d8 9c 5e 3c 12 1c 0b bc
       -0.0060033305 -0.022486426 0.013587199 -0.008490579
000220 c0 e9 c5 3c 6c 96 51 bc a8 b1 25 3d b5 5c 20 3d
       0.024159312 -0.012792211 0.04045263 0.039150912
000230 80 79 72 b9 bd be 73 ba 5d df a5 bb 66 bb 6d 3b
       -0.00023124181 -0.00092981366 -0.0050620274 0.0036275028
000240 8e cf 6a 3d 67 05 27 3c 6f ab cf 3c d1 09 05 3c
       0.057326846 0.010194159 0.0253503 0.008120016
000250 d2 50 65 3d d3 f1 3c bc 74 65 33 3d 08 27 69 3d
       0.05598528 -0.011532265 0.043797925 0.05692199
000260 0e 4c fa 39 ac 94 83 3c fd d2 ac 3b f1 33 28 bd
       0.0004774038 0.016062103 0.005274175 -0.04106516
000270 a5 ea 88 3c a0 fd aa 3c 81 cd 30 3d d0 4a 1b 3b
       0.01671345 0.020872891 0.043164734 0.0023695715
000280 ad 11 e7 bc 50 33 fc 3b 99 8d df bc e1 61 9b bc
       -0.02820667 0.0076965466 -0.027289199 -0.01896757
000290 98 d4 3b 3d b7 7f c8 bc 37 27 d3 3a 67 80 db 3c
       0.045857042 -0.024474962 0.0016109709 0.026794625
0002a0 5d ec 19 3d 97 b3 c4 3c ce bb 13 bd a6 27 cc 3c
       0.03757893 0.024011416 -0.036067776 0.02492125
0002b0 f0 1d d4 3c 9a b0 eb bc 32 f7 08 3a 17 db 00 bb
       0.025893182 -0.028770734 0.0005224823 -0.0019661838
0002c0 b9 01 90 bc 92 95 88 3c 73 69 63 bc 96 0a 6d 3d
       -0.017578946 0.016672883 -0.0138801215 0.057871424
0002d0 60 c3 fb 3c 7c 19 ca bc b1 d7 e7 bc 85 01 3a bc
       0.03073281 -0.024670355 -0.028301092 -0.011352901
0002e0 f5 22 89 3c 20 1d 8d 3c f8 3f 9f bc aa 3b 4e 3d
       0.016740302 0.017225802 -0.019439682 0.05034987
0002f0 78 a3 51 3c 80 ba 33 39 2c 02 54 3c 2e 37 0d 3c
       0.012795322 0.00017140247 0.012939971 0.008619113
000300 0c dc 06 bd 61 4c b7 bb 4e 74 85 3b f8 1a 94 ba
       -0.032924697 -0.005593822 0.0040727025 -0.0011299541
000310 cb bf 99 bc 98 a8 09 3d dc 5f 47 ba db 18 8d 3b
       -0.018768212 0.03360805 -0.0007605532 0.0043059415
000320 b8 cd 88 bc 80 a9 b2 37 84 1f 7d 3c ec af 0e bd
       -0.016699657 2.1298183e-05 0.015449408 -0.03483574
000330 8a 81 6c bc 04 3e a3 bc 4e cb 74 3b c3 f9 11 bc
       -0.014435181 -0.019927032 0.0037352624 -0.0089096455
000340 f5 82 16 bb 60 5d 1a 3d 07 87 4b bb e5 df 36 bc
       -0.002296624 0.037686706 -0.0031055824 -0.011161779
000350 a2 ff e0 ba 88 36 0e bc 9d ee 95 bc b8 e3 8d 3c
       -0.0017166028 -0.008679993 -0.018302256 0.017320499
000360 d5 24 8c 3b c9 da 33 3d bd e1 b1 bb 62 43 2a 3b
       0.0042768517 0.04390982 -0.0054285214 0.0025980105
000370 89 20 c5 bb 6a ee e8 bb 6c 11 76 ba 07 25 33 bc
       -0.0060158414 -0.0071084993 -0.00093867513 -0.010934121
000380 12 6a c4 bb 20 5c b5 3a d0 7d d9 3a 02 8a 70 bc
       -0.00599409 0.001383666 0.0016593281 -0.014681341
000390 91 d5 a6 bc df f5 4a bd 2b b1 61 3d af 88 7f 3b
       -0.020365508 -0.049550887 0.0551006 0.0038991382
0003a0 6b 7c 12 bd 01 da 65 3d 9e e5 c2 bc d8 4c 89 3b
       -0.035763185 0.056116108 -0.02379113 0.0041900687
0003b0 d6 37 fd 3b 74 c3 a6 3b 0a e6 eb bb 23 bd 7e 3b
       0.0077276034 0.005089218 -0.0071990537 0.0038870058
0003c0 92 be 43 3d ea f5 f1 3b 5a dc 6d bc 57 4c 6e bc
       0.047789164 0.0073840516 -0.014517868 -0.014544568
0003d0 c6 a9 f4 bb 45 90 61 bc 29 72 1e bc 6a 29 09 bc
       -0.0074665276 -0.013767307 -0.009670773 -0.00837169
0003e0 f0 1c 54 3c 4d 73 07 bd f6 75 2b bc 10 61 ab 3b
       0.012946352 -0.033068944 -0.010465136 0.0052300766
0003f0 06 13 90 bc 3d 22 b3 bc 42 63 b1 3b a0 85 0c 3d
       -0.017587196 -0.021866912 0.005413444 0.034307122

weight f4 [300, 18]
000000 de 76 d2 bb 0a 38 8d 3b 2c bf 00 bc b7 a1 48 bc
       -0.0064228615 0.004309659 -0.007858079 -0.012245587
000010 ec 08 71 3c 8c 60 4f bd 95 48 82 3d 30 4c 6b 3c
       0.0147116 -0.050629184 0.063615 0.014361426
000020 50 e5 de bb 4f 4e 50 3d 90 69 4b 3d 32 c9 29 bd
       -0.0068022385 0.05085593 0.04966122 -0.04145164
000030 cc 14 60 ba c3 29 4e 3d aa fd 7a 3c e2 fc 2f 3c
       -0.0008548021 0.050332796 0.015319267 0.010741444
000040 32 9a 42 bd 6e a6 8e 3b 1c eb 1e bd c4 f0 5e 3d
       -0.047510333 0.004353336 -0.038798437 0.05442883
000050 90 84 a0 3b b5 76 65 bc 4d c1 17 3c 1f 23 0e 3c
       0.004898615 -0.014005353 0.009262395 0.008675366
000060 d2 b1 db 3c 36 7e a1 3b 1d 56 89 bb 2e 7f 02 3b
       0.02681819 0.0049283756 -0.0041911737 0.001991223
000070 86 6f 2a bb f3 3b 25 3b ec c5 ab bc 0a 6f 92 3a
       -0.0026006415 0.0025212734 -0.0209684 0.0011172008
000080 0f c0 89 3d ed 94 82 3c e0 3c 1a bd 41 9b 75 bd
       0.067260854 0.015940154 -0.03765571 -0.059962515
000090 fa 50 1d 3d f0 79 bc 3c 58 f3 16 bc 9d 89 a0 3b
       0.038407303 0.023007363 -0.009213291 0.0048992173
0000a0 02 fe 08 3d 55 26 80 3c 5b fe 79 bd c8 14 f8 3c
       0.033445366 0.015643278 -0.061033588 0.030283347
0000b0 6e 6c 60 bb 81 86 45 bc 8c 3a e4 3b ce 7e f1 bb
       -0.0034244317 -0.012055994 0.006964987 -0.0073698526
0000c0 d9 d1 38 bd 7a 61 fc bb c4 3c 40 3a 8e a8 3a 3d
       -0.045122 -0.00770205 0.00073332735 0.045570903
0000d0 bf 62 e7 3c 38 e7 d8 bc 8c df 72 bd ae b9 45 bc
       0.028245328 -0.026477441 -0.059295222 -0.012068195
0000e0 48 a1 06 bd 3a e8 01 bc 5a 51 34 bc 08 e1 5c 3c
       -0.032868654 -0.007928902 -0.011005724 0.013481386
0000f0 50 d9 12 3d f6 ca cf bc 40 36 6c 3d 0b 6f 99 3d
       0.035851777 -0.025365334 0.057668924 0.07491883
000100 3d 67 97 bb 00 ef e6 ba 2e 51 69 bd 5a d5 80 bc
       -0.0046204613 -0.0017618835 -0.056962185 -0.015726734
000110 3c 7e 74 bd 8c 3a 59 3d be 21 23 3d 1f cb a8 3b
       -0.0596907 0.05303435 0.0398271 0.005151167
000120 16 d2 b9 3c ba b2 79 bd a2 ac 8b bd e6 8e 57 3c
       0.022683185 -0.060961463 -0.068200365 0.013156628
000130 be 27 82 3c b7 8c 7c bd 05 06 d4 bc dd 36 30 be
       0.015888091 -0.061657634 -0.025881777 -0.17208429
000140 c5 e9 81 3d 73 4a 03 3e cd 41 80 3d d0 c9 6b ba
       0.06343416 0.12821369 0.062625505 -0.0008994611
000150 6d b5 39 bc 36 f3 03 3c e8 c3 80 bb 30 0f 60 3a
       -0.011334759 0.0080535915 -0.003929604 0.0008547185
000160 04 af 30 bd b1 47 01 bd 86 3c 6d 3c 99 b9 64 3b
       -0.043135658 -0.03156251 0.014479762 0.0034900664
000170 70 6d b3 bc c2 94 18 bd c2 c5 0d bd 21 b5 32 bd
       -0.02190277 -0.03725124 -0.034612425 -0.04362977
000180 90 f0 3a bb c0 5d f9 bb cc 7b 24 bb 14 8d 11 bc
       -0.0028524734 -0.007610053 -0.0025098203 -0.008883733
000190 8e a6 c8 bb 50 b0 61 3c 20 26 4f bc df a7 6b bc
       -0.0061233705 0.013774946 -0.012643367 -0.014383285
0001a0 3a 18 5a bb 25 e5 8e bb 1f cf 41 bd 84 9f 7f 3c
       -0.00332786 -0.0043608123 -0.047316667 0.015601996
0001b0 d8 bc c0 3c 00 ac a8 b9 64 fe 0d bd d3 b1 b9 3c
       0.023527548 -0.00032171607 -0.034666434 0.022667801
0001c0 ee 46 36 bd 0e 02 90 3d 4e fd a3 bb c4 2a c9 3d
       -0.044501238 0.07031642 -0.0050045615 0.0982261
0001d0 60 4b a3 3c ef 1e 2c 3d 12 89 0d 3d b9 53 27 3d
       0.019933403 0.042021688 0.03455455 0.04085133
0001e0 2c 10 c1 3a 60 1e 8b 3d a0 1b 66 ba 82 90 f6 3c
       0.0014729551 0.06792903 -0.000877792 0.030098204
0001f0 9e 95 92 3a a6 ba 14 bd fe 84 4f bd 91 c9 3d bd
       0.0011183505 -0.036310814 -0.05066394 -0.046334807
000200 da 08 f2 bc f9 61 0d bd 14 d6 31 3c 50 54 94 39
       -0.029545236 -0.034517262 0.010854263 0.00028291577
000210 86 85 41 bc f5 1b 94 bd c0 21 06 3c 23 51 28 3d
       -0.01181162 -0.07231895 0.008186758 0.041093003
000220 7b 04 35 3d 78 d2 80 bc 0a e3 9c 3b 24 53 f7 bb
       0.044193726 -0.01572536 0.0047878074 -0.007547753
000230 3e 28 6b 3c 68 1f a4 3a ad fd 52 3d 4d 54 a5 3b
       0.014352856 0.0012521567 0.051511455 0.00504545
000240 48 af 84 3a ee 97 5d bd d7 35 51 3b 50 95 e0 ba
       0.0010123039 -0.05409997 0.003192296 -0.0017134342
000250 02 0d 1e 3b 0f 0e 7a bc 60 e5 99 bb cd d2 22 bd
       0.002411664 -0.015262141 -0.004696533 -0.039751817
000260 3f 4a 37 bb 52 b5 97 bb c2 42 80 bb 10 8d 40 3b
       -0.0027967838 -0.0046297694 -0.003914208 0.0029380955
000270 2f 11 04 3c f0 18 17 3a 6f c0 83 bc e0 28 84 3b
       0.0080607375 0.0005763909 -0.01608297 0.004033193
000280 d0 ca 4e 3d 89 5d 1d 3d d9 73 fd bc 5b fa 60 bc
       0.050486386 0.03841928 -0.03093903 -0.013731564
000290 b7 40 68 3c b6 7d d3 3c 4d 52 8b 3b 6b 4d b1 3c
       0.0141755855 0.02581678 0.0042517544 0.021643361
0002a0 70 65 62 bb 6c 06 24 3e 32 8c 0c 3d 70 80 54 3d
       -0.0034545325 0.16018075 0.03431339 0.0518803
0002b0 60 e4 89 3d 73 f2 1e 3c a9 0f 77 3d be f1 44 3d
       0.06733012 0.009701359 0.06031767 0.048082106
0002c0 23 97 74 bc 38 db 15 bd be 33 c3 bc 61 b1 14 bc
       -0.014928612 -0.036586016 -0.023828384 -0.009075494
0002d0 4a bd f2 bc 22 7c 3e 3c 30 7d 61 3d ed d2 84 bc
       -0.029631276 0.011626275 0.05505103 -0.016213859
0002e0 e1 df d3 bc 70 ed 08 3d 2c 3b 4d 3b 11 1f a2 3d
       -0.02586359 0.033429563 0.0031315787 0.07916082
0002f0 6b 9d d7 3c 28 94 e7 3c 44 12 40 3c 2c b9 80 bc
       0.02632018 0.028268889 0.011723105 -0.015713297
000300 86 e1 8c 3b 68 94 1c bc 6c ad ea bb 21 8f 76 3c
       0.0042993454 -0.009556867 -0.007161787 0.015048773
000310 90 9d 37 3c 2e 49 d6 ba 4c d3 2b bc b8 8b 68 3d
       0.011206999 -0.0016348714 -0.010487389 0.05677387
000320 0b 98 82 bc 00 d1 fb bc 70 a0 88 3c 44 a1 35 3c
       -0.01594164 -0.030739307 0.016678065 0.011085812
000330 ba b3 9c 3c 9a 21 97 3c 49 b0 ad 3c be 74 df bc
       0.019128669 0.01844864 0.021202223 -0.027277347
000340 84 12 5c 3c 0c 09 45 3a 79 9d 86 3d dd b7 81 bd
       0.013432149 0.00075163017 0.06573004 -0.06333897
000350 50 b0 28 3c c2 e0 0b bc 00 96 1c b9 32 9e 44 3d
       0.010295942 -0.008537473 -0.00014933199 0.04800243
000360 24 22 9e bb 74 77 3e 3c ce b3 e7 bc e5 3e 68 bd
       -0.004825847 0.0116251595 -0.02828398 -0.056700606
000370 78 43 6d bb 2a 37 93 3c 0e 7f 02 bd 73 b2 8d 3d
       -0.0036203545 0.01797064 -0.03185945 0.06918802
000380 2d d3 e8 3c 7f 51 87 3d 86 d3 17 3c ef a6 2e 3c
       0.028421009 0.06607341 0.00926674 0.010659917
000390 90 7c 24 3c 17 1e 86 bd c8 d6 01 bb f0 bf ad bc
       0.010039464 -0.06548708 -0.0019811857 -0.021209687
0003a0 b3 94 3f 3d ac d7 1b bc 22 e5 68 bb 40 91 1f 3a
       0.04677267 -0.009511869 -0.0035536964 0.00060870126
0003b0 a0 12 78 3d af 9d 83 3c 69 2d 01 bd 4a 53 37 bc
       0.060564637 0.0160664 -0.031537447 -0.011189291
0003c0 52 2a 0b bc 80 2a b3 39 c7 8e 84 3d 74 9b b9 bc
       -0.008493977 0.00034173205 0.06472545 -0.022657134
0003d0 90 ff 5b bc 88 96 2a 3d ff f4 19 bd b0 b9 46 3d
       -0.01342763 0.041647464 -0.037587162 0.04851693
0003e0 5e d9 c5 3b b8 f3 f8 bb 2a 30 e2 bc 3c 67 49 bc
       0.006037875 -0.007597413 -0.027610857 -0.012292679
0003f0 34 51 84 3c 09 41 81 3d 0e 23 f3 3b b5 f2 29 3b
       0.016152002 0.063112326 0.0074199503 0.0025932018

bias f4 [300]
000000 3c 4b 33 39 fe e4 d0 bb e1 f3 28 bd 62 6d 70 3c
       0.00017098797 -0.0063749542 -0.041248206 0.014674516
000010 1f 1d 0a bc a3 55 7d 3c 80 3a 0e bd 9c 0a 39 bc
       -0.008429795 0.015462312 -0.03472376 -0.011294033
000020 ab 0c 77 3b ee ea 03 bd ba c6 b7 3a af 0d c5 bc
       0.003769676 -0.03220647 0.0014021017 -0.024054376
000030 6e ed 5a 3c 04 57 d4 3c 0a 06 17 3a bd 13 67 bc
       0.013362272 0.025920399 0.0005761093 -0.014103827
000040 32 77 88 bb 78 4e 7b bc 76 04 36 bc 33 9d 91 bc
       -0.0041646 -0.015338533 -0.011109462 -0.017775154
000050 65 f8 8b 3c 02 df 52 3c 55 8f e7 3c f6 e2 06 bd
       0.017086217 0.012870552 0.028266588 -0.03293129
000060 83 34 d4 bc 1e 0b f6 bc c9 b4 c8 bb 3e 64 95 bb
       -0.025903946 -0.030034598 -0.006125067 -0.004559069
000070 12 c5 a8 bb 28 90 cc 3c 82 cc a2 bc 12 5e 81 bc
       -0.0051504457 0.024971083 -0.019872908 -0.015791927
000080 09 e5 59 bc 1c 39 dd bb a7 9a 1e 3d 4a 9c db 3b
       -0.013299235 -0.0067511927 0.038721707 0.0067019807
000090 71 50 03 3d f8 10 bb 3b 9e 7a 56 3c f4 5a a2 3c
       0.032059137 0.00570881 0.013090758 0.01981876
0000a0 b5 1d 02 bd 40 5b 36 3d b8 23 2d 3b ac 48 93 bc
       -0.031766612 0.044520617 0.0026418995 -0.017978989
0000b0 40 2d f3 bb f9 f6 81 bb 17 3e 76 3c 03 9b 8e bb
       -0.0074211657 -0.003966209 0.015029452 -0.004351975
0000c0 cb 1e 66 3d 3e 2d 06 3d 7f 8e c8 3c 02 a1 2e 3c
       0.05618171 0.03275799 0.02448201 0.010658504
0000d0 38 ad 2b 3d 40 0f f4 bc 05 d3 ac bc 15 8b 1c bb
       0.04191324 -0.029792428 -0.021096716 -0.002388661
0000e0 25 7d 14 3b 99 62 fb bc 9a e2 b8 3c 28 ea 28 ba
       0.00226576 -0.030686663 0.02256899 -0.00064435834
0000f0 1f 61 a6 bc 00 44 16 3d b7 3f fb 3c 44 34 16 3c
       -0.020309983 0.036685944 0.03067003 0.0091677345
000100 a7 6c 22 bb e6 f3 58 3c 9f d6 36 3d 52 a2 fe bc
       -0.0024784 0.013241744 0.044638272 -0.03108326
000110 17 e9 2e 3c b7 f0 6c bc 1e 6d 31 3d a0 c5 88 bc
       0.01067569 -0.014461688 0.043316953 -0.016695797
000120 b9 e3 8a bb e6 8e 37 bc e8 23 08 bd b4 b9 66 3a
       -0.0042385724 -0.011203503 -0.033237368 0.00088014756
000130 d1 bf 11 3d dd 6e 8e bc 16 ea ce bb de 76 48 3b
       0.03558332 -0.017386848 -0.0063145263 0.0030588428
000140 ec 14 ba b9 d0 ea 00 bd b2 89 07 bd 5a 5e 22 bb
       -0.00035492273 -0.031473935 -0.0330903 -0.0024775476
000150 77 4f 7b bb b9 45 cb 3b be 29 2b 3d 21 1a 91 3b
       -0.0038346925 0.00620338 0.041787855 0.0044281636
000160 38 4f f6 3c 00 fd 26 3a 6b 0c dc bc 1e 6c 05 3c
       0.030067071 0.00063700974 -0.02686139 0.008143453
000170 c6 a3 89 3c 40 79 3b bc 20 27 e9 3b 5c b5 99 3c
       0.016801726 -0.0114424825 0.0071152598 0.018763237
000180 8f 2c 8e 3c aa 13 13 3c 74 12 16 3d dc f4 23 3c
       0.017355232 0.008976856 0.036638692 0.0100071095
000190 2d b1 f0 bc 64 d6 35 3d 86 f2 12 3c fa 0b 79 bc
       -0.029381359 0.044393912 0.008968955 -0.015200609
0001a0 2e fc dc 3b 22 20 13 bc 1e ac 33 bc de ea 93 3b
       0.0067439293 -0.008979829 -0.010966329 0.0045140823
0001b0 be cd 14 3b b5 dc 2d bc f8 c2 cb 3c 48 47 49 3d
       0.002270564 -0.010611703 0.024873242 0.049140245
0001c0 01 8a 8e 3c d6 7d 06 bd a3 f1 ba 3b c1 5f cc bc
       0.01739979 -0.03283485 0.005705075 -0.024948003
0001d0 5d 01 d8 bc 86 aa e6 3b 88 7f 8a 3c 76 9d 29 bc
       -0.026367838 0.007039371 0.016906515 -0.010352483
0001e0 a6 c7 9a 3c 8a cd 23 bd 00 fa 3a 37 8e 9d 12 bd
       0.018894028 -0.03999094 1.1144672e-05 -0.035794787
0001f0 7a 61 4c 3c c7 9e 4e bc 5a bc 99 3c a0 a9 fe b9
       0.012474412 -0.012611098 0.01876657 -0.00048573036
000200 18 a4 58 3c f2 59 a6 3c 00 8e ba 3c 2d 19 fe bc
       0.013222717 0.020306561 0.022772789 -0.031017864
000210 b9 22 b1 bc 74 ce 5e bc e0 c3 13 bc 07 e9 08 bd
       -0.021623002 -0.013599027 -0.009018868 -0.033425357
000220 a2 5e 6d 3c 86 f4 05 3d 1a f6 40 bc e2 b9 d4 bc
       0.014487894 0.0327039 -0.011777425 -0.025967542
000230 7a de 9f bc 08 b6 c8 3c 31 f9 cd 3c f3 c1 28 bd
       -0.019515265 0.024500862 0.025143238 -0.04120059
000240 1b 4a f9 bc dd c8 76 bb ec 84 1e bc 18 5c 65 3c
       -0.030430844 -0.0037656345 -0.009675246 0.013999008
000250 e8 08 b8 3c 3c 60 29 3d 22 6e 49 3d 85 31 8f 3b
       0.022465184 0.041351542 0.049177296 0.004369917
000260 f2 ba cc bc f0 6e 07 3d be 2a c8 3c b8 e2 b4 3c
       -0.024991486 0.033064783 0.024434444 0.022080764
000270 9c c0 15 3d 46 d9 83 bc 04 36 92 bc 47 92 35 bc
       0.03656064 -0.016094815 -0.017848022 -0.0110822385
000280 75 5e aa 3c d9 d2 93 bc 0c a1 8d bb 55 0d 21 bb
       0.020796994 -0.018044876 -0.004322177 -0.0024574597
000290 77 f0 00 bd 6c 7c 5c 3d 58 7f 68 bc b5 e8 e4 bc
       -0.031479325 0.053829595 -0.014190517 -0.027942995
0002a0 36 03 18 bc 0c bf f5 bc 3b c7 02 bd fd 2c 8f bb
       -0.009278109 -0.029998325 -0.031928282 -0.0043693767
0002b0 47 6d 04 3c e0 fc 8e 3c c5 0e 16 3d f4 56 a5 3c
       0.008082694 0.017454565 0.03663518 0.020183064
0002c0 7e 64 0c bd 79 8b 8d 3c 64 bc ce 3c f2 96 a3 3c
       -0.034275524 0.01727842 0.025236316 0.019969437
0002d0 97 f1 c8 3c 7c 64 aa bb 8a 18 73 bc 08 28 47 bb
       0.024529262 -0.005199967 -0.014837394 -0.003038885
0002e0 4d 76 99 bc a0 b1 12 3d 2a 91 e2 ba df 43 0c bd
       -0.018733168 0.035813928 -0.0017285694 -0.034244414
0002f0 0e ed f0 3c 74 55 28 bc 98 2f f6 bc b2 40 1b 3c
       0.029409911 -0.01027428 -0.030051991 0.009475874
000300 b2 f2 ef bc 55 75 03 3c b6 31 a9 39 2f 18 ef 3c
       -0.02929053 0.00802358 0.0003227123 0.029186336
000310 34 ba 53 bc bd 65 c6 bc b8 2e 33 bc c4 14 f6 3c
       -0.012922812 -0.024218434 -0.010936432 0.030039199
000320 c7 87 85 bc d2 55 a1 3c 69 61 83 bc f7 19 e8 3b
       -0.016300095 0.019694243 -0.01603766 0.0070831734
000330 4f 47 f9 bc 0e 6b 11 bd 45 e3 45 bc 86 79 d8 3c
       -0.03042951 -0.035502486 -0.012078111 0.026425134
000340 b8 11 9d bc ee 05 23 bd 54 72 dc 3b f0 1a fb bc
       -0.019173488 -0.039800577 0.006727496 -0.030652493
000350 4e f2 cc bb ea 37 17 3d 40 c1 77 3c ae 7c 31 3c
       -0.006254471 0.03691856 0.015121758 0.010832949
000360 71 65 36 bd b1 c0 83 bc 00 02 b4 38 0d 86 e9 3c
       -0.044530336 -0.016083093 8.5834414e-05 0.028506303
000370 bc 79 92 3a f4 5b 00 bd 34 f2 09 3b 8a ba 7a 3c
       0.0011175196 -0.031337693 0.0021048905 0.015303263
000380 93 95 27 bc 87 04 0c 3c 35 19 43 3c cc 97 80 3c
       -0.010228532 0.008546001 0.011907865 0.015697382
000390 87 9f ae bc c9 f7 82 bc 7c 56 ce 3b 70 5d e0 bc
       -0.021316303 -0.015987294 0.006296931 -0.027388304
0003a0 54 9e 20 bc d4 c8 65 3c 0e f0 dd bc b1 d9 bf bc
       -0.009803373 0.014024932 -0.027092006 -0.023419233
0003b0 dd 0d 94 3c 07 82 00 3d 2a 2b 59 3c 0a fa 81 3b
       0.018073017 0.031374004 0.01325492 0.0039665746
0003c0 45 79 48 bc 95 db ab 3c 50 27 de ba 58 11 15 3d
       -0.012235944 0.020978728 -0.0016948972 0.036393493
0003d0 36 e6 49 3c a2 86 22 bc 42 df 46 bc f7 80 00 3d
       0.012322953 -0.009919794 -0.01213819 0.03137299
0003e0 62 cf b9 bb f9 99 39 3d 1c 80 03 bd 90 d7 be 3c
       -0.005670474 0.045312855 -0.032104596 0.023296148
0003f0 d8 19 33 bc e0 7a 43 39 76 7c f2 bb a7 cc e0 bc
       -0.010931455 0.00018642424 -0.007400091 -0.027441336

weight f4 [300, 300]
000000 a6 c4 5d bb 19 23 52 bc ef 09 74 bc 74 ad 82 bb
       -0.0033839135 -0.012825751 -0.0148949465 -0.0039879624
000010 87 09 87 bc 0c 73 3b 3b 9e b7 06 bd 78 e3 8d bb
       -0.016484035 0.0028602509 -0.032889955 -0.004330095
000020 ec 66 e4 ba e8 51 d2 3b ac 39 a0 3b cf 3e 26 3c
       -0.0017425693 0.0064184554 0.0048896875 0.010146811
000030 71 e1 e9 bc de b7 f0 bc 24 75 13 3b 8a 1b cf bc
       -0.028549882 -0.02938455 0.0022500241 -0.025281686
000040 4e aa 9f 3b be 87 a6 bb a8 7d 58 3c 18 2a bf bc
       0.004872597 -0.0050820997 0.013213553 -0.023335502
000050 22 8c 0b bc f0 8d 3b 3c 03 2c 85 bb a1 10 0d bc
       -0.008517297 0.011447415 -0.0040640845 -0.008609922
000060 a0 2c 51 bc 48 7f 83 bb 65 01 89 3c 78 06 c3 3c
       -0.012766987 -0.004012976 0.016724298 0.023806795
000070 56 47 56 bc 8c d0 9a bc d3 bd 27 3b b6 a2 3d bb
       -0.013078531 -0.018898271 0.0025595322 -0.0028936095
000080 84 aa d7 ba a3 2f 55 bc a0 61 4d bc 0d c1 76 bc
       -0.0016454016 -0.013011846 -0.012535483 -0.015060675
000090 66 9e 09 3c 94 59 44 bb 90 12 1c 3a 0c 45 30 3c
       0.008399582 -0.002996062 0.0005953694 0.01075865
0000a0 ae c6 8a bb ea 03 a1 bc ae 0d 91 bb be 34 1e bb
       -0.0042351102 -0.019655187 -0.0044266796 -0.0024140324
0000b0 50 18 01 3a 95 b8 66 bc b3 e5 d1 bb 72 f6 f9 3a
       0.00049245823 -0.014082094 -0.006405556 0.0019070639
0000c0 6a 31 4d 3c 0d bd a8 bb 12 3f 2b bc a6 4e c4 3b
       0.012523988 -0.0051494897 -0.010452049 0.005990821
0000d0 98 ba c9 3c 76 9e e4 bb 1d 99 f5 3b 1a d4 5b 3c
       0.024625108 -0.006976898 0.007495059 0.013417268
0000e0 92 95 39 3c f0 78 49 3c 09 d6 b5 bc 4a 00 29 bc
       0.011327164 0.0122969 -0.022196786 -0.01031501
0000f0 a4 36 84 bc c8 a7 02 3b a8 d9 18 bc 4e ce 74 3c
       -0.016139336 0.0019936431 -0.009329237 0.014941765
000100 cf 09 2c bc 6d 8e 9b 3c 7e e9 93 3c f0 6a de bc
       -0.010500385 0.018988812 0.018055674 -0.027150601
000110 8c db a1 3a d5 0c e1 bc 40 ee 0f ba 8c 05 40 3c
       0.0012348755 -0.02747194 -0.0005490519 0.0117200725
000120 e6 e4 c2 3c 91 e5 02 bc 0e 1f 85 bc 65 ab 6f 3c
       0.023790788 -0.007989303 -0.01625016 0.014628266
000130 f2 35 1d 3b 5e d8 86 3c 7c 3a 5d 3c 20 d8 e5 b9
       0.0023988453 0.016460594 0.013502713 -0.0004383931
000140 31 87 52 3c 2b 86 ec bc 12 d7 27 bc 92 e1 79 3c
       0.012849615 -0.02887257 -0.010244148 0.015251534
000150 cf e3 93 3b 3a 8a 56 3c 8b 3f e5 bc 38 81 11 ba
       0.004513241 0.013094479 -0.027984401 -0.0005550566
000160 09 b7 1e bb fc 51 db bc aa 0c 15 bc cc 58 ee 3b
       -0.0024217984 -0.026772492 -0.009097258 0.007273769
000170 89 91 32 bc 13 4e 5c bc 94 d6 a0 bc ce ad 7c bc
       -0.010898956 -0.013446349 -0.019633569 -0.015422298
000180 f1 27 c6 ba e4 9c ef 3b 4a e0 9c bb 64 1e c9 3b
       -0.0015118105 0.007312404 -0.0047874795 0.006137656
000190 64 c6 55 bc ee ff 36 bb 80 a4 f7 3c 78 6e 7c 3c
       -0.013047788 -0.0027923542 0.030229807 0.015407197
0001a0 99 c1 85 bc 40 9c 7d 3c e8 a4 d6 39 1a 96 87 bb
       -0.016327666 0.015479147 0.00040940125 -0.0041377665
0001b0 8c 37 68 bc a0 d9 de 3a 27 8e b0 bc 6e 89 06 bd
       -0.0141734 0.0017002113 -0.021552159 -0.032845907
0001c0 f8 67 fb bb 4a 7e be 3b b4 8c 8a ba fe 92 75 3c
       -0.007672306 0.0058133947 -0.0010570497 0.014988659
0001d0 d8 1b 3a bb 3b e1 86 bb 00 57 f7 bb 78 b2 a8 3c
       -0.0028397944 -0.004116205 -0.007548213 0.020592913
0001e0 bc 95 ec 3c 44 bd df 3c 21 07 d5 3b 00 70 3a b7
       0.028879993 0.027311929 0.006501094 -1.1112541e-05
0001f0 18 65 0e bc 20 da cf 39 44 9b fc 3b f0 8b 21 3a
       -0.008691095 0.00039644632 0.007708939 0.0006162515
000200 ac 0b b5 3a 2b 7b 01 3d bc 1b a5 3a 4b c2 9b 3c
       0.0013812683 0.031611603 0.0012596766 0.019013545
000210 7a fb 7d bc c2 fd 79 bb 40 09 e3 3a 71 72 83 3c
       -0.015501851 -0.0038145636 0.0017321482 0.01604578
000220 41 ec 51 3c 1e 11 3e 3c 8e 6c 44 bc 0c 2d 54 bb
       0.012812675 0.011600761 -0.011988772 -0.0032375483
000230 0e 2c 34 bc 2b 5f 81 bc 8e d9 a1 3c 6a ac 54 bb
       -0.010996832 -0.01579245 0.019757058 -0.00324514
000240 df 70 af 3b d5 00 64 bc 7b 90 a3 3c 68 7e b9 3c
       0.0053540315 -0.013916214 0.019966355 0.022643283
000250 ad 8a 58 3c e4 9f 74 3c 80 e0 18 3a ae 15 9f bb
       0.013216657 0.014930699 0.0005831793 -0.0048548793
000260 7e b9 37 bc 8b 3b 35 3c 04 76 1c bc 16 81 70 3c
       -0.011213658 0.011061559 -0.0095496215 0.014679214
000270 8e b6 14 bc 68 0a ae ba 6a cb 38 bc e0 f0 85 3c
       -0.009076728 -0.0013278248 -0.011278966 0.01635021
000280 9f 06 88 ba 36 0f a7 bb 78 85 dc ba 92 0c d9 3b
       -0.001037795 -0.005098249 -0.0016824445 0.006623813
000290 4f c1 4d 3c f8 0b 10 3c c3 69 08 bd b0 54 09 bb
       0.012558295 0.008791916 -0.033303987 -0.0020955019
0002a0 b7 84 32 3c f0 42 34 3c af e8 8d bc f2 a8 05 bc
       0.0108958995 0.011002287 -0.017322866 -0.0081579555
0002b0 83 ce d8 3c d6 11 13 bd 60 61 9a 3b 5c 36 6d 3b
       0.02646566 -0.03590568 0.004711315 0.003619573
0002c0 88 60 81 b8 aa 85 56 3c 49 a5 77 bc 4b 6c f1 bc
       -6.16918e-05 0.013093391 -0.015115091 -0.029470583
0002d0 aa 7e e4 bb 36 ea 30 bc 06 53 65 3c 0e b3 6f bc
       -0.0069731073 -0.010798028 0.013996845 -0.014630092
0002e0 4f 88 80 3c 8d 0c 09 bc a7 72 4e 3c 47 d1 f1 3b
       0.015689997 -0.008364809 0.012600577 0.007379684
0002f0 66 65 e8 3b 63 80 3e 3c dd 61 ff bc 0a 93 e6 3a
       0.0070921658 0.0116272895 -0.031174595 0.0017591428
000300 c8 26 9d bb c8 94 85 bb da f5 d9 ba d8 c5 81 3b
       -0.004795883 -0.004076574 -0.0016629056 0.0039603524
000310 1b f7 23 3c 08 42 aa 3c 1b 42 a6 3b ac 4d 6d bb
       0.010007645 0.02078344 0.0050737984 -0.0036209626
000320 3d d6 0a bd 63 66 61 bc 72 e7 e4 bb ec 2a 52 bb
       -0.03389572 -0.013757321 -0.0069855982 -0.003206904
000330 fd 64 9d 3b df 49 b8 3b 92 c7 00 bc 58 e2 df 3b
       0.0048032985 0.0056240405 -0.007860081 0.006832402
000340 40 0a a8 bb 00 e0 7d b6 b8 30 f4 3b 8c 21 03 3b
       -0.005128175 -3.7830323e-06 0.007452097 0.002000901
000350 c2 f2 00 bb 2a be 55 3c 61 59 ae 3b 26 e2 ed bb
       -0.0019675945 0.013045827 0.0053207134 -0.007259625
000360 30 ac a8 bb 6d f6 97 bc b2 76 34 bb b4 b9 83 bb
       -0.0051474795 -0.018550122 -0.0027536568 -0.0040199403
000370 94 8a 83 bb c0 69 8f b9 63 c2 77 3c 01 ed 3c bb
       -0.0040143225 -0.00027353875 0.015122029 -0.0028827789
000380 4e cd a5 3b 1c 00 04 3d c6 4b e2 3c 1c e1 f5 bb
       0.0050598746 0.032226667 0.027624022 -0.007503642
000390 e8 be 07 bd 40 5e 59 bc c0 e9 0f 3b 3e 69 7a bb
       -0.033141047 -0.0132671 0.0021959394 -0.0038209702
0003a0 dc bf 23 3c 40 e1 3d 38 a4 7e 10 bc 5a ad c0 bc
       0.009994473 4.5270892e-05 -0.008819256 -0.02352016
0003b0 82 af 52 3c a1 fa c7 bc cf ff f1 3c cc fc 43 3b
       0.012859227 -0.024411501 0.029540924 0.0029905317
0003c0 1a 3e eb bc 96 45 93 3b 52 df dc bb 64 07 02 bd
       -0.028716136 0.0044943793 -0.006740489 -0.03174533
0003d0 ba f5 2b bc 83 0d ae bc c4 ea e6 ba f3 5d 08 3d
       -0.0104955975 -0.021246677 -0.0017617573 0.033292722
0003e0 00 ee 7a b9 2d 9c 2a 3c 7b 87 0b bd bb 89 67 bc
       -0.0002393052 0.010413212 -0.03406475 -0.014131959
0003f0 fc fe 49 39 7a 56 51 bc 74 e0 8d 3a 0a 2c 84 bc
       0.00019263843 -0.012776965 0.0010824339 -0.01613428

bias f4 [300]
000000 0d 32 0c bd cf 7f a0 bb e2 f0 b6 bb 07 97 0c bd
       -0.03422742 -0.0048980485 -0.0055829147 -0.03432372
000010 90 38 a8 bc 60 95 5b 3c f4 82 41 3b 5d f8 68 3c
       -0.020534784 0.013402313 0.0029527517 0.014219371
000020 c3 38 98 bc ce 7c e2 3a a4 5e b7 3a 8e e1 07 bd
       -0.018581754 0.0017279626 0.0013989997 -0.03317409
000030 d4 cd 04 bd 8f e6 03 bd ae bb e0 bc 7e ac 25 bb
       -0.032422855 -0.0322023 -0.027433243 -0.0025279815
000040 d2 da 8d 3a cb 82 e2 bb e4 96 50 bc dc cf 08 bc
       0.001082266 -0.0069125644 -0.012731288 -0.008350339
000050 8e 17 a1 3c a2 e0 71 bc c2 57 ec bc 52 b4 cd 3b
       0.019664552 -0.014763029 -0.02885044 0.0062775994
000060 72 fe ef ba 6d 9c 71 bc 0d cd 7c bc e5 46 2b bc
       -0.0018310084 -0.0147467675 -0.015429747 -0.010453914
000070 4e 40 8a 3b 89 9b 0c bd 01 45 4e 3c 52 e0 43 3c
       0.0042190915 -0.034328017 0.012589694 0.011955338
000080 e7 d9 68 bc 4b a9 0c bd f9 0f 5d 3a 19 7b 3b bc
       -0.014212108 -0.034341138 0.0008432861 -0.011442923
000090 2e 49 c2 bb 6d 71 0c bd f5 27 c2 3c d8 b4 da bb
       -0.005929134 -0.03428786 0.023700694 -0.0066743903
0000a0 60 b8 3a bc 29 2d 6b bc 74 47 4c bc aa 16 58 bc
       -0.0113964975 -0.014354029 -0.012468208 -0.013188997
0000b0 82 16 d2 b9 af 7e 61 3c 2c 75 92 bc c2 b5 6e bc
       -0.0004007109 0.013763114 -0.017878138 -0.014569702
0000c0 36 da d1 bb 4b 32 6e 39 b7 9c 8e 3b a6 f7 d7 bc
       -0.0064041866 0.00022716184 0.004352178 -0.026363205
0000d0 0f 88 d7 bc ba 8a 12 3c af 50 94 3c 2b 57 c2 bb
       -0.026309995 0.008944208 0.01810488 -0.0059308014
0000e0 16 15 da 3b 04 d1 15 bc 2f 8b a4 bc 48 b0 f5 b9
       0.0066553457 -0.0091440715 -0.0200859 -0.0004686138
0000f0 bd f8 df bc 31 e4 bf bc 09 b9 a9 3b 1c 46 ae 3c
       -0.027340287 -0.02342424 0.0051795286 0.021273665
000100 cc 8c 30 bb 40 fc 43 3a 98 35 bd 3a fc 51 4b 3a
       -0.002693939 0.0007476248 0.0014435528 0.0007756052
000110 41 4b 0c bd 8c a4 cf 3c 21 92 08 bd f8 d5 9a 3c
       -0.034251455 0.025347017 -0.033342484 0.018900856
000120 87 28 d7 3b bb 41 87 bc a3 cd 23 3c f9 8c 1e bd
       0.0065661105 -0.016510835 0.009997758 -0.03870866
000130 6a a9 46 bc d0 05 11 bd 02 57 88 ba 3f a1 d6 3b
       -0.012125352 -0.035405934 -0.0010401907 0.0065499838
000140 36 eb 6f 3c 32 b9 08 bd a3 7a af bc a2 4c 56 bc
       0.014643481 -0.03337974 -0.021420782 -0.013079794
000150 41 b9 02 bd 1a 4b f9 3c 3e f5 f1 ba 50 aa 0b 3b
       -0.031914953 0.030431319 -0.0018459929 0.002131123
000160 72 eb 18 3b d5 c1 9c 3c 5d f4 81 3c eb db b5 bc
       0.0023333696 0.019135395 0.015863592 -0.022199592
000170 25 ef bc bc ae ac 1a bc 10 a3 d3 bb 8e 28 af 3a
       -0.023063252 -0.009440584 -0.0064586475 0.0013363527
000180 42 ef 0c bd 52 e6 6c bd d7 62 be bb d4 1b bd bc
       -0.03440786 -0.057836838 -0.0058101225 -0.023084559
000190 ab d9 0d bd f8 c6 8c ba 6f 58 7b bb a9 73 97 bb
       -0.034631412 -0.001074045 -0.003835227 -0.004621942
0001a0 e2 99 13 bd 10 ed 8f b9 c8 a3 6b 3b 6e 89 89 bb
       -0.036035426 -0.0002745171 0.0035955776 -0.004197291
0001b0 18 26 b2 3a c7 7d 4a 3c b4 a8 aa 3b ef f7 c6 bb
       0.0013591675 0.012359089 0.0052080993 -0.0060720365
0001c0 dc d9 e4 ba 96 1a 18 3c 73 91 eb bc 98 26 f5 3b
       -0.0017459947 0.009283682 -0.028755879 0.0074814074
0001d0 e2 6f 3c 3c c2 82 36 bc b9 e0 02 bd d1 7a 93 bc
       0.011501284 -0.0111395735 -0.031952593 -0.0180029
0001e0 d1 d1 51 3c d5 bd 09 bc b7 4e 89 bc 11 50 36 3c
       0.012806372 -0.008407076 -0.016761167 0.011127488
0001f0 df 26 9e bc b4 0f 15 bd 48 e6 bb bc cb 6c 21 3c
       -0.019305645 -0.03639193 -0.022936955 0.009852598
000200 3d 2d 2e bc de 7e 58 bb d0 35 0d bd f2 35 f2 3b
       -0.010630903 -0.0033034603 -0.034475148 0.0073916847
000210 c6 54 39 3c 74 cd a6 ba e5 35 0c bd bb c7 0c bd
       0.0113117155 -0.0012726025 -0.034231085 -0.034370165
000220 4f 17 2d bc 3d 36 9c bc 07 34 11 3c 00 89 b0 bc
       -0.010564639 -0.019068832 0.008862502 -0.021549702
000230 70 c2 b7 3a 47 04 21 bc ec 7a ae 3a d1 7f 08 bc
       0.0014019739 -0.00982768 0.001331178 -0.008331255
000240 86 75 09 bd 90 03 0e bd 18 bb 18 3b d3 c3 e3 3b
       -0.033559345 -0.034671366 0.0023304876 0.0069508343
000250 bf 22 20 3b f9 8a a7 bb e3 c1 76 bc 7d 1d 9e 3b
       0.0024434773 -0.0051130024 -0.015060875 0.0048252926
000260 e0 25 45 bc 87 2c 0c bd 96 23 0a bd 8e 50 84 bc
       -0.012032956 -0.034222152 -0.033725344 -0.016151693
000270 39 95 0d bd 6d 6c 4a 3c f0 8a e5 bb c0 60 eb 3c
       -0.034566138 0.012354952 -0.007005088 0.028732657
000280 06 7e b8 bc 9a 8f 31 3c eb 78 5f bc 6a de 8d 3a
       -0.02252103 0.01083746 -0.013639669 0.0010823731
000290 dd 70 0b bd ee 1c 87 bc c9 4d 0e bd ea 2d eb 3b
       -0.03404318 -0.016493287 -0.03474215 0.0071771042
0002a0 2e 00 14 3c 08 9a 08 ba 45 c2 70 3b a9 62 6c bc
       0.009033246 -0.0005210941 0.0036736887 -0.014427819
0002b0 6e 65 ef bb f8 87 9f bc aa e7 8a bb 92 b0 e9 3c
       -0.0073057925 -0.019474015 -0.0042390423 0.028526578
0002c0 37 7b 0f bc cc c8 c4 bc 50 e6 35 bc 66 21 86 3b
       -0.008757404 -0.024021529 -0.011102274 0.004093337
0002d0 62 36 64 bc e6 5e bb 3c 54 89 e0 bc 8e 15 03 bd
       -0.0139289815 0.0228724 -0.027409233 -0.032002978
0002e0 21 6c 7e 3c 9c dc f7 bb 08 7c 0c ba cf e6 04 bd
       0.01552871 -0.0075641405 -0.0005359058 -0.03244668
0002f0 8b 67 82 ba 93 1c 0b bd 91 b3 eb bb 13 bd 07 bb
       -0.0009949071 -0.033962797 -0.007193037 -0.0020712062
000300 82 e4 f2 bc 12 b3 b3 3a e4 35 06 bd 50 be ad bc
       -0.029649977 0.0013709983 -0.032766238 -0.021208912
000310 00 60 e5 36 1f 5c a7 3c 95 bc 3f 3c 67 d7 09 bd
       6.8359077e-06 0.020429669 0.011702676 -0.03365269
000320 8b d2 b6 3c 4a e2 8e 3b 41 48 0d bc 9c 49 4f 3c
       0.022317192 0.004360472 -0.008623184 0.012651827
000330 34 32 8f 3c 04 1f 33 3b fd 77 cb 3b ae 6a 0c 3c
       0.017479993 0.002733172 0.006209372 0.008570356
000340 93 4d 70 bc a2 9e f9 bc dc cd 1a 3c 6b 10 cf bc
       -0.014666933 -0.03047115 0.009448495 -0.025276383
000350 f0 a8 8c 3a af ef 0c bd 30 2f dd bc 72 50 8c ba
       0.00107315 -0.034408268 -0.02700004 -0.0010705127
000360 e4 f0 7d bb 7c 69 a0 bc fd 0f 2a 3d ca fe 3f 3b
       -0.0038748318 -0.019581549 0.041519154 0.0029296153
000370 84 8a 9a bc 7a 96 d8 bc 9d 98 c5 bc 3b 96 3a 3b
       -0.018864878 -0.02643894 -0.024120623 0.0028470892
000380 ca ea 6b bc 3b c6 1d bc b6 92 e0 bc 85 1e 06 bc
       -0.01439924 -0.009629781 -0.027413707 -0.008185987
000390 0c 65 59 bc f4 aa ef bc 6f 7a 2a bc 47 9e f8 bc
       -0.01326872 -0.029256321 -0.010405167 -0.03034891
0003a0 48 ad 0e bd aa 8f c3 bc 56 6a 3d 3c b5 b2 06 bb
       -0.034833223 -0.023872215 0.011560997 -0.0020553295
0003b0 a0 80 b2 bc d0 58 89 ba 9f 18 7c bc 28 11 0f bb
       -0.021789849 -0.0010478739 -0.0153867295 -0.0021830294
0003c0 80 65 c0 bb a3 ec cb bb 52 55 03 bc cd 9a 77 bc
       -0.0058714747 -0.0062232777 -0.008015947 -0.015112591
0003d0 1b 6c 0a bd 38 bf c9 ba cb 0a 07 bd 79 71 39 3c
       -0.033794504 -0.0015392071 -0.032969277 0.011318558
0003e0 05 46 c5 bc 03 1b bb bc 86 d3 86 bc d8 3d fe bc
       -0.02408124 -0.022840029 -0.016458284 -0.031035349
0003f0 e8 0c 91 b9 ce 35 2f 3c 6c 3b 87 bc 92 68 01 bd
       -0.0002766617 0.01069398 -0.016507827 -0.031593867

weight f4 [300, 300]
000000 30 f0 a3 3b c6 42 86 3c 4e 21 2f 3b 5a f3 7d 3c
       0.005002998 0.016389262 0.0026722732 0.015499914
000010 40 e4 a6 bc 52 ad 9f 3b 62 a3 83 bb a0 8c fc 3c
       -0.02037251 0.0048729563 -0.0040172795 0.030828774
000020 c0 97 0a 3d 78 17 98 ba 38 c1 11 bb e4 08 a3 3b
       0.033836126 -0.0011603674 -0.0022240411 0.004975425
000030 0b 79 de 3b 96 a5 a1 3c e0 cd 4f bc 13 c3 2c 3c
       0.006789332 0.019732278 -0.012683362 0.010544556
000040 e8 99 ac 3c 06 94 71 bc 42 64 4c bc 0e ab f7 3c
       0.021069482 -0.014744764 -0.012475075 0.030232932
000050 5c 5b 61 3c 3e 54 ee 3c 00 1d b2 ba 90 d4 01 ba
       0.013754692 0.029092904 -0.0013588965 -0.0004952634
000060 1f 6e 9b bc 2a bb 3d 3c 6a 88 4b bc b8 10 6d bb
       -0.018973408 0.011580268 -0.01242266 -0.0036173295
000070 d1 31 ae 3c fb d1 ce bb 61 37 ec 3c 54 ed 82 3c
       0.021263989 -0.0063116527 0.028835 0.015982307
000080 d5 f2 4a bc e8 55 2d bb be 6b c0 3c e9 ed 84 3c
       -0.012386997 -0.002644891 0.023488875 0.016226726
000090 f4 06 af 3c 8c 36 86 3c f8 e1 2e ba 68 04 a1 bc
       0.02136562 0.016383432 -0.0006671245 -0.019655421
0000a0 20 9d 8b bc 5c ca ff bc db 82 84 3c 13 94 1c bc
       -0.017042696 -0.031224422 0.016175678 -0.009556788
0000b0 19 8b ee bb 6e aa dc bc ae 22 b7 3c f4 cb 9e 3a
       -0.0072797653 -0.026936736 0.022355404 0.0012115226
0000c0 60 ac a1 bc e4 df 83 bc f1 2c 48 3c 2c 26 25 bd
       -0.019735515 -0.01609797 0.012217746 -0.040319607
0000d0 f6 0f 7a 3b aa 12 65 3b df 22 80 bc 89 f1 49 bc
       0.0038156486 0.0034953752 -0.015641628 -0.012325653
0000e0 6e 8b 22 bc e0 3a e8 ba d4 46 28 3c 37 1c 01 3c
       -0.009920938 -0.0017717741 0.010270793 0.007880262
0000f0 85 a2 1b bc f3 4e 14 3c e2 bf 9b 3b 6b af 62 3c
       -0.009499197 0.009052026 0.004753099 0.013835768
000100 fa dd 98 ba f4 fd 3d 3c 60 d3 3e bc a1 d1 61 bc
       -0.0011662834 0.011596192 -0.011647075 -0.01378289
000110 a4 2a 2d bc 77 b4 23 3b 9e af 84 3c 86 16 df bc
       -0.010569248 0.0024979392 0.016197022 -0.02723242
000120 4d 54 dd 3c 20 75 ba ba 60 d5 63 ba 03 8f 84 bc
       0.027017737 -0.001422558 -0.0008691158 -0.016181475
000130 54 26 85 bb 72 e9 e4 3c d7 ca d4 bb 02 81 1c 3c
       -0.004063407 0.027943347 -0.006493907 0.009552242
000140 6e 4a f0 3c 48 e6 d2 3c 98 91 06 3d 68 5d 0d bb
       0.029332366 0.025744572 0.032853693 -0.0021570567
000150 f0 fa a7 b9 00 01 3f 3c 84 ac 5f bc bd 01 9d bb
       -0.00032039685 0.011657953 -0.013651971 -0.004791467
000160 6f 6e 96 bb 30 b6 83 3b 74 a3 60 bc c4 f2 5d bc
       -0.0045908014 0.004019521 -0.013710845 -0.013546649
000170 28 ca f8 bc c2 9c a7 bb c1 c6 ac bc d0 17 83 bb
       -0.030369833 -0.0051151225 -0.021090867 -0.0040006414
000180 f8 6a 6c bc 00 ac 54 b6 30 31 ce 3a 70 87 6a bb
       -0.0144298 -3.169058e-06 0.0015731212 -0.0035786293
000190 54 b1 3c bb 06 d0 96 bb d7 cf 35 bc 02 39 57 bc
       -0.002879222 -0.004602435 -0.011096916 -0.01313615
0001a0 f9 e5 c4 3b b0 b8 82 3c 1c 55 ab 3c ee 7b a8 3a
       0.00600886 0.015957206 0.020914607 0.0012854317
0001b0 62 78 6f bc 5c 3b 1a bb 6e 6d 27 3c 0c 01 e2 3a
       -0.014616104 -0.0023533916 0.010218961 0.0017242744
0001c0 1f 3b b9 bc 4a a8 f2 3b 52 bc 3b 3c d0 db 91 3b
       -0.022611199 0.0074053155 0.011458473 0.0044512525
0001d0 b6 06 a0 3b dd d1 01 bc 3a 93 b1 bc e0 cc eb 3c
       0.0048836125 -0.00792357 -0.021676648 0.028784215
0001e0 0b 76 70 3c 1a 2a 45 3b 6e 05 9b 3b 44 99 b7 3c
       0.014676581 0.003008491 0.004730872 0.02241195
0001f0 eb c5 53 3c b0 06 78 bc 14 71 72 bc c0 f0 d4 ba
       0.012925605 -0.015138313 -0.014797468 -0.0016246065
000200 0e 41 70 bb ed f7 81 bc d7 07 03 bc bf a4 6e bc
       -0.003665987 -0.01586529 -0.007997475 -0.014565646
000210 90 cb 4d bc 64 98 09 bc 13 f9 92 bb 5a 7d 67 bb
       -0.01256074 -0.008398149 -0.0044852584 -0.0035322518
000220 75 0a 12 bd 74 82 89 3c 5b ba 0f 3c 68 8b a1 3b
       -0.035654504 0.016785838 0.008772458 0.0049299486
000230 58 2c 9a ba 04 59 21 3b 8b 2d 41 bc dc 36 b8 3a
       -0.0011762483 0.0024619708 -0.011790643 0.0014054435
000240 4b 47 20 3c 7a ed 52 3c 68 19 ce 3c b9 f1 7d 3c
       0.009782623 0.012874002 0.025158599 0.015499526
000250 5a dc 26 3b 5a 0e 93 3b c0 c4 5a bb dd e5 0c 3d
       0.002546093 0.004487795 -0.0033381432 0.034398902
000260 ed 53 9b 3b ed b5 40 3c 38 fd ad bb 9b a0 ed 3b
       0.0047402293 0.0117621245 -0.005309727 0.0072518117
000270 2e 8d e1 3a 00 42 e6 bb 94 2b 76 bc 50 99 4a ba
       0.0017208213 -0.007026911 -0.015025038 -0.0007728534
000280 28 6b 75 bc e8 77 1e bc 60 7b 70 3a a0 e7 8a 3c
       -0.014979161 -0.009672143 0.0009173658 0.01695615
000290 51 7d 7d bc 77 0b 61 bc 1b 12 95 3b d0 0f 01 bb
       -0.015471772 -0.013735644 0.0045492775 -0.0019693263
0002a0 a7 63 b8 bb c9 c1 59 bc f4 3a 2d bc 22 59 41 3c
       -0.005627114 -0.013290831 -0.010573138 0.011801036
0002b0 f0 a0 20 bb 72 f5 45 3c c4 d4 a4 bb 06 98 63 3c
       -0.0024509989 0.0120824445 -0.0050302465 0.013891226
0002c0 65 c6 62 3c 3e 36 57 bc e0 ed ef b9 5c f6 30 3c
       0.013841246 -0.013135491 -0.00045762863 0.010800924
0002d0 fe a3 0a bc 77 5a a3 bc 34 38 2f bc e9 ed 77 bc
       -0.00846195 -0.019940598 -0.010694552 -0.015132406
0002e0 63 df a8 bb 06 53 99 bb ce 6b 82 bc 00 89 e1 3a
       -0.005153583 -0.0046790866 -0.015920546 0.0017206967
0002f0 12 c5 c3 3a e4 32 6f bc e0 d9 b2 3a 0c c5 75 3c
       0.0014936051 -0.014599536 0.0013645254 0.015000593
000300 74 52 f7 bc fc a7 21 bc e8 8c 00 3d 92 64 1f bc
       -0.030190684 -0.009866711 0.03138438 -0.009728568
000310 6e a6 77 bc 3e 73 f5 3c 9d ff 12 bc 62 c4 6b 3c
       -0.0151153635 0.029962178 -0.008972076 0.014390083
000320 06 ef 07 3c 0c b7 66 bb 61 ac 03 3c 10 3d 33 bc
       0.008296734 -0.003520432 0.008036704 -0.010939851
000330 03 91 70 bc e2 6a 20 3b 27 51 a6 bb 0e 60 65 bc
       -0.014683011 0.002447777 -0.005075592 -0.013999952
000340 d2 75 4e bc 7a 37 32 bc a6 df 5e 3c e8 a5 c2 3c
       -0.012601333 -0.010877484 0.013603127 0.02376075
000350 00 6d 75 bb 00 77 7a 3c b8 40 04 3d f5 7e 66 bc
       -0.0037449002 0.015287161 0.032288283 -0.014068355
000360 92 6d 77 bb 63 ae a5 bc da 43 be bb d9 73 24 bc
       -0.0037754518 -0.020224756 -0.0058064284 -0.010037386
000370 88 49 cf b9 08 1b 67 bc f2 d4 fc bc c7 88 e9 bc
       -0.00039536902 -0.014105566 -0.030863259 -0.028507603
000380 80 bf 1b 3b f9 63 aa bb a7 ed ec 3c 48 c7 8d 3b
       0.0023765266 -0.005199906 0.028921915 0.0043267347
000390 ca 1d b1 3b e2 c0 fc 3b c2 c3 ef 3b e4 a6 66 bb
       0.0054051625 0.007713423 0.0073170373 -0.003519469
0003a0 4c 85 84 3c 00 50 f5 35 e4 d7 22 bc 74 85 ae 3c
       0.016176842 1.8277206e-06 -0.009939168 0.02130387
0003b0 48 a5 a8 bc bc 9c 16 bb fd 65 2e bc 76 57 49 bc
       -0.020586625 -0.0022981605 -0.010644433 -0.012288919
0003c0 dc 90 7a 3c 70 77 7b 3c 84 08 71 bc ac 47 01 3c
       0.015293326 0.0153483 -0.014711503 0.007890623
0003d0 ba 4a 67 3c c1 6a f0 bb f2 60 03 bd b8 a1 f9 3a
       0.014116937 -0.007336945 -0.032074876 0.0019045388
0003e0 58 3b 8d ba 6c 41 0d bb 17 57 03 bc 8a d5 6c 3c
       -0.0010775132 -0.0021553887 -0.008016369 0.014455209
0003f0 f6 e8 d4 3c 0e a0 66 bc 8c bf 30 3c ea c0 9a bc
       0.02598999 -0.014076246 0.010787856 -0.018890817

bias f4 [25]
000000 00 00 00 00 00 00 00 00 00 00 00 00 00 00 00 00
       0.0 0.0 0.0 0.0
000010 00 00 00 00 00 00 00 00 00 00 00 00 00 00 00 00
       0.0 0.0 0.0 0.0
000020 00 00 00 00 00 00 00 00 00 00 00 00 00 00 00 00
       0.0 0.0 0.0 0.0
000030 00 00 00 00 00 00 00 00 00 00 00 00 00 00 00 00
       0.0 0.0 0.0 0.0
000040 00 00 00 00 00 00 00 00 00 00 00 00 00 00 00 00
       0.0 0.0 0.0 0.0
000050 00 00 00 00 00 00 00 00 00 00 00 00 00 00 00 00
       0.0 0.0 0.0 0.0
000060 00 00 00 00
       0.0
