deep_learning/models/GCNLinkPrediction58.pth (torch, 185248 bytes, 10 tensors)

bias f4 [100]
0	0xbe35ce17	-0.17754398
1	0x3d29599e	0.04134523
2	0xbe2e3893	-0.17013769
3	0x3e45edff	0.1932907
4	0xbe414d32	-0.18877104
5	0xbe381f83	-0.17980771
6	0xbe2db94c	-0.16965216
7	0x3e3a58e9	0.18197979
8	0x3e3bc7aa	0.18337885
9	0xbe3cd1c2	-0.18439391
10	0x3dc24a17	0.09486788
11	0xbe352df9	-0.17693318
12	0x3e11ef52	0.1425145
13	0x3e369c7a	0.17833129
14	0xbe39722b	-0.18109958
15	0xbe35fa98	-0.17771375
16	0xbe264f7c	-0.16241258
17	0x3bdc018e	0.0067140525
18	0x3d800977	0.06251805
19	0xbe364d48	-0.17802918
20	0x3d9e84a4	0.07740143
21	0xbe35be02	-0.17748263
22	0x3e095e04	0.1341477
23	0xbe35e594	-0.17763358
24	0x3aa551b0	0.0012612846
25	0xbe35d788	-0.17758
26	0x3deb0508	0.11475569
27	0x3e107360	0.14106512
28	0xbd3740e9	-0.044739638
29	0xbe4a6cb2	-0.19768026
30	0xbe7921df	-0.24329327
31	0x3e3381e3	0.17530017
32	0x3e4a25b7	0.1974095
33	0x3dc9cf47	0.09853988
34	0x3d8d1fc5	0.06890825
35	0xbe35bd26	-0.17747936
36	0xbdd49438	-0.10379833
37	0x3d81d45c	0.063393325
38	0x3e41855c	0.18898529
39	0x3d187a9b	0.0372263
40	0x3e1f0b59	0.15531673
41	0xbe375496	-0.1790336
42	0xbe357558	-0.17720544
43	0xbe372ef5	-0.17889006
44	0xbe35b261	-0.17743827
45	0xbe35b66b	-0.17745368
46	0xbe37e0e7	-0.17956887
47	0xbe3a7651	-0.18209197
48	0x3db367e4	0.0876005
49	0x3e27c19c	0.1638245
50	0x3e14a9ac	0.1451785
51	0xbe39c4e9	-0.18141522
52	0xbdd71d3f	-0.10503625
53	0x3dffe1a9	0.12494213
54	0xbe3d4dde	-0.18486735
55	0x3e29557a	0.16536513
56	0xbe356a94	-0.17716438
57	0x3e2ee909	0.17081083
58	0xbe359a14	-0.17734557
59	0x3dbf512c	0.09341654
60	0xbe283e50	-0.1643002
61	0xbe33d135	-0.17560275
62	0xbe3a6ab6	-0.1820477
63	0xbe3610e6	-0.17779884
64	0xbdf02522	-0.117258325
65	0x3da25a7f	0.07927417
66	0x3e43063d	0.19045348
67	0xbe364859	-0.17801036
68	0xbe38e9b3	-0.18057899
69	0x3dd4b637	0.10386317
70	0x3df6d907	0.120531134
71	0xbe354f9a	-0.17706147
72	0xbe7bff0c	-0.24609011
73	0x3e526778	0.20547283
74	0x3e26789c	0.16256946
75	0xbe383209	-0.17987837
76	0xbe2ff21c	-0.17182201
77	0xbdae3b04	-0.0850735
78	0xbe4308e6	-0.19046363
79	0xbe35c04d	-0.17749138
80	0xbe04bf85	-0.12963684
81	0xbe280c1a	-0.16410866
82	0xbcd46a5e	-0.025929626
83	0x3e0c2135	0.13684542
84	0xbe38072a	-0.17971483
85	0x3c93ad0e	0.018026855
86	0xbe89b77f	-0.2689781
87	0x3e0071d3	0.1254342
88	0x3e1b07b5	0.15139659
89	0xbe3938e2	-0.18088105
90	0xbe3704d8	-0.17872941
91	0x3e27a220	0.1637044
92	0xbe35c842	-0.17752174
93	0x3da7ff14	0.08202949
94	0x3e31cb97	0.1736282
95	0xbe351667	-0.17684327
96	0x3dfed5fc	0.12443158
97	0x3c640486	0.013917094
98	0xbe248ab6	-0.16068539
99	0xbe360ccf	-0.17778324

weight f4 [100, 18]
0	0xbeb20996	-0.34772938
1	0xbdd27ec8	-0.10278088
2	0xbdb2974a	-0.08720262
3	0xbe975926	-0.29560202
4	0xbea7df30	-0.32787466
5	0xbdbcf5f0	-0.09226596
6	0xbe5befbc	-0.2147817
7	0x3cd66a68	0.026173785
8	0xbda0076b	-0.07813915
9	0xbe5bb331	-0.21455075
10	0xbec1255e	-0.3772382
11	0xbe90d3db	-0.28286633
12	0xbe2cf930	-0.16891932
13	0xbea06e31	-0.3133407
14	0xbe4aa856	-0.19790778
15	0x3a1b65c0	0.00059279427
16	0xbe8f7598	-0.28019404
17	0xbe7f1476	-0.24910149
18	0xbe345bf0	-0.17613196
19	0xbcca71af	-0.024712412
20	0xbbeb9910	-0.0071898773
21	0x3e728ba7	0.23686086
22	0xbe314347	-0.1731082
23	0xbeed191e	-0.46308225
24	0x3e681945	0.2266589
25	0x3d91f6a6	0.071271226
26	0xbe0d9f55	-0.13830312
27	0x3e120cf4	0.14262754
28	0x3e39e613	0.18154173
29	0xbe173191	-0.14765002
30	0x3e045b09	0.12925352
31	0xbdd19b8d	-0.10234747
32	0xbdbc9da8	-0.09209758
33	0x3e4d5cf3	0.20054989
34	0xbd66fb7e	-0.056392185
35	0xbdb5fb54	-0.08885828
36	0xbde327dc	-0.11091587
37	0x3b055402	0.0020344262
38	0xbd1b000d	-0.037841845
39	0xbd6deb00	-0.05808544
40	0xbc9839e0	-0.018582284
41	0x3eaec48c	0.34134328
42	0x3ba4fc90	0.0050349906
43	0x3e92b140	0.28650856
44	0xbd65a9c4	-0.056070104
45	0x3cfcf254	0.03087727
46	0xbea634a4	-0.32462037
47	0xbe802b98	-0.2503326
48	0xbd20bc57	-0.039242115
49	0x3d7dbc07	0.061946895
50	0xbde067c4	-0.10957292
51	0xbea4ba71	-0.32173494
52	0xbdb6d217	-0.0892679
53	0xbe884243	-0.26613054
54	0x3e8a858b	0.2705501
55	0x3eac8442	0.33694655
56	0x3dfd2987	0.12361436
57	0x3ed5d2d9	0.41762426
58	0x3e0f8546	0.14015684
59	0x3eb7bee3	0.35887823
60	0x3ea88617	0.32914802
61	0x3ee2600e	0.4421391
62	0x3dc58a8f	0.096455686
63	0x3bdac675	0.00667649
64	0x3e433c47	0.19065963
65	0x3c9df597	0.019282145
66	0x3e2fd6cc	0.17171782
67	0x3cfb45dc	0.03067296
68	0x3ec1a5af	0.3782172
69	0x3eacf0cb	0.3377746
70	0x3dcc2542	0.09968044
71	0x3e9075c4	0.28214848
72	0xbeaf6db8	-0.34263396
73	0xbed0d275	-0.40785566
74	0xbed81b8c	-0.42208517
75	0xbdc980fc	-0.09839055
76	0xbe2ca961	-0.16861488
77	0x3e9bd8eb	0.30438933
78	0xbd963f36	-0.07336275
79	0x3e0aee5d	0.13567491
80	0xbe9b74d3	-0.30362567
81	0xbe1d2d8c	-0.15349406
82	0xbe975297	-0.295552
83	0xbebf249f	-0.37332627
84	0xbda47c2f	-0.08031499
85	0xbda08bd2	-0.078391686
86	0xbe916887	-0.2840006
87	0xbe92b5e9	-0.2865441
88	0xbecdcea8	-0.4019673
89	0xbe1076ce	-0.1410782
90	0xbe88399b	-0.2660645
91	0xbda044a7	-0.078255944
92	0xbde807d0	-0.11329615
93	0xbeccc297	-0.3999221
94	0xbdffb6f8	-0.124860704
95	0x3e86b855	0.2631251
96	0xbe9a0269	-0.30079964
97	0xbe1ad483	-0.1512013
98	0xbdb9ff0c	-0.090818495
99	0xbe83f52f	-0.25772998
100	0xbe9573d3	-0.2918993
101	0xbe8fc8c2	-0.28082854
102	0xbeb6a3cb	-0.3567184
103	0xbe3f5448	-0.18684494
104	0xbe56b6ab	-0.2096812
105	0xbeb6c845	-0.3569967
106	0xbdaa5ac3	-0.08318093
107	0x3c3ef56a	0.011655191
108	0xbe201d44	-0.15636164
109	0xbd11e788	-0.035621196
110	0xbdea36f0	-0.1143626
111	0xbdb81044	-0.089874774
112	0xbdf8128f	-0.12112915
113	0x3eac7cf3	0.3368908
114	0xbe7f4e16	-0.24932131
115	0xbd2a774e	-0.041617684
116	0xbe6b9f9c	-0.23010105
117	0xbdd7c526	-0.1053565
118	0xbc9a629c	-0.018845849
119	0xbe4154ac	-0.18879956
120	0xbeb43327	-0.35195276
121	0xbe36ec8c	-0.17863673
122	0xbe84c146	-0.25928706
123	0xbe8e7e09	-0.27830532
124	0xbe376675	-0.17910178
125	0xbe414f4e	-0.18877909
126	0x3e5d6167	0.21619187
127	0xbd06c112	-0.03289897
128	0xbdb91efe	-0.090391144
129	0xbe0ad3da	-0.13557377
130	0x3e0be7e9	0.13662685
131	0xbeaee99d	-0.34162608
132	0xbd615966	-0.055016898
133	0xbee0e52a	-0.43924838
134	0x3d398239	0.045290206
135	0x3e0a6886	0.13516435
136	0x3e1c292b	0.1525008
137	0x3e62dbbc	0.22154135
138	0x3ce326a7	0.027728392
139	0x3e4e37c5	0.20138462
140	0xbd5e9746	-0.054343484
141	0x3ec33257	0.38124344
142	0x3eb6ad62	0.35679156
143	0x3e42fdde	0.19042155
144	0x3e43730e	0.19086859
145	0x3e0f7d56	0.14012656
146	0x3e9ba541	0.30399516
147	0x3a979a00	0.0011566281
148	0x3e9c3cab	0.30515036
149	0x3e417a65	0.18894346
150	0x3ed6f48b	0.41983446
151	0x3ee18dec	0.4405359
152	0x3e8e1b09	0.27755
153	0x3da7b599	0.08188934
154	0x3eaf7ee7	0.34276506
155	0x3eb2ef09	0.34947994
156	0x3e3263e1	0.17420913
157	0x3e5bb92d	0.21457358
158	0x3e974bb3	0.2954994
159	0x3cc74443	0.024324542
160	0x3ebabe6b	0.36473402
161	0x3eb80480	0.35940933
162	0xbeb337d6	-0.35003537
163	0xbe2ea9d4	-0.17056972
164	0xbde74160	-0.11291766
165	0xbecbe71d	-0.39824763
166	0x3d3c0782	0.045905598
167	0xba114d90	-0.0005542869
168	0xbd817dee	-0.06322847
169	0xbe13edf3	-0.14446239
170	0x3ceb7940	0.02874434
171	0xbc31da2e	-0.010855241
172	0xbecb838e	-0.39748806
173	0xbe2ce1ea	-0.16883054
174	0xbe1a62e9	-0.15076794
175	0xbd0f5524	-0.034993306
176	0xbd996a61	-0.07490993
177	0xbe9b2b88	-0.3030665
178	0xbecd2123	-0.40064344
179	0xbe24cac6	-0.16092977
180	0xbde8e549	-0.11371858
181	0xbe5905bb	-0.21193592
182	0xbe060c55	-0.13090642
183	0xbeb4f9fe	-0.3534698
184	0xbe231cfb	-0.15929024
185	0xbe92809c	-0.28613746
186	0xbdfba6cc	-0.12287673
187	0xbe432a90	-0.19059205
188	0xbec9793e	-0.39350313
189	0x3e895433	0.2682205
190	0x3e185584	0.14876372
191	0xbe6f0e36	-0.23345265
192	0xbca36c27	-0.019949032
193	0x3d88027c	0.06641099
194	0xbe7180e9	-0.23584332
195	0xbd840046	-0.06445365
196	0xbeb45726	-0.3522274
197	0xbe036178	-0.1283015
198	0x3c8bf1e7	0.017083121
199	0xbd86af7e	-0.06576441
200	0xbdcf8791	-0.10133279
201	0x3d62b1b5	0.055345256
202	0xbda9f2c4	-0.08298257
203	0x3e147c89	0.14500631
204	0xbe8dbf7e	-0.2768516
205	0xbd24aeb6	-0.04020568
206	0xbecacf92	-0.3961149
207	0xbe3ba6bd	-0.18325324
208	0xbe8554b4	-0.26041186
209	0xbeae3570	-0.34025145
210	0x3d04ac2a	0.03239075
211	0xbec1cbeb	-0.3785089
212	0xbde18c40	-0.11013079
213	0xbea94d71	-0.33066896
214	0xbebdb153	-0.3704935
215	0xbd031450	-0.032001793
216	0x3d6c4989	0.057687316
217	0x3e8e9e02	0.27854925
218	0x3d97d7ce	0.07414208
219	0x3e983f2e	0.29735702
220	0x3ddd703c	0.10812423
221	0x3e8bfd3d	0.27341643
222	0x3e9ad66a	0.3024171
223	0x3e9a8212	0.3017736
224	0x3e42bedc	0.1901812
225	0x3e1498ad	0.14511366
226	0x3e949bad	0.2902502
227	0x3e75d71a	0.24007836
228	0x3e0ca354	0.1373418
229	0x3e70690c	0.23477572
230	0x3eadba92	0.33931404
231	0x3e909943	0.2824193
232	0x3e2f84d2	0.1714051
233	0xbce3b658	-0.02779691
234	0x3c62c190	0.013840094
235	0xbdd453ce	-0.10367547
236	0x3e4ceb71	0.20011689
237	0x3e2bf173	0.16791324
238	0xbdd3b131	-0.10336531
239	0xbeb551cc	-0.3541397
240	0x3e8beacd	0.27327576
241	0xbedf998d	-0.43671837
242	0x3e277aa0	0.16355371
243	0x3de22228	0.11041671
244	0xbd457cee	-0.048214845
245	0x3e8b4b8c	0.27206075
246	0xbd8d0a76	-0.06886761
247	0x3eb37b0c	0.35054815
248	0x3db2134c	0.08695087
249	0x3cea7d63	0.028624242
250	0x3e41ebdf	0.18937634
251	0x3e7868b7	0.24258696
252	0x3cef04da	0.029177118
253	0xbddd1637	-0.10795253
254	0x3ce735ec	0.028223954
255	0xbe18174a	-0.14852634

bias f4 [100]
0	0x3df4f29f	0.11960339
1	0xbe35be1b	-0.177483
2	0x3dfbccc4	0.12294915
3	0xbe36309e	-0.17791983
4	0x3e28e006	0.16491708
5	0xbe35a872	-0.17740038
6	0xbe35c133	-0.17749481
7	0x3dd0e182	0.10199262
8	0xbe35c134	-0.17749482
9	0x3ddfdd81	0.109309204
10	0x3e224bbd	0.15849204
11	0x3dfda7ae	0.12385498
12	0xbe35c13b	-0.17749493
13	0x3cbce34b	0.0230576
14	0x3d97569a	0.07389565
15	0xbd0e3eec	-0.034727976
16	0x3e10b98e	0.14133283
17	0x3e247b31	0.16062619
18	0xbe35c13d	-0.17749496
19	0xbe330a61	-0.17484428
20	0xbdd8ad03	-0.10579874
21	0xbe35c133	-0.17749481
22	0x3dd2e146	0.10296874
23	0xbd820491	-0.06348527
24	0x3e0d0d1d	0.13774534
25	0x3e0f9c09	0.14024366
26	0xbe35c13c	-0.17749494
27	0xbe360cda	-0.1777834
28	0xbe35be1c	-0.17748302
29	0x3e49de1b	0.19713633
30	0x3e2c4d53	0.16826372
31	0xbcd2be97	-0.025725646
32	0xbe35c0fa	-0.17749396
33	0xbd157055	-0.03648408
34	0xbe29de17	-0.16588627
35	0xbe35c130	-0.17749476
36	0x3e2479cf	0.16062091
37	0x3e2cb2ec	0.16865128
38	0xbe3011e2	-0.17194322
39	0x3e1288ad	0.1430995
40	0x3e31dfa5	0.1737047
41	0xbe361dcf	-0.17784809
42	0x3e60a402	0.21937564
43	0xbe35c075	-0.17749198
44	0x3e1d8c2b	0.15385501
45	0x3df26779	0.11836142
46	0xbe364f56	-0.17803702
47	0xbe35c0fd	-0.177494
48	0x3d94f47c	0.07273194
49	0x3e29dd2c	0.16588277
50	0x3e0b0f9f	0.13580178
51	0xbe35c12b	-0.17749469
52	0x3e208a1a	0.15677682
53	0x3e3a0c12	0.18168667
54	0xbe3636de	-0.17794368
55	0xbe3cad47	-0.18425475
56	0xbe35c119	-0.17749442
57	0x3dd5a4da	0.104318336
58	0x3e27a8d1	0.16372992
59	0x3e117c3d	0.1420755
60	0x3e2b7f76	0.16747841
61	0x3e21db09	0.15806212
62	0x3e2e9ff3	0.17053203
63	0x3e1a4ddd	0.15068765
64	0x3e26cf32	0.16289976
65	0xbe35c138	-0.17749488
66	0xbe35c120	-0.17749453
67	0xbe35ed76	-0.17766365
68	0x3e210a5a	0.15726605
69	0x3e1178da	0.14206257
70	0x3de79ab5	0.11308805
71	0xbe35c13e	-0.17749497
72	0x3e3116be	0.17293832
73	0x3db98fa3	0.090606
74	0x3e02086b	0.12698524
75	0xbe35c13c	-0.17749494
76	0x3e157db1	0.14598729
77	0x3dcc0b23	0.09963062
78	0xbe379258	-0.1792692
79	0x3e201793	0.15633993
80	0xbe35c132	-0.1774948
81	0x3e2c1ba3	0.16807418
82	0xbe35c028	-0.17749083
83	0x3e3152f0	0.17316794
84	0xbe35c0ef	-0.1774938
85	0x3e2662dd	0.16248651
86	0x3e34feda	0.17675343
87	0x3e258ad8	0.16166246
88	0x3e2117ef	0.15731786
89	0x3e25acaa	0.16179147
90	0xbe35c140	-0.177495
91	0xbe35c0ae	-0.17749283
92	0x3dde8f7a	0.1086721
93	0xbe31b4f1	-0.1735418
94	0x3e265026	0.16241512
95	0x3e33d5ef	0.17562078
96	0xbe35c138	-0.17749488
97	0xbdd1f3a7	-0.10251551
98	0xbe3bbbbb	-0.18333332
99	0xbaae5bf0	-0.0013302546

weight f4 [100, 100]
0	0x3eb20bf8	0.34774756
1	0x3eb43fb7	0.3520486
2	0xbeb33c1a	-0.3500679
3	0xbe0f007f	-0.13965033
4	0xbcbf9937	-0.023388488
5	0xbea5f5dd	-0.3241414
6	0x3e16e502	0.14735797
7	0x3e95ac2c	0.2923292
8	0xbe604104	-0.21899801
9	0x3e0f05fc	0.13967127
10	0x3e847925	0.25873676
11	0x3e868c95	0.2627913
12	0xbdf1c565	-0.11805228
13	0x3db6e0b5	0.08929578
14	0x3eaf8a7e	0.3428535
15	0x3e1ad03b	0.15118496
16	0x3e21f1ef	0.15814947
17	0x3ed0fbd5	0.40817133
18	0x3de1dd1d	0.11028502
19	0x3dfd3aad	0.12364707
20	0x3dd8eef1	0.105924495
21	0x3dcd3894	0.10020557
22	0x3e52022f	0.20508645
23	0x3e74bc4b	0.23899953
24	0xbd4a917d	-0.049455155
25	0x3e10ce9f	0.1414132
26	0x3e34d647	0.17659865
27	0x3e948de9	0.2901452
28	0x3ede6139	0.4343355
29	0xbda1f75c	-0.07908508
30	0x3dc768a6	0.09736757
31	0x3e23a589	0.15981115
32	0xbddf9632	-0.10917319
33	0xbe9ffb58	-0.31246448
34	0xbe8e42a9	-0.27785233
35	0xbd86fd29	-0.06591255
36	0x3e9cde24	0.3063823
37	0x3ea3b05d	0.31970492
38	0xbe22d42d	-0.15901251
39	0xbd90012a	-0.07031472
40	0xbe31e901	-0.1737404
41	0x3cff3492	0.031152997
42	0xbeb10cb1	-0.34579995
43	0x3e3695d7	0.17830597
44	0xbd4375e0	-0.047719836
45	0xbe7ccc14	-0.24687225
46	0x3e909233	0.2823654
47	0x3e887470	0.26651335
48	0x3e030a26	0.1279684
49	0xbe9a1ee3	-0.3010169
50	0x3dff0fd4	0.12454191
51	0x3ed84d7f	0.42246625
52	0x3ebd9c05	0.37033096
53	0x3e2c0cd2	0.16801766
54	0x3d21052e	0.03931158
55	0x3e5883ae	0.21143982
56	0xbe3660a8	-0.17810309
57	0x3eb90550	0.36136866
58	0x3cd6dad5	0.026227394
59	0x3d09dd94	0.03365858
60	0x3e7b6ac4	0.24552447
61	0x3e7a2310	0.24427438
62	0x3e8f036d	0.279323
63	0xbe096fd8	-0.13421571
64	0xbedee0ef	-0.43530986
65	0xbcc1141c	-0.02356916
66	0x3e42b163	0.1901298
67	0x3ea545f8	0.32279944
68	0x3ea86fba	0.3289774
69	0x3ea7b93f	0.3275852
70	0xbe918718	-0.2842338
71	0x3e32b9d0	0.17453694
72	0x3cbdab35	0.023152927
73	0x3dc0a998	0.094073474
74	0xbe88156c	-0.26578844
75	0x3e2a136a	0.16608968
76	0x3eaadae9	0.3337014
77	0x3eac69f8	0.33674598
78	0xbe057430	-0.13032603
79	0x3e8c1b08	0.27364373
80	0x3d4de980	0.05027151
81	0xbc930cca	-0.017950434
82	0xbeb9ff0a	-0.36327392
83	0xbdb67ad3	-0.089101456
84	0x3e6e894e	0.23294565
85	0x3df6fdc6	0.12060122
86	0xbe197a68	-0.149881
87	0x3be9e491	0.007137843
88	0xbe8afee5	-0.27147594
89	0xbe174c62	-0.14775231
90	0x3e5bcdc7	0.21465217
91	0xbe8f051b	-0.27933583
92	0x3c61a89a	0.013773108
93	0x3e9a1783	0.30096063
94	0xbe101118	-0.14069021
95	0xbd760d4b	-0.06007127
96	0x3ebcfbe2	0.3691092
97	0xbe267ec6	-0.16259298
98	0x3eb5f6b2	0.35539776
99	0xbcf7f8d7	-0.030270023
100	0xbdfa7905	-0.12230114
101	0xbcd65062	-0.026161376
102	0xbe239a0c	-0.15976733
103	0xbe8394ee	-0.25699562
104	0xbc084953	-0.008318263
105	0xbc78824f	-0.015167787
106	0xbe862766	-0.26201934
107	0xbe2c08ee	-0.16800281
108	0xbe63a4c6	-0.22230825
109	0xbe39a412	-0.18128994
110	0xbe75b72c	-0.23995656
111	0xbc7bcc97	-0.015368602
112	0xbcdb0ce0	-0.026739538
113	0xbe898052	-0.26855713
114	0xbde6d03f	-0.112701885
115	0xbea0146a	-0.31265575
116	0xbe6ec3ae	-0.23316833
117	0xbe9ca85d	-0.305972
118	0xbca86d79	-0.020560013
119	0xbe8554cb	-0.26041254
120	0xbdcf7e08	-0.101314604
121	0xbe2d74fc	-0.16939157
122	0xbe651b01	-0.22373582
123	0xbce75b46	-0.028241765
124	0xbeaf1bbe	-0.34200853
125	0xbe29bcb9	-0.16575898
126	0xbe9749ec	-0.29548585
127	0xbe349888	-0.17636311
128	0xbe5bd6d6	-0.21468672
129	0xbe79a3a3	-0.24378829
130	0xbe97e73b	-0.29668602
131	0xbde1179e	-0.10990833
132	0xbe8c919c	-0.2745484
133	0xbe2aab40	-0.16666889
134	0xbdb85cb3	-0.09002056
135	0xbd00c2f2	-0.031435914
136	0xbe159f50	-0.14611554
137	0xbc127efd	-0.008941409
138	0xbe346b2a	-0.17619005
139	0xbea0b57f	-0.3138847
140	0xbe70a867	-0.2350174
141	0xbe3a570a	-0.18197265
142	0xbe6aaa7b	-0.22916596
143	0xbe970468	-0.2949555
144	0xbdd4d67a	-0.10392471
145	0xbe5ee90d	-0.2176859
146	0xbe6bea80	-0.23038673
147	0xbe810491	-0.25198796
148	0xbe5208cc	-0.20511168
149	0xbe848255	-0.25880685
150	0xbeab9a0f	-0.33515975
151	0xbbed59ae	-0.0072433567
152	0xbe2974b8	-0.16548431
153	0xbdca1ff3	-0.09869375
154	0xbe086940	-0.133214
155	0xbea72712	-0.32646996
156	0xbe1650ea	-0.14679304
157	0xb8a15000	-7.6919794e-05
158	0xbd1aa8b7	-0.037758555
159	0xbe1c38a2	-0.15255979
160	0xbe30b53a	-0.17256632
161	0xbd73a0c6	-0.059479497
162	0xbe951365	-0.2911636
163	0xbe8b07fc	-0.2715453
164	0xbe442418	-0.19154394
165	0x3dfedd6f	0.12444579
166	0xbe9d3022	-0.30700785
167	0xbd628680	-0.05530405
168	0xbd6db635	-0.058035094
169	0xbe6d3263	-0.23163752
170	0xbe1be8f6	-0.15225586
171	0x3d52b791	0.051444594
172	0xbd700992	-0.058602877
173	0xbe9234f8	-0.28556037
174	0xbd014ee1	-0.031569365
175	0xbeae9779	-0.3409994
176	0xbe177f59	-0.14794673
177	0xbe333a4b	-0.17502706
178	0xbeb21b95	-0.34786668
179	0xbe80f984	-0.25190365
180	0xbcc2d61c	-0.023783736
181	0xbe67aa74	-0.22623616
182	0xbe6cca9c	-0.23124164
183	0xbe998ea1	-0.2999163
184	0xbe2ffc61	-0.17186119
185	0xbe969cc5	-0.2941648
186	0xbe6d313e	-0.23163316
187	0xbe7e4783	-0.24831967
188	0xbe7ef3e1	-0.2489772
189	0xbe5197d6	-0.20468077
190	0xbdeaa993	-0.11458125
191	0xbda1658e	-0.07880698
192	0xbe775689	-0.24154104
193	0xbdb68451	-0.08911956
194	0xbe8064cd	-0.25076905
195	0xbe8ae7a3	-0.2712985
196	0xbdf194d3	-0.11795964
197	0xbe920e2a	-0.2852643
198	0xbe931ac3	-0.28731355
199	0xbe97016f	-0.2949328
200	0x3e55d28a	0.20881096
201	0x3cc373b2	0.023858879
202	0x3e46d707	0.19417964
203	0x3eaf7592	0.34269387
204	0x3e92cd28	0.28672147
205	0x3e3aafad	0.18231077
206	0x3e59fecd	0.21288605
207	0x3e3f6427	0.18690549
208	0x3eb21737	0.34783337
209	0x3d1a6395	0.037692625
210	0x3e4494b1	0.19197346
211	0x3e18d9af	0.1492679
212	0xbdfc0f80	-0.12307644
213	0xbe25b8a0	-0.1618371
214	0x3e794742	0.24343589
215	0x3ea3bfef	0.3198237
216	0x3e51f138	0.20502174
217	0xbde1e0bb	-0.11029192
218	0xbb704102	-0.0036659841
219	0x3e2e254d	0.17006417
220	0xbd0f2fe0	-0.034957767
221	0x3e812c0d	0.2522892
222	0x3e22e60b	0.15908067
223	0x3e88a821	0.26690772
224	0xbdf376e1	-0.11887909
225	0x3c972f30	0.018455118
226	0x3e3b90e3	0.18316989
227	0xbe0db089	-0.13836874
228	0x3e8b0264	0.2715026
229	0x3c4c8e86	0.012485152
230	0x3e572a65	0.21012266
231	0xbe528570	-0.20558715
232	0x3ea64bff	0.32479855
233	0xbc5282a2	-0.012848528
234	0x3e093f06	0.13402948
235	0x3e3eda01	0.1863785
236	0x3db4938d	0.088172056
237	0xbd29590e	-0.041344695
238	0x3ea1c93d	0.31598845
239	0x3d761a60	0.060083747
240	0x3e891996	0.26777333
241	0x3e1995dd	0.14998575
242	0x3e2b9a41	0.16758062
243	0x3eae88a0	0.34088612
244	0x3e7ac005	0.24487312
245	0x3e5a21a6	0.21301898
246	0x3d88a5de	0.06672262
247	0x3ea670de	0.32507986
248	0x3d33831a	0.0438262
249	0x3e9a202e	0.30102676
250	0xbd931a4c	-0.0718275
251	0x3db7a18e	0.08966361
252	0x3d8a01ca	0.067386225
253	0xbcf2964f	-0.029612688
254	0x3d527514	0.051381186
255	0x3e25a2fe	0.16175458

bias f4 [100]
0	0x3e34844e	0.17628595
1	0xbe35c127	-0.17749463
2	0xbe35d4da	-0.17756978
3	0x3df99da8	0.12188274
4	0x3e2bddbc	0.16783804
5	0x3e1f82bc	0.15577215
6	0x3e2ae1e5	0.16687734
7	0x3e0c6320	0.13709688
8	0x3e0b8f3f	0.13628863
9	0x3e3a7b3d	0.18211074
10	0x3e3239b3	0.17404823
11	0x3e326ff1	0.17425515
12	0x3dcaa82e	0.09895359
13	0xbe358d67	-0.17729722
14	0x3e0600c0	0.13086224
15	0x3e355746	0.17709073
16	0xbe35c04e	-0.1774914
17	0x3e2637d6	0.16232237
18	0x3e5b0a37	0.21390615
19	0xbe35c138	-0.17749488
20	0xbe3609c7	-0.17777167
21	0x3e323459	0.17402782
22	0x3e136c6b	0.14396827
23	0x3e2cfaff	0.16892622
24	0xbe35cdaf	-0.17754243
25	0xbe35c144	-0.17749506
26	0xbe35c1ce	-0.17749712
27	0xbe35c13d	-0.17749496
28	0xbe3b5516	-0.18294176
29	0x3e34d6a1	0.1766
30	0x3e4c8440	0.19972324
31	0x3e199f09	0.15002073
32	0x3e34b610	0.17647576
33	0xbe35c13d	-0.17749496
34	0x3e2fc47c	0.17164797
35	0x3df27166	0.11838035
36	0xbe351371	-0.17683198
37	0x3e27bee0	0.16381407
38	0x3e29ffb0	0.16601443
39	0xbe35ba7b	-0.17746918
40	0x3e3047f2	0.17214945
41	0x3e29dc0c	0.16587847
42	0x3e251478	0.1612109
43	0x3e2f3afa	0.17112342
44	0x3e1db189	0.15399756
45	0x3e336b32	0.1752136
46	0x3e31aed9	0.17351855
47	0x3e335ce5	0.17515905
48	0xbc4065e0	-0.011743039
49	0x3e2ce297	0.16883312
50	0x3e24da4d	0.160989
51	0xbd64aa69	-0.05582658
52	0x3e2cbdb5	0.16869242
53	0xbe35b591	-0.17745043
54	0xbe35c0f7	-0.17749391
55	0xbe361de2	-0.17784837
56	0xbe210924	-0.15726143
57	0xbe35c13f	-0.17749499
58	0xbe351713	-0.17684583
59	0xbe35c0b9	-0.17749299
60	0x3dcd0491	0.100106366
61	0xbe35c134	-0.17749482
62	0x3e20d431	0.15705945
63	0xbe3604e6	-0.17775306
64	0x3e2d2644	0.16909128
65	0xbe35c0f4	-0.17749387
66	0xbe314950	-0.17313123
67	0xbe35c127	-0.17749463
68	0x3e34ff2b	0.17675464
69	0xbe35c136	-0.17749485
70	0x3e2ded4a	0.1698505
71	0xbe35c144	-0.17749506
72	0x3e0e5435	0.1389931
73	0xbe582e34	-0.21111375
74	0x3e2f1972	0.1709955
75	0x3e300172	0.17188051
76	0xbe35c0ea	-0.17749372
77	0x3e2e7aa3	0.1703897
78	0x3e1faf86	0.155943
79	0xbe35c0f7	-0.17749391
80	0xbe35c138	-0.17749488
81	0x3e24077d	0.16018482
82	0x3e2e2ebf	0.1701002
83	0xbe35c131	-0.17749478
84	0xbe35c140	-0.177495
85	0xbe35bfcc	-0.17748946
86	0x3e12800a	0.14306656
87	0xbe35bf44	-0.17748743
88	0xbe348070	-0.1762712
89	0xbe35c0b5	-0.17749293
90	0x3e870e71	0.26378205
91	0x3e2e6d89	0.17033972
92	0x3e00d6c5	0.12581928
93	0xbe35c13d	-0.17749496
94	0xbe35c12b	-0.17749469
95	0xbe554bbc	-0.20829672
96	0xbe35c141	-0.17749502
97	0xbe35c138	-0.17749488
98	0x3da0633b	0.07831427
99	0x3e19ef53	0.15032701

weight f4 [100, 100]
0	0x3ee979d6	0.45600766
1	0x3c05ee30	0.008174464
2	0xbda6c6f1	-0.08143414
3	0x3e69b6e2	0.2282367
4	0x3e86c2f8	0.26320624
5	0x3d784a1c	0.06061755
6	0x3e0f126e	0.13971874
7	0x3e262c17	0.16227756
8	0x3d0ea3ce	0.034824185
9	0x3eb7ef65	0.3592483
10	0xbcb20c9c	-0.021734528
11	0x3ed201fb	0.41017136
12	0x3d9a5360	0.07535434
13	0xbe68091e	-0.22659728
14	0x3e5e644c	0.21717948
15	0x3e1d3e84	0.15355879
16	0xbd64ef7e	-0.05589246
17	0x3dcd0007	0.10009771
18	0x3dad2a02	0.08455278
19	0x3e8a4015	0.27002016
20	0x3cb41d5e	0.02198666
21	0x3e5bfc6c	0.2148301
22	0x3dd590b3	0.1042799
23	0xbda3e05c	-0.080017775
24	0x3d09550a	0.033528365
25	0x3e642bab	0.22282283
26	0x3e9fe82a	0.31231815
27	0x3d923eb1	0.07140864
28	0x3e044a94	0.12919074
29	0x3b1e337c	0.0024139574
30	0xbd0e99bd	-0.034814585
31	0xbdbda3fa	-0.09259792
32	0x3d2c3772	0.042045064
33	0x3dea18f3	0.1143054
34	0x3d2c72ac	0.042101547
35	0x3e819590	0.2530942
36	0x3e2e3f3f	0.17016314
37	0x3e8456c9	0.25847462
38	0x3cfac922	0.030613486
39	0x3e94b0da	0.29041177
40	0xbd9ebe9c	-0.077511996
41	0x3e937b91	0.2880521
42	0xbe796d47	-0.24358092
43	0x3d51f696	0.051260553
44	0x3ed3c0e9	0.41358116
45	0x3ec96a3d	0.39338866
46	0x3ddc3725	0.107527055
47	0x3ea07a9f	0.31343552
48	0x3ba83618	0.0051334016
49	0xbcc70ec6	-0.024299037
50	0xbe59fa5d	-0.21286912
51	0x3dbb2f7e	0.09139918
52	0x3de5f40b	0.11228188
53	0x3ea48075	0.32129255
54	0x3cb0a0ec	0.021561109
55	0x3eb23f32	0.3481384
56	0x3e417787	0.18893252
57	0x3eac814e	0.33692402
58	0x3ec21913	0.37909755
59	0x3e9651e0	0.2935934
60	0xbe5d068c	-0.21584529
61	0x3e1ee9f1	0.15518929
62	0xbb7d0b58	-0.0038611498
63	0xbe77ad66	-0.2418724
64	0x3e19035c	0.14942688
65	0x3df2d81e	0.11857627
66	0x3e13b3ad	0.1442401
67	0x3e6d1bcf	0.2315514
68	0x3eb37dc3	0.35056886
69	0x3e73465c	0.23757309
70	0x3e6d1d42	0.23155692
71	0x3d6bdeec	0.05758564
72	0x3c6ed7e2	0.014577838
73	0x3ed63534	0.41837466
74	0x3e8668c4	0.26251805
75	0x3e5f71c9	0.2182075
76	0x3dd9c4b8	0.10633224
77	0x3e87890a	0.2647174
78	0x3e08fc66	0.13377532
79	0x3eb94f5a	0.36193353
80	0x3e17c617	0.14821659
81	0x3d06760e	0.03282743
82	0x3e7ac8f0	0.24490714
83	0x3ecea89b	0.4036301
84	0x3dbd0784	0.09229949
85	0xbcd4b80a	-0.025966663
86	0xbb8cc350	-0.004295744
87	0x3e2d66c2	0.1693373
88	0x3eaff00d	0.34362832
89	0x3e3d382a	0.18478456
90	0x3dfce9c1	0.123492725
91	0x3e3a84ec	0.18214768
92	0xbdbe652e	-0.09296642
93	0x3cb285b2	0.021792267
94	0x3d7700a8	0.06030336
95	0x3e99dbf5	0.30050626
96	0x3e2a1380	0.16609001
97	0x3e9fb467	0.31192324
98	0x3dc0ad0c	0.09408006
99	0x3d3d7be2	0.046260722
100	0xbe342da6	-0.17595538
101	0xbe7d36f0	-0.24727988
102	0xbe13fa9a	-0.14451066
103	0xbea99784	-0.3312341
104	0xbe5474fc	-0.20747751
105	0xbe490277	-0.19629847
106	0xbd6e28f8	-0.05814454
107	0xbe0b7fd7	-0.13622986
108	0xbcfa596b	-0.030560216
109	0xbe824681	-0.25444415
110	0x3e8679e0	0.26264858
111	0xbeaf2a32	-0.3421188
112	0xbe9f05a7	-0.31059
113	0x3ea0aa52	0.31379944
114	0xbd847058	-0.0646674
115	0xbd961529	-0.07328255
116	0xbe272c9c	-0.16325611
117	0xbe9fa713	-0.31182155
118	0xbe174b67	-0.14774857
119	0xbe1b20e1	-0.15149261
120	0xbe3725ad	-0.17885466
121	0xbe4a56f0	-0.19759727
122	0xbe37001f	-0.1787114
123	0xbd167d1d	-0.03674041
124	0xbe620131	-0.22070767
125	0xbc02eb03	-0.0079906015
126	0xbe54646b	-0.20741431
127	0xbde3b69b	-0.111188136
128	0xbba3a6a2	-0.0049942294
129	0xbce84ac8	-0.028355971
130	0xbd66082a	-0.05616013
131	0x3c381ec9	0.0112378085
132	0xbe9d6a53	-0.3074518
133	0x3dc7dedf	0.09759306
134	0xbe691edb	-0.22765677
135	0xbeaeb1b5	-0.34119955
136	0xbdd89b4a	-0.10576494
137	0xbe481db7	-0.19542585
138	0xbe61d25e	-0.22052905
139	0xbea78df7	-0.32725498
140	0x3e359457	0.17732368
141	0xbea56e89	-0.32310894
142	0x3e4ef21c	0.20209545
143	0xbe2b2e5e	-0.16716906
144	0xbe0ebc4d	-0.13939019
145	0x3e95b19b	0.29237065
146	0xbded5223	-0.11587932
147	0xbe12b6ce	-0.14327547
148	0xbe356d45	-0.17717464
149	0xbea369ce	-0.3191666
150	0xbe8b4689	-0.27202252
151	0xbe124598	-0.1428436
152	0xbe7ccfbc	-0.2468862
153	0xbdb0b745	-0.08628706
154	0xbe03ce02	-0.12871554
155	0x3db7587e	0.089524254
156	0xbdd205f9	-0.102550454
157	0xbe7ce1a9	-0.24695458
158	0xbe7e2827	-0.24820004
159	0xbd56f704	-0.052481666
160	0x3e96ccd8	0.29453158
161	0xbe7803ea	-0.24220243
162	0xbe61f971	-0.2206781
163	0xbe7eeace	-0.24894258
164	0xbe85068c	-0.25981557
165	0xbea6d343	-0.32583055
166	0x3e98f863	0.29877004
167	0xbdd84f92	-0.10562052
168	0xbd76d3b8	-0.060260504
169	0x3e2e14c5	0.1700011
170	0x3eae0eff	0.33995816
171	0xbd7835a9	-0.06059805
172	0xbe2d87e8	-0.16946375
173	0xbd3ef33c	-0.046618685
174	0xbe9eb99a	-0.31000978
175	0xbd8ee749	-0.06977708
176	0xbe24954b	-0.16072576
177	0x3e640f77	0.22271524
178	0xbdbf9f28	-0.093565285
179	0xbea26c3d	-0.31723204
180	0xbe851444	-0.25992024
181	0xbdf6a998	-0.12044066
182	0xbe932ec2	-0.2874661
183	0xbe882230	-0.26588583
184	0xbe4df9f8	-0.20114887
185	0xbe0e9565	-0.13924177
186	0xbe4bc0ea	-0.1989781
187	0xbde5d884	-0.11222938
188	0xbe4e401f	-0.20141648
189	0xbd1b183b	-0.037864905
190	0xbdbf8ec8	-0.09353405
191	0x3e69c41f	0.2282872
192	0xbdd95b98	-0.10613173
193	0xbe73f9d0	-0.23825765
194	0xbdbb55d1	-0.091472276
195	0xbd02d1f7	-0.03193852
196	0xbdf143c4	-0.117805034
197	0xbbd30ec6	-0.00644097
198	0xbe0a2be4	-0.13493305
199	0xbe311704	-0.17293936
200	0xbe2dd4cc	-0.16975707
201	0x3e17c64b	0.14821737
202	0xbeafe29a	-0.3435257
203	0xbe81f431	-0.25381616
204	0xbea599ca	-0.32343894
205	0x3dcbdde9	0.099544354
206	0xbe55d999	-0.20883788
207	0xbe92b5ed	-0.28654423
208	0xbe675f5f	-0.22594975
209	0xbe6c0cbb	-0.23051731
210	0xbe25f9a7	-0.16208516
211	0xbe1e2875	-0.1544512
212	0x3e5305ea	0.20607725
213	0xbe12e39d	-0.1434464
214	0xbc973bb2	-0.018461082
215	0xbdef0252	-0.116703644
216	0x3e88615a	0.26636773
217	0xbd0cc43a	-0.034366824
218	0x3e450daf	0.19243501
219	0xbd59496b	-0.053048532
220	0xbe09c334	-0.1345337
221	0xbeb2a829	-0.3489392
222	0xbe0a11dd	-0.13483377
223	0x3d3bcbf6	0.04584881
224	0x3e9abdc7	0.30222914
225	0xbcfa512a	-0.03055628
226	0xbc66b626	-0.0140815135
227	0xbd1489ea	-0.036264338
228	0xbe0d71ea	-0.13812986
229	0xbea9d70c	-0.3317188
230	0xbdc41241	-0.09573794
231	0x3e67e6cb	0.22646634
232	0xbe7c0cd1	-0.24614264
233	0x3e0b27f3	0.13589458
234	0xbe597cbc	-0.21238989
235	0x3eb32882	0.34991843
236	0xbe965998	-0.2936523
237	0x3e3ce96a	0.18448415
238	0xbd97aa04	-0.07405475
239	0x3d5ab5e7	0.05339613
240	0xbccb9470	-0.024851054
241	0x3dbbeddc	0.091762275
242	0xbe0eb5cb	-0.13936536
243	0x3e5c73af	0.21528505
244	0xbe39cc74	-0.18144399
245	0xbeb08b1a	-0.34481126
246	0xbe75feaf	-0.24022935
247	0xbe4f63a1	-0.20252849
248	0xbdf795bf	-0.12089109
249	0xbdba8f8e	-0.09109412
250	0xbeaf8e07	-0.34288046
251	0xbe02ec86	-0.12785539
252	0xbd8efd43	-0.069818996
253	0xbd010b62	-0.031504996
254	0xbe9701a4	-0.2949344
255	0xbd6d3e66	-0.057920836

bias f4 [100]
0	0x3e253590	0.16133714
1	0xbe35c142	-0.17749503
2	0x3e34f5d7	0.17671905
3	0xbe35c146	-0.17749509
4	0x3e33d80a	0.17562881
5	0x3e353c7f	0.17698859
6	0xbe35c140	-0.177495
7	0xbe35c13d	-0.17749496
8	0x3e2d580c	0.16928118
9	0x3e1ce6c8	0.15322411
10	0xbe35c00d	-0.17749043
11	0x3e345024	0.17608696
12	0x3e1c2377	0.15247904
13	0x3e32df96	0.17468104
14	0xbe35c144	-0.17749506
15	0xbe35c143	-0.17749505
16	0x3e0e2fe5	0.13885458
17	0xbe35c13c	-0.17749494
18	0xbe610357	-0.2197393
19	0x3d691b2e	0.056910686
20	0x3e340fbd	0.17584129
21	0xbe35c143	-0.17749505
22	0xbe35c141	-0.17749502
23	0x3e31df92	0.17370442
24	0x3e13de9c	0.14440387
25	0x3e32f781	0.17477228
26	0xbe35ae88	-0.1774236
27	0x3e342a85	0.17594345
28	0xbe386d1a	-0.18010369
29	0x3e2f3ee2	0.17113832
30	0x3e345a4c	0.1761257
31	0x3e319e74	0.17345601
32	0x3e345508	0.17610562
33	0xbe35230d	-0.17689152
34	0x3d95cbe9	0.073142834
35	0x3e26be72	0.16283587
36	0x3e34cab2	0.17655447
37	0xbe2c19e2	-0.16806749
38	0xbe359637	-0.17733084
39	0xbe35c143	-0.17749505
40	0xbe35c144	-0.17749506
41	0x3e2f75d9	0.17134799
42	0x3e31ec67	0.17375337
43	0x3e30f1e4	0.17279774
44	0x3e30cf93	0.17266683
45	0x3e2da0cc	0.1695587
46	0x3e228da7	0.15874349
47	0xbe35c143	-0.17749505
48	0x3daf22fd	0.08551595
49	0x3e32904e	0.1743786
50	0x3e31af1e	0.17351958
51	0xbe35c130	-0.17749476
52	0x3e238e78	0.15972316
53	0x3e2b24c0	0.16713238
54	0xbc590b40	-0.013247311
55	0x3e30b2b4	0.1725567
56	0x3e319205	0.17340858
57	0x3e35c115	0.17749436
58	0xbe34e0ce	-0.17663881
59	0xbe35c144	-0.17749506
60	0x3e3333cd	0.17500229
61	0x3dacbec6	0.08434825
62	0x3e339ff1	0.17541482
63	0xbe35c144	-0.17749506
64	0x3e0c0421	0.1367345
65	0x3e24440f	0.16041587
66	0x3e33a3f8	0.17543018
67	0x3e335c5c	0.17515701
68	0xbe35c140	-0.177495
69	0x3e3496bb	0.17635624
70	0x3e3196ea	0.17342725
71	0xbe35c143	-0.17749505
72	0xbe35c143	-0.17749505
73	0x3e30c4f0	0.17262626
74	0x3e34be62	0.1765075
75	0x3e3267bf	0.17422388
76	0x3e2a82c7	0.1665145
77	0x3db61cb8	0.088921964
78	0x3e328d40	0.17436695
79	0x3e319c25	0.1734472
80	0x3e33d188	0.17560399
81	0x3e2e4828	0.17019713
82	0xbcbd4bd7	-0.023107452
83	0xbe35c143	-0.17749505
84	0x3e1e49f0	0.15457892
85	0xbe35a185	-0.17737396
86	0x3e30bbef	0.17259191
87	0x3e328c0f	0.1743624
88	0xbe35b40f	-0.17744468
89	0x3e2ccd55	0.16875203
90	0xbe35c13b	-0.17749493
91	0xbe35c144	-0.17749506
92	0x3e217472	0.15767077
93	0x3e319aa1	0.17344142
94	0xbe35c144	-0.17749506
95	0x3e31a5ef	0.17348455
96	0x3e159395	0.1460708
97	0x3e29cf1c	0.16582912
98	0x3e0a245c	0.13490433
99	0xbe35cd8a	-0.17754188

weight f4 [100, 100]
0	0x3dd4eac9	0.10396344
1	0xbeadbd6a	-0.33933574
2	0xbe3f4994	-0.18680412
3	0x3eb62623	0.3557597
4	0xbd8ce5ff	-0.06879806
5	0x3ec1d6aa	0.37859088
6	0x3e91c71e	0.28472227
7	0x3d654106	0.055970214
8	0x3eaa5519	0.3326805
9	0xbef00f5f	-0.46886727
10	0x3e8b5fca	0.2722152
11	0x3e173ee8	0.1477009
12	0x3e865042	0.26233107
13	0x3eaf83e0	0.342803
14	0x3e93f224	0.28895676
15	0xbe45a5c8	-0.19301522
16	0x3e9a9207	0.30189535
17	0x3d1b574a	0.037925042
18	0x3e90bcbf	0.28269002
19	0x3ea9422c	0.33058298
20	0x3ea48166	0.32129973
21	0xbed14a32	-0.4087692
22	0x3e218859	0.15774669
23	0xbe6f478e	-0.2336714
24	0xbe67dd30	-0.2264297
25	0x3e4513b8	0.19245803
26	0xbd52fa09	-0.051507983
27	0x3e7da0c3	0.24768357
28	0xbdd79de0	-0.10528159
29	0xbe43d897	-0.19125591
30	0x3e8bb81a	0.27288896
31	0x3ddba8a8	0.10725528
32	0xbea528f2	-0.322578
33	0x3e895cfe	0.2682876
34	0xbda3debc	-0.080014676
35	0xbbbb2b21	-0.0057119285
36	0x3d2a7b9b	0.041621786
37	0xbeba924a	-0.36439735
38	0x3d879fe2	0.06622292
39	0x3e977162	0.29578692
40	0xbe605e0b	-0.21910875
41	0x3eaa96c1	0.3331814
42	0x3eb42737	0.3518617
43	0x3da1ab46	0.07893996
44	0xbe799d35	-0.24376376
45	0xbe13e1ed	-0.14441653
46	0xbe9bc74e	-0.30425495
47	0xbe1667b5	-0.14687999
48	0xbe4f0bcc	-0.20219344
49	0xbdf38f4e	-0.118925676
50	0xbe810767	-0.2520096
51	0xbcc15037	-0.02359782
52	0x3ea9b49d	0.3314561
53	0x3e8783b7	0.26467678
54	0x3e098bd0	0.1343224
55	0xbda742f8	-0.0816707
56	0xbee2fc5b	-0.44333157
57	0x3d9017f9	0.070358224
58	0x3bbd3724	0.0057743955
59	0x3e5432b9	0.20722474
60	0x3e978f7f	0.29601666
61	0x3ea120fa	0.31470472
62	0xbe26999a	-0.16269532
63	0xbeac6f06	-0.33678454
64	0xbe05a6c1	-0.13051893
65	0xbe709115	-0.23492844
66	0xbe84ac60	-0.25912762
67	0xbdd4b0d7	-0.10385292
68	0xbe099012	-0.13433865
69	0x3e975ee2	0.29564577
70	0xbdaefbaf	-0.085440986
71	0xbe93ad18	-0.28842998
72	0x3e393b1a	0.18088952
73	0x3eb534a5	0.35391727
74	0x3cec3660	0.028834522
75	0x3e4783d0	0.19483876
76	0x3d89e4cf	0.06733095
77	0x3ea73c7b	0.3266333
78	0x3c19be9b	0.009383823
79	0xbe7e3af3	-0.24827175
80	0x3e05b794	0.13058311
81	0x3e3ea9e8	0.18619502
82	0xbeb5950c	-0.35465276
83	0x3e6a7d4e	0.22899362
84	0xbe833785	-0.25628296
85	0x3ead01f8	0.33790565
86	0x3d91ef09	0.071256705
87	0x3eb1bd81	0.34714893
88	0x3da6d081	0.08145238
89	0x3e4c509e	0.19952628
90	0xbe80f535	-0.25187078
91	0x3e90e561	0.28300002
92	0xbe9a1e78	-0.3010137
93	0x3e6ee0e6	0.2332798
94	0x3e807dbf	0.25095937
95	0x3eab9f02	0.3351975
96	0x3dc445c8	0.09583622
97	0x3e711735	0.23544009
98	0x3ea9e313	0.33181056
99	0x3ea86904	0.3289262
100	0x3e294d99	0.16533507
101	0xbe60e0b7	-0.21960722
102	0xbdcb3d29	-0.09923775
103	0xbe4f0b3f	-0.20219134
104	0xbd6ee5db	-0.058324676
105	0xbe8149cf	-0.25251624
106	0xbe8e2093	-0.27759227
107	0xbe9bb7b1	-0.30413583
108	0xbce4dab2	-0.027936313
109	0xbe41d057	-0.18927132
110	0xbe80dbd5	-0.2516772
111	0xbdc295e8	-0.095012486
112	0xbe844040	-0.2583027
113	0xbeb37a00	-0.35054016
114	0xbea91cb6	-0.33029717
115	0xbcf979a6	-0.030453514
116	0xbe8b025e	-0.27150244
117	0xbe571651	-0.21004607
118	0xbe027aa3	-0.12742095
119	0xbe83f39a	-0.2577179
120	0xbdc61455	-0.09671847
121	0xbdd86fc2	-0.10568191
122	0xbd50964b	-0.05092458
123	0xbea08af5	-0.31356016
124	0xbe137a36	-0.14402089
125	0xbd4d9ef7	-0.05020043
126	0xbdaecfda	-0.08535738
127	0xbbe4a75c	-0.0069779586
128	0xbea3adeb	-0.31968626
129	0xbe42af69	-0.19012226
130	0xbdec2445	-0.11530355
131	0xbe8d6d2b	-0.2762235
132	0xbe9791df	-0.29603478
133	0xbe4ada0b	-0.1980974
134	0xbe3784ad	-0.17921706
135	0xbda0c967	-0.078509144
136	0xbe08fb02	-0.13377002
137	0xbe731e13	-0.23741941
138	0xbdb8fe9f	-0.0903294
139	0xbe591d7c	-0.21202654
140	0xbe9b142b	-0.30288824
141	0xbc400eec	-0.011722308
142	0xbdaf056b	-0.08545955
143	0xbe50affa	-0.2037963
144	0xbddd50c8	-0.108064234
145	0xbe166d72	-0.14690188
146	0xbe3542c8	-0.17701256
147	0xbc1bb57c	-0.009503718
148	0xbe50079c	-0.20315403
149	0xbe48bb08	-0.19602597
150	0xbbd43244	-0.0064757187
151	0xbc2705ee	-0.010194285
152	0xbe672dce	-0.22576067
153	0xbe6c2201	-0.23059846
154	0xbe8f9308	-0.28041863
155	0xbe2f3931	-0.1711166
156	0xbd457b27	-0.04821315
157	0xbda581f6	-0.08081429
158	0xbd837555	-0.06418864
159	0xbea20ebb	-0.31651863
160	0xbe0b584a	-0.13607898
161	0xbe0c9020	-0.13726854
162	0xbd9c2432	-0.07624091
163	0xbda1f31a	-0.07907696
164	0xbdfe745b	-0.12424537
165	0xbddcc533	-0.107798
166	0xbdd778a2	-0.10521056
167	0xbe7674e4	-0.24068028
168	0xbe396b82	-0.18107417
169	0xbe939f43	-0.28832445
170	0xbea45c65	-0.3210174
171	0xbe8727a4	-0.2639743
172	0xbe662b8f	-0.22477554
173	0xbe2edbf0	-0.17076087
174	0xbde66dfa	-0.11251445
175	0xbd8e4f96	-0.069487736
176	0xbe95ef62	-0.29284197
177	0xbe89525e	-0.26820654
178	0xbe00f7ad	-0.12594481
179	0xbdfeb389	-0.12436587
180	0xbe405100	-0.18780899
181	0xbe93e161	-0.28882888
182	0xbe530dc6	-0.20610723
183	0xbe800ebb	-0.25011238
184	0xbe0dffaf	-0.13867067
185	0xbe4ccf71	-0.20001008
186	0xbe6b18a8	-0.22958624
187	0xbe9ccfcc	-0.30627286
188	0xbe044e2f	-0.1292045
189	0xbd7e772f	-0.06212538
190	0xbe34ff33	-0.17675476
191	0xbe60f8a1	-0.21969844
192	0xbda4646f	-0.08026969
193	0xbdf84a52	-0.121235505
194	0xbda34ddd	-0.079738356
195	0xbe8ae1a0	-0.27125263
196	0xbd83b19e	-0.06430362
197	0xbe62a5ad	-0.22133513
198	0xbe0498d9	-0.12948932
199	0xbe96fadc	-0.29488266
200	0xbe8d42b0	-0.2758994
201	0x3e566bce	0.20939562
202	0x3e48c046	0.19604596
203	0xbe8bec61	-0.2732878
204	0x3e48e1e9	0.19617428
205	0xbe9063c6	-0.2820112
206	0x3d0717c7	0.03298166
207	0xbe08462a	-0.13308015
208	0xbca9e48e	-0.020738866
209	0x3e8f9c70	0.2804904
210	0x3e09a806	0.13443002
211	0xbe37a871	-0.17935349
212	0xbde6d39b	-0.11270829
213	0x3d204d7b	0.03913639
214	0xbb980978	-0.0046398006
215	0xbdf342dc	-0.11877987
216	0x3e82dd36	0.25559396
217	0xbe63464c	-0.22194785
218	0xbeb157fd	-0.34637442
219	0x3e2997c5	0.16561802
220	0x3d169ea2	0.036772378
221	0x3d0dff9a	0.03466759
222	0xbd2049ff	-0.03913307
223	0x3db40460	0.08789897
224	0x3d53730c	0.05162339
225	0x3e1cbf9e	0.15307471
226	0x3e1ae8bb	0.15127842
227	0x3e2f5aa2	0.17124417
228	0x3e9fbb4e	0.3119759
229	0xbea2a08d	-0.31763116
230	0xbea471fb	-0.3211821
231	0xbc8fbcb7	-0.017546041
232	0x3e042c16	0.12907442
233	0x3e6fe51c	0.23427242
234	0xbd36d10e	-0.044632964
235	0x3e36ca13	0.17850523
236	0x3e8ad7fe	0.27117914
237	0x3e5f0485	0.21779068
238	0x3e578dec	0.21050233
239	0x3e5eef99	0.21771087
240	0x3e08a636	0.13344654
241	0x3d21d523	0.039509904
242	0xbda93877	-0.08262723
243	0x3da14196	0.07873838
244	0x3e880bff	0.26571652
245	0x3e4248c1	0.18973066
246	0x3e14e3ae	0.14539978
247	0x3eabd6a0	0.33562183
248	0x3d6a2a9d	0.057169545
249	0xbd63a7f4	-0.055580094
250	0x3eacaf76	0.33727616
251	0xbc3adeb0	-0.011405632
252	0x3dbf241d	0.0933306
253	0x3e5ad21a	0.2136921
254	0x3eb34ad5	0.3501803
255	0x3e63e77a	0.2225627

bias f4 [25]
0	0x00000000	0.0
1	0x00000000	0.0
2	0x00000000	0.0
3	0x00000000	0.0
4	0x00000000	0.0
5	0x00000000	0.0
6	0x00000000	0.0
7	0x00000000	0.0
8	0x00000000	0.0
9	0x00000000	0.0
10	0x00000000	0.0
11	0x00000000	0.0
12	0x00000000	0.0
13	0x00000000	0.0
14	0x00000000	0.0
15	0x00000000	0.0
16	0x00000000	0.0
17	0x00000000	0.0
18	0x00000000	0.0
19	0x00000000	0.0
20	0x00000000	0.0
21	0x00000000	0.0
22	0x00000000	0.0
23	0x00000000	0.0
24	0x00000000	0.0

weight f4 [25, 100]
0	0xbcb9b021	-0.022666993
1	0x3e359397	0.17732082
2	0x3e47b15b	0.1950125
3	0xbddac223	-0.1068156
4	0xbe13053e	-0.14357468
5	0xbe2250fe	-0.15851209
6	0x3df2bcd9	0.11852426
7	0xbe2c0052	-0.16796997
8	0xbe33abb8	-0.17545974
9	0x3df8e16a	0.12152369
10	0xbcb0565c	-0.021525554
11	0xbc06e1f6	-0.008232584
12	0xbd2d641f	-0.04233181
13	0x3d91a2aa	0.07111104
14	0xbe0efdd8	-0.13964021
15	0xbe21a9b6	-0.15787396
16	0xbe6035fb	-0.21895592
17	0xbd5787f4	-0.05261989
18	0x3e216605	0.15761574
19	0xbe309d16	-0.17247424
20	0xbcb46572	-0.02202103
21	0xbe270d6c	-0.16313714
22	0xbd4cb4e3	-0.049977195
23	0xbe55b7a6	-0.20870838
24	0xbde12405	-0.10993198
25	0x3e5259af	0.20542024
26	0x3c9b713f	0.018974898
27	0xbdae6915	-0.085161366
28	0x3d56e061	0.05246008
29	0x3e5da3cf	0.2164452
30	0xbe4edc3a	-0.20201197
31	0x3d7d75d0	0.061879933
32	0xbe1a9dd4	-0.15099269
33	0xbe2bf6f6	-0.16793427
34	0x3e351d69	0.17687
35	0xbd932a2d	-0.07185779
36	0xbd9d8a97	-0.076924495
37	0x3e3abffc	0.18237299
38	0xbe5ad1ed	-0.21369143
39	0x3e2f0de9	0.1709515
40	0xbe3cd495	-0.18440469
41	0x3d84f1e0	0.064914465
42	0xbe3928c0	-0.18081951
43	0xbe2328c9	-0.15933527
44	0xbe19cc9a	-0.15019456
45	0x3e35fe69	0.17772831
46	0xbdff7de4	-0.124751836
47	0xbdaf2912	-0.085527554
48	0x3e48bc1c	0.19603008
49	0x3dadfc2e	0.08495365
50	0x3e4c90a4	0.19977051
51	0x3d6552d9	0.055987213
52	0xbdd3fcbf	-0.10350942
53	0xbdd2bccf	-0.10289919
54	0xbe51d9e1	-0.2049327
55	0x3c317da3	0.010833177
56	0x3d70ef72	0.058822103
57	0x3d9d0d11	0.07668508
58	0xbdb1b3e0	-0.086768866
59	0xbdc781e9	-0.09741575
60	0xbd115afb	-0.035487156
61	0xbde15c7e	-0.110039696
62	0xbe43ec3a	-0.19133082
63	0x3db1b338	0.086767614
64	0xbe45399b	-0.19260256
65	0xbd6d3d3a	-0.05791972
66	0x3e0c7657	0.13717018
67	0x3e497649	0.19674028
68	0xbe1f2bfa	-0.1554412
69	0x3e56acb3	0.20964317
70	0xbc54e14c	-0.012993168
71	0x3df45dfe	0.1193199
72	0xbe083a70	-0.13303542
73	0xbc547389	-0.012966999
74	0x3dda502f	0.10659825
75	0x3d513864	0.05107917
76	0xbdea2a70	-0.114338756
77	0xbdbfd9f7	-0.09367745
78	0x3da7b8c0	0.08189535
79	0xbdec9fad	-0.11553893
80	0xbded8f9f	-0.11599659
81	0xbd9f53e6	-0.07779674
82	0x3e472c1f	0.19450425
83	0xbe2a103d	-0.16607757
84	0xbe59573b	-0.21224682
85	0x3e095999	0.13413085
86	0x3e2fe2af	0.17176317
87	0x3e0fc2b4	0.14039117
88	0x3e44e3e6	0.19227561
89	0x3d89bee2	0.06725861
90	0xbd99fc35	-0.07518808
91	0x3e374f16	0.17901263
92	0xbd7273ac	-0.059192345
93	0xbe50b467	-0.20381318
94	0xbe47f978	-0.19528759
95	0xbe475001	-0.19464113
96	0xbda8b12c	-0.08236918
97	0xbd138260	-0.036013007
98	0x3e295844	0.16537577
99	0xbd8ef981	-0.06981183
100	0x3d2e80be	0.042603247
101	0xbe07afb3	-0.13250618
102	0x3c8413e6	0.01612277
103	0x3e4f2fb6	0.20233044
104	0x3db2084f	0.08692991
105	0xbc7b3e83	-0.015334728
106	0x3d1aea2e	0.037820987
107	0xbe1e964c	-0.15487021
108	0x3dd690b3	0.10476818
109	0xbe48ace9	-0.1959721
110	0xbe2685e2	-0.1626201
111	0xbdf454a1	-0.11930204
112	0xbd330bb2	-0.043712325
113	0xbe0289e1	-0.12747909
114	0x3d6f9ca7	0.058499005
115	0x3c22612f	0.009910866
116	0xbdfb148e	-0.1225978
117	0x3d2205e8	0.039556414
118	0x3e2700e0	0.16308928
119	0xbe0f3675	-0.13985617
120	0x3e2dff76	0.16991982
121	0x3df984ec	0.12183556
122	0xbe2b8320	-0.16749239
123	0xbcbb0ec7	-0.022834195
124	0xbde9edab	-0.11422285
125	0x3e5fa019	0.21838416
126	0xbc904e22	-0.017615382
127	0xbd5c73d3	-0.053821396
128	0xbe4beb05	-0.19913872
129	0xbde91747	-0.11381393
130	0xbe18400c	-0.14868182
131	0xbd3c453a	-0.045964457
132	0x3bccb6f8	0.0062473975
133	0x3e36bf2e	0.17846367
134	0xbe17e905	-0.14834984
135	0x3d663a7a	0.05620811
136	0x3e5aef9f	0.2138047
137	0x3da1ccaf	0.079003684
138	0xbc178411	-0.009247796
139	0x3e4a2a2a	0.19742647
140	0xbbc2176b	-0.005923202
141	0x3da0a2d1	0.07843555
142	0x3e3a968a	0.18221489
143	0xbe093286	-0.1339818
144	0xbd9739ba	-0.07384057
145	0xbdeec8e0	-0.116594076
146	0xbe0f5dce	-0.14000627
147	0x3e4ce824	0.2001043
148	0xbdbf266f	-0.093335025
149	0xbcdcc4f8	-0.02694939
150	0xbd3e6076	-0.04647871
151	0xbdeae1f4	-0.114688784
152	0xbe273768	-0.1632973
153	0xbdec9bb4	-0.115531355
154	0x3e15513a	0.14581767
155	0xbce2a94a	-0.027668614
156	0x3bbc5db6	0.005748476
157	0x3e54ca01	0.20780183
158	0xba87c7c9	-0.0010359223
159	0x3d874ec5	0.06606821
160	0x3daa4840	0.08314562
161	0xbd25c90c	-0.040474936
162	0xbe0cda1e	-0.1375508
163	0x3e3dcbda	0.18534794
164	0x3e205624	0.1565786
165	0xbe257c91	-0.161608
166	0x3e19efcd	0.15032883
167	0xbe019145	-0.12653072
168	0xbda0cd24	-0.078516275
169	0x3e207f01	0.15673448
170	0x3ccf2663	0.025286859
171	0xbe10d343	-0.1414309
172	0xbe1783cb	-0.14796369
173	0xbd1dc572	-0.038518377
174	0xbe44f882	-0.19235423
175	0xbe1a07cc	-0.15042037
176	0x3e49cac1	0.1970625
177	0xbe2e5fc2	-0.17028716
178	0x3db59421	0.08866144
179	0xbe084c69	-0.13310398
180	0xbd138ee4	-0.036024943
181	0xbd0fa76f	-0.035071786
182	0x3dd8d8ca	0.10588224
183	0xbb6ff900	-0.0036616921
184	0xbdc209d2	-0.09474529
185	0x3d19d39c	0.037555322
186	0x3d6fd20e	0.058549933
187	0xbda3893e	-0.07985161
188	0xbd0c8da5	-0.03431477
189	0xbe2cbf7d	-0.16869922
190	0xbc1daf27	-0.009624279
191	0x3e39639c	0.18104404
192	0xbe24b3b7	-0.16084181
193	0x3d2193d1	0.03944761
194	0xbe30b5af	-0.17256807
195	0xbda9f65a	-0.08298941
196	0x3c0bae2d	0.008525413
197	0x3c5e8ede	0.013583867
198	0x3d3d03eb	0.046146315
199	0x3e148dba	0.1450719
200	0x3b90966f	0.0044124643
201	0x3d94abcd	0.07259331
202	0xbd529408	-0.051410705
203	0x3e452b15	0.19254716
204	0xbc8497f4	-0.016185738
205	0x3e12f4f6	0.14351258
206	0x3e2f067c	0.17092317
207	0x3d815667	0.06315308
208	0xbe15ac57	-0.14616524
209	0x3e601e0d	0.21886463
210	0xbe43aca1	-0.19108821
211	0xbe0c2205	-0.13684852
212	0x3e4dc817	0.2009586
213	0x3b73e07c	0.003721266
214	0xbe4c284d	-0.19937249
215	0x3e250f33	0.1611908
216	0xbc242ac0	-0.010019958
217	0x3c865bb7	0.016401155
218	0xbc62d537	-0.01384478
219	0x3e121dfa	0.14269248
220	0xbe469a88	-0.19394886
221	0x3e6032a7	0.21894322
222	0x3e12819c	0.14307255
223	0xbe41f850	-0.1894238
224	0x3e32f393	0.17475729
225	0x3c900069	0.01757832
226	0x3dc836f9	0.0977611
227	0xbdcb34d7	-0.09922188
228	0xbdda216c	-0.10650906
229	0x3e12e1f2	0.14344004
230	0xbe184106	-0.14868554
231	0xbd65147d	-0.055927742
232	0xbde94b8e	-0.11391364
233	0x3d8222d7	0.063543014
234	0xbca01373	-0.019540524
235	0xbe28bf2c	-0.16479176
236	0x3de19dee	0.11016451
237	0x3e3b2403	0.18275456
238	0x3ca37a62	0.019955818
239	0xbe0ed7b0	-0.13949466
240	0x3e419125	0.18903024
241	0x3b958774	0.0045632664
242	0x3e336ba6	0.17521533
243	0x3e43c8a2	0.19119504
244	0x3dde3462	0.10849835
245	0xbd76685b	-0.060158115
246	0x3dea73ea	0.1144789
247	0xbcb32700	-0.021869183
248	0xbe536151	-0.20642592
249	0x3dc25efa	0.094907716
250	0xbdf584bc	-0.11988208
251	0x3de3378c	0.11094579
252	0x3da3af91	0.07992471
253	0xbe52c8bc	-0.20584387
254	0xbda7b154	-0.081881195
255	0x3c3aadc7	0.011393971
