deep_learning/models/GCNLinkPrediction53.pth (torch, 136208 bytes, 8 tensors)

bias f4 [100]
0	0xbc3e6c54	-0.011622507
1	0xbd1314eb	-0.03590862
2	0xbc43b722	-0.011945518
3	0xbd092110	-0.033478796
4	0xbcde9542	-0.027170781
5	0xbc4febc0	-0.0126904845
6	0x3ce658ec	0.028118573
7	0xbcdffd90	-0.027342588
8	0x3c6c570c	0.0144250505
9	0x3caf335f	0.0213868
10	0xbc6ef464	-0.014584634
11	0xbd481225	-0.04884543
12	0xbd35b191	-0.044358794
13	0xbc3fada9	-0.011699119
14	0xbce0bf33	-0.02743492
15	0xbc803a61	-0.015652837
16	0xbc1e1832	-0.009649323
17	0xbc2cad19	-0.010539317
18	0xbd16700b	-0.036727946
19	0xbc09554c	-0.008382153
20	0xbd0b7ce6	-0.03405466
21	0x3c97157a	0.018442858
22	0xbcc38ea4	-0.023871727
23	0x3d303f4e	0.043029122
24	0xbca16781	-0.019702675
25	0x3b5e950a	0.0033963346
26	0xbcde0b9b	-0.027105143
27	0xbc92b1f0	-0.017907113
28	0x3b4d5e93	0.0031336888
29	0x3bae05ca	0.0053107487
30	0xbca955dc	-0.020670824
31	0x3cc3adfc	0.023886673
32	0xbca7577c	-0.020427458
33	0xbc258e0c	-0.010104667
34	0xbbb61817	-0.005557071
35	0x3b29e332	0.0025922772
36	0xbca280f7	-0.019836886
37	0xbd24f5a7	-0.040273335
38	0x3cf85da0	0.030318081
39	0xbbbcf8a0	-0.005766943
40	0xbbc93d70	-0.006141357
41	0xbcac4633	-0.021029567
42	0x3c8bc059	0.017059492
43	0xbd30b5f1	-0.043142263
44	0x3d017316	0.031603895
45	0x3ce5f4c3	0.028070813
46	0xbd3982e6	-0.04529085
47	0x3c6156b5	0.013753583
48	0xbc80ccda	-0.01572268
49	0xbcbc6f06	-0.023002159
50	0xbc571ab3	-0.013128924
51	0x3d1379d9	0.036004875
52	0xbcdba863	-0.026813691
53	0x3d02a110	0.031891882
54	0x3d301a3c	0.04299377
55	0x3ad1b90e	0.0016000585
56	0xbd135ee4	-0.035979167
57	0x3d0b8128	0.03405872
58	0xbd0cafa7	-0.034347203
59	0xbca0af4e	-0.019614842
60	0xbc01ef95	-0.007930656
61	0xbb640140	-0.0034790784
62	0xbc5888a6	-0.013216173
63	0x3a3ee780	0.0007282421
64	0x3d30daca	0.043177404
65	0xbcb72b96	-0.02235965
66	0x3bce9ce6	0.006305325
67	0xbc50c19a	-0.012741471
68	0x3d2e3c0b	0.04253773
69	0x3c127e96	0.008941313
70	0xbcb6f22f	-0.022332279
71	0xbab7166d	-0.0013968475
72	0xbca5da61	-0.020245733
73	0x3d0becfe	0.03416156
74	0x3d4750a7	0.0486609
75	0xbcb376be	-0.021907207
76	0xbcf91dfa	-0.030409802
77	0xbd05a1f8	-0.03262517
78	0xbcf080d6	-0.029358309
79	0x3c3505a9	0.011048713
80	0xbbcb7087	-0.0062084827
81	0x3c079fe3	0.008277866
82	0xbc623576	-0.013806691
83	0x3d5508e2	0.052010424
84	0xba686f94	-0.0008866724
85	0xbd3163da	-0.043308116
86	0xbd1237b6	-0.03569766
87	0x3c592e64	0.013255689
88	0x3cc768bb	0.024341932
89	0x3c5f19db	0.013617004
90	0x3c36bb8f	0.011153116
91	0xbc0a80c1	-0.008453549
92	0x3d47cda4	0.0487801
93	0x3bba4dd9	0.0056855497
94	0xbcf80a51	-0.030278357
95	0xbb699866	-0.0035643815
96	0x3d38a702	0.045081146
97	0xbc3bf79e	-0.011472611
98	0x3c6b5598	0.014363669
99	0xbcabbf60	-0.020965278

weight f4 [100, 18]
0	0xbe3e41fd	-0.1857986
1	0xbdee9792	-0.116500035
2	0xbdef1b8f	-0.11675178
3	0xbe2babc2	-0.16764739
4	0x3db38522	0.087656274
5	0x3da526b0	0.0806402
6	0x3ddfe808	0.10932928
7	0xbdfbb8ed	-0.12291131
8	0x3de16ee2	0.11007477
9	0xbc758e07	-0.014987475
10	0x3df16512	0.11786856
11	0xbe424b11	-0.18973948
12	0xbe3d957e	-0.18514058
13	0x3d7dc1ff	0.061952587
14	0x3d8f42ee	0.06995188
15	0xbd522b96	-0.051311098
16	0x3e4bcf88	0.19903386
17	0x3e3e4bf8	0.18583667
18	0xbe067eef	-0.13134359
19	0xbe01e562	-0.12685159
20	0x3e3242e2	0.17408326
21	0x3bef5923	0.007304327
22	0x3dbaea20	0.09126687
23	0x3b2d6516	0.0026457957
24	0x3cc19307	0.023629678
25	0x3cc0e5cf	0.023547081
26	0xbe5d541a	-0.21614113
27	0xbd2b6d4e	-0.041852288
28	0xbdc95590	-0.09830773
29	0xbd3fad89	-0.046796355
30	0xbe5d0544	-0.2158404
31	0x3e17723f	0.14789675
32	0xbe0b8b59	-0.13627376
33	0x3e333547	0.17500792
34	0xbd2cfca4	-0.042233124
35	0xbe779d8e	-0.24181196
36	0xbdb2bf60	-0.08727908
37	0x3ce3ab36	0.0277916
38	0xbd569a90	-0.052393496
39	0xbda8bf8c	-0.0823966
40	0xbd89336b	-0.0669926
41	0x3e23052d	0.15919943
42	0xbc798b22	-0.015230926
43	0xbd975d5f	-0.07390856
44	0xbc6553b4	-0.013997007
45	0xbdd48f55	-0.10378901
46	0xbca32dc3	-0.019919282
47	0x3d4ce584	0.05002357
48	0x3e4663e7	0.19374047
49	0x3e2bdfd3	0.16784601
50	0x3c8ad5e3	0.016947692
51	0xbe30157f	-0.171957
52	0x3e2bf495	0.1679252
53	0xbe4b3615	-0.1984485
54	0x3c5837c6	0.013196891
55	0x3d3a733c	0.045520052
56	0xbe1d3644	-0.15352732
57	0x3c441735	0.011968424
58	0x3c6b135e	0.014347879
59	0xbe00c473	-0.1257494
60	0x3cb12d62	0.021628086
61	0x3e0b1117	0.13580738
62	0xbe3b9509	-0.18318571
63	0xbe6d56e8	-0.23177683
64	0xbe3c8f59	-0.18414058
65	0x3e345c1f	0.17613266
66	0xbe1a40e4	-0.15063816
67	0x3d312af2	0.043253846
68	0x3d882694	0.06647983
69	0xbe2eab31	-0.17057492
70	0x3e2257ae	0.1585376
71	0xbe16f747	-0.14742766
72	0xbe5713c6	-0.21003637
73	0x3da95387	0.08267885
74	0xbde9100f	-0.11380016
75	0x3e1c33eb	0.1525418
76	0xbdd82204	-0.10553363
77	0xbcfaa108	-0.030594364
78	0xbe54bf2d	-0.20776053
79	0xbd9edb02	-0.07756616
80	0x3e1ec6b7	0.15505491
81	0xbcceb9e1	-0.025235118
82	0xbe1a309d	-0.15057607
83	0x3e2818cb	0.16415708
84	0x3dc5c397	0.096564464
85	0xbe2f05be	-0.17092034
86	0x3cb9137d	0.0225923
87	0xbdfc175e	-0.123091444
88	0xbe83e8fd	-0.25763693
89	0xbe770de0	-0.24126387
90	0xbd8f05f8	-0.0698356
91	0x3e47c128	0.19507277
92	0xbe3e250b	-0.18568818
93	0x3de123e9	0.109931774
94	0x3dbe855d	0.09302781
95	0xbdb50294	-0.08838382
96	0x3d8fd229	0.07022507
97	0x3cac23f1	0.021013232
98	0xbdf196cd	-0.11796341
99	0xbde69708	-0.11259276
100	0xbda3cebe	-0.07998417
101	0x3e2d1e0a	0.1690599
102	0xbe4a6b87	-0.19767581
103	0x3e52ef61	0.20599128
104	0x3d867bbb	0.065665685
105	0x3e206480	0.15663338
106	0x3bc1b30a	0.0059112357
107	0x3e494345	0.19654568
108	0xbe0e6063	-0.13903956
109	0xbc9fe258	-0.019517109
110	0x3e0347c3	0.12820344
111	0xbe3d0b2b	-0.18461291
112	0x3e33ac10	0.17546105
113	0xbe83c41f	-0.25735566
114	0xbe072a85	-0.13199814
115	0xbcf663d9	-0.030076908
116	0xbd8d2d7c	-0.06893441
117	0xbdaa9fab	-0.083312355
118	0x3e4b90e0	0.19879484
119	0xbdf84ae6	-0.12123661
120	0x3d3251c2	0.043535
121	0x3b712f8f	0.0036802029
122	0xbe3a4d7c	-0.1819362
123	0xbdf6106d	-0.12014852
124	0xbc66695b	-0.014063205
125	0x3e1e5aee	0.15464374
126	0xbd96c236	-0.073612615
127	0xbc1d2fa6	-0.00959388
128	0xbe690bd6	-0.22758421
129	0xbe347ca0	-0.17625666
130	0xbe702e96	-0.23455271
131	0x3d3217cb	0.043479722
132	0xbdc4e6fb	-0.096143685
133	0xbd80097a	-0.062518075
134	0xbda91bf6	-0.08257286
135	0x3dfe279b	0.12409898
136	0xbe41cd36	-0.18925938
137	0x3cd682a4	0.026185341
138	0x3e148f6a	0.14507833
139	0xbdfd6dbb	-0.12374445
140	0xbe6d08d3	-0.23147897
141	0x3d16b632	0.03679485
142	0xbcbdc8f8	-0.023167118
143	0xbe802e40	-0.25035286
144	0xbda209f8	-0.07912058
145	0x3e3c3d32	0.18382719
146	0x3e202e78	0.15642726
147	0x3db22030	0.086975455
148	0x3e5e11bd	0.21686454
149	0x3e949879	0.29022577
150	0xbda7a8d5	-0.08186499
151	0x3cb41cd4	0.021986403
152	0xbdfe35dd	-0.12412617
153	0x3de69b87	0.11260133
154	0xbe3e6095	-0.1859153
155	0xbd8c5dfc	-0.068538636
156	0xbd8cb0d5	-0.068696655
157	0x3e5ecad4	0.2175706
158	0x3e0a6e58	0.13518655
159	0xbdcf33b1	-0.10117281
160	0xbddaa7fe	-0.10676573
161	0xbe53043d	-0.20607086
162	0xbdccd3a5	-0.100013055
163	0xbcdd4a2b	-0.027012905
164	0x3e19097f	0.14945029
165	0x3de8be39	0.11364407
166	0xbd7dd5ae	-0.06197136
167	0x3ce891ad	0.028389776
168	0x3dc980ff	0.09839057
169	0xbcd6718b	-0.026177188
170	0x3e31efd9	0.17376651
171	0xbe031953	-0.12802629
172	0xbe14e51b	-0.14540522
173	0x3e6d9292	0.23200443
174	0x3df6aa06	0.12044148
175	0x3e36dc4b	0.17857473
176	0xbe01cab2	-0.12674978
177	0xbe400a30	-0.18753886
178	0x3e503267	0.20331727
179	0xbe068e92	-0.13140324
180	0xbe4d8623	-0.200707
181	0x3daa8fd7	0.083282165
182	0x3e1299c3	0.14316468
183	0x3ca19a03	0.019726759
184	0xbe6dc95b	-0.23221342
185	0x3e4c028a	0.19922844
186	0x3dd229da	0.10261889
187	0xbd9d168e	-0.076703176
188	0xbd607c91	-0.054806296
189	0x3e5caf61	0.21551277
190	0xbc013b99	-0.007887744
191	0x3e3fea7a	0.1874179
192	0xbdc33390	-0.09531319
193	0x3df73134	0.120699316
194	0x3e30e32e	0.17274162
195	0x3d3631ec	0.044481203
196	0x3e30c499	0.17262496
197	0x3de1768f	0.110089414
198	0x3db7f9e1	0.089832075
199	0xbd8e327c	-0.06943223
200	0x3e22227b	0.15833466
201	0xbd15aa5c	-0.03653942
202	0x3dc5e6e2	0.09663178
203	0x3c837508	0.016047016
204	0x3e308560	0.17238379
205	0xbd4cfb1e	-0.05004417
206	0x3c94f417	0.018182797
207	0xbd6d8d45	-0.057996053
208	0xbe54ce00	-0.20781708
209	0x3cc61849	0.024181502
210	0xbe404ce3	-0.1877933
211	0x3c13b134	0.0090144165
212	0xbd40ddc0	-0.047086477
213	0xbe289496	-0.16462931
214	0xbe4c544b	-0.1995403
215	0x3d8fd022	0.0702212
216	0xbe0ade35	-0.13561328
217	0xbe31f463	-0.17378382
218	0x3d8480c6	0.06469874
219	0x3d52126b	0.051287096
220	0xbdad53e6	-0.08463268
221	0x3da8b93e	0.08238457
222	0xbe38521b	-0.18000071
223	0xbcb7d9d2	-0.022442732
224	0xbe835860	-0.25653362
225	0xbc87d9cf	-0.016583351
226	0xbe215603	-0.15755467
227	0x3bd8bd35	0.006614352
228	0x3deb8a08	0.11500937
229	0xbe08d9ee	-0.13364384
230	0x3e25256d	0.16127558
231	0xbe2dceed	-0.16973467
232	0xbe85ee70	-0.26158476
233	0xbe5496f4	-0.20760709
234	0xbe5492a3	-0.20759062
235	0x3e21ab3f	0.15787981
236	0x3d540101	0.05175877
237	0xbde5990f	-0.11210834
238	0xbddf3301	-0.108984
239	0xbe20c8a4	-0.15701538
240	0x3e38f229	0.18061127
241	0x3b9f862c	0.0048682895
242	0xbde98c2c	-0.11403689
243	0x3d94b5a0	0.07261205
244	0x3d8c7f26	0.06860189
245	0xbe274381	-0.16334344
246	0x3e04200f	0.12902854
247	0xbdb4dfa6	-0.0883172
248	0x3e3d87ad	0.18508787
249	0x3e1b3e9f	0.15160607
250	0xbe469c29	-0.19395508
251	0xbe161c6e	-0.14659283
252	0xbda53650	-0.08067
253	0x3da10a5a	0.078633025
254	0x3d9b99ac	0.0759767
255	0xbdd7d2f4	-0.10538283

bias f4 [100]
0	0x3c276b31	0.0102184275
1	0x3c8017d4	0.015636362
2	0xbc926b21	-0.017873349
3	0x3b52bd55	0.0032156308
4	0xbbe92206	-0.0071146516
5	0xbcb9e217	-0.022690816
6	0x3cf95b4c	0.030439042
7	0x3d02bb67	0.031917002
8	0xbd05b659	-0.032644603
9	0xbd15a455	-0.036533672
10	0xbd0a4363	-0.03375567
11	0xb84fc680	-4.9537513e-05
12	0xbd1ec363	-0.038760554
13	0xba9d0008	-0.0011978159
14	0xbb6e6f1b	-0.0036382142
15	0x3d219f86	0.039458774
16	0x3cbdb3f4	0.023157097
17	0xbd195e07	-0.037443187
18	0xbd18423a	-0.037172534
19	0x3b27d666	0.002560997
20	0xbc617d4a	-0.013762781
21	0xbd0a5bf5	-0.033779103
22	0x3b01436f	0.0019724031
23	0x3c5e614a	0.013573
24	0x3d4772d3	0.04869349
25	0xbce47bdd	-0.027891094
26	0x3c4a6366	0.0123528
27	0xbbf87c07	-0.0075831446
28	0xbd371fd6	-0.044708095
29	0xbce66396	-0.028123658
30	0x3ce6e361	0.028184595
31	0xbc556458	-0.013024412
32	0x3c53ad6c	0.012919765
33	0xbab151fc	-0.0013528462
34	0xbcab243c	-0.020891301
35	0xbcab76a4	-0.020930596
36	0xbd0e5687	-0.034750488
37	0xbc0647e2	-0.008195849
38	0x3d40c652	0.047064133
39	0xbd1654f7	-0.036702123
40	0x3c11e132	0.008903788
41	0x3d289ad4	0.04116328
42	0xbd2ffc2d	-0.042965103
43	0x3cf4c17b	0.029877415
44	0x3c1b0c70	0.009463415
45	0xbd263832	-0.040580936
46	0xbd7dbf86	-0.06195023
47	0xbd0f94b2	-0.035053916
48	0xbd0e78fb	-0.034783345
49	0xbd1a99f9	-0.037744496
50	0x3d11376b	0.03545324
51	0xbc254771	-0.010087834
52	0xbd0653de	-0.032794826
53	0xbc7bcd55	-0.015368779
54	0xbc892c62	-0.016744796
55	0xbd021540	-0.031758547
56	0x3c08c005	0.008346562
57	0xbcd0048c	-0.025392793
58	0xbcdce664	-0.026965328
59	0xbcb43807	-0.021999372
60	0xbcff70e0	-0.031181753
61	0xbd1ce4d4	-0.038304165
62	0xbc7816d0	-0.015142158
63	0xbd24b879	-0.04021499
64	0xbd452191	-0.048127715
65	0xbd340077	-0.043945756
66	0x3d01463a	0.031561114
67	0xbbfeaa38	-0.0077717565
68	0xbb5919c3	-0.0033126927
69	0xbc229cb2	-0.009925054
70	0xbd1ed886	-0.03878071
71	0xbbc258ba	-0.005930987
72	0xbbf9d06b	-0.0076237223
73	0xbc84d848	-0.016216412
74	0xbc964f6d	-0.01834842
75	0x3c860d6e	0.016363826
76	0x3b90362b	0.0044009886
77	0xbd0704f8	-0.032963723
78	0x3c2c1a69	0.010504344
79	0x3c62046c	0.013795
80	0xbc372377	-0.011177889
81	0x3c336e54	0.010951597
82	0x3b68c922	0.0035520275
83	0xbca3b31c	-0.019982867
84	0xbd115faf	-0.03549164
85	0x3aa741b8	0.0012760675
86	0xbcd93fff	-0.026519774
87	0xbd0a2caf	-0.03373402
88	0x3d538548	0.05164078
89	0xbd198cb3	-0.037487697
90	0xbcc395fd	-0.02387523
91	0xbd22cb5a	-0.039744712
92	0xbd160771	-0.03662819
93	0xbc354d68	-0.011065818
94	0xbbcde627	-0.00628354
95	0x3cf2eb62	0.029653255
96	0xbd0ebdfe	-0.03484916
97	0x3cc37b40	0.023862481
98	0x3c6848c5	0.014177506
99	0xbc82d625	-0.015971253

weight f4 [100, 100]
0	0x3d92138d	0.07132635
1	0xbcbd8618	-0.02313523
2	0x3c68ac88	0.014201291
3	0xbe06f356	-0.13178763
4	0xbe0494bb	-0.12947361
5	0x3df0e816	0.11763017
6	0x3e195aa8	0.14975989
7	0x3da16020	0.078796625
8	0x3d49b311	0.049243037
9	0x3e20d540	0.15706348
10	0x3db13ab2	0.08653773
11	0xbd66f938	-0.056390017
12	0x3e1a109d	0.150454
13	0xbe1d27fc	-0.15347284
14	0xbd42d7a8	-0.047568947
15	0xbd6a91d5	-0.057267983
16	0xbe3efe88	-0.18651783
17	0xbd298bce	-0.041393094
18	0x3d09b0ea	0.033615984
19	0xbde55091	-0.111970074
20	0x3d3b631a	0.045748807
21	0x3e390450	0.18068051
22	0x3ded4002	0.11584474
23	0xbcfb0a50	-0.030644566
24	0xbcc63b13	-0.02419809
25	0x3df4a9ea	0.11946471
26	0xbd06be5c	-0.032896385
27	0x3dcb54cf	0.09928285
28	0x3d70a52d	0.058751274
29	0x3e467e5d	0.19384141
30	0xbc21cfba	-0.009876186
31	0x3d8a3c5a	0.067497924
32	0xbdef4dd4	-0.116847664
33	0xbe5231f6	-0.20526871
34	0xbc891deb	-0.016737899
35	0x3d1734bd	0.03691553
36	0x3ced13a4	0.02894003
37	0xbb7d6be8	-0.0038669053
38	0xbc91cbbf	-0.017797349
39	0x3e06292e	0.13101646
40	0xbd2a75d5	-0.04161628
41	0xbb0f8cca	-0.0021903985
42	0xbe321594	-0.17391044
43	0x3d8027a7	0.06257563
44	0x3e10fcca	0.14158931
45	0x3e00f839	0.1259469
46	0x3d9b2b46	0.07576613
47	0x3e4729f5	0.19449599
48	0xbe056aa5	-0.13028963
49	0xbdef0d74	-0.11672488
50	0x3d193433	0.037403297
51	0x3c3e9bc0	0.011633813
52	0xbd98c323	-0.074590944
53	0x3b21e592	0.0024703485
54	0xbdc8fa7b	-0.098134
55	0x3d9b48cd	0.07582245
56	0x3c72a4c8	0.014809795
57	0xbe47f177	-0.19525705
58	0x3da9cff5	0.08291618
59	0xbd860d9d	-0.06545565
60	0xbe3ec363	-0.18629222
61	0x3e44ca3d	0.19217773
62	0xbd5a5a6f	-0.0533089
63	0xbd9484a8	-0.07251865
64	0x3ded7c56	0.11595981
65	0xbdeee8f9	-0.1166553
66	0xbe0418c3	-0.12900071
67	0xbe164abf	-0.14676951
68	0xbdb18664	-0.08668211
69	0xbe51b7d3	-0.2048028
70	0xbe481f5f	-0.19543217
71	0xb93247a0	-0.00017002085
72	0xbdf7bddf	-0.12096762
73	0x3c2c96af	0.010533973
74	0x3cc0ea85	0.023549328
75	0xbd495782	-0.04915572
76	0x3d3d4370	0.04620689
77	0xbdb1dc65	-0.08684615
78	0x3db979af	0.090564124
79	0xbda2b52b	-0.07944711
80	0xbd8fcaad	-0.07021079
81	0x3b4c6d67	0.0031193139
82	0xbb2373da	-0.002494088
83	0xbdd28bf1	-0.10280598
84	0xbe252595	-0.16127618
85	0xbda1c3cf	-0.07898676
86	0x3e13a0de	0.14416835
87	0x3dd150e9	0.102205105
88	0xbd8f4ac8	-0.06996685
89	0xbe0dab7c	-0.13834947
90	0xbe47e83c	-0.19522184
91	0xbcc787aa	-0.024356682
92	0xbdd04dbf	-0.10171079
93	0x3e0179d5	0.12644131
94	0x3c4ec28f	0.012619629
95	0x3e1961d3	0.14978723
96	0x3d3cd317	0.04609975
97	0x3e3e9af2	0.18613794
98	0xbddf5448	-0.10904747
99	0xbe32f162	-0.17474893
100	0xbe2ba886	-0.16763505
101	0xbdb61e9a	-0.088925555
102	0x3d4ab54b	0.0494893
103	0x3e170d8c	0.14751261
104	0x3dce99dd	0.10087941
105	0xbe010095	-0.12597878
106	0x3d88a34b	0.06671771
107	0x3e285262	0.16437677
108	0x3e021124	0.12701851
109	0x3e51b76d	0.20480128
110	0x3c405442	0.011738839
111	0x3e11999f	0.14218758
112	0xbc22afdc	-0.009929623
113	0xbc852ae5	-0.016255805
114	0x3cbf4c79	0.023351895
115	0xbdfa1552	-0.12211098
116	0x3d2bdbc4	0.04195763
117	0x3d0069ff	0.031351086
118	0x3dfce35e	0.12348054
119	0xbdc3bce0	-0.095575094
120	0x3cd369d7	0.025807304
121	0x3da713ea	0.08158095
122	0xbd58324e	-0.05278235
123	0x3c9d868f	0.019229202
124	0xbe0102f1	-0.12598778
125	0xbe01d589	-0.12679113
126	0xbd2db62b	-0.042410057
127	0x3e3408a3	0.1758142
128	0x3e4399a5	0.1910158
129	0x3e0ab46a	0.13545385
130	0x3cebea76	0.028798323
131	0xbd89e9fe	-0.067340836
132	0x3dd44323	0.10364368
133	0x3df2ca31	0.11854971
134	0xbd17c80d	-0.037056018
135	0x3e1cdc42	0.15318397
136	0xbe12c58a	-0.14333168
137	0x3e323c2c	0.17405766
138	0x3e0a7e20	0.13524675
139	0xbdf5adbd	-0.119960286
140	0x3e17548e	0.14778349
141	0x3d9d1543	0.07670071
142	0xbd3f5241	-0.046709303
143	0x3e12aa21	0.14322712
144	0xbd8cf94e	-0.068834886
145	0xbe05e9f4	-0.13077527
146	0xbe20f988	-0.15720189
147	0xbdc35227	-0.09537154
148	0xbe2e8779	-0.17043866
149	0x3d715ad3	0.058924507
150	0x3dd49cc7	0.103814654
151	0x3cef5446	0.02921499
152	0xbe033f4e	-0.12817118
153	0x3e303e39	0.17211236
154	0x3e0868af	0.13321184
155	0xbd82abe2	-0.0638044
156	0xbad78225	-0.0016441984
157	0x3cb13129	0.021629887
158	0xbdba27b1	-0.09089602
159	0xbce86d43	-0.028372413
160	0xbe1a681d	-0.15078779
161	0x3d121cc3	0.03567196
162	0x3e2e8b1a	0.1704525
163	0x3af6bd1f	0.0018824673
164	0xbda74389	-0.08167178
165	0x3e49b758	0.19698846
166	0x3dc180da	0.094484046
167	0xbd3681c0	-0.044557333
168	0xbe02f95e	-0.12790439
169	0x3da59bd0	0.080863595
170	0x3d34af8f	0.04411274
171	0x3e024d85	0.12724884
172	0x3d73c755	0.05951627
173	0x3db55a42	0.08855106
174	0xbbd0d110	-0.0063725784
175	0xbdd6e223	-0.10492351
176	0x3d3a1bbe	0.045436613
177	0xbe244646	-0.16042432
178	0x3e12b2cd	0.1432602
179	0xbdee09c3	-0.11622956
180	0xbe22c29d	-0.15894552
181	0x3cce0c88	0.02515246
182	0xbd9a4b11	-0.07533849
183	0x3e33a977	0.17545114
184	0x3dc46bac	0.09590849
185	0xbdb5d0e4	-0.08877733
186	0xbdfe4411	-0.124153264
187	0x3dd1bf61	0.10241581
188	0x3d942164	0.07232931
189	0xbe296749	-0.16543306
190	0x3b724826	0.0036969273
191	0x3cf488ab	0.029850325
192	0x3e26708a	0.16253868
193	0xbc073974	-0.008253444
194	0x3e148ebf	0.14507578
195	0x3dc57f64	0.096434385
196	0x3ce3e7ec	0.02782055
197	0x3e2f68a6	0.17129764
198	0x3bcc7c19	0.0062403795
199	0xbacc07da	-0.0015566305
200	0x3d818ddb	0.06325885
201	0x3d80b197	0.062838726
202	0xbd96099f	-0.07326054
203	0xbda45c43	-0.0802541
204	0x3d54938e	0.05189853
205	0xbce47f90	-0.027892858
206	0xbdf31aed	-0.1187037
207	0x3d8ff2af	0.0702871
208	0x3d0d27dd	0.034461845
209	0xbb6ba9de	-0.0035959403
210	0x3e11cfee	0.14239475
211	0x3c9d4abb	0.019200673
212	0x3d3ceff1	0.046127263
213	0x3d1dfe67	0.038572695
214	0xbdcfae8a	-0.101407126
215	0xbbdcb330	-0.006735228
216	0xbe2d3c3e	-0.16917512
217	0xbe1119ea	-0.14170042
218	0x3e2ccf7a	0.16876021
219	0xbd01db8a	-0.03170351
220	0x3dba6161	0.09100605
221	0xbe0fcac3	-0.14042191
222	0xbdee2eca	-0.11630018
223	0xbc8ae3c8	-0.016954318
224	0xbe4141e6	-0.18872795
225	0x3de15cb3	0.11004009
226	0xbdadf551	-0.08494056
227	0x3bfbc2e3	0.0076831444
228	0x3d47af62	0.048751242
229	0x3e2c8f28	0.16851485
230	0xb9e5b240	-0.0004381109
231	0x3d03b748	0.032157212
232	0x3dd86b1f	0.10567307
233	0x3de2a589	0.110667296
234	0xbc1357d6	-0.00899311
235	0xbe1a4a75	-0.15067466
236	0xbd9bff14	-0.07617012
237	0x3e2c454a	0.16823307
238	0x3da3e6e6	0.08003025
239	0xbe1bb370	-0.15205169
240	0x3cd0caf5	0.025487402
241	0xbe0f3639	-0.13985528
242	0xbd021c16	-0.031765066
243	0xbe174ae0	-0.14774656
244	0xbc1e61bf	-0.009666859
245	0x3dcab508	0.0989781
246	0xbe0b13c9	-0.13581766
247	0xbdb73496	-0.08945577
248	0xbc83da4e	-0.016095307
249	0xbe06328e	-0.13105223
250	0x3e25d1b2	0.16193274
251	0xbde128de	-0.10994123
252	0x3e1ab9a8	0.15109885
253	0x3ca70dcc	0.020392321
254	0x3e3f721d	0.18695875
255	0x3e177cc4	0.14793688

bias f4 [100]
0	0xbcf0eb66	-0.029409122
1	0xbc76e969	-0.015070298
2	0xbcbdc020	-0.023162901
3	0xbd096f9d	-0.03355371
4	0x3c0efed0	0.008727744
5	0x3c82a054	0.015945591
6	0x3b73f65e	0.0037225704
7	0x3c1554d2	0.009114461
8	0xbcd480c4	-0.025940306
9	0xbd449c63	-0.048000704
10	0xbc2c9706	-0.010534054
11	0xbcbda8dc	-0.023151807
12	0xbb10b0af	-0.0022077968
13	0xbc4c080b	-0.0124530895
14	0xbcaebdfd	-0.021330828
15	0xbcb75b87	-0.02238251
16	0xbd186c12	-0.03721244
17	0x3a80f37c	0.0009838189
18	0xbb294e9b	-0.0025834206
19	0xbc73c9a6	-0.01487962
20	0xbd0d2665	-0.034460444
21	0x3b1dbc5f	0.0024068577
22	0xbb87c1d8	-0.004142981
23	0xbc326f28	-0.0108907595
24	0xbc074028	-0.008255042
25	0xbcf61e30	-0.030043691
26	0xbd0f4a11	-0.034982745
27	0x3ba9780a	0.0051717805
28	0xbd881e9a	-0.06646462
29	0xbbac27c6	-0.005253765
30	0xbd0a8ca4	-0.03382553
31	0x3cc37be6	0.02386279
32	0xbb0ec95a	-0.0021787495
33	0x3d09a2b0	0.033602417
34	0x3c0bca6a	0.008532146
35	0xbc35a38a	-0.011086354
36	0xbcb56db0	-0.02214703
37	0xbd10a310	-0.03531176
38	0xbcfd0300	-0.03088522
39	0xbca5448c	-0.020174287
40	0xbd0e22b5	-0.034701068
41	0xbd5685ba	-0.052373625
42	0xbc8b69de	-0.017018255
43	0xbd3fff02	-0.046874054
44	0x3a2f0399	0.00066762563
45	0xbd11379f	-0.035453435
46	0xbc8ef82c	-0.017452322
47	0xbbb57d9c	-0.0055386554
48	0x3cda385e	0.026638206
49	0xbd240371	-0.040042344
50	0xbcf8764f	-0.030329851
51	0xbd5c3bba	-0.053767897
52	0xbc2694a7	-0.010167277
53	0x3c27b6a2	0.010236414
54	0x3aeb013c	0.0017929445
55	0xbcb58c6c	-0.022161685
56	0xbb7048f6	-0.0036664582
57	0x3c6af779	0.014341229
58	0x3be3134e	0.0069297915
59	0x3c9ef614	0.019404449
60	0xbd42012e	-0.047364406
61	0xbc4247ec	-0.011857968
62	0xbbfcf760	-0.007719919
63	0xbcd39c79	-0.025831448
64	0xbc64ad17	-0.013957283
65	0xbc361d0e	-0.011115326
66	0x3c5ff51e	0.01366928
67	0xbd1cba41	-0.038263563
68	0xbd115c18	-0.035488218
69	0xbc25b620	-0.010114223
70	0x3aa6b95d	0.0012720037
71	0xbbb11991	-0.005404659
72	0x3b646099	0.0034847616
73	0xbcb31754	-0.02186171
74	0xbd115fea	-0.03549186
75	0xbcfca702	-0.030841354
76	0xbc2e7318	-0.010647558
77	0xbc2d4446	-0.01057536
78	0x3b289292	0.0025722128
79	0xbcb7fa14	-0.022458114
80	0xbc98aebd	-0.01863801
81	0xbc07f353	-0.008297759
82	0xbc469e2e	-0.012122674
83	0x3cc23a8a	0.023709554
84	0xbb6960d9	-0.0035610704
85	0xbd39f80a	-0.045402564
86	0xbd05b3e6	-0.032642268
87	0x3ab155c0	0.0013529584
88	0xbb5f33dd	-0.0034058013
89	0xbcc87dcc	-0.024474047
90	0xbc27d9e9	-0.010244825
91	0xbd830cd9	-0.06398935
92	0xbcb3398e	-0.02187803
93	0xbd2330ea	-0.03984157
94	0x395197e8	0.00019988383
95	0x3cf4cd27	0.02988298
96	0xba554768	-0.00081359455
97	0x3c0ea8d8	0.008707248
98	0xbba85d31	-0.0051380624
99	0xbbd9a56c	-0.0066420343

weight f4 [100, 100]
0	0x3da6b6cb	0.08140334
1	0xbd184afc	-0.037180886
2	0x3db14a2b	0.086567245
3	0xbe6c7130	-0.23090053
4	0xbe3247ba	-0.17410174
5	0xbe2f3128	-0.17108595
6	0x3c19793c	0.009367283
7	0x3dbbccde	0.09169935
8	0xbe4e34ed	-0.20137377
9	0xbd320fb2	-0.043472
10	0x3e1042cc	0.14087981
11	0xbd99e4f0	-0.075143695
12	0x3d5cf665	0.053945918
13	0x3dedce63	0.11611631
14	0xbe3f5128	-0.18683302
15	0x3c9c1ea2	0.019057576
16	0xbe020a4a	-0.12699237
17	0x3d5761cf	0.052583512
18	0xbd5697e1	-0.052390937
19	0x3e087b0c	0.13328189
20	0xbdc35667	-0.09537964
21	0x3d29adb9	0.04142544
22	0xbd355c14	-0.044277266
23	0xbe05e66b	-0.13076179
24	0x3d90433b	0.07044073
25	0xbd6547ed	-0.055976797
26	0x3db74f2f	0.0895065
27	0x3d49217e	0.049104206
28	0x3e3a283c	0.1817941
29	0x3da7db41	0.08196116
30	0xbda9f006	-0.08297734
31	0xbd00dd0b	-0.031460803
32	0xbe1dee28	-0.1542288
33	0xbe55732c	-0.20844716
34	0xbe06893c	-0.13138288
35	0x3e4eb220	0.20185137
36	0x3e56d716	0.20980486
37	0xbdda232e	-0.10651241
38	0xbe3599d7	-0.17734466
39	0xbde37bb8	-0.11107582
40	0xbe0669e0	-0.13126326
41	0x3d79b4f9	0.060963605
42	0xbcbdd952	-0.023174915
43	0x3c878978	0.016545042
44	0x3dd5bf2b	0.10436853
45	0x3df167f1	0.117874034
46	0x3e50ed29	0.2040297
47	0x3d7b126b	0.06129686
48	0xbd40f001	-0.047103886
49	0x3e389c74	0.18028432
50	0xbdcf4756	-0.10121028
51	0x3d8b0620	0.067882776
52	0x3d31d1ea	0.04341308
53	0xbbfb62eb	-0.007671704
54	0x3e2b675d	0.16738649
55	0x3da84206	0.08215718
56	0xbe65406a	-0.22387853
57	0x3d9cbf10	0.0765363
58	0x3d4c1c30	0.04983157
59	0x3d8e3753	0.06944146
60	0x3cbd488e	0.023105886
61	0x3e5078ba	0.20358554
62	0x3ce8fff8	0.028442368
63	0xbc16a574	-0.009194721
64	0xbcadb89e	-0.021206196
65	0xbdb1c929	-0.086809464
66	0x3dc0655c	0.09394333
67	0xbd0396e6	-0.03212633
68	0x3dea8845	0.114517726
69	0x3e1a33f4	0.15058881
70	0x3d81be6e	0.0633515
71	0xbdfd5f54	-0.12371698
72	0xbd28062a	-0.041021504
73	0x3df052d0	0.11734545
74	0x3e2f6545	0.17128475
75	0xbe45a1e7	-0.19300042
76	0xbcf3b01a	-0.029747058
77	0xbdd1d6f2	-0.10246076
78	0xbe0612d6	-0.13093123
79	0xbe4a3629	-0.19747223
80	0x3d6ef806	0.058342002
81	0xbd453804	-0.048149124
82	0x3cecda6f	0.028912751
83	0x3e07e9d7	0.13272797
84	0x3dd73fdf	0.10510229
85	0x3c0e31c3	0.008678856
86	0xbb3dddc8	-0.0028971303
87	0x3e05a1c6	0.13049993
88	0xbe3e2836	-0.18570027
89	0x3e454480	0.19264412
90	0x3df39664	0.11893919
91	0x3c18b646	0.009320801
92	0xbe0bb5dc	-0.13643593
93	0xbe078da6	-0.13237628
94	0xbbc25aac	-0.005931219
95	0xbe33eec9	-0.17571558
96	0xbd0c1204	-0.03419687
97	0xbe72c5f5	-0.23708327
98	0x3c29ddd8	0.010367833
99	0x3dbaa2b3	0.09113064
100	0xbcbee07a	-0.023300398
101	0x3d4da8af	0.050209697
102	0x3d143cd3	0.03619082
103	0xbe1ccd16	-0.15312609
104	0xbdd9d76a	-0.1063679
105	0xbe1e19ff	-0.15439604
106	0xbd9d15ae	-0.07670151
107	0x3dcbbfdc	0.09948704
108	0xbe0ffc07	-0.14060985
109	0xbd4a881e	-0.049446218
110	0xbd803cc7	-0.06261592
111	0x3dda6c99	0.106652446
112	0x3e20088c	0.1562826
113	0xbdcd4cd4	-0.100244194
114	0x3d3d9d01	0.04629231
115	0x3d85cb9e	0.065329775
116	0xbdb6f909	-0.089342184
117	0xbe07ab35	-0.13248904
118	0x3e001215	0.12506898
119	0x3dd96cfb	0.106164895
120	0xbcfabeb4	-0.030608512
121	0xbe2f4840	-0.17117405
122	0x3da6d4fc	0.08146092
123	0x3e0380b3	0.12842064
124	0xbbc194b7	-0.005907621
125	0xbdc23980	-0.094836235
126	0x3de042b5	0.10950223
127	0xbe03ec6a	-0.12883154
128	0x3e1e6d91	0.15471484
129	0xbbaf501d	-0.0053501264
130	0xbd4bf478	-0.04979369
131	0xbdd5a25b	-0.104313575
132	0xbe3f1570	-0.18660522
133	0xbe2f0389	-0.17091192
134	0xbd9ae95c	-0.07564041
135	0x3e1a46f8	0.15066135
136	0x3d855811	0.06510938
137	0xbd599729	-0.053122673
138	0xbe1318d9	-0.14364947
139	0xbd42616b	-0.047456186
140	0xbd8e8fc6	-0.06961016
141	0xbd87cbc4	-0.06630662
142	0xbd3724f4	-0.044712976
143	0xbd4f17e3	-0.05055989
144	0xbda77ffa	-0.081787065
145	0x3df3efed	0.119109966
146	0x3cc5d548	0.024149552
147	0x3e50730f	0.20356391
148	0x3d917814	0.07102981
149	0xbd5b3d14	-0.053525046
150	0xbd706451	-0.05868942
151	0x3c93e81c	0.018055014
152	0xbdf6062d	-0.12012897
153	0xbe212aa3	-0.15738921
154	0x3e114506	0.14186487
155	0xbdee0988	-0.11622912
156	0xbcba2888	-0.022724405
157	0x3d734dc7	0.059400346
158	0x3d90260c	0.07038507
159	0x3d814fbe	0.06314038
160	0xbd24857b	-0.04016636
161	0x3db46b76	0.08809559
162	0x3da38c08	0.07985693
163	0xbd9338b1	-0.071885474
164	0x3de20c15	0.11037461
165	0x3e2573c4	0.16157442
166	0x3e0b66a0	0.13613367
167	0xbdb0eec9	-0.08639295
168	0xbda56ed4	-0.080777794
169	0x3bda6d15	0.0066658356
170	0xbdecd7fb	-0.115646325
171	0x3e0c3ce3	0.13695101
172	0x3cf9726a	0.030450065
173	0xbe17d6d0	-0.14828038
174	0xbcd725d8	-0.026263162
175	0xbd165571	-0.036702577
176	0x3d2f3b79	0.042781327
177	0x3e2a0826	0.16604671
178	0x3d43f888	0.04784444
179	0xbd55ced0	-0.052199185
180	0xbe23bbc4	-0.15989596
181	0x3e138da0	0.14409494
182	0x3bace9e3	0.005276905
183	0x3d1e970d	0.038718272
184	0xbda70440	-0.081551075
185	0xbe270e8c	-0.16314143
186	0xbe2e07b4	-0.16995126
187	0xbd22e5e9	-0.03977004
188	0xbde1d6ce	-0.11027299
189	0x3cd414ef	0.025888888
190	0xbd1c62db	-0.038180213
191	0x3e13fda7	0.1445223
192	0xbdff6f54	-0.12472406
193	0xbc70f360	-0.014706463
194	0x3e1c7049	0.15277208
195	0xbd58a6b2	-0.052893348
196	0x3ca6c234	0.020356275
197	0xbcd5c012	-0.026092563
198	0x3dda1402	0.106483474
199	0x3e1ed1ca	0.15509716
200	0x3d966fe9	0.07345564
201	0x3b28a7d6	0.0025734804
202	0xbdc5d276	-0.09659283
203	0xbdc09f72	-0.09405412
204	0x3d88e889	0.066849776
205	0x3daf01eb	0.08545288
206	0x3da02c41	0.07820941
207	0xbd8f909e	-0.070100054
208	0x3d73da03	0.059534084
209	0xbbf07902	-0.007338644
210	0xbe190c4a	-0.14946094
211	0xbd3adeb4	-0.045622543
212	0x3d24856b	0.0401663
213	0xbdd0524f	-0.10171949
214	0xbe16af39	-0.1471528
215	0xbe11be03	-0.1423264
216	0xbb9e9949	-0.0048400504
217	0xbd757c6a	-0.059933104
218	0x3e0eb2b8	0.13935363
219	0xbc29758a	-0.010342965
220	0x3b409b84	0.002938957
221	0xbd456471	-0.04819149
222	0xbdca1540	-0.09867334
223	0xbe29fb29	-0.16599716
224	0xbdb67dd1	-0.08910716
225	0xbd8badbe	-0.06820248
226	0x3d33353b	0.043751936
227	0xbcf13d5d	-0.029448206
228	0x3dd5c1d6	0.10437362
229	0x3dbea040	0.09307909
230	0xbe141e31	-0.14464642
231	0xbcd1b36b	-0.025598248
232	0xbe4a060e	-0.19728872
233	0xbe08eaf7	-0.13370882
234	0xbda7ba86	-0.081898734
235	0x3d96aeda	0.07357569
236	0x3ce6274a	0.028094906
237	0x3e300506	0.17189416
238	0xbd9f998b	-0.07792958
239	0xbd087a2e	-0.033319645
240	0x3ca6bd94	0.02035407
241	0x3d006fe8	0.031356722
242	0x3e2780da	0.16357747
243	0xbe286990	-0.16446519
244	0x3e081438	0.13288963
245	0x3df162d1	0.11786426
246	0x3cee4a41	0.029088141
247	0xbc0532fc	-0.008129831
248	0xbdf2d04d	-0.118561365
249	0xbdb3a4ab	-0.08771642
250	0x3d4e0e0c	0.050306365
251	0xbe2828bd	-0.1642179
252	0xbdf5a9be	-0.119952664
253	0x3c12767c	0.008939382
254	0x3d1962eb	0.03744785
255	0xbdf3ec18	-0.11910266

bias f4 [25]
0	0x00000000	0.0
1	0x00000000	0.0
2	0x00000000	0.0
3	0x00000000	0.0
4	0x00000000	0.0
5	0x00000000	0.0
6	0x00000000	0.0
7	0x00000000	0.0
8	0x00000000	0.0
9	0x00000000	0.0
10	0x00000000	0.0
11	0x00000000	0.0
12	0x00000000	0.0
13	0x00000000	0.0
14	0x00000000	0.0
15	0x00000000	0.0
16	0x00000000	0.0
17	0x00000000	0.0
18	0x00000000	0.0
19	0x00000000	0.0
20	0x00000000	0.0
21	0x00000000	0.0
22	0x00000000	0.0
23	0x00000000	0.0
24	0x00000000	0.0

weight f4 [25, 100]
0	0x3e5e03d0	0.21681142
1	0x3d499e40	0.049223185
2	0xbe4817ee	-0.19540378
3	0x3de24dce	0.11049996
4	0x3e044422	0.12916616
5	0xbe362116	-0.17786059
6	0x3e142543	0.14467339
7	0x3e4462df	0.19178341
8	0x3e2afd0a	0.16698089
9	0x3d5f1962	0.054467566
10	0xbe5f41b1	-0.21802403
11	0xbdb5b644	-0.08872655
12	0x3d49f5e3	0.04930676
13	0xbe218c50	-0.15776181
14	0x3e40b467	0.18818818
15	0xbd0f0444	-0.034916177
16	0x3e5763b3	0.21034126
17	0x3d976a02	0.07393266
18	0x3e2e3a03	0.17014317
19	0x3e57551e	0.21028563
20	0x3daaf167	0.08346825
21	0xbdff40ee	-0.12463556
22	0xbe0e54d7	-0.13899551
23	0x3c1d4e50	0.009601191
24	0x3df963e9	0.121772595
25	0xbe4fbace	-0.20286104
26	0xbe310bb3	-0.17289619
27	0xbc3aaaee	-0.011393292
28	0x3e44153b	0.19148724
29	0x3d37058e	0.04468303
30	0x3c7258f8	0.01479172
31	0xbe0b5fd3	-0.13610773
32	0xbdedb1d3	-0.11606183
33	0xbd982cb2	-0.074304
34	0xbdf447c5	-0.119277515
35	0xbdf18762	-0.117934
36	0x3e322e14	0.1740039
37	0x3d9c021f	0.07617592
38	0x3e3d127d	0.18464084
39	0x3d151045	0.03639247
40	0xbdc50152	-0.096193925
41	0xbe4d9fd9	-0.20080508
42	0xb9ff63ab	-0.0004871165
43	0xbd94059c	-0.072276324
44	0xbc753a6d	-0.014967543
45	0x3d109da2	0.03530658
46	0xbd25e7c6	-0.04050424
47	0xbb9c08f7	-0.004761811
48	0x3dec36e9	0.11533911
49	0xbe38c6fd	-0.18044658
50	0xbe5d31db	-0.2160105
51	0xbe01e65d	-0.12685533
52	0x3e2a0a45	0.1660548
53	0xbe1f6fea	-0.15570036
54	0xbe5613aa	-0.20905939
55	0x3e556cc6	0.20842275
56	0xbe52fc38	-0.20604026
57	0xbddb8cc1	-0.10720206
58	0x3e26991b	0.16269343
59	0x3dca05fa	0.09864421
60	0xbcb86507	-0.022509111
61	0x3d124250	0.03570777
62	0x3e2ee9e1	0.17081405
63	0xbe2acc03	-0.16679387
64	0xbd819e59	-0.063290305
65	0xbc503a70	-0.012709245
66	0xbe2f765b	-0.17134993
67	0x3d4dbb9a	0.05022774
68	0x3e13a563	0.14418559
69	0x3e28ab12	0.16471508
70	0xbe247551	-0.16060378
71	0xbd64825b	-0.05578838
72	0xbbebccb8	-0.0071960352
73	0xbdc86ac2	-0.097859874
74	0x3e4535d9	0.19258823
75	0x3dfa0b16	0.12209146
76	0x3c39136d	0.011296135
77	0x3e0d447d	0.13795657
78	0x3c1917bd	0.009344039
79	0x3e07f4f4	0.13277036
80	0x3e0b47f3	0.13601665
81	0x3e4e00d0	0.20117497
82	0xbe23bb86	-0.15989503
83	0x3d657fde	0.056030147
84	0xbdbb6079	-0.0914926
85	0xbd12af48	-0.035811692
86	0xbd0b77f3	-0.03404994
87	0x3e1fc9c3	0.1560431
88	0xbe010a89	-0.12601675
89	0xbe56188c	-0.20907801
90	0xbde56766	-0.11201362
91	0x3e28fb57	0.16502129
92	0x3e2b54d4	0.16731578
93	0xbd7d3321	-0.06181634
94	0x3e443246	0.19159803
95	0x3ca858f2	0.020550225
96	0xbe268ac2	-0.1626387
97	0xbdc50055	-0.09619204
98	0x3dfe73d5	0.12424437
99	0xbd51d4af	-0.05122822
100	0xbc1a15e2	-0.009404631
101	0x3dca8cad	0.09890113
102	0x3c9a3c9b	0.018827727
103	0x3d8fcbbc	0.07021281
104	0x3dcf2267	0.101139836
105	0xbc2dc622	-0.010606321
106	0xbde9e531	-0.11420668
107	0xbdcb9c2b	-0.09941896
108	0x3e281e9f	0.16417931
109	0xbd4acd5c	-0.049512252
110	0xbe033fe9	-0.12817349
111	0xbe0930dc	-0.13397545
112	0x3d1d807c	0.03845261
113	0xbe520025	-0.20507868
114	0xbd99d03d	-0.075104214
115	0xbb680298	-0.0035401937
116	0x3e03104b	0.12799184
117	0xbdef1710	-0.11674321
118	0xbe5a9298	-0.21344984
119	0xbe3beb9f	-0.18351601
120	0x3c57b697	0.013166091
121	0xbe261618	-0.16219366
122	0x3d9e8a3e	0.07741211
123	0x3dca960a	0.09891899
124	0xbcf35125	-0.029701779
125	0x3e083ee2	0.13305238
126	0xbe12c56d	-0.14333124
127	0x3e2a555d	0.16634126
128	0xbe3330ce	-0.17499086
129	0xbd66a10a	-0.056305923
130	0xbe4b4da6	-0.1985384
131	0x3db6a901	0.08918954
132	0xbc629efe	-0.013831852
133	0xbd96d1e8	-0.07364255
134	0x3e28a737	0.16470037
135	0x3e402dbd	0.18767448
136	0x3d55f680	0.052237034
137	0x3d841e0f	0.06451046
138	0xbd28da74	-0.041223958
139	0xbd5e7ae7	-0.054316428
140	0x3d834c48	0.06411034
141	0xbcd264bc	-0.0256828
142	0xbd3e0ce8	-0.046399027
143	0xbe18ff8f	-0.14941238
144	0xbe05cf69	-0.13067402
145	0x3d9dc487	0.077035
146	0x3e5fdcd7	0.21861587
147	0x3deea89d	0.11653254
148	0x3e37f9c4	0.17966372
149	0xbe085a6a	-0.1331574
150	0xbd2ac9b5	-0.04169627
151	0x3d07eb9c	0.03318368
152	0xbe0850fa	-0.1331214
153	0x3d57d927	0.052697327
154	0xbd308020	-0.04309094
155	0xbe2d4ef8	-0.16924655
156	0x3bc13128	0.0058957525
157	0x3dc6c21c	0.09704992
158	0xbe3bc905	-0.18338402
159	0x3d548fcc	0.051894948
160	0xbb25e0b6	-0.002531094
161	0xbc2ba8e0	-0.010477275
162	0x3d8f0a13	0.069843434
163	0xbe2a834a	-0.16651645
164	0xbe3f5089	-0.18683065
165	0x3e1c765b	0.15279524
166	0x3e35079d	0.17678685
167	0xbe2a9cf3	-0.16661434
168	0x3e033974	0.12814885
169	0xbe031497	-0.12800823
170	0x3e5b048b	0.21388452
171	0xbe24e170	-0.16101623
172	0xbd703969	-0.0586485
173	0xbd69c56d	-0.057073046
174	0xbd50a138	-0.050935
175	0xbe2552a1	-0.16144802
176	0x3e4e9b47	0.20176421
177	0x3e0dbcce	0.13841555
178	0x3d9c867e	0.0764284
179	0xbc3ef308	-0.011654623
180	0xb986f1f5	-0.00025738744
181	0xbd96d635	-0.073650755
182	0x3ceb289f	0.028705893
183	0xbe16f6be	-0.14742562
184	0xbd9641ca	-0.07336767
185	0x3e317fa7	0.17333852
186	0x3e2f80f1	0.17139031
187	0x3e398c23	0.18119864
188	0x3d1c64e7	0.038182165
189	0x3d861fda	0.06549044
190	0xbe112c72	-0.14177111
191	0xbd8f50fa	-0.06997867
192	0xbde77967	-0.113024525
193	0xbdce23f5	-0.10065452
194	0x3dc7e0a0	0.09759641
195	0x3e529240	0.20563602
196	0xbd1dfb42	-0.038569696
197	0xbd55be8d	-0.052183677
198	0xbe5b25c1	-0.2140112
199	0xbe2483cc	-0.16065902
200	0x3d94279f	0.072341196
201	0x3bf40a8c	0.0074475463
202	0xbdf25549	-0.11832673
203	0xbd6ffd30	-0.058591068
204	0xbc8e4931	-0.017368885
205	0xbb448107	-0.0029984133
206	0xbe1692d1	-0.14704444
207	0xbdc3dde0	-0.09563804
208	0x3e5eebcb	0.21769635
209	0xbe01175a	-0.12606564
210	0xbe4930a1	-0.19647457
211	0x3e177d45	0.1479388
212	0xbe17a878	-0.1481036
213	0x3daf8a9c	0.085713595
214	0xbe016233	-0.12635116
215	0xbd58e5e5	-0.05295362
216	0xbdf4cd2b	-0.11953195
217	0xbe04addf	-0.12956952
218	0x3d891f01	0.06695367
219	0xbd93783a	-0.07200666
220	0x3d8dc807	0.06922918
221	0x3e12ec2f	0.1434791
222	0xbc9be0b6	-0.019028049
223	0x3e4f3735	0.20235904
224	0x3ccad178	0.024758086
225	0x3e040570	0.12892699
226	0x3db89276	0.0901231
227	0x3e1a9741	0.15096761
228	0x3c441aef	0.011969312
229	0x3d0b68c0	0.034035444
230	0x3ddaf21e	0.106907114
231	0xbe37c567	-0.17946397
232	0x3e4bdf6f	0.19909452
233	0x3d63ff50	0.055663407
234	0x3e12ba4e	0.14328882
235	0x3e1ee5d9	0.15517367
236	0xbe494243	-0.19654183
237	0x3e5c4abd	0.21512885
238	0x3e5d8347	0.2163211
239	0x3e5ce39a	0.21571198
240	0x3c3fa2a2	0.0116964895
241	0xbe13bee6	-0.1442829
242	0xbda075af	-0.07834946
243	0xbe0254c6	-0.12727651
244	0x3de8cd08	0.113672316
245	0xbd49121e	-0.049089544
246	0x3de6c73e	0.11268471
247	0x3dbab7b1	0.091170676
248	0x3db5a19e	0.08868717
249	0x3dc97a47	0.09837776
250	0x3e3134fc	0.17305368
251	0x3dbede89	0.09319789
252	0xbc994f1d	-0.018714482
253	0xbd30db67	-0.04317799
254	0xbe28166e	-0.16414806
255	0x3c86dfb8	0.0164641
