deep_learning/models/GCNLinkPrediction118.pth (torch, 394588 bytes, 8 tensors)

bias f4 [200]
000000 a6 f0 93 be f5 f0 2d 3e ff 32 1e 3e 9d 8b 27 3e
       -0.28894538 0.16986449 0.15449141 0.16361852
000010 69 a0 33 be d4 64 66 3d d1 5f 03 3e 60 c7 84 3d
       -0.1754166 0.0562485 0.1282952 0.0648334
000020 fa 57 33 3e d0 cc 35 be a4 ed 34 be 08 51 d9 bd
       0.17514029 -0.17753911 -0.17668778 -0.106111586
000030 18 9d ff 3d 51 c0 35 be 5a 2b 36 be be 47 2f be
       0.12481135 -0.17749144 -0.17789975 -0.17117211
000040 56 ef 08 3e b2 ec df 3d fe 83 a5 3d 8a f6 02 be
       0.1337255 0.10933818 0.08081816 -0.1278936
000050 38 0b 74 3e 94 9b aa 3d 9c d4 50 3e e6 b3 96 be
       0.23832405 0.083304554 0.20393604 -0.29434127
000060 e4 35 4e 3d ec 30 29 3e fa f2 32 be 8c 9c 6d be
       0.050344363 0.16522568 -0.174755 -0.23204249
000070 6a c4 35 be a2 7d 44 be 93 de 43 3e 6d d2 39 be
       -0.17750707 -0.1918855 0.19127874 -0.18146677
000080 09 ec 32 3e c0 0e 45 3e 63 23 31 be 67 89 35 be
       0.17472853 0.19243908 -0.17298655 -0.17728196
000090 1e c3 35 be d9 93 27 3e 65 12 11 3e a3 c1 35 be
       -0.17750213 0.16364993 0.14167173 -0.17749648
0000a0 25 bd 35 be 98 1e ba 3b 7e e6 04 3e d8 cd 35 be
       -0.17747934 0.0056799166 0.12978551 -0.17754304
0000b0 e9 98 37 be 12 cb 35 be ad 42 33 be d0 b7 10 3c
       -0.17929424 -0.17753246 -0.17505904 0.008832887
0000c0 b0 b7 36 be e8 d9 a7 3d 57 97 06 3e c6 c0 35 be
       -0.17843509 0.08195859 0.13143669 -0.17749318
0000d0 3a 5d 36 3e 62 b7 35 be d2 80 2c 3e 74 f0 39 3e
       0.17809 -0.17745736 0.16846016 0.18158132
0000e0 1e eb 0a 3e 63 92 f4 3d 0e ef 35 be 15 eb 3c be
       0.13566253 0.119419836 -0.17766973 -0.18449052
0000f0 33 59 68 3e 4a 16 67 3e 89 f9 3f be 89 b1 35 be
       0.22690277 0.22567096 -0.18747534 -0.17743506
000100 ed c0 35 be 1c c3 35 be 4c 49 38 be 34 cb ff 3d
       -0.17749377 -0.1775021 -0.1799671 0.1248993
000110 1f 6b 1b be 67 68 ef 3d 4a e2 35 be 01 c4 41 3d
       -0.15177582 0.11689835 -0.17762104 0.047306065
000120 cd 31 37 be 93 6b 38 be 26 85 0f 3e 90 08 3a be
       -0.17890091 -0.18009786 0.14015636 -0.18167329
000130 50 89 2f 3e fa a9 29 be 7e a5 97 3c e5 c0 f1 3d
       0.17142224 -0.16568747 0.01851153 0.1180437
000140 b2 bf 35 be 40 27 39 be 98 ba 35 be 7a a3 37 be
       -0.17748907 -0.18081379 -0.17746961 -0.17933455
000150 53 1d 9d 3d d4 70 42 be ee bf a0 3d 8a 42 35 be
       0.07671609 -0.18988353 0.07849108 -0.17701164
000160 46 c0 35 be 1d 79 0e 3e 4c b5 6e 3d 99 50 83 3d
       -0.17749128 0.13913389 0.058278367 0.06411857
000170 dc ee 35 be 5c cb 35 be 8d de 04 3e 01 c1 35 be
       -0.17766899 -0.17753357 0.12975521 -0.17749406
000180 6c f5 67 3e 43 41 15 3e 9e cc 1d 3e d6 7b 19 be
       0.22652215 0.14575677 0.15410087 -0.14988646
000190 a8 c3 35 be d9 73 09 3d ca 42 1d 3e 2e 18 34 be
       -0.17750418 0.033557747 0.1535751 -0.17587349
0001a0 57 ae 2e be e2 25 3b be a6 f8 41 be d4 73 00 3e
       -0.17058693 -0.1827617 -0.18942508 0.12544185
0001b0 03 3e 40 be 9a fc 37 be 33 bf 35 be c3 57 26 be
       -0.18773656 -0.17967454 -0.17748718 -0.16244416
0001c0 6d 22 bb 3d 06 c1 35 be 55 0b 1d be 79 e8 03 3e
       0.091374256 -0.17749414 -0.15336354 0.1288165
0001d0 f9 c5 3e be 16 ff 35 3e 85 6e 36 be a9 7d 33 be
       -0.18630208 0.17773089 -0.17815597 -0.17528404
0001e0 5c bf 35 be 7e b5 35 be 14 2c 37 3e ec df 35 be
       -0.17748779 -0.17745015 0.17887908 -0.177612
0001f0 91 da 83 3c 87 5c 30 3c ec fa 28 3e cc a5 0f 3e
       0.016095432 0.010764248 0.16501969 0.1402809
000200 57 c1 35 be c8 df 36 be ea f7 58 3e b9 c4 c3 3d
       -0.17749535 -0.17858803 0.21188322 0.09559006
000210 cb f0 16 3e dd fe 3f be 69 be 35 be 66 f6 a6 bc
       0.14740293 -0.18749566 -0.17748417 -0.020381164
000220 95 bc 35 be ad 91 5b 3e 38 2d 36 be ba ef f7 3d
       -0.1774772 0.2144229 -0.17790687 0.12106271
000230 89 c0 35 be 3c 89 46 be 82 85 1b 3e 23 f5 39 be
       -0.17749228 -0.19388288 0.15187648 -0.18159918
000240 ba 32 38 be 7d a3 19 3e 00 c7 35 be c8 87 b8 3d
       -0.179881 0.15003772 -0.17751694 0.09010273
000250 04 6e 36 be 5a fd f9 bd d7 ad 10 3e 39 6a 39 be
       -0.17815405 -0.12206526 0.14128815 -0.18106927
000260 83 12 75 3e d5 6e 2e be 30 22 3a be 23 7e 83 3e
       0.23932843 -0.17034467 -0.18177104 0.25682172
000270 d2 de 35 be 0a 38 e0 3d 0a 9e e4 3d 9d ea 35 be
       -0.1776078 0.109481886 0.11162956 -0.17765279
000280 16 ec 10 3e b8 e8 35 be 9e 73 0d 3e 5c b8 c5 3d
       0.1415256 -0.17764556 0.13813636 0.096543044
000290 f9 11 4f 3e 4d 95 27 3e 39 23 34 be 6d 26 36 be
       0.202217 0.16365547 -0.17591561 -0.17788096
0002a0 fa 65 36 be 0c fa 38 3e 77 c4 35 be c8 27 33 be
       -0.17812338 0.18064135 -0.17750727 -0.17495644
0002b0 3b 70 16 3e 85 3d 48 3e 7e 03 33 be 12 7f 07 3e
       0.1469125 0.19554718 -0.17481801 0.13232067
0002c0 03 69 23 3e 96 d6 86 be 62 67 25 3e 3a ff 4f 3e
       0.15958028 -0.2633559 0.16152719 0.20312205
0002d0 e9 e6 26 be 54 51 4a 3e 63 80 35 be d7 68 3a 3d
       -0.16299023 0.19757587 -0.17724757 0.04551014
0002e0 a5 a4 35 be 23 9b a9 3c c4 90 03 3e 18 2e 13 3e
       -0.17738588 0.020703858 0.12848192 0.14373052
0002f0 1a 0d 54 be 6a 46 29 3e 5c aa b7 3d 48 b9 35 be
       -0.20708123 0.16530767 0.0896804 -0.1774646
000300 f0 91 35 be 2c b3 92 be e0 ac cc 3d 0d f4 33 3e
       -0.17731452 -0.28652322 0.09993911 0.17573567
000310 0a 4e 0e 3e e9 72 fd 3d 51 bd 1d 3e 42 b4 37 be
       0.13896957 0.12375433 0.1540425 -0.17939857

weight f4 [200, 18]
000000 30 33 4e be 56 e4 9d bd d5 73 83 be 0c 0b cf bd
       -0.20136714 -0.07709567 -0.2567431 -0.10109529
000010 d3 c6 67 be 4f d4 7b be 3e 65 9d be df 0f 1a be
       -0.22634439 -0.24592708 -0.30741304 -0.15045117
000020 b9 88 44 be 80 d9 33 3d 59 94 4c be ee 8b 1c bd
       -0.1919278 0.043908596 -0.19978465 -0.038219385
000030 af 35 84 be 58 59 49 be b0 87 78 be 3d 82 f7 bd
       -0.25822207 -0.19662988 -0.2427051 -0.12085388
000040 3b de a9 be 38 3f 1d be 19 2e 97 3e b7 7d 7b 3e
       -0.3317736 -0.15356147 0.29527357 0.24559675
000050 bd d8 a3 3e 29 1d a0 3d f7 bc 5e 3e 96 6b 36 3e
       0.32001296 0.07818062 0.21751772 0.17814478
000060 17 38 98 3e 6f ca 9d 3e cd b7 7d 3e ea 51 7c bb
       0.29730293 0.30818507 0.24777146 -0.0038500973
000070 8f 93 45 3d 24 8d df 3c ab 09 8c 3e db 0c 93 3e
       0.048236426 0.02728898 0.27351126 0.28720745
000080 8f 0b 01 3e 13 fe cc 3d 3e 00 de 3d 4e b7 af 3c
       0.12602066 0.10009398 0.1083989 0.021449711
000090 e9 5f 71 3e ae 70 15 3e 22 09 1e 3d f5 b7 3b 3e
       0.23571743 0.14593765 0.03858293 0.18331893
0000a0 42 f8 69 3d 66 05 dd 3d a1 69 5f 3e 7b a3 9f 3e
       0.057121523 0.10792045 0.21817638 0.31179413
0000b0 e9 d9 a6 3e aa 0c e2 3d 8a 65 30 3c 15 40 1e 3c
       0.32588127 0.11037572 0.010766396 0.009658833
0000c0 1e 96 56 3e 85 57 ac 3e cf e6 69 3e fd 66 c4 3d
       0.20955703 0.33660522 0.22841953 0.09589956
0000d0 47 ed e6 3d c8 c8 91 3e 6f a1 cc 3d 33 ca 9e 3e
       0.11275726 0.28473496 0.099917285 0.3101364
0000e0 15 30 b8 3e 04 b8 77 3e 14 ea 8f 3d 0a 14 a6 3e
       0.35974184 0.2419129 0.07027069 0.32437164
0000f0 1a d9 91 3d 96 1e 9c 3e a9 ce 33 3e 4f f5 57 bc
       0.07121487 0.30492085 0.17559303 -0.013181045
000100 93 e3 a4 3e 5a 67 57 3e 47 aa 0c 3e 8d 9f ae 3e
       0.32204875 0.21035519 0.1373683 0.34106103
000110 44 15 b6 3e 30 dc 64 3d 95 ca ee 3d 16 f2 0a 3e
       0.355631 0.05587405 0.11659733 0.13568911
000120 e5 08 44 be ca 56 43 bd ea 9a 00 be 37 a5 39 be
       -0.19144018 -0.04769019 -0.12559095 -0.1812943
000130 f7 c8 92 bc ed 88 1a 3e e6 73 2e be b0 f6 86 bd
       -0.017918093 0.15091296 -0.17036399 -0.06590021
000140 46 94 9e bc 7d 8b 1c be ae 43 70 be 80 71 cc bd
       -0.019357812 -0.15287586 -0.23463318 -0.09982586
000150 f4 59 91 be fe 42 2f be 1b 4d 8f be 4a f6 5e bd
       -0.2838894 -0.17115399 -0.27988514 -0.0544341
000160 64 49 94 be a5 6b 9a be 74 09 85 3d 70 bd 3a 3e
       -0.28962243 -0.3016025 0.06495944 0.18236327
000170 e8 49 d3 3d 1f 06 a6 3e 88 64 9c 3e a4 27 d1 3d
       0.10316831 0.32426545 0.3054545 0.10212639
000180 9e 89 7c 3e 03 76 be 3e cd 3b 84 3e 54 cf 6c 3d
       0.24661872 0.3719941 0.25826874 0.05781491
000190 e9 ad 40 3e 4b d1 54 3e c0 66 9a 3c 5b c2 2b 3e
       0.18816341 0.20782964 0.018847823 0.1677336
0001a0 d8 e2 77 3d c4 2a 90 3c 91 fa fd 3c c3 8c 99 3e
       0.06051907 0.017598517 0.031003268 0.29990205
0001b0 a8 87 3a be e0 36 c0 bd a8 5a 46 3b b7 a6 80 bc
       -0.18215811 -0.093854666 0.0030266438 -0.015704496
0001c0 84 5e 61 bd b1 ee 5c be f6 d0 5d 3e 7b ad 95 be
       -0.055021778 -0.21575429 0.21661744 -0.29233918
0001d0 92 16 f6 3d 93 1c 2c 3e 97 bb 8e 3d 4d f5 69 3e
       0.12016024 0.16807775 0.06969374 0.22847481
0001e0 11 70 00 3d 2a ba 64 3e c2 20 60 bd 83 dc a6 bd
       0.031356875 0.22336641 -0.05471874 -0.08147528
0001f0 03 ab 1f bd 64 75 4b 3e f0 0e 80 3d 71 40 ff bd
       -0.03898145 0.19869 0.06252849 -0.12463463
000200 64 16 5d bd 7b e2 92 3d 68 b9 21 be 03 24 ba 3d
       -0.05397643 0.07172104 -0.15793383 0.090889
000210 1c 30 ab bd 09 11 d5 be 74 92 c6 3d 4b 70 fb bc
       -0.083587855 -0.4161456 0.096959025 -0.030693194
000220 93 c0 11 3e d4 c7 68 bd 68 76 db bd bf b2 fe 3c
       0.14233617 -0.056831196 -0.107159436 0.031091092
000230 f0 1b 49 3d 5e 81 0a 3e 24 ff a9 bd b1 6d e3 bd
       0.04909891 0.13525912 -0.08300617 -0.11104906
000240 7e a3 9a 3e 09 1e 8e 3e 7e d9 c8 3d e3 ce b4 3e
       0.3020286 0.2775729 0.09807108 0.35314092
000250 cb 32 87 3e 97 0b 6d 3e 05 c3 93 3e 8f 82 90 3e
       0.2640594 0.23148952 0.28859726 0.28224608
000260 b5 fd ad 3e 48 11 7e 3b c9 c7 e3 3d b2 10 d2 3d
       0.33982626 0.0038767625 0.1112209 0.10257091
000270 a4 dc 9d 3e 97 47 8f 3e 66 30 c9 3d 6b ca 60 3e
       0.30832398 0.27984306 0.098236844 0.21952216
000280 b8 e2 ae 3e 5f 78 14 3e 66 6d 91 bc 28 d8 1f be
       0.34157348 0.14499043 -0.01775236 -0.15609801
000290 98 e7 05 be c2 0d 2a be c3 4a 04 be d7 e3 9c 3d
       -0.13076627 -0.1660681 -0.12919144 0.076606445
0002a0 08 17 06 be 87 8e 14 3e 6d c6 91 be 58 a0 c7 bd
       -0.13094723 0.14507495 -0.284717 -0.0974738
0002b0 ce c6 86 bc 0f 79 80 be 22 7d 65 be 03 02 9e be
       -0.01645222 -0.2509236 -0.22411016 -0.3086091
0002c0 cb 50 12 be a6 48 5e be 01 47 94 be 14 a2 56 be
       -0.14288633 -0.217074 -0.28960422 -0.20960265
0002d0 b4 52 22 be 30 10 e4 bd 2b 33 35 bd 43 8b 22 bd
       -0.15851861 -0.111359 -0.04423825 -0.03968359
0002e0 7c 2d 18 be 94 92 e5 3d e1 48 88 be be 9a 9e 3e
       -0.14861101 0.11209598 -0.26618102 0.30977434
0002f0 b0 2f ad bd 7a 80 ce bc ee 70 c8 bd f1 fa 82 be
       -0.08456361 -0.025207747 -0.09787165 -0.25582078
000300 66 77 94 bd c3 ba 9d be f8 4f d4 bd cc 9d ac be
       -0.07249336 -0.3080655 -0.10366815 -0.3371414
000310 c3 3d ce bc bd d5 6f be 1c 92 0e bd 46 0b 9c 3d
       -0.025175935 -0.23421378 -0.03480731 0.07619338
000320 f2 ff cb bd 96 f0 7b 3c df 3a 1d be 94 1e 34 3d
       -0.09960927 0.015377184 -0.15354489 0.043974474
000330 93 f7 0d be 82 f8 4c bd 54 d0 ef bc ed 5d 6c be
       -0.13863973 -0.050041683 -0.029274143 -0.23082705
000340 a2 8e 5e be a2 78 49 3d b6 e1 44 be 4a 57 7c bd
       -0.21734098 0.04918731 -0.19226727 -0.061606683
000350 04 c3 cb bd a0 0c 1b 3b da c2 69 be 78 f2 12 bd
       -0.09949306 0.0023658648 -0.22828236 -0.035875767
000360 a0 ac 4d be eb 0d 45 be 34 64 0d be 87 95 c1 be
       -0.20085382 -0.1924359 -0.13807756 -0.37809393
000370 49 3a 95 be 87 63 5c be 33 de 32 3e 83 18 d2 be
       -0.2914603 -0.21522342 0.17467575 -0.41034326
000380 33 bd ae be 95 34 a7 3d 6d cd 4c 3d 3c ff 32 3b
       -0.34128723 0.08164326 0.050000597 0.0027312776
000390 f7 1e db 3d 8e 21 0b bc d0 fc 70 3e a0 4d 40 3e
       0.106992655 -0.008491887 0.2353394 0.18779612
0003a0 53 40 e3 bd 02 f9 d8 3c 05 9f fb bd c2 b0 ac be
       -0.11096253 0.026485924 -0.1228619 -0.33728606
0003b0 4e 79 93 be 0a a0 0f be 27 b7 9b bd cc 0c 9c bd
       -0.28803486 -0.14025894 -0.07603293 -0.07619628
0003c0 cf a0 42 be 16 8f 41 be 67 a3 ac bd df 74 8e be
       -0.19006656 -0.18902239 -0.08429604 -0.2782354
0003d0 5a bb 79 be 01 02 ab bd 85 bc ad be 0c b0 45 be
       -0.24387875 -0.083499916 -0.3393289 -0.19305438
0003e0 96 34 eb bd 4f a6 93 bd 56 b7 99 be 7d ff a6 be
       -0.11484639 -0.07209455 -0.30022687 -0.32616797
0003f0 94 67 1f be bf 23 5e 3e af de 48 3b 23 73 0a 3e
       -0.15566856 0.21693324 0.0030650308 0.13520484

bias f4 [200]
000000 23 c0 35 be 00 b0 f0 bd 64 fe 11 3e 29 1f 25 3e
       -0.17749076 -0.11752319 0.14257199 0.16125168
000010 ca 4a 47 3e 4a bc 27 3e 7e 19 32 be 4e a4 36 be
       0.19462124 0.1638042 -0.17392537 -0.17836115
000020 c7 96 f3 3d 1a c1 35 be ad e3 e9 3d 0e 36 2b 3e
       0.11893993 -0.17749444 0.11420379 0.16719839
000030 31 c1 35 be 69 7b 2a 3e 1f c7 29 3e 3e c1 35 be
       -0.17749478 0.1664864 0.16579865 -0.17749497
000040 5d ba 14 3e ee 1c 36 be 65 7b 08 3e 14 af 35 be
       0.14524217 -0.17784473 0.13328321 -0.17742568
000050 24 c1 35 be 34 c1 35 be 10 c1 35 be 3d c1 35 be
       -0.17749459 -0.17749482 -0.17749429 -0.17749496
000060 0e c1 35 be 78 8e 31 bd 72 ea 26 3e 4d 58 3a be
       -0.17749426 -0.04334876 0.16300371 -0.18197747
000070 94 a4 49 3e 10 8c 26 be 11 c1 35 be 24 d9 41 3e
       0.19691688 -0.16264367 -0.1774943 0.18930489
000080 33 ba 3c 3e fa 5c 41 be be d7 12 3e 3b 69 bc 3d
       0.18430404 -0.18883124 0.14340112 0.091997586
000090 36 c1 35 be d0 56 2a 3e 29 fd 35 be b7 be 35 be
       -0.17749485 0.16634679 -0.17772354 -0.17748533
0000a0 91 bd 35 be 88 6d 33 3e 5a 49 35 be 79 06 0f 3e
       -0.17748095 0.17522252 -0.17703763 0.13967313
0000b0 60 e3 23 be e7 cc 36 be 47 a0 35 be 07 37 32 3e
       -0.16004705 -0.17851602 -0.17736922 0.17403804
0000c0 fb e0 41 be 74 1b 32 3e 63 12 30 3e c3 d7 27 3e
       -0.1893348 0.17393285 0.17194514 0.163909
0000d0 1e b6 3c 3e 08 af 18 3e 2a c1 35 be 9d a9 bd bc
       0.18428847 0.14910519 -0.17749467 -0.023152167
0000e0 31 c1 35 be 05 da 1f 3e a6 61 49 3d 60 3d 0e 3e
       -0.17749478 0.15610512 0.04916539 0.138906
0000f0 3b c1 35 be 20 c5 34 3e d3 7c 80 3e 92 93 29 3e
       -0.17749493 0.17653322 0.25095233 0.165602
000100 19 c1 35 be 3e c1 35 be b4 ba 35 be e5 4b 18 3e
       -0.17749442 -0.17749497 -0.17747003 0.14872701
000110 8c 00 2c 3e 88 1e 36 be 86 e7 23 3e c4 c0 35 be
       0.16797084 -0.17785084 0.16006288 -0.17749316
000120 59 97 36 be b4 0d 48 be b7 b1 35 be 1a c1 35 be
       -0.17831172 -0.19536477 -0.17743574 -0.17749444
000130 46 77 29 be af bf 35 be d6 cb 0b 3d 9a c0 35 be
       -0.16549405 -0.17748903 0.03412994 -0.17749253
000140 20 c1 35 be 0f 89 0c 3e 4b c7 33 3e 18 5d 2a 3e
       -0.17749453 0.13724159 0.17556493 0.16637075
000150 e3 89 2b 3e 2d c1 35 be 3d ef 30 3e 7f 55 2c be
       0.16751818 -0.17749472 0.17278762 -0.16829489
000160 2b b8 35 be 3d c1 35 be 76 5f 38 be f6 30 32 be
       -0.17746036 -0.17749496 -0.18005165 -0.1740149
000170 36 c1 35 be 3d c1 35 be ef fc 2a 3e 86 ca 4d be
       -0.17749485 -0.17749496 0.16698049 -0.20096788
000180 22 b3 07 3e 41 c1 35 be 22 28 16 3e d4 c0 35 be
       0.13251927 -0.17749502 0.14663747 -0.1774934
000190 c4 c0 35 be f5 9e 2f 3e 30 9b 25 3e 3a fd 32 3e
       -0.17749316 0.17150481 0.1617248 0.17479411
0001a0 8d c0 35 be 19 c1 35 be c7 71 3d be ac c0 35 be
       -0.17749234 -0.17749442 -0.18500434 -0.1774928
0001b0 d9 c1 32 3e e9 f2 5c 3e 11 9e 24 3e 30 c1 35 be
       0.1745676 0.21577038 0.16075923 -0.17749476
0001c0 09 c1 35 be 1e 19 03 3d fa 3a 37 be ba b8 38 3e
       -0.17749418 0.032006375 -0.17893592 0.18039218
0001d0 38 c1 35 be 00 b9 35 be 2c c1 35 be c5 3a 19 3e
       -0.17749488 -0.17746353 -0.1774947 0.14963825
0001e0 3b c1 35 be 2e c1 35 be 2e c1 35 be 14 a4 34 3e
       -0.17749493 -0.17749473 -0.17749473 0.17640716
0001f0 20 c1 35 be 9a 58 40 3e c0 4f 12 be 3b c1 35 be
       -0.17749453 0.18783799 -0.14288235 -0.17749493
000200 63 c3 35 be 05 a6 35 be 39 c1 35 be 1a c5 46 be
       -0.17750315 -0.17739113 -0.1774949 -0.19411126
000210 86 0c 13 be bb 2e 2c 3e ad c8 02 3e e4 3e 33 be
       -0.14360246 0.16814701 0.12771864 -0.1750446
000220 62 1b fa 3d c5 43 21 3e bd 6d 34 be 7e d2 26 3e
       0.12212254 0.15748508 -0.17619987 0.16291234
000230 3d b7 35 be 04 0d 36 be 5d b0 35 be ec 0a 23 3e
       -0.17745681 -0.17778403 -0.17743059 0.15922135
000240 f1 7d 23 3e df c0 35 be 4c d4 3d 3e 30 c1 35 be
       0.15966012 -0.17749356 0.18538016 -0.17749476
000250 b9 72 35 3e 12 42 30 be cd 94 51 3e 62 27 20 3e
       0.17719544 -0.17212704 0.20466919 0.15640023
000260 57 c0 35 be 67 ad 43 be c9 e9 1a 3e 0a 6b fc 3d
       -0.17749153 -0.19109116 0.15128244 0.123251036
000270 f0 fd 2c 3e 02 65 30 3e de bf 35 be ce c0 35 be
       0.16893744 0.17226031 -0.17748973 -0.1774933
000280 46 14 02 3c 25 9d 25 3e 37 0d 3c be 64 4a 31 3e
       0.007939404 0.16173227 -0.18364416 0.17313534
000290 f5 c4 2e 3d 0b f1 2a 3e 38 c1 35 be c9 56 2c 3e
       0.0426683 0.16693513 -0.17749488 0.16829981
0002a0 08 3e 3b 3e 3d d3 f2 3d c8 ef 32 3e c1 c2 20 3e
       0.18285382 0.11856697 0.17474282 0.15699293
0002b0 a0 ad 11 3e fc 47 07 be 59 bb 35 be f5 93 26 3e
       0.14226389 -0.13211054 -0.17747249 0.16267379
0002c0 c4 a6 35 be 23 c1 35 be 18 90 2e 3e d1 e1 2d 3e
       -0.17739397 -0.17749457 0.17047155 0.16980673
0002d0 03 c1 35 be 25 56 b5 3d a4 e5 44 3e b2 42 27 3e
       -0.1774941 0.088543214 0.19228226 0.16334036
0002e0 ca ff 35 3e c5 e1 48 3e 13 bf 35 be 0c c1 35 be
       0.17773357 0.19617374 -0.1774867 -0.17749423
0002f0 72 da 19 be 7e 00 2c 3e 6c e4 1e be 11 14 3a be
       -0.15024737 0.16797063 -0.15516824 -0.18171717
000300 6a b7 36 be e2 cb 55 be 18 5d 1b 3e 40 c1 35 be
       -0.17843404 -0.20878556 0.15172231 -0.177495
000310 28 c1 35 be 4c 9f 25 be af bd 35 be f4 c0 35 be
       -0.17749465 -0.16174048 -0.1774814 -0.17749387

weight f4 [200, 200]
000000 6a f7 a7 bd 33 b0 8b be 48 c7 6f be 63 d4 c5 3d
       -0.08201487 -0.27282867 -0.23415864 0.0965965
000010 21 b6 35 be 40 5c 2b be 6a 82 8e be 10 45 8b be
       -0.17745258 -0.1673441 -0.27833873 -0.27201128
000020 c2 d3 04 be 6f 3a fb bd b1 8f 7e be 88 a9 eb bc
       -0.12971404 -0.12267005 -0.24859501 -0.028767362
000030 86 e8 89 be 07 05 f7 bd 61 20 16 be 9c c5 74 be
       -0.26935214 -0.12061506 -0.14660789 -0.23903507
000040 ec e5 7b be d2 c8 2d be ea b3 ad bd 0c f1 30 be
       -0.24599427 -0.16971138 -0.084815815 -0.17279452
000050 61 a9 7b be 6f aa 87 be e5 a2 92 be 91 9a 23 be
       -0.24576332 -0.26497218 -0.28639904 -0.15976931
000060 ec b9 53 be 10 92 00 be 16 2f 04 be 02 29 93 be
       -0.20676392 -0.12555718 -0.12908587 -0.28742224
000070 58 3e 69 be 82 f8 8d be df 28 03 be 83 8f 81 be
       -0.22777689 -0.2772866 -0.1280856 -0.25304803
000080 e0 06 f3 bd 6c 34 30 be f8 a2 57 be ba 6b 78 be
       -0.11866546 -0.17207497 -0.21058261 -0.24259844
000090 26 24 7d be f7 7d 96 be 31 10 6e bd 2a 4b a3 bd
       -0.24720821 -0.2939298 -0.05812091 -0.07973321
0000a0 c8 48 79 bd 5c 5b 24 be 13 80 43 be 86 15 23 be
       -0.060860425 -0.16050476 -0.19091825 -0.1592618
0000b0 73 cf 19 be 3d a5 8e be fe c9 04 be 70 14 22 be
       -0.15020542 -0.27860442 -0.12967679 -0.15828109
0000c0 a7 8a bf bd 7b a0 43 be 93 31 19 be 32 be 08 be
       -0.09352618 -0.19104187 -0.14960317 -0.13353804
0000d0 03 90 73 bd 70 9d a0 bd fb 1b 99 bd c9 b2 0e be
       -0.059463512 -0.07842529 -0.0747604 -0.13935389
0000e0 b6 bf a2 bd af c2 4f be 42 a2 1f be a7 16 65 bd
       -0.07946722 -0.2028911 -0.1558924 -0.055929806
0000f0 50 48 08 be 6b 30 11 be b5 c5 c0 bd dc 59 4f be
       -0.13308835 -0.14178626 -0.094127096 -0.20249122
000100 81 90 0a be 0b 49 86 be d2 6f 25 be 04 ff cd bd
       -0.13531686 -0.26227602 -0.16155937 -0.10058406
000110 3f 8e ab bd 35 7d 8f be b0 36 36 be 00 d3 96 be
       -0.08376741 -0.28025213 -0.17794299 -0.29457855
000120 5e 18 78 be ee fd 6a be ae 57 0a be d5 4d 47 be
       -0.24228045 -0.22948429 -0.1351001 -0.19463284
000130 98 58 88 be 80 15 6f be 7f ad 7c be 54 16 5f be
       -0.26630092 -0.23348045 -0.24675559 -0.21785861
000140 bf 1b 32 be 6d ae 92 bd b0 5d d9 ba eb 7f 19 be
       -0.17393397 -0.07162175 -0.0016583707 -0.14990203
000150 d9 d3 c7 bd 4e 74 66 be b6 2d 26 be 2f ea 1e be
       -0.097572036 -0.22505304 -0.16228375 -0.15519021
000160 d0 51 b4 bd 35 7e 92 be de 37 36 be 55 f8 5e be
       -0.08804667 -0.28611913 -0.17794749 -0.21774419
000170 3a 09 68 be 0c 15 57 be 3c e4 34 be b5 63 2c be
       -0.2265977 -0.21004122 -0.1766519 -0.1683491
000180 07 69 46 be f2 7d 29 be 7b bc 97 be 6a 3a 9d bd
       -0.19376002 -0.1655195 -0.29635987 -0.07677157
000190 91 c4 2f be 11 bc 03 be cd ef 95 be 9e 9c ee bd
       -0.17164828 -0.1286471 -0.29284516 -0.11650966
0001a0 80 ad 95 be ec b1 7a bd a0 1d 7d bd 1d 3e d5 bd
       -0.29233932 -0.061204836 -0.06179583 -0.10412238
0001b0 c5 74 2b be 28 7b f2 bd 99 2e 39 be 4f 2c f0 bd
       -0.16743763 -0.118398964 -0.18084182 -0.11727201
0001c0 6a 9d 39 be 4a c1 90 be 69 86 c9 bd 5c 40 22 be
       -0.18126455 -0.28272468 -0.0984009 -0.15844864
0001d0 51 c4 fc bd 43 f6 62 be 7f 8a 3b be 68 03 88 be
       -0.12342132 -0.22164254 -0.18314551 -0.265651
0001e0 0c a8 8d be f4 89 4b be 63 86 62 be 02 0b 86 be
       -0.27667272 -0.19876844 -0.22121577 -0.26180273
0001f0 0b e2 5d be 97 c1 fc 3d 37 cc 81 be af 75 71 be
       -0.2166826 0.12341612 -0.25351116 -0.23580049
000200 26 16 5f 3d 88 7d 99 be 56 ef 80 bd 10 7a a4 bc
       0.05446448 -0.29978585 -0.0629565 -0.020077735
000210 23 05 8e be 98 66 b7 bd 28 6c 30 be dd f7 0f be
       -0.27738294 -0.08955115 -0.17228758 -0.14059396
000220 7b 3b 21 be 6a 18 d6 bd 06 d8 f2 bd 83 f4 84 be
       -0.15745346 -0.10453875 -0.118576095 -0.25967798
000230 d8 49 57 be c2 15 b6 bd 02 27 89 bd 42 7c 21 be
       -0.21024263 -0.08890869 -0.06696893 -0.15770057
000240 49 c2 97 be 87 67 83 be e4 b2 96 be 26 84 0f be
       -0.29640415 -0.25664923 -0.29433358 -0.14015254
000250 13 1f c0 bd e3 6a c4 bd 2c 3f dd bd 76 53 81 be
       -0.09380927 -0.095906995 -0.10803065 -0.25258988
000260 6a 28 f2 bd 8e 3f 65 be a2 f0 60 bd 66 93 88 bc
       -0.118241146 -0.22387525 -0.054916985 -0.016671848
000270 d5 d1 3d be c3 32 17 be b0 37 90 be 08 db 38 be
       -0.18537076 -0.14765458 -0.28167486 -0.18052304
000280 72 a2 5c be 2b 93 7c bd 7b 20 95 be 5a f9 b7 bd
       -0.21546343 -0.061663788 -0.29126343 -0.08983107
000290 3c cc 98 be 0c 88 d0 bd b0 ea a9 bd 85 3b d5 bd
       -0.29843318 -0.10182199 -0.08296716 -0.10411743
0002a0 43 08 6b bd 6c b7 3c be fd 45 19 3e 1d 36 78 be
       -0.057380926 -0.18429345 0.14968105 -0.24239393
0002b0 ee 13 5a be a4 6d db bd 2f 83 61 be 2c f4 80 be
       -0.21296665 -0.10714272 -0.22022699 -0.25186288
0002c0 54 9f 4f be 02 ab 09 be 5b ec 47 be 0b 27 82 bd
       -0.20275623 -0.1344414 -0.19523756 -0.06355103
0002d0 10 e8 7d be d5 c1 41 be 3e 57 5a be 0d c0 59 be
       -0.24795556 -0.18921597 -0.21322343 -0.21264668
0002e0 bf b3 54 be 9a b4 87 be be c7 93 be ab 7b 0b be
       -0.20771693 -0.26504976 -0.2886333 -0.13621394
0002f0 60 20 54 be 74 50 b0 bd 78 02 4c be 55 f2 20 be
       -0.20715475 -0.08609095 -0.19922817 -0.15717442
000300 bc 48 98 be 10 4e 83 be b3 24 1a be fb b8 37 be
       -0.29742992 -0.25645494 -0.15053062 -0.17941658
000310 4a de 81 be c8 68 db bd 86 e6 71 be 7b 30 b2 bd
       -0.25364906 -0.10713345 -0.23623094 -0.08700653
000320 15 54 8e 3e bc 94 3d be 94 32 67 be 44 af 48 be
       0.27798524 -0.18513769 -0.22577888 -0.19598109
000330 2a 9b 84 be fd be 35 be 2a 79 4c 3e 44 69 37 3d
       -0.2589963 -0.17748637 0.19968095 0.044778123
000340 cb 94 86 be 05 64 44 3e 1f ba f0 bd 4d 93 45 bc
       -0.26285395 0.1917878 -0.1175425 -0.012059045
000350 d3 46 27 3d 8c 3d 3c be 11 d2 04 3e 9d c7 17 3e
       0.040839028 -0.18382853 0.12970759 0.1482224
000360 cc 10 04 3e ce a6 67 3e 30 fc bf 3d 00 b5 96 bd
       0.12897032 0.22622225 0.09374273 -0.07358742
000370 5c 23 bf be dc 5f 88 3e 70 31 79 be 20 f2 5b 3b
       -0.37331665 0.26635635 -0.24335265 0.0033561066
000380 a1 d7 6d be c4 c4 ef bd d3 68 0a 3e 67 33 86 3e
       -0.23226787 -0.11707452 0.1351655 0.26211092
000390 02 dd 46 3e 5f 73 10 3e 41 7f 95 be 6c 44 75 3e
       0.19420245 0.1410651 -0.2919865 0.23951882
0003a0 79 23 66 be 24 ab 1e 3e 38 b9 65 be a0 0e 7f 3e
       -0.22474469 0.15494972 -0.22433937 0.24907923
0003b0 2c 0e 5d 3e 9c 9f 4b be 30 e9 78 be 6f 1e 8a be
       0.21587437 -0.19885105 -0.24307704 -0.26976344
0003c0 8d 83 90 be 2f fa 96 3e 84 ef 25 3e ad 9f 3a 3e
       -0.28225365 0.2948775 0.16204649 0.18224974
0003d0 cc e4 23 3e b5 31 9e bd c6 81 8b 3e 2c 63 58 3e
       0.16005248 -0.077243246 0.27247447 0.21131581
0003e0 c0 30 72 bd df 86 92 3e c2 bb 30 3e 27 b3 47 3e
       -0.059128523 0.28618523 0.17259124 0.19501935
0003f0 54 1e 94 be e2 23 3b 3e 48 71 8e be 42 67 2d be
       -0.2892939 0.18275407 -0.27820802 -0.16933921

bias f4 [200]
000000 e1 57 2b 3e dc 60 34 3e d0 42 34 be 90 80 30 3e
       0.16732742 0.17615074 -0.17603612 0.17236543
000010 ae 75 31 3e 9e 32 2f 3e e9 9b 31 be 04 8b e3 3d
       0.17330047 0.17109153 -0.17344631 0.111104995
000020 f5 bb 26 3e 20 45 2d 3e d8 bc 35 be 3f c1 35 be
       0.16282637 0.169209 -0.1774782 -0.17749499
000030 96 8c 93 bd a3 f7 32 3e 71 4f 34 be 1e c1 35 be
       -0.07204549 0.17477278 -0.1760843 -0.1774945
000040 4e 27 32 3e 40 c1 35 be ba 10 31 3e 04 79 31 3e
       0.17397806 -0.177495 0.17291537 0.1733132
000050 42 c1 35 be 53 9f 0c 3e 92 10 d7 3d 46 6d 36 3e
       -0.17749503 0.13732652 0.105012074 0.17815122
000060 ee 65 29 3e d6 17 2c 3e 9a 5b 2f 3e cc fe 57 3d
       0.1654279 0.16805968 0.17124787 0.052733228
000070 b3 98 30 3e 72 b1 35 be 12 0a 2e 3e 81 19 2f 3e
       0.1724575 -0.17743471 0.16996029 0.17099573
000080 4e 25 72 3d 11 68 37 3e 95 3a 2d 3e 19 36 29 3e
       0.059117608 0.17910792 0.16916879 0.16524543
000090 44 c1 35 be 26 0a 32 3e 4f 0e 31 3e b6 ea 2f 3e
       -0.17749506 0.17386684 0.17290615 0.17179379
0000a0 ae a3 2e 3e 43 c1 35 be 8a 82 30 3e 09 eb 29 3e
       0.17054626 -0.17749505 0.17237297 0.16593565
0000b0 de f6 30 3e 44 c1 35 be e9 b4 32 3e b7 fc 2b 3e
       0.17281672 -0.17749506 0.17451824 0.16795622
0000c0 db 36 37 be 11 9e 31 3e 2a c1 35 be 35 97 33 3e
       -0.1789202 0.17345454 -0.17749467 0.1753815
0000d0 4e f2 29 3e 42 ee 2f 3e cf 6c 37 3e 46 d2 32 3e
       0.16596338 0.17180732 0.17912601 0.17463025
0000e0 0e 00 30 3e 35 ac 23 3e f7 2c 1f 3e df c2 2e 3e
       0.17187521 0.1598366 0.15544496 0.17066525
0000f0 6b b2 35 be 6d c1 2f 3e 2f c1 35 be 40 c1 35 be
       -0.17743842 0.1716363 -0.17749475 -0.177495
000100 4f ce 34 be 3c c1 35 be 3c c1 35 be ba 25 35 be
       -0.17656825 -0.17749494 -0.17749494 -0.17690173
000110 38 c1 35 be 3f c1 35 be ca f8 30 3e 3a 8a 1d 3e
       -0.17749488 -0.17749499 0.17282405 0.1538476
000120 05 e5 2d 3e 4a fd 27 3e 3b c1 35 be 3f c1 35 be
       0.16981895 0.16405216 -0.17749493 -0.17749499
000130 12 c1 35 be cb 71 29 3e 20 cf 2e 3e 23 71 31 3e
       -0.17749432 0.16547315 0.170712 0.17328314
000140 b8 c3 1b 3e 1b c1 35 be 43 c1 35 be 41 c1 35 be
       0.1521138 -0.17749445 -0.17749505 -0.17749502
000150 a7 ab 24 3e 43 c1 35 be 20 4a 2e 3e 22 ab 2f 3e
       0.16081105 -0.17749505 0.17020464 0.17155126
000160 ec 01 2b 3e 19 ab 34 be d7 86 31 3e 33 7f 2a 3e
       0.16699952 -0.17643394 0.17336594 0.16650085
000170 db 77 2c 3e 3d c1 35 be 8b 51 35 3e b8 5e e6 3d
       0.16842596 -0.17749496 0.17706887 0.11248535
000180 b4 5f 33 3e ba 71 31 3e c4 6e 1e 3e 5a a1 32 be
       0.17516977 0.1732854 0.15471941 -0.17444363
000190 26 c1 35 be 62 83 32 3e 20 1e 31 3e 22 ba 28 3e
       -0.17749462 0.17432931 0.17296648 0.16477254
0001a0 de e3 2f 3e 39 c1 35 be 69 91 30 3e e8 f9 36 3e
       0.17176768 -0.1774949 0.1724297 0.17868769
0001b0 97 c3 14 3e c4 34 07 3e 74 69 32 3e d8 a0 28 3e
       0.14527737 0.13203722 0.1742304 0.16467607
0001c0 90 5a 34 be 1b 17 c3 3d 38 c1 35 be 11 03 29 3e
       -0.17612672 0.095258914 -0.17749488 0.16505076
0001d0 ca d2 2f 3e d9 9e 31 be 89 ef 33 3e 41 c1 35 be
       0.17170253 -0.17345752 0.17571844 -0.17749502
0001e0 7e ea 18 3e 43 c1 35 be 24 9e 35 be 3a f5 33 3e
       0.14933202 -0.17749505 -0.17736107 0.17574015
0001f0 28 c1 35 be 55 07 24 3e d0 9a 2f 3e 18 fe 2f 3e
       -0.17749465 0.16018422 0.171489 0.17186773
000200 f8 ed 23 3e 1a 9a 30 3e 08 c1 35 be 52 79 22 3e
       0.16008747 0.17246285 -0.17749417 0.15866593
000210 82 d0 3a 3e 7a 1a 38 3e 42 c1 35 be 81 f7 33 3e
       0.18243602 0.1797885 -0.17749503 0.17574884
000220 42 20 1c 3e 9e 96 18 3e 5b 41 2a 3e 45 2f 32 3e
       0.1524668 0.14901206 0.16626494 0.17400844
000230 bb 4b 30 3e af 18 32 3e 41 c1 35 be a5 0a 33 3e
       0.17216389 0.17392229 -0.17749502 0.1748453
000240 10 04 34 3e ab 74 35 be f9 9f 28 3e 0c 2c 34 be
       0.17579675 -0.17720287 0.16467275 -0.17594928
000250 12 55 2b 3e 3d c1 35 be b1 bc 2f 3e 44 c1 35 be
       0.1673167 -0.17749496 0.17161824 -0.17749506
000260 9c e8 41 3e a0 e2 2c 3e 75 d9 24 3e 30 d5 2a 3e
       0.1893639 0.16883326 0.16098578 0.16682887
000270 07 1b 35 3e 3c c1 35 be 16 b2 31 3e 76 62 2f 3e
       0.17686091 -0.17749494 0.1735309 0.17127404
000280 06 0e 23 3e 21 54 2e 3e 22 86 31 3e c1 bd 21 3e
       0.15923318 0.1702428 0.17336324 0.15795042
000290 c6 d7 34 be f9 13 2e 3e d0 73 2f 3e 9c 6d 32 3e
       -0.17660436 0.16999806 0.17134023 0.17424625
0002a0 5e 41 30 3e 41 c1 35 be d5 e6 30 3e 41 6a 2c 3e
       0.17212436 -0.17749502 0.17275555 0.16837408
0002b0 25 7d 12 3e 10 e0 2c 3e 3a 12 24 3e cf 17 35 be
       0.14305551 0.16882348 0.16022578 -0.17684864
0002c0 7b 62 22 3e 42 c1 35 be 52 c2 32 3e ba 10 2e 3e
       0.1585788 -0.17749503 0.1745694 0.16998568
0002d0 89 9e 36 be af d2 2e 3e 41 c1 35 be 14 84 2b 3e
       -0.17833914 0.17072557 -0.17749502 0.16749603
0002e0 38 c1 35 be f5 c0 35 be e8 36 2d 3e 39 bd 35 be
       -0.17749488 -0.17749389 0.16915476 -0.17747964
0002f0 49 8d 33 be 31 c1 35 be 28 a4 32 3e 3c c1 35 be
       -0.17534365 -0.17749478 0.17445433 -0.17749494
000300 f1 30 31 3e 95 bc 35 be 12 5e 32 3e 3b 57 2b 3e
       0.17303826 -0.1774772 0.17418697 0.16732495
000310 3b c1 35 be 41 c1 35 be 40 c1 35 be a8 55 30 3e
       -0.17749493 -0.17749502 -0.177495 0.17220175

weight f4 [200, 200]
000000 ad 7e 72 3e af ce 00 3e a8 a1 a3 bc 73 be 0b be
       0.23681135 0.12578844 -0.019974545 -0.1364687
000010 b6 4e 2d be 6c e8 f0 bd 47 89 6f 3e 70 34 96 3e
       -0.16924557 -0.11763081 0.23392211 0.29336882
000020 f8 8e d7 bd d0 55 52 3e 91 88 8d bc d1 72 6c be
       -0.10525316 0.20540547 -0.017277034 -0.23090674
000030 82 eb 76 3d 64 2e f5 3c fd 95 85 bd 37 50 98 3e
       0.06028319 0.029929347 -0.065227486 0.297487
000040 76 f7 8c be f9 d7 ea 3d f2 67 30 be cd 5a 7e 3e
       -0.27532548 0.11466975 -0.17227152 0.24839325
000050 4d db 1c 3e a5 0e 95 3d a6 cf d0 3d 93 18 8e 3d
       0.15318032 0.07278184 0.10195856 0.06938281
000060 f4 9c c5 3d dc ac 0b 3d b6 b4 19 3e fc 8a 1d 3e
       0.09649077 0.0341004 0.15010342 0.1538505
000070 ce 9a 0a 3c c5 8e 87 3e 40 ee 0d 3e 0d d7 a7 bd
       0.00845976 0.26476112 0.13860416 -0.081953146
000080 06 2f 31 bd 24 36 6a bd 52 13 27 be 4d f1 06 bd
       -0.043257736 -0.05718054 -0.16315964 -0.032944966
000090 10 80 2b 3e ca 8a df 3d 6d d9 f6 3d e3 59 89 3d
       0.1674807 0.10915144 0.120531894 0.06706598
0000a0 c6 63 16 3e 46 dd 93 3c d5 c3 83 3e c9 3e ad bd
       0.14686498 0.018049847 0.25735345 -0.08459241
0000b0 48 30 bd 3b 8b 49 6e 3d 25 1f 85 3e df b4 f4 bd
       0.005773578 0.058175605 0.26000324 -0.11948561
0000c0 84 e5 b7 3d 04 3e 2d bd 66 aa 4a 3d 99 bc 3c 3d
       0.089793235 -0.04229547 0.04947891 0.0460783
0000d0 4a 69 5a 3d ff 14 d2 3c c6 52 68 3e 4c 0b df bd
       0.053323068 0.025644777 0.22687826 -0.108908266
0000e0 68 65 8a 3e 3d 28 04 be 8f bd 93 3c 24 52 8e bb
       0.27030492 -0.12905975 0.018034725 -0.004343288
0000f0 dc bc 84 3e b6 95 63 bd 51 d3 6f bd 86 1b 36 bc
       0.25925338 -0.055562697 -0.058551136 -0.011114961
000100 dc a6 02 3e 66 6b 38 3e 03 33 b5 3d 4c 14 d0 3d
       0.12758964 0.18009719 0.0884762 0.10160121
000110 07 de 91 3d ac 72 3f 3e f6 7f 16 3d 4e 61 86 3d
       0.071224265 0.18696088 0.036743127 0.06561528
000120 0f 37 52 3e 52 eb 2b 3e 79 9a 8a 3d 43 33 4e 3e
       0.20528816 0.16788986 0.067677446 0.20136742
000130 ce 5f a8 3d 16 39 2f 3e 39 9e 22 3d 98 99 91 3d
       0.08221398 0.1711162 0.039701674 0.07109374
000140 74 12 78 3d b3 fc 85 bd 28 d9 a6 3d df bb ed bd
       0.060564473 -0.06542339 0.08146888 -0.11608099
000150 6e dd 15 bd ce 5b ca 3d 94 a3 8f bd 1e de 83 bd
       -0.036588125 0.098807916 -0.07013622 -0.0643885
000160 44 e7 05 3e 80 c2 8e 3e ea b0 73 3e 32 ca 08 3e
       0.13076502 0.27882767 0.23797956 0.13358381
000170 1f ca 5b 3e b4 2d a2 3d 47 23 1d be 94 af 5a 3e
       0.21463822 0.079188734 -0.15345488 0.2135604
000180 00 26 13 be 65 29 74 3e 47 b5 7b be a6 3d 92 3d
       -0.14369965 0.23843916 -0.2458087 0.07140665
000190 0c 24 5e 3e 2c fc 2a 3d 7b d2 3f be 23 3b 18 3d
       0.21693438 0.041744396 -0.18732636 0.037165772
0001a0 e1 fb 0b 3e 99 42 89 3e 88 4d 49 3e 4d a9 3f 3d
       0.13670303 0.26808622 0.19658482 0.046792317
0001b0 8d 22 0e 3e 78 2b 30 be 0e 20 87 3d f9 fa 85 3d
       0.13880368 -0.17204082 0.06597911 0.0654201
0001c0 18 26 5a 3e da 00 80 be fe 1e 4b 3e d9 e0 84 be
       0.21303594 -0.2500065 0.19836041 -0.25952795
0001d0 3d 2c 8f 3e 0c da 87 3e 8e 81 34 3e 76 2c da bd
       0.2796344 0.26533544 0.17627546 -0.106530115
0001e0 04 79 aa 3d fc 83 de 3d 4c c6 f1 3d a1 0b 92 be
       0.08323863 0.10865018 0.118054 -0.28524497
0001f0 a3 3d 0c 3e c2 a2 34 be 78 c9 84 3d 2a 0f ec 3d
       0.13695388 -0.17640212 0.064837396 0.1152633
000200 6f f4 6b 3e 5b 07 81 3e 17 5a 49 3e 20 3b cf 3d
       0.23042463 0.25200924 0.19663273 0.10118699
000210 4f cc 84 3e dc 67 8e bd 08 22 51 bc 31 df fe 3d
       0.25937125 -0.06953403 -0.012764461 0.12444914
000220 fc fc 3d be 5d 6c 83 bd d0 89 19 bd bb 69 d6 3d
       -0.18553537 -0.06417153 -0.037484944 0.10469385
000230 0e 76 8a 3d c4 5d 41 3e e2 2e 3a 3e a6 0d 57 be
       0.067607984 0.18883425 0.18181947 -0.210013
000240 9c f4 8c 3e 09 59 62 3e 91 66 04 bc 55 11 2f 3e
       0.27530372 0.22104277 -0.008081094 0.17096455
000250 00 bd 7d b9 9f cb 79 3e 88 0b 60 bd 87 09 1a be
       -0.00024198368 0.24394082 -0.054698497 -0.15042697
000260 58 2d fc 3d 74 cd 85 3e 3a 96 8d be eb b6 16 be
       0.12313336 0.2613331 -0.27653676 -0.14718215
000270 bc 87 65 3d db 27 57 be fb dc 6b 3e 70 6d 8e 3e
       0.05603765 -0.21011297 0.23033516 0.2781787
000280 a0 0f 56 3d 3b 82 67 be b3 9d 2a 3e 17 49 5a be
       0.052260995 -0.22608273 0.1666172 -0.21316944
000290 7b e8 79 be c9 0d 83 be 20 59 94 3d 02 5b 08 bd
       -0.2440509 -0.25596455 0.07243562 -0.033289917
0002a0 8c 3d 6b bd ad 41 9e bc d2 f5 80 bd be 1c d9 3d
       -0.057431743 -0.019318426 -0.062968865 0.10601185
0002b0 43 73 6e be a1 7e 8a 3d 44 09 63 3e cf 60 09 be
       -0.23286156 0.06762434 0.22171503 -0.13415836
0002c0 32 9b 2c 3e 63 25 24 3e 0c 1a 61 be 44 ef 30 be
       0.16856077 0.16029887 -0.21982592 -0.17278773
0002d0 86 0f 12 3e c6 34 49 be a4 fa 1a bc cc 9e 57 be
       0.14263734 -0.19649038 -0.009459171 -0.2105667
0002e0 bd 92 d3 bc 24 f4 e7 bc 0b f1 c1 3d 88 f1 ab 3d
       -0.025826806 -0.028314658 0.094698034 0.08395678
0002f0 47 f0 2e 3e b2 63 79 be 79 8e 71 3e 1e ea bc 3d
       0.17083846 -0.24354437 0.23589505 0.09224342
000300 b2 cd 4f 3e 7e fe 1d 3d cb 20 00 3e f8 f3 71 3d
       0.2029331 0.03857278 0.1251251 0.059070557
000310 c0 ae 63 3e d9 3a 32 3e f7 38 eb 3d ef ec dc 3d
       0.2223463 0.17405261 0.114854746 0.10787379
000320 82 32 84 3d a1 4b 9f be 68 65 90 3e 8c 2c 09 be
       0.06454946 -0.31112388 0.28202367 -0.133959
000330 08 7c a9 3e 9e eb d1 bd 2d 62 54 be 24 ee cd 3d
       0.3310244 -0.102500185 -0.20740576 0.10055187
000340 6a ca 0c be 49 31 30 be 38 ef a1 bd 54 bd 2c 3e
       -0.1374909 -0.17206301 -0.079069555 0.16869098
000350 18 ea 88 3e 9e 0d ce 3d 23 b0 a4 3e af 2f 8d 3e
       0.267411 0.10061191 0.32165632 0.27575442
000360 a2 97 1d 3e 5a 37 49 be 5d b2 6d 3d db bf 88 3e
       0.15389875 -0.19650021 0.05803143 0.26708874
000370 75 e0 44 3e b0 02 4a 3e ab 92 e7 bd 28 a2 22 be
       0.19226249 0.19727588 -0.113072716 -0.1588217
000380 bf 58 68 3d 3c 30 5c be ad a3 cd be 4a 31 9d 3e
       0.05672526 -0.21502775 -0.40163937 0.30701667
000390 e9 0e 63 3e 4c 0d 9f be 6a 6f 3d be 16 2f 92 3e
       0.22173657 -0.31064832 -0.18499532 0.2855155
0003a0 3c 03 99 3e 4a 57 95 3e f2 f5 6a be 5f b0 52 be
       0.2988528 0.2916816 -0.22945383 -0.20575093
0003b0 4f e1 b1 bd a6 01 52 be 20 5d 6b be 1c eb ce bd
       -0.08685552 -0.20508441 -0.22984743 -0.10103437
0003c0 e3 d1 f6 3d af 08 9e 3e bf ca 91 be 8c c0 92 3e
       0.120517515 0.30866 -0.28474995 0.28662527
0003d0 65 18 bf 3e 93 fb 89 bd b4 cf 68 3e ce 2f e3 bd
       0.373233 -0.06737437 0.22735482 -0.110931024
0003e0 e1 8c dc 3d 0c 5e 92 3e 56 18 c7 be f3 23 2f 3d
       0.10769058 0.28587377 -0.38885754 0.042758893
0003f0 7b 9a 35 3e 20 61 aa 3e 76 fe 66 be 50 ed 26 be
       0.17734711 0.33277225 -0.22558007 -0.16301465

bias f4 [25]
000000 00 00 00 00 00 00 00 00 00 00 00 00 00 00 00 00
       0.0 0.0 0.0 0.0
000010 00 00 00 00 00 00 00 00 00 00 00 00 00 00 00 00
       0.0 0.0 0.0 0.0
000020 00 00 00 00 00 00 00 00 00 00 00 00 00 00 00 00
       0.0 0.0 0.0 0.0
000030 00 00 00 00 00 00 00 00 00 00 00 00 00 00 00 00
       0.0 0.0 0.0 0.0
000040 00 00 00 00 00 00 00 00 00 00 00 00 00 00 00 00
       0.0 0.0 0.0 0.0
000050 00 00 00 00 00 00 00 00 00 00 00 00 00 00 00 00
       0.0 0.0 0.0 0.0
000060 00 00 00 00
       0.0

weight f4 [25, 200]
000000 7d 49 00 3e 6c ba aa 3d b9 2c 10 be a2 90 d0 3c
       0.12528034 0.083363384 -0.1407956 0.025459591
000010 f4 d5 55 3d 34 fb 18 3e 73 75 c5 3d 26 01 02 be
       0.052205995 0.14939576 0.09641542 -0.1269575
000020 cf c3 55 bc 38 bb 33 bc 27 0e 1c 3e ed cb 09 3e
       -0.013047173 -0.010969929 0.15239774 0.13456698
000030 48 e5 19 3e cb 5a ee 3c dd 70 51 bd 6f 8a bc 3d
       0.1502887 0.029096028 -0.051133025 0.092060916
000040 0c a0 20 be c1 2c 18 3e 32 b1 f6 3d cf 5a 1c 3e
       -0.15686053 0.14860822 0.12045516 0.15269016
000050 ce fe d7 3d 21 cc bc bd ee 6b fc 3d c6 5c 00 3e
       0.10546647 -0.09218622 0.123252735 0.1253539
000060 dc ea 0f bc e4 01 ae 3c d9 d0 20 3e 61 b4 b7 bd
       -0.008784022 0.021241136 0.15704669 -0.089699514
000070 7d 1a 14 bd 02 04 a6 3d e9 ac 07 be 68 68 0e 3e
       -0.036158074 0.08106233 -0.13249554 0.13907015
000080 00 09 ab 3d 14 3f 6d 3d b0 7c cb bc c7 2e c9 3d
       0.08351326 0.057921484 -0.02483973 0.09823375
000090 47 ca f8 bd cf d6 0b be 02 d5 75 bd 4a 44 07 be
       -0.12147956 -0.13656162 -0.060017593 -0.13209644
0000a0 5d d5 c8 bd 51 83 5e 3d 6b ca c2 bd 48 c5 b8 ba
       -0.09806321 0.05432445 -0.095112644 -0.001409688
0000b0 98 9b 0d be f2 66 d7 bd 38 e0 5d 3d f7 d4 18 be
       -0.13828886 -0.10517682 0.05416891 -0.1492499
0000c0 c6 65 f6 3d bd aa 3e bd 3c c7 1b be 7a 5c 1f bd
       0.120311305 -0.046549547 -0.1521272 -0.038906552
0000d0 80 03 92 bd 37 0c 92 3d 54 b5 bc bb 90 65 22 be
       -0.07129574 0.07131236 -0.0057589207 -0.15859056
0000e0 ba e7 a6 bd 13 6c 29 3d a5 8c 20 3d 20 0b ad bd
       -0.08149667 0.041362833 0.03919663 -0.084493876
0000f0 1f 77 00 3e 11 a0 c9 bd 8e 93 fe bd 75 8c 9b bd
       0.12545441 -0.09844983 -0.124304876 -0.075951494
000100 df 52 ee bc 25 63 66 3d fc 0a d1 3b 07 03 9d 3d
       -0.02909225 0.056246895 0.0063794833 0.07666593
000110 aa c7 07 3e c3 cc 9d bd ff c7 9d bd 96 0d b2 3d
       0.1325976 -0.07705071 -0.07704162 0.086939976
000120 6b 9f 08 3e 10 7e fb bb d5 62 e4 bd 67 e4 9f 3d
       0.13342063 -0.00767494 -0.11151663 0.07807236
000130 d5 73 01 3e 8d 2a 27 3e 93 33 02 3d a6 3a 06 bd
       0.12641843 0.16324826 0.031787466 -0.032770775
000140 2c b4 6f bd b1 4c 1b bd 5b 3c 1d 3e a8 11 ee bd
       -0.058521435 -0.037914935 0.15355055 -0.116244614
000150 a0 31 81 bd ad f7 74 bc 3d 13 c7 3d 22 86 f5 3d
       -0.06308293 -0.014951629 0.09720466 0.119884744
000160 68 20 74 bd c0 f1 af 3d 5c 4b 61 bd 11 22 bd bd
       -0.059601218 0.08591032 -0.05500351 -0.09235013
000170 82 e8 1d 3e f8 b8 e3 bd 99 d9 ae bd 57 16 fb bd
       0.15420726 -0.11119264 -0.08537597 -0.1226012
000180 54 ce e6 3d a9 e5 3f 3d c0 bd f6 bd e3 92 61 3b
       0.11269823 0.04684988 -0.12047911 0.0034419827
000190 52 db e6 bd 7e 8d 23 3e 6a ea 22 3e 6b 25 32 bd
       -0.11272301 0.15971944 0.15909734 -0.043492716
0001a0 84 f3 7e bd 4d 53 dc bd 12 1f 8e 3d 1a ab 86 3a
       -0.062243953 -0.10758076 0.0693952 0.0010274381
0001b0 46 3b 33 bc bf 3b 4f 3d 44 5e 25 bd 96 27 e5 3d
       -0.010939425 0.050594088 -0.0403731 0.11189191
0001c0 37 a4 f2 3d c6 a3 a6 3d a8 88 07 bd 49 da 17 3e
       0.11847728 0.08136706 -0.03308931 0.14829363
0001d0 3b 7c 12 be 98 f4 bb 3d 32 9f 91 3d c6 23 7c bd
       -0.14305203 0.09177512 0.07110442 -0.061557554
0001e0 70 91 8e 3d 02 09 10 3d 94 10 2a 3b 2f f1 ad 3d
       0.06961334 0.03516484 0.0025949823 0.08493268
0001f0 54 09 d9 bd 25 0f b5 3d 69 2f da 3d 3c a6 26 3d
       -0.10597482 0.08840779 0.10653574 0.040685877
000200 d0 88 00 bb fd 4c b3 bb 6d c9 09 be 1d b1 e9 3d
       -0.0019612797 -0.005471824 -0.13455744 0.11410735
000210 15 d3 80 bd 91 0c 8f bc f4 64 1f be 58 f5 a2 3d
       -0.06290261 -0.017462047 -0.15565854 0.07956952
000220 05 df b2 bd 26 66 ed 3d 98 f1 a0 bd cd 58 88 3d
       -0.08733944 0.11591749 -0.0785858 0.066575624
000230 cd 07 0d be 91 41 20 3e 16 cd 3f 3d 9c d9 1c 3d
       -0.13772507 0.15650012 0.046826445 0.038293466
000240 a9 50 1f 3e 38 c9 29 bd 2f 91 13 3e 0f 41 18 3e
       0.15558113 -0.041451663 0.14410852 0.14868568
000250 e7 29 ed 3d c8 fc c0 bc 29 31 0e 3e 87 13 e7 3d
       0.11580258 -0.023558035 0.1388594 0.112830214
000260 1d ac 0c be bb cc d7 3c a4 e5 24 be 1e a2 10 3e
       -0.13737531 0.02634274 -0.16103226 0.14124343
000270 8b 8e 68 bd 0e 18 d4 bd e9 77 4b 3d 32 5e 48 bc
       -0.056776565 -0.103561506 0.049674902 -0.012229489
000280 75 94 cf 3d 4a 0b 8e 3d 3f 76 02 be d0 13 74 3d
       0.10135738 0.06935747 -0.1274042 0.059589207
000290 f0 2b 9a 3d 18 28 21 3e 9b 62 1c bd a6 fb 90 bb
       0.07527912 0.15737951 -0.038179975 -0.00442453
0002a0 55 55 89 3d cd 69 e7 3d a8 c0 d1 3d 26 2a 91 bd
       0.06705729 0.11299477 0.102418244 -0.07088117
0002b0 a2 07 ea bd 38 5e d2 3d 41 dc ed 3d ff a3 e3 bd
       -0.11427237 0.10271877 0.11614276 -0.11115264
0002c0 44 8b cd 3d 0f e8 43 3d f5 2d 10 be cd da 3a 3d
       0.100363284 0.04782873 -0.14080031 0.04561882
0002d0 74 52 03 be 92 ae 01 3e 8d 1b ec 3d 4e c9 ca 3c
       -0.12824422 0.1266425 0.115286924 0.024754193
0002e0 85 90 b5 bd d1 c6 b0 bb 49 dd 1d 3e b6 ad c8 3d
       -0.088654555 -0.0053947945 0.15416445 0.09798758
0002f0 87 e5 23 be 8d 4c 16 3e 31 71 09 be 89 77 d9 3d
       -0.16005526 0.1467764 -0.13422085 0.10618503
000300 88 bb 06 bd 0b b3 05 be f1 34 c4 bd b9 49 14 3e
       -0.032893687 -0.1305658 -0.0958041 0.14481248
000310 51 aa a1 bd d4 2e c4 bd 88 7a 19 3e e9 11 14 3e
       -0.078938134 -0.09579244 0.14988148 0.14459957
000320 a8 12 e5 bd d8 36 07 bd 05 24 24 bd c3 bb 46 3d
       -0.11185199 -0.033011287 -0.040073413 0.048518907
000330 a2 42 83 bd a4 d7 68 3d 96 ab 80 bd 9a bc bf bd
       -0.064091936 0.056846276 -0.062827274 -0.09362145
000340 cd e0 42 3d 08 43 fb bc eb ca 92 3d a7 87 8f bb
       0.047577668 -0.030671611 0.0716761 -0.0043801847
000350 5a 25 ee bc f7 cd 1d bc b4 fb 16 bd 2f 1f c4 3d
       -0.029070545 -0.009631625 -0.036861137 0.0957626
000360 f5 11 19 3b c3 93 05 3e 62 dc cc 3d 76 7e 0e 3e
       0.002335665 0.13044648 0.10002972 0.13915429
000370 39 0c e0 3d ef 83 12 3e 1e 94 24 be d9 93 f3 3b
       0.10939831 0.14308141 -0.16072127 0.0074333963
000380 cd 61 00 3e 5e 50 1c 3e f0 c4 c2 bd 51 07 9f 3d
       0.12537308 0.15265033 -0.09510219 0.07765067
000390 89 b1 89 3d 38 eb b8 3d b8 5d 03 3e fc 33 1d 3e
       0.06723315 0.090292394 0.1282872 0.15351862
0003a0 f7 49 c8 3d 62 d2 6c 3d 47 13 e5 3c b6 ce 2b 3d
       0.09779733 0.057817824 0.027963294 0.04194518
0003b0 90 f9 ad bc 9c f3 16 be 31 67 84 bd 4c 87 13 bc
       -0.021237165 -0.14741367 -0.06464995 -0.009004425
0003c0 bc 14 27 be d1 cb d9 3c 86 e7 90 3c 38 28 1a be
       -0.16316503 0.026586445 0.017688524 -0.15054405
0003d0 f5 65 61 bd 6b a7 57 bc 0b 6a d4 bd 34 a2 15 3e
       -0.055028874 -0.013162474 -0.103717886 0.14612657
0003e0 84 00 5b bd a9 f1 b5 bc 37 59 25 be 62 62 24 3e
       -0.05346729 -0.02220996 -0.16147314 0.16053155
0003f0 07 64 af 3d c7 9b 9f 3b 91 62 b3 bd 2a 99 2c bd
       0.085640006 0.004870865 -0.087590344 -0.042138256
