deep_learning/models/GCNLinkPrediction115.pth (torch, 225098 bytes, 6 tensors)

bias f4 [200]
00000000: dec9 283c 09d9 7b3c ce4b bebb 429b 0c3d
00000010: 3270 3d3d 0970 e33c 943e 83bc aa99 05bd
00000020: 2aa1 9ebc 8b15 b2bc d68b 123c 1354 c93c
00000030: 23c1 b9bc b29b b33c 53db 4f3d 40fa c6bc
00000040: c6df 9e3c b46c 20bc e47f edbb 426e 1abd
00000050: c37b 0abb 1e21 29bd 41ec 2a3a 9cde b93c
00000060: d83d ee3a 173f f5bc ec72 26bd 381e ecbc
00000070: 42d9 46bc 7add 66bc 6631 16bd f761 3bbb
00000080: 22b5 4ebc 8bff b93c d851 293d 607d 19b7
00000090: 4974 853b 4bac 6e3d 0a61 56bc 40aa a938
000000a0: 9403 793d 932c 16bc b1b3 b53c 0f5c 883b
000000b0: 2c01 71bc c757 c2bc 141d 90ba 6ccf ccbb
000000c0: 871d 373d 345a bdbc 33ff 313c 8fc1 10bd
000000d0: 1b58 44bc 9e17 20bd 4a72 9bbc 87dc 23bc
000000e0: 582b 8e3b e3e5 b8bb 9ad4 08bd 64d1 363c
000000f0: b07d 3d3c 0096 a7b8 e027 4cbc 043a e83c
00000100: e28b 233b 6643 fb3c 4ad2 c03c 1990 e93c
00000110: e6de 4fbc aacf 37bd bb6c e93c 4cb6 ba3c
00000120: 794a 8cbc ceb3 053c ae01 3b3b f84b 0dbc
00000130: a0ce 07bb 5e4c 16bd b36a 69bc d8db 243d
00000140: 6da8 143d b158 4abd 2489 5fbc b361 02bd
00000150: d0b7 dabc 35b4 383c 3aa4 6d3b 0ea7 103c
00000160: c971 21bd cb43 e63c 70ac 123d 7a9a 90bc
00000170: 9ab1 81bc 2197 683b df2a 503d cdce fabc
00000180: 4d61 dabc ccb6 c73a d1e5 04bc 1e48 203d
00000190: 40e1 923a 50c0 19bc 8e54 27bc 99f5 6f3d
000001a0: e71a 05bb 9a2c 9e3c ca59 22bd 3dcd 8b3c
000001b0: baa6 1f3c d7b8 fc3c 82d5 1a3c cac2 0a3d
000001c0: 18eb 863c 9ee8 e63b f07e 1ebd a186 cf3b
000001d0: 3814 b03a 0b25 fb3c 7963 863b 78d0 933c
000001e0: 3969 83bc 9f3b 873c 28a0 333c 90e9 23b9
000001f0: a830 7bbc 5c45 503b 12ea bbbc 544d b1bc
00000200: bbe2 143d 7015 29bb 6058 0e39 9cfe 01bc
00000210: 24a4 1c3d 907c 44bd 5063 e1bc f191 713d
00000220: b4f1 d13c 742b 8d3c f269 a7bc d2c6 0cbc
00000230: 780e 0e3d f8b6 84bc f897 b5bb 62e0 3cbd
00000240: 9b24 233d 9cc2 98ba cd1e 9dbc a2d1 46bb
00000250: f832 083d 64df 18bd 3f84 733c fe50 0e3c
00000260: a262 f1bc 0fbd 8e3c ddf4 0ebd 31b6 583c
00000270: ad9e 32bb 8844 25bc 2724 0cbb 48cf c83c
00000280: c045 6539 f21e 883c cd10 193d 784e 30bd
00000290: a2a8 f03c 33d2 90bc e06a f7bc d7b7 953c
000002a0: 3809 8d3c 132c ed3c 292f 11bd 6905 fd3c
000002b0: ab93 0c3d af46 17bd 6826 97ba b135 2c3d
000002c0: 7047 a13b aafa 0eba 9ebd 4d3b 3c26 16bc
000002d0: 660b e2bb 03b1 28bc 8ec2 283d a478 2eba
000002e0: 40eb 63bb f69b 6e3d e124 e5bc 0276 45bc
000002f0: 43d6 28bc 6534 f5bb 7805 97bc bbb8 473b
00000300: 813b fa3c 4243 353d 45b9 f43c 54b5 88bb
00000310: 3e74 82bb 776f 473c ce28 703c d179 373d
0.010302035 0.015371569 -0.0058073765 0.034327753 0.046249576 0.027763383 -0.01602105 -0.03261725
-0.019363958 -0.021738788 0.008944472 0.024576223 -0.022675103 0.021924827 0.050746273 -0.02428925
0.019393813 -0.009791542 -0.0072479118 -0.037702806 -0.0021130897 -0.04129135 0.000652019 0.022689156
0.001817639 -0.02993731 -0.04063694 -0.028823003 -0.012136759 -0.01409089 -0.036668204 -0.0028592327
-0.012616428 0.02270486 0.041337818 -9.148702e-06 0.0040727 0.05826978 -0.013084659 8.0902595e-05
0.060794428 -0.009165901 0.02218041 0.004161365 -0.014709752 -0.023723496 -0.0010994994 -0.0062503126
0.044705894 -0.023114301 0.010864067 -0.03534084 -0.011983897 -0.039085023 -0.018975396 -0.010001308
0.004338663 -0.005642639 -0.033405878 0.011158321 0.011565611 -7.99112e-05 -0.012460679 0.028347977
0.0024955203 0.030671787 0.023537774 0.028511094 -0.0126874205 -0.04487578 0.02849423 0.022792004
-0.017125355 0.008160545 0.0028534937 -0.008624069 -0.0020722523 -0.036693923 -0.0142466305 0.04024872
0.036293436 -0.04940099 -0.013643537 -0.031831454 -0.026698977 0.011273433 0.0036261217 0.008828891
-0.039415155 0.028108498 0.03580898 -0.017651785 -0.015831757 0.003549047 0.050822135 -0.030616188
-0.026657725 0.0015236973 -0.008111433 0.039131276 0.0011206046 -0.00938423 -0.0102130305 0.05858383
-0.0020310224 0.019308377 -0.03963641 0.017065639 0.009744341 0.030849857 0.009450318 0.03387717
0.016469523 0.007046773 -0.038695276 0.0063331877 0.001343376 0.030657312 0.0041012135 0.018043742
-0.016041385 0.016507922 0.010963477 -0.000156319 -0.015331425 0.0031779623 -0.022938762 -0.021643318
0.03634904 -0.0025800131 0.00013575098 -0.007934239 0.038242474 -0.047970355 -0.027513176 0.05897707
0.025627948 0.017232634 -0.02043626 -0.008592324 0.034681767 -0.016200528 -0.0055417977 -0.046112426
0.03982983 -0.0011654678 -0.019179726 -0.0030337353 0.033251733 -0.037322417 0.014863073 0.008686302
-0.029465977 0.017424135 -0.03490149 0.013227032 -0.0027255223 -0.01008714 -0.0021383853 0.024512902
0.00021865126 0.016616318 0.037369538 -0.043043584 0.029377285 -0.017678356 -0.03020233 0.018276138
0.01721631 0.02895168 -0.035445366 0.030886369 0.034320515 -0.036932644 -0.0011531832 0.04204339
0.004921846 -0.0005454222 0.0031393538 -0.009164389 -0.0068983315 -0.010296109 0.041201167 -0.000665555
-0.003477767 0.058254205 -0.027971687 -0.012052061 -0.01030499 -0.0074830526 -0.018435225 0.0030475098
0.030545952 0.044253595 0.0298735 -0.0041720066 -0.0039811423 0.012172571 0.014658166 0.044793908

weight f4 [200, 18]
00000000: ff5a 8cbb fb93 e3bb bcc9 e23c 41b7 87bc
00000010: f0a9 a4bb f4c6 3dbd 35c4 803b 54b0 f4bc
00000020: 52db 94bc 5f0b ef3d 8e07 eabc 6ae0 8bbb
00000030: bcce 033c 8c98 59bc e46e 98bd 1ec2 46bb
00000040: f1a5 4d3c 6a1e 753c d69a ecba 8a71 26bd
00000050: cdcf 213c 7231 be3c bf6c 08bc a49a 7ebd
00000060: 3324 15bd cf25 89bd 8ec8 5bbd 77fa 383b
00000070: 528b 8c3b 7453 adbb 1443 843c 1030 ffbc
00000080: b6bb 993b 7a97 1f3b 9a46 9c3b b924 84bc
00000090: e293 aeba 164c 3c3d 1522 96bd 6768 c83b
000000a0: 4b70 76bd 96a7 80bc 56f6 2f3d c2c4 f7bc
000000b0: 8de3 863b 98ae 73bd 9006 8939 c02f 2e3c
000000c0: 3fa7 f93c 9871 fd3b 5278 bd3d 0eed cabb
000000d0: 8402 55bd d54e 843c b0e8 de3b a95c 733b
000000e0: 0336 bb3d 46f0 7c3c ee1f 3f3c 5f0d 2f3c
000000f0: c0f2 413c e81e ccbd 20fd a2bc 5d5f 003e
00000100: 3cfd b9ba eb0e 4abb 82fe 7dbc 36c3 d33b
00000110: 42a6 c33d 04ef d43b 2bff 803c 0c66 23bd
00000120: 2197 173c 4ed6 c6bb bc49 993b 2634 623c
00000130: 2012 86bd dea8 b93c 1032 593c 7a04 38be
00000140: 4924 523c ed17 c03c dfee 933d b0fa 823b
00000150: f0e0 88bd c31d 81bc aa9a 043b abe0 4bbd
00000160: fd37 093c 70fc 063d a636 1a3c 70dc 813c
00000170: 6f2e 26bc 1cea eebb 623f f1bb 1587 a93d
00000180: 16ed a23d 4992 2f3e 21bf 223d 72b0 e73d
00000190: bd2e 8b3c b6c0 9c3b 17e2 ae3b 4081 3f39
000001a0: f26a 043d 1007 6d3b 8c18 6fbb e16e 853c
000001b0: ae48 c33d 665f 6e3b e409 833c fb33 803c
000001c0: 64e2 833c 792f 883d 8296 ce3b ca3f 0cbd
000001d0: a65f 4b3d c9ba a2bd 80d5 c9b9 3a39 4ebc
000001e0: 34ec f13b 2a11 a8bb 269c 9b3d c0c0 d638
000001f0: 4093 7b3d 25e5 1d3c d809 023c d415 c33d
00000200: 06c1 1b3c 5896 1a3d c47a acbd e651 dabb
00000210: 527c 35bd 1c18 c53d 2634 a53d c498 e43d
00000220: aceb 043d 50f4 c43d 6ab7 a83c 1e4f 273c
00000230: c3fd c4bb c599 2a3c 984d bdbd 63a4 8ebd
00000240: db56 8e3d 3cea 10bd 33d1 a8bd 1343 413c
00000250: cb0f 7ebd cfaf 6cbc 37e9 7f3c 5a6d 703d
00000260: ab10 833c 2f8f c5bd c067 69bd db17 11bc
00000270: 701b 453c d6f3 7e3c 1633 0dbd 7e6f 473c
00000280: 5d25 61bd 8c88 a63b e8c0 d0ba 442d 20bc
00000290: b068 5a3d 2177 5e3c 5b0d 73bd e044 85b9
000002a0: 1862 363d 7622 9dbd ce93 ae3c c3e1 30bd
000002b0: e624 603b 33ee 41bc 6d7e 32bd 90ef c2bd
000002c0: 1efc e63c fc34 a0bb 84c2 80bc b752 bb3d
000002d0: acb0 3bbc 5fab c0bd ef5b 74bc a239 f7bb
000002e0: 5251 c1bb 4cb9 2bbc 5137 733c b1c5 943d
000002f0: 6770 3fbd 26e9 0c3d da35 02bc 5b62 39bd
00000300: 99d7 493c a391 213c 2d86 ad3d 4256 2cbb
00000310: 3fc6 0abd 5724 223d 0064 293a 2d05 84bc
00000320: 6847 2e3c 43e3 97bc d2c1 b23d c40c bebd
00000330: e8ad 563d d3f6 b4bd 301b f23b 9544 75bc
00000340: 8d27 76bb 36f1 48bd e850 703d 5e82 3fbd
00000350: 8534 08bb bc63 013c 66f9 8fbd 6af5 53bc
00000360: 922f 90bd 04a1 b9bd d87a bb3c b3a4 9abd
00000370: 4e5b 6dbc 99b7 ddbc 70d6 613c f843 fdbc
00000380: c9af 9bbd 7e05 b03d 670b 643c 4225 853c
00000390: e589 5d3d cecb c73c 96c2 923b f0d3 4eba
000003a0: 75d8 f83c b5fe 923d c0d3 71b9 04c0 703c
000003b0: 826c 2b3d 3a7e c43d c828 55bb 5727 aabd
000003c0: 2252 833c 7c74 2fbe 4add da3c 4bcf bd3d
000003d0: 6821 f7ba 26fd af3d 735a 9bbd 3ff2 b2bd
000003e0: 57ab 46bc 49ff 44bb dd2b bf3b b76a 7c3c
000003f0: 128b 2bbc d589 b6bd f47f 8e3d 6808 ffbc
-0.0042833085 -0.006945131 0.027684085 -0.016566874 -0.005025141 -0.046332315 0.0039296397 -0.029869236
-0.018170986 0.11672091 -0.028568055 -0.0042686956 0.008044895 -0.013280999 -0.07443026 -0.0030328105
0.012551771 0.014960865 -0.0018051516 -0.040635623 0.009876204 0.023216937 -0.008326708 -0.062159196
-0.036411475 -0.066966645 -0.05365806 0.002822546 0.004289069 -0.0052894894 0.016145267 -0.031150848
0.0046915663 0.0024351762 0.0047691585 -0.016130792 -0.0013319219 0.045971 -0.073307194 0.0061159614
-0.060165685 -0.015704911 0.042959534 -0.030245189 0.0041164816 -0.059492677 0.00026135566 0.010631502
0.030475257 0.0077344887 0.09251465 -0.00619281 -0.052004352 0.016150871 0.006802641 0.0037134087
0.09141161 0.015438145 0.0116653275 0.01068434 0.011837661 -0.099668324 -0.01989609 0.12536378
-0.001418985 -0.0030831646 -0.015502574 0.00646248 0.095531955 0.0064982194 0.015746674 -0.03989224
0.0092523405 -0.0060680276 0.0046779793 0.0138063785 -0.06546426 0.02266353 0.013256565 -0.17970458
0.012826034 0.023448909 0.072232954 0.0039971694 -0.066835284 -0.015761262 0.0020233789 -0.049774807
0.008375165 0.032955587 0.009412443 0.015852183 -0.010142907 -0.0072910916 -0.007362292 0.08277718
0.07955377 0.17145647 0.039733056 0.11312951 0.01699006 0.004783715 0.0053370106 0.00018263329
0.032328553 0.003616754 -0.0036483137 0.016288223 0.09535347 0.003637278 0.015995927 0.015649786
0.016099162 0.0664968 0.006304563 -0.03424052 0.049651764 -0.07945783 -0.00038496777 -0.012586886
0.007382894 -0.0051289992 0.07598142 0.00010240218 0.061419725 0.009637152 0.007936917 0.09525648
0.00950647 0.037741035 -0.08421853 -0.006662595 -0.044308014 0.09623739 0.08066587 0.1116195
0.032451317 0.096169114 0.020595271 0.010211734 -0.006011696 0.010412638 -0.092433155 -0.06964948
0.0695016 -0.035379633 -0.082430266 0.011795777 -0.06202678 -0.014446213 0.015619568 0.058698036
0.015999159 -0.09646451 -0.05698371 -0.008855785 0.012030467 0.015561065 -0.034472547 0.012172578
-0.054967273 0.0050821956 -0.0015926631 -0.009776417 0.053322494 0.013578207 -0.05933891 -0.00025419053
0.044527143 -0.076725885 0.021310713 -0.043184053 0.003420168 -0.011836576 -0.0435776 -0.09518349
0.02819639 -0.0048891287 -0.015717752 0.09146636 -0.011455696 -0.094076864 -0.014914497 -0.007544712
-0.0058995867 -0.01048119 0.014844731 0.07264269 -0.046738055 0.034402035 -0.0079474095 -0.045259815
0.012319469 0.009861383 0.084728576 -0.002629653 -0.03388047 0.039585438 0.00064617395 -0.01611575
0.010637142 -0.018540984 0.087283745 -0.092797786 0.052411944 -0.088361405 0.007388495 -0.0149699645
-0.0037560195 -0.04905816 0.05867091 -0.046755187 -0.0020783257 0.007897314 -0.07029991 -0.012936929
-0.07040323 -0.090639144 0.022885725 -0.07550945 -0.014487101 -0.027065085 0.013784036 -0.0309162
-0.07601888 0.085947976 0.013918734 0.016253117 0.054086585 0.024389174 0.004478763 -0.00078898575
0.030376652 0.07177488 -0.00023062434 0.014694218 0.041851528 0.09594388 -0.0032525528 -0.08308285
0.016030375 -0.17134279 0.026716847 0.092680536 -0.001885456 0.08593206 -0.07585611 -0.08737611
-0.012125812 -0.0030059388 0.0058340863 0.015406302 -0.010470169 -0.08913008 0.06957999 -0.031131938

bias f4 [200]
00000000: b360 00bd 736c b83b a5c5 35bb 6a35 cd3c
00000010: a69f 293c 9724 e13b a04b 2bbd dfc5 07bd
00000020: 0ddf fcbc e2f0 cc3b 80a2 053c bcce 1e3a
00000030: 0eb7 143c 5bff 943c 74f1 07bc 3769 cc3c
00000040: 8af6 143c 3ca9 d83b e401 f03a 051b c53c
00000050: d5da 10bd 3450 40bd 2b1c 1a3c a382 753c
00000060: c4fa abbb 3096 763b 0d3b 23bd 5c9b 16bc
00000070: 2bd5 d23c 1718 4dbc 5da3 a93b 5ab6 54bc
00000080: 1bc6 debc 880a 663c 334f 90bc 4034 dbbb
00000090: 1a09 c73b fc1f 9cbb efd6 d73c 1af5 45bc
000000a0: 103b bebc 8e0c 84bb 56b7 913a 482b 433c
000000b0: 2def e03c 0855 f8bb 0efe eebc 3078 573b
000000c0: f5d1 23bd 6810 9c3c 66fc b5bc e012 bbbc
000000d0: 55c2 39bb 79b5 053b b049 19bb ae41 1e3c
000000e0: 0ab6 8cbc 4088 5338 c99e 90bc 7048 39bc
000000f0: 183c 30bd bb11 f9bc 07cf d6bb ffaf a23b
00000100: a3bd 1cbc 6543 b73b c62f ce3a 27cc bdbc
00000110: 7106 c7bb 1b5c f3bb f14c 7c3b 5a24 fb3b
00000120: ed42 aabb b3cf 513c f7ae 73bc 6e36 00bb
00000130: 5a21 be3b 10e2 abbb 2ee6 eb3b 4c3d a7bb
00000140: 4199 01bd 0cef bbbb f16f 9c3c c17c 863c
00000150: fbe0 5f3c ef0c 0dbc 7060 93ba 0571 8fbc
00000160: b24f 653b 76a8 d6bb e0e6 853c 3b41 a63b
00000170: 3c32 e8bb 16ec 86bc 07b1 35bc 8b94 9abb
00000180: e2a0 a9bb 59ff d03b 5ec6 fdbb c7c6 29bb
00000190: b1fa 0abc ecf9 79bb 66bf 3ebd abc2 62bc
000001a0: 5c5a 6f3c 204f efbb 8497 e3bb 68ca 12bc
000001b0: 60c1 a3b9 082c 60bc da24 e9bb 8ad9 e33a
000001c0: ff53 fdbc 0a80 1cbd e869 abbc 4a1f 6b3c
000001d0: 3d3d b9bc 02a9 eaba 4768 acbc 343a 043a
000001e0: 9047 95ba dc09 28bc f927 febc ec6d 8ebc
000001f0: 1fec adbc 5a45 21bb 5876 0238 2360 aebc
00000200: d30b 06bc f622 26bc 1071 5ebb d5f3 41bd
00000210: 4876 1e3c 00ba 80b7 b617 363b ca31 d3bc
00000220: 6b21 c3bc 8f56 96bb e446 dcbb dcf1 cdbc
00000230: d2d2 d0bc 0e56 cebc 1fd1 073c 35a6 28bb
00000240: 8b51 2fbb b6e1 3a3c 40ca 72bc ab41 863c
00000250: 5eb6 fcbc 942c 7fbc 6cbf 96ba 3e28 133c
00000260: 64df 84bc 2446 d6bb c642 08bd 9830 3bbc
00000270: 8ae0 40bc f135 3bbd c248 af3c 5298 c6bb
00000280: 5617 aebc bc8c e0bb 6883 a5bc 4270 933c
00000290: 594e 503c 1c15 c0bc d17b 1abc 3e75 193b
000002a0: edd8 273b f10f 1dba bcba f83b fa22 b9bb
000002b0: be33 6dbc ef53 f4bc 1c61 4fbc 4f0d 44bb
000002c0: 01d3 38bd cc76 f73b 78fb 3abc 2cda b33c
000002d0: f563 2cbd 4457 3a3b 1cbd 7fbc e88d ee39
000002e0: 5e83 e53b 8cf2 6fbc c0dc 76bc d04b 9fbc
000002f0: 6745 c7bb e100 413c 9494 27bc da9d 20bc
00000300: a314 a1bc 1eec 15bd 87ad f2bc 5cec 17bc
00000310: 2e98 b63c a2f8 7ebc 3969 3ebc 9b3a ba3c
-0.03134222 0.0056281625 -0.0027736214 0.025049884 0.010353005 0.006870817 -0.04182017 -0.03314769
-0.030868078 0.0062543014 0.008156419 0.00060580275 0.009076847 0.01818817 -0.008297313 0.024952514
0.009091983 0.006611971 0.001831111 0.024060735 -0.035364944 -0.046951488 0.00940613 0.0149847595
-0.0052483995 0.003762614 -0.039851237 -0.009192314 0.025736412 -0.0125179505 0.005176945 -0.012982929
-0.027194073 0.014040597 -0.01761589 -0.0066895783 0.006074083 -0.004764555 0.026347606 -0.012082363
-0.023221523 -0.004029817 0.001111726 0.0119121745 0.027457798 -0.007578496 -0.029173877 0.0032878034
-0.039995153 0.019050792 -0.02221508 -0.022836149 -0.002834459 0.0020402356 -0.0023389868 0.009659214
-0.017176647 5.0433213e-05 -0.01765384 -0.011308774 -0.04302606 -0.030403962 -0.0065554413 0.004964828
-0.009566697 0.005592751 0.001573079 -0.023168636 -0.006073766 -0.0074267513 0.003849801 0.0076642456
-0.0051959665 0.012805867 -0.014873258 -0.0019563693 0.0058023157 -0.0052454546 0.0071990704 -0.0051037427
-0.031640295 -0.0057352837 0.019096347 0.01641691 0.013664479 -0.008609041 -0.001124395 -0.017509947
0.003499013 -0.006550844 0.016345441 0.005073694 -0.0070860665 -0.016469996 -0.01108957 -0.0047174147
-0.0051766494 0.006378096 -0.0077445945 -0.0025905834 -0.008482621 -0.003814335 -0.04656925 -0.013840358
0.014608946 -0.0073031336 -0.0069455523 -0.00895939 -0.00031233858 -0.013682373 -0.0071149888 0.0017383557
-0.030923842 -0.038208045 -0.020924523 0.014350722 -0.022612209 -0.0017903151 -0.021045817 0.00050440733
-0.0011389125 -0.010256257 -0.03102492 -0.0173864 -0.021230755 -0.0024607987 3.110463e-05 -0.021286076
-0.00818153 -0.010140171 -0.0033941902 -0.047351677 0.009671755 -1.5345402e-05 0.002778513 -0.025780577
-0.023819646 -0.0045879553 -0.006722318 -0.025139742 -0.025491152 -0.025187518 0.008289604 -0.0025733833
-0.0026751484 0.011406353 -0.014818728 0.016388735 -0.030848678 -0.015574593 -0.001150114 0.008981762
-0.016219802 -0.006539123 -0.033266805 -0.01142516 -0.011772284 -0.04570574 0.021396998 -0.0060606385
-0.021251362 -0.0068527143 -0.020204261 0.017997865 0.012713992 -0.023447566 -0.009428934 0.002341583
0.0025611476 -0.000599145 0.00759062 -0.0056499215 -0.014477668 -0.029825179 -0.01265743 -0.002991516
-0.045123104 0.0075520035 -0.011412494 0.021954618 -0.042087514 0.0028433362 -0.015609052 0.00045500626
0.0070041856 -0.01464523 -0.015067279 -0.01944533 -0.0060812715 0.011779995 -0.010228295 -0.00980326
-0.01966316 -0.036602132 -0.02962376 -0.009272661 0.022289362 -0.015562208 -0.011621767 0.022733023

weight f4 [200, 200]
00000000: ce68 7cbc e2d6 983c 82ab 9bbb 4b74 713d
00000010: 10c4 803d b892 04bd d1ae 39bd 45e3 36bc
00000020: d2b2 dc3c db76 e13b b505 f2bb 70fc 0c3a
00000030: 44b9 353d 75c7 1fbd 3cf0 8fbc b65e 223d
00000040: 0d2b 97bc 183c 85bc 6a0f 753a da5c f3bb
00000050: 9ada 79bc 8d33 c63c bbe7 ce3c 98a5 40bc
00000060: 309d debc 1425 2c3d 71f2 afbc 5be0 013c
00000070: 0623 9ebc 5c30 413d a5d7 eabc 1442 863c
00000080: b1d6 3c3d 20ef 57bd 4656 d3bb 4be8 86bc
00000090: 071d f03b 8c4c 19bd 29e6 8c3c 2d74 f9bc
000000a0: fa12 5ebd f547 0dbc 2483 313d 51cd 813c
000000b0: f4b9 f43b 9e16 bebc 8032 d738 dcf2 513a
000000c0: 9651 72bc 0e5e 953b b671 ce3c acaf 823c
000000d0: be86 f63c dcc0 51bd 4eda c03c fd82 2dbd
000000e0: 15c5 8d3d 417f 5b3d 0e0e 48bc 644b 3e3c
000000f0: 365c 263d 49b6 0fbc 4652 9d3c df70 3c3c
00000100: 48ed 583c 64a1 0a3d 0178 6d3b c55d 5b3d
00000110: 2a23 5cbb 2cd4 c63c 1aad f13b eb6e 01bb
00000120: 1aa9 193c bef7 223d 269e c1bc 2431 12bb
00000130: 9749 7cbc 419b 5bbc 57b8 003c 80d3 f5ba
00000140: d62c b43c e84b 18bc eacb bd3b e7c8 7b3c
00000150: 42b3 ed3c 9052 4f3d 497f 02bc 3988 713d
00000160: a2ef e93c 0c57 95bb b3b3 b53b a455 30bd
00000170: 4ede 03bc e343 bcbb a069 08bd 65cf 2cbd
00000180: 10bc 483b 5e49 8a3c e4d9 f1bc 1e35 453c
00000190: cf94 333d f08b f73b 6e29 30bd 269d 29bc
000001a0: 6734 53bc 7abf 873c b0d8 5a3c d982 05bc
000001b0: 2140 77bd 26cb 983b c47a 45bd ec59 17bb
000001c0: eada a9bb 6e97 9eba c24f 2e3c b450 ae3c
000001d0: 2d4b 4e3c e034 51bd f0ed 443c d5e5 88bb
000001e0: f496 aa3b 88d5 b8bc 947d ae3c 14a2 49bc
000001f0: 3640 35bc 2da1 9e3c 4ba8 dabc 6a44 efbc
00000200: a8b8 8ebc a0f6 513a 74b7 8f3a 8178 013c
00000210: 1fe7 59bc 683c 2ebc 4ca2 95bb 4c84 c8bb
00000220: 95f5 b4bc 0414 523b bf09 01bb c270 843b
00000230: d2af 0c3d a09d e7bc 4df3 57bd 46a5 28bc
00000240: cc2d bdbc c077 47bc 3842 cbbc a7f0 2a3d
00000250: 9011 3d3c 6568 51bd 3546 cd3c 6880 a0bc
00000260: a80f f63b cc3f ea3b 055e 26bd b636 6bbd
00000270: 2ab1 123c 7969 4a3c e2d2 613d a002 4cbb
00000280: 682b 7bbc c3b4 cc3c daf5 183d 329d b0bc
00000290: b007 43bd 40fa 25b9 3e0c 2a3d c7a0 753c
000002a0: cf35 b7bc bed0 223c 0659 c43b 3ade 593d
000002b0: 5c45 363d acee 27bd 388d 0dba ecf4 f83a
000002c0: 2f9d 843b 7cdd 2abd 2e79 dbbc 3c7e 7c3c
000002d0: e639 253d f123 d53c 9f99 bdbc e349 29bc
000002e0: da19 523c 1b05 7ebc 0a4b 323c 6d3f 393d
000002f0: b98d 443c 009d 2fbc a8ea 0c3c 477a b9bc
00000300: 1a31 49bc 7eb8 a33b 2067 33bd f68e 82bd
00000310: 2851 13bc 4a3f 223c 360c 093c 0c7a 023c
00000320: e2e8 04bc a43e 5e3c 08a4 93bb 34d6 f1bc
00000330: 30ed 863c 1ebd 1bbc 1c3a 56bc c6c9 7abc
00000340: 2406 703c 9472 4ebd 6ab7 e9bb 1a6f c73c
00000350: 10da 583d 5e39 0abc 899f 8dbb b8d9 30bb
00000360: 9277 0bbd 9933 6ebc 92ba d73b 9e26 87bc
00000370: 6b09 a4bb 1c5d a93b 528f 19bb ca6c a9bb
00000380: 4b00 823b 2a83 943b 78cf 823c 10ff a7bb
00000390: dec8 94bb b25d 44bc 6120 573c 506a c3bc
000003a0: 067b c3bb 4911 a3bb 16bf 703c 5651 1cbd
000003b0: 9c04 50bc e7b8 433c 8d2d 13bc 1cdd 303d
000003c0: 4884 1fba ee67 b43b 1168 7abc 4837 c0bb
000003d0: b02d fe3a b66d e1bc d04d f7bb 3a6c 3ebd
000003e0: bf2f 263c ec98 4d3c ff81 e0bb c24e 68bc
000003f0: ec6e 583c 5d16 2f3d 946c eb3b 6046 31bb
-0.015405847 0.018657152 -0.00475067 0.058948796 0.06287396 -0.032366484 -0.045332734 -0.011162584
0.026940737 0.0068806238 -0.0073859342 0.0005378192 0.044366136 -0.039008576 -0.017570607 0.039641105
-0.018453145 -0.016264006 0.0009348305 -0.0074268403 -0.015249873 0.024194503 0.025256982 -0.011758231
-0.027174562 0.042027548 -0.02147791 0.007927026 -0.01930381 0.04716526 -0.02866728 0.01638893
0.046103183 -0.05271828 -0.0064494936 -0.016468188 0.007327679 -0.037426516 0.017199593 -0.030450905
-0.054217316 -0.008623113 0.043337956 0.015844973 0.0074684564 -0.023204144 0.00010261405 0.0008008906
-0.014789959 0.0045583313 0.025200706 0.015952908 0.030093547 -0.051209316 0.023541596 -0.04236125
0.06922356 0.053588156 -0.012210382 0.011614654 0.040615283 -0.0087714875 0.01920427 0.01150152
0.013240166 0.03384532 0.0036234858 0.053556222 -0.0033590295 0.024271093 0.0073753716 -0.001974995
0.009378696 0.039787047 -0.023634981 -0.0022307122 -0.015398405 -0.013403715 0.00785645 -0.0018755049
0.021994036 -0.009295441 0.0057921307 0.015367723 0.02901614 0.050615847 -0.007964917 0.058967803
0.028556649 -0.004557496 0.0055451035 -0.043050423 -0.008048607 -0.0057453974 -0.033303857 -0.042189974
0.0030629672 0.016880687 -0.029522844 0.01203659 0.043843087 0.0075545236 -0.04300826 -0.0103524085
-0.012890912 0.016570795 0.013357326 -0.008148872 -0.060363892 0.004662889 -0.04821278 -0.002309437
-0.0051835673 -0.0012099573 0.010639133 0.021278717 0.0125911655 -0.051075816 0.012019619 -0.0041777887
0.0052059833 -0.022562757 0.021300115 -0.012306709 -0.011062672 0.019363964 -0.026691576 -0.029207427
-0.017422035 0.0008009467 0.0010964707 0.0079022655 -0.0132997325 -0.010634519 -0.0045664664 -0.0061192866
-0.022089759 0.0032055387 -0.0019689647 0.004041762 0.034347363 -0.028273404 -0.052722264 -0.0102933105
-0.023093127 -0.012174547 -0.024811849 0.04173341 0.011539832 -0.05112495 0.025057891 -0.019592479
0.0075091906 0.0071487185 -0.040617008 -0.057425223 0.008953372 0.012354248 0.055132754 -0.0031129494
-0.015330173 0.024988538 0.037343837 -0.021559332 -0.047614753 -0.00015828852 0.04151558 0.014991946
-0.022364525 0.009937463 0.0059920577 0.053190447 0.04449974 -0.0409991 -0.00053997664 0.0018993891
0.004047058 -0.04171513 -0.026791181 0.015410956 0.04033842 0.026018115 -0.023144541 -0.010332557
0.012823546 -0.015504147 0.0108821485 0.045226503 0.01199668 -0.010718584 0.008600868 -0.022641314
-0.012279773 0.0049963584 -0.04379952 -0.06374924 -0.008991517 0.009902785 0.008364728 0.007963669
-0.008112164 0.013564739 -0.004505638 -0.029521085 0.016470522 -0.009505538 -0.013075378 -0.015306896
0.014649902 -0.05040224 -0.0071324604 0.02434497 0.052942336 -0.008436529 -0.0043219966 -0.002698524
-0.034049578 -0.014538669 0.00658352 -0.016497906 -0.0050060055 0.00516857 -0.0023431373 -0.0051704394
0.00396732 0.0045322375 0.01596807 -0.0051268414 -0.004540547 -0.011985229 0.013130278 -0.023854405
-0.0059655933 -0.004976426 0.014693996 -0.038163505 -0.012696411 0.01194594 -0.008983028 0.043179616
-0.000608508 0.0055055534 -0.0152836 -0.005865965 0.0019392278 -0.027518135 -0.007547118 -0.04648993
0.0101432195 0.012548666 -0.0068514342 -0.014178934 0.01321004 0.042745937 0.0071845744 -0.0027050003

bias f4 [25]
00000000: 0000 0000 0000 0000 0000 0000 0000 0000
00000010: 0000 0000 0000 0000 0000 0000 0000 0000
00000020: 0000 0000 0000 0000 0000 0000 0000 0000
00000030: 0000 0000 0000 0000 0000 0000 0000 0000
00000040: 0000 0000 0000 0000 0000 0000 0000 0000
00000050: 0000 0000 0000 0000 0000 0000 0000 0000
00000060: 0000 0000
0.0 0.0 0.0 0.0 0.0 0.0 0.0 0.0
0.0 0.0 0.0 0.0 0.0 0.0 0.0 0.0
0.0 0.0 0.0 0.0 0.0 0.0 0.0 0.0
0.0

weight f4 [25, 200]
00000000: 9110 93bd 4941 1d3c 7263 e4bc 9890 f93d
00000010: b5ea 683c dc06 9fbd 834e 013e 45ba 653d
00000020: b6c5 b8bd 948c 73bc 473a 15be e613 a3bd
00000030: 8b5a c8bd cf61 aebd 4bad 19be 2580 713b
00000040: 8360 1e3e 3767 9abd 1087 6c3c 3996 15bd
00000050: 2a74 233e 4f2e 0cbe e427 0e3e b4ae a9bd
00000060: 9b34 943d 2be3 21be c415 0b3d 12e3 86bc
00000070: ed9d 18be 05b8 2d3d 10ae fe3d e3bf 22be
00000080: e1d5 4fbd d9ff 893b 14b2 423d 152d e2bd
00000090: 252d d13d b43f 9ebc 2f5b 15be 1751 0f3d
000000a0: 56a8 073d 852c b5bc 136c 0abd 6857 78bd
000000b0: 72e0 e7bb e264 f13d 2ef0 02be a1b0 dd3d
000000c0: 3de1 963d 22ff fbbd 9772 f5bd d3d1 a23c
000000d0: 774c de3c 5714 dc3d 8cfd 98bb 7c4f 913d
000000e0: f42c 0f3e b21d 0a3e 52f0 823d f96c d13d
000000f0: cee3 933c 7fb5 08be fe6f 743d c430 21be
00000100: 2a62 89bd d488 dfbd d8f4 fbbd dc2c 8b3d
00000110: ef74 bfbd 4ecc 903d 2f26 04be e20a c4bd
00000120: b015 0d3d 702c 9fbd 9fc0 96bd 15b7 02be
00000130: 5439 003d 514c bc3d a1c6 e43d b1fa b0bd
00000140: 5179 4e3d 73d2 1e3d f3c6 0fbe 0f27 1fbe
00000150: 20c3 d13d b613 813d dc83 83bd 03e0 d23d
00000160: e5e2 24bd bd14 babd 05ee b1bd f84c 48bb
00000170: 495b 923d 9e4c ba3d cf96 1bbd 6dca 06be
00000180: 9a6f 27bd 6e5d bfbd 6c6e 1f3d 2d03 c83d
00000190: 7fc4 4e3b b314 ba3d c7c7 be3d abf5 b7bd
000001a0: b7ed 85bc cb96 6dbc 90c8 5d3c 54d8 ca3d
000001b0: 4755 ec3d 0b4a 53bc 2fa4 b83d 281f fb3d
000001c0: 32ac 243e f684 243e c9f2 123e 5c28 23be
000001d0: c23b 6a3c f11f 1bbe 0a2f d8bc 4751 1b3e
000001e0: 3cea 863d 69bd 563d 8cf6 e8bd 6eec aebc
000001f0: 05a6 0bbe ed52 e2bd db15 06be 38e9 edbd
00000200: f568 26bd cd51 11be acf4 d8bc a227 27be
00000210: 4f09 08be 56a1 303c 0181 fb3c 679e a4bd
00000220: 64ab e5bd 0a72 6c3d 8ae4 b1bd 9f4a 25be
00000230: 7691 b7bd d3c4 f7bd 7e3d 583d 853b eebd
00000240: fe67 d53d ea65 a2bd 0c7a ba3d d34e 12bd
00000250: 9d51 683d 08ef 223e e593 1dbd 85ab fa3d
00000260: a1c6 e43d 67f5 1d3d f13c 24be 6ffa ec3d
00000270: 1067 9fbd 907f 033e 2414 94bb 8080 06be
00000280: 0531 5dbd ed71 d7bd f7e7 9fbd edd8 23be
00000290: 0b72 88bd 6372 8b3d f11d 1b3e 8b8e c93c
000002a0: e46a 6f3d 3b80 1d3e 440b 1fbe 8e38 5f3d
000002b0: df86 10bd 5871 edbd 1f0b a63d 8e29 d6bd
000002c0: ad20 dc3d 53b8 78bd 6af1 833d 05ac e33d
000002d0: ab97 c43c aec2 08be 2778 013e 4bb7 0dbe
000002e0: fea8 a3bd 708c 12be 64f9 85bc 61da 9a3b
000002f0: 8153 e5bd fcaa 0d3c 4dc2 2b3d 99a6 c4bd
00000300: 6ce7 af3a 398a 6abd c218 c2bd aa40 6e3d
00000310: df4c b03d a37a 88bd c982 e83d 9fff 113b
00000320: 6024 ebbb 4e27 623d 3db9 993d 9b85 e03c
00000330: f6da d83d 84f0 ab3d 5aea c1bd d142 39bd
00000340: 7d36 91bd afde 023e 5a0f 59bd 9f28 cc3d
00000350: e8eb a9bd 3c86 0ebd 785d f33d f276 11be
00000360: 845a 04be 71e0 7f3d 0ae8 3b3d 2abc 063c
00000370: d1af afbc df03 8b3d 0a56 c8bd fa61 15be
00000380: a18f c5bd a1f3 8cbd 30af 23be 0ab3 8f3d
00000390: e43c e6bc 13cf f8bd 5f01 8b3c 6f46 973b
000003a0: 888f d13d 8d45 e5bd 2de5 d23d c188 793d
000003b0: 5c73 533c 5d51 eebd 3327 603d 2245 303d
000003c0: f4e5 f6bd a6d4 43bc 9217 453a 4770 123d
000003d0: 6c97 1a3e f976 eebd d8d2 823d cd3c 813d
000003e0: 6953 833d cb00 113d a04e 7b3d 527a c33d
000003f0: 6ed4 23be b28a 233e 5bb9 243e cf85 c03d
-0.07180894 0.009598085 -0.02787945 0.12185782 0.014216115 -0.0776498 0.12627606 0.056085844
-0.09022085 -0.014865059 -0.14573012 -0.0796278 -0.09782895 -0.08514749 -0.15007512 0.0036850062
0.15466504 -0.07539218 0.014436498 -0.036520217 0.15962282 -0.1368954 0.13882405 -0.08285275
0.07236596 -0.15809314 0.033956304 -0.016465697 -0.14903994 0.042411823 0.124355435 -0.15893511
-0.05074108 0.0042114076 0.04753311 -0.11043755 0.10213689 -0.019317485 -0.14585565 0.034989443
0.033119522 -0.022115955 -0.033794474 -0.060630232 -0.0070763165 0.1178682 -0.12786934 0.10824705
0.073671795 -0.12304522 -0.11984747 0.019875443 0.02713607 0.10746067 -0.004668897 0.070952386
0.13981992 0.1348789 0.06393494 0.10225863 0.018052962 -0.13350485 0.059677117 -0.15741259
-0.067081764 -0.1091477 -0.123025596 0.067956656 -0.09348475 0.07070218 -0.12905191 -0.09572388
0.03444451 -0.07772148 -0.07360958 -0.12765153 0.031304672 0.09194244 0.11170698 -0.086415656
0.050408665 0.03877492 -0.14040737 -0.15542243 0.10242295 0.06302588 -0.064216346 0.10296633
-0.040255446 -0.09085987 -0.08687977 -0.0030563455 0.071463175 0.09096645 -0.03798562 -0.13163157
-0.040877916 -0.09343992 0.038923666 0.09766231 0.0031550226 0.09085979 0.09315448 -0.08982404
-0.016348703 -0.014501284 0.013536587 0.099045426 0.11539703 -0.012896071 0.090156905 0.12261802
0.16081312 0.16066346 0.14350428 -0.15933365 0.014296474 -0.15148903 -0.026389617 0.15167724
0.065876454 0.05242673 -0.1137515 -0.021352973 -0.1363755 -0.11050973 -0.13094275 -0.116167486
-0.04062744 -0.14191361 -0.026483856 -0.16323712 -0.13284801 0.010780653 0.030701162 -0.08038025
-0.11214331 0.057725944 -0.086861685 -0.16141747 -0.08963291 -0.12098088 0.05279302 -0.11632446
0.104202256 -0.07929595 0.0910531 -0.035719704 0.056718457 0.15911496 -0.03847112 0.12239746
0.11170698 0.038564112 -0.16038872 0.11571204 -0.077833295 0.1284163 -0.0045190025 -0.13134956
-0.054001827 -0.105197765 -0.07807916 -0.1600072 -0.06662377 0.06808927 0.1514814 0.024604103
0.05845155 0.15380947 -0.15531641 0.054497294 -0.035284873 -0.11593884 0.0810759 -0.10457145
0.1074842 -0.06072266 0.064425305 0.111167945 0.023998102 -0.13355514 0.1264349 -0.13839452
-0.07991217 -0.14311385 -0.01635427 0.00472574 -0.11197568 0.008646723 0.041933347 -0.096020885
0.001342041 -0.057260726 -0.094773784 0.058167137 0.08608412 -0.06664016 0.1135307 0.0022277606
-0.007175967 0.055213265 0.075060345 0.027407458 0.105886385 0.08395484 -0.09468527 -0.045229737
-0.07090471 0.1278026 -0.052993156 0.09968685 -0.08296949 -0.034795985 0.11883062 -0.1420553
-0.12925154 0.062469903 0.045875587 0.008223573 -0.02144614 0.06787848 -0.09782036 -0.14588156
-0.09646536 -0.06882406 -0.15984797 0.07016571 -0.028105207 -0.12148871 0.016968427 0.0046165506
0.102324545 -0.111949064 0.10297618 0.060921434 0.012905922 -0.116366126 0.054724883 0.04303468
-0.12055579 -0.011952555 0.0007518466 0.035751607 0.15096825 -0.11643786 0.063878715 0.06310425
0.064123936 0.035401147 0.06135428 0.09544815 -0.15999004 0.15970877 0.16086332 0.09400522
