deep_learning/models/GCNLinkPrediction57.pth (torch, 185248 bytes, 10 tensors)

bias f4 [100]
000000 a5 16 ed bc 6a 86 36 3b 5c 45 2a bb f5 9e 0e 3d
       -0.028941462 0.0027851113 -0.0025981283 0.034819562
000010 04 13 57 bc a4 94 16 bd 8c 45 dc bb 73 50 18 bc
       -0.013127092 -0.03676285 -0.006722158 -0.009296524
000020 eb 92 89 bc 35 72 32 bd 58 01 b7 bb 0d 0a 8d 3b
       -0.016793689 -0.043565948 -0.005584877 0.0043041767
000030 b8 a9 85 bb 54 92 41 bd 62 e6 67 3d 91 ad d7 bc
       -0.00407907 -0.04725869 0.056616195 -0.02632788
000040 9b 79 13 3d 84 ff 80 bc 53 d1 ec 3c 37 1c 33 bd
       0.036004644 -0.01574684 0.028908407 -0.04372808
000050 24 22 66 3d 5e 14 8f 3b 1d df 2f bd 56 c1 32 bd
       0.056184903 0.0043664416 -0.042937387 -0.04364141
000060 c6 45 28 bd d1 cc bb bc 0a 93 3e 3d 51 ae 98 bc
       -0.041082166 -0.022924813 0.046526946 -0.018637808
000070 93 d8 3e bd 12 8b 8c 3c 27 0c 88 bc 9f cf d6 bc
       -0.04659326 0.017156158 -0.016607357 -0.026222048
000080 15 1d e0 bc b0 54 a2 bc 3d 28 17 bd 05 50 1e 3d
       -0.027357617 -0.019815773 -0.03690361 0.03865053
000090 88 3d 4b bd cb 12 26 3d 8c 5b 35 bd 7d 86 34 3c
       -0.049619228 0.040545266 -0.04427676 0.011018393
0000a0 77 b5 00 3c 62 f4 5e 3d 2e db 10 bd 2b fe bf bc
       0.007855765 0.05443228 -0.035365276 -0.023436626
0000b0 1e f4 8d bb ae d3 f3 bc 68 1b 7a bc 70 2d 9b 38
       -0.0043320796 -0.029764023 -0.015265323 7.399439e-05
0000c0 ce 46 3a 3d 16 30 aa bc fd 3b a9 3c 63 d4 4f 3c
       0.04547768 -0.020774882 0.020658487 0.012684914
0000d0 4c a6 11 bd 89 ee bb bb c0 43 a1 3c 74 3b 18 bd
       -0.035558984 -0.0057352227 0.019685626 -0.037166074
0000e0 18 79 ac 3c ab f1 23 3b b4 60 44 bc 02 78 48 3d
       0.021053836 0.0025015872 -0.011985946 0.048942573
0000f0 1d 63 42 bd 5c d6 01 3d c1 0f 63 3d f0 cf 42 3d
       -0.047457803 0.03169857 0.055434946 0.047561586
000100 d9 73 34 bd dc 10 63 3d cd a2 3b 3d 57 e7 1c 3d
       -0.044055793 0.055436 0.045809556 0.03830656
000110 a8 cd 2b bd b0 6d 93 3c 46 1e 4d 3d 71 fd 3d 3d
       -0.041944176 0.017996639 0.0500777 0.04638428
000120 8e c5 0d bd 78 3b 55 bd 16 ba 73 bc 52 74 20 bd
       -0.03461223 -0.052058667 -0.014875909 -0.03917343
000130 0a c6 0b 3d 6a 9d 95 bc 74 d4 14 3c 41 f7 97 bc
       0.03412441 -0.018263537 0.009083856 -0.018550517
000140 be 51 82 3d 3f af 80 bb 74 46 5f bc e0 a1 d1 ba
       0.06363247 -0.003927141 -0.013627637 -0.0015993677
000150 4e 4a 28 bd e8 7c 5a 3c e8 e3 bb bc 2c 19 a0 3c
       -0.041086487 0.013335444 -0.022935823 0.019543253
000160 60 83 89 3c 9a 0a 4a 3b 63 45 16 bc 1b f6 3e bd
       0.016786277 0.0030829073 -0.0091718165 -0.046621423
000170 d4 e9 08 3b 56 30 c9 3c b4 01 64 3b 09 3f 59 bc
       0.0020891326 0.024559181 0.0034791054 -0.013259658
000180 35 4c 89 3d d3 f7 2d bd 50 3e 5b 3d 7b 58 59 3d
       0.067039885 -0.04247267 0.053526223 0.053062897

weight f4 [100, 18]
000000 e2 c6 17 3d 43 84 c4 bd c9 cd 29 bd 50 e3 bd 3c
       0.037054904 -0.095955394 -0.041456018 0.02317968
000010 83 1c a9 3d 25 59 f7 bd 96 64 37 3e 2c 00 d1 3d
       0.08257391 -0.1207755 0.17909464 0.10205111
000020 fe 7f 5d be 80 9e 12 be 9c f6 e2 bd 97 78 85 be
       -0.21630856 -0.14318275 -0.11082193 -0.26068565
000030 10 8e 31 3e 8a 40 05 be 77 e2 07 bd 6b 65 a8 bd
       0.17339349 -0.13012901 -0.033174958 -0.08222469
000040 1b 7b 54 3d aa 2c 2f 3d 81 65 af 3d 0e 2a 1c be
       0.051875215 0.042767204 0.08564282 -0.15250418
000050 6b ca 3f 3d 30 11 69 bd 7b a2 2e 3e a1 cd 41 3e
       0.0468239 -0.056901157 0.17054169 0.18926097
000060 2a 42 98 3d 65 ac 39 3e a6 0d 37 3e c2 25 22 3e
       0.07434495 0.1813217 0.178763 0.15834716
000070 91 6d 88 3c 58 66 97 3d 54 9f 81 bc 61 2a 00 bd
       0.016653808 0.073925674 -0.015823044 -0.031290416
000080 d6 29 21 3e 10 ab ad bc 61 9f b9 bd 8f 38 b3 bb
       0.15738615 -0.021199733 -0.09063602 -0.005469389
000090 9a 28 d5 3c 17 99 4f be ec 93 dd bd 73 7a 05 3d
       0.026020337 -0.20273243 -0.108192295 0.03258748
0000a0 a3 b2 ee bc 88 dc 7d 3d 18 26 3d 3d eb 0c 7f be
       -0.029137915 0.061977893 0.046178907 -0.24907272
0000b0 86 b1 38 3e f6 7e ee 3d 9b 5b ae 3d 86 f5 0c 3d
       0.1803647 0.116453096 0.08513566 0.034413837
0000c0 ce 5d 3c 3e 1d 57 4a 3e 71 fc 14 be 4d 15 c2 bd
       0.18395159 0.19759794 -0.14549424 -0.09476719
0000d0 bf 6a 23 bd cb 48 8a bd 8b 49 9b bd e1 58 80 3e
       -0.039896723 -0.067521654 -0.075823866 0.2506781
0000e0 f3 fd d8 bd 88 ff 6e 3b e2 96 4c 3e b7 cf d7 3d
       -0.10595312 0.0036468226 0.19979432 0.10537665
0000f0 0b c1 4e 3d 12 5e ff 3b 2d 6f b4 3d aa 9d c1 bd
       0.05047707 0.0077931965 0.088102676 -0.094539
000100 24 f6 32 3d 27 2d e0 bd ae d4 4a bc 22 b5 65 3e
       0.04369177 -0.10946112 -0.012379808 0.22432378
000110 8e 13 2a 3e 67 d3 5d 3e e8 10 b8 bc ec d3 22 3e
       0.16609022 0.21662675 -0.022468999 0.15901154
000120 c6 26 1d 3e 04 1e bd 3d ee 9c cf bd 70 eb 7a bd
       0.15346822 0.09234241 -0.10137354 -0.061259687
000130 65 90 7e bd 11 96 4d 3e c8 c4 29 3e a4 5d 68 3e
       -0.062149424 0.20076777 0.16578972 0.22691971
000140 16 50 01 3e 0e 47 14 3e f5 dd 0b 3e ad 7d 4d 3d
       0.12628207 0.1448023 0.13658889 0.050168682
000150 7d 5e 8a 3e 39 4c e3 3d 78 1f 35 3d da 39 37 3e
       0.27025214 0.11098523 0.044219464 0.17893162
000160 e0 09 d3 bd c9 c7 1f 3e 70 ab 15 be c2 23 2a 3e
       -0.10304618 0.15603556 -0.1461618 0.16615203
000170 1b 20 ff 3d 69 c5 60 be d5 6a 3d 3d 11 4e 42 3b
       0.124572955 -0.21950306 0.04624446 0.0029648582
000180 22 7f 5b be 10 da 9e bb 83 58 dd bd 8a 11 11 bc
       -0.21435216 -0.0048477724 -0.10807898 -0.008854279
000190 4f 97 6e bd b0 97 51 be 20 b1 0e be 83 0f 26 3e
       -0.058249768 -0.2046802 -0.13934755 0.16216855
0001a0 44 96 e3 bc 6e d7 7f 3d 9e ed 1e 3e 62 fe 8a bd
       -0.027781613 0.06246131 0.15520331 -0.06786801
0001b0 ba 4d d3 bc 90 35 53 be 29 00 17 bd 5e e3 27 be
       -0.025793899 -0.20625901 -0.036865387 -0.16395327
0001c0 50 c0 36 3e c0 c6 10 be ed 8f 89 3c 1d d2 2d bd
       0.17846799 -0.14138317 0.016792262 -0.042436708
0001d0 49 76 49 bd 71 78 d9 bc 78 56 f7 3d eb df 2d be
       -0.04918507 -0.026546689 0.120770395 -0.16979949
0001e0 07 56 4d bd dc bd 08 3e af 33 81 bd e2 91 91 bd
       -0.05013087 0.13353676 -0.06308686 -0.07107903
0001f0 29 0b fb bd 9f f4 e0 bd 97 29 23 3e 79 1c fd bb
       -0.12257988 -0.10984158 0.15933834 -0.0077243415
000200 d2 9a 73 be ee b4 c3 bd 4d 32 1b 3e 3f 2b 0b 3e
       -0.23789528 -0.09555994 0.15155907 0.13590716
000210 f6 05 a2 3d 9d 31 d2 3d 5a 9c 4e 3e 4b 9c b9 3d
       0.07911293 0.10263369 0.20176831 0.09063014
000220 2f 08 51 3e 1a 61 61 be 5e a4 5c be e0 ca 66 be
       0.20413278 -0.22009698 -0.21547076 -0.22538328
000230 bb a5 e6 bd 9c 19 33 be 66 cd 3f be 69 b0 2e 3e
       -0.11262079 -0.17490238 -0.18730697 0.17059483
000240 b3 10 1a be 08 f8 2b 3e f2 b5 e8 bd b4 e0 d3 bd
       -0.15045433 0.16793835 -0.11362828 -0.10345593
000250 96 a8 e6 bc 35 dc e3 3b 2d 4a 21 3e c6 34 81 be
       -0.02815656 0.006953741 0.15750952 -0.25235575
000260 76 56 71 bc 4f e2 37 3e 17 71 76 3d f7 20 92 bc
       -0.014730087 0.17957424 0.060166445 -0.017837984
000270 07 78 26 3e a5 ac 30 be fa 9b 34 bd 5d 57 15 bc
       0.16256724 -0.17253359 -0.044094063 -0.009115067
000280 3a 9d 37 3e bd ab 35 3e 5d c4 3c bd d8 9a c1 bd
       0.17931071 0.17741294 -0.046085704 -0.09453362
000290 d2 e0 3f be f5 ce 20 be a0 4b 09 3c f7 36 fc bd
       -0.18738106 -0.15703948 0.008379847 -0.12315171
0002a0 19 43 7c be c0 cc bc 3d 3c 76 04 be 33 5f fb bd
       -0.2463497 0.092187405 -0.12935728 -0.12274017
0002b0 cf f7 1b be 73 c9 0e 3e 13 75 8c bd e0 9d 04 be
       -0.1523125 0.13944034 -0.06858268 -0.1295085
0002c0 07 92 5a be d9 f0 6d be 25 19 99 3d 19 32 c0 3c
       -0.21344768 -0.23236407 0.07475499 0.023461388
0002d0 4c 44 fc 3d 44 cf fc bd 8f d0 ff 3c 21 2f 36 3e
       0.12317714 -0.1234422 0.031227378 0.17791416
0002e0 69 3c 9f 3d 80 61 3d 3e 2d aa 69 be 97 28 3e 3e
       0.07775194 0.18494225 -0.22818823 0.18570171
0002f0 22 7a 0d be 41 e8 2b 3d 7f 56 15 3e e3 61 3a 3e
       -0.13816121 0.04196954 0.14583777 0.18201403
000300 59 f1 f9 bd dc 90 9c 3d 23 a7 1d 3e e8 4f 84 3d
       -0.122042365 0.07644817 0.15395789 0.064605534
000310 cb 85 c4 bd 91 f8 35 3e 77 2f 86 bd 4b 73 18 be
       -0.095958315 0.17770602 -0.06552022 -0.14887731
000320 44 d5 dd 3c 48 f5 12 3e 46 ce d5 3d 8a 7d f6 bd
       0.027079232 0.1435138 0.10439734 -0.120356634
000330 3c 34 4b be 70 85 21 be b7 0c f7 bd 03 57 1d 3e
       -0.19844145 -0.15773559 -0.12062972 0.15365224
000340 3a 59 82 3d 8d 3d d7 3d 5f 4e 60 3e a6 80 b9 3d
       0.06364675 0.10509787 0.21904896 0.09057741
000350 d4 db b8 bc 59 31 04 3e 86 e5 c3 bb 94 24 64 bc
       -0.02256576 0.1290945 -0.005978289 -0.0139247365
000360 59 99 48 be 78 36 dd bd 16 f0 0f 3d fd d9 53 3e
       -0.19589747 -0.10801405 0.035141073 0.20688625
000370 50 68 8d bb 94 e9 2b be 3f 49 6e be 87 0e 0c 3d
       -0.0043154135 -0.16788322 -0.23270129 0.03419354
000380 d7 cb 58 be f1 62 c1 bd d2 df e7 3d 10 78 2e 3e
       -0.21171509 -0.094427 0.11321987 0.17037988
000390 5b 86 47 be 72 ba 43 3e 33 a0 35 3d 2b 9a e9 bc
       -0.19484846 0.19114092 0.04434223 -0.028515896
0003a0 fe fb 12 be be 55 49 3e 2f ca 42 bd 9e fe 35 3e
       -0.1435394 0.19661614 -0.0475561 0.1777291
0003b0 e9 32 3e 3e d8 6d a9 3d 70 94 b1 bd e3 4d 1a 3e
       0.18574108 0.08272904 -0.0867089 0.15068774
0003c0 a2 de 24 bd 91 f5 d0 3d dd 31 03 3e ad f2 ab 3d
       -0.04025138 0.10203088 0.1281199 0.08395896
0003d0 17 f1 69 be 71 0a 41 bc 5f f6 27 3e 38 2d 6c be
       -0.22845875 -0.011782275 0.16402577 -0.23064125
0003e0 c4 b3 4e 3c 98 09 25 3e 1a 05 84 bd d3 66 ee 3d
       0.012616102 0.16116941 -0.064462855 0.11640706
0003f0 a3 45 2b 3d b0 7f e3 3d f1 ce e1 3d d6 4a 22 be
       0.041814458 0.11108339 0.11025799 -0.1584886

bias f4 [100]
000000 39 85 fc 3c 1f e2 0e 3d e0 cc 0d bd bc c1 f7 3c
       0.030825244 0.034883615 -0.034619212 0.030243747
000010 ec 7b 00 3d 6f 1b df bc 0f 14 03 bd fc 17 dc bc
       0.03136818 -0.027234761 -0.03200155 -0.026866905
000020 78 bb 52 3d 48 ac f3 bc 03 6e 4c bc 12 10 b8 bc
       0.051448315 -0.029745236 -0.012477401 -0.0224686
000030 f1 8b c7 bc 06 81 11 bd 2f 9d 0d bd 55 12 62 3d
       -0.024358721 -0.035523437 -0.03457373 0.055193264
000040 c0 5a 17 bd 72 7f 36 3d f7 bb 12 bd cb 12 b9 bc
       -0.03695178 0.044555135 -0.03582379 -0.022591969
000050 13 9c 11 bd 9a 77 8a 3c 5b ca a3 bc c4 66 4a bc
       -0.035549235 0.016902734 -0.019993952 -0.012353603
000060 22 08 10 bd 74 48 11 bd b9 a2 10 bd 4f c6 3c bd
       -0.035164006 -0.035469487 -0.035311434 -0.04608756
000070 51 e7 9a 3c 0a 90 2b 3c a0 c9 bc bc 8b c7 34 3c
       0.018909128 0.010471353 -0.023045361 0.011033903
000080 e9 d8 e6 ba 9e fd d4 3c b1 f7 3b bd 31 16 14 bd
       -0.0017612252 0.02599984 -0.045890514 -0.036153976
000090 70 36 b7 3c d2 16 1e 3d 50 48 3f 3c 06 c9 90 bc
       0.022364825 0.038595982 0.0116749555 -0.01767398
0000a0 e1 3c eb bc 04 a2 b6 3c 37 24 1c 3c bf e6 33 bc
       -0.028715553 0.022294052 0.009530119 -0.010980307
0000b0 d0 bd 14 3d 93 35 08 3d 78 83 e3 ba 31 7b d8 3b
       0.03631383 0.033254217 -0.0017357906 0.0066064824
0000c0 de e9 0d bd b0 64 e3 38 b9 27 16 3c 46 a1 b2 bc
       -0.03464686 0.00010842958 0.009164744 -0.021805417
0000d0 c9 1e 49 bc dd 8e 32 bd 3c d7 3e bd 02 d1 0e bd
       -0.012275406 -0.043593276 -0.046591982 -0.034867294
0000e0 97 ba 0f bd bf 5b 2f bc 10 50 1a 3d 0b b4 fc 3c
       -0.035090055 -0.010703026 0.03767401 0.03084757
0000f0 53 3c 1b bc ba 68 82 3b 11 ba 11 bd 6b f5 0b bd
       -0.009474832 0.0039797695 -0.035577837 -0.034169596
000100 8e cc 29 bd 63 88 4a 3d 14 4a 16 3d a3 db 6d 3c
       -0.041454844 0.049446475 0.03669174 0.0145176975
000110 75 8d 49 bd d7 20 72 bb 54 74 c3 bb 84 dd e9 3b
       -0.04920717 -0.0036945844 -0.005964795 0.0071370024
000120 fb f3 2a bc 80 4e 80 3b 81 2f 04 bd 8f 29 59 bc
       -0.010434146 0.003915608 -0.032271866 -0.013254537
000130 10 72 0c bd ec ab 15 bd 34 8a 9f bc 55 dd ec bc
       -0.034288466 -0.03654091 -0.01947508 -0.028914133
000140 14 4d bc ba ad 1c 06 3d 90 d2 0f bd d9 62 dd bc
       -0.0014366233 0.03274219 -0.035112917 -0.027024673
000150 e0 6e 8b 3c ad f6 18 3b 3d 00 d5 3c 82 98 00 bc
       0.017020643 0.002334039 0.02600109 -0.007848861
000160 6e 75 86 bc 38 40 11 bd 53 29 99 3c 5f 19 8c 3c
       -0.016413417 -0.035461634 0.018696463 0.017101942
000170 00 c3 4f bc d1 aa 26 3d e0 96 ac bc c3 8e 4b bc
       -0.012680769 0.040690247 -0.021068037 -0.012424174
000180 08 78 92 bc fb 12 0a 3b b3 5e 19 bd 68 32 b9 3c
       -0.017879501 0.0021068442 -0.037443828 0.022607043

weight f4 [100, 100]
000000 0f c1 9c 3b 8d 39 f0 bd fc 49 88 bd 65 05 9e 3d
       0.0047837566 -0.11729727 -0.066547364 0.07715873
000010 52 be 33 be 46 72 ea 3d b6 f4 21 3e c6 ae 6e bc
       -0.1755307 0.11447577 0.15816006 -0.014568036
000020 4f 13 51 3e 33 47 85 3b b8 2d 9d 3d 9c f3 4c bb
       0.20417522 0.0040673255 0.07674736 -0.0031273132
000030 5f 09 e4 bd e5 15 16 be 06 1a 08 3e 83 2e d0 3d
       -0.111346 -0.1465679 0.13291177 0.101651214
000040 32 8a 3f be d4 ed 2f bc 6b 63 c9 3d 5f e5 14 bd
       -0.18705061 -0.010737855 0.098334156 -0.036351558
000050 da 9a e9 3c 1e e4 44 bd 23 a0 e8 3d 23 fb b6 bc
       0.028516222 -0.048069112 0.11358669 -0.022336548
000060 5a ba 93 bd 02 af 96 bd 38 a2 d2 bd ec 20 5d bd
       -0.07213278 -0.07357599 -0.10284847 -0.053986475
000070 f1 05 4c bd 96 7b d7 3c 32 42 46 bb 1a b5 38 3c
       -0.049810354 0.026304048 -0.0030251858 0.011273647
000080 8d 3c 00 3e 0f fe 20 be 2d 18 a3 bd 46 65 3e bd
       0.12523098 -0.15721916 -0.079635955 -0.0464833
000090 ea bc 81 3c e3 50 0e be d5 ac 6c bd d6 8b 61 3d
       0.015837152 -0.13898043 -0.057782013 0.055065
0000a0 ec 9a 54 3a a4 3f 60 3d 56 64 b3 3d bf 92 c3 3d
       0.00081102434 0.054748192 0.08759372 0.09549474
0000b0 6b 2b 55 3e 61 e8 ed bd 4b 2d 30 be e8 f2 10 3e
       0.20817344 -0.116165884 -0.17204778 0.14155161
0000c0 d6 2e 06 be 92 be cd 3d a2 4d 11 bd d8 7c d8 3d
       -0.13103804 0.10046114 -0.035474427 0.10570687
0000d0 46 a3 bd bd 99 76 93 bd 30 89 02 3e 62 1c 15 bc
       -0.092596576 -0.07200355 0.12747645 -0.009101005
0000e0 18 d2 03 be 70 f1 ff 3d 02 37 44 3e 04 69 c5 3d
       -0.12873113 0.124972224 0.19161609 0.09639171
0000f0 ea b3 06 bd 38 d8 4f bb cd a4 de 3d 65 09 c0 3c
       -0.032886423 -0.003171457 0.10871277 0.02344198
000100 01 1e 20 3d 06 58 86 3b a3 fc e2 3d 27 83 2d be
       0.039091114 0.0040998487 0.11083343 -0.16944562
000110 bf 61 bf bd 16 b6 83 bd b2 74 f3 3d db 03 8b bb
       -0.093448155 -0.064312145 0.11887492 -0.004242403
000120 fc 60 20 3e fa 2e f2 bb b5 e1 2f 3e 9d 80 87 bd
       0.15661997 -0.007390854 0.17175944 -0.06616328
000130 71 24 32 bd ae ca 3c 3e 6b 81 1d 3d 1a 4b 27 3e
       -0.043491784 0.18436691 0.0384535 0.16337243
000140 71 23 a3 3d 1b 0c 31 3e fe f6 f1 3d 89 31 0b 3d
       0.07965744 0.17289774 0.11814688 0.033982787
000150 b3 59 6f 3c af 13 aa 3d c6 30 47 3e a3 85 0c 3d
       0.014608788 0.083045356 0.194522 0.034307133
000160 71 f9 49 3d 8e 79 ed bd 18 94 1f bd 92 50 06 bc
       0.04931015 -0.1159545 -0.038959593 -0.00819792
000170 32 70 21 3e 7d b8 23 3e 51 3a bc bd 1a 2b 9e bc
       0.15765455 0.15988345 -0.091908105 -0.019307662
000180 56 a1 de 3c 2e 9d 86 3d 4e db 8f 3d 36 8f 2a be
       0.02717654 0.065729484 0.07024251 -0.16656193
000190 81 23 7a 3d 19 92 45 be 22 51 f4 3c b9 40 ea bd
       0.061069015 -0.19294013 0.029823843 -0.11438126
0001a0 5c b8 c5 3d 2c 0c 85 bd a9 9f 7c bd 2a 97 07 be
       0.096543044 -0.06496462 -0.0616757 -0.13241258
0001b0 e0 cd 01 3e 23 73 95 bd da 06 a5 3b 28 13 41 3e
       0.12676191 -0.07297351 0.005036217 0.18854964
0001c0 17 94 17 be 05 ac fe 3d 33 9f 28 be 6e 3d d5 3d
       -0.14802586 0.12435154 -0.1646698 0.104121074
0001d0 3e c9 0e be db 7e 4e be 0c 6d 67 3d 17 3f d0 3d
       -0.13943955 -0.20165579 0.05650048 0.101682834
0001e0 46 d0 4b bd a4 04 28 be 2d f1 10 3e 42 bb fe 3d
       -0.049759172 -0.1640802 0.14154501 0.1243806
0001f0 4d d4 5a 3d e0 df 5b 3e aa 22 52 be f2 af 59 be
       0.053425122 0.2147212 -0.20521036 -0.21258524
000200 8a 24 00 be e6 07 54 be 68 d6 27 3d fd fb e2 3d
       -0.12513939 -0.20706138 0.040975958 0.11083219
000210 44 7b 90 3d f4 7b 47 be 0a 1e 05 3e be 90 03 be
       0.07054761 -0.19480878 0.1299974 -0.12848184
000220 78 2e 22 3e 2c 05 89 bd 9c a5 da bc 06 12 d4 bc
       0.15838039 -0.066904396 -0.026690297 -0.0258875
000230 f1 fe b6 bd cc d7 de 3d b8 db 13 be bf e4 6b bd
       -0.08935345 0.10881004 -0.14439285 -0.057591196
000240 55 52 da 3d 44 22 03 3e 95 13 e4 bd 6d 6a ed 3d
       0.10660235 0.1280604 -0.111365475 0.11592565
000250 ff fd 54 bb 74 7f b4 3d c6 34 a0 3d 5c 22 29 bd
       -0.0032500026 0.08813372 0.07822566 -0.041292533
000260 de e8 e4 3c bd 42 37 3d 31 44 f7 3c 60 07 ca bd
       0.027943071 0.04474138 0.030183883 -0.09864688
000270 e8 06 7e 3d 29 38 a3 bd 88 ca 65 3e 42 52 b9 bd
       0.062018305 -0.07969696 0.22440541 -0.090488926
000280 dd 24 b9 bd 1a 96 6e 3e 34 e2 98 3d e2 38 b8 bd
       -0.09040234 0.23299447 0.0746502 -0.089952245
000290 b4 8b c4 3d 5f 2a 22 3e a3 56 04 be 5e 68 98 3d
       0.09596959 0.15836476 -0.12923674 0.074417815
0002a0 ed 75 19 3e d9 16 b9 3d ac eb b0 3d 2d 7a a6 3d
       0.14986391 0.09037561 0.08638701 0.08128772
0002b0 1c 70 e7 bd 84 77 dc 3d c3 2b b6 bd 11 02 26 bd
       -0.1130068 0.10764983 -0.08895066 -0.040529314
0002c0 ae 1f 55 3e 15 57 87 3d 0d 3e 28 3d dd e9 cf 3d
       0.20812866 0.066084065 0.0410748 0.10152028
0002d0 59 24 aa 3d 17 33 22 3e cb 5c bb bd ef c1 03 3e
       0.08307714 0.15839802 -0.09148558 0.12866949
0002e0 7d 2b db bd af f9 48 bd ff 89 48 bd e0 19 2c 3e
       -0.10701654 -0.04906624 -0.04895973 0.16806746
0002f0 81 6f 16 3e 78 9c 08 3d 48 d4 a5 3c e8 3c 20 3d
       0.14690973 0.033352345 0.020242825 0.039120585
000300 13 1a 28 bd d5 7f 27 3e 9b b3 0b 3e 60 4f 8b 3a
       -0.04104049 0.16357358 0.13642733 0.0010628514
000310 eb 98 c6 bd ac 88 22 3e 6f 65 38 bd 98 bf b9 bc
       -0.096971355 0.15872449 -0.04501861 -0.022674367
000320 e5 98 f4 bc 9f b5 90 3d 69 03 8a 3d d7 4d 2a be
       -0.029858062 0.070658915 0.06738932 -0.16631256
000330 83 d4 14 3d f7 ed 26 bd ed 5d df 3d 9b ac ff 3d
       0.03633548 -0.040754285 0.10906587 0.12484094
000340 27 b8 0e 3e a0 2e f8 bd 9c a7 14 be 23 38 e8 bd
       0.13937436 -0.12118268 -0.14517063 -0.11338832
000350 ec aa 1a 3e 55 db b4 3d a2 4c 54 be d0 c8 3d bd
       0.15104264 0.08830897 -0.20732358 -0.046334088
000360 69 71 89 3d d5 b4 ee 3d 63 b9 b7 bc 13 b3 e6 bd
       0.067110844 0.11655585 -0.022427266 -0.112646244
000370 53 55 3e be ba 68 0d 3c 92 53 f2 bb 67 a9 a4 3d
       -0.18587236 0.008630926 -0.0073952163 0.080401234
000380 89 11 0c 3e cb 4b 1f bc d1 20 08 be 4e 7a b3 3b
       0.13678564 -0.00972266 -0.13293768 0.0054772263
000390 fc c3 7e bd 5a 5f c8 3d f9 84 e7 bc d8 b0 1a 3e
       -0.062198624 0.09783812 -0.028261648 0.15106523
0003a0 af 9e 03 3d b8 c1 09 3e eb bf 0d be 5a 20 27 be
       0.032133754 0.13452804 -0.13842742 -0.16320935
0003b0 c6 c2 a1 bd 5c 07 ff bd 03 3a ac bc 23 dd bd bd
       -0.07898478 -0.124525756 -0.021023756 -0.09270694
0003c0 2e 07 8a 3c 89 a3 2d be 5d 4b 05 be ef a2 ae 3d
       0.016849127 -0.16956915 -0.1301703 0.08527171
0003d0 22 42 08 3e 7b 55 29 be 15 5b 56 be b4 87 c6 bd
       0.13306478 -0.16536514 -0.20933183 -0.09693852
0003e0 b3 65 11 be 3b 0e b1 3d 20 ca 40 3e b8 06 f9 bd
       -0.14198951 0.08645292 0.18827105 -0.121594846
0003f0 2d 87 c0 3d 4d 8c 0c 3d 3c 83 cd bc d7 4b 41 bd
       0.09400783 0.03431349 -0.025086991 -0.047191467

bias f4 [100]
000000 59 28 a6 3b 0a fa 0f bd 7e 85 0d bd 26 89 49 3c
       0.005070728 -0.035150565 -0.034551136 0.012300765
000010 a8 e0 e3 bc d3 fc ec bc fd 76 9c bc 8d ac 29 bb
       -0.027817085 -0.02892915 -0.019099707 -0.0025890202
000020 da 71 11 bd 15 8f 11 bd 1d ca 1d 3d 28 68 11 bd
       -0.035508968 -0.035536844 0.03852283 -0.03549972
000030 9c 0d 31 bc 41 02 c0 3c b4 fd 45 bb 88 8c bb bc
       -0.010806467 0.023438575 -0.0030211033 -0.022894159
000040 ee 34 84 bc 7f d0 9b bc 66 04 40 bb e0 47 72 38
       -0.01613852 -0.019020317 -0.0029299497 5.7764235e-05
000050 3a 20 d9 bc f0 28 be bc ad 5b e1 bc eb 3d 2d 3c
       -0.026504625 -0.02321288 -0.027509535 0.010573844
000060 21 ab cd bc a0 69 b8 bc e8 67 d6 3b ee fa 31 3b
       -0.025106015 -0.022511303 0.0065431483 0.0027157622
000070 74 32 3e 3d 98 a0 08 bd 7f 51 0b bd aa c9 fe bc
       0.046434835 -0.03335628 -0.034013268 -0.03110202
000080 89 af 23 bc 25 ff 5d bc e1 d6 e2 bc 4b e1 10 bd
       -0.009990581 -0.013549601 -0.027690353 -0.035371106
000090 65 17 66 3b a6 03 da bc b2 a6 85 bc 5d 3d bd 3c
       0.003510916 -0.026613068 -0.016314838 0.02310055
0000a0 a0 44 0e bd f6 3d 97 bc e9 1c 14 3b 19 7f b8 3c
       -0.034733415 -0.018462162 0.002260024 0.022521542
0000b0 6c 31 02 bd dd 2b 74 bb 1c a4 ff bb 21 63 41 3d
       -0.031785414 -0.003725759 -0.007801546 0.047213677
0000c0 53 56 ac bc 13 ec db bc 1a b4 34 3c 91 9d a7 bc
       -0.021037256 -0.026845967 0.011029268 -0.020460876
0000d0 cb 20 41 bc 29 cd 96 3c c8 85 2b 3c d6 2d 09 bc
       -0.011787604 0.018408375 0.010468908 -0.008372745
0000e0 99 d4 70 3d b6 54 11 bd 51 2e 5b 3c a0 8f 11 bd
       0.0587965 -0.035481177 0.013377742 -0.035537362
0000f0 73 60 0e bd 4b 19 68 bc 1e bc a8 3c d2 6b 71 bc
       -0.03475995 -0.014166187 0.020597514 -0.014735179
000100 c9 2f e6 3c 8c 71 11 bd c7 6f 9d bc 5e 79 68 3c
       0.028098958 -0.035508677 -0.019218339 0.014189092
000110 2f 58 65 3d c5 16 d2 bc 1f cc 10 bd 85 ee 12 bd
       0.0559923 -0.025645623 -0.035350915 -0.035872
000120 60 22 0e 3d d2 64 20 3c e1 0d 3e bd cc 73 6d 3c
       0.03470075 0.009789662 -0.046399955 0.01449294
000130 cf 94 52 bb 6b 9e 49 3b 86 e6 42 bc b0 10 4d 3d
       -0.0032132154 0.003076459 -0.011895781 0.050064743
000140 f3 d5 cc bb b2 af 14 bc 90 f5 52 bd 6c 49 03 bd
       -0.0062510907 -0.009075092 -0.051503718 -0.032052442
000150 de 4c 48 bc c0 7f 04 b8 0a cf 6c bc cb 76 14 bd
       -0.012225358 -3.159023e-05 -0.014453659 -0.036246102
000160 8f 15 6c 3c e5 bf ba bc f2 cc 9d 3c d4 04 60 3d
       0.014409437 -0.02279658 0.019262765 0.054692104
000170 2a d2 10 bd 56 61 11 bd bd c5 1f bc 41 9d 67 3b
       -0.035356678 -0.035493217 -0.009751734 0.0035341533
000180 dc db 67 3d 32 38 91 bc ee a4 d4 bb e3 d8 46 bc
       0.05660616 -0.017726991 -0.0064893877 -0.012136671

weight f4 [100, 100]
000000 3a a6 a1 bd aa 42 f7 3d be c6 a6 3d 22 5c 0e 3d
       -0.07893033 0.12073262 0.08143376 0.034755833
000010 99 a4 69 3c c1 72 4a bd dc eb e4 3b fe ee 08 3e
       0.014260435 -0.049425844 0.0069861244 0.13372418
000020 b1 bd 2a 3e c5 eb 65 3b fa 57 58 3d c9 f0 69 3d
       0.16673924 0.0035083157 0.052818276 0.057114396
000030 1b 7a ec 3d ba 35 c1 3d 4b 80 af bd ad fc b8 bd
       0.11546727 0.09434076 -0.08569392 -0.09032569
000040 b4 fe 06 be e6 36 2d 3e f8 da 76 bd 3f 4d 1f bd
       -0.13183099 0.16915473 -0.06026742 -0.038892027
000050 5b 8d bf 3c 96 2d dc bd d0 af 71 3d 00 e2 2e bd
       0.023382833 -0.10750882 0.05900556 -0.042696
000060 7f d4 77 bd 15 f5 c6 bd 42 e0 f9 3d 0c 68 26 be
       -0.060505386 -0.097147144 0.12200977 -0.16250628
000070 38 7d fb 3b 05 1e 13 3d 3e d9 ef bd 16 23 23 3e
       0.0076748393 0.0359173 -0.117113575 0.15931353
000080 20 23 28 be d3 16 17 3e 8d 8c 83 3c 37 58 ba 3d
       -0.16419649 0.147548 0.01605823 0.09098857
000090 b5 67 a3 3c 19 b3 7f bd 35 36 ad 3d ee d0 ba 3d
       0.019946912 -0.06242666 0.08457605 0.091218814
0000a0 3c 66 b9 bd ee 56 10 3d 7b f7 8c 3d 1b b9 e0 bc
       -0.09052703 0.035239153 0.06883141 -0.027432015
0000b0 4a ab 9c 3c ff 6d 3f 3e 2f b4 24 be 29 c7 4c 3e
       0.019124646 0.18694304 -0.1608436 0.19997849
0000c0 95 b1 19 3e 5c 53 b1 bd de 88 d9 3c 05 63 d8 bd
       0.15009148 -0.08658478 0.026554521 -0.105657615
0000d0 ad dd 7c 3b 1d 6a 3c 3e 8c f7 e9 bd ab 58 c9 bd
       0.0038584277 0.18399854 -0.11424169 -0.09831365
0000e0 29 63 84 bd 3f be c4 bd f9 af cb bc 36 a7 47 3d
       -0.06464226 -0.09606599 -0.024864184 0.04874345
0000f0 86 7b 62 bd 12 4b 01 be 22 11 43 3e 7b 3f 23 3e
       -0.055293582 -0.12626293 0.19049504 0.15942185
000100 31 18 07 3e 9d d9 27 be 6c 5b 0c be b9 44 f1 3d
       0.13192822 -0.16391607 -0.1370675 0.11780686
000110 d9 30 10 be 74 92 05 3e 1a 5e f1 bd 12 ea e5 3d
       -0.14081134 0.13044149 -0.117855266 0.11226286
000120 df 8a 04 be 65 f5 1e 3e 32 52 03 be 7a 27 9c bd
       -0.129436 0.15523298 -0.12824324 -0.07624717
000130 24 17 fd bc 9d 90 1e bd 89 fb c6 3c 7c 6d 6c bd
       -0.030894823 -0.038712133 0.024289863 -0.0577216
000140 ee 66 0d be 35 7d 81 3d de f1 f6 3d c2 3f 12 bd
       -0.13808796 0.063227095 0.12057851 -0.035705335
000150 aa 9b 5a 3d 40 c5 15 3d 8e 20 cc bd b7 2c 8a bd
       0.05337111 0.036565065 -0.09967147 -0.0674681
000160 80 26 6f 3d 11 75 82 3d 20 00 06 3e ba 34 b5 bd
       0.058386326 0.06369985 0.13085985 -0.088479474
000170 e4 58 6f 3d c9 1f 2e be 93 d6 46 be 9b 0f cc 3d
       0.058434382 -0.17004313 -0.19417791 0.09963914
000180 9b ef 2a be 1b 31 fa bd 07 fb 1b 3e 0c 08 5d 3c
       -0.16692965 -0.122163974 0.15232478 0.013490688
000190 d9 f3 ac 3c c0 8a 87 3d 80 83 a9 3d 32 0a c2 bd
       0.02111237 0.06618261 0.08277035 -0.09474601
0001a0 e9 53 8b bd 92 46 1b be cc a3 b2 ba 0b 00 b8 bd
       -0.06803114 -0.15163639 -0.0013629138 -0.08984383
0001b0 ca e2 37 be 25 09 34 be ee c0 42 3d ba e0 f7 bc
       -0.17957607 -0.17581613 0.047547273 -0.030258525
0001c0 4a 4c af bd 16 fd 0b 3e 22 3c fb 3d 52 ac 5e 3c
       -0.08559473 0.13670763 0.12267329 0.013590889
0001d0 35 92 88 bd c6 87 a3 3d 51 07 c0 3d ed c9 9a bd
       -0.06668512 0.07984881 0.093763955 -0.075580455
0001e0 0d f1 63 3d d9 65 21 be 38 74 fd 3d f3 ff d1 bd
       0.055649806 -0.15761508 0.123756826 -0.102538966
0001f0 7e 0d 59 bd df 3b 2b 3e bb 88 fe 3d 49 51 92 bc
       -0.052991383 0.16722058 0.12428423 -0.017861025
000200 4b 50 83 3d aa 05 c3 bd b4 f6 47 be cc 02 52 be
       0.06411799 -0.09522565 -0.19527704 -0.2050888
000210 9e 56 95 ba 7d c3 d4 3d 86 06 4c bd f5 8e 1e 3d
       -0.0011393612 0.10388849 -0.04981091 0.038710553
000220 bd da e3 bd 20 96 c2 bd 86 50 89 bc 3f 4a d3 bd
       -0.111257054 -0.0950129 -0.01676203 -0.10316896
000230 0e 30 d5 bd 1d 49 01 3d 29 72 16 3e 23 2e 10 be
       -0.10409556 0.031563867 0.14691986 -0.140801
000240 64 18 b3 bd 2a 60 e1 bd 8c 85 1f be 90 c9 26 3d
       -0.087448865 -0.1100467 -0.15578288 0.04071957
000250 3c 42 95 bc 76 e7 2d be 47 2d e0 3d e7 f2 e2 bd
       -0.01822006 -0.16982827 0.10946136 -0.11081486
000260 77 a0 eb bd 3e 4f 87 3d 70 a6 f1 3b 4c d3 d8 3d
       -0.115052156 0.06606911 0.007374577 0.10587177
000270 76 8f a9 bd 03 5f 79 bc ec 41 37 be b6 a5 ab 3d
       -0.08279316 -0.015220406 -0.17896241 0.08381216
000280 b1 5e f0 bc 30 dc 0a bd 41 a1 0c 3e 3f e3 06 3c
       -0.029342027 -0.033901393 0.13733388 0.008232891
000290 3b 67 48 be 41 d2 09 bd 14 ba 03 be c0 f5 b9 3b
       -0.1957063 -0.03364778 -0.12863952 0.0056750476
0002a0 a8 1f 7e 3d 91 48 02 3e 9d c7 a2 bd 9b 69 dc bd
       0.06204191 0.12722994 -0.079482295 -0.1076233
0002b0 37 8d f5 bc 08 b0 2b be ea 18 73 bc eb 01 a3 bd
       -0.029974563 -0.1676637 -0.014837483 -0.0795935
0002c0 88 25 53 3a d6 22 82 bd ad 79 24 be fd f4 33 be
       0.0008054604 -0.06354301 -0.1606204 -0.17573924
0002d0 eb 19 05 3e 61 b8 a5 bd f8 1c d6 3b 16 a4 99 bd
       0.12998168 -0.08091808 0.006534215 -0.07502
0002e0 d0 60 f2 bd 00 23 23 be f8 94 9e bd 24 99 de 3b
       -0.11834872 -0.1593132 -0.07743257 0.006793158
0002f0 1f 6a b8 bd 08 dd 23 be d3 e9 07 be d3 28 8e bd
       -0.09004616 -0.16002285 -0.1327279 -0.0694138
000300 ed 35 2a be 1c 42 20 bd 15 7e 17 3e 05 7b 87 bd
       -0.16622134 -0.039125547 0.1479419 -0.06615261
000310 a7 72 fb bd c6 8b b5 bd c6 8e 33 be 83 ab ab 3d
       -0.122777276 -0.0886455 -0.17534932 0.08382323
000320 9d cd 3c be 3b 6c f1 3c 96 0f 35 be dd d9 40 bd
       -0.1843781 0.029470554 -0.17681727 -0.04708277
000330 ed c0 98 bd 6c 8b c8 bd f4 51 de 3d b8 b7 cc 3d
       -0.07458673 -0.097922176 0.10855475 0.09995979
000340 76 f5 d6 bd 14 8d e0 ba 9e 3a 51 be 68 12 49 be
       -0.10496037 -0.0017131888 -0.20432517 -0.19635928
000350 42 4a 4c bd f2 09 0a be 50 6b 04 3d 04 65 ca 3b
       -0.049875505 -0.13480356 0.032328904 0.006176593
000360 50 9f ee bc 10 66 21 3e e4 dd f6 bc 48 a4 0c 3d
       -0.0291287 0.1576159 -0.030135103 0.03433636
000370 16 13 5f 3d 5d a6 d4 3d 38 8b e0 bd dd df a6 3d
       0.05446156 0.10383294 -0.10964054 0.08148167
000380 c7 d0 12 3e e1 d6 cc bc 84 aa 4e be a8 1d 35 be
       0.14337455 -0.025004806 -0.20182234 -0.17687094
000390 df 52 fd bc 58 35 df bd 26 f1 ca bd c0 8b b3 bc
       -0.030923305 -0.108988464 -0.09909277 -0.021917224
0003a0 cb 0e 85 3c ef 92 a6 bc 4b df 3b be e9 39 43 3e
       0.016242405 -0.020333735 -0.18346898 0.1906506
0003b0 8a 67 54 bd c2 f2 15 be 9b 90 86 3d d7 ef ee 3d
       -0.051856555 -0.14643386 0.0657055 0.116668396
0003c0 ce 46 b9 3d 94 1b d0 3d 20 5d 3f be c0 8a fc 3d
       0.09046708 0.1016151 -0.18687868 0.12331152
0003d0 0b 19 f8 bd 59 dd ee bd 7e 16 e2 3c 46 79 08 3e
       -0.121141516 -0.116633125 0.027598616 0.13327512
0003e0 d3 8c 15 3e 6e 6b 3e bd ce fb 05 3d 96 54 13 be
       0.14604501 -0.04648917 0.032710843 -0.14387736
0003f0 4b ed 97 3d 82 8d 57 bd ae ca b2 bc f2 e1 d2 3d
       0.07418307 -0.052625187 -0.02182516 0.10297002

bias f4 [100]
000000 17 e9 ea bc 73 d6 07 bd 42 f4 0f bd f6 b7 d5 bc
       -0.028675599 -0.0331635 -0.03514505 -0.026088696
000010 1e 32 10 bd 3e 1b 38 bc 63 56 18 bd 0e f2 af bc
       -0.035204045 -0.011236964 -0.03719176 -0.021477725
000020 83 06 eb bc 0d 23 1b bd ce a6 05 bd df ab 0e bd
       -0.028689628 -0.037875224 -0.03262978 -0.034831878
000030 b7 50 41 3b 1e 84 8b 3c a0 eb 99 bc e8 61 0b bc
       0.0029497573 0.017030772 -0.018789113 -0.008507229
000040 23 88 02 3d f6 c4 10 bd c2 77 a8 bc 11 ed cb 3c
       0.03186811 -0.035344087 -0.020564917 0.024893316
000050 a3 e0 3d 3d fe d4 c8 bc 3f 28 75 bc 6a 67 34 bc
       0.04635681 -0.024515625 -0.014963209 -0.011010984
000060 8c 44 62 3d d5 0d 49 3d 54 75 14 3d eb 1a c2 bc
       0.055241153 0.049085457 0.036244705 -0.023694476
000070 8d 42 c2 3c 6d 98 c0 bb 0e 1d 7c 3c 6d 65 74 bc
       0.023713375 -0.0058775456 0.015387787 -0.01491676
000080 0e 32 7d bc 95 cb 78 3a 1c 53 22 bd 88 a8 8e 3a
       -0.0154538285 0.00094907853 -0.03963004 0.0010883966
000090 8a d6 ca 3c 23 71 ac bb 62 09 f3 3c f2 ac ec bc
       0.024760503 -0.0052625104 0.02966756 -0.02889106
0000a0 dd c0 53 bd 6f 2f 6e 3d 90 e2 c4 3c d4 ad a1 3c
       -0.0516976 0.058150705 0.024033815 0.019736208
0000b0 04 7e e2 bc 1e 5b 7b 3c 2c 11 cc bc 0e ed 98 bb
       -0.02764798 0.015341548 -0.024910532 -0.004666931
0000c0 46 ec a1 bb 51 ff 10 bd 29 90 0c bd f6 39 10 bd
       -0.004941496 -0.03539974 -0.03431717 -0.035211526
0000d0 f1 7f 0e bd 8c 0f ca bc 40 79 fe b9 2e 00 6a bb
       -0.034789983 -0.024665616 -0.00048536994 -0.0035705674
0000e0 59 09 13 3d 2b ef 05 bd 7e b5 6c bc 4e 42 8d bb
       0.035897586 -0.03269879 -0.014447568 -0.0043108827
0000f0 7c df 77 bb 3d 46 07 bd 16 c4 d1 bc 2a ee 7d bd
       -0.0037822416 -0.03302597 -0.025606196 -0.06199471
000100 a9 64 11 bd e7 50 0c bd f6 51 0b bd 9a fc 4c bd
       -0.035496388 -0.034256842 -0.03401371 -0.050045587
000110 98 b8 94 bc 29 66 d1 3c c5 3b 0f bb cd d4 1b 3c
       -0.018154427 0.02556141 -0.0021855694 0.009511185
000120 1c dc 0f 3c 8a 8d 10 bd 9a ce 49 bc 11 24 6b bc
       0.0087805055 -0.035291232 -0.012317324 -0.014351861
000130 1d 67 11 bd 50 52 a4 3c 0c ed f2 3c 60 b3 3a bc
       -0.035498727 0.02005878 0.029654048 -0.011395305
000140 b0 9c b1 ba 76 85 ef 3c dc 63 00 3c 40 5d 4d 3d
       -0.0013550725 0.029238444 0.007836308 0.05013776
000150 bc ba b2 3b a2 df 1f bd a8 3e 5b bc a3 93 17 3d
       0.0054543894 -0.039031632 -0.013381638 0.03700603
000160 a8 56 13 bd 93 df c8 3c a8 90 5a 3c 88 41 11 bd
       -0.035971314 0.024520671 0.013340153 -0.035462886
000170 65 94 16 3d d5 e4 4c bd 81 d5 96 bc 11 77 4d 3d
       0.036762614 -0.05002292 -0.018412353 0.05016238
000180 be ad e9 bc d8 8c 1c bd cf ee 15 3c fb b4 3f bc
       -0.02852523 -0.038220257 0.009151175 -0.011700864

weight f4 [100, 100]
000000 b0 fc 1b bd 17 d2 fd 3d 5b dc 21 3e 24 c3 ce 3a
       -0.03808278 0.12393587 0.15806715 0.0015774709
000010 8e 7d d3 bc a8 a6 34 be cf 54 29 3d 26 a2 e6 bd
       -0.025816705 -0.176417 0.041340645 -0.11261396
000020 84 9c 2d be 7a 72 8b bd e6 96 77 bd 98 12 ce 3c
       -0.16954237 -0.06808944 -0.060446642 0.02515535
000030 80 09 21 3e b5 a1 18 be 34 f6 00 be e7 35 27 3e
       0.1572628 -0.14905436 -0.12593919 0.16329156
000040 e5 59 09 be f0 10 90 bd 0e a7 9e bd f9 07 3c 3c
       -0.13413198 -0.070344806 -0.07746707 0.01147651
000050 b5 06 e8 bd 95 bc d1 3d 49 2b 24 be 6e bb a6 bd
       -0.11329404 0.10241047 -0.16032137 -0.08141218
000060 f0 62 34 be 0a 35 58 3e 1b bd 0f 3e 5e aa 29 3e
       -0.17615867 0.21113983 0.14036982 0.16568896
000070 92 88 73 bc 5f 88 5d 3d 55 df 8a bd 57 fc 58 bd
       -0.014864104 0.05408513 -0.067808785 -0.052975025
000080 ac 3b ac 3c 1f 08 4d 3e c2 56 df 3d f6 b6 bf 3c
       0.021024548 0.20022629 0.109052196 0.023402672
000090 ec e3 41 be 37 ed e2 bd 18 5a f4 3b 36 d5 07 bd
       -0.18934602 -0.110804014 0.007457029 -0.03316232
0000a0 fe 98 13 bc 47 1b 12 3d e3 87 35 3e 8a f8 47 3d
       -0.009008644 0.035670545 0.17727618 0.04882101
0000b0 fa ed e3 3c 4c be a3 bd 2b dd 5f bd 44 2f 32 be
       0.027823437 -0.079952806 -0.05465428 -0.17400843
0000c0 cb 98 53 bd da f3 85 3d e8 84 a4 3a 77 74 37 3e
       -0.051659387 0.065406516 0.0012551816 0.17915522
0000d0 f6 46 03 3e 36 44 e3 3d a0 f1 e0 bd 53 3f a1 3d
       0.12820038 0.110969946 -0.10983586 0.07873406
0000e0 1c bb f7 bc 97 0f 10 3e 32 09 89 3d a2 c5 e7 bd
       -0.030240588 0.14068447 0.06691207 -0.11316992
0000f0 dd dd 2a 3d 5e 15 1a 3e a0 2d 3c 3d e9 2e fe bd
       0.04171549 0.15047213 0.04594195 -0.12411291
000100 1a 42 80 bd 36 0b 5c 3d 3c 6e a6 3d c0 e3 30 bd
       -0.06262608 0.05372163 0.08126494 -0.04318595
000110 70 d9 3e be bf 42 1a 3e ba c5 4b be 0e ef 85 3d
       -0.18637633 0.15064524 -0.19899645 0.06539737
000120 03 10 82 bc 1d 07 29 bd 62 d7 10 3b 96 34 b0 3c
       -0.015876776 -0.04126655 0.0022101034 0.02150945
000130 fb ee 3e bd 88 ea ae 3d d2 82 0b be 92 32 e5 3d
       -0.04661463 0.08540827 -0.13624123 0.11191286
000140 81 11 01 3e bc d3 a6 3d 51 59 4a be a9 55 97 bc
       0.12604333 0.08145854 -0.19760634 -0.018473463
000150 6d a9 1a be cc a5 26 3e 5e 98 5c bd 40 ab 0b 3e
       -0.15103693 0.16274184 -0.053856246 0.13639545
000160 61 8d 1e 3e 8c 13 2c 3e 0f 50 23 3e 6a c8 3d be
       0.1548362 0.16804332 0.15948509 -0.18533483
000170 4e af 2a be 26 a4 3c be da dc 81 bd 73 e8 f0 bd
       -0.16668436 -0.18421993 -0.06340952 -0.11763086
000180 01 ac 8f 3d 4e 5f 4e 3d ea 33 01 be 4a 29 5f 3e
       0.07015229 0.05038386 -0.1261746 0.21793094
000190 15 94 dd 3d df d3 18 bc d6 57 09 be 85 d6 03 3e
       0.1081926 -0.009327858 -0.13412413 0.12874801
0001a0 21 5d 03 be 33 96 ca 3c 39 91 0f 3e 84 ff c4 3d
       -0.12828495 0.024729824 0.14020242 0.09619048
0001b0 89 b0 03 3e 4f 34 9b 3d 76 2d 25 be ec 1a 0c bd
       0.12860312 0.075783364 -0.16130623 -0.034205362
0001c0 0c 5b d8 3c 8a 44 62 bd 5b 17 48 3d b1 97 e6 3c
       0.026410602 -0.055241145 0.0488504 0.028148504
0001d0 75 9d eb 3d d1 6b 77 bd ed 39 26 3e 4a f0 37 bd
       0.11504642 -0.060405556 0.16233034 -0.044906892
0001e0 22 c9 d4 bd ee 38 dc bd 78 9f 0b be ef 51 4a 3e
       -0.103899255 -0.10753046 -0.13635051 0.19757818
0001f0 57 2f 90 3d 8b 1f 94 3d 70 25 f2 3d bc 29 b4 bc
       0.07040279 0.07232579 0.11823547 -0.021992557
000200 e0 cb c5 3d e7 d9 0d be 09 07 6c bd 8e c8 f8 3d
       0.09658027 -0.13852654 -0.057623897 0.12147628
000210 4b 1b 2a be e1 d1 3d be cc eb 91 3d cf 9e 66 bd
       -0.16611974 -0.18537094 0.07125053 -0.056303795
000220 99 75 48 be 08 d3 b4 3c 44 b5 ac bd 9f 47 01 be
       -0.1957611 0.022073284 -0.08433011 -0.12624978
000230 5b 30 0e 3d 55 c0 bf bd b0 dd d8 bd 27 40 3b 3d
       0.034714084 -0.09362856 -0.105891585 0.045715477
000240 7c a5 3f bd 8e 70 0c 3d 0e 3c b2 bd b9 95 82 bd
       -0.046788678 0.034287028 -0.08702861 -0.063762136
000250 8b 00 b2 3d 3d dc bc bd 65 c2 b8 3d d6 65 d6 3d
       0.0869151 -0.092216946 0.09021453 0.104686424
000260 fc 13 6f 3b 6d 34 00 3e 50 49 84 bd 2c 49 34 bc
       0.0036480417 0.12519999 -0.06459296 -0.011003774
000270 8f 70 0d 3e 63 3f c4 3c e1 c5 5d bd ec 70 b3 bd
       0.13812469 0.023956006 -0.05414379 -0.087617725
000280 26 20 fd bb 9e 88 30 be e5 3b 52 be 02 ff 3d 3e
       -0.0077247797 -0.17239615 -0.2053066 0.18554309
000290 c0 44 38 3e 0a 07 a6 bd ed 4d da bc b9 64 37 be
       0.17994976 -0.08106811 -0.026648486 -0.17909516
0002a0 49 fa 05 3e db 0b 1b be 78 82 28 bd dc 94 a7 3d
       0.13083757 -0.15141241 -0.04114005 0.081826895
0002b0 3f f5 8f bd ac 28 aa bd 68 4c 40 3d 76 e1 41 3d
       -0.07029199 -0.08308539 0.046947867 0.047334157
0002c0 68 c2 4c bd 29 01 16 bd f2 2e 31 3d fa ea f7 3d
       -0.049990088 -0.0366222 0.04325766 0.12105365
0002d0 2e 37 62 bd fa 51 1c 3e 6d 4f bc bd 67 0a 97 bd
       -0.055228405 0.15265647 -0.09194837 -0.07375031
0002e0 d3 71 1d 3d a2 df f9 3d eb 81 4e 3d f3 d3 9b bd
       0.03843863 0.12200858 0.05041687 -0.076087855
0002f0 33 42 47 be ab 14 52 bd 16 a5 93 3d 61 d0 af bd
       -0.19458847 -0.05128924 0.07209222 -0.08584667
000300 6f 04 19 be 8a 8c 7e 3d a4 c3 e2 3d 9e 1c f2 3d
       -0.14943098 0.062145747 0.11072472 0.118218645
000310 c1 fe 03 be c4 bd a1 bc 3e 3c af 3d ee 8f cd 3d
       -0.1289015 -0.019743808 0.08556412 0.10037218
000320 2b ce 21 bd a2 dd 97 bd 34 9e 11 be 85 b3 cd bd
       -0.039503258 -0.0741532 -0.14220506 -0.10044006
000330 52 cc 0a be 35 f8 06 3e 95 bf 2e be dc 76 13 bd
       -0.13554505 0.13180621 -0.1706527 -0.036002025
000340 49 f3 04 3e 9e 23 3f bc bf 17 0d 3e 80 e8 30 be
       0.12983431 -0.011666207 0.1377859 -0.17276192
000350 63 2f 25 be 50 37 06 be f4 bb 32 be a4 05 67 3d
       -0.16131358 -0.13107038 -0.17454511 0.056401864
000360 f5 a5 48 be ea a3 e8 3d 93 a6 d0 3d 38 f7 f4 bd
       -0.19594558 0.11359389 0.101880215 -0.11961216
000370 1b 76 8c 3d fa 87 07 be df 1c c3 3d c8 fe 61 3d
       0.06858464 -0.13235465 0.09526991 0.05517462
000380 0d 31 40 be f6 40 08 be 4a 97 9b 3d 8a f0 ad 3d
       -0.18768711 -0.1330603 0.075972155 0.08493145
000390 62 0d dc bd 4a 36 dc 3d f9 91 65 bd 59 9a ab 3d
       -0.1074474 0.10752542 -0.056047413 0.08379049
0003a0 4c 86 96 3c c0 1f 89 bc 2b d8 9c 3c a5 ac 04 3e
       0.018374585 -0.016738772 0.019146046 0.12956484
0003b0 65 62 d9 3d a2 05 48 bb 26 24 8c bd 60 52 98 3d
       0.106144704 -0.0030520936 -0.06842832 0.07437587
0003c0 08 a4 3f be 4a 46 08 3e 53 dc b9 bc d0 12 e6 3c
       -0.18714917 0.13308063 -0.022688067 0.028085142
0003d0 e7 1b d0 3c 9b a2 09 be 70 f3 9d bd c1 e0 30 be
       0.02540393 -0.13440935 -0.07712448 -0.17273237
0003e0 78 9d 48 bd 55 6c 6c 3d 50 04 74 ba 35 35 ff bd
       -0.0489783 0.0577205 -0.0009308504 -0.1246132
0003f0 cc 82 ba bc 61 1c 2b be a8 b8 10 bc e6 14 25 be
       -0.022767447 -0.16710044 -0.008833088 -0.16121253

bias f4 [25]
000000 00 00 00 00 00 00 00 00 00 00 00 00 00 00 00 00
       0.0 0.0 0.0 0.0
000010 00 00 00 00 00 00 00 00 00 00 00 00 00 00 00 00
       0.0 0.0 0.0 0.0
000020 00 00 00 00 00 00 00 00 00 00 00 00 00 00 00 00
       0.0 0.0 0.0 0.0
000030 00 00 00 00 00 00 00 00 00 00 00 00 00 00 00 00
       0.0 0.0 0.0 0.0
000040 00 00 00 00 00 00 00 00 00 00 00 00 00 00 00 00
       0.0 0.0 0.0 0.0
000050 00 00 00 00 00 00 00 00 00 00 00 00 00 00 00 00
       0.0 0.0 0.0 0.0
000060 00 00 00 00
       0.0

weight f4 [25, 100]
000000 73 ed 50 be f6 12 14 3e 8b d7 42 be 4c c5 2e 3e
       -0.2040308 0.14460358 -0.19027536 0.1706745
000010 2c f2 c1 bd bc 4e 16 3e 61 5d 26 3e b0 83 18 be
       -0.09470019 0.14678472 0.16246559 -0.14893985
000020 21 19 39 3e 34 4e 93 bd 4b f5 50 3e f8 69 ba bc
       0.18075992 -0.071926504 0.20406072 -0.022755608
000030 19 b1 5d be a3 a8 a5 bd 6d 57 94 bd 1a b8 16 3e
       -0.21649589 -0.080888055 -0.07243238 0.14718667
000040 96 cb b5 bd 29 f1 30 3e 46 2e 5b be 94 57 f3 3d
       -0.088767216 0.17279495 -0.2140437 0.118819386
000050 84 91 ab bd a4 21 42 be 49 7f 1e bb ef 13 47 be
       -0.08377364 -0.18958145 -0.0024184755 -0.19441198
000060 18 5e d7 bd 48 e8 34 3e 94 e1 06 bd df a3 b4 3d
       -0.10515994 0.17666733 -0.03292997 0.088203184
000070 01 98 1b be 1d da dc bd f2 1a 08 be be 31 37 be
       -0.15194704 -0.10783789 -0.13291529 -0.17890069
000080 73 95 40 be 80 2a 45 3e a0 4d 97 3c 1a a9 91 bd
       -0.1880701 0.19254494 0.018469632 -0.07112332
000090 42 76 22 3e 1f 1b 47 be 68 ce 5f 3d fa 9c 34 be
       0.15865424 -0.1944394 0.054640204 -0.17638007
0000a0 41 71 88 bc 36 7d e2 bd 2c 12 5d 3e 32 20 33 be
       -0.016655566 -0.11059038 0.21588963 -0.1749275
0000b0 6c 10 a2 3d 47 de 0d 3c 3b 29 19 3e 9b 5d 48 3e
       0.079132885 0.008658952 0.14957134 0.19566958
0000c0 96 90 1f be 1c 1e a1 bd 24 d6 fc bd 9b c5 3f bd
       -0.15582499 -0.07867071 -0.123455316 -0.04681931
0000d0 db 8d 0a be 44 dd 52 be f6 5d 20 be 80 53 2e be
       -0.13530676 -0.20592219 -0.15660843 -0.1702404
0000e0 46 37 38 be 6d 69 38 be 88 00 1c bd 86 d9 56 be
       -0.17989835 -0.18008967 -0.038086444 -0.20981416
0000f0 78 79 17 be e5 91 1a be 19 8e 21 3e 72 3c 3c be
       -0.1479243 -0.15094717 0.15776862 -0.18382433
000100 24 3e 43 be 62 1b 92 3d f2 24 db 3d 14 dc 28 be
       -0.19066674 0.07134129 0.10700406 -0.16490203
000110 54 aa dd 3d 0a 57 16 3e df cd 24 3e e0 5e 8a bd
       0.10823503 0.1468164 0.16094159 -0.06756377
000120 0a 68 06 bd a3 9e 55 3e 3a 7a a7 bd dd ec 04 be
       -0.032814063 0.20861296 -0.0817761 -0.12980981
000130 54 c1 eb bc 41 a9 e8 3d 42 06 ae bd af 67 35 be
       -0.02877871 0.113604076 -0.08497287 -0.17715333
000140 76 e2 1b 3e 47 98 a1 3c 03 1e 41 3d 6c 25 44 3d
       0.15223107 0.019725932 0.047147762 0.04788725
000150 47 98 23 3e 49 bd 1c 3e ec 85 6a 3d 20 d6 05 bc
       0.15976058 0.15306582 0.057256624 -0.008168727
000160 05 c1 c7 3d 83 7a 8b bd b4 a5 21 3e f6 9e 1d be
       0.097536124 -0.06810477 0.15785867 -0.1539267
000170 84 d5 a1 3b e3 47 2c 3e 56 e7 2a 3e 4b 3d 79 3b
       0.004938783 0.16824298 0.1668981 0.0038030918
000180 15 f7 54 be 2d 54 26 3e 96 42 4f be e1 a2 e2 3d
       -0.2079738 0.16243048 -0.20240244 0.11066223
000190 b0 70 7c bb 02 fb 71 bd b2 ec cb bc 70 5f 9e bd
       -0.0038519315 -0.05907727 -0.024893139 -0.07733047
0001a0 09 b4 10 be 19 5f 1f 3e b3 9e c1 b8 fb 66 7a bd
       -0.14131178 0.1556362 -9.232517e-05 -0.061133366
0001b0 b9 2e d6 bd db 80 c2 bc 9e 4d bb bd c9 83 cc 3d
       -0.104581304 -0.023743084 -0.09145664 0.099860735
0001c0 3f d4 02 bd 01 fa 50 3e d3 43 db 3d 06 b0 a6 bd
       -0.031940695 0.20407869 0.10706296 -0.081390426
0001d0 5d 5b 4b 3e 0c eb 4b 3e 82 93 48 bd a6 e6 27 be
       0.19859071 0.19913882 -0.0489688 -0.16396579
0001e0 f3 99 2b be 6e 8e 94 bd be 30 10 be 31 32 de bc
       -0.16757946 -0.07253729 -0.14081094 -0.027123543
0001f0 2c 47 51 3e 77 a8 24 3e 79 8a 23 be e3 d1 52 3e
       0.20437306 0.16079889 -0.15970792 0.20587878
000200 8c 0a 47 3e a5 4b 36 3e dc 78 89 3d b4 99 5d 3c
       0.19437617 0.17802294 0.06712505 0.013525415
000210 67 e0 1b 3e 3b 23 53 3c e8 b7 ad 3d 74 4c 3f be
       0.15222321 0.012886818 0.08482343 -0.18681508
000220 33 d6 4f 3e d3 5d 69 bd 14 5a 15 3e 88 61 94 bd
       0.20296554 -0.056974243 0.14585143 -0.07245165
000230 0e 00 81 bd 0c b5 f8 bd 7e f9 c5 bd ef 61 9f 3c
       -0.062988386 -0.12143907 -0.096667275 0.019455878
000240 27 0d 1e be da c7 53 bd ce 78 40 be c7 56 40 be
       -0.15434705 -0.051704265 -0.18796083 -0.18783103
000250 03 db 1d be 3d 02 8a 3c cf 4f 2a 3d 5d 90 b0 3c
       -0.15415578 0.01684677 0.041580018 0.021553213
000260 b9 47 2c be 0c f4 2d be c5 0a 94 3d 29 4a 6e bc
       -0.16824235 -0.16987628 0.072286166 -0.014544048
000270 12 f2 3c be 89 5a e4 3d 49 e2 05 3a 82 b7 d4 bd
       -0.18451717 0.11150081 0.00051072665 -0.10386564
000280 e4 eb 58 bd 4c 77 d1 3c ac 55 34 bd 02 f3 f5 bc
       -0.052959338 0.02556958 -0.044027016 -0.030023102
000290 2e ba 7a bc ec ae 07 3d ea 2f 89 3d d7 ba ce bd
       -0.015303178 0.033125803 0.06698592 -0.100942306
0002a0 39 65 93 3d 7b 97 57 be d2 27 1a bd de cf 5c be
       0.07197041 -0.21053879 -0.03763563 -0.2156367
0002b0 6d 96 0f 3c c0 75 50 3e e2 ca 8c bd cb b1 e2 bd
       0.008763892 0.20357418 -0.06874634 -0.110690676
0002c0 fd d7 85 3d ca 7e 22 3d 21 7b 52 3e 0f 8d be bd
       0.06535337 0.039671697 0.20554782 -0.093042485
0002d0 70 27 8b bb 89 84 05 3e f1 dd 41 3e fd 82 b5 bd
       -0.0042466447 0.1303884 0.1893232 -0.08862875
0002e0 b4 1e 57 be 49 b5 f4 bd b7 92 d7 bd 38 fc 35 3e
       -0.21007806 -0.1194864 -0.105260305 0.17771995
0002f0 24 d3 63 bc da 81 e2 ba 1a 40 1d 3d e7 48 0c 3e
       -0.01390532 -0.001728113 0.03839121 0.13699685
000300 cd 87 c5 bd dc 73 ac bd 3c d4 fc 3d 64 b6 9f bb
       -0.096450426 -0.08420536 0.12345168 -0.0048740376
000310 1b 9c 7e 3d 2a bc b4 3d 02 2e 25 be a9 4c 45 3e
       0.062160593 0.08824952 -0.16130832 0.19267525
000320 32 f3 8a 3d b5 25 a3 bc a6 c4 b8 bd 52 6a 38 3e
       0.06784667 -0.019915441 -0.09021883 0.18009308
000330 b6 06 4e be bf 76 34 3e 04 96 0b be ca a6 cd bd
       -0.20119748 0.17623423 -0.13631445 -0.10041578
000340 33 b8 9f 3d 13 27 00 3d 2c 83 45 bd dd 74 d7 bc
       0.07798805 0.031287264 -0.0482208 -0.026300842
000350 a8 e2 43 3d 27 ac c2 3d 4d cb a9 3d 5d 12 05 be
       0.047823578 0.09505492 0.0829073 -0.12995286
000360 50 61 17 3e d2 71 7e 3d 5e e8 c8 3d 24 77 ad bd
       0.14783216 0.062120266 0.098099455 -0.0846999
000370 bd 79 00 be 2f 2d 08 3e 82 82 58 3e 09 be f1 bd
       -0.1254644 0.13298486 0.21143535 -0.118038245
000380 06 0e d1 3d f9 dd 0a be 02 21 43 be 31 bb 9e 3d
       0.10207753 -0.13561238 -0.1905556 0.07750548
000390 16 a3 6a bd c6 51 ba bd 9c c1 3b bd 3a bd b3 3d
       -0.057284437 -0.09097628 -0.045838937 0.087763265
0003a0 56 0f 15 3d 01 f4 94 3b d7 61 a2 bd 46 b2 51 3e
       0.03639158 0.004545689 -0.07928818 0.20478162
0003b0 ea ca 3b 3e 7b ba fc bd 7c 81 a9 3d b0 04 5b 3d
       0.18339124 -0.12340256 0.0827665 0.053471267
0003c0 a3 f1 7f bb e4 ad 46 3e e5 b7 40 3e fa 09 49 be
       -0.0039053939 0.19402272 0.1882015 -0.19632712
0003d0 41 1f bb bd cc 07 72 bd ed 7f 26 3e ff 2b 0f be
       -0.091368206 -0.059089467 0.16259737 -0.13981627
0003e0 86 a4 00 3e b2 22 5a be 3e 6a 17 bd 33 92 a1 bc
       0.1256276 -0.21302298 -0.036966555 -0.019723034
0003f0 1d 76 9e bd 07 26 13 bd 50 75 03 3e 8d 38 12 3e
       -0.07737372 -0.035924938 0.1283772 0.14279385
