deep_learning/models/GCNLinkPrediction104.pth (torch, 136220 bytes, 8 tensors)

bias f4 [100]
000000 9b ad a9 bd 4b d0 68 bc cf 1f 10 3e 33 70 9a 3c
       -0.08285066 -0.014209817 0.14074634 0.018852329
000010 80 04 49 bb 01 15 ff bc a3 39 5f 3d f1 bb 4c 3d
       -0.0030672848 -0.031137945 0.054498326 0.049983922
000020 e6 93 94 3d 84 94 11 3e 60 e6 c2 3d bc f4 22 3e
       0.07254772 0.1421681 0.09516597 0.15913671
000030 ce f1 99 bd 9f 07 c3 3b ee f0 c6 bc 3b ec 34 bd
       -0.07516824 0.0059518362 -0.024284806 -0.0441706
000040 ef cc d4 bd e9 8f 12 be df e2 fc 3d 4e a5 ea 3d
       -0.103906505 -0.1431271 0.1234796 0.114573106
000050 3e 04 76 bd f2 25 a4 bd 02 a1 f3 3c 48 15 fc 3c
       -0.06006264 -0.0801505 0.02973986 0.030771866
000060 d2 60 9a 3c 58 3a 1f bd 32 53 54 3d 9c ea fa 3d
       0.018844996 -0.038874 0.051837154 0.122517794
000070 58 6f 57 3d 7f a2 23 3d 01 c0 1b be c0 5e 0f bd
       0.05259642 0.03994989 -0.15209962 -0.03500247
000080 c2 27 04 bd cb f4 05 3e 2e c7 c8 3d 6a 1c eb bb
       -0.03226448 0.13081662 0.098036155 -0.007175018
000090 40 86 ae ba 17 db ab 3d 4c 12 86 3c 44 78 92 bd
       -0.0013315156 0.083913974 0.016366147 -0.07151845
0000a0 a4 95 61 3c 27 6c 10 3e 20 ad 2d 3d 18 80 3e 3c
       0.013768587 0.14103757 0.042401433 0.01162722
0000b0 c8 75 c0 3b ff 13 94 3d dd c1 92 bd c4 f1 ca 3d
       0.0058734156 0.072303765 -0.07165883 0.099093944
0000c0 a8 3c c4 3b 46 d1 22 3e 4a ca 29 3e 38 12 9a 3d
       0.005988676 0.15900144 0.16581073 0.07523006
0000d0 99 2e 87 bd 90 ef b7 3a 0f ae 0e be 76 b8 71 bb
       -0.06600685 0.0014033187 -0.13933586 -0.003688363
0000e0 d2 29 00 3e c2 da 48 bd 82 8c 50 3d 9c f1 83 3d
       0.12515953 -0.04903675 0.05091525 0.06442568
0000f0 d2 2f 83 3c 44 87 e1 3d 3c c1 65 3c ec d5 23 3e
       0.016014013 0.11012128 0.014023121 0.15999573
000100 82 8d 66 3d f8 58 53 bd 53 ae 31 3d f0 42 8f 3c
       0.056287296 -0.05159852 0.04337914 0.017487973
000110 74 b0 1d bc 1a 8d 12 bc 9e 18 67 3d 48 8a 5d 3b
       -0.009624589 -0.008944774 0.05641996 0.0033804346
000120 f0 da 8e 3b 88 46 07 3e aa 43 54 bd 00 06 da b7
       0.0043595955 0.132105 -0.051822342 -2.5990419e-05
000130 38 ac 3d bd cc 5e 97 bd 6c 0c 0c 3e 94 7b 05 3d
       -0.04630682 -0.07391128 0.13676614 0.032588556
000140 69 be 88 3d 43 6b a9 3c 51 4e 26 be 88 85 d7 3d
       0.06676943 0.02068103 -0.16240813 0.10523516
000150 44 2c b4 bc 2b 85 ff bc 12 18 ee 3d da d2 78 bc
       -0.021993764 -0.03119143 0.11625685 -0.01518699
000160 1f d5 d2 bd 3f 55 a4 3d 2b c8 84 bd d2 20 02 3d
       -0.10294556 0.08024072 -0.064834915 0.03176958
000170 68 7d e5 3b 1a e0 01 be 35 17 f2 bd 83 09 0c bd
       0.007003475 -0.12683144 -0.11820833 -0.03418876
000180 47 4c f9 bd 8e ba 0f bd ee a3 bc bd 5c 34 a2 3d
       -0.12172752 -0.03509002 -0.092109546 0.07920143

weight f4 [100, 18]
000000 84 8b ac 3b 74 11 f9 3c 62 6d be 3c 89 18 9a 3d
       0.005265655 0.03040383 0.023245517 0.07524211
000010 c7 d1 42 bd d3 d7 c9 bc e6 17 9a 3d 5f 7c d6 bc
       -0.04756334 -0.024639046 0.075240895 -0.026182352
000020 e2 9b 16 bc 60 f6 38 bb 2e 18 9f bd 39 f1 98 3d
       -0.009192439 -0.0028223023 -0.07768284 0.074678846
000030 54 ce 42 3c 04 8d a4 bd 22 8c 78 bc 23 1b a6 3d
       0.011890013 -0.08034709 -0.015170129 0.08110645
000040 90 6c 48 bd 60 6f 9b bd 92 42 0f bc 37 a8 a5 bd
       -0.04893166 -0.075896025 -0.008743899 -0.08088725
000050 ce 0e 19 3d d6 cb 41 3d af 51 93 bd 7c 9a a5 bd
       0.037367634 0.047313534 -0.07193314 -0.08086106
000060 0c fd 12 3c da 94 2c 3c 33 64 ba bc 3a 1f 8d 3c
       0.008971464 0.010533536 -0.022752857 0.017226804
000070 cc 38 c4 3c b0 10 12 bb 5a bd 3f bd 99 1c 83 bd
       0.023952864 -0.0022287779 -0.04681144 -0.06401939
000080 b6 ab a5 bd 4c 80 80 bb e5 8f 9f 3d 6c 3e 9f 3d
       -0.08089392 -0.003921544 0.077911176 0.07775578
000090 3e 99 69 bd 90 c4 a5 3d 70 37 c2 3a 55 78 80 bd
       -0.05703091 0.08094132 0.0014817547 -0.062729515
0000a0 ec 44 d0 3c 31 79 4a bd c1 86 8d bd 94 c6 cf 3d
       0.02542349 -0.049431983 -0.06910468 0.10145298
0000b0 58 b2 b3 3d 66 c2 00 bc 7e b6 94 3d c9 a2 38 bd
       0.08774251 -0.007858848 0.0726137 -0.04507712
0000c0 02 7f 5a bd b0 f8 6f bc f6 54 19 bc ca d1 90 bd
       -0.05334378 -0.014646694 -0.009358635 -0.07071264
0000d0 ae 17 09 bd 9d 91 a5 bd 38 5d 2c 3d 6d 99 93 bd
       -0.03346985 -0.08084414 0.042081088 -0.07206998
0000e0 e2 c9 a2 3d d3 51 96 3d 88 40 89 3d 23 d1 8b bc
       0.07948662 0.073398255 0.067017615 -0.017067498
0000f0 5c 14 94 bd 64 a1 0b be 7f ae a2 bd e0 2a 48 3d
       -0.07230446 -0.13635784 -0.07943439 0.048869014
000100 5a b2 f5 3b 88 60 9a bd f5 1e 9e 3d b4 47 a2 3d
       0.007498068 -0.07537943 0.07720748 0.079238325
000110 5e b2 9c bd 32 f7 77 bd 76 d2 a5 bd 05 8c a0 3d
       -0.07651208 -0.06053848 -0.08096783 0.078392066
000120 a9 82 8e 3c c6 17 ce 3c 8f 08 9c bd 60 2c 78 ba
       0.017396288 0.02515782 -0.0761882 -0.00094670616
000130 be 74 5d 3d 0f 20 4d 3d 38 35 4d bb 50 c4 16 be
       0.054066412 0.0500794 -0.0031312238 -0.14723325
000140 cc 2b 9b 3d de e3 e9 3c c3 0b 9c 3d d5 4a 9e bd
       0.07576713 0.028551038 0.07619431 -0.07729117
000150 b6 1f 54 bc 5a 22 a5 bd fd f7 02 bc 87 01 c8 bc
       -0.012947014 -0.08063193 -0.007993695 -0.02441479
000160 40 06 9b 3d 67 76 57 3c e9 cc cc 3c f4 6f e2 3b
       0.075695515 0.013150788 0.025000053 0.0069103185
000170 a4 af 59 3d e6 aa 5d bd b0 8a 47 bb 27 27 8f 3d
       0.05314602 -0.05411806 -0.0030447654 0.069898896
000180 a6 d0 0e bd 0a 23 48 3c 1e ae 10 bc c0 e5 66 bd
       -0.03486695 0.012215385 -0.008830575 -0.05637145
000190 86 1d 98 3d 5b 9b 1a 3c 4b b1 09 bc 38 53 00 3b
       0.07427506 0.009436454 -0.008404086 0.0019580852
0001a0 e9 d8 95 3d 12 10 1c 3c af 7d 29 bd b7 c3 cd bc
       0.07316763 0.009525316 -0.041379627 -0.025117738
0001b0 a7 93 8f 3d 03 6a a5 bd 28 c0 a4 bd 6a 7b c6 3c
       0.07010584 -0.08076861 -0.080444634 0.02422877
0001c0 d9 3d 31 bd 62 37 e7 3c 41 15 90 3d cc 08 11 3e
       -0.043271873 0.02822465 0.07035304 0.14163512
0001d0 c6 88 66 bd 98 ba 8d 3c 77 5e 8f 3d dc cd 3a bd
       -0.05628278 0.017300889 0.070004396 -0.04560648
0001e0 24 02 99 bd dc d7 98 bd 40 27 ac 3b 86 69 5d 3d
       -0.074711114 -0.07463047 0.0052537024 0.054055713
0001f0 cf b2 94 bd 12 cd a2 3d 8e af a5 3d 9f 85 a3 3d
       -0.072606675 0.0794927 0.08090125 0.079844706
000200 56 e5 a5 3d 80 81 91 bd e0 af 90 3d bb eb 8e bd
       0.08100383 -0.07104778 0.070647955 -0.06978556
000210 b8 14 0c bb 83 40 82 3d 2e cd 8c bd 20 12 af 3d
       -0.0021374654 0.06359961 -0.068750724 0.08548379
000220 a6 8f 53 3c 2f 15 39 bd 51 8a ce 3c e0 33 08 ba
       0.012912666 -0.045186218 0.025212439 -0.0005195718
000230 38 9b 2d bd 16 c7 58 3d c2 5f 55 3d b7 33 fa bc
       -0.042384356 0.05292424 0.052093275 -0.030542238
000240 e2 74 82 3c bc 5a 97 3d 64 2a 3f bb 04 6e a4 3d
       0.015924875 0.07390353 -0.0029169554 0.08028796
000250 8c bc 4c bb 28 07 6c bd 62 57 81 3d a4 f5 2c be
       -0.0031240312 -0.057624012 0.06315495 -0.1689058
000260 01 c7 5e bc 97 15 c1 3d e5 41 89 3d 41 fd a5 bd
       -0.013597251 0.09427946 0.067020215 -0.08104945
000270 b5 c0 a2 bd 3e f0 54 3d 5e af a4 3b 9a 17 ab 3c
       -0.07946912 0.051986925 0.005025788 0.020885278
000280 34 e1 20 3b 8c f3 9e bd 3e c1 a1 bc 3b 2d 91 3d
       0.0024548294 -0.07761297 -0.019745465 0.07088705
000290 c6 8c 9a 3b 14 78 a6 3d 96 fb 9e 3d 96 fa 23 3d
       0.0047164885 0.08128372 0.0776283 0.0400339
0002a0 1d 67 c4 3c 0f e9 56 3e 7a 81 97 3d 58 21 00 bc
       0.02397495 0.20987342 0.073977426 -0.00782045
0002b0 83 80 cd 3c ee b2 0c 3c 60 ea 1d 3a b2 40 99 bd
       0.025085693 0.008587582 0.00060239993 -0.07483043
0002c0 17 5c 98 3d 50 3a 2a 3d 10 21 a5 bd c1 bd a3 3d
       0.0743944 0.041559517 -0.08062947 0.07995177
0002d0 c1 32 9d bd 79 46 5f bc 9a 82 8e 3d 04 db 90 bd
       -0.07675696 -0.013627642 0.06958504 -0.07073024
0002e0 35 98 94 3d 38 aa c8 3a ff 3f a4 bd d4 dc 9a 3d
       0.07255594 0.0015309518 -0.08020019 0.07561651
0002f0 fd 5f a0 3d 3c db 9e 3c 5d cc 9f 3d cb de a4 3d
       0.07830808 0.019391648 0.07802651 0.08050307
000300 06 71 2a 3d ba c6 36 bc e6 92 98 3d 1c 4c a6 3d
       0.041611694 -0.011155779 0.07449894 0.081199855
000310 81 76 4d bd 9c d8 86 3d 2f 59 98 bc 78 bc 24 bb
       -0.050161842 0.06584284 -0.018597214 -0.002513675
000320 b7 9f 92 3d 68 0d 48 bc 1a 72 f3 bc 79 37 c3 3d
       0.071593694 -0.012210228 -0.029717494 0.09532065
000330 ce 57 a4 3d 6c 73 5b 3e 16 23 e9 bc 70 93 94 bc
       0.0802456 0.21430749 -0.028459113 -0.01813671
000340 84 74 ce bc eb b7 9d 3d 10 9b c2 3c 1b b2 0d bc
       -0.025202043 0.07701095 0.02375558 -0.008648421
000350 7e 7b 57 3c 12 1f 0e bc 5c 79 9f 3d 3d 36 c1 bc
       0.013152001 -0.0086744 0.07786819 -0.023585433
000360 ac 46 a1 bd 56 bd 11 3c c4 8d 80 bb e0 35 9d bd
       -0.07874808 0.008895239 -0.00392315 -0.076762915
000370 be 03 01 3c f3 82 a4 3c 4f 77 0b 3d 18 86 6d 3d
       0.007874427 0.020081973 0.03404933 0.05798921
000380 00 f5 39 3a 7a 51 a7 bd 68 3a 91 3d de 0f cf bc
       0.0007093698 -0.08169837 0.07091218 -0.02527612
000390 9e 0e 9f 3d 9e f1 cc 3c 38 21 0b 3d 04 15 0a bc
       0.0776646 0.025017556 0.033967227 -0.008427862
0003a0 9a 51 ae bb b4 0c 26 bb c2 78 c0 bc 59 8a 96 bd
       -0.0053197863 -0.0025337161 -0.023495082 -0.073506065
0003b0 dd 06 c3 3c d8 57 c7 bc 34 3b a4 bd 66 5c 4c 3d
       0.023806984 -0.02433388 -0.080191046 0.049892806
0003c0 d9 a5 ac bc 3d fe ec 3d 58 7a 73 3b 90 b1 5a 3c
       -0.021075176 0.115719296 0.003715178 0.013347998
0003d0 71 03 0f 3c 34 12 07 bc 94 39 cd bc 20 12 7c 3a
       0.008728848 -0.008244086 -0.02505187 0.0009615738
0003e0 4a ba 16 bd e0 96 49 3b 67 51 87 bc 6a 64 60 3d
       -0.036798753 0.0030760095 -0.016518308 0.054783262
0003f0 07 d8 a5 bd 86 d7 ce bc 36 97 d4 3b 6f 4c 9b 3d
       -0.080978446 -0.025249254 0.0064877523 0.07582938

bias f4 [100]
000000 dd 2f e4 3d 1c a9 05 3d 08 7b 65 bc f5 ae 15 be
       0.11141942 0.03263198 -0.014006384 -0.14617522
000010 87 de 10 be 19 90 82 bd e2 ba a2 3d 4a e0 f6 bd
       -0.14147387 -0.06375141 0.07945801 -0.120544985
000020 a1 1e ae bd 26 4d 9f bd 46 10 20 be 93 02 ef bd
       -0.08501936 -0.07778387 -0.15631208 -0.11670413
000030 86 86 17 be fe 48 17 3e 04 c8 21 3d 74 27 7a bd
       -0.1479741 0.14773938 0.03949739 -0.06107278
000040 39 07 d2 bc 64 5a f6 3d 46 31 a5 bc 53 da 92 bd
       -0.02563821 0.120289594 -0.020165097 -0.07170548
000050 5b 7a b9 bd 3a b8 9f 3d 7d 06 c9 3d f9 80 06 be
       -0.090565406 0.0779881 0.09815691 -0.13135137
000060 ae 85 bd 3c ae 05 3d bd 8c 8a a3 bd 15 ca 20 be
       0.023135033 -0.046147995 -0.0798541 -0.15702088
000070 d7 3e 9e 3d 46 72 24 be 41 4f 5d 3d b6 e0 b9 3d
       0.077268295 -0.16059217 0.05403066 0.09076063
000080 7e 04 d3 bc 4a 5c 53 bc c6 8e 9e 3d e9 54 a9 3d
       -0.025758978 -0.012900421 0.077420756 0.082681485
000090 46 b8 8a bd 28 24 37 3d 21 54 cd bd d5 52 96 3d
       -0.067734286 0.044712216 -0.10025812 0.07340018
0000a0 d1 2c 0e be 57 4d 84 3c 0c 82 17 3d 54 88 09 bd
       -0.13884284 0.01615016 0.036989257 -0.03357728
0000b0 93 bf b0 bd a1 3c 60 bd a7 df ac bc 34 e0 1c be
       -0.0863029 -0.05474532 -0.02110274 -0.15319902
0000c0 55 d3 f0 3d 6c c1 e0 3d 91 4a 00 bc 59 f4 ce 3c
       0.117590584 0.10974392 -0.007830278 0.025262998
0000d0 fa 5b c1 3d 22 16 a2 3d c0 49 7c 3d da ac 61 bd
       0.09441371 0.07914378 0.06159377 -0.055096485
0000e0 c6 75 8c bd 9b 35 20 be d9 44 e1 bc 50 54 d3 bd
       -0.06858401 -0.15645449 -0.02749865 -0.10318816
0000f0 c8 2d f4 bd f8 af 1d 3e a6 df 05 be 84 b0 46 3c
       -0.119227946 0.15399158 -0.13073596 0.012127046
000100 08 d8 30 bb 68 10 4a bd 9d d9 e7 3d 0a f1 7a 3d
       -0.0026984233 -0.049332052 0.11320803 0.06126503
000110 f8 ad 73 3d 50 09 c4 3d 6b 39 9e bd 91 82 5a bd
       0.05949208 0.09572089 -0.07725795 -0.053347174
000120 3d 4c c9 bd 03 d0 c9 bc 0c 81 2b bd 45 f6 d3 bd
       -0.098289944 -0.02463532 -0.041871116 -0.103497066
000130 6b 78 a1 bd 24 b6 52 3c f0 44 b1 3d 7f 98 51 bd
       -0.07884296 0.0128608085 0.08655727 -0.051170822
000140 b0 71 fb ba 23 1d 1b be c6 b7 20 be a3 28 64 bd
       -0.0019183662 -0.15147834 -0.15695104 -0.055702817
000150 20 9c 8c bd 6c 0a e9 bd 45 78 21 bd 00 69 d5 bb
       -0.06865716 -0.11378941 -0.03942134 -0.006512761
000160 36 07 28 be 95 ca 11 3e 95 99 e4 bd 92 c8 06 be
       -0.16409001 0.14237435 -0.11162106 -0.13162449
000170 99 41 0e be 27 c3 86 bd 2c 8f cf 3d 08 1d 0d be
       -0.13892211 -0.06580191 0.1013473 -0.13780606
000180 15 dc bb 3d 80 45 d9 3d 6e ff df bc be 9a 88 3d
       0.09172837 0.10608959 -0.027343478 0.0667014

weight f4 [100, 100]
000000 fb 43 e3 3c 16 a3 69 3c 28 47 23 bd 63 26 a8 3c
       0.027742377 0.014260074 -0.03986278 0.020526117
000010 ff b3 2e bd b1 af 04 bd 19 1c 66 3d de a7 6a bd
       -0.042652126 -0.032394115 0.05617914 -0.057288997
000020 7a b9 94 bd a0 9a 71 3a 7e 25 b9 3d 74 36 47 3d
       -0.07261939 0.00092164613 0.09040354 0.048635915
000030 3f 4d 07 bd d2 b2 83 bc e3 90 80 bd b4 da 5b 3d
       -0.033032652 -0.01607648 -0.06277635 0.05367537
000040 bd 0b 9c bc c2 bc ec 3c 2c ae c2 bc 7f 58 ba bd
       -0.019048566 0.0288986 -0.023764692 -0.090989105
000050 10 72 49 bd 81 2a 94 bc 2e ae 4f bd 9a fc 0e 3c
       -0.049181044 -0.018086674 -0.05070322 0.008727217
000060 6e 87 08 bd 50 ce d1 ba c1 8c a7 3d 2c 99 38 bb
       -0.03333228 -0.001600692 0.081811436 -0.002816747
000070 d2 33 4a bd bc 7f 2b 3d ae a3 93 3d b2 6d a8 3d
       -0.049365826 0.041869864 0.07208954 0.08224048
000080 4a 84 f5 3c d2 d9 fc 3d 2c 13 10 bd 02 ae 45 bd
       0.029970307 0.123462334 -0.035174534 -0.04826165
000090 b0 44 fe 3c e8 4a 3e 3c f3 86 a2 3d 2c 64 85 3d
       0.031038612 0.011614539 0.07935896 0.06513247
0000a0 4d 1c c1 3c 3b a1 e3 3d c2 4e b2 bd 9e 99 98 bd
       0.023573065 0.11114737 -0.08706428 -0.07451175
0000b0 f2 02 63 3d 01 f4 ac bd 40 f0 c4 bb 07 6d e6 3d
       0.05542273 -0.084449776 -0.0060100853 0.11251264
0000c0 ee 70 01 bd 9e 92 da bc e9 e7 1a bc 4c 2f dd 3b
       -0.03160184 -0.02668124 -0.009454706 0.006750023
0000d0 16 0e 75 3d a6 1b 02 bd 2c 94 95 bd 17 6e 98 3c
       0.059827887 -0.03176465 -0.07303652 0.018607182
0000e0 e8 08 93 ba 40 06 61 3d b9 c4 62 3d d6 4c 30 3d
       -0.0011217864 0.0549376 0.05536339 0.043042026
0000f0 c7 b5 8f 3d e0 08 5a bc eb 7c 4c 3d 7e 06 57 3d
       0.07017093 -0.01330778 0.04992382 0.052496426
000100 c7 2a 4b 3c 41 e3 90 3d 20 bd fc 3c 22 0e 84 3d
       0.012400336 0.07074595 0.0308519 0.06448008
000110 c0 5f 62 b9 a5 26 37 bc d5 d3 2b bc cc 04 b8 3d
       -0.00021588709 -0.011178647 -0.010487516 0.0898529
000120 b1 c6 0c bd 57 42 01 bd 3b 92 ff 3c 5f b4 78 bc
       -0.034369174 -0.031557407 0.031197658 -0.015179723
000130 64 de 93 bb 21 c6 6f bd d8 18 78 bd 4d 93 5a 3d
       -0.004512595 -0.05853856 -0.060570568 0.053363133
000140 cf 48 c2 bd e0 ec 9a bd be f0 b7 3b 7a e7 68 bd
       -0.094865434 -0.075647116 0.0056134155 -0.05686138
000150 42 8d 2d 3d b7 c0 11 3d e7 65 d6 bd 6a 4f 9c 3d
       0.042371042 0.035584178 -0.10468655 0.076323345
000160 ca fd 4a bd db 7f b4 bd 2b 7d 12 3d bd 1d d0 3c
       -0.04955844 -0.08813449 0.0357639 0.025404805
000170 90 bb 2e bd 6d 47 46 bd 34 75 37 bc fa e9 b7 bd
       -0.042659342 -0.04840796 -0.011197377 -0.08980174
000180 8e 87 0b 3c cf d3 62 bc 54 a1 5a bd 32 ad 06 3d
       0.0085162055 -0.013844444 -0.05337651 0.032880016
000190 84 23 1d bc e5 02 84 bc b8 ae 3a 3d 4c c4 8f bc
       -0.009590987 -0.016114661 0.04557678 -0.017549656
0001a0 f5 b3 89 3c 5d 2d 8e bc 18 00 ef 3c f8 ab 6c bb
       0.016809443 -0.017355615 0.02917485 -0.0036113244
0001b0 cc 74 b7 3d de 8c 8a bc 12 ce 49 3d 3c 62 56 bd
       0.08957824 -0.016912874 0.04926879 -0.052339777
0001c0 b5 f2 b4 bc f5 b6 95 3c 6c 12 4f 3d 2f d3 88 bd
       -0.022088388 0.018275717 0.050554678 -0.06680905
0001d0 e2 27 9f bb 9e a0 9c bc 66 e5 e2 3d 7f 6f f9 3d
       -0.0048570493 -0.019119557 0.110789105 0.12179469
0001e0 31 1c 01 bc 00 64 dd 3a 4e a7 b6 3d d0 4e 7a 3b
       -0.0078802565 0.0016890764 0.089186296 0.0038193949
0001f0 eb ad 26 3d b2 0f 21 bd fe 6b 50 bb cc 11 0f 3d
       0.040693205 -0.03932161 -0.003180265 0.03492908
000200 dc aa bd bc a7 4b 0b 3c f6 ae d8 bc c0 b7 e4 3b
       -0.023152761 0.008501924 -0.026450615 0.0069799125
000210 a4 dc 27 bd fa ed 58 bd e4 e6 82 3d e4 60 a0 3d
       -0.040981904 -0.052961327 0.06391695 0.078309804
000220 f9 96 82 bc ba dd 7d bd 40 f3 56 39 ea 81 1c 3d
       -0.01594113 -0.061979033 0.00020499248 0.038209833
000230 f3 ea c8 3d ea 83 82 bd 7d ee 02 3d 7a db 8e 3d
       0.09810438 -0.06372817 0.03196572 0.069754556
000240 5e 41 58 3c 89 e8 79 3d 62 26 e7 3c 9a d3 d9 bd
       0.0131991785 0.06101278 0.028216545 -0.10636063
000250 72 49 8c 3d d6 85 f0 3c 02 ba 29 bd 24 e1 bb 3b
       0.06849946 0.029360693 -0.041437156 0.005733626
000260 25 e0 9e bd c1 e7 05 3d f7 5e 0f bd fc ee 8d bb
       -0.07757596 0.03269172 -0.035002675 -0.0043314677
000270 f6 bc 6b 3d 00 d2 95 bd 16 a7 69 bc de b6 04 bd
       0.057553254 -0.07315445 -0.014261028 -0.03240096
000280 c0 37 8d 3d 15 18 8e bb 13 06 df 3c ef a1 cf bd
       0.06895399 -0.004336367 0.027224576 -0.10138308
000290 45 7f 16 3d d9 e7 d5 bc 62 08 07 3d 02 b2 cb bc
       0.036742467 -0.02611153 0.03296698 -0.024865154
0002a0 6e fa 0f bd 98 f3 08 3b 50 8a 5e bd ee 30 10 3d
       -0.035150938 0.0020897146 -0.054331124 0.035202913
0002b0 53 aa a8 bd 71 00 6b 3d 51 69 b1 3d 21 9c fb bc
       -0.08235612 0.057373468 0.08662666 -0.030714097
0002c0 ca c0 90 bc 2e 32 22 bc 1d 80 bd 3c 9a 86 84 bd
       -0.017670054 -0.009899659 0.023132378 -0.06470986
0002d0 a0 3c 69 3d 91 80 0b bc e4 3c c3 bc 28 2a ce 3b
       0.056942582 -0.008514539 -0.023832746 0.0062916465
0002e0 f2 b3 33 bd ca 46 0f bc 4a 06 51 3d 10 ba 9b bd
       -0.04387278 -0.008744905 0.05103139 -0.07603848
0002f0 94 68 d3 3c d3 f9 fc 3d cd ba b2 bc a2 01 a5 bd
       0.025806703 0.12352338 -0.02181759 -0.08056952
000300 94 de bb 3c 17 76 4b bc 08 f2 d0 bc b6 31 4f bd
       0.022933282 -0.0124182915 -0.025506034 -0.050584517
000310 cc 36 8e 3d 4e 9b a0 3d 68 fb ab bc 86 33 ce bc
       0.069440454 0.07842122 -0.020993903 -0.025171053
000320 38 8b 4d 3d a0 22 00 3b 35 94 0c bc 6d f2 83 3d
       0.050181597 0.0019551888 -0.008580257 0.064427234
000330 41 dd e7 bc c6 14 09 bd d0 cd 32 bc be 89 a8 3b
       -0.028303744 -0.033467077 -0.010913327 0.0051433733
000340 16 c8 02 bc 95 6c 78 3d 0f f0 90 3d 9f e6 6a 3d
       -0.0079822745 0.060650427 0.070770375 0.057348844
000350 60 4e 86 bb 82 2d 96 3d b2 7c e5 3c 74 17 22 bc
       -0.0040986985 0.07332899 0.02801356 -0.009893287
000360 84 97 ab 3b 68 dc eb 3c 72 9b a5 bd 3a 60 76 bd
       0.005236568 0.028791621 -0.080862895 -0.060150363
000370 34 ce 0e bc ba fe 38 3d 5c d3 9b bc 49 85 eb bc
       -0.008716155 0.0451648 -0.019021682 -0.028750079
000380 1e b1 34 3d 36 4d 13 3d ee a9 b0 bd 5e f9 20 3d
       0.044114225 0.035962306 -0.086261615 0.039300315
000390 e0 c0 f6 bc 38 d5 98 bc 03 fd 97 3d ba 98 94 3c
       -0.030121267 -0.018656358 0.07421305 0.018139232
0003a0 8c 8d a1 bd 4c 71 0c bc dc 3c 92 3d da 3c 88 3c
       -0.07888326 -0.008571934 0.07140514 0.016630579
0003b0 f6 fc 7e 3d bc 1a 0a bd f2 6a 0c 3c f3 ec 75 3d
       0.06225296 -0.033716902 0.00857042 0.060040426
0003c0 56 05 ce bc 3e 02 25 bd 11 33 8c 3c f3 1a 8b bc
       -0.025149029 -0.04028534 0.017114194 -0.016980624
0003d0 36 e3 a8 bd 53 99 2e bd 5a 9c c8 bc 57 99 93 bc
       -0.08246462 -0.04262669 -0.024488617 -0.018017454
0003e0 a8 22 23 bd ec 26 4c bd b0 c4 85 ba 15 6d 74 bd
       -0.039827973 -0.049841806 -0.0010205712 -0.05967434
0003f0 48 5d aa 3b d3 ed 7b 3d ec 3f 7b bc b9 d3 83 bd
       0.0051991083 0.061506104 -0.015335064 -0.06436867

bias f4 [100]
000000 44 4f 4f 3d 57 99 2b bd 7e bf 27 bc 45 2b 88 bd
       0.050612703 -0.041894283 -0.010238526 -0.06648878
000010 71 b6 77 bc 1c 15 28 be 46 b8 20 be 8a 02 7c 3d
       -0.015119181 -0.16414303 -0.15695295 0.06152586
000020 27 2b 07 3d c0 19 29 be 55 bf 27 be a1 1e 28 be
       0.033000138 -0.16513729 -0.16381581 -0.16417934
000030 2f 12 2c be ab 9e ac bd 4c 6f b1 3b ed c6 93 bc
       -0.16803811 -0.08428701 0.005414879 -0.018039191
000040 bd 4e 99 bd 88 d9 9a bb 44 b9 21 be a7 a8 f5 3c
       -0.07485721 -0.004725639 -0.1579333 0.029987646
000050 12 21 25 be bc 38 14 bd fc 87 bb bd 55 6b 20 be
       -0.16125897 -0.03618692 -0.09156796 -0.15665944
000060 05 93 4e 3d b5 cc 20 be 42 a3 6c 3d d2 1d e8 bc
       0.050433178 -0.1570309 0.057772882 -0.028334532
000070 ca cc c0 bc 2a 67 05 3d 30 9a 26 bd d9 58 1f bc
       -0.023535151 0.032569088 -0.04067439 -0.009725773
000080 a4 77 0f bd 50 05 0a 3d b8 08 28 3d 36 cd 85 3d
       -0.035026208 0.033696473 0.04102394 0.065332815
000090 7e 83 18 be 26 ec 23 be e8 39 2a be be 50 0b be
       -0.1489391 -0.16008052 -0.16623652 -0.1360502
0000a0 d2 0b b5 bd fe f2 ea bd 84 f6 68 bd 9a d8 e3 3b
       -0.08840145 -0.11472128 -0.05687572 0.006953311
0000b0 14 5e 8b bc 75 9a 9e bd aa 5d 3f bd 05 80 b8 3d
       -0.017012633 -0.07744304 -0.046720184 0.09008793
0000c0 55 ea db 3c 4e f3 04 be d2 3e 1a be 13 7d 83 3d
       0.026845137 -0.12983438 -0.15063027 0.064203404
0000d0 9c 80 27 be 80 d6 f5 ba 74 67 29 be ea 79 2d be
       -0.16357654 -0.0018755943 -0.1654337 -0.16941038
0000e0 48 ed 5b 3d dc ef f3 bd fe 46 29 3d f7 6c 22 be
       0.053693086 -0.11910984 0.04132747 -0.1586188
0000f0 94 6b 4b 3d 0f be 27 be de 37 05 be 53 9d da bc
       0.04966314 -0.16381095 -0.13009593 -0.026686346
000100 fc 0b 2e be 66 b7 98 bd e2 56 55 3d 8c 4a 16 3d
       -0.16996759 -0.074568555 0.05208481 0.036692187
000110 a1 73 be bd 1a d1 8d 3c 71 54 2c be f5 be 59 3c
       -0.09299398 0.017311621 -0.16829087 0.013290157
000120 1e cd b9 bd 1a 8a 49 3d 02 49 90 bd c4 06 39 bb
       -0.09072326 0.04920397 -0.07045175 -0.0028232792
000130 cd 52 25 be fb 9f 7b 3d 88 15 3f 3d 16 b5 23 be
       -0.16144867 0.061431866 0.046651393 -0.15987048
000140 12 9d db 3c 20 95 e0 bc 73 22 90 bb d7 aa 5f 3d
       0.026808295 -0.027414858 -0.004398638 0.054606285
000150 75 57 23 be 66 c2 1a 3d 5b c2 28 be 38 23 63 3c
       -0.15951331 0.03778305 -0.1648039 0.013863377
000160 a7 8c 29 3c f5 c1 58 bc 80 33 c0 ba 37 91 22 be
       0.010348476 -0.013229837 -0.0014663786 -0.15875708
000170 5c a8 06 3d 46 c6 79 3d 1d 7e 99 3d 44 f3 18 be
       0.032875404 0.060980104 0.07494757 -0.14936548
000180 9c 2e 36 bd 6e d2 82 bc bb 7b 24 be 31 21 9e 3d
       -0.044478044 -0.015969481 -0.16062824 0.077211745

weight f4 [100, 100]
000000 e6 6b 7a 3d 2d db fb bd da b7 cf bd 21 aa f0 bc
       0.061138056 -0.12297664 -0.10142489 -0.029377999
000010 6a e0 94 3c 0d 9d c6 bc e0 2f a0 3d ce 5b 85 3d
       0.018173415 -0.02424481 0.078216314 0.06511651
000020 97 d0 a7 bd f0 35 5a bb 0c 57 cf bc 0b 79 70 bd
       -0.08194082 -0.003329631 -0.025310062 -0.058709186
000030 28 0b ea 3b dc bd 0c 3e 41 27 82 bd 22 65 91 bc
       0.007142443 0.137443 -0.06355143 -0.01774842
000040 88 8c 97 3c 0b 10 e2 bd 3b f7 8a bd 96 8e 84 bd
       0.018499628 -0.11038216 -0.06785437 -0.064725086
000050 a2 65 9f 3d 3d 07 64 3d 20 aa 89 bc b6 7a 0b bd
       0.07783057 0.055670965 -0.016804755 -0.034052573
000060 76 6f 98 bd 83 a6 6e 3d 43 3a e0 3c 67 d9 55 3c
       -0.074431345 0.058264267 0.027371531 0.013052321
000070 97 60 f0 bd d6 80 ce bc c8 16 f7 bc 12 28 90 3d
       -0.11737173 -0.025207918 -0.03016223 0.07038893
000080 6f 98 72 bd 14 f1 2e 3b 2f 15 d5 bd b0 a5 0a be
       -0.059227403 0.0026693987 -0.10404431 -0.13539767
000090 79 d0 85 bc 29 5d fc 3c 3c 8a 0e bd 99 6c 73 bd
       -0.01633476 0.030806141 -0.0347998 -0.05942974
0000a0 ab c1 99 bd 9f cb cf bd 60 24 ad bc 2c ca 7b bc
       -0.07507642 -0.101462595 -0.021135509 -0.015368026
0000b0 17 1e a1 3d 7c f0 ce bc a0 1b 7b 3c af 96 9c 3d
       0.07867067 -0.025261156 0.0153264105 0.07645928
0000c0 61 32 34 bb cb 3e 3e bc db f1 3b 3d 0c 1c d6 bc
       -0.0027495848 -0.011611651 0.04588495 -0.02613642
0000d0 6d 6e 74 bd bc 76 f2 bd 3e a2 7a bd 5b 04 84 bd
       -0.059675623 -0.11839053 -0.061189882 -0.06446143
0000e0 bc b1 d0 3b 48 86 8e 3c a0 3f bf 3b 6e b5 d5 bc
       0.006368844 0.017398015 0.005836442 -0.026087489
0000f0 34 cd 9b bc 6d 28 9a 3d e2 92 a1 bd 6f f7 8f bd
       -0.019018747 0.07527242 -0.07889344 -0.07029616
000100 ea 73 f8 bd 77 82 f7 3c 70 61 18 3c 3b c5 30 bd
       -0.12131484 0.030213578 0.009300575 -0.043156844
000110 05 5d d5 3c a5 fa 33 be 8e a0 e5 bc 6a 77 2b bc
       0.026045332 -0.17576082 -0.02803066 -0.010465482
000120 29 24 a2 bd a1 96 d0 bc 5c f9 13 bd 53 b0 c6 bd
       -0.07917053 -0.02546245 -0.03612648 -0.097016
000130 e0 cc 2b bd d2 b7 30 3c a4 26 14 be 80 c0 16 be
       -0.04194343 0.010786014 -0.14467865 -0.1472187
000140 a9 7e 2a bc 66 1e 68 3d 2c 63 8d 3d 27 4a 8e bd
       -0.010406175 0.056669615 0.06903681 -0.06947737
000150 60 2d 94 3b 95 1a 9b bd 24 18 e0 bc 26 46 ae 3c
       0.0045220107 -0.075734295 -0.027355261 0.021273684
000160 18 ca 8e 3d 12 b8 44 3d ad a2 10 bd 38 07 09 3c
       0.0697214 0.048027106 -0.03531139 0.0083635375
000170 6e c7 12 bd cb 44 af bc e0 59 37 bd 75 5e 8b bc
       -0.035834722 -0.021395108 -0.044763446 -0.017012814
000180 24 17 2b be c6 5f 2d 3d c4 a3 35 3d 45 d6 93 bd
       -0.16708046 0.042327665 0.044345632 -0.07218603
000190 b5 45 c7 bd 5a 9a 40 bd 5e b1 2e 3d e3 b5 5f 3d
       -0.097300924 -0.0470222 0.04264962 0.05461682
0001a0 dc 4c ec bb b3 c2 8e bc 2f 6c 97 3c 98 5e 85 3d
       -0.007211311 -0.017426824 0.018484203 0.06512183
0001b0 5f 54 92 3d 52 3e 5a bd 80 fe 22 bc 36 d8 7c 3c
       0.07144999 -0.05328209 -0.009948373 0.015432408
0001c0 a4 10 4d 3d 2c e1 dc bd 9b 37 8e bd 11 67 a1 3d
       0.050064698 -0.107851356 -0.069442 0.078809865
0001d0 72 29 64 3d 94 aa a1 bc a2 a1 b2 bb e3 70 bd bc
       0.055703588 -0.019734658 -0.005451397 -0.023125118
0001e0 d9 2c 13 3d 85 a1 ef bd 6d 25 ea bd be a8 26 3c
       0.035931442 -0.11700729 -0.1143292 0.010172067
0001f0 52 1f d1 bb e0 1b 91 bb 9a 1a aa bd 88 89 a9 bc
       -0.0063819075 -0.004428372 -0.08305855 -0.020695463
000200 75 86 50 bc 98 67 31 bb 80 4b a5 bd 28 6c cc 3a
       -0.01272737 -0.0027069803 -0.08071041 0.0015596198
000210 a2 d4 b2 bb 74 e6 05 3a 6a d7 2d 3d 50 b1 14 3d
       -0.0054574767 0.00051078876 0.042441763 0.03630191
000220 c8 38 0f 3d 53 96 4a 3d 06 36 02 3c 78 0a a9 ba
       0.03496626 0.049459767 0.0079474505 -0.0012896797
000230 a8 63 29 bd 46 7a a2 bd 27 b0 de bd 92 01 8c 3d
       -0.041354805 -0.07933478 -0.10873442 0.06836237
000240 7f 9e 96 bc 50 14 8b 3c ec e6 93 3d 2d aa 36 bd
       -0.018386124 0.01697746 0.07221779 -0.044595886
000250 c0 89 04 be aa 64 b6 bd 56 64 84 3d 0b ad c0 bd
       -0.12943172 -0.08905919 0.0646445 -0.09408005
000260 3c a4 9d bb 77 fe 89 3d 6e 48 70 bd e8 bf 7e bc
       -0.004810838 0.067379884 -0.058662824 -0.015548684
000270 bc 93 79 3c be 7f 84 bc e3 b2 21 bd 2a f7 63 3c
       0.0152329765 -0.016174193 -0.03947724 0.013913909
000280 97 bf 12 bc 25 20 ea bd 01 a6 ea bc 94 63 d3 bd
       -0.008956811 -0.11431912 -0.02864361 -0.103217274
000290 b6 ba 01 bd 20 2e bb ba e4 96 9e bd 25 3b 88 bd
       -0.031672202 -0.0014280714 -0.07743624 -0.06651906
0002a0 de cd 7a bc 36 75 f8 3b ff 70 9c 3d f9 1f d7 bc
       -0.015307872 0.007582332 0.0763874 -0.026260363
0002b0 86 43 82 bd 8f ce 99 bd 9e b1 a5 3c dd f8 d6 bc
       -0.06360535 -0.07510101 0.020226296 -0.026241714
0002c0 a5 8f f9 bb 51 bd a4 bd 48 e1 7a 3d 46 61 17 bc
       -0.0076160007 -0.08043922 0.06125 -0.0092395
0002d0 aa 1d 69 3d ff 6f 58 bd 4f 23 9c bc 75 ad b9 3c
       0.056913055 -0.052841183 -0.019059805 0.022665719
0002e0 10 51 a9 bc c0 b5 70 bd 3a 58 eb bb 94 5e 80 bd
       -0.020668536 -0.05876708 -0.0071821483 -0.06268039
0002f0 d7 e5 99 3d 48 a0 e5 bd d4 81 5d 3d dd 04 f9 bc
       0.075145416 -0.11212212 0.054078892 -0.030397827
000300 36 3e 33 3d e8 dd 90 ba 4e 41 c0 bd dc 76 7a bd
       0.0437605 -0.0011052461 -0.09387456 -0.06114851
000310 5c 6d 5a 3d a7 e4 d9 bd a2 83 9b 3d bf 71 b9 bc
       0.05332695 -0.10639315 0.07593466 -0.022637246
000320 81 f7 8d bd 6a 1a ac bc 78 b9 ca 3a 1b 21 a2 bc
       -0.06931973 -0.021008689 0.0015466651 -0.019791177
000330 26 93 04 3c c8 c0 cb 3b d4 0b 29 bc 10 e4 fb 3b
       0.008091724 0.0062180497 -0.010317761 0.0076870993
000340 d2 6a 83 3d 2a 88 47 bc 90 09 9b 3d c6 ef 8c 3d
       0.06416859 -0.01217846 0.07570183 0.06881671
000350 23 33 79 bd f1 19 92 bd 7a 55 a4 3d 71 28 13 bc
       -0.060839783 -0.07133854 0.08024116 -0.00898181
000360 f6 09 29 bc 31 9a 7f bd e0 05 5c bc 04 3c 55 3d
       -0.010317316 -0.062402908 -0.013429135 0.05205919
000370 9c 6a a4 3d cd 6b 38 bd 6a fd a0 bd 88 bc 27 3b
       0.080281466 -0.04502468 -0.07860835 0.002559455
000380 51 83 67 3d cb cb cd 3c 33 e7 58 bc bf 3e 13 3d
       0.056521717 0.02512159 -0.013238716 0.03594851
000390 c4 79 d9 3b ba 0c 21 bd 7d 30 89 bd f6 d4 81 3d
       0.00663683 -0.039318778 -0.066987015 0.06339447
0003a0 89 54 29 3d e6 b2 0f bd dc 40 7a bd e4 3b b2 bd
       0.041340385 -0.03508272 -0.06109701 -0.087028295
0003b0 a1 46 a1 bb 66 4f 9b 3a 71 4d 89 bd ff 4a a5 3d
       -0.0049217497 0.0011849224 -0.06704224 0.08070945
0003c0 4a 1d 75 bd 28 f8 a1 3b 08 a9 1e 3b 6e 5e 5d bd
       -0.059842385 0.0049429126 0.0024209637 -0.054045133
0003d0 10 a4 95 ba ed 96 a1 bd 5f 9d 65 bd 80 bb 1b 3d
       -0.0011416692 -0.07890115 -0.056058284 0.03802061
0003e0 54 d1 ed bc fb 5d 91 bd e8 e4 66 3b 28 8e bd 3a
       -0.02903048 -0.070980035 0.0035231654 0.0014461922
0003f0 f9 a5 dc 3c 4e f5 fc bc 25 f8 d3 bb f8 be 1b bb
       0.02693461 -0.03087869 -0.00646879 -0.002376495

bias f4 [25]
000000 00 00 00 00 00 00 00 00 00 00 00 00 00 00 00 00
       0.0 0.0 0.0 0.0
000010 00 00 00 00 00 00 00 00 00 00 00 00 00 00 00 00
       0.0 0.0 0.0 0.0
000020 00 00 00 00 00 00 00 00 00 00 00 00 00 00 00 00
       0.0 0.0 0.0 0.0
000030 00 00 00 00 00 00 00 00 00 00 00 00 00 00 00 00
       0.0 0.0 0.0 0.0
000040 00 00 00 00 00 00 00 00 00 00 00 00 00 00 00 00
       0.0 0.0 0.0 0.0
000050 00 00 00 00 00 00 00 00 00 00 00 00 00 00 00 00
       0.0 0.0 0.0 0.0
000060 00 00 00 00
       0.0

weight f4 [25, 100]
000000 f8 39 ca 3c 7c b5 28 bd d5 87 5a be 92 4c d0 bd
       0.024685845 -0.041188702 -0.21340878 -0.10170855
000010 f6 af f4 bb fc 8c 84 bd 7a e6 9e 3c 58 30 a3 bd
       -0.0074672652 -0.06472203 0.01939701 -0.07968205
000020 3d eb 5a be 08 55 6e 3d 11 d4 0a be 3b ae 2e be
       -0.21378799 0.05818656 -0.1355746 -0.17058651
000030 ee 42 81 bc 95 a8 49 3e 0e 17 94 bd 4c 5c b1 bd
       -0.015778985 0.19693215 -0.0723096 -0.08660182
000040 b3 c7 25 be b7 06 c0 3d 0d e7 06 3e 6e ab 05 bd
       -0.1618946 0.09376281 0.13174076 -0.03263419
000050 66 f3 1d 3d 01 a1 9f bd 3a 55 d3 3d 34 db 26 3e
       0.0385622 -0.07794381 0.1031899 0.16294557
000060 e3 c4 57 3e 05 01 fc 3d 16 49 54 bd 3f 24 5d bd
       0.210712 0.12304882 -0.051827513 -0.053989645
000070 82 a3 8b 3d 9d f8 d1 bb fc 31 d9 bd 01 7d 30 3d
       0.06818296 -0.006407811 -0.10605237 0.043087963
000080 ff 4f 5b 3d 6c c4 99 3d 47 09 34 be e3 bd 77 3a
       0.053543087 0.075081676 -0.17581664 0.00094505976
000090 36 c7 55 be f2 d6 4b 3e a0 3b c5 bd bd a0 d2 3d
       -0.20876774 0.19906214 -0.09630513 0.10284565
0000a0 96 4a 34 3e 83 fb 17 be 22 6c 0b 3e 50 c6 4b be
       0.17606577 -0.14842038 0.13615468 -0.19899869
0000b0 8a 27 a0 bd 12 7a 88 bc 4a 14 56 3e 43 fb 28 be
       -0.078200415 -0.01665977 0.20906177 -0.16502099
0000c0 e6 e7 4f 3d e5 10 ad 3c e4 1f b3 3d 8b 2f f1 3d
       0.050758265 0.02112622 0.08746317 0.11776646
0000d0 80 f9 3a bd d7 95 26 3e 0b 0b 25 3d 10 34 d6 bc
       -0.045648098 0.16268097 0.040293735 -0.026147872
0000e0 09 00 c3 3d 9e 5e 02 be 70 5d 8a bd c1 c2 20 be
       0.09521491 -0.12731406 -0.06756103 -0.15699293
0000f0 bb dc 34 be b6 41 5a be 7a 62 47 3e d1 1e a0 bd
       -0.17662327 -0.21314129 0.1947116 -0.07818378
000100 75 88 45 3e fd 79 e6 bc 2a f6 de 3d b1 36 3c be
       0.19290335 -0.02813434 0.10886796 -0.18380238
000110 9f de 86 bd 1b bc 98 bd 8b 1d e8 bd 3d a3 87 bd
       -0.0658543 -0.07457753 -0.1133376 -0.06622932
000120 15 4d 1e 3e 06 50 8e bd 0a d3 60 3d 0c a0 46 3e
       0.15459092 -0.06948857 0.054888763 0.1939699
000130 3b 4e e2 3d b5 f7 a4 bc 7b 11 49 3e 70 41 8b bd
       0.110500775 -0.020137647 0.19635575 -0.067995906
000140 7a 54 c5 3d d2 f7 23 3e d3 a0 5d 3c 46 ff e6 3d
       0.09635253 0.16012505 0.013527113 0.11279158
000150 b6 55 1f be a9 86 2d be 83 46 4f 3d ce 7f 19 b9
       -0.1556004 -0.169459 0.050604355 -0.00014638828
000160 a1 99 29 3e 8f d2 39 be b8 e3 b6 bd 94 fa 09 be
       0.16562511 -0.18146728 -0.08930153 -0.13474494
000170 85 40 c9 bd 28 61 8c 3d 87 67 c8 3d 17 57 8e bd
       -0.09826759 0.068544686 0.09785371 -0.06950205
000180 89 f4 a5 bd 61 8f 88 bd f1 55 89 bd c8 99 32 be
       -0.08103282 -0.06667972 -0.06705845 -0.17441475
000190 4d 5b dc bd bf 3b c5 3d 99 22 29 be 46 e5 5f 3e
       -0.10759602 0.09630536 -0.16517104 0.21864805
0001a0 66 3c 0b be 5d d6 92 3d a0 2d 48 be 15 db c5 3d
       -0.13597259 0.07169793 -0.19548655 0.09660927
0001b0 cb d2 fb 3d df 31 25 3e ad cc bb 3c 40 2b 42 be
       0.12296065 0.16132306 0.022924745 -0.18961811
0001c0 5b ea 31 3e cb 05 38 3e 4b 27 72 3d 42 df 2a bd
       0.17374556 0.1797096 0.059119504 -0.04171682
0001d0 dc 23 f0 bd 50 cb 9c bd 3b 2c 2e be e2 09 27 be
       -0.1172559 -0.07655966 -0.1700906 -0.16312364
0001e0 7a ec 59 3e d0 01 12 3e c5 64 2e be e7 cb 8b bd
       0.21281615 0.14258504 -0.17030628 -0.06826001
0001f0 90 ca 1b be c9 c2 67 bd 82 47 24 3e ad 9b 81 3d
       -0.1521399 -0.056582246 0.16042903 0.06328521
000200 e6 d1 97 bc 60 a4 56 bd 33 34 29 bd d0 81 2e 3e
       -0.018532705 -0.052402854 -0.041309547 0.17041707
000210 37 bd 4c 3c 48 1c 63 bd 29 b9 2c 3e 78 53 cb 3d
       0.012496284 -0.055446893 0.16867508 0.0992803
000220 c8 22 a9 bd 98 99 5a be b4 7f 47 bd df aa 75 3d
       -0.08258587 -0.21347654 -0.04870577 0.05997741
000230 40 ff e9 bd 0a 76 0c be 8a 3e d6 bd 6f 98 47 be
       -0.11425638 -0.13716903 -0.10461147 -0.19491743
000240 13 f8 7a bc 7f 64 52 be ac b7 b4 bd 42 72 a9 3d
       -0.015317935 -0.20546149 -0.08824095 0.08273746
000250 4f 4a 88 bd a1 96 8c bc e4 82 95 bd 17 e2 56 3e
       -0.06654798 -0.01716167 -0.07300356 0.20984684
000260 65 3b 3f 3e ee 8a 10 3e 2b da e9 bd a5 0d 49 be
       0.18675001 0.14115497 -0.11418565 -0.19634111
000270 21 53 2b 3e 88 6a e4 3c 1a 85 65 bd 5e b4 52 be
       0.1673093 0.02788283 -0.05603514 -0.20576617
000280 76 72 ec 3d fa 94 51 be c1 96 57 3e df c7 16 3c
       0.11545269 -0.20466986 0.21053602 0.009202926
000290 17 6d a6 bc bf e3 d1 bd 20 e9 d3 bc f4 70 ee 3d
       -0.02031569 -0.10248517 -0.025867999 0.11642638
0002a0 82 df 36 3e a8 55 6d 3c 4e 05 ed bc b1 1c 89 3b
       0.17858699 0.014485754 -0.028933194 0.0041843285
0002b0 1b a6 48 bd fb 4e fd bd 7d f2 4b be cf c2 28 3e
       -0.048986536 -0.1236858 -0.1991672 0.16480564
0002c0 38 2c 16 be fb 90 8b bd 26 42 eb bd b5 20 2d 3e
       -0.14665306 -0.06814762 -0.11487226 0.16907008
0002d0 9e 76 42 3e b6 4f ef bd 70 77 3e 3e 1c 2b 79 bd
       0.18990561 -0.116851255 0.1860025 -0.060832128
0002e0 b9 8d 01 3e 0c da 4b 3e fc 61 0c be 45 c3 be bd
       0.12651719 0.19907397 -0.13709253 -0.093145885
0002f0 52 36 3a be c2 80 a4 bd 26 8b 20 3e 44 2d 03 be
       -0.18184784 -0.08032371 0.15678081 -0.12810236
000300 6c 55 91 3c 17 ac 04 3e ff 27 49 bd 42 61 66 bd
       0.017740928 0.12956272 -0.04911041 -0.056245096
000310 38 33 52 3c 0f 8d f7 3d 59 eb ed bc c5 6d 4d 3d
       0.012829594 0.12087452 -0.029042887 0.050153513
000320 25 a4 80 3d 76 c8 00 be 69 e0 fa bb c3 dc b8 bc
       0.06281308 -0.1257647 -0.0076561463 -0.022566205
000330 19 11 94 3d f0 fa b0 bd 09 96 2a be 50 7b 5e 3e
       0.072298236 -0.086416125 -0.16658796 0.21726727
000340 21 f4 d7 3d 8d 7d 1c bd b3 c6 a1 3d ea bf 1a 3e
       0.10544611 -0.038205672 0.07899227 0.15112272
000350 20 ac c7 3d a5 17 0c 3e ca 67 55 be 14 6f 59 be
       0.09749627 0.13680895 -0.20840374 -0.21233779
000360 1e bd 48 3e 8c 24 53 3c 57 78 cf 3d 4d 1b 35 be
       0.19603392 0.012887131 0.10130375 -0.17686196
000370 a3 71 2a 3e 14 9e 74 3d 38 fd fc 3d 0c 0a 46 3d
       0.16644911 0.059721068 0.12352985 0.048349425
000380 56 b7 0c 3e 07 1f 2b be 60 57 21 bd 67 30 4f be
       0.13741812 -0.16711055 -0.039389968 -0.20233308
000390 65 4e 24 3e 5d 7b 36 bc 20 c0 5f be ff 71 9f 3d
       0.1604553 -0.011137811 -0.21850634 0.07785415
0003a0 18 c8 97 bc 69 64 48 be c8 10 8f 3d db 4c 8d bd
       -0.01852803 -0.19569553 0.06985623 -0.06899425
0003b0 d0 24 03 3e d0 04 05 be 94 7d a6 3b bf 2a 32 3d
       0.12807012 -0.12990117 0.005080888 0.043497797
0003c0 08 d9 0a 3d 35 38 fd 3d e9 84 91 bd 62 cc 95 bd
       0.033898383 0.12364236 -0.07105429 -0.073143736
0003d0 9e 2e f9 3d 16 16 86 bd b6 19 8d 3d fa 73 da 3d
       0.12167095 -0.06547181 0.068896696 0.10666652
0003e0 16 19 3d bd bf 04 ff bc 79 4a e9 bd 0f 46 16 3e
       -0.046166502 -0.031130193 -0.11391158 0.14675163
0003f0 33 3f 45 3d 33 f1 38 be 67 38 fb bd 18 cf 95 bd
       0.048155975 -0.1806076 -0.12266617 -0.073148906
