deep_learning/models/GCNLinkPrediction21.pth (torch, 394576 bytes, 8 tensors)

bias f4 [200]
000000 e2 a6 0d 3c fa 6a 05 bd f2 6b 1f 3d 2c 73 58 bd
       0.008645745 -0.032572724 0.038921304 -0.05284421
000010 0a f3 11 3d f1 a5 da 3c cb 61 e4 ba 03 98 0b bd
       0.03563217 0.026690455 -0.0017424164 -0.034080517
000020 55 c7 79 3c 41 c8 03 bd a7 15 bc bb 84 19 cb bc
       0.015245278 -0.0321734 -0.005739886 -0.02479244
000030 4c 68 6a 3d 71 1a 06 bc 0e 12 02 bd 40 8f 70 3c
       0.05722837 -0.008185015 -0.0317555 0.014682591
000040 b4 64 37 bd f4 e0 e4 bc 57 9f 0a 3d d4 95 d0 bc
       -0.044773772 -0.027939297 0.033843365 -0.025462069
000050 e1 46 85 bc e0 79 3e 3d 5f 4f 5c 3b 1b 6f 34 3c
       -0.01626915 0.046502948 0.0033616645 0.011012818
000060 10 c4 e4 3c 36 e5 4a bd 67 56 35 bd 09 54 45 bc
       0.027925521 -0.049535 -0.044271853 -0.012043961
000070 e2 2e 1a bc 70 f7 eb 3c 70 bc 73 bc 35 20 d9 bc
       -0.009410592 0.02880451 -0.01487647 -0.026504615
000080 8c a5 14 bd 6d 7b 8a bc 58 78 2d bd ff 8f 6d 3c
       -0.03629069 -0.016904557 -0.042351097 0.014499663
000090 12 6e 66 bd 4c fc 1b bd 9c 1c 16 bd c6 7e e7 bc
       -0.056257315 -0.038082406 -0.036648378 -0.028258692
0000a0 b0 15 0d bc 7a ce 2d 3a 80 94 4c 3d 9c a4 15 3b
       -0.008611128 0.00066301937 0.049946308 0.002283371
0000b0 dc 19 bf bc 0f af 64 3c 5e 04 05 bd 23 b1 74 3c
       -0.02332776 0.013957753 -0.032474868 0.014934811
0000c0 c3 a3 fc 3c be 19 2b bd e7 04 08 bc 6e 0b 47 bd
       0.030839806 -0.041772597 -0.00830195 -0.048594885
0000d0 0a b0 79 bc c0 9e 55 ba e1 19 d7 3c 5a ac 32 3d
       -0.015239725 -0.0008148961 0.026257457 0.0436214
0000e0 32 15 49 3d fc ba 1d 3d b3 2a 75 3c 78 d6 cf bb
       0.04909248 0.0385084 0.014963794 -0.0063427053
0000f0 69 67 7b 3c 80 c5 45 3d 62 a5 40 3d ac 12 54 bd
       0.015344479 0.048284054 0.04703272 -0.05177562
000100 a2 3e 3f bd a0 dd 94 3c 1f b0 1e bd 10 c7 3b b9
       -0.04669059 0.018172085 -0.03874218 -0.00017907866
000110 ea b4 11 bd d7 03 01 bd 2c 2c 36 bd b6 d5 8e 3c
       -0.035572924 -0.031497803 -0.04447572 0.01743589
000120 a9 0f 3e 3d 01 9f 26 bd 2f 62 0a bd 9b 8f 1e bd
       0.046401653 -0.04067898 -0.03378504 -0.03871117
000130 9b eb eb bc 76 e3 da bc 4e aa 09 ba ed 8b f9 ba
       -0.028798869 -0.02671979 -0.00052515126 -0.0019038894
000140 36 6b 20 3d c5 bf 33 bd 6e 68 0f bd d5 45 48 bc
       0.039164744 -0.043884058 -0.0350117 -0.0122236805
000150 a1 33 68 bc c6 bf 10 bd d9 2c 17 bc 4f aa 19 bc
       -0.014172466 -0.03533914 -0.009227001 -0.009378984
000160 ee 1f c6 bb d9 39 df 3c 5a 80 e8 bc 0d a5 cc 3c
       -0.006046287 0.027249264 -0.028381515 0.024981046
000170 88 d4 e9 3c 03 24 e4 3c 4e 37 26 3d c2 0f 44 bc
       0.028543726 0.027849203 0.040580086 -0.011966648
000180 af 8d cb 3c 69 38 06 bd 95 55 2a 3d 8b 08 16 bd
       0.024847833 -0.03276864 0.041585524 -0.03662924
000190 42 7a 07 3d 14 c6 19 bd b6 42 57 3d 13 a6 55 3b
       0.03307558 -0.037542418 0.052553855 0.0032600209
0001a0 68 7a 13 bd 1c ab 7a 3d 32 5d 4b 3c 51 ee 4f bd
       -0.036005408 0.06119834 0.012412356 -0.050764386
0001b0 b6 0c 18 bd a9 04 e3 3b be cd c4 bc 07 69 56 3d
       -0.037121497 0.006928046 -0.024023887 0.052346256
0001c0 96 0a 32 bc c1 92 b3 bb ac a1 13 bd 16 fe 6d bd
       -0.010866782 -0.005480141 -0.036042854 -0.058103643
0001d0 4a cf 09 bd 7a a5 bb bc fa 52 43 3d 99 11 63 3d
       -0.033644952 -0.022906054 0.047686554 0.055436704
0001e0 23 9a 9d bc 80 3a a9 bc 8c 7c 10 bd ca 43 61 bd
       -0.019238537 -0.020657778 -0.035275027 -0.05499629
0001f0 b0 c9 46 3d 69 79 1f 3d 58 ae 07 3d 8a 55 9f bc
       0.048532188 0.038934145 0.03312525 -0.019449968
000200 1a 6f b0 bc b7 ec 0f bd c7 29 23 bd 4f 13 5d 3d
       -0.021537352 -0.03513786 -0.039834764 0.053973492
000210 d6 d6 92 bc ff 92 3e 3d df a7 13 bd 86 90 de bb
       -0.017924707 0.046526905 -0.036048766 -0.006792131
000220 ba 32 3b bd e5 be f0 3c b0 f5 25 3d ca 93 50 3c
       -0.045702673 0.0293879 0.04051751 0.012730548
000230 c7 62 58 3d 4e 16 bb 3c a4 58 3a bd 04 b4 11 bd
       0.052828576 0.022837784 -0.04549469 -0.035572067
000240 c6 a0 49 bd b9 b9 0e bd 21 12 54 3c b5 a3 a5 3c
       -0.04922559 -0.034845088 0.012943775 0.020219663
000250 09 c6 50 bd 3d 8a 93 3c a1 84 df bc 7a 9a 35 3d
       -0.05097011 0.018010253 -0.027284922 0.044336773
000260 49 6e a7 3c 33 14 3f bd d8 25 70 bc 8a 89 1a 3b
       0.02043833 -0.046650123 -0.01465746 0.0023580515
000270 ab 59 00 bd 6b 95 1f bd e7 83 25 3c 4a 43 16 bd
       -0.031335514 -0.038960855 0.010102249 -0.036685266
000280 21 17 21 3d 19 94 1b 3d 0e 12 be bc b3 00 e9 3b
       0.039328698 0.037983034 -0.023201969 0.007110679
000290 ae 6d e6 bc 8a 1e 19 bd a5 89 76 3d 62 5d 48 bd
       -0.028128471 -0.03738264 0.06018986 -0.04891718
0002a0 e4 bd 50 bb 65 43 cf bc 31 d7 90 bb 92 d3 c6 bc
       -0.0031851465 -0.02530069 -0.004420184 -0.024270806
0002b0 da af b6 ba 94 8b 21 3c a7 0c 21 3d 42 18 66 3c
       -0.0013937906 0.009859938 0.039318707 0.014043869
0002c0 0f 36 7c bc e8 dc e8 39 08 aa bd 39 5c 12 15 bd
       -0.015393748 0.00044415076 0.00036175572 -0.036394462
0002d0 dd 68 1c 3c e6 f7 e1 bc b9 1e cc bc fd 2b 41 3d
       0.009546486 -0.027584027 -0.024916993 0.04716109
0002e0 58 3b 69 3d 1e 38 48 bd cb df 62 bd bd a0 8b 3c
       0.05694136 -0.048881643 -0.055389207 0.01704442
0002f0 24 1f 41 bd 64 0a 1a bd a6 1e da 3c 32 1c 44 bd
       -0.04714884 -0.037607566 0.026625942 -0.04787845
000300 21 95 cd bc 6a 33 29 bd 17 1d 58 3d 67 00 fd 3c
       -0.025095524 -0.041308798 0.052762117 0.03088398
000310 82 b5 40 bd 3a 9a 43 bd 16 a6 b9 bb 0e bb 12 3d
       -0.0470481 -0.047754504 -0.005665551 0.03582292

weight f4 [200, 18]
000000 fd 85 ca bd 5b e9 9a bc e2 5f cb 3d e0 01 48 be
       -0.098888375 -0.0189101 0.099303976 -0.19531965
000010 45 83 66 bd fd 03 f0 3d ad 3a 91 3c 58 38 e5 bd
       -0.056277532 0.11719511 0.017728174 -0.11192387
000020 1e 0b 41 be 52 33 f7 3d ec a7 3b 3d 4e 4f cd 3c
       -0.18851897 0.120703354 0.04581444 0.02506223
000030 24 b7 04 be d6 ad 87 bd 5c f3 bf bd be b1 82 3b
       -0.12960488 -0.066249534 -0.09372589 0.0039884737
000040 fc 0b c8 3d 01 3a 00 be 2a 26 0b be 0c a1 89 3d
       0.09767911 -0.12522127 -0.13588777 0.067201704
000050 51 02 82 bc f4 17 85 bd 49 3a c5 3d 97 11 21 be
       -0.015870245 -0.06498709 0.09630258 -0.15729366
000060 f6 20 19 3e 86 51 02 3e 9d 17 29 3e ae e1 ce 3d
       0.1495398 0.12726411 0.16512914 0.10101639
000070 76 cb 0e be 81 23 33 bd 01 94 e2 3c 57 9d 07 3e
       -0.13944802 -0.04373503 0.027658464 0.13243614
000080 cc 92 8a 3d f5 1f bb 3c f1 6e df 3d 9a 9a 04 be
       0.067662805 0.022842387 0.10909832 -0.12949601
000090 71 95 b3 3c 33 55 d3 3d d3 39 52 bd 96 17 4f 3e
       0.021921845 0.10318985 -0.051324677 0.20223841
0000a0 ec 95 dd bd 2d a4 07 3e 1f 8f 2a 3e 9a 03 c9 3d
       -0.10819611 0.13246222 0.16656159 0.0981514
0000b0 2c 11 3c bd 2e ba c4 bc 6f 3c c2 bd bb 7e 92 bd
       -0.045914814 -0.024014559 -0.09484183 -0.07153078
0000c0 d8 01 33 3d a4 6a 4f 3d 69 88 5a 3d 93 8a f5 3d
       0.04370293 0.05063881 0.053352747 0.119893216
0000d0 14 cb 1a 3d f0 88 1c bd 2d 6d d8 bd cb 8a fc 3d
       0.037791327 -0.03821653 -0.10567699 0.1233116
0000e0 1c 87 99 bd 21 88 04 3e 91 29 f8 bd 99 08 dd 3d
       -0.07496473 0.12942554 -0.12117303 0.107926555
0000f0 00 68 b3 3d 60 66 14 3d de cf 50 bd 35 57 db 3d
       0.08760071 0.036230445 -0.050979488 0.10709993
000100 45 f3 2f 3d 42 f9 9c 3c b0 19 19 bd 89 af e6 3d
       0.04295661 0.019161824 -0.037378013 0.112639494
000110 27 3d 54 bd 81 24 8e 3d 84 f2 8f 3d cf 1c 98 bd
       -0.051816132 0.06940556 0.07028678 -0.0742737
000120 1c 0f bf 3b 84 7a 90 3d 8f d7 9b 3d 58 0b ae 39
       0.0058306586 0.07054618 0.07609474 0.00033196318
000130 40 d4 24 bd 60 d1 ae 3d 4e 8b 4e 3e 7c c9 06 3e
       -0.04024148 0.08536029 0.20170328 0.13162798
000140 34 ad 97 bd a5 bd c4 bc e0 b2 bc 3d 96 1a 4e 3e
       -0.07406083 -0.02401621 0.09213805 0.20127329
000150 14 ca 6d 3d 89 79 83 bb fe ef 96 3d 66 13 e9 3d
       0.058054045 -0.004012291 0.073699936 0.11380653
000160 dc 34 11 3e ab c8 d7 3c 83 cd a0 bd cf 37 18 be
       0.1418032 0.026340803 -0.07851698 -0.1486504
000170 a9 f8 f5 bd 0f a2 45 bd 9d 41 d8 bc 06 43 ea bd
       -0.12010319 -0.048250254 -0.026398474 -0.11438565
000180 be d0 27 3e c6 d4 16 be 86 ae 2b be b4 37 fd 3c
       0.16388223 -0.14729604 -0.16765794 0.03091035
000190 f6 65 aa 3a c9 29 20 3e 33 0f 2b 3e 72 ea 0c be
       0.0013000357 0.1564094 0.16705017 -0.13761309
0001a0 ea a6 ad bd 7d aa 0c bd f2 07 52 bd b8 af 8b bd
       -0.08479102 -0.034342278 -0.05127711 -0.06820625
0001b0 60 b5 ac bb a3 c1 3b bd 6f 18 43 bd 66 5a e8 3d
       -0.005270645 -0.045838963 -0.047630724 0.11345367
0001c0 ed 48 c8 3d 0a d7 b1 3d 37 8b c4 3d 56 6b 06 bc
       0.097795345 0.086835936 0.095968656 -0.008204302
0001d0 e4 3e f3 3d 81 ea bd bd d9 4d 05 3d 47 b0 07 3e
       0.1187723 -0.09273244 0.032544944 0.13250838
0001e0 8e e7 ef 3d 8c e9 30 bd 1d cb d0 bd cc 16 02 3e
       0.117140874 -0.043191478 -0.10194991 0.12704009
0001f0 0f 2d af 3d 13 9e 12 3e 83 b3 45 3d 1e 0b 99 bd
       0.08553516 0.14318113 0.0482669 -0.074728236
000200 a8 ed 9e 3c b0 7a d2 3d a2 93 92 3d d9 73 41 bc
       0.019400433 0.10277307 0.07157065 -0.011807405
000210 e0 f9 b3 3c f4 5b 91 bd f7 ea 91 3d 4d cb 46 be
       0.021969736 -0.07097617 0.07124894 -0.1941349
000220 bd 0b 6b 3c 38 4b 16 be 94 80 03 bd 94 d7 ab 3d
       0.01434606 -0.14677131 -0.032105044 0.08390728
000230 cd 1f a6 bd e5 a4 e6 3d 35 a2 fd bd e7 91 7c bd
       -0.08111534 0.1126192 -0.12384454 -0.06166258
000240 96 61 2a 3e 3d fb e0 3d 8f b1 4a bd 81 10 e5 bd
       0.16638789 0.1098542 -0.04948574 -0.111847885
000250 9a bf 20 3e 34 f1 08 3d e1 57 6e 3d 0c af 1c 3e
       0.1569809 0.033433154 0.058189277 0.1530115
000260 ee cf f2 3a 5d 72 a0 3c 1d f5 ad 3c 0c 0c b7 3d
       0.0018525103 0.019585783 0.021235043 0.08937845
000270 02 87 d5 3d 4f a4 f7 bd c4 c5 8b bd 17 bf 70 3d
       0.10426141 -0.12091886 -0.0682483 0.058775987
000280 52 13 e4 bc 4a 89 bc 3d 36 09 07 3e 0c b6 6e bd
       -0.027841244 0.09205873 0.13187107 -0.058279082
000290 c2 b6 a0 3d 6e bc 9f 3b d6 20 a5 bd d4 c9 78 bd
       0.07847358 0.0048747575 -0.080629036 -0.060739353
0002a0 ef aa 17 be ca 9c b2 3d 00 fe 2a be 1c 49 0d bb
       -0.148113 0.087213114 -0.16698456 -0.002155847
0002b0 bc 5d bc bd 81 73 89 bd fe 76 22 bc e6 27 43 be
       -0.09197566 -0.06711484 -0.009916065 -0.19058189
0002c0 1c 22 bc 3d 8b 54 35 be 10 66 76 3d e5 60 3b be
       0.09186193 -0.17708032 0.060155928 -0.18298681
0002d0 92 05 15 3e 14 c0 a3 3d 59 5d b4 3d 42 9e 4a 3d
       0.14552906 0.0799562 0.08806867 0.049467333
0002e0 8f d9 5c bd ba c5 24 3c 67 14 e0 3d 8a d6 d8 3c
       -0.053918418 0.010056907 0.109413914 0.026469488
0002f0 8f 12 c1 3d c4 86 3b bd 0f 62 42 3d 74 e2 67 3d
       0.09427368 -0.04578282 0.047456797 0.056612447
000300 e2 64 2c 3e c9 f5 5d bd 09 21 a9 3d 47 01 c0 bc
       0.16835359 -0.054189477 0.08258254 -0.02343811
000310 59 0a d7 bd 09 53 c8 bd b0 ce 9f 3d f0 dd 56 bd
       -0.105000205 -0.09781463 0.078030944 -0.05245775
000320 02 6b dc bd 57 58 56 3e c2 9a ac bd 4a 2e cd 3d
       -0.107625976 0.20932136 -0.08427955 0.100185946
000330 ba 24 79 bd b1 bd 13 3e f8 d8 56 3e ce 28 b2 3d
       -0.06082604 0.1442783 0.20981205 0.08699189
000340 50 8b 59 bd 93 54 bd bd f2 6f d7 bd c4 7b e3 3d
       -0.053111374 -0.09244647 -0.10519399 0.11107591
000350 ef 6e d5 bc fc ab a0 3d 6d f6 ac bd 73 7f 5a bd
       -0.026053874 0.078453034 -0.084454395 -0.0533442
000360 90 61 da 3b 5c e8 54 bb 84 14 38 3d c6 33 20 3e
       0.0066644624 -0.003248713 0.04494144 0.1564475
000370 39 70 49 3e e8 47 d7 3d 72 f2 d4 3d 34 55 6c bd
       0.19671716 0.10511762 0.10397805 -0.057698444
000380 34 08 ca bd dc 4b 01 bc 18 55 11 3e 37 cc 39 3e
       -0.09864846 -0.007891621 0.14192617 0.18144308
000390 5b 99 89 bd e2 5c b8 bd 97 31 d5 3d f0 2a 04 3e
       -0.06718703 -0.09002091 0.10409849 0.12907004
0003a0 00 77 0c 3e d9 ea 1d 3e 26 fe 8e bd e8 56 14 be
       0.1371727 0.15421619 -0.06982069 -0.14486277
0003b0 32 2c 08 bd 20 25 24 3e fc 77 c5 bd 9c 53 a0 3d
       -0.033245273 0.16029787 -0.09642026 0.07828447
0003c0 cd 7f e7 3d e4 ff 00 3d d0 79 01 bd 81 f9 5d bd
       0.11303673 0.031494036 -0.03161031 -0.054193024
0003d0 98 92 c5 3d c6 4f 06 be 50 6e 20 be d9 b5 f5 bd
       0.09647101 -0.13116369 -0.15667081 -0.11997575
0003e0 fa 59 4a 3d 12 e3 2b 3e 81 5b f7 bd 29 80 2a 3e
       0.049402215 0.16785839 -0.12078 0.16650452
0003f0 75 c7 a8 3d 06 25 e1 3c 6b 92 b1 3d ab 09 5b 3e
       0.082411684 0.027483474 0.08670505 0.21390407

bias f4 [200]
000000 60 c1 61 bc 18 98 12 bd 78 8b 5c 3b 92 28 9b 3c
       -0.013779014 -0.03578958 0.0033652466 0.018940244
000010 f9 76 98 3c f0 61 11 bd da 07 6f 3c 6f 0a 11 bd
       0.018611418 -0.03549379 0.014589274 -0.03541034
000020 10 64 11 bd 4f f3 3c bd b0 82 97 bb 35 b2 15 3c
       -0.035495818 -0.046130475 -0.0046237335 0.009136726
000030 06 dd 26 bd e2 d7 3c bc 4e 55 32 3c 8d bb 30 bd
       -0.040738128 -0.01152608 0.010884596 -0.043147612
000040 23 3b 16 bd 2b 19 6a 3d 29 c6 12 bd a6 07 11 bd
       -0.03667749 0.05715291 -0.03583351 -0.035407685
000050 70 3b 9a 3c 81 c4 10 bd 07 f3 0f bd 21 5c 0d bd
       0.01882717 -0.03534365 -0.03514388 -0.03451169
000060 89 b8 07 3c 8e 63 3b 3b 64 7e 11 bd 7d d8 aa bc
       0.008283743 0.0028593275 -0.035520926 -0.020855183
000070 b0 e7 8b bc 27 77 11 bd 78 b0 10 bd 35 9b d6 3c
       -0.01707825 -0.035514023 -0.035324544 0.026197055
000080 b9 63 11 bd 8a b1 0c bd 54 7c 11 bd 96 91 9b 3c
       -0.035495494 -0.034349002 -0.03551896 0.01899032
000090 a2 21 81 3d bd 10 9e bc 95 d5 16 bd d5 64 11 bd
       0.06305243 -0.01929509 -0.03682478 -0.03549655
0000a0 8e 96 38 bd a4 3f 4a 3c 71 48 2b bc fa 79 ab bb
       -0.045065455 0.012344275 -0.010454283 -0.0052330466
0000b0 0e 5d 51 3d 8e 19 39 3d 30 64 11 bd 21 96 eb bc
       0.051114134 0.045190386 -0.035495937 -0.02875811
0000c0 fc ff de bc 11 93 86 3c bf fe c4 3c f8 42 a1 3b
       -0.027221672 0.016427549 0.024047254 0.0049213134
0000d0 dc 67 21 bd 4f 82 64 3c 9f 99 1e 3d 04 ef b9 b9
       -0.03940569 0.013947084 0.038720723 -0.0003546403
0000e0 68 69 aa b9 74 f9 44 bd c6 68 c4 bc 19 69 11 bd
       -0.0003250346 -0.04808946 -0.023975741 -0.03550062
0000f0 5c 6a b7 3c 90 96 f7 ba 36 e6 07 bd 39 26 11 3c
       0.022389583 -0.0018889476 -0.03317853 0.008859211
000100 ec 76 7b bb 51 26 e6 bc 84 d7 29 3d 2d 8e 58 bd
       -0.0038370444 -0.028094443 0.041465297 -0.052869964
000110 b3 78 11 bd 6e b3 10 bd 66 c9 0f 3d 06 ef 91 bc
       -0.0355155 -0.035327367 0.035104178 -0.01781417
000120 2c ca 19 bb 61 ea b9 3c 44 dc f7 bc 15 2e 11 bd
       -0.002346645 0.022694768 -0.030256398 -0.035444338
000130 61 6c 0a ba f7 29 11 bc 34 68 11 bd 2d 1d 02 bd
       -0.0005280432 -0.008860103 -0.035499766 -0.031766105
000140 82 66 11 bd b2 66 11 bd 93 32 40 bc 9e c4 92 bc
       -0.03549815 -0.03549833 -0.011730808 -0.01791602
000150 01 70 11 bd 8b 00 0b bd 57 91 0d bd 8c c8 0e 3d
       -0.035507206 -0.033936065 -0.034562435 0.034859225
000160 35 1b 11 bd 0b d0 01 bd 0f 57 18 bd 4d e1 11 bd
       -0.035426337 -0.031692546 -0.0371924 -0.035615254
000170 ff e1 98 3c a1 73 2a 3d f4 71 66 3d 80 27 a6 bc
       0.01866245 0.04161418 0.056261018 -0.020282507
000180 0e 77 f5 3b 7e c3 9b 3c 9a 20 5e bb 66 db 96 3c
       0.007490999 0.019014116 -0.0033893944 0.018415164
000190 17 fe 12 bd 2f 0a c0 bc 5a 65 11 bd d3 58 0b bd
       -0.03588685 -0.023442356 -0.035497047 -0.034020256
0001a0 f4 4a 02 bd 6f aa 20 bd 51 80 11 bd f5 21 07 bd
       -0.031809762 -0.03922504 -0.035522763 -0.03299137
0001b0 2d 39 de 3b 72 65 11 bd 12 e5 8d bc c2 81 3b bc
       0.006781718 -0.035497136 -0.017321143 -0.011444511
0001c0 22 5a 81 ba b5 62 10 bd aa 4c 11 bd 7a e4 cf 3b
       -0.0009868781 -0.035250384 -0.035473503 0.006344375
0001d0 be 5a 11 bd 0e 84 11 bd 4d 73 11 bd 1f 6f e2 3c
       -0.03548693 -0.035526328 -0.03551035 0.027640877
0001e0 70 c5 12 bd 1f 79 12 3d 7b b8 2f bd 5e c2 6e bc
       -0.035832822 0.03576004 -0.042900544 -0.014572708
0001f0 78 f1 ec bc bc 67 11 bd 1e d5 11 bd ac bd fc 3b
       -0.028923735 -0.03549932 -0.035603635 0.0077130403
000200 a8 76 2b bd 00 fe 81 bc 45 68 11 bd 54 c5 b4 bb
       -0.041861206 -0.015868187 -0.03549983 -0.0055166874
000210 d9 64 11 bd 01 11 92 3a fc 5f 11 bd b3 6b 11 bd
       -0.035496566 0.0011143984 -0.03549193 -0.0355031
000220 b8 e9 43 3c ca 07 0f bd 2b 2c d6 bc cf 9e 81 bc
       0.011957578 -0.034919538 -0.026144108 -0.015822796
000230 10 c2 5c 39 a8 08 18 3d 8a 39 11 bd 39 e1 6a bc
       0.00021053129 0.03711763 -0.035455264 -0.014335924
000240 ae 60 11 bd 32 93 43 3c 0a ef 0b bd 2e d4 ac 3c
       -0.03549259 0.01193695 -0.034163512 0.021097269
000250 71 9b 3c bd ea 57 dc 3c 7e 47 11 bd 76 99 d7 3a
       -0.046046678 0.02689739 -0.03546857 0.0016448933
000260 44 c0 d6 bb fa 9d 03 bd 93 f6 a8 bc 49 a0 3a bc
       -0.0065536816 -0.03213308 -0.020625388 -0.011390754
000270 92 21 f7 bc 15 77 39 bd 67 da 1a bd 53 68 22 3d
       -0.030167375 -0.04527958 -0.03780594 0.039650273
000280 77 48 69 3d 38 fd 08 3d 27 29 11 bd 60 43 53 ba
       0.056953873 0.033444613 -0.035439637 -0.0008059051
000290 6d 62 95 3c 20 78 90 ba c2 c8 bb bc 05 89 32 3d
       0.01823541 -0.0011022128 -0.022922877 0.043587703
0002a0 7d aa 0b bd 69 14 18 bc 33 ec 25 bb b9 59 ff 3c
       -0.034098137 -0.00928221 -0.0025317788 0.031170713
0002b0 86 81 86 bc 93 82 3f 3c 47 62 11 bd 26 62 11 bd
       -0.016419183 0.011688846 -0.035494115 -0.035493992
0002c0 45 65 0b bd 43 54 91 3b 64 0c ba bc 32 01 55 bc
       -0.034032125 0.0044350936 -0.022710986 -0.013000773
0002d0 a5 4b 11 3c ce 66 11 bd 6a 2b 8d 3b 11 62 86 3c
       0.008868133 -0.035498433 0.004308154 0.016404184
0002e0 52 60 37 bc a6 bc 71 3c b6 de 83 ba b9 00 12 bd
       -0.011192398 0.01475445 -0.001006088 -0.03564522
0002f0 ff 73 f7 bc e4 f5 ad 3b 09 53 0a 3d a2 f9 02 3c
       -0.030206678 0.0053088535 0.033770595 0.007994087
000300 b8 32 b7 3c 34 41 84 bc 31 17 55 bd aa 78 43 bd
       0.022363052 -0.016144373 -0.05202407 -0.047722496
000310 87 94 17 3d a6 3e 17 bd ed ea e3 bc 1d 96 fd bc
       0.03700688 -0.03692498 -0.027821982 -0.030955369

weight f4 [200, 200]
000000 f4 1d de bd f6 6b 95 3c b9 99 ca bd cc 72 81 bc
       -0.10845557 0.018239956 -0.098926015 -0.01580181
000010 02 a4 b7 bd 88 85 76 3d 3f 66 81 bd 54 56 d2 bd
       -0.08966829 0.06018594 -0.0631833 -0.10270372
000020 8f d7 56 bd 07 6d f4 bd e2 4a 00 bb 2b ab a6 3d
       -0.052451666 -0.11934858 -0.0019575884 0.081381164
000030 9b 0a 0d be 9f 37 9e 3d 70 29 f2 bc 4d ee 3d 3d
       -0.13773577 0.07725453 -0.029560775 0.04636984
000040 e9 c7 6d 3d 6c 4c 7a 3d 5f b8 07 be 84 1c a7 3d
       0.058051977 0.061108038 -0.13253926 0.08159736
000050 e2 d5 bb bd 46 ba 18 bc 66 7a 4c 3d 0a 0a ff bc
       -0.09171654 -0.009321755 0.049921416 -0.031132717
000060 69 03 c5 bc 5c e8 90 3c e8 1f c1 3d 21 97 d3 bd
       -0.024049478 0.017688923 0.09429914 -0.1033156
000070 56 e3 c1 bc 72 d1 05 bd 1c 1b 42 3d 67 ff ae bd
       -0.023667973 -0.032670446 0.047389135 -0.08544808
000080 50 f8 3b 3d 00 61 81 3d 78 27 6c 3d 4e 7e 40 bd
       0.045891106 0.063173294 0.057654828 -0.046995454
000090 56 af d9 bd 3a 4f db 3d c6 cb 6f bd 41 cb 0c 3e
       -0.10629146 0.10708471 -0.058543943 0.1374941
0000a0 7e 83 3a bd 61 fc 1b 3d 71 e6 ae bd 44 eb 41 3b
       -0.045535557 0.038082484 -0.08540047 0.0029589692
0000b0 bb 52 78 3d cd 2c be bd c2 c2 97 3b 1c 04 12 3b
       0.060625773 -0.09285889 0.0046313712 0.0022280281
0000c0 80 f2 ec bb c4 d2 99 bd 85 62 02 be 84 08 8a 3d
       -0.0072310567 -0.075109035 -0.12732895 0.067399055
0000d0 14 60 42 bc b8 6c 79 3c 3e 63 77 3c 67 7d a0 bd
       -0.011863727 0.0152236745 0.015099345 -0.078364186
0000e0 4d f8 0d be 28 77 a4 bd c8 4d 95 bd 65 95 d7 3b
       -0.1386425 -0.0803054 -0.07290226 0.0065790885
0000f0 cf 28 c6 bd 0a 1e 57 3c 30 14 d7 bd e1 15 af 3d
       -0.09675752 0.01312972 -0.10501897 0.08549095
000100 b1 02 87 bd 55 0a c5 3c 5d bf ff bd 92 4f 88 3c
       -0.0659231 0.024052778 -0.124876715 0.016639505
000110 08 4e 4c 3d 34 41 92 bc 60 67 c3 bc 5f 9d f3 bd
       0.049879104 -0.017853357 -0.023853004 -0.118952505
000120 26 01 9f 3d c4 11 4b bd da 40 f8 bc c5 af 45 bd
       0.07763891 -0.04957749 -0.030304361 -0.04826333
000130 f3 f9 c5 bd 34 c3 05 be 34 dc 8d bd 31 dd dd bd
       -0.09666815 -0.13062745 -0.06926766 -0.108332045
000140 28 1b a8 3d 76 d6 98 3d d6 f0 eb bd b5 fc 85 bc
       0.08208305 0.0746278 -0.11520545 -0.016355852
000150 f4 53 82 3c 0c ca 34 3d a7 19 89 bd a0 40 e7 bd
       0.015909173 0.044138 -0.06694346 -0.11291623
000160 20 82 ea b9 fe c2 10 3d bd cf 5a bd 18 52 2a 3d
       -0.0004472891 0.03534221 -0.05342077 0.041582197
000170 a3 97 ad 3d 57 d4 c0 3d 6a 26 59 3c 42 61 d4 bd
       0.08476188 0.094155006 0.0132537875 -0.10370113
000180 18 8b 93 bc 28 48 d2 bd fc f0 e4 bd 8f 39 a5 bd
       -0.018010661 -0.10267669 -0.111787766 -0.08067619
000190 50 bf 84 bb 85 a1 0d 3e a6 91 3b 3c 78 12 ab bd
       -0.0040511265 0.13831146 0.0114482995 -0.08353132
0001a0 19 ec 2c 3c b0 62 93 bd dc 6a 7a bc c0 cd e4 b8
       0.010554337 -0.071965575 -0.015284266 -0.00010910211
0001b0 2c e5 bb 3c 98 a4 ad 3d 7e e2 5e 3d 34 df 8c 3d
       0.022936426 0.084786594 0.05441522 0.0687851
0001c0 96 c1 28 bc 79 cf 1a bd 28 61 12 3e 2e a4 23 3d
       -0.010300061 -0.037795518 0.14294875 0.039951496
0001d0 31 77 a6 bd 18 85 9c 3d 54 98 8d bd c9 9c 1b be
       -0.08128203 0.07642573 -0.0691382 -0.15196528
0001e0 46 e5 6e bd 13 50 4e bd 5b 58 a7 3d 46 1c 41 bd
       -0.05832412 -0.050369333 0.08171149 -0.047146104
0001f0 3e 76 27 bd 9c 12 44 3d d8 69 e7 bc 91 a2 c7 3c
       -0.04088425 0.04786931 -0.028248712 0.02436951
000200 63 96 0d 3d 34 2f 01 3e 52 12 0a 3d df bf c1 bd
       0.034567248 0.12615663 0.033708878 -0.09460425
000210 f4 bc cf bc bd 58 b3 3d ed 49 34 bb f9 da c3 3d
       -0.025358655 0.0875716 -0.0027509884 0.0956325
000220 eb 15 c3 bc 8b d4 55 3d 5c 22 47 3d 6f 78 91 3c
       -0.023814162 0.05220465 0.048616752 0.017757623
000230 ec 86 c1 bb 8b b9 95 3d eb a0 f0 3d 2e 32 da 3d
       -0.0059059765 0.0731078 0.11749443 0.10654102
000240 9e d4 85 bc ce 49 33 bd e6 9a 23 bc 57 8e 1a bc
       -0.016336735 -0.043771558 -0.009985661 -0.0094333505
000250 b1 f1 f4 bd 8b 89 b1 3d 9a d1 59 3c 78 1f 2b be
       -0.119601615 0.08668812 0.013294602 -0.16711223
000260 5e 89 5d 3d 96 4a fb bb 5c 7d 1d 3d 11 38 94 bd
       0.05408608 -0.0076688034 0.03844963 -0.07237256
000270 3e 04 e9 3b 8f 44 ef 3d 2f af 6f bd d8 eb 22 bc
       0.0071111014 0.116829984 -0.058516677 -0.009943925
000280 1d 67 9f bd d0 f2 e6 bd e5 94 d2 bb 0d 1f f3 3c
       -0.07783339 -0.112767816 -0.006426441 0.029677892
000290 65 69 dd bd 35 76 c5 3d 96 fc 14 be a8 9b b7 bc
       -0.10811118 0.09641687 -0.14549479 -0.02241309
0002a0 c6 1a e8 bd e6 64 72 3b 78 bf 57 bd 24 67 bd 3d
       -0.11333232 0.003698641 -0.052672833 0.09248188
0002b0 76 16 0f be c1 c9 1f 3d a2 29 e5 bd 80 ad 3d bb
       -0.13973412 0.039010767 -0.111895815 -0.0028942525
0002c0 ae ea b7 3d da 56 82 3c 71 2f 68 bd 76 10 2f 3d
       0.089803085 0.015910555 -0.05668587 0.042740308
0002d0 55 68 55 3d 75 45 be 3d 4d a4 fa bd 3c 4b 70 3d
       0.052101452 0.092905916 -0.12238369 0.0586655
0002e0 b8 b5 dc bd bf 33 04 be 8d 80 df bd f0 f0 0b bd
       -0.107768476 -0.12910365 -0.10913191 -0.034165323
0002f0 ab d0 86 3d c0 2a a4 bc d5 2d 05 be 35 83 86 3c
       0.06582769 -0.020039916 -0.13005765 0.016419986
000300 ba 41 f1 bd 37 b5 c9 3d 56 8a c1 bd e8 72 82 3d
       -0.117801145 0.09849017 -0.094502136 0.06369573
000310 64 89 c2 3a ae fe e6 3d b6 9b 1a bd 2a cd 8e 3d
       0.0014841971 0.11279045 -0.037746154 0.06972726
000320 29 de 0a be 8b 8b 0c be 6a f4 82 3d 2d 7a 11 be
       -0.1356131 -0.13725106 0.063942745 -0.14206763
000330 65 ed ad bd a9 b6 61 3d bc a6 0b 3c 82 57 d6 ba
       -0.08492545 0.05510584 0.008523639 -0.0016352984
000340 23 0d b1 bb 04 b6 ca bd c5 3c a7 3c c8 1f 6e bd
       -0.0054031773 -0.09897998 0.02041472 -0.058135778
000350 1b f1 9d 3d e2 80 5c 3d 73 88 c4 bd 5c 56 5d 3d
       0.07712003 0.05383385 -0.09596338 0.054037437
000360 f3 5d a2 bc 27 8d 40 3d 61 50 8b 3d 8c af 98 bd
       -0.01982019 0.047009613 0.068024404 -0.07455358
000370 af 26 df bd d1 55 e0 bc 3c 99 61 bd 18 9c 43 bd
       -0.1089605 -0.02738467 -0.055077776 -0.047756284
000380 1a 16 9a 3a 37 1d e5 3d 9e 34 eb bd 68 e6 1c be
       0.0011755854 0.11187213 -0.11484645 -0.15322268
000390 c9 81 27 bd 4d 4c 2c bb f7 c2 5d bc 78 59 2e 3d
       -0.040895257 -0.0026290596 -0.013535253 0.042565793
0003a0 bf bc e9 3c 81 e6 ff 3c 75 92 2b bd ba f9 06 be
       0.028532384 0.031237843 -0.04188772 -0.131812
0003b0 7b f5 b9 bd ce 62 a3 bc bf a0 e6 bd 5b e6 98 bd
       -0.09080025 -0.019944575 -0.11261129 -0.07465812
0003c0 53 ab e6 bd 5f d3 29 3d a7 d6 98 3c d2 da a1 bb
       -0.11263146 0.041461345 0.018657042 -0.0049394155
0003d0 98 3f e8 bb 39 e4 21 3d ae 43 42 3b ae 2d f8 bd
       -0.007087659 0.03952429 0.002964239 -0.12118088
0003e0 63 12 96 3c 3d af 26 3c 45 5a a3 3d 56 84 a5 bd
       0.018319314 0.010173616 0.07976202 -0.08081882
0003f0 d7 da a4 3d 30 44 e7 bc 61 d5 76 3d f9 f5 aa bc
       0.08049553 -0.028230757 0.060262088 -0.020869242

bias f4 [200]
000000 ad ab dc bc 38 0c d7 3c 54 33 11 bd 9d be 50 3c
       -0.02693733 0.026250944 -0.03544934 0.012740758
000010 e4 be e1 3b 26 09 ea bb 6e b1 94 ba 7c 24 16 3c
       0.006889211 -0.007142204 -0.0011344382 0.009163972
000020 17 33 11 bd 56 74 b8 bc b6 1d ce bc 1c 71 f5 bb
       -0.035449114 -0.02251641 -0.025160652 -0.0074902903
000030 9c 6a 91 3b ac a3 86 bb 73 2d 11 bd 0c 25 48 bb
       0.0044377577 -0.0041088667 -0.035443734 -0.003053966
000040 62 f6 0e bd 5b 77 cc 3c f4 66 11 bd 20 cb b1 bc
       -0.034902938 0.024959257 -0.035498574 -0.021703303
000050 41 2f c1 bc 6b b8 88 3c 72 aa 0b 3b 74 f4 88 3c
       -0.023582103 0.0166895 0.002131131 0.016718127
000060 68 67 11 bd 71 09 03 bd 49 67 11 bd 71 7e 85 bc
       -0.035499007 -0.031991426 -0.03549889 -0.016295644
000070 68 c3 59 bc 06 57 4d 3d 05 47 a6 bb 70 9c 98 bc
       -0.013291217 0.05013182 -0.005074384 -0.018629283
000080 10 9b f8 bc d3 7c 3f 3c a4 8b 1e 3d 49 66 11 bd
       -0.030347377 0.011687475 0.03870739 -0.035497937
000090 5d fb bb ba c4 67 a1 3c 28 23 be bc 2c c1 10 bd
       -0.001434188 0.0197028 -0.023210123 -0.035340473
0000a0 75 06 14 3b fb 75 a3 bc c1 03 96 bc 67 67 11 bd
       0.0022586857 -0.019953718 -0.018312337 -0.035499003
0000b0 d3 f7 bc 3c ba 1f 0e bd 96 4e 1a bc 5c 7a 1a bd
       0.02306739 -0.034698226 -0.00941815 -0.037714347
0000c0 ec 0a 1a 3b e0 25 d7 bc 06 da 7a bb 84 1a 20 ba
       0.0023505045 -0.026263177 -0.0038276925 -0.0006107467
0000d0 a6 a7 cc bb f0 60 a0 bc dc d5 b3 bc 13 0a d0 3c
       -0.006245571 -0.019577473 -0.021952562 0.025395429
0000e0 e9 24 ff bc 56 95 b3 3b 8e fa 08 bc 69 67 11 bd
       -0.03114553 0.0054804487 -0.008360518 -0.03549901
0000f0 83 71 87 bb c2 8a 4f 3b 62 67 11 bd b9 bc 4e bc
       -0.0041334047 0.00316684 -0.035498984 -0.012618237
000100 9a 66 01 bd 77 3e 11 bd 74 ef 0d bd 98 7b f7 bc
       -0.03159199 -0.03545996 -0.03465219 -0.030210301
000110 f5 09 9f bc 05 67 11 bd 2a 95 a1 bc 68 67 11 bd
       -0.019413928 -0.035498638 -0.019724447 -0.035499007
000120 80 fe 0a bd 90 d0 5e 39 49 94 b0 3c 35 cc 02 3d
       -0.033934116 0.00021249265 0.021555083 0.03193303
000130 6d d4 bb bc e8 d2 d7 bc 19 36 97 bc 31 5d 11 bd
       -0.022928441 -0.026345685 -0.018458413 -0.035489265
000140 ca 0f 10 bd 2a 46 66 bc 62 0d f1 bc 60 8e 57 3b
       -0.035171308 -0.014054814 -0.029425327 0.0032891259
000150 3a de 12 bd 28 c9 e3 bc c3 11 02 bc 2c fb c9 bc
       -0.035856463 -0.02780588 -0.007938805 -0.0246559
000160 6b d6 90 bb c4 4a 44 ba ac a5 9a 3b a6 05 f1 3b
       -0.004420092 -0.00074879476 0.0047194567 0.0073554097
000170 b0 57 13 3b 73 53 f6 bb 2d 60 11 bd 53 c4 27 bc
       0.0022482686 -0.007517272 -0.03549211 -0.010239678
000180 ce 2f 01 3c e8 f8 bb 3b 72 f7 23 bb c8 12 d3 bc
       0.007884933 0.005736459 -0.0025019315 -0.025765792
000190 cf a7 0f bd c7 e0 8b 3c 59 93 93 bc ea 19 83 bc
       -0.035072144 0.017074956 -0.018014597 -0.016003568
0001a0 7d ba 89 3c 3a 38 d6 3a 76 7c 33 bb 68 67 11 bd
       0.016812557 0.0016343661 -0.0027387417 -0.035499007
0001b0 49 67 11 bd 02 61 11 bd d2 20 84 bc aa 50 f0 bc
       -0.03549889 -0.035492904 -0.016128931 -0.029335339
0001c0 ad c0 ca bc 59 67 11 bd 1e d3 d5 bc b5 c7 06 bd
       -0.024750078 -0.03549895 -0.026101645 -0.0329053
0001d0 68 62 6e bc 30 3e d1 b9 68 32 20 bb 7c 8d 13 3c
       -0.014549829 -0.0003990992 -0.0024444107 0.0090059005
0001e0 03 db a2 bc 96 3d be 3c c4 4c b9 3c e0 79 d0 bc
       -0.019879824 0.023222726 0.022619613 -0.02544874
0001f0 c2 ff 89 bd a3 a9 42 3c cb 85 79 bc e7 00 90 bc
       -0.06738235 0.011881265 -0.015229653 -0.017578555
000200 6a 0a 68 bc 14 48 94 3c 06 2f d4 bc 22 1c 23 bb
       -0.014162639 0.018100776 -0.025901329 -0.0024888595
000210 44 81 f3 ba d4 41 10 bd ed ae 0e bd 0f 76 c9 3b
       -0.0018577953 -0.03521903 -0.03483479 0.006148107
000220 bb aa 30 bd 17 26 89 bc 98 23 d6 bc 08 e1 5f 3c
       -0.04313157 -0.016741795 -0.02614002 0.0136644915
000230 1a 7a d9 bc 80 65 37 3c fa 7b 23 3d 72 99 fc 3c
       -0.02654748 0.011193633 0.039913155 0.030834887
000240 0d 6d b5 3b 20 d2 10 3d 82 d8 a5 bb 3f 5d 77 bc
       0.0055366815 0.03535664 -0.00506121 -0.015097915
000250 39 8b 10 bd 60 08 3f 3a 48 f5 11 ba a2 1c a2 bc
       -0.035289023 0.000728732 -0.0005567861 -0.019789044
000260 7f a1 62 bc d0 5b 10 bd 69 67 11 bd 69 d9 ca 3b
       -0.013832449 -0.03524381 -0.03549901 0.006190468
000270 bd 0a cc 3c 60 67 11 bd 51 67 11 bd 09 aa 21 bd
       0.024907464 -0.035498977 -0.03549892 -0.0394688
000280 d2 b6 c3 3b 64 db 9d 3a b6 7e 15 bb 66 67 11 bd
       0.0059727216 0.0012043533 -0.0022811121 -0.035499
000290 82 e2 3a 3c f3 db 4a bc 42 0b aa 3c 63 67 11 bd
       0.011406543 -0.012381542 0.020757321 -0.035498988
0002a0 d2 7b 97 bc 7e 97 ae bc 1b 44 bb bc 4c bd d0 bc
       -0.01849166 -0.021312471 -0.022859624 -0.025480889
0002b0 7d 18 9a bc 32 b0 00 3a 2a 52 d0 bc c9 ea 0b bd
       -0.018810505 0.00049090676 -0.025429804 -0.034159455
0002c0 95 d5 b0 3c 27 52 8b 3c af b0 90 bb 58 f1 06 bc
       0.021586219 0.017006947 -0.0044155936 -0.008236252
0002d0 79 c7 37 3b 2b 0c c4 bc d2 95 b7 ba 1a 67 11 bd
       0.002804248 -0.023931583 -0.0014006442 -0.035498716
0002e0 c6 51 b1 3b 9a 76 c6 3c 64 0f 8a bc b4 f4 35 bb
       0.0054113595 0.024226476 -0.016853042 -0.0027764263
0002f0 cc 7e 1f bc 07 55 1b bd 28 ff 03 bd ac 31 11 bd
       -0.009734821 -0.037922885 -0.032225758 -0.03544776
000300 f2 fe 0f bd 59 5d 11 bd f2 48 b2 3b 84 f9 0b 3d
       -0.035155244 -0.035489414 0.0054408247 0.034173504
000310 fe 6e 4e bc 24 4d 11 bd 28 46 d3 bb f2 c8 7b bc
       -0.012599705 -0.035473958 -0.0064475723 -0.015367733

weight f4 [200, 200]
000000 56 fb a2 bd 78 8e 1b 3d 96 20 1f 3d 1e a2 91 bd
       -0.07958095 0.037977666 0.038849436 -0.071109995
000010 32 81 b3 3d 85 c3 8e 3d 19 ff 15 3d 6f 75 b0 3d
       0.087648764 0.06970886 0.036620233 0.08616149
000020 ad cf 24 bb 49 85 bc 3d ea c0 a1 bb 26 5b ba 3c
       -0.0025148198 0.092051096 -0.004936327 0.022748541
000030 e1 cd f2 bb 35 c6 a3 bd 26 ab a1 bd 04 0b 67 bd
       -0.0074097966 -0.07996789 -0.07893972 -0.05640699
000040 0a 10 e7 3d 73 47 be bc af c0 91 bd 6b a4 f2 bd
       0.11282356 -0.023227429 -0.071168296 -0.118477665
000050 0a 65 f0 bc 3a 86 08 bd 61 e9 a9 bd bf 61 8d bd
       -0.029345054 -0.033331133 -0.082964666 -0.06903409
000060 98 b8 59 3c 82 db 85 bd 1a a7 da 3b d0 70 c8 bd
       0.0132886395 -0.065360084 0.006672752 -0.09787142
000070 3e 2c 37 bb d6 66 14 3e 92 38 a3 bd 50 ba a2 3c
       -0.0027949954 0.14492354 -0.07969774 0.019864231
000080 b6 1a d8 3d 9c 07 13 be 79 5f af bc 0d de de 3c
       0.1055197 -0.14358371 -0.02140783 0.027205491
000090 ef 3e bc 3d ed d2 83 bc 1a 37 cb 3d a5 da 11 3e
       0.09191691 -0.016091788 0.09922619 0.14243563
0000a0 20 ca a8 bd 1d 4c 57 3d 5f b6 c7 3b 7a b0 0d 3b
       -0.08241677 0.05256282 0.0060947384 0.002162008
0000b0 97 e1 64 3d 52 5c af bd 2f 46 a8 bd fd b2 46 3d
       0.0558792 -0.085625306 -0.082165115 0.04851054
0000c0 1e 8b 40 3d 13 ad 14 be 5d 5e 84 bd 2c b9 b6 3c
       0.047007672 -0.14519148 -0.06463311 0.022305094
0000d0 61 9b e1 3d d0 f9 52 bd df ad 03 bd d6 d1 02 3b
       0.11015964 -0.05150777 -0.03214824 0.0019961498
0000e0 b0 e7 b8 3d 5f 3b bd bd f4 ff 67 3b 08 2a 19 bd
       0.09028566 -0.0923984 0.0035400363 -0.0373936
0000f0 c5 55 a5 bc 9b 10 f6 bd ca 67 87 bd de 2b c1 3c
       -0.0201825 -0.12014886 -0.06611593 0.023580488
000100 be 1f a8 bd 4f ed cd bd bf d0 f1 3c a3 23 9a 3d
       -0.08209179 -0.10055029 0.029518483 0.075263284
000110 d7 5f 5b bd 33 03 dc 3c c0 11 b9 39 05 80 40 3d
       -0.053558197 0.026856994 0.00035299174 0.04699709
000120 aa 75 45 3d cb 83 50 3d 7d 4b 89 bd 10 9c 8e 3c
       0.048207916 0.050906938 -0.06703851 0.0174084
000130 3f a0 4a bd ed 52 33 3d 0d 99 0d 3e a9 9e e2 bd
       -0.04946923 0.043780256 0.13827915 -0.11065418
000140 e0 70 28 3d c9 b2 c7 3d 54 11 c9 bd 33 04 cf 3d
       0.04112327 0.097508974 -0.09817758 0.10108223
000150 94 de 0d bb d6 94 dd 3c c6 f9 d9 3d 27 9e 91 3d
       -0.002164756 0.02704851 0.106433436 0.07110243
000160 2b 37 8e 3d 50 2a 07 be a8 97 c4 3d 5a 14 c9 3d
       0.06944116 -0.13199735 0.09599239 0.09818335
000170 7f 57 41 3d ce 86 33 3c 55 c0 18 be 29 4d 07 bd
       0.047202583 0.010957433 -0.14917119 -0.03303257
000180 59 4f d6 bd c0 f4 02 be a7 f5 36 3d 1f 7a 9f 3b
       -0.10464353 -0.12788677 0.044667866 0.004866853
000190 a5 d3 56 3d 28 be cc bd e7 f1 ee 3d 00 4b 5f 3d
       0.052447934 -0.09997207 0.11667233 0.054514885
0001a0 45 2e cf bd 14 5e a1 3c ee 1f 00 3d 37 d4 ef 3c
       -0.10116247 0.01969818 0.03128045 0.029275997
0001b0 78 1d 03 be ed 57 17 3c ec e0 db bc ce 6d b5 3b
       -0.1280421 0.009237272 -0.02684065 0.0055367714
0001c0 94 c9 0a 3d 10 24 25 bc b5 75 a5 3b ca 78 97 bc
       0.033883646 -0.010079399 0.005049432 -0.018490214
0001d0 8d 8b e9 3d b6 3d 20 3e 9b 3e 72 bb 7a 80 0c 3d
       0.1140357 0.15648541 -0.0036963585 0.034302212
0001e0 70 2d 08 3e 80 3d aa bb b0 9f ae 3c 31 42 72 3d
       0.13298583 -0.0051953197 0.02131638 0.059145156
0001f0 a0 d4 ca bd 19 b8 1f 3e 0a 87 cd bd 1d e5 4f bd
       -0.09903836 0.15597571 -0.10035522 -0.05075561
000200 dc 05 91 3d 7a 6d 53 3d 38 4b 57 bc 17 c5 f5 bd
       0.07081196 0.051618077 -0.013140492 -0.120004825
000210 4d 4c 21 bd e2 59 91 bd 3a d1 5c bb c8 51 65 bd
       -0.039379407 -0.07097222 -0.0033694045 -0.055986196
000220 c9 84 24 3d be 04 ea bc c5 63 18 3d b4 bb ad 3d
       0.040165696 -0.028566714 0.037204523 0.08483067
000230 99 91 07 bd b3 dd 09 be 09 f2 e7 bb f6 27 87 bc
       -0.033097837 -0.13463478 -0.0070784134 -0.016498547
000240 f1 f3 9e bd f9 cd 29 3d 35 e6 a3 3d e2 90 bc bc
       -0.07761372 0.041456196 0.08002893 -0.023018304
000250 f4 b6 d0 bd 54 b3 10 3b 45 5f 90 3d df 1a b2 bc
       -0.101911455 0.0022079544 0.07049421 -0.021741329
000260 52 72 96 3c ca 79 e1 bd cb 2b c7 bd 74 0b 97 3d
       0.018365059 -0.110095575 -0.0972515 0.073752314
000270 3f 3d 8a bd 41 6b ca 3c bd 52 f7 bd 38 d3 b1 3c
       -0.06749963 0.024709346 -0.12076328 0.021707162
000280 37 14 0b be a1 fa ff 3b 8c cb 1b 3e 5d 64 22 3c
       -0.1358193 0.0078118597 0.15214366 0.009911624
000290 06 e0 02 bc cf 4a ab bd 17 b0 ea bd 68 fe 9f 3b
       -0.007987982 -0.08363878 -0.11459368 0.0048826225
0002a0 14 c5 d5 bd 18 29 bc bd a0 74 06 be e4 8b 22 bc
       -0.1043798 -0.091875255 -0.13130426 -0.009921048
0002b0 91 e9 05 3d 88 ec 1a 3d 24 77 e3 3d 28 5a 43 bd
       0.03269345 0.03782323 0.11106709 -0.0476934
0002c0 f2 34 90 bd ca 01 72 bc 94 45 1b bd 44 4d 91 3d
       -0.070413485 -0.014770934 -0.03790815 0.070948154
0002d0 4e fb 9b 3d 32 45 70 bd 7c cd f6 bd 49 05 61 3d
       0.07616292 -0.05865974 -0.12050912 0.05493668
0002e0 a4 06 01 3d b4 61 72 3d 8f 70 13 be 4c a9 d9 bc
       0.031500474 0.05917521 -0.14398406 -0.026569985
0002f0 11 4e 80 bc 7a dd ab bd 97 33 8f bd 6e d7 02 3c
       -0.015662225 -0.08391853 -0.06992262 0.007985933
000300 c2 02 37 3c 3f ea 85 3d 24 30 05 be 65 1d 9b bd
       0.011170091 0.065388195 -0.13006645 -0.07573966
000310 37 e8 9a 3d 77 35 9a 3d 70 f0 90 bd b2 5e 96 bd
       0.07563823 0.07529729 -0.0707711 -0.073422804
000320 c6 8c 4e 3d 3d 40 c7 ba 6b 0e 60 bd fc a1 be 3a
       0.05042722 -0.001520164 -0.05470125 0.0014544125
000330 ca 8d 0b bd 4b bb e1 3d c1 d2 f1 3d 77 8d a1 3c
       -0.034070767 0.110220514 0.11807776 0.019720776
000340 02 9b f5 bd b3 14 87 3d f8 4f 9e 3d 07 12 0d 3c
       -0.11992456 0.06595745 0.077300966 0.008610255
000350 da 76 04 be 5a bd b0 3c 2d b5 b9 3b 16 e7 c8 bd
       -0.12935963 0.021574665 0.00566735 -0.09809701
000360 f8 82 8f bd 4d c8 46 3d c4 14 48 3d 7f 9f 2b 3d
       -0.07007402 0.048530865 0.04884793 0.041900154
000370 98 91 de bc b8 99 b7 bd f7 96 22 3d 8e 90 b8 bd
       -0.027169034 -0.089648664 0.039694753 -0.090119466
000380 6d 42 ee 3b e2 06 e1 bd 34 26 f5 3c c0 08 ca bd
       0.007271102 -0.10987641 0.029925443 -0.0986495
000390 19 e1 1d 3d cc 8d 54 3d c4 1d 83 3c 84 1d dc 3a
       0.038544748 0.05189304 0.016005404 0.0016793464
0003a0 48 da 29 bd bb f4 96 3c 6e 1a ce 3d 06 20 8c bd
       -0.041467935 0.018427243 0.10063635 -0.068420455
0003b0 fa 60 a3 bd e8 aa 97 bb 53 df 1f 3d a5 6e 57 3d
       -0.07977481 -0.004628528 0.039031338 0.052595753
0003c0 e4 99 94 3c 2a ec 05 be 85 1f a4 bd c3 00 84 3c
       0.018139787 -0.1307837 -0.080138244 0.016113644
0003d0 65 0d 87 3d f5 12 27 bd 18 92 b1 bd 9f 6d 5a bd
       0.06594352 -0.040789563 -0.08670443 -0.0533272
0003e0 0c 9c b9 bd 4d 3c ff 3d 2d 9b 15 be 5f d5 49 bc
       -0.09062967 0.12462673 -0.14609976 -0.012318938
0003f0 92 be 03 bd 16 7f 8e bd 06 5e 10 3d 96 de af bd
       -0.032164164 -0.069578335 0.035245918 -0.08587377

bias f4 [25]
000000 00 00 00 00 00 00 00 00 00 00 00 00 00 00 00 00
       0.0 0.0 0.0 0.0
000010 00 00 00 00 00 00 00 00 00 00 00 00 00 00 00 00
       0.0 0.0 0.0 0.0
000020 00 00 00 00 00 00 00 00 00 00 00 00 00 00 00 00
       0.0 0.0 0.0 0.0
000030 00 00 00 00 00 00 00 00 00 00 00 00 00 00 00 00
       0.0 0.0 0.0 0.0
000040 00 00 00 00 00 00 00 00 00 00 00 00 00 00 00 00
       0.0 0.0 0.0 0.0
000050 00 00 00 00 00 00 00 00 00 00 00 00 00 00 00 00
       0.0 0.0 0.0 0.0
000060 00 00 00 00
       0.0

weight f4 [25, 200]
000000 fd 9d 19 3e 54 37 48 bc ed 01 e4 bd bb a9 fd bc
       0.15001674 -0.0122202225 -0.1113318 -0.030964723
000010 4c 8a cc bd 8e a4 26 be 40 00 f2 3d ef f0 8b bb
       -0.099873155 -0.1627371 0.11816454 -0.004270665
000020 b6 24 9b bd 8c 04 ab bb cf 13 58 3d aa f2 25 bd
       -0.075753614 -0.005219048 0.052753266 -0.040514626
000030 b8 42 16 be 53 51 44 bd 83 8a 26 3b 18 b3 0c 3d
       -0.14673889 -0.04792912 0.002541215 0.034350485
000040 78 f0 1b be 48 82 ac 3d a2 00 c2 bc ff 16 9c 3d
       -0.1522845 0.08423287 -0.023681942 0.07621574
000050 4e 74 fa 3d 4c aa 4f bd a2 31 d0 3b da 49 d8 3d
       0.122292146 -0.050699517 0.006353573 0.10560961
000060 a3 09 f4 3d d5 6c 25 be 9f aa a1 bc 91 2e 17 3e
       0.119159006 -0.16154797 -0.019734679 0.14763857
000070 a4 12 d7 3d 57 e6 db 3d dc 90 ae 3c 9c a2 c5 bd
       0.10501602 0.10737293 0.021309309 -0.09650156
000080 e3 77 06 3d c6 2b 31 3d 0e 49 30 3d e7 57 11 be
       0.032829177 0.043254636 0.04303842 -0.14193688
000090 4d e6 03 3c f5 dc 82 3d 01 79 42 3d f3 3b 0b be
       0.008050513 0.063898005 0.04747868 -0.13597088
0000a0 ab 80 dd 3c ed 64 f2 bb 40 91 5c 3d 8a 8f 04 bd
       0.027038893 -0.007397285 0.05384946 -0.032363452
0000b0 3a 90 3b bd 8d d3 15 be 5d 28 e1 3d 0b d9 a3 bd
       -0.045791842 -0.14631481 0.10994027 -0.08000382
0000c0 65 f9 10 3e 4d cf 24 3e 79 b6 0a be 61 60 06 be
       0.14157636 0.16094704 -0.1354617 -0.13122703
0000d0 f5 36 26 3e 78 55 cd 3d ea 4b 02 3e 64 30 82 bd
       0.16231902 0.100260675 0.12724271 -0.06356886
0000e0 95 7d 8b 3d 0f 80 f9 3d f2 05 34 bd 8f e9 eb bd
       0.06811062 0.12182628 -0.043950982 -0.11519157
0000f0 15 17 1d be 5e 04 c7 3d d3 a3 e0 3d 01 dd 23 3d
       -0.15340836 0.0971763 0.10968747 0.040005688
000100 3a ea 64 bd 9a a3 5c 3d f1 60 1c 3e 35 51 26 3e
       -0.05588744 0.05386696 0.15271355 0.16241916
000110 37 4f 71 bd 12 8e 1d be bd e1 0e be 70 57 f3 3d
       -0.058913436 -0.15386227 -0.139533 0.11881912
000120 b8 d5 2d bd d7 38 b1 3d 17 63 a2 3d 08 ec 02 3e
       -0.042440146 0.086534195 0.07929056 0.12785351
000130 11 cc 20 be 3a 44 13 3e 96 76 a4 3d 93 bc a6 3d
       -0.15702845 0.14381495 0.08030431 0.081414364
000140 36 8c 25 be c6 55 d1 bb ff 2a 0e be fa ac 08 be
       -0.16166767 -0.006388399 -0.13883589 -0.13347235
000150 5b b8 bf 3d 32 f0 cd bd 2f 0f f6 3d 09 f5 ed 3d
       0.09361335 -0.10055579 0.12014615 0.11619002
000160 34 3a 18 3e c8 e5 10 3e f3 80 d6 3d 8e 01 3c bd
       0.14865953 0.14150155 0.10473814 -0.04589992
000170 52 46 04 3c 31 d2 87 3d c3 8d 96 3d 7e d8 92 3d
       0.008073406 0.06631888 0.07351258 0.07170199
000180 59 4c c1 bc 98 d3 9a 3d 7a 5e 04 be 81 c4 e4 bd
       -0.023595976 0.075598896 -0.12926665 -0.11170293
000190 a2 8a da 3c 21 ab 74 3d d6 76 16 be e8 1d 1e 3e
       0.026677433 0.059733514 -0.1469377 0.15441096
0001a0 a4 50 fd bd 34 b8 93 3c e5 9d 2a bd 23 4d f3 bb
       -0.123688966 0.01803217 -0.041654486 -0.007424967
0001b0 25 f5 ef 3d 9e 22 16 bd 88 fa 5d bc 79 d4 8e bc
       0.117166795 -0.036654107 -0.013548501 -0.0174353
0001c0 37 6e 3e 3d 12 bf 20 be f4 32 c9 bd 52 4a 16 bd
       0.046491828 -0.15697888 -0.09824172 -0.03669197
0001d0 f9 af 18 3e c6 57 fd 3d 08 68 1f be 35 e6 7b bd
       0.14910878 0.12370257 -0.15567029 -0.06149884
0001e0 a8 0e 3f 3d e5 4b 07 be 0a 2e 06 be 71 92 0e 3d
       0.046644837 -0.13212545 -0.131035 0.034807626
0001f0 6d 66 1e bd 92 69 d4 bc c8 3a a6 3d 4f 08 d9 3a
       -0.0386719 -0.025929246 0.081166804 0.0016558262
000200 42 2d 20 3d 7c 67 1c 3d ad 33 0e be c0 95 f5 3d
       0.03910566 0.038184628 -0.138869 0.11991453
000210 47 0a c2 3d ee 44 11 3d 97 16 21 3e 86 f9 c0 3d
       0.094746165 0.035466127 0.15731274 0.09422593
000220 44 ae e8 bd 12 e1 18 be 52 7b 9a bd f7 d4 a4 3d
       -0.113613635 -0.14929608 -0.07543053 0.08048432
000230 09 49 8e bd 1c 95 bd 3d ea 90 a7 bd 28 3c 59 3d
       -0.06947524 0.09256956 -0.08181937 0.053035885
000240 7a 5b e5 3d fb 78 5c bc 13 cc c3 bc 7e f6 cd bd
       0.111990884 -0.013456578 -0.023901021 -0.1005678
000250 09 74 48 bd 8f 6c ff 3c cd f2 4a 3d 58 cf 14 3d
       -0.048938785 0.031179694 0.04954796 0.03633055
000260 bb 96 d7 3d ed e1 1f be 60 d3 11 3e 1e a9 ef bd
       0.105267964 -0.15613528 0.1424079 -0.117021784
000270 8d 3e 4b 3d d8 51 9f bd 1d 52 ec 3d 2f ef 0c be
       0.0496202 -0.07779282 0.11539099 -0.13763116
000280 9d d4 ff bd e2 58 0c 3e 8a 6c dc 3d 9f a0 19 3e
       -0.12491725 0.13705781 0.1076289 0.15002678
000290 49 63 ad 3c 32 6d 0d be 5b 8f 1a 3e c8 91 ab bd
       0.021165507 -0.13811186 0.15093748 -0.08377415
0002a0 58 f0 4b 3c e8 49 1e 3e 33 d6 0a 3e 96 10 6f bd
       0.012447439 0.1545788 0.13558273 -0.058365427
0002b0 e6 a2 10 be c1 82 a1 bd a9 a1 1f be 84 c5 23 3e
       -0.14124641 -0.078862675 -0.15589012 0.15993315
0002c0 8b e2 08 bd d9 d4 1e be f9 7b d4 bd 54 4a ca 3d
       -0.033419173 -0.15510882 -0.103752084 0.09877458
0002d0 7b fb 2d bc 6a 83 1d be 44 71 42 bd 92 9f ff bd
       -0.01061904 -0.15382162 -0.0474713 -0.124816075
0002e0 40 8d 30 bd 28 ec 10 3e d3 7e 18 bc fa b1 d5 3d
       -0.043103456 0.14152586 -0.009307581 0.10434337
0002f0 49 59 01 3e 03 5e 11 be 1b 8f 26 3e 80 a0 f3 bd
       0.12631716 -0.14196019 0.16265528 -0.11895847
000300 ad 37 26 be 62 60 df bd b2 cf 19 3e 81 56 b0 3c
       -0.16232176 -0.109070554 0.15020636 0.021525623
000310 11 a7 3e bc 56 d9 e8 bd 2f 23 ec 3d 61 bb d2 3d
       -0.011636511 -0.113695785 0.11530148 0.10289646
000320 92 09 38 bd 05 5d d9 bd 7f e3 5e bd 57 0c 3e 3c
       -0.044931002 -0.10613445 -0.054416176 0.011599622
000330 28 62 21 3c 29 31 15 be 9a c2 b9 3c 91 b7 dd 3d
       0.009850062 -0.14569534 0.022675801 0.10826028
000340 5e 5a 25 3e d7 81 87 bd 93 5e 8b bd 30 8b d7 3d
       0.16147754 -0.06616562 -0.06805148 0.10524595
000350 59 f6 97 3d 2e 73 36 3d 78 09 30 3c 6e 83 a6 3d
       0.07420034 0.044543438 0.010744445 0.08130537
000360 96 aa ba 3d c0 38 fe bd eb a2 ce bd 3f 2f b1 3c
       0.09114568 -0.12413168 -0.10089668 0.021628974
000370 2d 0a ad 3d 05 18 87 3d 7f 27 ab 3c 24 f8 a3 bd
       0.084492065 0.06596378 0.020892857 -0.080063134
000380 75 4e 82 3d 86 f5 8b bd ee c9 cb 3d a7 02 09 bd
       0.06362621 -0.06833939 0.099506244 -0.033449795
000390 b9 39 e9 bd 67 05 a5 3d 9d c6 b1 bd d0 64 b4 bd
       -0.11387963 0.08057671 -0.086804606 -0.08808291
0003a0 c1 37 0a be 0d 57 ae bc eb 54 63 3d 53 31 ac 3d
       -0.13497831 -0.021281743 0.055500906 0.08407845
0003b0 70 1f 51 3d 53 ef a7 bc c6 bf 85 3d 3c 5d 36 bd
       0.05105537 -0.02049986 0.065307185 -0.04452251
0003c0 ac 34 c6 bd 59 37 d0 bc bc 53 49 bd fc 24 24 be
       -0.09678015 -0.025417017 -0.04915212 -0.16029733
0003d0 dc 8c fa bd d4 91 75 3d 79 d9 b0 bc 80 aa 17 3e
       -0.12233898 0.059953526 -0.021588074 0.14811134
0003e0 9f 84 70 3d 85 c1 ba bd 8e 81 05 3e 47 bc 26 be
       0.058720227 -0.09118942 0.13037702 -0.1628276
0003f0 39 6e ca 3c 23 e0 ea 3d ed 86 8d 3d 58 c8 e5 bd
       0.024710761 0.11468532 0.06910501 -0.11219853
