deep_learning/models/GCNLinkPrediction27.pth (torch, 564000 bytes, 10 tensors)

bias f4 [200]
000000 c5 5e bb bb 49 54 29 bd 09 60 a7 3c 28 f7 71 3b
       -0.0057180845 -0.041340146 0.020431535 0.0036920998
000010 91 eb 23 bd 9c 2b e9 bc 30 af de 3a ee 0d f0 bc
       -0.040019576 -0.028463177 0.0016989466 -0.029303517
000020 48 ec f2 39 d1 6e 34 3b 3a f8 4a 3d 7a 59 53 3d
       0.0004633388 0.0027531872 0.049553134 0.051599003
000030 a7 3d 69 3c fa 42 4d bd d0 4c c8 3c 43 9a ae bc
       0.0142358905 -0.050112702 0.02445069 -0.021313792
000040 69 2b 85 bc 25 3d 5d 3c 2c f7 06 3d ed ff d2 3c
       -0.016256051 0.0135033475 0.032950565 0.0257568
000050 f4 aa 00 3d 08 19 a9 bc b2 72 2c 3d 28 8a a9 3b
       0.031413034 -0.020641819 0.04210157 0.00517394
000060 00 ef 35 3d fc 9c 33 ba 9a af ae 3a 1c 52 06 bc
       0.04441738 -0.00068517006 0.001332748 -0.008198287
000070 bb 9b 55 3b 1e e7 d7 bc 37 cd 04 bb d8 7e 72 bc
       0.0032594043 -0.026355322 -0.002026392 -0.01480075
000080 2d fd 1d 3b d2 85 42 3d 21 ba 30 3d 54 00 e7 bb
       0.0024107203 0.047490902 0.043146256 -0.0070495997
000090 63 7f c0 bb f7 94 2d bc 7d d4 28 3c 66 3c 5a 3d
       -0.0058745607 -0.010594598 0.010304567 0.053280257
0000a0 d5 1e 52 3d 91 8c 0d bd c4 7d cf 3b 18 19 24 3b
       0.051298935 -0.034557883 0.006332131 0.002503937
0000b0 d2 1c 01 3d 3c 31 bc 3c 58 1a 4f 3d b2 cd 51 bd
       0.031521626 0.022972696 0.050562233 -0.051221557
0000c0 d1 a6 2a bd dc 7f 90 39 d7 1c 94 bc c1 9f 8c bc
       -0.041662995 0.00027561083 -0.018080158 -0.01716602
0000d0 cc de 4b 3c f9 71 32 bb 02 33 15 3d 31 49 9a 3b
       0.012443256 -0.0027228578 0.036425598 0.004708432
0000e0 6e 24 d1 3a b6 2c 46 3d ff c5 ce 3b 7f a0 3d bc
       0.0015956291 0.048382483 0.006310224 -0.01157391
0000f0 f2 f4 a8 bc be b6 f3 bc 3e dd 28 bd d8 b2 3c bd
       -0.020624612 -0.029750224 -0.041226618 -0.046068996
000100 1f 1d f4 3c 01 9c e8 bc 4f 3d 24 3d 8c c5 d9 bc
       0.029799042 -0.028394701 0.04009753 -0.026583456
000110 16 c5 bc 3c ad fb ca bc 2b 72 a5 bc 21 56 e9 3c
       0.023043197 -0.024778211 -0.020196041 0.028483452
000120 98 6f 62 bc c2 3b 44 bc 72 d4 dd 3b 26 ae 47 bc
       -0.013820551 -0.011977138 0.00676971 -0.012187516
000130 d2 87 37 3d 0e 91 31 3d e0 a6 85 39 8e 9f 9b 3c
       0.044807263 0.043351226 0.00025492068 0.01899698
000140 50 30 c6 3c b2 93 8a 3c da 57 cd 3c 10 25 5a 3d
       0.02419296 0.01691613 0.025066305 0.053258
000150 7c 07 10 3d ee 33 86 3c ce 6c 61 3d 22 ab 18 bd
       0.035163388 0.016382184 0.055035405 -0.03727258
000160 8a 97 20 3c 13 55 b0 bc d6 7a 16 3b 00 e2 ba b8
       0.009801755 -0.021524942 0.00229614 -8.911267e-05
000170 72 b3 07 3d ac 4b f0 3c 71 62 c6 bc 86 c4 84 bc
       0.033130117 0.029332958 -0.024216862 -0.01620699
000180 62 f9 00 bc 83 a3 31 3b 57 d7 8b 3c 08 08 03 bc
       -0.0078719575 0.0027105517 0.017070455 -0.00799752
000190 5c c1 96 bb 76 bf 3d 3d 5e db 0c 3b 0b 54 98 3c
       -0.004600687 0.04632517 0.0021493058 0.018594762
0001a0 36 d1 fe bc ee 53 08 bd 44 df b0 bc c9 ca 8e bc
       -0.031105619 -0.033283167 -0.021590836 -0.01743068
0001b0 01 9e ab bc d9 41 9c 3c 37 57 36 bc 9f b2 86 bc
       -0.020949366 0.019074367 -0.011129192 -0.016442595
0001c0 40 c4 b0 ba e8 46 1b 3d ee 57 2b 3c 04 14 75 bc
       -0.0013486221 0.03790942 0.010457976 -0.014958385
0001d0 0d bb ba bc 9a 72 fd bb 8e 83 08 3d d6 a6 e2 bc
       -0.02279427 -0.007734609 0.033328585 -0.027667444
0001e0 ec f7 96 bb a4 3d dc bb dc 4f ca ba f0 b2 5c 3d
       -0.0046071913 -0.0067212153 -0.0015435177 0.053881586
0001f0 9a b0 18 bd 4e 3f 44 3d 00 5c 84 3a a6 5d 31 3c
       -0.037277795 0.047911935 0.0010098219 0.01082555
000200 62 27 57 3d c6 27 b0 bb 12 58 ee bb db 04 12 3d
       0.052527793 -0.005375835 -0.0072736824 0.03564916
000210 04 1b 7b bc e7 21 0f 3d 8d 5d 93 3c 57 5a 15 bd
       -0.015326265 0.03494444 0.017988944 -0.036463108
000220 cc 76 b4 bc f2 44 d4 3c 54 f6 b4 ba b1 7c 1e 3d
       -0.022029303 0.025911782 -0.0013806322 0.038693134
000230 f2 74 66 bc 3b 0a 5f 3d 0c 45 1d bd b0 25 be 3c
       -0.014065968 0.054453116 -0.038395926 0.02321133
000240 6e 96 18 3d e6 87 47 3d 5e bd a1 ba ac b9 3e 3d
       0.037252836 0.048713587 -0.0012339761 0.04656379
000250 20 84 f7 bb 27 49 03 bd fd 59 a9 bc 2c 34 4f 3d
       -0.0075535923 -0.032052185 -0.020672793 0.050586864
000260 5d 77 24 bd 7e 54 6f bc 08 8f 25 ba c7 16 25 3d
       -0.040152896 -0.014607547 -0.0006315564 0.040304925
000270 6c 57 3b 3d 13 a7 52 3d d7 38 7a 3c 12 5e 34 3d
       0.04573767 0.051428866 0.015272341 0.044035025
000280 83 c8 7f bb fe 01 0a bb af 81 47 3d 51 6a 42 3c
       -0.0039029426 -0.0021058316 0.04870766 0.011866168
000290 1e 42 20 bc ee df 4a 3d 46 96 6c bc 2e 8b b5 bb
       -0.009781389 0.049529962 -0.014440125 -0.005540273
0002a0 c6 bc 2c bd 42 c7 da 3c 9f 30 26 bd 9f 5d 14 bd
       -0.042172216 0.026706342 -0.040573712 -0.036222097
0002b0 9c bc 15 bd 6d 0f 4a bc 34 cb 9e bc d0 75 5c 3d
       -0.036556825 -0.012332779 -0.019384004 0.053823292
0002c0 0e 21 c1 bc 19 a6 06 bd 1f 35 70 3c 34 17 bb 3b
       -0.023575332 -0.032873247 0.014661103 0.005709553
0002d0 d7 b0 94 bc 67 b1 4d 3b 0c 8b c6 bc 7e 8b 90 bc
       -0.01815073 0.0031386258 -0.024236225 -0.01764464
0002e0 ed c2 1d 3c 4d 64 fc bc dc 78 3d bd c0 ba 7e bc
       0.009628993 -0.030809546 -0.04625784 -0.015547454
0002f0 07 0b 83 3b b0 67 64 3d 8a 06 eb 3c 0c fc 18 3b
       0.0039991173 0.055762947 0.028689642 0.002334359
000300 00 37 ee 3c 74 03 ea bc 7d 48 3f 3d cb 20 8b bc
       0.02907896 -0.0285661 0.04669999 -0.01698341
000310 77 2e b7 bc 0d e8 fd bb 00 56 a2 bc 94 08 0d 3a
       -0.022361023 -0.00774861 -0.019816399 0.00053800014

weight f4 [200, 18]
000000 78 bf 42 bd 54 fc 69 bb e1 4f 7d 3c fd 49 fe bb
       -0.04754588 -0.0035703378 0.015460939 -0.007760285
000010 c4 f1 f7 3b b0 90 b1 ba 00 36 b5 bc 53 23 1f bc
       0.0075666625 -0.0013547149 -0.022120476 -0.009713012
000020 1c 53 8c 3a 94 84 92 bd 34 ab 73 3b 0a eb 8b 3d
       0.0010705921 -0.071541935 0.0037180902 0.068319395
000030 ce 36 07 bd 6c 96 83 bb de 55 79 bd 38 2f f1 3c
       -0.03301125 -0.0040157344 -0.060872905 0.029441461
000040 19 7b 99 3d fa 5b 48 bc 46 2c 0d 3c 9c 4c d0 bb
       0.07494182 -0.01222896 0.008616513 -0.006356789
000050 90 76 c4 3d e0 1b 7d 3d 32 ba 04 3b 7a 2d 8b bc
       0.095929265 0.06179416 0.0020252583 -0.016989458
000060 ba 3c 59 bd a4 19 67 bd 38 48 46 bd 0c b4 ca 3d
       -0.05303643 -0.056420937 -0.048408717 0.098976225
000070 04 da a5 bd 2f ea bd 3b e7 45 82 bc 29 36 82 bc
       -0.08098224 0.005795739 -0.015902473 -0.015894966
000080 a9 92 be bd 32 e2 85 3c 1c 4c c4 bd 1e bb c0 bd
       -0.09305317 0.01634321 -0.09584829 -0.0941069
000090 db da 8d 3d 64 0a b0 3d 72 fa a3 3a ac 67 13 3b
       0.06926509 0.08595732 0.0012510552 0.0022492213
0000a0 9a 5a 58 3c 18 ac 73 bc f6 6f e0 3c db 8f a0 3d
       0.013205195 -0.014872573 0.027397137 0.07839938
0000b0 ac bd 2f 3c e6 ab be 3d f4 bf 48 3d 12 b0 04 3d
       0.010726374 0.09310131 0.049011186 0.032394476
0000c0 1f 4c 0a bc 58 00 ca 3b 2e 53 ff 3c 0a 3e 94 3d
       -0.008441 0.0061645918 0.031167593 0.072383955
0000d0 16 df b0 3b 47 c1 3c 3b 48 bd b6 3a d8 c1 b2 bb
       0.0053976877 0.0028801726 0.0013941908 -0.005455237
0000e0 51 a1 e6 3c f7 07 04 bc d4 d5 a6 bb df ee 85 3c
       0.028153094 -0.00805854 -0.0050914083 0.016349254
0000f0 e0 0d 62 bb 0e 0e 0b 3e 9e 7f 84 bd 29 6c 51 3d
       -0.0034493133 0.1357958 -0.064696535 0.05112854
000100 f3 47 4d 3d ad 64 78 3b 80 cf 94 bd 8c 4f bd 3d
       0.050117444 0.0037901804 -0.0726614 0.09243688
000110 24 06 60 bb cc 6b 33 bd d7 41 87 3c d0 a3 00 3a
       -0.0034183348 -0.043803975 0.016510887 0.00049072225
000120 00 62 85 3d f7 26 3f 3d 0f 54 65 3c b5 c7 83 bb
       0.06512833 0.04666802 0.013997092 -0.0040216097
000130 46 90 b9 bd 8c 69 1c 3c 6c 61 57 ba 27 62 5f 3d
       -0.09060721 0.009546649 -0.0008216116 0.054536965
000140 07 e2 e7 bb 70 18 59 bd c5 c3 14 bd 3f 2a 68 bc
       -0.007076505 -0.05300182 -0.036319513 -0.0141702285
000150 5e ff dd bb fc da a4 3d 0e 63 47 bd d6 a0 8c bd
       -0.006774827 0.080495805 -0.04867845 -0.068666145
000160 3c a0 67 bd 37 95 70 bc 7f 36 06 bc 1d 73 b4 bd
       -0.056549296 -0.014684013 -0.008191704 -0.088110186
000170 c2 cc 96 3d 9b d9 55 bc 2f 58 5a 3c ca ed 7d 3c
       0.07363273 -0.0130523695 0.013326689 0.015498588
000180 c8 da 0c 3c 83 e7 c2 bc 6c 01 90 3c cc f7 d6 bc
       0.008597083 -0.023792034 0.017578803 -0.026241206
000190 20 58 a9 bb f2 34 d3 bc d2 ea 9e 3d 1f 29 c1 3d
       -0.005167976 -0.025782082 0.07759632 0.09431671
0001a0 20 30 9f 3a 28 9a ab bb b9 23 83 bc 62 b1 6d 3c
       0.001214508 -0.0052368827 -0.016008245 0.014507623
0001b0 b0 d4 81 3d b6 71 98 3d c2 70 1d bd 3b 5e c0 3d
       0.06339395 0.07443564 -0.038437612 0.09392973
0001c0 df 13 b3 3b ea 55 a6 3b 2c 59 46 3d 85 0d c4 bc
       0.0054650153 0.0050761597 0.048424885 -0.023932228
0001d0 de d3 84 3c 1c 73 84 bd 9a c2 c1 bc 99 c1 0e bd
       0.016214307 -0.06467268 -0.023652364 -0.034852598
0001e0 67 e1 27 3d 5a 09 2e 3c 35 3f 35 3c f4 31 68 bc
       0.040986445 0.010622347 0.011062433 -0.014172066
0001f0 70 94 84 bc d9 b0 88 bd a3 97 3c 3d 0a d2 8a 3d
       -0.016184062 -0.06674356 0.04604305 0.06778343
000200 a8 f8 6a bc f5 d4 09 3d 6c 62 71 bc 63 06 48 3c
       -0.014341511 0.033650357 -0.014732938 0.012208554
000210 56 a3 29 3c ac da a3 bc 15 53 a6 3d f1 80 68 bd
       0.010353884 -0.020001732 0.081213154 -0.056763593
000220 b1 5a 75 bc 16 fe 82 3d 90 06 64 bc c3 03 fc 3c
       -0.014975236 0.06396119 -0.01391758 0.030763512
000230 74 ad 0a bd d0 8e 97 bc 72 a9 5f bc 01 10 0b 3d
       -0.033856824 -0.018500715 -0.013651239 0.03395081
000240 ce 6a be 3d 58 d7 cf 3a b2 d1 9a bc 04 ed 62 3d
       0.09297715 0.0015857024 -0.018898819 0.055401817
000250 60 32 6e 3c c2 65 af 3d 35 cf 0b bc 1a ef 86 3d
       0.0145383775 0.08564331 -0.008533289 0.06588574
000260 f9 6c 47 3d 44 01 41 bd 67 b4 a1 bd bd 71 02 bd
       0.04868791 -0.047120348 -0.07895737 -0.03184675
000270 4c 53 15 bc c0 03 4c 39 72 3d 87 bd bb b5 af 3d
       -0.009114098 0.00019456353 -0.06603517 0.08579584
000280 40 41 c1 bd 0c 34 22 bd 7f b5 d5 bb 4e 63 a5 bb
       -0.094362736 -0.039600417 -0.00652188 -0.0050472384
000290 37 39 31 bd 71 1e a5 bd 6e be 4c 3d fc 7d 91 3c
       -0.043267455 -0.08062447 0.049986295 0.01776027
0002a0 2e 67 e9 ba 00 50 93 bd 22 14 ed bb e7 41 ac bd
       -0.0017807239 -0.07192993 -0.007235066 -0.084110074
0002b0 20 24 9a 3d 3a 5e 18 bd f8 e0 b0 3c b4 56 97 bb
       0.075264215 -0.037199236 0.021591648 -0.00461849
0002c0 f5 a4 2b bc ac 2e c9 3b 41 84 3d bd 10 fe 6f 3d
       -0.010476341 0.006139597 -0.046268705 0.058591902
0002d0 94 c4 ae 3c b0 2a 5a 3d 92 6f d6 bc 44 62 d2 bb
       0.02133397 0.053263366 -0.026176248 -0.0064204056
0002e0 9f 27 b8 3d b2 9e a6 3d 2f e7 86 bd 29 99 3d 3d
       0.08991932 0.081357375 -0.065870635 0.046288643
0002f0 a0 f2 81 3c 1c 91 6c bd 97 2b a0 3d 7f d6 13 3d
       0.015862763 -0.057755575 0.07820814 0.03609323
000300 bb 14 82 3c 70 8b 48 3a 30 0d a0 b9 01 4d 14 bd
       0.015879026 0.00076501723 -0.00030527404 -0.03620625
000310 93 4d 4e bc 7b a0 86 bd 80 29 85 bd 30 d1 87 bb
       -0.012591737 -0.06573578 -0.06502056 -0.00414481
000320 5e af 0d 3d ff 9a 70 bc ba 47 b8 3d 88 c4 5e 3d
       0.03459107 -0.014685391 0.08998056 0.054386646
000330 f4 18 be ba 30 8e fe 3d 46 6c 9f 3d 0f 9e 2b 3d
       -0.0014503286 0.12429464 0.077843234 0.041898783
000340 2a 66 30 3d 66 80 87 3b 10 d1 a9 bd 5b a8 81 bc
       0.04306618 0.0041351793 -0.08291829 -0.015827348
000350 80 fb 5e 3c 02 e0 a2 3d ac 03 c9 3c e0 d2 91 3b
       0.013609767 0.07952882 0.024537884 0.004450187
000360 ab 27 12 3d 98 48 3f bb 39 a1 4a 3c 05 88 74 3c
       0.03568236 -0.0029187556 0.01236754 0.014925008
000370 9a 9d 7d bd 01 13 1a 3c 75 21 af bd 1c 23 18 3d
       -0.06191788 0.009403945 -0.08551303 0.037142858
000380 3f 2a 4d 3d 12 3b 98 bc ac f7 35 bb 08 07 4a 3d
       0.050089117 -0.018582854 -0.0027766032 0.04932311
000390 e2 51 81 bd 18 b8 6f 3b 7e b7 94 3d 3a 39 4d bd
       -0.06314446 0.0036578234 0.07261561 -0.050103404
0003a0 36 f4 5a 3d 4d 74 65 bc dc 1c ab bc e4 55 14 3d
       0.053455554 -0.014004779 -0.020887785 0.036214724
0003b0 6e 10 3c bc b0 41 14 3d 76 21 78 3d 20 bc 40 3d
       -0.0114785265 0.036195457 0.060578786 0.04705441
0003c0 68 30 aa 3b 68 88 28 3a 48 24 9d 3c 2c a0 d5 3c
       0.0051937588 0.00064290175 0.01918234 0.026077352
0003d0 1c 8f 75 3c 58 10 14 ba 32 e8 bc 3d a6 31 22 3c
       0.014987733 -0.00056481874 0.09223975 0.009899532
0003e0 f6 0d a5 3d 0d 0b 85 bd 54 df 71 3c 90 5e 46 bb
       0.080593035 -0.064962484 0.014762718 -0.0030268766
0003f0 8b 83 13 3c 89 f4 bf bb 46 41 b0 bd 2d 92 62 3c
       0.00900353 -0.0058580083 -0.086062 0.013828796

bias f4 [200]
000000 42 c7 48 3c 36 5c 0c bb e1 5b 7b bc 98 24 d5 ba
       0.012254538 -0.0021417267 -0.01534173 -0.0016261516
000010 5e 78 f4 3b 6b 60 e9 3c d7 d8 fb bc 39 81 2c bb
       0.007460638 0.028488358 -0.030743046 -0.002632214
000020 98 1b 49 bc f8 95 8f bb 2e 91 1e 3b 8c 36 8e bc
       -0.012274645 -0.0043818913 0.002419542 -0.017359994
000030 2b 5b 87 3c 81 b6 2d 3b 79 07 7b 3d 76 a9 57 bc
       0.016522964 0.0026506486 0.061286423 -0.013162961
000040 0c fb e1 3b 36 d1 df bc 49 0e b6 bc 30 b9 79 ba
       0.006896382 -0.02732144 -0.022223609 -0.0009526191
000050 d0 43 65 bc b3 0b dd 3b 16 6a 9f bc d3 bc 02 bd
       -0.013993219 0.0067457794 -0.019459765 -0.031918358
000060 c5 89 08 bd 06 5f 16 bc ac 02 02 3d 1a c7 d0 3b
       -0.033334512 -0.009177929 0.03174083 0.006371391
000070 be 59 5c 3c dd e1 08 bd 56 b9 f5 bc 8b cd 7f 3c
       0.013449131 -0.033418525 -0.029995602 0.01561297
000080 12 18 83 bc 32 a5 c6 bc 65 12 2b 3d a9 45 63 bc
       -0.016002689 -0.024248693 0.04176559 -0.013871589
000090 2f 6b f3 bb 9f 6d 09 3d 96 9e 20 bd 7c ec 01 3b
       -0.0074285488 0.03355181 -0.03921374 0.0019824794
0000a0 34 12 85 bc a2 dc 2d bb 62 7f 09 3d 64 97 60 3d
       -0.016244031 -0.0026529212 0.033568747 0.054831877
0000b0 b3 9e c5 bc 5a c1 b9 bb 24 ba 31 bc 03 e7 f7 bb
       -0.024123525 -0.0056688013 -0.010847602 -0.0075653805
0000c0 44 e1 7c 3d 40 ee 0b bd cb fd 4c 3d e0 18 7e 3a
       0.061738268 -0.03416276 0.050046723 0.0009693038
0000d0 62 1a c6 3c e0 dd 62 bc 36 e7 0b bd 6f 23 f2 3c
       0.024182502 -0.013846844 -0.034156047 0.029557912
0000e0 a8 48 9a 3c a0 d0 4c 3b f7 8f e2 bc 89 a1 3b bc
       0.018833473 0.003125228 -0.027656538 -0.011452087
0000f0 e6 0e d4 3b 3e 65 ab 3b c0 a0 3f b9 a4 67 07 bd
       0.0064715026 0.005230575 -0.00018275063 -0.033057824
000100 99 67 06 3d 40 2c 1d bc d6 06 eb 3c b6 bb 7c 3c
       0.032813642 -0.00959307 0.028689783 0.015425613
000110 33 75 f2 bc 98 18 3c bc d2 d6 4c bc a2 7c d2 3b
       -0.0295969 -0.011480473 -0.012502389 0.006423549
000120 38 c3 32 3d 5f a9 f4 bc a6 e1 b5 bc 20 3e 2c 3a
       0.043643206 -0.029865919 -0.022202324 0.00065705366
000130 de f0 09 3b e3 04 db bc 5f 8d 65 3d 25 1a fa 3c
       0.002104811 -0.026735729 0.056043025 0.030530045
000140 5d f2 51 3d d2 ef 1f bc cd ff 21 3c 81 6e 20 bd
       0.051256526 -0.009761767 0.009887648 -0.039167885
000150 6b 98 1f bd 8c 7f 1d bc fa ff 72 bc 14 e5 92 ba
       -0.038963716 -0.009612929 -0.014831537 -0.0011207187
000160 36 8a de bb 84 16 91 bb a1 e3 63 3d 95 fe 04 bb
       -0.0067913784 -0.004427733 0.055637006 -0.0020293344
000170 55 2c 46 3d 76 2f 2c 3c e4 8b 93 bc 61 f9 09 bd
       0.048382122 0.010509362 -0.018011041 -0.033685092
000180 ec ee 32 bd 0e 06 0a bd 05 5c 24 3d a8 30 2f bd
       -0.043684885 -0.03369718 0.04012682 -0.04277101
000190 ed d5 0d 3d 09 07 0b bd 76 2c c6 bc aa 1a 21 bc
       0.034627844 -0.033942256 -0.024191123 -0.009833017
0001a0 f6 d1 8e bb 51 1e c5 bb 35 36 1b 3b e0 ef 3b bc
       -0.0043585254 -0.006015577 0.0023683433 -0.011470765
0001b0 ea f0 3d 3d 6c f0 b1 bc 13 3f 12 bd 83 ec ce bc
       0.04637233 -0.021721087 -0.035704684 -0.025259262
0001c0 02 0c 0c bc 8c ef e0 3c 51 2f 4b 3b e7 e7 83 ba
       -0.008547785 0.027457975 0.0031003545 -0.0010063619
0001d0 52 0b a8 ba 68 f8 bb bb 81 cb c7 bc 7f b2 ee bc
       -0.0012820757 -0.0057363994 -0.02438903 -0.029137848
0001e0 04 8f 9c 3c e4 e2 05 bd d7 9f 20 3d 94 3c a8 bc
       0.019111164 -0.032687083 0.039214935 -0.020536698
0001f0 2a 92 03 bd d4 d2 d6 3c 3d ef d7 bb c6 46 0a bc
       -0.032121815 0.026223578 -0.0065897987 -0.008439725
000200 6b 5a cc bb 4a 43 4c 3c fd d0 0a bd 7c fd cb bc
       -0.0062363646 0.012467215 -0.033890713 -0.024901144
000210 a0 59 42 3a af 6b 18 bd 54 2c 12 ba 58 52 bf bb
       0.0007413868 -0.03721207 -0.00055760634 -0.0058386736
000220 ad 9e 2e 3d 94 07 f6 bc 8c ba d6 3a f8 23 c1 3c
       0.042631794 -0.03003291 0.00163825 0.023576722
000230 9b ff 77 3c 1c a7 84 ba 60 2e 49 3a c5 b1 05 bd
       0.015136625 -0.0010120603 0.0007674452 -0.032640237
000240 bd f5 bd bb 12 6a 01 bb 61 9b 8d bb a3 bf 38 3c
       -0.0057971166 -0.001974706 -0.004321501 0.0112761585
000250 99 10 a4 bc 3e 65 30 bd cc f9 54 3c fc cb 43 bb
       -0.020027446 -0.043065302 0.012999009 -0.0029876223
000260 0f f3 21 bd cf df 56 bc bd 0b c4 bc 32 c1 44 3d
       -0.03953844 -0.013114884 -0.023931378 0.048035808
000270 38 bf 5a 3a 5a 19 7d bc 88 07 69 3d 82 cb ef 3c
       0.0008344534 -0.015447939 0.056891948 0.029271845
000280 8f 34 17 3c 00 df c1 bc a0 70 ba 3c 45 33 13 3d
       0.00922884 -0.023665905 0.022758782 0.035937566
000290 ef 42 fd 3b 15 23 15 3d 06 ac df 3c e5 86 20 bd
       0.0077289264 0.03641041 0.027303707 -0.039191145
0002a0 ba 27 84 bc 48 18 c4 3c 17 74 d1 3c 8d f7 49 3d
       -0.016132224 0.02393736 0.025568051 0.04930835
0002b0 a0 c1 b3 b8 e4 16 0a bd 89 ff 42 bc 89 a9 03 3c
       -8.5714506e-05 -0.033713236 -0.011901745 0.008036026
0002c0 7c 12 34 bc bf 4c f0 bc 29 eb 66 bc 66 13 8e bc
       -0.010990735 -0.02933347 -0.0140941525 -0.017343234
0002d0 ed e5 bf 3c 65 cb e5 bc f0 a3 1c bd a5 47 47 3d
       0.023425067 -0.028051088 -0.03824228 0.04865231
0002e0 08 bd cf ba 67 f9 03 3d 29 a1 a4 bc 98 d9 22 3b
       -0.0015849182 0.03222027 -0.020096378 0.0024848934
0002f0 79 77 58 3c fe 4e 0b bd f3 6e 06 bd 08 06 46 3a
       0.013212078 -0.03401088 -0.032820653 0.00075539993
000300 a0 b8 c9 b8 a6 8e fe bc 22 7e c9 3c ce e4 24 3d
       -9.618816e-05 -0.03107388 0.024596278 0.040257268
000310 bd 12 09 bd 4d 83 3d bd 10 37 d2 b9 60 2f f2 bc
       -0.033465136 -0.046267796 -0.00040095346 -0.029563606

weight f4 [200, 200]
000000 81 68 f4 3c 2a de c4 3b d6 c0 ea bc 81 e1 08 bc
       0.029834988 0.0060079293 -0.028656404 -0.008354546
000010 66 82 34 3c a6 5c 81 3b 48 c0 9c 3c 4e 92 24 bc
       0.011017418 0.003947812 0.019134656 -0.010044647
000020 93 f1 bb 3c 40 a5 38 3b ab 1d 60 bb f6 00 ae bc
       0.02294234 0.0028174669 -0.003419737 -0.021240693
000030 7e b1 69 bb dc 69 54 3c 14 07 45 3c b0 10 e1 39
       -0.0035658772 0.012964692 0.012025613 0.00042927777
000040 a8 71 58 3c 99 03 38 3d 05 fa 8a 3b f8 0f ba 3b
       0.0132106915 0.044925306 0.0042412304 0.005678173
000050 58 18 c1 bb 2a 7d 3e 3d 8c f2 a1 bb f7 cb cf 3b
       -0.0058927946 0.046506085 -0.004942244 0.006341453
000060 e4 00 5d 3b 18 5a c3 3c da ef b1 bc 00 1e ac b9
       0.0033722455 0.023846671 -0.021720815 -0.00032828748
000070 fc 57 cc ba d0 16 69 bc 8e 93 7d bc e6 f9 66 3c
       -0.0015590186 -0.01422663 -0.015477074 0.014097666
000080 c2 04 20 3c 2d 93 b3 bc fa 42 7b bc ce 64 2a 3c
       0.009766759 -0.021920765 -0.015335793 0.01040001
000090 12 e9 a0 3b 62 b2 10 bd 8a ab 85 bc e0 5c 22 3c
       0.0049105966 -0.03532637 -0.016317148 0.009909838
0000a0 02 74 dc 3c f4 83 30 bc 2b 97 fd bc 1d 88 42 bb
       0.026910786 -0.010773648 -0.030955872 -0.002968318
0000b0 c8 c8 49 bd 60 8f 5b bc 04 af 5c bd 41 b6 72 3c
       -0.049263746 -0.0134008825 -0.053877845 0.0148139605
0000c0 92 8d 71 3b 6c 01 05 3b 02 17 2c 3c df 26 e7 3c
       0.0036858064 0.0020295037 0.010503532 0.028216777
0000d0 80 d9 8b bc 9b 78 03 bd f4 4d 8a ba 2c 48 39 3d
       -0.017071486 -0.03209744 -0.0010551796 0.045234844
0000e0 44 77 87 bc fa 43 3c bd 96 c5 b3 bb a8 86 45 bd
       -0.016536362 -0.045963265 -0.0054862006 -0.04822412
0000f0 e4 ea 29 3d 14 e5 16 3b f3 86 c4 bb 78 d1 06 bd
       0.041483775 0.0023024725 -0.0059975325 -0.03291461
000100 6b 07 b6 bc 32 90 45 3c 01 2b cb 3b 3c 92 bd 3a
       -0.022220334 0.012058305 0.006200195 0.0014463137
000110 5d 0f c0 3b 68 20 01 bd ae c4 aa 3c e2 51 3e 3c
       0.0058612064 -0.031525046 0.020845737 0.011616202
000120 70 4f 2e bd 25 27 81 bc 34 31 a6 bb 76 2c 27 bb
       -0.042556226 -0.015765736 -0.0050717834 -0.0025508679
000130 65 72 84 ba 0e d2 d9 3c 14 40 6f bc 5a 70 8c bc
       -0.0010104893 0.02658942 -0.01460268 -0.017143417
000140 e4 7a de 3b 39 96 bc 3c ba f0 2a bd eb 24 c1 bb
       0.006789552 0.02302085 -0.04173348 -0.0058942935
000150 4f a1 57 bc 1c a4 4b 3d b3 a2 57 3c cc d0 0d 3c
       -0.013161018 0.049717054 0.013161349 0.008655738
000160 8f b9 5a bc 60 f9 95 38 84 ef 4d 3b d6 09 a3 bc
       -0.013349905 7.1513234e-05 0.003142328 -0.019902151
000170 96 da bd bc 64 18 82 3c d7 1f 37 3c 4b 9a 5b bc
       -0.023175519 0.015880771 0.011177025 -0.0134034855
000180 38 af d8 3c bd dd 33 3d ca c1 85 bc 86 3b 31 bb
       0.026450738 0.043912638 -0.016327757 -0.0027043535
000190 b7 17 09 bc d2 63 a3 3b 50 c8 07 ba 20 17 cf bb
       -0.00836747 0.0049862647 -0.000517969 -0.0063198954
0001a0 23 5c 01 3d 91 3b 94 3b ea 89 1c 3d 47 86 7b 3c
       0.03158201 0.0045237024 0.038217463 0.015351838
0001b0 4f 9c 3a bd 45 b6 4e bd cd e7 30 3d ab 2c 1b 3c
       -0.045559224 -0.050466795 0.043189812 0.009471099
0001c0 e7 d7 22 bd a2 dd 24 bd 85 97 26 3b 15 49 4f 3d
       -0.03975668 -0.040250428 0.0025419903 0.050606806
0001d0 df 7d 37 3d 41 43 d4 bb 87 a9 9b 3c 6a ef b9 3b
       0.044797774 -0.006477744 0.019001735 0.0056742923
0001e0 f5 25 4f 3d 88 d9 5a bc 18 bc 82 3a ca 8f 06 bc
       0.050573308 -0.013357528 0.0009974269 -0.008212993
0001f0 e6 11 30 bc 1a ed d8 3b 1e 06 27 bc 88 eb 65 bc
       -0.010746455 0.0066200616 -0.01019433 -0.014033206
000200 40 55 64 bb e0 a9 91 bc 8b b8 52 bd b1 14 57 3c
       -0.0034840852 -0.017781198 -0.051445525 0.013127492
000210 b4 d4 5a bd 40 cb bd 3a 00 3e 80 3c 44 36 ee 3c
       -0.053425506 0.0014480129 0.015654564 0.02907861
000220 27 cd 62 bc 30 7c e4 3c 38 fb f5 3b 20 41 4d bb
       -0.013842857 0.027891248 0.0075067542 -0.0031319335
000230 24 11 57 bd eb 0a 1c bc d5 65 22 bd ce cd 44 bd
       -0.05250658 -0.009524087 -0.039647896 -0.048047833
000240 23 a4 38 3d 02 4a 2e 3b b1 dc 98 3b 56 5f 95 bb
       0.045078408 0.0026594405 0.0046649803 -0.004558484
000250 cc b7 d6 3a 48 68 54 3c 77 41 d0 bb 77 c1 01 bc
       0.001638168 0.012964316 -0.0063554603 -0.007919661
000260 a2 1f 0e bb 5a d3 c2 bb bc 7a 5d 3c a2 1b 66 bc
       -0.0021686335 -0.005945605 0.013518032 -0.014044674
000270 82 de fd 3c 4f 3f b5 3b 26 88 ca 3c 03 1d 8b bc
       0.030989889 0.0055312286 0.024723124 -0.016981607
000280 a0 f3 76 3c 60 0f 45 b9 76 a2 39 bc 6c fe 5e bb
       0.015072733 -0.00018793112 -0.011330238 -0.003402616
000290 80 31 36 bc ab cd 4c 3d bc 03 77 3c 80 22 86 39
       -0.0111202 0.050000828 0.015076574 0.00025584176
0002a0 5b b9 0d 3c 87 31 34 bd 8c 5a 2c bd 90 52 91 3c
       0.008650149 -0.043992545 -0.04207854 0.017739564
0002b0 72 a6 fd ba bf 00 c4 bb aa a7 db 3c 8c 88 1d bc
       -0.0019351973 -0.0059815343 0.026813347 -0.009615075
0002c0 ea d4 0b 3b ac 7b 51 3c 3b 68 97 bb 1a d9 a8 3b
       0.0021336623 0.012785833 -0.0046205795 0.0051528336
0002d0 9a 61 06 3c e6 85 00 3d 58 f4 f1 b9 26 a5 0b bd
       0.008201981 0.031377696 -0.00046149152 -0.034093045
0002e0 08 a5 8b bc 7b c1 42 3d 9c 98 18 3d 81 48 72 3c
       -0.017046466 0.0475478 0.037254915 0.014787794
0002f0 df c1 32 3d 74 41 3f bc 7a a1 2c bd 99 f5 9c bb
       0.04364192 -0.01167332 -0.042146184 -0.0047900197
000300 11 4a 1e 3d ed f9 79 bc f0 77 09 bb 24 36 bf bc
       0.038644854 -0.015257341 -0.002097603 -0.023341246
000310 45 7d 31 3c a4 dd 58 3b 38 c7 b2 3a c0 c8 4c b9
       0.010833089 0.0033091092 0.0013639694 -0.00019529741
000320 40 7e 0c 3c 8f 7c ca bc 4a da 5c 3c 26 f4 cc bc
       0.008575022 -0.024717597 0.013479779 -0.025018763
000330 48 da b0 bc 1b 84 79 bc 22 aa b5 ba d2 e4 8f bb
       -0.02158846 -0.01522925 -0.0013859908 -0.004391291
000340 70 9c 60 3c 3c ba 6d 3c c9 17 a8 ba b8 2e 9d bc
       0.013709173 0.014509734 -0.0012824471 -0.019187316
000350 40 3a b5 bb 5e 59 71 3c ba 7e a3 bc 7b 8f 3e 3d
       -0.0055306256 0.014730779 -0.019957889 0.046523552
000360 d9 e7 99 bc d8 8b 39 3c 24 13 76 bc f0 6f e2 bc
       -0.018787311 0.011324845 -0.015019212 -0.027641267
000370 e1 08 1b 3d 5e f1 c0 3c 2c d1 33 3d b0 54 7d 3c
       0.037850264 0.023552593 0.043900654 0.015462086
000380 4b f7 c5 bc 06 e6 f0 3b 39 d0 45 bb 49 6e 45 3d
       -0.02416577 0.0073516397 -0.0030183925 0.04820088
000390 fe bf 6b 3c 7a 39 c0 bc 33 6d 6e 3c 4c ff 2a 3d
       0.014389036 -0.023464907 0.014552402 0.041747376
0003a0 e0 92 a7 3c bd 41 bb bc 1f de 6e bc 1d b1 25 3d
       0.020455778 -0.022858495 -0.014579325 0.04045211
0003b0 0c 40 ab 3c 2c 57 5f 3c 86 ee 94 bc 0b 04 1d bd
       0.020904563 0.013631623 -0.018180143 -0.038333934
0003c0 21 6a a0 bc 28 b3 da ba 78 b2 2f 3d e4 af a2 3b
       -0.019581856 -0.0016685473 0.04289481 0.0049648155
0003d0 11 52 ff bc b4 a0 d1 3c 8f 28 ab bc 28 28 27 3d
       -0.031167062 0.025589325 -0.020893363 0.04080978
0003e0 50 ee 20 bd a1 9a 07 bb 94 cf 39 3d c1 22 98 3c
       -0.039289773 -0.0020691531 0.045363978 0.01857126
0003f0 b9 3e 84 bb b3 7c 0e bc ff e3 2c 3d 20 37 d3 39
       -0.0040357974 -0.008696723 0.04220962 0.00040286127

bias f4 [200]
000000 e0 dd e2 3c 9d b5 b9 bb dd d2 0d bd 57 9f 19 bd
       0.027693689 -0.005667402 -0.034624923 -0.037505474
000010 74 49 d5 3c 38 a8 b5 bc fc e9 a9 bc 08 8b 39 3b
       0.026036002 -0.02217494 -0.020741455 0.002831163
000020 94 b8 45 3b b3 0a c9 3c 27 55 3d 3d 09 71 cb 3b
       0.0030169832 0.024541235 0.046223786 0.006208543
000030 eb 72 31 bd 87 ae 0b bd 2f 95 28 3d 3b e6 11 3b
       -0.043322485 -0.03410199 0.041157898 0.0022262472
000040 5e 7b ce 3c 35 93 28 bd e5 ec 72 3b 1d 12 c6 bc
       0.02520531 -0.041156013 0.003706747 -0.024178559
000050 72 a2 ef 3a f5 40 1f bd 57 1d 01 bb a7 fc b7 bc
       0.0018282665 -0.038880307 -0.0019701326 -0.022459341
000060 29 a9 ab 3c 03 5a c9 3b 2e fc 3a 3d 0b fc 30 3d
       0.020954685 0.0061447634 0.045650654 0.043209117
000070 e0 51 18 bc fb 40 d1 bc 06 bc b6 bc 4a 20 6f 3c
       -0.009296864 -0.02554368 -0.022306453 0.014595101
000080 f1 8b 8b 3c ba 2e 0b 3c f0 7a 81 3c b9 35 49 3c
       0.017034503 0.008495027 0.015805691 0.012280875
000090 1c 62 c3 bc ed f0 ac bc 2f f1 e1 bc 2e b2 8c bc
       -0.023850493 -0.021110976 -0.027580826 -0.017174806
0000a0 40 d1 9e bb c4 50 00 bb b9 27 0b bc d2 fb bf 3a
       -0.004846722 -0.001957939 -0.008493357 0.0014647192
0000b0 cb cc 78 bc c4 e9 e4 3c a2 c6 cc bc 31 e4 a5 3c
       -0.015185545 0.0279435 -0.02499706 0.020250412
0000c0 43 a7 8d bc 73 5c 85 bc a3 ab 72 3d 92 e4 8a bb
       -0.01729167 -0.016279435 0.059245717 -0.0042386735
0000d0 a2 96 5c 3d b8 79 a3 bc f1 5e 18 bd 3e 6b 75 bc
       0.053854592 -0.019955501 -0.03719992 -0.014979182
0000e0 fe 9a d9 3b 50 6b e7 bc ea 5e 1a 3c 34 e9 0b bb
       0.006640791 -0.028249413 0.009422043 -0.0021348717
0000f0 05 8a 0c bd 46 9d 51 bc 9d 45 29 3c 04 1d bd 3b
       -0.034311313 -0.012793845 0.0103315385 0.005771281
000100 2f 7e ac bc c0 96 1d 3d 47 bd 18 bc cc 23 5f bb
       -0.021056263 0.038473845 -0.009322471 -0.0034048436
000110 c0 a6 27 bc d6 74 83 bc 0c d2 c2 3b 2f c2 6a bc
       -0.010232627 -0.016046923 0.0059454497 -0.014328524
000120 70 e7 7e bb a3 c5 87 3c dd 0c f8 bc 76 59 1d 3d
       -0.0038895272 0.016573733 -0.030279571 0.038415395
000130 dd e1 1b bd 31 f7 51 3d 33 cd b2 3c 84 c3 a4 bc
       -0.038057197 0.05126113 0.021826362 -0.02011276
000140 b7 a3 80 3c cc 01 27 3c da c9 16 3c 0c 3d 08 bd
       0.015703065 0.0101932995 0.009203399 -0.033261344
000150 2e ac e8 bb 0c d1 03 3d 00 c1 e0 bc 70 6b 18 3d
       -0.0071006035 0.032181785 -0.02743578 0.037211835
000160 7a d1 49 bc 12 06 29 3c c3 a6 b2 bc 84 f4 b5 bc
       -0.0123180095 0.010316389 -0.021808034 -0.02221132
000170 87 77 12 3c 9e 7d dc bc 26 13 a7 3b e9 f9 eb 3c
       0.00893963 -0.026915368 0.005098718 0.02880569
000180 5b 27 14 bd 71 f3 ff 3c 8f 02 8a bb 38 b1 06 ba
       -0.036170345 0.031244012 -0.004211731 -0.0005138102
000190 57 47 e5 bc 81 c3 1d bc 5e 48 41 3d 4f b0 02 bd
       -0.027988119 -0.009629131 0.047188155 -0.031906422
0001a0 70 6a 2a 3c 6e 05 16 3d 3c d4 ac bc 6b 29 0f bd
       0.010401353 0.036626272 -0.021097295 -0.03495161
0001b0 8e f4 2b bb 5f f4 33 bc 13 d6 71 3c ca be 98 bc
       -0.0026238295 -0.010983556 0.014760512 -0.018645663
0001c0 69 dc f8 3a d7 9f 7d 3c cc 33 24 3a 3b f2 b7 ba
       0.0018986586 0.015480003 0.0006263822 -0.0014033982
0001d0 23 f8 bf 3c 8c 9d d8 bb 59 8b 12 bd 40 44 6f ba
       0.02343375 -0.006610578 -0.035777424 -0.00091272965
0001e0 03 9c 01 bc 53 96 5c bc 2e f4 0e bd 31 56 7d 3b
       -0.007910731 -0.013463574 -0.034900837 0.003865611
0001f0 6a 75 13 3c e6 f1 09 3c f7 43 86 bc f7 94 1f bd
       0.009000162 0.0084194895 -0.01638983 -0.038960423
000200 00 9d d6 ba e0 bc 21 bd 63 66 f8 bc 1a b3 c8 3c
       -0.0016373694 -0.039486766 -0.03032226 0.024499465
000210 c8 df 57 3c 4e 86 70 3c 2b 6d f7 bc f1 75 3f 3d
       0.013175912 0.014680458 -0.030203423 0.046743337
000220 36 5b 34 bd 38 20 eb 3b 11 77 65 bc 89 f4 57 bb
       -0.044032298 0.0071754716 -0.014005438 -0.003295215
000230 06 b7 55 bc 6f 32 ac bc ea 74 c6 bc 74 7b 3d bb
       -0.0130441245 -0.021020142 -0.02422567 -0.0028912695
000240 4d 08 56 3b a0 27 1b 3d 87 98 84 bc 2f 16 58 3d
       0.0032658756 0.037879586 -0.016186012 0.05275553
000250 68 ce ae b9 c3 c1 fd bc ea 50 da 3c a8 40 5b 3d
       -0.0003334165 -0.030976182 0.026649911 0.053528458
000260 98 19 85 3c 47 d8 38 3d b5 ad 28 3d 8c 84 89 bc
       0.016247556 0.045128133 0.041181285 -0.016786836
000270 e8 99 0d bc ba 8d 0f bd be 7c 0d bd 69 e3 64 bc
       -0.008642651 -0.03504727 -0.03454279 -0.013970234
000280 02 12 de bb d9 84 8e 3c 9e c8 1d bd 78 41 70 bc
       -0.006777049 0.017397331 -0.0385214 -0.0146640465
000290 a0 68 08 3b f0 98 9d 3b 66 16 b1 3c b4 b3 75 bc
       0.0020814314 0.0048094913 0.021617126 -0.014996458
0002a0 82 70 cf bc 30 7e 22 3d 16 1f 03 bd 07 77 47 bb
       -0.025322203 0.039671123 -0.032012068 -0.0030435936
0002b0 fc 9f 79 bb 1a 60 03 bd 99 ef b9 3c 38 74 5b 3c
       -0.0038089743 -0.03207407 0.022697257 0.013394408
0002c0 3e 1e 22 bc 1e 22 04 bd 66 c7 c7 3a 5d 67 22 3d
       -0.009894906 -0.0322591 0.001524192 0.039649356
0002d0 e0 25 bb bc 3f 66 69 bc 26 de 2f ba f9 1e 06 bb
       -0.022845209 -0.014245569 -0.0006708823 -0.0020465238
0002e0 b8 4b de bc 26 e5 e2 3b 15 e7 0d bd d6 10 6b bc
       -0.027135715 0.0069242893 -0.034644205 -0.014347276
0002f0 ca e2 09 bd fe db dc bc cc 12 04 bd 09 e2 0e 3c
       -0.03366355 -0.02696037 -0.03224449 0.008720883
000300 1a 75 74 bc 60 a0 f7 bc 6d 42 28 bd d6 51 62 3c
       -0.014920497 -0.03022784 -0.041078974 0.0138134565
000310 ba 00 0b bc 48 8d a6 b9 a9 aa 3c 3d 3d 32 87 bb
       -0.00848406 -0.0003176725 0.04606119 -0.004125862

weight f4 [200, 200]
000000 6a e5 d9 bc 38 2e 24 3c 24 0c 41 bc 2b ed 21 3b
       -0.026598651 0.010020785 -0.01178268 0.0024708014
000010 b8 30 9c bb da c7 3f bb 88 c8 8e 3c ae 89 52 3c
       -0.00476655 -0.0029263408 0.017429605 0.012850208
000020 2e 11 47 bc 71 51 35 bc 41 bf 2a 3d 60 cc 4d bc
       -0.012150092 -0.01106678 0.0416863 -0.012560934
000030 b3 55 5b 3c bc 4b ba 3b 26 13 b6 bc 16 41 8f bb
       0.0133871315 0.005685298 -0.022225928 -0.0043717725
000040 e7 c1 1d bd 20 79 f6 b9 5b 5e 98 3c 49 c8 8d 3b
       -0.038514998 -0.00047011022 0.01859968 0.0043268544
000050 96 ff 1a bc 03 1b 79 3d 92 2b 42 bc 27 ff 98 3b
       -0.0094603505 0.060816776 -0.011851208 0.0046690884
000060 80 43 5b bc 02 88 44 3b a0 96 a1 3a 78 eb 32 ba
       -0.0133827925 0.0029988294 0.0012328215 -0.0006825249
000070 df cc 85 3c 54 b5 58 bb cd 0e a5 3c 8f cc 48 3d
       0.016333042 -0.0033067064 0.02014866 0.049023207
000080 3a 28 1c 3c 8d e1 9b 3c ab 2c 8e bc af b9 74 bc
       0.009531075 0.01902845 -0.017355284 -0.014936849
000090 0a bc 55 bd b8 91 f1 bc 27 7a 81 3b 98 77 22 bc
       -0.05218128 -0.02948843 0.0039513293 -0.009916209
0000a0 02 87 d1 bc 2e f0 9c 3c 94 59 15 bb 1e 22 2c 3d
       -0.025577072 0.019157495 -0.0022788988 0.042024724
0000b0 3f 8f e2 bb 6e e4 eb 3b 44 ea 4c bd 4a 88 a9 bb
       -0.006914049 0.007198862 -0.0500281 -0.0051737176
0000c0 b7 87 dd 3c 98 52 fa ba 25 5e 9a bc 74 8b c3 ba
       0.027042253 -0.0019098101 -0.01884372 -0.001491888
0000d0 e0 d2 5e bc 90 f1 b7 bc 21 93 16 3c d3 43 2b bd
       -0.013600081 -0.022454053 0.009190352 -0.04181273
0000e0 f0 25 2d 3c fe 06 2e 3d ab 43 56 3c 9a f0 32 bd
       0.010568127 0.042487137 0.013077657 -0.043686487
0000f0 83 ae 17 bb 94 d0 a5 3c aa cf 2d bd a6 03 d5 bc
       -0.0023144789 0.02024106 -0.042434372 -0.026002716
000100 c3 57 25 3d a1 86 54 bd fe 7e 71 bb 74 dc ce 3b
       0.0403669 -0.051886205 -0.0036849375 0.006312901
000110 b1 72 1b 3c 68 d0 84 3c ab ac de bb de 77 40 3c
       0.009487794 0.016212657 -0.006795486 0.011747329
000120 0a 32 92 bc c3 40 2a bc 4f 8a c3 bc 2c 8e 66 3b
       -0.017846126 -0.010391417 -0.023869662 0.0035179956
000130 5c 52 d1 3c 07 94 2a bc 52 1b 56 bd 33 52 cb 3c
       0.025551967 -0.010411269 -0.05227215 0.02481947
000140 18 2a 86 b9 94 66 6a 3c 5f ac 56 bd 0e d0 ab bc
       -0.00025589834 0.014306683 -0.05241048 -0.020973232
000150 f5 a6 79 3c 5c fc db bc 74 86 04 3c 14 3a 9e 3c
       0.01523756 -0.026853733 0.008088697 0.019314803
000160 c5 fc da 3c c6 30 84 3b 9b 4d 5e 3d 8e 42 c2 3b
       0.026731858 0.0040341346 0.05427323 0.005928344
000170 3b aa ff bb 07 98 37 bc b8 63 86 ba cc bf e2 3a
       -0.0078022755 -0.01120568 -0.0010253107 0.0017299592
000180 f2 b4 61 3c 94 1c 20 3d bc 6e 70 3c f2 44 e0 3c
       0.013776051 0.039089754 0.014674839 0.027376626
000190 b8 7f 3c bc 26 b0 4e 3d 90 c0 5b 3c 08 3c b9 3b
       -0.01150506 0.050460957 0.01341261 0.0056529082
0001a0 7a 72 71 3b b3 b2 0d bd b4 1c c3 3b 53 2a a2 bb
       0.0036841915 -0.03459425 0.0059543494 -0.004948893
0001b0 f7 d1 24 3d 28 dc 0a 3c 9a d3 46 3d 83 b4 70 3c
       0.0402393 0.008475341 0.048541643 0.014691475
0001c0 00 24 3d 3c 2f 2d 70 3c 52 2d 44 3d e0 67 2e 3c
       0.011544228 0.01465921 0.047894783 0.010644883
0001d0 98 c1 9c 3b 5e 09 d6 3c 81 ca 47 3c 16 95 50 3c
       0.0047838204 0.026127513 0.012194277 0.012730857
0001e0 f0 75 04 3c 4c ba c4 3c 60 aa 51 3c a8 f3 4f 3c
       0.008084759 0.024014615 0.012796968 0.0126923695
0001f0 c2 95 ab 3b ae b3 04 3d 36 85 c1 bb 9a 84 f0 3c
       0.0052363584 0.03239792 -0.0059057726 0.029360104
000200 3c 26 f7 bc 6a 82 83 bc 00 ca e8 37 03 02 57 3d
       -0.030169599 -0.016053397 2.7750619e-05 0.052492153
000210 d6 5b 68 bc 3e 88 20 bc 57 09 3e bd d1 be de 3c
       -0.014182052 -0.009798108 -0.046395626 0.027190598
000220 4a 04 7a 3d 40 03 d8 39 93 9b 81 3c dd 6a ca bc
       0.061039247 0.00041201152 0.015821254 -0.02470916
000230 90 54 b7 bc b1 9d 86 3b 62 b4 ab bc 45 ec bc bb
       -0.02237919 0.0041081537 -0.020960037 -0.00576547
000240 fb 9a d9 3c c8 8c 19 3d ad 80 6a bc 6c b4 8c bb
       0.026563158 0.037487775 -0.014312905 -0.004293969
000250 6c 5a a6 bc be 34 ce bc 20 13 d2 3c 2c 91 3e bd
       -0.020306788 -0.025171634 0.025643885 -0.046525165
000260 f4 9e 44 bc 13 63 8d 3b 82 07 3d 3c 3b dd 3b 3d
       -0.012000788 0.004314789 0.0115374345 0.04586528
000270 a4 9d 09 bd ea e3 34 bb e6 69 5a bc 2a 00 cd bc
       -0.033597603 -0.0027601668 -0.013330912 -0.025024492
000280 0a f8 a3 3b 0b 25 7c bc 2d 32 4a 3c f0 6c d4 bc
       0.005003934 -0.015389691 0.012341064 -0.025930852
000290 e6 d0 15 3d d3 0e 37 bd 65 1a b0 3c 02 03 19 3d
       0.036576174 -0.04469187 0.02149696 0.037356384
0002a0 2a cb 64 3c 3d b1 19 bd 20 c2 d7 b9 5a c7 0b bb
       0.013964454 -0.037522543 -0.0004115263 -0.002132854
0002b0 6d 7e 40 bc 2c af 12 3d 38 a8 63 3c e6 c8 7b 3c
       -0.011748892 0.03581159 0.013895087 0.015367722
0002c0 30 22 eb ba 80 61 47 3d ee f3 8c 3c a5 05 25 bd
       -0.0017939266 0.048676968 0.017206158 -0.040288586
0002d0 a9 e5 2f bc 80 a9 b0 3c e7 92 29 bc 6f 79 77 bc
       -0.010735908 0.021565199 -0.010349966 -0.015104636
0002e0 ec f2 82 bc 70 bf 26 bd 9a 98 4e 3c b9 e5 d2 bc
       -0.015984975 -0.040709913 0.012609625 -0.025744306
0002f0 e3 07 27 bc ba bd 01 3c cd 0c 75 3c fa dc 2b 3d
       -0.010194751 0.0079187695 0.014956665 0.041958787
000300 59 6e 14 3d 42 53 41 3b 60 94 4f bc 37 59 a0 bc
       0.03623805 0.0029499088 -0.012669653 -0.019573791
000310 15 41 8a bb c3 0a 29 3d 92 5b 28 bd 2a 48 20 bd
       -0.004219184 0.04127003 -0.041102953 -0.03913132
000320 d7 74 cc bc 30 d4 83 bc 85 d6 1b bc 8b 6c 2e 3d
       -0.024958057 -0.01609239 -0.009511595 0.042583983
000330 34 e3 b0 3c 74 1a 0d 3d 11 1d 60 3c 41 0c 6e 3c
       0.021592714 0.034449056 0.013678805 0.014529289
000340 70 0a 7b 3c 7e c5 04 3d d8 f8 21 3c 00 b2 a2 3a
       0.015322313 0.032414906 0.009885989 0.0012412667
000350 ee 0d f2 ba 52 4a 76 bc fe ea 15 bd 16 92 20 3d
       -0.0018467286 -0.015032368 -0.03660106 0.03920182
000360 da 5e 10 bd 0e 9e 58 3c 2b 5b 84 3c 7b f3 09 3d
       -0.035246707 0.013221277 0.016156754 0.033679467
000370 de 79 6b 3c 8b 4c ee bb 10 b1 1b ba 64 51 43 3b
       0.014372317 -0.007272308 -0.0005939165 0.0029803151
000380 f8 a9 6a 3c 58 46 42 bd e1 e3 4b 3c a5 54 8a bb
       0.01432275 -0.047430366 0.012444467 -0.004221516
000390 fe d7 18 3c 66 a3 e7 bc e2 eb d5 3a a4 d2 ac 3c
       0.00932884 -0.028276157 0.0016320909 0.021096535
0003a0 cf 63 0b 3c e0 c5 45 3a aa a3 40 3d a0 9d fc b9
       0.008507683 0.0007544439 0.047031082 -0.00048182625
0003b0 dc 14 d9 bb 5a 11 f7 3c 5d 83 b2 bb 9a 22 11 bd
       -0.006624801 0.030159641 -0.0054477886 -0.03543339
0003c0 0b b3 5b 3d 24 53 81 bc 98 76 a5 3b 7a be 52 bd
       0.053637546 -0.015786715 0.005049538 -0.051451184
0003d0 46 cb 34 3c 23 c0 08 bd 10 ef 45 39 fe 0d a3 3a
       0.011034792 -0.03338636 0.00018876442 0.0012440083
0003e0 dd 15 c1 bc 36 eb 64 3c 4d 34 90 bc 66 cd 81 bc
       -0.023569996 0.013972094 -0.017603064 -0.015845012
0003f0 a4 58 eb bc 5d 54 cc bc 92 5f 4e bc f2 93 bd 3c
       -0.02872879 -0.024942571 -0.012596028 0.023141835

bias f4 [200]
000000 57 f3 70 bc 60 87 ce bc 40 d3 2c bd f4 c3 56 3c
       -0.014706454 -0.025211036 -0.04219365 0.013108242
000010 7f ca 0a bd 52 73 35 3c 68 f1 b5 bc fc 3b 0d bc
       -0.03388452 0.011074858 -0.022209838 -0.008620258
000020 6e 95 c0 3c e5 b7 02 bc 98 58 5e bc 2c 7a b7 ba
       0.023508754 -0.007978414 -0.013570927 -0.0013998202
000030 bf 23 a5 bc c1 27 9d bc 14 93 be 3c 90 e7 19 3c
       -0.020158647 -0.019183995 0.023263492 0.009393588
000040 08 ca 8c bc 4c b8 12 bb e1 d5 17 bc 25 87 a3 bc
       -0.01718618 -0.0022387682 -0.009267301 -0.019961903
000050 3b 4d 01 bd 50 ca 84 3a fa 44 0f bd fa c8 8d bc
       -0.031567793 0.0010131095 -0.03497789 -0.017307747
000060 9d de d2 bc b2 26 a4 bc be f5 47 bc 8b 27 df bb
       -0.025740916 -0.020037983 -0.012204586 -0.006810134
000070 a7 21 0d bd 01 04 0e bd 97 8e 0e bd 5a 84 0d bd
       -0.03445592 -0.034671787 -0.034803953 -0.03455005
000080 d4 3d 02 3d c6 57 0f bd 6b 7c 39 bc 53 2a fd bc
       0.031797245 -0.034995817 -0.011321167 -0.03090397
000090 62 c2 6b bc b0 7a a3 3b 7d ee 6a bc 77 4a 6d bc
       -0.014389606 0.0049889907 -0.014339087 -0.014483086
0000a0 87 94 a7 3c 2c f7 5f bb bb 4f 46 bc 3d 5a 22 3d
       0.020456566 -0.0034174426 -0.01210397 0.03963684
0000b0 73 ba 04 3c 2c d8 86 3c 1e 8f 8d bb 44 dc 83 3c
       0.008101094 0.0164605 -0.0043200394 0.016096242
0000c0 08 2b e6 3b ca ad 01 bd ba 6f d9 bc 5e 1d df bc
       0.0070241727 -0.03165988 -0.026542533 -0.027235683
0000d0 c2 f3 e5 3c ec 55 89 bb 98 9a 0d bd 70 59 ef 3c
       0.028070334 -0.004191151 -0.03457126 0.029217452
0000e0 1f 73 17 3b 5e fb 0e bd 83 56 ac 3b 0a a9 4f bc
       0.002310939 -0.03490769 0.0052593364 -0.012674579
0000f0 7f ee 5e 3b 10 84 9c 3c 74 b8 07 bc 76 cf d1 bc
       0.0034016666 0.019105941 -0.008283723 -0.02561162
000100 3e 62 85 bc 7e 8e 90 bc ae 14 0a 3d 58 fe 0d bd
       -0.016282197 -0.01764607 0.033711128 -0.03466639
000110 22 a2 04 bd 12 16 9e bc 6d a8 11 bd 0b ca c3 bc
       -0.032381184 -0.019297633 -0.035561014 -0.023900053
000120 86 ed 87 3b 5b c0 68 bc 91 e8 ae bc 00 80 fc 37
       0.004148188 -0.014206017 -0.02135113 3.0100346e-05
000130 78 b6 cc bc 56 d2 c6 bc 1b 7e 80 bc ba 4a cf 3c
       -0.024989352 -0.024270218 -0.015685132 0.025304187
000140 70 18 01 3d 22 5b 44 3c 21 86 40 bb b4 43 1f bd
       0.031517446 0.011984618 -0.0029376822 -0.038882926
000150 09 60 80 3c 7d 5d 67 3b cf 4a 0f 3d ca da 28 bb
       0.015670793 0.0035303526 0.034983452 -0.0025765174
000160 f2 59 cb 3c 6c 88 06 3d 72 cd 0c bd bb 3d 8b ba
       0.024823163 0.032844946 -0.034375615 -0.0010623256
000170 00 5f e5 3c fe e8 66 bc ca 28 0e bd 58 af 19 bd
       0.027999401 -0.014093636 -0.03470687 -0.037520736
000180 64 5c b9 3a 00 a3 9c bc 39 41 fc bc 6f 49 1c bd
       0.0014141914 -0.019120693 -0.03079282 -0.03815597
000190 ff 23 de bc ab bf 95 bc 8c e5 ab bb 45 22 0f bd
       -0.027116774 -0.018279871 -0.00524587 -0.03494479
0001a0 39 7f 8d bc 24 e4 83 ba 18 00 01 3d 3b 44 24 bc
       -0.017272579 -0.0010062498 0.03149423 -0.010026033
0001b0 41 96 e0 bb 90 d9 a4 ba ea 9d 9f bc 86 46 9b bc
       -0.006853849 -0.0012577046 -0.019484479 -0.018954527
0001c0 8c 92 0d bd fa 60 0c bd 29 54 3d bc 1c de 77 3b
       -0.034563586 -0.03427217 -0.01155571 0.0037821596
0001d0 79 e9 0b 3c 9f 36 ec bb eb 0c 0b 3c 25 7b e8 bb
       0.008539551 -0.00720866 0.008486967 -0.007094758
0001e0 e5 84 0d bd ac bc 3e 3d 6b 63 d1 bc e3 da 1c bd
       -0.034550566 0.04656665 -0.025560101 -0.038294684
0001f0 26 d1 a3 ba 7c be 39 3c dc d9 a2 bc cd 1c d9 bc
       -0.0012498244 0.011336919 -0.019879274 -0.026502991
000200 2f d3 3b bb 00 a1 78 bc fc 09 c7 bc 7d 1c d2 bc
       -0.002865981 -0.015175104 -0.024296753 -0.02564835
000210 ad 12 cd 3c fa 12 c6 3b 5d 54 9e bc 89 bc 13 bb
       0.02503332 0.0060447427 -0.019327337 -0.0022542796
000220 73 d6 0a bd 0d 83 fe 3b 90 2a 68 3b ae 62 d1 3b
       -0.03389592 0.0077670873 0.003542576 0.0063899374
000230 a8 d6 ab bc b5 5f 2b 3b a6 cf 0d bd 51 63 94 3c
       -0.02097638 0.0026149575 -0.034621857 0.018113764
000240 49 f0 cb bc 10 77 28 bc 99 97 7f bb a6 c8 95 3c
       -0.02489485 -0.010282293 -0.0039000271 0.018284153
000250 05 66 08 bd 5c 20 02 3d 62 43 92 bc 70 70 14 b9
       -0.03330042 0.03176914 -0.017854396 -0.00014156266
000260 ae cd ea 3a e4 79 1b bb fe 2e 2d 3c dc a2 3f bb
       0.001791408 -0.0023723776 0.010570286 -0.002924136
000270 39 c0 cc bc b4 c6 2f 3c a9 fe 1b 3c 81 93 87 bc
       -0.024994003 0.010728527 0.009521165 -0.016549828
000280 cc f9 b1 bb 39 76 04 bd cc fc f5 3b 08 e7 0b bd
       -0.0054313894 -0.03233931 0.0075069424 -0.034155875
000290 e1 4d 81 bc 5e e8 f6 3c 94 8b 65 bc 44 ab ba 3a
       -0.015784206 0.030140098 -0.014010329 0.0014241715
0002a0 b4 1b 42 3c d5 2b 04 bd 7f 0f 0e bd 8e cf 05 bb
       0.011847425 -0.032268364 -0.034682747 -0.0020417902
0002b0 f4 22 5b 3c 52 b8 8a bc 54 d7 e0 bc 24 f8 ce bb
       0.013375033 -0.016933594 -0.027446426 -0.0063162018
0002c0 3a 3f fb 3a e7 0b 07 bd 5b 1d d9 bc 4a 4d 43 bd
       0.0019168623 -0.032970335 -0.026503256 -0.04768113
0002d0 e7 e1 0d bd d7 6a 38 bb a1 58 9e bc 9c 2f fc ba
       -0.034639265 -0.0028139853 -0.01932937 -0.0019240263
0002e0 cf bd b0 bb 0e bd e2 3c 05 5b e8 bb 65 42 ac 3b
       -0.0053937207 0.027678039 -0.0070909285 0.0052569383
0002f0 f9 88 65 bc 8b 7e e2 bc cc 0f a0 bc 22 c9 c8 bc
       -0.014009708 -0.027648231 -0.019538783 -0.02450997
000300 3e 2d fe bb b1 4c d6 bc 8c a4 27 bd 0f d6 7d bc
       -0.007756858 -0.026159616 -0.04092841 -0.01549293
000310 90 2e 24 bd ea 49 0e bd dd 47 3b 3c e3 2a 78 bc
       -0.040083468 -0.03473846 0.011430708 -0.015146944
