deep_learning/models/GCNLinkPrediction36.pth (torch, 443008 bytes, 6 tensors)

bias f4 [300]
00000000: 7cf1 11bd 0d9b c63d f02e 7abc 386a 9cbd
00000010: a2a1 dfbd 3ca8 b93c 2043 bf3d 4227 d4bc
00000020: c2e9 15bd 3d04 9cbc a1c3 91bc db9e 9dbd
00000030: 6d1f 33bd 80d9 5a3d e0fd 45bc 2829 9a3a
00000040: 3ad5 33bc 3778 79bd 4b89 73bd 443b a23d
00000050: 08a4 043d 3956 403c 36bb ea3b efeb a23d
00000060: 331b 633d 1605 b53d f2cf 0e3d 2080 e9bd
00000070: d467 65bd ee0c 2a3d 048f 3bbb d655 04be
00000080: 6825 ea3c c26a c53d a78a 683c 2dd8 8fbd
00000090: 0df1 aabc 45eb b6bd 6018 53bc c4b6 4b3d
000000a0: 5434 0d3e f324 3a3d cc5a 3abd 1f6c 603c
000000b0: 02a8 8fbd ac99 713c 15b3 babc 0380 9fbc
000000c0: dd1e 7dbd 1afb 933d 0460 2bbd 943c 643d
000000d0: cca1 51bd e816 7dbb fbf1 ea3c 36f2 813d
000000e0: 8063 083d 98eb ab3d 08ef 86bc fac4 30bd
000000f0: adf0 2e3d 49e0 b5bd 120f 693d a2a1 ef3c
00000100: 6bb1 053d 5d88 6d3c f0ed 40bd 4218 c9bc
00000110: e99a 84bd 382b a83d d68a 36bb 9962 cdbd
00000120: 3637 cdbc 13fd 8ebd b2af 79bc 3a55 89bc
00000130: 2345 a63c 99d9 ac3c 1308 093d f7f2 54bd
00000140: e6dc e8bd 2483 9abd 3f3e 94bd 0c7f 893c
00000150: 54b5 693d a49d a83d 5032 3b3d 77ad a6bd
00000160: e804 ffbc a878 6abd 707b 0c3b 03b1 1d3d
00000170: 82ef 69bd 40e1 513b 25f1 aabd caf3 84bd
00000180: 77b1 a0bc 038f 6e3c a19b ecbc 7a12 703d
00000190: 9488 0c3e 407a e4bc 9e87 f13c 6dd5 d13d
000001a0: 5726 343d 4eeb 55bd ea1e 5abd 4100 d0bd
000001b0: 2fc2 12bd c3b8 c5bd 51ae f23d c008 bdbd
000001c0: c854 a03c fa3e a2bd 349c 10bd 9087 e13b
000001d0: 6317 86bc fe38 ab3d 5028 14bd c96d 0f3c
000001e0: 916f 8d3c 69c2 cc3d dcfa 093c f607 0fbe
000001f0: b022 1dbc 83e2 8dbd bd4c 0dbc 2fd5 a9bc
00000200: 1bcd 2abe 88be a93c e69b 9ebd 3f6e bebd
00000210: 0083 c7bd 8f87 2b3d 27ab debd 007a 1dbe
00000220: 8ed4 8abc 737e 10be d5af 18be 754d e8bc
00000230: 5491 19bc 4083 9b3b 136f 34bc 40b7 1cba
00000240: 93ca b1bd 28a4 1abc 4236 783d 5385 0dbe
00000250: 90b4 efbc eef6 b0bc a6eb 15bd e00a df3c
00000260: 86da f6bd cc55 153b 20f8 b33d 9d48 83bd
00000270: efd8 10be a4cd c9bd 283b a2bc ec1e 943d
00000280: 7343 c6bd 7a25 993c 4603 79bd 298f 3fbd
00000290: 53e3 673d ec78 f3bd 4f88 a2bd d021 53bd
000002a0: 1445 f53b 7a5c aabc 76dd 3c3d ba96 993b
000002b0: 6d6d c9bd 08fc 903d 04fc 033d 0ea4 e23d
000002c0: 7f17 67bd 9141 8dbd 813c 76bd 68be 143c
000002d0: c003 c6bd 9906 03bd 88b6 d83d dfd7 2ebd
000002e0: f376 b63b d85c efbc b4a0 12be 6892 c3bd
000002f0: 05ad 8b3d e5df a73d b988 c33d 7c65 4cbd
00000300: add8 713d 511b 0cbd d2f3 8b3d 80ff cf3b
00000310: ba7d 69bd 4f4e 893d 46bf ccbd 1fc9 be3d
00000320: ff30 cebc cc32 05bc e5c1 c4bd 4c46 c9bd
00000330: af5a ecbc de44 f1bb 1edb 213d ea41 89bc
00000340: ee63 ee3d 42ea 3a3d 1250 cbbd 294b ad3d
00000350: 4b5d 98bd 055a 5d3d d72d 373d 8f2b e8bd
00000360: 36bc 58bc f43f 5abc 6290 1f3c bc00 283c
00000370: e422 bdbd 32fb 65bd 1007 743d b6e9 9d3d
00000380: 1c09 02be 78e4 62bd 6d21 acbd a89a 53bd
00000390: e29f 2b3c f0e8 febd 72be 82bc 5319 673d
000003a0: 48a3 64bd 3b60 b13d 5864 7f3d 604d 743b
000003b0: d00a 1fbd 2d14 313d 9546 0abe 7e95 a43d
000003c0: 90c3 b0bb e2de 21bd cbd4 19be 4f1c 643d
000003d0: 22ee 7ebd 2efe 363d fe6d af3c b5ac 51bd
000003e0: 094d eb3d 084a 863a 8c00 8a3d 586d 57bd
000003f0: ef97 903c 5623 09bd e407 c23d 92cc 623d
-0.035630688 0.09697542 -0.01526998 -0.07637447 -0.10919501 0.022663228 0.09338975 -0.025897626
-0.036599882 -0.01904499 -0.017793478 -0.07696315 -0.04373114 0.05343008 -0.012084454 0.0011761533
-0.01097613 -0.06090566 -0.059457105 0.0792146 0.032382995 0.011739307 0.0071634306 0.07955157
0.05544586 0.08838861 0.03486628 -0.11401391 -0.05600722 0.041516237 -0.002861918 -0.12923369
0.02858229 0.09639503 0.014193214 -0.07023654 -0.020866895 -0.08931593 -0.012884229 0.049734846
0.13789493 0.045445394 -0.045496747 0.013697653 -0.07014467 0.014746111 -0.022790471 -0.01947022
-0.06179701 0.07225628 -0.041839615 0.055721834 -0.051179692 -0.003861839 0.028679838 0.06345026
0.033298016 0.08394545 -0.0164714 -0.0431566 0.042709995 -0.088806696 0.056899138 0.029251877
0.032639902 0.014497844 -0.047101915 -0.0245477 -0.06474859 0.08211368 -0.0027853749 -0.10028572
-0.02505074 -0.06981864 -0.015239643 -0.016764272 0.020296639 0.021099852 0.033454966 -0.05198952
-0.11370258 -0.07544544 -0.07238435 0.016784213 0.057057694 0.082331926 0.04570228 -0.081385545
-0.03113027 -0.057243973 0.002143588 0.03849889 -0.057113178 0.0032025129 -0.08346776 -0.064918116
-0.019615872 0.014560464 -0.028882803 0.05861137 0.13723975 -0.027890325 0.029483613 0.10245786
0.043981876 -0.052226357 -0.05325214 -0.101562984 -0.03582972 -0.09654381 0.118496545 -0.092301846
0.019571677 -0.07922168 -0.035305217 0.0068826154 -0.016368574 0.0836048 -0.036171257 0.008754202
0.017265113 0.09998018 0.008421626 -0.1396788 -0.00959079 -0.06927969 -0.008624253 -0.020731537
-0.16679804 0.020720735 -0.07744579 -0.092983715 -0.09741783 0.041877326 -0.108724885 -0.1537857
-0.016947057 -0.14110737 -0.14910825 -0.028357247 -0.009373028 0.004745871 -0.01101281 -0.0005978234
-0.08681216 -0.009438552 0.06059862 -0.1382039 -0.029260904 -0.02160212 -0.036601685 0.027226865
-0.12053399 0.0022786735 0.087875605 -0.06410334 -0.14145254 -0.09853676 -0.019803599 0.072324604
-0.09680834 0.018694628 -0.060794137 -0.046767388 0.056613278 -0.118882984 -0.07936155 -0.051545918
0.0074850414 -0.02079605 0.04610964 0.0046871575 -0.098353244 0.07079321 0.032222763 0.11066447
-0.056418892 -0.068972714 -0.060116295 0.0090785995 -0.09668684 -0.031988714 0.1058169 -0.04268634
0.005568379 -0.029219076 -0.14319116 -0.09549409 0.0682011 0.08197001 0.09547562 -0.04990147
0.05904453 -0.03420574 0.068336144 0.0063475966 -0.057004668 0.06704389 -0.0999742 0.093157046
-0.025169848 -0.008129787 -0.09607295 -0.09827861 -0.028851835 -0.007362946 0.039515607 -0.016755063
0.11640154 0.045633562 -0.099273816 0.08461601 -0.07439669 0.054040927 0.04472145 -0.11336433
-0.013228467 -0.013320912 0.009739013 0.010254081 -0.092351705 -0.05614776 0.059577048 0.077105924
-0.12698787 -0.055393666 -0.08404813 -0.051661164 0.010475131 -0.12446773 -0.015959952 0.056420635
-0.05581978 0.08660933 0.062351555 0.0037277564 -0.03882867 0.04323213 -0.13503487 0.08036326
-0.0053944066 -0.0395192 -0.1502258 0.05569106 -0.06223882 0.044676 0.021414753 -0.051190097
0.11489303 0.0010245452 0.067383856 -0.052594513 0.017650573 -0.033480965 0.09474161 0.055370875

weight f4 [300, 18]
00000000: 5dbb c0bc 53e3 493d dcd0 9e3b 76be 23bd
00000010: 3e3e febb ad29 e9bc 6545 0dbc 1fef 88bd
00000020: 1954 b4bc 8c40 0e3c 46b5 5fbd c820 353d
00000030: 38bf 183c 9f67 aebc 405a 863d 1a44 30bd
00000040: c10d 833c 0410 f23b 34a7 7fbc 023e e3bc
00000050: 84a9 223d 3a63 4ebd 3d73 123c 427a 5fbd
00000060: 6db5 0abc b8dc 35bd 0042 6b38 904b bc3d
00000070: 1a94 b3bb f84a b6bc 8865 343c 5915 03bc
00000080: 3fff c43c 5c16 72bd 8053 0439 8f0d d13c
00000090: 42a5 6c3d f030 1abd b0bd 693a c879 9bbb
000000a0: c95b 953c 0abb c0bc 24e5 243d cde0 933d
000000b0: da3d 833d a482 83bc 92ee 0dbd f6aa bfbc
000000c0: 0f31 853d 42e0 133c 5e77 58bd 302b 043b
000000d0: ead1 87bd c850 d83b 78ca 9fbc f26e 16bc
000000e0: a16c a03c 39c0 a3bc 20bf 04bc dec8 3cbd
000000f0: b0c9 15bb cd3a 3dbc ac82 be3c d21a d3bd
00000100: 385b 89bd c27e cabc 1c3c b93b 12e8 c7bc
00000110: 3e6c c33c 56df 4b3d 2506 743c 88e3 393c
00000120: 4863 8bbb 8ab0 7bbd 1687 123c c77a cbbc
00000130: eb78 283c 4a6d 6b3d a1e6 c8bc 2aab 6abd
00000140: f45a 90bd ac06 afbd 7005 cfbc a64f 013c
00000150: 483d a43c 305a 6d3c 0025 d3bb d18c 233d
00000160: 198e 3e3d c057 9abb e804 043c fc0e 303c
00000170: 196e 0bbd 62b7 ec3b 44d2 64bc 6003 5ebc
00000180: 508f a8ba eded 58be 306b e73b b6de a33d
00000190: e3a5 9bbc 3413 ce3c 677c fc3c 24c7 42bc
000001a0: c083 81b9 1804 72bb 9c4e cdbc 941a 1fbc
000001b0: f74c d3bc 100b 1abc 24b6 ba3c 306c 40bd
000001c0: 9593 a0bc 70c1 323c 3f81 a2bc 80a7 123e
000001d0: d4ec 00bd def8 cb3c 8906 6fbd d5a3 0fbc
000001e0: fe42 6bbd 229e 283d ca2c bb3b bd80 87bd
000001f0: 9690 84bd 7238 86bd fd5a 81bc 6689 7f3c
00000200: 3a80 2b3c 7559 97bc e0fd 02bd e02f daba
00000210: 3362 893d 9197 d4bd 2524 a0bc 364d 693c
00000220: 8095 78ba 7a79 c33c e3c5 cc3c 4c09 4cbb
00000230: 9bc0 2d3d a88f 7f3c be41 32bc 42c8 103d
00000240: 0ad6 383d 0ef2 bbbc 8c67 71bc cad2 5cbc
00000250: 9896 f7bb 3f98 ff3c 0430 d0bb 1a16 c5bc
00000260: b188 90bd 6feb a4bc ec24 43bb 447b 403d
00000270: b2b1 67bc 72e6 53bd 40da bc3c 68c6 0c3c
00000280: fc92 b8bb 0de7 53bd 684a 63bd 6f87 963c
00000290: b88a b33c 47e9 913c d73c 53bd 89a9 873d
000002a0: 4ea8 8abb dca1 593d 24cd 273c 2ea3 3bbd
000002b0: 5a12 823d e030 9cba 9e67 aabc b37d d4bc
000002c0: 7ce1 89bb ab47 313d f898 bf3b 4f2c 82bd
000002d0: b20d b33c e0ad b9bc adcf 0e3c 4ce7 e0bb
000002e0: b491 a5bb 8164 0cbd 01ab 55bd 9385 8dbd
000002f0: 7279 a5bc 44c8 573d e506 81bd 9009 6b3c
00000300: 3d99 94bc aa23 eb3c 1120 b7bc cc72 83bd
00000310: cdcd b13c 1ce2 6d3b 4171 ae3c 4cf7 02bb
00000320: 0740 8fbd 9dcf 53bd 566a 3fbd c043 06bd
00000330: b7dc cbbc 007e b9ba 9c70 8abb 5808 08bd
00000340: be2a cc3c a0f2 043b b034 6c3c 7dc6 c43c
00000350: 444d 0abd 8b95 8dbd 68c9 b7bb 1224 db3c
00000360: 42c9 8dbc f001 b63c 6cbc c1bc 0b92 adbc
00000370: fda8 ce3c 9408 0cbd 801a 30bd f0e7 65bc
00000380: 28c4 fc3b 48f0 103c f70a cabc 0062 94b9
00000390: 60c3 64bd f771 c53c 58d4 4c3d ea24 273c
000003a0: 3d29 833d 7971 b6bc 509f 7dbb 5ce0 fabc
000003b0: 305d 8b3a 9455 763d e324 2f3d 4cbc 183c
000003c0: d60f 66bd c6fa 693e 11b4 063c b111 12bc
000003d0: ea4b cd3c 7601 25bd 40ab 043c b0be 7f3c
000003e0: 5484 2abd 0ea5 8b3c 4153 9e3c 0048 eabb
000003f0: 6839 2a3b 9898 dabb 7ce6 f1bb 5d49 3e3d
-0.023526842 0.04928906 0.0048466753 -0.03997656 -0.0077588847 -0.028462255 -0.008622502 -0.06686234
-0.022012757 0.008682381 -0.054616235 0.044220716 0.009322934 -0.021289645 0.065601826 -0.043033697
0.01599777 0.007387163 -0.015603829 -0.027739529 0.039712444 -0.0503876 0.008938608 -0.054559954
-0.008466107 -0.044399947 5.6089833e-05 0.091941 -0.0054803016 -0.022252545 0.011010535 -0.008000695
0.024047492 -0.059103355 0.00012619607 0.02551916 0.05777479 -0.037644327 0.000891651 -0.004744742
0.018232243 -0.023526687 0.040257588 0.07220612 0.064082816 -0.016053505 -0.034651347 -0.02339695
0.06503498 0.009025635 -0.052848212 0.0020167343 -0.06631835 0.0066014268 -0.019505724 -0.009181725
0.019583048 -0.01998912 -0.008102208 -0.04609 -0.002285581 -0.011549664 0.023255669 -0.1030785
-0.06706852 -0.024718646 0.0056529175 -0.024402652 0.023855325 0.049773537 0.014894043 0.011345752
-0.0042537786 -0.061447658 0.00894334 -0.024838818 0.010282735 0.057477273 -0.024524035 -0.05729214
-0.07048598 -0.085461944 -0.025271147 0.007892525 0.020048752 0.014486834 -0.0064436197 0.039929215
0.046522234 -0.0047101676 0.00805781 0.01074576 -0.034040544 0.0072240094 -0.013966147 -0.013550609
-0.0012860093 -0.21184511 0.0070623383 0.08001463 -0.019 0.025155641 0.030821038 -0.011888299
-0.0002470296 -0.003692871 -0.025061898 -0.009710927 -0.025793536 -0.009402052 0.02279193 -0.046978176
-0.019601623 0.010910377 -0.01983702 0.14321709 -0.031475857 0.024898943 -0.05835584 -0.008767088
-0.057436936 0.041166432 0.0057121264 -0.06616352 -0.0647289 -0.06553735 -0.015790457 0.015596723
0.010467583 -0.018475274 -0.031980395 -0.0016646348 0.06708183 -0.103804715 -0.019548485 0.0142396
-0.00094827265 0.023861635 0.024996703 -0.003113347 0.04242001 0.015598215 -0.010879932 0.03534723
0.045126 -0.02294257 -0.01473416 -0.01347799 -0.007555794 0.031200526 -0.00635338 -0.02405839
-0.07057322 -0.020131795 -0.0029776646 0.046992555 -0.014141487 -0.05173344 0.023053288 0.008592226
-0.0056327563 -0.05173402 -0.05549088 0.018375127 0.021916732 0.01781143 -0.051571693 0.06624133
-0.0042314893 0.053132877 0.01024178 -0.045809917 0.063511565 -0.0011916421 -0.020801362 -0.025938844
-0.004207788 0.04328124 0.0058470927 -0.063561074 0.021857116 -0.022665918 0.008716506 -0.0068635102
-0.0050527696 -0.034275535 -0.052165035 -0.06910243 -0.020199511 0.052681223 -0.06300143 0.014345542
-0.018139476 0.02870353 -0.022354158 -0.0641838 0.021704579 0.0036298102 0.021294238 -0.0019983826
-0.06994634 -0.051711667 -0.04673227 -0.032779455 -0.024885518 -0.0014151931 -0.00422485 -0.033211082
0.024922725 0.0020286217 0.014416859 0.024020428 -0.033765092 -0.06913289 -0.0056087263 0.026750598
-0.017307881 0.02221772 -0.023649417 -0.021187803 0.025227064 -0.03418787 -0.042994022 -0.014032349
0.0077138133 0.00884635 -0.024663432 -0.00028301775 -0.055850387 0.024102194 0.050007194 0.010201672
0.0640435 -0.022270905 -0.0038699694 -0.030624561 0.001063263 0.060140207 0.042759787 0.009322237
-0.056167446 0.22849569 0.008221642 -0.008915351 0.025060613 -0.040284596 0.00809747 0.015609428
-0.041630104 0.017046478 0.019326808 -0.0071496964 0.0025974158 -0.0066710226 -0.007382212 0.046456683

bias f4 [300]
00000000: 966a c6bc 1429 8a3d 6d8f 5a3d 847c 6ebd
00000010: 1b63 a1bc bae9 05bd 50eb 213b f767 46bd
00000020: b84a 01ba 54db 30bd 3b6f 863d 2d5a d8bc
00000030: 2e1c 953c 4ea4 1c3b 4fc4 e1bc 1945 4cbd
00000040: e5e2 16bd 5652 20be 8337 1ebe a2ec a53c
00000050: b1e0 efbc 60a2 c6bd 4088 b93a d8e4 0fbe
00000060: 85af 83bc aaae 183d d49a d8bd 0eea 6e3d
00000070: b601 aebd b2ae f4bc 0cc5 39bd 1c05 0dbe
00000080: 7e62 29bd 16b6 193c c872 17be d7bf 5cbd
00000090: c7a0 28bd 41c0 8abc a6c9 cfbd d109 05be
000000a0: c2d2 4abd 0018 5cb8 dcf7 b93d cc22 a0bb
000000b0: 8841 8dbc c210 16bc 1595 b3bd e8c8 24bd
000000c0: b299 36bd 6031 53bc 672f 13be 80ea 0fbd
000000d0: c076 cbbc d603 fcbc 5ca8 8ebd c01e 3b3a
000000e0: a901 61bd f21a bcbd 3f17 78bd ffdd 19be
000000f0: 8c55 6bbd bef8 2cbd 58dd 4c3b fc09 17bd
00000100: 5c34 ba3c d552 53bd 7f06 13be 52a5 83bd
00000110: 5a25 49bd e72a b2bc 90eb c63c c97d 1cbb
00000120: 9d2d 1bbe 8860 63bd d3ea ffbc 2b2b 0ebe
00000130: 3ba8 47bc ba5a 64bd 9df1 863c 6209 86bc
00000140: a5b3 0bbe 9312 23be 58ca 4cbd 6477 82bb
00000150: 0645 913c 78df 28bd dd7a debc c43d a63c
00000160: 6d0c 1cbe 34df c0bc 378f 21bd 985a 21bc
00000170: 7939 1abe e573 f8bc 41b8 2abd 52d7 85bd
00000180: a113 13bd 9d5a 17bd ee80 04bd 9a03 d6bc
00000190: 9e70 c13c 5df9 f4bd b4fc 21be 3e52 19be
000001a0: fe9a 623c 715d 7fbd 14c4 17be 7148 9fbc
000001b0: 9f7a 8fbd a4da bebc 8804 963a 0490 19be
000001c0: d71c 22be 7c2a ffbd 7619 35bd 919a bcbc
000001d0: ee4b efbc 3cc7 2cbd 1ccc 64bd 4fc3 81bc
000001e0: d4ea 29bd 6073 053c 30f0 f5bd 900e ddbb
000001f0: 6922 cabd 38b6 463b 2036 153c eae4 c6bd
00000200: c130 bfbc 2465 bf3c 2520 18be 4826 4dbd
00000210: e091 cdbd 0267 c3bc cd3e 91bd a934 7d3c
00000220: f522 febd 52a8 23be b774 2f3c 7032 14bd
00000230: d372 15bd 8a64 3ebd 856e 51bd 860e 06bd
00000240: f683 75bd 03dd 9d3d 8281 dbbb 2054 243a
00000250: fbd6 f7bd ca27 e5bc 5215 a43d afa9 2bbe
00000260: d358 9d3c a6a6 f9bd 5abc 7ebc 9ac8 8ebc
00000270: 0af6 e0bd 2ef3 533c 34f7 46bd ce0c 5cbc
00000280: 22c6 64bc a645 46bd 9791 34bd 2b42 5bbd
00000290: a952 1bbd 0085 3539 1cef 1bbe 3f33 d5bd
000002a0: d109 e4bc e726 f43c 563d 42bd fc05 8b3c
000002b0: 306a 1fbe 1713 19be cf9a 17bd 986b 13bd
000002c0: d9e0 46bd f524 52bd db52 c3bc aebf 4abd
000002d0: f4af 07be 76d1 12be 656b 0bbd 9491 bebd
000002e0: 305b 1cbe 08d3 eebc 76b2 a6bd 7bb3 24be
000002f0: baa0 01be b33b ffbd 98a9 683c 224a 18be
00000300: 0abc 52bd 12d2 1abd 7872 f7bc ba45 113d
00000310: e225 21be c84a dfbc 6309 d7bd 0e73 19bd
00000320: 55f9 3b3c d0f0 37bc 7921 f8bc 6622 f2bc
00000330: aad4 21be 4056 04be 640a 74bc dc15 6dbd
00000340: 4a67 b03c eee4 27be 30a9 703b f6ff a5bc
00000350: f072 2e3d 75b4 00bc a7cd 76bd 7cc9 22bd
00000360: e6d5 b9bc 1403 76bc 7433 afbc 1d52 193c
00000370: ba5b 54bc 1f51 17be 0d06 4ebd b6be 42bc
00000380: 063d 96bd 815f f5bc d81c 05bd 3256 01bd
00000390: 52bb 83bd e359 08be e0b8 4bbd 97c3 c1bd
000003a0: 7a01 23be 66c5 76bd 5a98 80bd afd9 1abe
000003b0: 1713 073d f5e4 c3bd 62d0 4abd e363 9a3d
000003c0: 9a85 07be 0a8e 23bd 6840 27be d5b1 4fbd
000003d0: d558 c9bc c8d0 f1bd fd93 20be 8990 cdbc
000003e0: 5c03 19bd 890d 89bd d0f8 c4bd eea8 a43c
000003f0: d843 83bb 107b 993a a93b 64bc 8561 c13c
-0.024220746 0.06746116 0.053359438 -0.058224216 -0.019700577 -0.032693602 0.0024706908 -0.048438992
-0.00049320934 -0.043177918 0.06564184 -0.026410187 0.018201914 0.0023901644 -0.027559428 -0.049870584
-0.036837477 -0.15656409 -0.15450864 0.020254437 -0.029281946 -0.09698939 0.0014154986 -0.1405214
-0.016074905 0.037275948 -0.10576406 0.05832868 -0.0849642 -0.029868457 -0.045353934 -0.1377148
-0.041353695 0.009381792 -0.1478988 -0.05389389 -0.041168954 -0.016937377 -0.10145883 -0.12992026
-0.0495174 -5.247444e-05 0.090804785 -0.0048869606 -0.017243162 -0.009159269 -0.087686695 -0.04023066
-0.04458017 -0.01289019 -0.14373551 -0.035135746 -0.024836898 -0.030763548 -0.06965706 0.0007138066
-0.054933224 -0.09184827 -0.060569044 -0.15026091 -0.05745463 -0.042229407 0.003125986 -0.036874756
0.022730045 -0.051592667 -0.14357947 -0.06428017 -0.049107887 -0.021748973 0.024282247 -0.0023878685
-0.15154119 -0.05551198 -0.031239903 -0.13883655 -0.012186105 -0.055750586 0.016472632 -0.016361896
-0.13642748 -0.15925054 -0.049997658 -0.0039815176 0.017733108 -0.04122874 -0.027158195 0.020293124
-0.15239115 -0.023543932 -0.03944322 -0.009848259 -0.15060987 -0.0303287 -0.041679624 -0.0653521
-0.03590739 -0.03695165 -0.03234952 -0.026124764 0.02361327 -0.11961625 -0.15819055 -0.14972779
0.013830898 -0.062344972 -0.14820892 -0.019443722 -0.0700581 -0.023297615 0.0011445442 -0.14996344
-0.15831314 -0.12459275 -0.044213735 -0.023022922 -0.02921101 -0.042182192 -0.055858716 -0.0158402
-0.041483715 0.008145183 -0.12008703 -0.0067461208 -0.098698445 0.0030321013 0.009107143 -0.09711631
-0.023338677 0.023363657 -0.14856012 -0.050085336 -0.10037589 -0.023852829 -0.070920564 0.01545445
-0.12409011 -0.15982178 0.010708979 -0.036180913 -0.036486458 -0.0464826 -0.05113079 -0.032728694
-0.0599403 0.0770817 -0.006698788 0.0006268639 -0.12101551 -0.027973074 0.08011879 -0.16763948
0.019207394 -0.12189989 -0.015547836 -0.017429639 -0.10984428 0.0129363965 -0.048575595 -0.013430787
-0.013963254 -0.048406266 -0.044084158 -0.0535299 -0.037920628 0.00017311051 -0.15227932 -0.10410165
-0.027836712 0.029803706 -0.047421776 0.016970627 -0.15567851 -0.14948688 -0.03701287 -0.03599128
-0.048554275 -0.051304776 -0.02384322 -0.049499206 -0.13250715 -0.14337716 -0.034037966 -0.093051106
-0.1526916 -0.029153362 -0.081395075 -0.16084091 -0.12658969 -0.124625586 0.014200591 -0.1487203
-0.05144886 -0.037797995 -0.03020595 0.035466887 -0.15737107 -0.027257338 -0.10499837 -0.03746324
0.01147302 -0.011226848 -0.030289399 -0.029557418 -0.15803781 -0.12923527 -0.014895055 -0.057882175
0.021533627 -0.16395923 0.0036721937 -0.020263653 0.04259008 -0.007855524 -0.06025472 -0.03974293
-0.022685003 -0.015015382 -0.02138684 0.009357956 -0.012961322 -0.14777039 -0.05029874 -0.011886289
-0.07335858 -0.029952766 -0.03249821 -0.031576343 -0.06432213 -0.13315539 -0.049736857 -0.09461134
-0.15918532 -0.060246848 -0.06279059 -0.15122102 0.03297719 -0.095651545 -0.049515136 0.07538583
-0.13234559 -0.03993038 -0.16333163 -0.050706703 -0.024578491 -0.118074 -0.15681453 -0.025093334
-0.03735672 -0.06692035 -0.0961777 0.020100083 -0.0040058903 0.0011709649 -0.01393024 0.023606071

weight f4 [300, 300]
00000000: 3a5a 863c b881 70bb 089c b4bb 32e8 8b3c
00000010: cb9b 8cbc 1e6b d63c 24fc b23b 1e93 513c
00000020: 2c3a aebc 82d9 50bc 9cff b83c 3a67 6fbc
00000030: 320d 113d 671d 3fbc 8c7c c8bc a54b 113d
00000040: 039a d03c c056 cfbc e9cb 123d b21c 3dbd
00000050: 5536 e0bc fb9e 923c cee0 293d d4fe 95bc
00000060: 6dd2 27bd 3117 d93c fb63 fabc 6005 61bc
00000070: aa47 7c3c 97aa a3bc 1bd4 79bc 0607 98bc
00000080: 82f7 7ebc 6c6d 90bc fa11 68bc 4cb0 2d3c
00000090: c029 b43a a540 32bd 8c6a 913c 439d 963c
000000a0: 8891 adbc 315f 51bc 98b0 d13c c28b d0bc
000000b0: cf63 0c3d 2c22 c6bb 477f d1bc 363d 8f3c
000000c0: 00d9 1dbc 6c7d cc3c 10e0 10bb fb08 81bc
000000d0: c445 a5bc e60b 803c 9c84 4c3b 64de 52bd
000000e0: 00db 12b9 1405 df3c fae3 2a3d b5f5 d43c
000000f0: 9ac6 83bb 2c19 bdbc 80f1 723b 84c5 c5bc
00000100: 68bb 15bc e28e 243c 719a 833c 7f06 673c
00000110: c4a7 c63b bf10 42bd c506 6abc 6c5f a8bc
00000120: 2898 563c 5dd4 d63c 50f0 bbbb b851 8a3c
00000130: 68da 16bc 34f8 bdbc d248 37bd 94b6 073d
00000140: 8830 3a3c 3a41 363c aa68 4ebc ec45 dbbb
00000150: 7b8f a43c 0c0e 11bb 6ebd abbb 3031 c1bb
00000160: 72d7 0d3c ba6f 2dbc b43d 87bc 4185 4fbc
00000170: a015 583a 2250 15bc 9acd 05bd bb27 b23c
00000180: a25a 563c 9e67 a1bc b6b9 1c3d aea5 61bc
00000190: 8079 7c3b e07e b7bc a656 2d3d e001 363d
000001a0: e457 2bbc 86f4 d7bb 1276 20bc 800a 9439
000001b0: 0a2d b33c 3807 8fbc 3acd 0e3d ecda 59bc
000001c0: 3622 05bc ba45 d0bc 943c cb3c 3cd5 e73b
000001d0: 8019 1639 9c74 aa3c 0fe0 c7bc b410 43bc
000001e0: 6809 19bc 64ca 21bd 50b1 413c ff03 c6bc
000001f0: f0a0 e73c 301e 043c c856 bf3c ae7f c63c
00000200: bb8a e83c 9bc2 873c e6a9 9abc ea48 873c
00000210: 30d9 09bb 97d6 0b3d 3239 61bc dfbc 9c3c
00000220: 7168 ccbc 3668 afbc ec5d 1abc e4b0 b1bc
00000230: 357c 443c 3a24 4e3c 3ad5 d3bb ca78 0abc
00000240: 05ab 90bc 9875 9b3b fbba fabc 29e4 a2bc
00000250: aefe 5d3c b474 1bbd a117 81bc c042 debb
00000260: 1ebd 13bc 5fef bc3c 77c6 c23c 4e5d 08bc
00000270: dc3d 82bb 7281 04bc 5c32 653c 58b7 a43a
00000280: f4a9 4b3c 149e 78bc 27dc bebc 3de7 213d
00000290: 8203 2fbc d2d3 7cbc 9420 1c3c 334d 59bc
000002a0: c07c fd39 349e e33c 181f 823c 6a3a 01bc
000002b0: fd73 ba3c 0a43 513c 8049 90bb 2863 f0bc
000002c0: 5078 f13c 5e97 94bb f8e7 a4bb fa14 283c
000002d0: 2ce9 6cbc 7266 913c 9bf6 d13c 08d3 afbc
000002e0: 201e 1eba ead9 22bb 0995 3a3c 4047 6e3c
000002f0: d486 a5bc 9dd1 a8bc 883f 2c3c 5cbc 9abb
00000300: 4611 9f3c 24bf fcbb 5278 a93c 2990 483d
00000310: 4026 f73a 5e9f 0b3d d744 ab3c 7937 8e3c
00000320: 43b8 ba3c f172 9abc fbc0 0ebc e2de de3c
00000330: 38d3 abbc c76e 043d 3e81 233c 167d c43c
00000340: 36da bcbc 6c91 05bc f25b 8e3c 748f c4bb
00000350: 6d4a 83bc 369f 493b b52f f13c 3c2c cdbc
00000360: 8af9 d83c 7034 d0ba b6db 9d3b 5837 8abb
00000370: 70d7 abbc 18a9 bd3b 09b1 98bc e288 2dbc
00000380: 5e42 8f3c 0478 d73b 4e76 a93c e888 dd3c
00000390: 382c b33b 8c71 04bc 9828 213b fe53 91bc
000003a0: e8e2 c5ba da00 99bc d6ef 9fbb f09c aabc
000003b0: 01db 8a3c c074 edbb 38e3 b5bb 669a eb3c
000003c0: 6458 c13c 60e8 463c a8e4 1fbb 7dd9 a4bc
000003d0: 30f1 c93c de91 f0bb 3035 823b 72ae 0c3d
000003e0: 106b 98ba a1a5 e2bc 227d 173b 5a7e 66bc
000003f0: c0a2 7eba 12f8 5f3c 41a5 d33b fe40 ff3c
0.016400445 -0.0036698412 -0.0055117644 0.017078493 -0.017164132 0.026174124 0.0054621864 0.012791423
-0.021267973 -0.01274717 0.022582822 -0.0146120135 0.035412975 -0.011664725 -0.024473451 0.03547253
0.025464064 -0.02530992 0.035838995 -0.046169944 -0.027369658 0.017898073 0.041474156 -0.018309988
-0.040972162 0.026500316 -0.030565253 -0.013734192 0.015397945 -0.019978805 -0.015248324 -0.018558037
-0.01556194 -0.017630301 -0.014164442 0.0106011145 0.0013745353 -0.04351868 0.017751 0.018385535
-0.021187559 -0.012779043 0.025596902 -0.025457267 0.034274872 -0.006046554 -0.025573386 0.017485242
-0.009634256 0.02496215 -0.0022106208 -0.015751353 -0.020174868 0.015630674 0.003120697 -0.05148162
-0.00014005229 0.027224101 0.04172132 0.025996068 -0.004021478 -0.023083292 0.0037070215 -0.024142034
-0.009138919 0.010043832 0.016064854 0.01410067 0.0060624797 -0.04737925 -0.014283841 -0.020553313
0.0130978 0.02622431 -0.0057354346 0.01688467 -0.009207346 -0.023189642 -0.04474718 0.033133104
0.01136411 0.01112395 -0.012598196 -0.006691685 0.020087948 -0.0022133617 -0.0052410876 -0.005895756
0.008657323 -0.01058572 -0.016508915 -0.012666048 0.00082429685 -0.009113343 -0.03266678 0.02174746
0.013083132 -0.019702729 0.038263045 -0.013772411 0.0038524568 -0.022399366 0.042318963 0.044435382
-0.0104579665 -0.0065904288 -0.009793775 0.00028236583 0.021872062 -0.017459497 0.034863688 -0.013296824
-0.008125832 -0.025423873 0.02480916 0.00707498 0.00014314614 0.020807557 -0.024398832 -0.011905838
-0.0093406215 -0.039499655 0.01182206 -0.024171827 0.028274983 0.008063838 0.02335681 0.024230804
0.028386464 0.016572287 -0.018879842 0.01651426 -0.0021033995 0.034140196 -0.013746547 0.01913303
-0.024952145 -0.021411996 -0.009421807 -0.021690793 0.011992504 0.012581879 -0.0064646276 -0.00845165
-0.017659673 0.004744243 -0.030606737 -0.019884186 0.01354949 -0.037953094 -0.015758337 -0.0067828596
-0.009017257 0.02306336 0.023776276 -0.008323027 -0.0039746594 -0.008087503 0.013989057 0.0012566848
0.012430657 -0.0151744075 -0.023298336 0.039527167 -0.010681989 -0.015431361 0.009529252 -0.013263035
0.00048348866 0.027785398 0.015883967 -0.007887462 0.022760386 0.012772331 -0.004403293 -0.029344156
0.029476315 -0.004534646 -0.0050325356 0.010258907 -0.014459889 0.017749045 0.025630286 -0.021462932
-0.00060317107 -0.0024849125 0.011388072 0.0145433545 -0.020205893 -0.020607764 0.010513194 -0.004722161
0.019417416 -0.0077132154 0.020687256 0.048965607 0.0018856004 0.03408753 0.020906849 0.017360436
0.022792941 -0.018853636 -0.008713002 0.027205888 -0.02097474 0.032332208 0.009979544 0.023985427
-0.02305327 -0.008152347 0.017377827 -0.0059985463 -0.0160267 0.0030765063 0.029441694 -0.025045507
0.026486177 -0.0015884768 0.0048174514 -0.0042180233 -0.020976752 0.00578798 -0.018639104 -0.010591717
0.017487701 0.0065755863 0.020686295 0.027042821 0.005467918 -0.008083712 0.0024590846 -0.017740246
-0.001509753 -0.018677164 -0.0048808856 -0.020826787 0.016950132 -0.0072465837 -0.005550768 0.028760146
0.023601718 0.012140363 -0.0024397764 -0.020123238 0.02465114 -0.0073416075 0.0039736256 0.03434605
-0.0011628587 -0.027666869 0.0023115356 -0.0140682105 -0.00097135827 0.013669984 0.006458909 0.03115892

bias f4 [25]
00000000: 0000 0000 0000 0000 0000 0000 0000 0000
00000010: 0000 0000 0000 0000 0000 0000 0000 0000
00000020: 0000 0000 0000 0000 0000 0000 0000 0000
00000030: 0000 0000 0000 0000 0000 0000 0000 0000
00000040: 0000 0000 0000 0000 0000 0000 0000 0000
00000050: 0000 0000 0000 0000 0000 0000 0000 0000
00000060: 0000 0000
0.0 0.0 0.0 0.0 0.0 0.0 0.0 0.0
0.0 0.0 0.0 0.0 0.0 0.0 0.0 0.0
0.0 0.0 0.0 0.0 0.0 0.0 0.0 0.0
0.0

weight f4 [25, 300]
00000000: d386 c63d 5e02 6d3d 66f3 c2bd 6554 b7bd
00000010: 34e5 54bd 5426 fc3d 0c8a bc3c c520 c3bd
00000020: b8af 14bd cebe ec3b 712c 11bd 0e9f f2bb
00000030: 2776 a8bd 7677 583d 78e8 66bb 385b 52bd
00000040: 79dd f63d e01b 9b3d 7f83 d13d a1f0 b73d
00000050: a766 143d da92 3fbd 48db 4b3d cf28 f4bd
00000060: 9571 c03d b7b8 8fbd 4042 c5bd a1bb a33d
00000070: e83f 83bd 7731 883d 0497 98ba 3637 e8bd
00000080: ada7 38bd d663 a53d 6a2a 45bd 0b74 a73d
00000090: 3393 bb3c f687 a63c d783 063e 7c48 613d
000000a0: 8886 98bd 3617 03be b874 a63d 6a0c 94bd
000000b0: ac40 39bd d29a ff3c c832 d23d 3a86 053d
000000c0: 9924 ecbd f251 593d e5a4 873d 4014 a2bd
000000d0: 3a39 083e b19a 00be b3da 9d3d 4aa9 d33d
000000e0: cd39 063e 07fb 5cbc fd11 0dbd 9d43 7a3d
000000f0: f9fe 1f3d c6c7 1e3d 31c5 e53c bc94 063e
00000100: 48f9 d93d 208e d3bb daba 853d b8df c53a
00000110: 1e46 8b3d 446d 90bd 22e6 4abd 5bac c4bd
00000120: 0268 79bd 5b13 193d ce73 b33d 4d2f 913d
00000130: 3e52 973c 8cf4 023d 8675 0abb b341 0e3c
00000140: 628c 8d3d 6c16 f3bd 41ac eabc 87d5 44bd
00000150: b1a6 89bd c714 d6bc b59a b33d f812 fdbd
00000160: 39d1 04be b6fa fabd c1ad 09be d644 24bd
00000170: 0b2d c3bd d16d 973d 5bcd 8d3d b803 62bc
00000180: b06a 683d 3823 193d 8602 293c 61a5 55bd
00000190: 2dd8 a53d cc07 25bd cd44 ae3d f8a7 07be
000001a0: 9313 373a 3184 963c 85f5 9bbd 0301 5f3d
000001b0: 6151 ab3d 3db6 f5bd 6601 fcbc 9e11 ed3d
000001c0: a1e2 913d ec42 17bc d04f 2e3d 9c76 3fbd
000001d0: 66c2 87bd b5c4 ba3a 1b86 a33c ef0b f33d
000001e0: b454 54bc 62bb c93b cf82 ed3d 7a95 da3d
000001f0: 3529 ecbd f398 f93d 3b4a d73c 381e 1ebd
00000200: 024a 563a 972b 993d f82b c63d f12f 9abd
00000210: 4324 723d 6aa9 f93c f126 af3d 6dd4 fd3c
00000220: 1c2f 42bd be87 b5bc a7c9 8c3d 5cb9 bcbd
00000230: af3a cd3c d5a2 ed3d ea6d 91bd 2929 7d3d
00000240: aa53 95bd 43e1 8dbd 563b b8bd d579 6d3d
00000250: 4bfa b23c 11e6 083e 77b6 93bd 73e2 6a3d
00000260: 6cff f1bd ac9f 3dbd 9195 013e c9c3 47bd
00000270: ddd4 443d d0f3 c6bc a3f3 9b3c d337 59bd
00000280: c83d ebbd bfd1 5fbd 937f e9bd 21a9 bb3d
00000290: a6a6 c03d 0d12 d2bd 63e2 553d 80ae aabd
000002a0: c476 c9bc 7c3b afbd 2500 c03d a92a f8bd
000002b0: 77b7 82bd 321d 813d 224d dfba 5232 b9bd
000002c0: 9b0a 2fbd 433e 43bc 2cbd d83d c29e e13d
000002d0: 0091 08bc 12a7 dabd 1cad c2bd 9383 69bd
000002e0: 2909 93bd d80d c4bc 8e02 173d 5c45 dc3d
000002f0: 734d 033e 2da1 423d e662 b33d b436 23bd
00000300: faed 043e 1235 40bd 23a5 af3d c84d a23d
00000310: 9744 7e3d c2a3 8bbd 6181 c1bc 80c7 353b
00000320: f1de 103c 88c6 923d b854 06bd 4faf a339
00000330: b028 c83c a59c a7bd ef93 c0bd 8243 c13d
00000340: 27eb dd3c 59af 5cbc 845a 75bd 2fb6 95bd
00000350: f085 72bd 7e50 3d3d e790 b5bd 5825 223d
00000360: 434f a6bd 6e9e 4bbd 8a08 e83d 96a1 d3bc
00000370: 7e0b 30bd 4411 bc3d d262 eebc 9e34 eebd
00000380: 0603 e3bc 3654 063e 6a2d d6bd 9cad fd3d
00000390: 9841 a03d 0562 553d 15e8 fabd a36b eebd
000003a0: b8d9 9bbd b759 01be c697 f7bd d31a e9bd
000003b0: afe2 b23d 9641 77bd 5d62 8d3d dd55 b0bd
000003c0: f597 6abd 4f69 00bd 77ed cbbd 0688 69bc
000003d0: 5aa7 bbbd 65ee 96bd f6d2 953d 3a07 30bd
000003e0: f513 8d3d 1998 9f3c fac9 cbbd d429 053e
000003f0: a46c 603b c76d 94bd 9a0d f0bc 185a d43d
0.096936844 0.057863586 -0.09519081 -0.08951644 -0.051976398 0.12311998 0.023015045 -0.09527735
-0.03630039 0.007224894 -0.035442773 -0.0074042147 -0.08225661 0.0528483 -0.0035233777 -0.051356524
0.12053961 0.07573676 0.10230159 0.08981443 0.03623071 -0.046770908 0.04976967 -0.11921846
0.09396664 -0.070176534 -0.09631777 0.07994772 -0.064086735 0.0665006 -0.0011641686 -0.11338656
-0.045081783 0.08075683 -0.048136152 0.0817643 0.022897338 0.020328503 0.1313623 0.055000767
-0.07447535 -0.12801823 0.08127731 -0.0722893 -0.04522769 0.031201754 0.10263592 0.03259871
-0.11530418 0.053056665 0.06623248 -0.07914019 0.1330308 -0.1255901 0.07707729 0.10335024
0.13107987 -0.013487584 -0.034440983 0.061099637 0.03906152 0.038764738 0.02804813 0.13142675
0.1064325 -0.0064561516 0.0652978 0.0015096581 0.06800483 -0.07052091 -0.049535878 -0.09603187
-0.060890205 0.037371974 0.08762322 0.070891 0.018471833 0.0319715 -0.0021127178 0.008682656
0.069115415 -0.11869511 -0.02864659 -0.048055198 -0.06721247 -0.026132954 0.087697424 -0.123571336
-0.12970437 -0.122548506 -0.13445188 -0.04010471 -0.09530076 0.07393993 0.06923934 -0.013794832
0.05674237 0.037387103 0.010315543 -0.05215967 0.08097873 -0.04029064 0.085092165 -0.13247669
0.0006983813 0.01837358 -0.076151885 0.054444324 0.08365131 -0.1199765 -0.030762386 0.11575626
0.07123304 -0.009232264 0.042556584 -0.046743974 -0.066288754 0.0014249297 0.019961407 0.118675105
-0.012959648 0.006156371 0.115972154 0.10673042 -0.11531297 0.12187376 0.026280513 -0.038603038
0.000817448 0.07479017 0.09676355 -0.07528675 0.059116613 0.03047629 0.08552349 0.030985082
-0.04740821 -0.022159453 0.068744 -0.09215042 0.025052397 0.11603323 -0.071010426 0.06180683
-0.07291348 -0.06927731 -0.089956924 0.057977516 0.021847865 0.13369013 -0.07212537 0.057344865
-0.11816296 -0.046294853 0.12654711 -0.0487707 0.048054565 -0.02428618 0.019037073 -0.053031754
-0.11486393 -0.05464339 -0.11401286 0.09163118 0.09406786 -0.10257349 0.052217852 -0.083340645
-0.024592765 -0.085562676 0.093750276 -0.12117512 -0.063826494 0.06304397 -0.0017036537 -0.09042801
-0.042734724 -0.0119167 0.10582957 0.11016609 -0.008335352 -0.106763974 -0.09505674 -0.057010245
-0.071794815 -0.023932382 0.03686767 0.10755417 0.12822513 0.04751699 0.08759098 -0.03984709
0.12981406 -0.04692561 0.08576419 0.07924992 0.06207713 -0.06818344 -0.023621263 0.002773732
0.008842216 0.07166773 -0.032795638 0.00031220398 0.024433464 -0.081841744 -0.09403216 0.09436704
0.027089668 -0.0134695405 -0.059900776 -0.073101394 -0.059209764 0.04621934 -0.088655286 0.039586395
-0.08120587 -0.049711637 0.11329754 -0.025833886 -0.04297971 0.09182981 -0.029099856 -0.1163113
-0.027711403 0.13118061 -0.10457881 0.12386629 0.07825011 0.05209543 -0.122512974 -0.11641624
-0.07609886 -0.1263188 -0.12089495 -0.113820694 0.08734643 -0.060365282 0.06903527 -0.08610127
-0.057273824 -0.03135043 -0.09957402 -0.014253622 -0.09162779 -0.07369689 0.07315628 -0.04297564
0.06888572 0.019481706 -0.09950633 0.13004237 0.0034244442 -0.07247501 -0.02930336 0.103687465
