deep_learning/models/GCNLinkPrediction81.pth (torch, 443008 bytes, 6 tensors)

bias f4 [300]
00000000: ebf0 cbbc 60a8 0ebd 40ac 0abd 6860 d1bc
00000010: 091f 4cbd 38d6 25bd eaf7 31bd 9d67 4d3c
00000020: ab26 36bd 56a5 43bd 182a 203b faa8 133c
00000030: 487d 3f3d 1fd8 1dbd 5c27 d93b b9ee 45bd
00000040: f27b 6ebb a6ea 9bbc de5e 11bd 87ab 20bc
00000050: 7adf d43c d272 323c 39bb 07bc 511a 8739
00000060: 3ee3 053d 5b91 efbc a53b a6bc 556e 13bd
00000070: 3cd7 d63a 92d5 07bd c705 523d 2797 5fbd
00000080: 0787 57bd 265c 2dbd 08ad f73c 707a 4abc
00000090: c9ff 103d 9ee7 1ebd 564b 30bd 8a9a 1abd
000000a0: 2823 bebc 13fb 08bd 86dd ddbc 3493 993c
000000b0: 978e 76bc 2803 e03c 9073 24bd 2368 813d
000000c0: c80a e13b 4922 973b 201a 843d de54 36bd
000000d0: b0d4 fdbc fa77 15bd 95c1 913c 5e5f 073d
000000e0: 07f4 15bd 51bf 543d 6810 4fbc c346 f8bc
000000f0: e75d 433d d228 91bc 6ec2 573d 8b0e 2cbd
00000100: 8703 bdbb 9735 1fbd 518d 1fbd 155c 453d
00000110: c49f 8e3c 6003 2dbd 14e7 b73b 755a 903c
00000120: e217 733c da1b 1ebd e596 b0bc bbfb 0abd
00000130: c06a 0cbd 013a 53bd bec0 8abc c864 9abc
00000140: d797 0abd 055d 56bd f80c 933c f54a 23bd
00000150: 8a19 333d ccc1 73bd 548b 82bb 9655 853c
00000160: 06b8 f9bc b0bc dbbc 1488 3fbc 48b6 dfbc
00000170: b937 153d 8906 17bd 1fed 03bd 0a34 0ebd
00000180: 0dbf 823d a661 68bd 8759 183d 807f 44bd
00000190: 5ef1 943c b0f4 2dbd 5cf7 59bb 0f6d 11bd
000001a0: 8aa0 f5bc 4bf7 863d 2720 1dbd f3bc 7bbd
000001b0: bd93 0a3d c63e 78bd a23a 1c3d ed69 55bd
000001c0: 4899 2bbc 4ea8 6bbc de50 ee3c 08f1 b9bc
000001d0: 4c86 553c c2bd 13bd 9464 11bd 863e eebc
000001e0: bc52 2b3d b987 833d 6127 333b b1c0 173d
000001f0: 82e0 d2bc 0000 0000 9c4c f03c 4c21 83ba
00000200: 7a15 cabb 4c36 19bd 9ac7 11bd f20d 3f3d
00000210: 8cf2 083b 18f4 31bd ef1d 563c 6607 d4bc
00000220: fc70 d3bc 1243 92bc 3b38 c33b ee2b 1abd
00000230: dca4 0ebd daea 2dbd 20b5 933c 91ff e33c
00000240: 18f7 03bc 7485 4b3d 72ed 42bd fc98 9bbc
00000250: dc49 d83b dddc 46bd 70d2 56bd 34b1 28bd
00000260: fe4d aebc 042f e6bc 91df d13c 8278 9abc
00000270: 565e 14bd dfc0 843d 3fde f53b d3de 413d
00000280: 0aed 373c 2ebc f8bc 36a9 0ebd 036e 463d
00000290: 48d7 b83c 50c3 32bd 9770 f8bc 4799 07bd
000002a0: 099b 803c 943d 3cbc 7344 79bc ebbb 16bd
000002b0: 340c 1fbd 8edc 1b3c 7b2e 22bd f70f 403c
000002c0: 38da 1d3c 2689 00bd 5dd2 733d bc89 43bc
000002d0: c847 74bd 3d40 48bd f898 db3a 1cb8 2dbd
000002e0: 36b3 18bd 452d 1abd 6798 cebc 9384 3b3d
000002f0: 6ebc 523c 1e4c 11bd af44 a7bc b4a3 9bbc
00000300: 5e06 b4bb fef3 54bb ed6d ffbc 65c7 3a3d
00000310: a621 caba e9cf 47bd 903a 49bc 4391 12bd
00000320: c963 11bd b6d9 093d 1287 a03c 0b1e 0b3b
00000330: 8be6 06bd 0b6c 83ba d699 b23c b42a 01bd
00000340: 47bc 013c c1d0 d23c cb2e 6dbd 001d 14bd
00000350: 2ca1 4d3d cd5e cf3c 6e58 60bb f0a1 41bc
00000360: e674 bcbb cdfe 1dbd 87da 49bd 7694 db3b
00000370: 967b 25bd 2028 ae3c cc96 22bd 7a97 5e3d
00000380: 959b 1e3d c048 113d 7c5a 8fbc 6385 823d
00000390: d43d 9fbc 191d 56bd c2cf 013c ea01 5ebd
000003a0: 2ba2 4dbd b674 44bd 0e33 893d de62 3e3c
000003b0: 8f99 3f3d 3cc9 41bd 0439 153d 0377 5ebd
000003c0: 6a84 263d 063d f7bc e48a 65bc 24b7 16bd
000003d0: 80ae 05bb 9b14 4bbd 54c0 5c3b 8e0e 33bd
000003e0: 7e5f 9abc 1791 5ebb d3cf 263d a4e9 2a3d
000003f0: 7824 05bd 3614 bebc d8b8 6c3d 899b 9c3b
-0.024895152 -0.034828544 -0.033855677 -0.025558665 -0.049834285 -0.040487498 -0.04344932 0.01253691
-0.04447047 -0.0477651 0.0024439152 0.009012455 0.046750337 -0.038536187 0.0066270065 -0.048323367
-0.0036389795 -0.019032788 -0.035490863 -0.00980652 0.025985468 0.010891633 -0.008284383 0.00025768814
0.03268742 -0.029244116 -0.020292113 -0.035993893 0.0016391049 -0.03316266 0.05127504 -0.05458751
-0.052619006 -0.042324208 0.030233875 -0.012358293 0.035400186 -0.038795106 -0.043040596 -0.037745036
-0.023210123 -0.033442568 -0.02708317 0.01874695 -0.0150486445 0.027345255 -0.04014927 0.06318691
0.0068677403 0.0046122414 0.064502954 -0.04451453 -0.030985206 -0.03649137 0.017792502 0.033049934
-0.036609676 0.051940266 -0.012638189 -0.03030718 0.047696974 -0.01771966 0.052675657 -0.042006057
-0.0057682428 -0.038869467 -0.03895313 0.04818352 0.017410167 -0.042239547 0.0056122635 0.017621258
0.014837237 -0.03860078 -0.021556327 -0.033931475 -0.034281492 -0.05156899 -0.01693761 -0.018846884
-0.033836212 -0.052334804 0.01795052 -0.039866406 0.043725528 -0.05951099 -0.0039838944 0.016276162
-0.030483257 -0.026823372 -0.011690158 -0.027308598 0.036430094 -0.036871467 -0.03220856 -0.034717597
0.06384096 -0.05673375 0.037194755 -0.047973156 0.0181815 -0.04246968 -0.003325901 -0.035504397
-0.029983778 0.06590136 -0.03836074 -0.061459493 0.0338323 -0.06060674 0.038141854 -0.05210297
-0.010473557 -0.014383389 0.029091295 -0.02269794 0.013032507 -0.03606964 -0.03549631 -0.029082548
0.04182695 0.064223714 0.0027336704 0.037049 -0.02574182 0.0 0.029333405 -0.001000443
-0.006167111 -0.037405297 -0.035590746 0.04664416 0.0020896522 -0.043445677 0.01306866 -0.025882434
-0.025810711 -0.017854247 0.005957631 -0.03763955 -0.03482519 -0.0424603 0.018030703 0.027831824
-0.008054517 0.049687818 -0.047589727 -0.018993847 0.0066006016 -0.048550475 -0.052446783 -0.04118462
-0.021277424 -0.02809859 0.0256193 -0.01885629 -0.03622278 0.064821 0.0075033004 0.047331642
0.011225948 -0.030363169 -0.03482934 0.04844476 0.022563592 -0.043643296 -0.030327125 -0.03310516
0.015698927 -0.011489291 -0.0152140735 -0.036800306 -0.038829997 0.009513034 -0.03959511 0.011722556
0.009634547 -0.031380795 0.05952679 -0.011934694 -0.05963877 -0.048889387 0.0016753962 -0.04241191
-0.037280284 -0.03764083 -0.025219155 0.04578073 0.012862308 -0.03547298 -0.020418493 -0.018998958
-0.005493923 -0.0032494063 -0.031180346 0.045600314 -0.0015421405 -0.048782263 -0.012282029 -0.035783064
-0.035495553 0.03365489 0.019595657 0.0021227624 -0.032934707 -0.0010026706 0.02180187 -0.031534865
0.007918424 0.025734307 -0.057905953 -0.03616047 0.050202534 0.02531376 -0.0034232396 -0.011818394
-0.00575124 -0.038573075 -0.04928067 0.0067010475 -0.040401064 0.021259367 -0.039694592 0.054343678
0.038722593 0.03546977 -0.017499201 0.06373098 -0.019438662 -0.052273843 0.0079230685 -0.054201044
-0.050203484 -0.047962867 0.06699191 0.011620251 0.046777304 -0.047311053 0.036431327 -0.054312717
0.040653624 -0.030180465 -0.014010165 -0.03679575 -0.00203982 -0.049580198 0.0033683972 -0.043715052
-0.018844362 -0.0033960992 0.04072554 0.041726723 -0.032505482 -0.023202997 0.05779347 0.0047792834

weight f4 [300, 18]
00000000: 322e 93bd 4e88 17be e2ab c63d a382 943c
00000010: de6b 61bd e7bf 8abd 5a4e 08bd 7d3b 3a3e
00000020: 399d ddbd b35a 633d c304 343d 52a8 c5bd
00000030: 54d1 eebd 9f29 a8bd 6168 a5bd 0307 0bbe
00000040: c6ac aebd 1d0c 65bd 7c75 6b3d 0501 8e3d
00000050: e709 203d c75b d03d 608c 06be db65 d8bd
00000060: eb15 8b3d 6af6 d4bc ccf4 983d bdeb e8bd
00000070: 5fbf 683d ef67 cbbd bd89 2bbe 2be2 f9bb
00000080: 80a3 2bbe 73f0 95bc 8287 88bc 9b99 3dbd
00000090: a2fb b03d f03a 8cb9 d513 80bd 9deb 60bd
000000a0: 5d88 97bc 8ead 3f3e 2297 ee3c 5635 eabd
000000b0: 3a24 20be bbca b93c 9ca3 653c 44dd 32bd
000000c0: f832 b33d bdef e33c 937a 0bbd f4f0 fcbd
000000d0: 2121 2bbe d5bc 893c c2ad 943d fabb c2bd
000000e0: 3459 1f3d 98c4 893c ed17 69bd 54f7 5dbd
000000f0: f5e6 6fbb 82f1 423d 4456 cfbc b107 e23d
00000100: 24a6 a33c cfdd 783d cbb6 fdbd b057 a5bd
00000110: aa19 13bd 3e02 5ebc 26e3 0bbd bf52 b2bd
00000120: 9610 483c e03e fdbd 0def 803d e14f 79bd
00000130: 3b02 00be 812c 6a3d ca94 8d3d e61c 2cbd
00000140: 70bd de39 c489 bf3b 7c68 d53c 9fb9 2ebc
00000150: b030 c1bd 8ffe 8fbd 8871 943d dde7 14bd
00000160: e0f5 f83a 7d1b 80bd 3817 85bd a9a1 83bd
00000170: 2933 b53d 9eff 41bd bd95 dbbd a687 7c3d
00000180: 6d1f bdbd 7e40 d7bb 96df 43bd b01d 06be
00000190: 447d e63c 0e53 1abe e3f9 48bc da89 0dbe
000001a0: 3c0a d1bd 1c9f 03be b818 023b 4926 b63d
000001b0: 54c4 9e3d 16d5 01be 7e6b c4bc 583d 48bd
000001c0: 1c60 dbbd 935d 703c b933 d8bd 67d2 a0bd
000001d0: ccfc 31be 5c33 59bd 12fd 27be 96c9 24bd
000001e0: fc31 a03d 5271 293d a0ab 07bc 426a 1dbe
000001f0: beda eabd 8084 8abb b376 07be 8001 c1bc
00000200: 8bc0 d7bd 4285 be3d 6272 9cbc e1bc 103e
00000210: 5156 0dbd b741 d6bd 96c5 06be d25e 8fbc
00000220: a319 873d 9f10 103d 4d4f cdbc eb20 a2bd
00000230: fb4a 453d a4b7 f8bd 5cf7 083c 6b44 173d
00000240: 296a 09be 1cc5 c33d f8fe 0dbe 4c8d 693d
00000250: 86f9 b83d a630 b83d 65b1 b9bd 0477 ad3c
00000260: 34fe c1bd e689 34bd 77b4 8cbd 440d 19bc
00000270: d0d0 b4bd 5718 a13d 3477 693d f85e 9d3d
00000280: 23e6 60bd 3653 37be dd76 14bd a306 a63d
00000290: 79ba 1abe 9454 773b 0951 b0bd c727 49bd
000002a0: 0a16 9f3c a636 ab3c f3e8 0dbe 7c45 10bd
000002b0: 4e47 19be 3721 13be 1644 26be ea9b 3abe
000002c0: 5da1 523d c4fa 70bd 1d11 afbd 2c7c 903c
000002d0: 28fc 60bd 544d 26be e5bc bcbd 506e 08be
000002e0: 8540 2cbe f0d3 b73c 213b da3d 0dbf 34be
000002f0: 7013 dcbd 1d6b bd3d fc48 f23d 34dd 5e3d
00000300: 4eb6 8abc b336 9fbd 6fb2 06be 6df0 c93d
00000310: 80c6 14bd 1af5 373d 4f6b bb3d ca10 27bd
00000320: 669c b23c 0035 8d3c e5b3 e33d 8df8 f73d
00000330: 280b 0c3e aa06 263e b3db 373d 3234 d03c
00000340: 38e3 d43d 4ad9 d4bd 590a 9e3d 14d7 5f3d
00000350: 312a 5abd 277a 9dbd 0148 903d bb00 333d
00000360: 1f2d 633d f38a 1e3e 4c0e bfbd 28bd f4bc
00000370: 5410 73bc e286 2fbe 0007 9e3d be9a 863d
00000380: d60c 223e 8c3f 8bbd 9a89 f33d ea38 b93c
00000390: 7a22 4e3d 2ee2 1e3e afaf 3a3e f576 83bb
000003a0: 26ee 7dbd 09e7 17bd 31a4 14bd 8049 5f3b
000003b0: cc4e ecbd 3d91 55bd c22a 16be 847c 5c3d
000003c0: edf6 943d 1c86 2c3c 4ec5 d1bd 0169 d9bd
000003d0: efd8 0abe d9e0 e9bd a94f a23d 0007 723c
000003e0: 3ac3 40bd d0f0 ecb9 ca0d 14bd 359d 78bd
000003f0: 3227 b03c 030b 423b 044e 1f3e 35e1 bcbc
-0.071865454 -0.1479809 0.09700753 0.018128699 -0.05503451 -0.06774884 -0.033277847 0.18186755
-0.108210035 0.05550642 0.043949854 -0.09651245 -0.1166102 -0.082110636 -0.08076549 -0.13576894
-0.08529048 -0.055919755 0.05748509 0.06933788 0.039071944 0.10173755 -0.13139486 -0.105663024
0.0679129 -0.025996406 0.07468566 -0.113730885 0.05682313 -0.09931933 -0.16751762 -0.0076258383
-0.16761589 -0.018303132 -0.016666178 -0.046289068 0.08641745 -0.00026746793 -0.06253783 -0.0549122
-0.01849764 0.1871855 0.0291248 -0.11435954 -0.1563882 0.022679677 0.014016058 -0.043668047
0.08749956 0.027824277 -0.034052443 -0.12350646 -0.16711856 0.016813675 0.07259704 -0.0950851
0.03890343 0.016817376 -0.056907583 -0.05419095 -0.0036606167 0.0475936 -0.02530969 0.11036623
0.019976683 0.06075841 -0.123883806 -0.08073366 -0.035913147 -0.013550339 -0.034152173 -0.08707189
0.012210986 -0.12365508 0.06295595 -0.060867194 -0.12500851 0.05717135 0.06913145 -0.042019747
0.00042484282 0.0058452804 0.026050799 -0.010664373 -0.094331145 -0.07030975 0.07248217 -0.036353935
0.0018994175 -0.06255243 -0.06498569 -0.064273186 0.08847649 -0.047362916 -0.1072192 0.061652802
-0.092345096 -0.0065689674 -0.04782065 -0.13097262 0.028135903 -0.15070745 -0.012266609 -0.13822117
-0.1020703 -0.12853664 0.001985116 0.08894021 0.0775229 -0.12678942 -0.023977038 -0.048886627
-0.10711691 0.014670747 -0.1055674 -0.07852631 -0.1738159 -0.053027496 -0.16405132 -0.04023131
0.07822034 0.041367836 -0.008280665 -0.15372565 -0.11467503 -0.004227221 -0.13228874 -0.023560286
-0.105347715 0.09302761 -0.01909751 0.14134552 -0.034506146 -0.10461753 -0.1316131 -0.017501269
0.06596687 0.0351721 -0.025062228 -0.07916435 0.04816721 -0.12144402 0.008359756 0.036930483
-0.13419403 0.0955908 -0.13866794 0.057019517 0.09031968 0.08993654 -0.090670384 0.021174915
-0.094723135 -0.044076823 -0.068703584 -0.009341542 -0.0882889 0.078659706 0.056998447 0.076841295
-0.054906975 -0.17902836 -0.03624617 0.081067346 -0.15110196 0.0037739621 -0.08609206 -0.0491102
0.019419689 0.020900082 -0.13858394 -0.035222515 -0.14968607 -0.14368139 -0.1623691 -0.18223539
0.05142342 -0.0588329 -0.08548186 0.017637335 -0.054927975 -0.16240436 -0.09215716 -0.13323331
-0.16821487 0.022439927 0.10655809 -0.17651005 -0.10745895 0.09248946 0.11830327 0.054410174
-0.016932633 -0.07774105 -0.13154005 0.09860311 -0.036322117 0.04491148 0.09151327 -0.040787496
0.021803092 0.017237186 0.111182965 0.12107954 0.13676131 0.1621348 0.044887256 0.025415514
0.10394901 -0.10393007 0.077168174 0.054648474 -0.053262893 -0.07689314 0.07044984 0.04370187
0.055462953 0.15482692 -0.09328899 -0.029875353 -0.014835436 -0.17141297 0.07716179 0.065724835
0.15825209 -0.0679923 0.1189148 0.022610147 0.05032585 0.15515968 0.1823108 -0.0040119835
-0.061994694 -0.037085567 -0.036289398 0.003407091 -0.11538467 -0.052140463 -0.14664748 0.053829685
0.0727366 0.010530021 -0.10242711 -0.10615731 -0.13559316 -0.114198394 0.0792535 0.014772177
-0.047061183 -0.00045192847 -0.036145963 -0.0606968 0.021503065 0.0029608614 0.15557104 -0.023056606

bias f4 [300]
00000000: 6611 8bbc 2d28 38bc e2e9 faba 101e 63bc
00000010: fa5b 11bd a27b 0abd d01f 553b 8ce0 b3bc
00000020: 3ab4 81bc 5179 d6bc 7ecb 5fbb 3767 11bd
00000030: 36ce e1bc 7466 11bd eb0e fdbc f88a 6fbc
00000040: 5aac 32bd 5b99 8bbc 3c8b 5fbc 66b2 9cbc
00000050: 786a 8b3c 1e1c 1dbd 4bcf 82bc b865 27bd
00000060: c4f3 dcbc 0291 adbc 9a7c 3ebd c843 3c3c
00000070: f87a e1bc d55a 69bc bec7 cbbc 5e5d 11bd
00000080: 8c5f 11bd 2fd8 9ebc f50c 463c d01b f4bc
00000090: 20b4 66bc 0876 8fbc b924 a5bc 767c 7dbc
000000a0: 3296 68bc d5e9 a7bc 7e53 11bd 8e20 7e3b
000000b0: 0750 74bc c6a3 1d3b d01c 11bd 73ca 45bc
000000c0: 81f6 10bd 0009 e3bc 0953 11bd 502e 25b9
000000d0: 1276 7abc 5434 013b 24ef c9bc 2537 6fbc
000000e0: 72eb 10bd 1266 883c 095b 8bbc 0685 1d3c
000000f0: 35fe abbc df62 11bd 2031 b2bc 40fa 07bd
00000100: 5d34 4abc 7e61 98bc 7424 d3bc 78cb 10bd
00000110: 3003 baba 6a37 79bc e370 b1bc c25e fb3b
00000120: c631 58bc e0ca a6bc 9339 f8bc 7062 11bd
00000130: 444b cabc 5cdd 5abb c84f 973b 7861 37bc
00000140: 0d66 11bd 9725 11bd bb65 d4bb 96c1 043c
00000150: f75e 11bd 49e3 93bc 5098 07b9 7f88 74bc
00000160: 0c6d b0bc 0c68 4dbb 8df0 adbb 67fb 06bd
00000170: eac6 97bb d4f8 6abc a286 3abc a4ab ebbc
00000180: 62e1 8fbc 4360 11bd 95f8 39bc 07d8 10bd
00000190: a589 1cbc 0666 dbbb 2c03 e1bc fa2d 11bd
000001a0: 6c7f 7abc 9474 a73c e8b3 2ebc 52f2 a0bc
000001b0: 34a1 a13a 20f9 cfbc c588 3f3c 6906 b9bc
000001c0: 1627 05bd fb29 f4bb e6b6 1bbd 70b9 1ebd
000001d0: 587e 97bc df50 92bc b8bd cdbc 65d0 fcbc
000001e0: d59c 5fbb 98f9 10bd 526f aebc 0d45 c6bc
000001f0: b8c0 47bc 33d4 87bc bed2 2b3c 0c79 16bd
00000200: 5ccb 8bbc 0896 7d3c 1ffc bdbb 6bfd afbc
00000210: a666 11bd 3e5b 11bd 4c26 dfbc ee8e d3bc
00000220: 3c17 bcbc 7a7b 6dbc 2d2a ddbc b14d 8ebc
00000230: aaa1 14bc 1984 84bc be2e 39bc ce49 4e3b
00000240: 518b 28bc 0118 8abb bdc4 85bc ef49 b2bc
00000250: 279d 0dbd ac5e 93bc ce4e 83bc df85 18bd
00000260: f353 b0bc 6ebd 2e3c b4fd 0cbd c343 80bc
00000270: 09b8 f2bb 601d 11bd ac7a e6bc 7685 4bbc
00000280: 32fd 94bc f47a 05bd baa3 80bc 8a4f 11bd
00000290: 01c2 68bc ba7f 10bd 6ac0 e1bb 9a4b 7abc
000002a0: 9f66 11bd 0f04 9abc bd46 a8bc 8701 11bd
000002b0: 6f4d 11bd 9070 f5bc ac7a 483c 2466 11bd
000002c0: 51c2 10bd 1605 11bd 8600 b5bb 7dde 15bd
000002d0: f054 acbc cd14 bdbc f1ed b7bc d257 11bd
000002e0: cfe9 84bb e761 11bd 8d51 11bd 4a64 11bd
000002f0: a27a 94bc eead e1bc 9a66 11bd 3bda 4ebc
00000300: 8ed8 29bb c2f9 69bc 9359 f7bc c926 2abb
00000310: 166a f4bc 2507 11bd 130e 2abd 398c 90bc
00000320: 4d40 7dbc 4525 11bd 65a9 08bd ae3f 92bc
00000330: e332 163c 0f43 81bc 9550 babc a512 d6bc
00000340: 5ffc 57bc 0c56 1fbd 2565 11bd f15d 38bc
00000350: 02b8 7bbc b947 ffbc bed3 bdbc 2642 61bc
00000360: 7e34 7cbc 9e70 80bc 87c7 07bd ee79 60bc
00000370: 5a57 d2bc b73e 8cba 9ae1 33bc 1666 11bd
00000380: 124d 593b b23f 4dbc cd1a dfbc 3d6c 98bc
00000390: 0136 223d 417a e3bc 3856 80bc ecc1 11bd
000003a0: f362 0fbd 341a 92bc 6ebf 0ebd a475 7fbc
000003b0: dbc3 65bc b7de d83b f859 b8bb 2791 74bc
000003c0: 44e2 32bc ce43 11bd e663 11bd 93e8 40bc
000003d0: fa25 02bd 5865 2aba f4e6 c6bc 9d63 11bd
000003e0: 42d8 05bd dada 89bc 7a64 11bd c6b2 a5bc
000003f0: 50be c038 1f1d 5ebc e450 8b3c 63ec 4a3c
-0.01697607 -0.011240047 -0.0019143189 -0.013862148 -0.035488106 -0.03380931 0.0032520182 -0.021957658
-0.015833009 -0.026180895 -0.003414839 -0.035498824 -0.02756415 -0.035498098 -0.030890903 -0.014620535
-0.0436214 -0.017040899 -0.013644036 -0.019128036 0.017018542 -0.038356893 -0.015967986 -0.04086849
-0.026971705 -0.02118731 -0.046505548 0.01149077 -0.027524456 -0.014242847 -0.024875518 -0.035489433
-0.03549151 -0.019390194 0.01208805 -0.029798418 -0.014081031 -0.017512336 -0.020159112 -0.015471568
-0.014195966 -0.020497242 -0.035480015 0.0038776728 -0.014911658 0.0024053915 -0.03542787 -0.012072193
-0.035391334 -0.027714252 -0.03547958 -0.00015752879 -0.015286939 0.0019715028 -0.024650164 -0.01460055
-0.03538079 0.016650233 -0.017011182 0.009614235 -0.020995239 -0.03549468 -0.02175194 -0.03319764
-0.012341586 -0.018601175 -0.025774218 -0.035350293 -0.0014191624 -0.015210966 -0.021660274 0.007671208
-0.013195461 -0.02036041 -0.030300891 -0.035494268 -0.024694093 -0.00333961 0.004617665 -0.011192672
-0.035497714 -0.03543624 -0.006481854 0.008102795 -0.035490956 -0.018052714 -0.00012931344 -0.014925121
-0.021536373 -0.0031342534 -0.005308217 -0.0329546 -0.0046318667 -0.014341552 -0.011384638 -0.028768368
-0.017563526 -0.035492193 -0.0113507705 -0.03536227 -0.009554301 -0.0066955118 -0.027467333 -0.035444237
-0.015289169 0.020441331 -0.01066301 -0.019646797 0.0012331367 -0.025387347 0.011690323 -0.022586064
-0.03250798 -0.0074512935 -0.038016222 -0.038751066 -0.018492863 -0.017860828 -0.025114879 -0.030861089
-0.0034120579 -0.03539428 -0.021293316 -0.024202848 -0.012191944 -0.016580677 0.010487257 -0.036736533
-0.017064743 0.015477665 -0.0057978774 -0.021483144 -0.035498284 -0.035487406 -0.027239941 -0.02582499
-0.022960298 -0.014494771 -0.02699765 -0.01737103 -0.009071747 -0.01617627 -0.011302648 0.0031477096
-0.010287122 -0.0042142873 -0.016329164 -0.02176377 -0.0345737 -0.017989479 -0.016028788 -0.037237044
-0.021524405 0.010665281 -0.034421638 -0.015657311 -0.0074071926 -0.035428405 -0.028134666 -0.012421956
-0.01818714 -0.03258796 -0.01570307 -0.035476245 -0.01420641 -0.03527806 -0.0068893926 -0.015276814
-0.035498258 -0.018800763 -0.020541543 -0.035401847 -0.035474237 -0.0299609 0.0122362785 -0.0354978
-0.035341565 -0.03540524 -0.005523744 -0.036589134 -0.021036595 -0.023081208 -0.022452326 -0.035484143
-0.0040561925 -0.035493758 -0.035478164 -0.035496034 -0.018124882 -0.027548756 -0.03549824 -0.012625272
-0.002591643 -0.014280738 -0.03019408 -0.002596306 -0.029835742 -0.035407204 -0.04151733 -0.017644988
-0.015457225 -0.035435934 -0.033364672 -0.01785263 0.009167406 -0.015779046 -0.022743503 -0.026131937
-0.013182729 -0.03890042 -0.03549685 -0.011252866 -0.015363695 -0.03116213 -0.023172256 -0.013748681
-0.0153933745 -0.0156787 -0.03314927 -0.013700945 -0.025676418 -0.0010699843 -0.010979081 -0.035497747
0.003315751 -0.012527393 -0.02723446 -0.0186063 0.039602283 -0.027768256 -0.015666112 -0.03558533
-0.035006475 -0.01783476 -0.03485053 -0.015592013 -0.014023746 0.0066183466 -0.0056259595 -0.014927185
-0.010918204 -0.035465054 -0.03549566 -0.0117742 -0.0317745 -0.0006500087 -0.024280049 -0.03549539
-0.032676943 -0.01682799 -0.035496213 -0.020226847 9.190722e-05 -0.013556748 0.017006345 0.012385461

weight f4 [300, 300]
00000000: a98d 42bd b440 1b3d c6ec 15bc 5696 a2ba
00000010: 7cd6 2d3d d003 48bd 80cb 083d e4c3 923d
00000020: d722 053c c290 d83a 9ad4 c8bd d3da 283d
00000030: 42cc c2bd 6744 4bbd 84ce 983d c47c 4ebb
00000040: 4ba1 933b 56fb c8bc 6dda 4bbd 8a52 233b
00000050: 9fa9 82bb b4ce 6abd 2dbe 64bd fc79 e9bd
00000060: cd9f 0abd 63c9 b9bd bdf7 0a3e 7b4c c3bd
00000070: 9c51 9a3d 9a07 c33c 4771 cbbd 177b 4ebd
00000080: d838 24bd 0d15 af3c ab59 56bc 8f14 bfbd
00000090: ce73 4f3d c2ff 233c 9370 9fbd 1a89 3ebd
000000a0: 3796 f3bc 47cb 57bd 046b 90bd 3bf5 a0bc
000000b0: 5e0e 50bd 4630 a7bd b01b b5bb fe02 f0bd
000000c0: f6d8 473d 3778 903b 9324 373d 2905 61bb
000000d0: 1ff7 60bd 5a54 08bc 4a08 e5bd 9e4b b8bc
000000e0: c804 5cbc 35ae c9bd 76e0 163d 7f61 39bd
000000f0: 5cdd 5bba acd6 0bbc 419d e33c e289 a3bc
00000100: c46a dcbd ea21 89bc 065a 9ebd 099d a1bc
00000110: 72be e7bd bcad 223d a57e cabd 00d3 80bb
00000120: c03d 87bd 9835 50bd 87ae d6bd cf0d 8fbd
00000130: 0c20 8dbd 68a0 96bd 3f98 2e3c dda8 abbd
00000140: b154 d6bd 9550 66bd e8ac 8039 b0e9 2a3d
00000150: d77d 763c d96d 9d3c dc76 8dbd b142 b5bc
00000160: 5746 823d c405 8abd 4afc ea3c 81e0 6cbd
00000170: 50a4 97bd c7f9 d6bd c000 8cbd b0be af3b
00000180: ae0c 343d 172d ae3c bf2f 583d b584 ca3c
00000190: 70c4 8a3d 859f 98bd 8017 503d 6c0f c1bd
000001a0: 2518 a33d 4f5e 903c 3ad5 b6bd 68fc 683d
000001b0: 5ea8 ae3d 8a0e 0a3d a3ab 5bbd f44d e13c
000001c0: d214 66bd 5197 a4bd 1197 9cbc f6c4 6c3d
000001d0: 8783 6b3c ed36 943d 603f 183d f535 843d
000001e0: 773d 06bd ada5 0bbd e90c a5bc e5fd 9cbd
000001f0: 5ca1 7d3d f399 e53c 6a24 99bd c725 e4bc
00000200: c32d 023d 755d 493d 46b4 61bd 2184 8e3d
00000210: 3e2d adbb e86a d9bc 2d6f af3d 7e80 c2bc
00000220: 2563 92bd a9b0 d03c 3457 053d 6157 8e3d
00000230: be99 96bd 735b c33d d356 263d 9d4d 3c3c
00000240: e9d2 1e3d a0b6 0bbd 1c38 debd 48c9 aabd
00000250: a08a 8ebc 9630 d7bd 3b01 ebbd bc24 bd3b
00000260: aa39 a8bd 3621 213d 7612 8ebd 8ea5 c3bd
00000270: 035d 273d 4978 b1bd 9aba 81bc c50d a6bb
00000280: 7c6a 173d da54 cebd 8847 7fba 34df 9c3d
00000290: 7965 b63c d50c 8cbc 9a39 1e3d 1408 a33d
000002a0: 4027 53bd ad1a b03d 5213 38bb daa6 f23c
000002b0: 78d3 14bd 1829 4a3d 7595 463c 633c a4bd
000002c0: 043e ad3c 2984 acbd 90d0 993d 6f84 8cbd
000002d0: 9a9b 36bd 1de8 a1bb 7bb9 453b 9602 f73a
000002e0: 740a 193d 773b c6bc 3e22 a23d ee4f 593c
000002f0: 645d ebbd 1560 223d 6e58 1d3d 5812 cdbd
00000300: 0336 49bd ba1b 7e3c 1b11 903c 39ae 913c
00000310: 7317 dbbd 535f 9bbd 50ae 8b3b fb2e f53c
00000320: 6655 153c 773d cbbd bdd7 e5bd 17c5 01bc
00000330: e40f ddbd 110c d03c 3257 a0bd 4de3 9cbd
00000340: 97a9 bc3d 4c4e bdbd d914 c1bc 4779 a4bd
00000350: a971 9fbd 1c4f a23d f4d0 1e3d ed86 173c
00000360: 64b0 d6bd 6d7c d6bd 1f52 50bd 6438 8ebc
00000370: 259f a7bd afc8 813c 9afe 893d 0388 cabd
00000380: c13c 79bd ec80 993c d2db b1bc 91d9 103e
00000390: 360d bf3b 93c0 583d 886b 77bd 4f5a edbd
000003a0: 268c e9bb 7971 9bbd d113 983c bc7e 51bd
000003b0: 790a 293d 5cfd 46bb 7038 acbd 7ac5 e53c
000003c0: ad04 763d a932 2e3d 28f1 86bd 9d0a 3bbc
000003d0: 367e b83c 4f76 a1bd 62b3 903d e252 ebbb
000003e0: c4ed 06ba 0296 54bd fe9f f83c 0bfd b9bc
000003f0: 88bb 3c3d 1376 7cbd 6638 d0bd c96b 14bd
-0.04749838 0.037903503 -0.0091506895 -0.0012404423 0.042440876 -0.04883176 0.033397198 0.071662694
0.008125982 0.0016522633 -0.098061755 0.041224312 -0.09511615 -0.04962578 0.07461265 -0.0031507472
0.0045053116 -0.024533909 -0.049768854 0.0024921023 -0.0039875056 -0.057326034 -0.05584543 -0.1140022
-0.033843804 -0.090716146 0.13571067 -0.09536072 0.07535097 0.023807336 -0.09933715 -0.050410356
-0.040093273 0.021372342 -0.013082902 -0.09330093 0.05064755 0.010009708 -0.07785144 -0.04651747
-0.029734714 -0.052684095 -0.070516616 -0.019648185 -0.05079495 -0.08163504 -0.0055269822 -0.11719321
0.048790894 0.004408862 0.044712614 -0.003433535 -0.054923173 -0.008320892 -0.11183222 -0.022496995
-0.013428874 -0.098476805 0.036835156 -0.045258995 -0.0008387172 -0.0085350685 0.027784945 -0.019963209
-0.107625514 -0.016739804 -0.07732014 -0.0197282 -0.113156214 0.039716467 -0.09887437 -0.003931403
-0.06603575 -0.05083236 -0.10482507 -0.06985056 -0.06890878 -0.07354814 0.0106564155 -0.083818175
-0.10465372 -0.056229193 0.00024542888 0.041726768 0.015044651 0.019217419 -0.06907436 -0.022126528
0.063610725 -0.06739381 0.028684754 -0.05783129 -0.07404387 -0.1049686 -0.068360806 0.005363308
0.043957405 0.021261735 0.05277991 0.024721483 0.06775749 -0.07452301 0.05080366 -0.094267696
0.079635896 0.017623095 -0.089273885 0.05688134 0.08528207 0.03370527 -0.053630482 0.027502991
-0.0561722 -0.08036674 -0.019115003 0.057805024 0.01437462 0.07237039 0.037169814 0.06455604
-0.03277346 -0.034093548 -0.020147758 -0.07665614 0.061921462 0.02802751 -0.074776486 -0.027850045
0.031781923 0.049161393 -0.055103563 0.06958795 -0.0052849343 -0.026540235 0.08566127 -0.02374291
-0.071478166 0.025474863 0.032553867 0.0695026 -0.07353543 0.09538927 0.040610146 0.011493114
0.03877536 -0.03410971 -0.10850546 -0.083391726 -0.017400086 -0.10507314 -0.11474844 0.0057722013
-0.082141235 0.039338313 -0.06937115 -0.095530614 0.040860187 -0.08665521 -0.015836049 -0.0050675594
0.036966786 -0.10074778 -0.0009738137 0.0765976 0.022265183 -0.017095963 0.038629152 0.07960525
-0.051551104 0.08598838 -0.0028087688 0.029620577 -0.036334485 0.049355596 0.012120594 -0.0801933
0.021147735 -0.08423645 0.07510483 -0.06861197 -0.044581987 -0.004941 0.003017037 0.0018845375
0.037363485 -0.024198277 0.079166874 0.013263686 -0.11492422 0.039642412 0.03841441 -0.100132644
-0.049123775 0.01550954 0.017586282 0.017783271 -0.10697832 -0.07586541 0.004262723 0.029929629
0.009114599 -0.09923833 -0.112227894 -0.007920525 -0.107940465 0.025396379 -0.07829131 -0.07660542
0.09212034 -0.092434496 -0.023569511 -0.08030944 -0.07785351 0.07925245 0.038773492 0.009248477
-0.104828626 -0.10472951 -0.050859567 -0.017360874 -0.08184651 0.015842764 0.067380145 -0.098892234
-0.060848955 0.018738233 -0.021711264 0.14145495 0.0058304323 0.052918028 -0.060405284 -0.115894906
-0.0071273027 -0.075900026 0.018564137 -0.051146254 0.041269753 -0.0030363416 -0.08409202 0.028048266
0.060063053 0.042528782 -0.06588966 -0.011416105 0.02252112 -0.07883894 0.070654646 -0.0071815113
-0.0005147124 -0.05190087 0.030349728 -0.022703668 0.04607728 -0.06163604 -0.10167007 -0.036235604

bias f4 [25]
00000000: 0000 0000 0000 0000 0000 0000 0000 0000
00000010: 0000 0000 0000 0000 0000 0000 0000 0000
00000020: 0000 0000 0000 0000 0000 0000 0000 0000
00000030: 0000 0000 0000 0000 0000 0000 0000 0000
00000040: 0000 0000 0000 0000 0000 0000 0000 0000
00000050: 0000 0000 0000 0000 0000 0000 0000 0000
00000060: 0000 0000
0.0 0.0 0.0 0.0 0.0 0.0 0.0 0.0
0.0 0.0 0.0 0.0 0.0 0.0 0.0 0.0
0.0 0.0 0.0 0.0 0.0 0.0 0.0 0.0
0.0

weight f4 [25, 300]
00000000: 2e8d 763d 2ba2 023e cca8 383d b227 5d3d
00000010: 84f3 9f3d a87b 993d 2679 5bbd c8f6 823d
00000020: 6408 9cbc d2b5 033e f71f 5bbd ddff 693c
00000030: 34c3 64bc 77d9 95bc 78cc c2bc ce69 dfbb
00000040: ed5a 9d3d d50e 97bd a5d4 96bd f1ca 32bc
00000050: abeb d53d 81b0 8ebd 3a29 003e eed1 4ebd
00000060: 0e8a 173c 3a40 6e3d 991a c3bd ff67 3dbb
00000070: 8732 4bbc 1b66 41bc a87b 8bbd d4f0 a1bc
00000080: 4ebd 1bbd 7d6a 593d edbc 96bd 02d2 a33d
00000090: abe2 c23d cf4a 40bd 1adb 9f3d 1261 3f3d
000000a0: 4bbd 36bd c339 cf3d dc1d d43d 1d44 c6bd
000000b0: 76fb a8bc 7df1 b83d 56b3 df3d cc0b 67bb
000000c0: d805 063d d0ce 713d 904d d83d 27de 533d
000000d0: e3bb b0bb 3f18 01bd 5666 9cbd 1d90 55bd
000000e0: a8c1 cd3d 8d64 f43d e035 ee3d 1d32 b03d
000000f0: fe6f 5abd 9311 22bc 1c5d d0bd c040 c33d
00000100: 5b88 903c 6d3e a1bd 4c40 aa3c 152a 8e3d
00000110: 21ec 06be 33f1 28bc 3b07 03be 79ec 353d
00000120: 8fc0 5fbc b730 8a3d 871d 5f3d f102 00be
00000130: effc 3ebd f96e 593d 6070 85bd 8bf5 ef3d
00000140: 0860 8e3d f902 c43c d2a2 8abd fe18 e7bd
00000150: aa72 aebd c936 a6bd 9dfd 563d 412b bdbd
00000160: 8f65 09be 6606 3a3d fb81 c0bd dd91 c5bb
00000170: 59b4 dbbd beb1 cc3d 80eb 5a3c eb88 7e3d
00000180: 9b37 a4bd af00 b9bd 804a fe3b 3109 fc3d
00000190: d4ba 8d3d 1d6b 00be b0ef 653c 4085 983d
000001a0: 29a4 03be c3e0 38bd 9c54 f43d c075 e63d
000001b0: e643 1a3d a049 f5bd ff77 4d3c cdce 6bbd
000001c0: 8867 8abb ebbb e53c 5793 fbbc 4b67 21bd
000001d0: 8293 c33d 07ac 2a3d 1341 febd a175 59bd
000001e0: 160d 8cbd e7ee 74bd 2897 bf3d 5137 0abe
000001f0: f060 183c cd1d bd3d 979e e33d dfdf c53d
00000200: ff5a 0a3d 16ce 6bbd 0db8 313d 7e45 fe3d
00000210: 1819 bcbd 295c cdbd b26f 81bd 762d e0bd
00000220: 254a a03d 23e1 c83c 1b3a 8d3b e201 d93c
00000230: c61e cebd 7c4b a43d 28e5 fdbd e846 783d
00000240: 59ac 0a3c f6c4 0b3d f7e0 48bd 7b76 693d
00000250: bee5 debd 3065 aa3d 4919 023d de6d b2bd
00000260: ff09 40bc 52bf 77bd d79e 8ebc c078 04be
00000270: 691f ae3d d6c3 a43d f791 ff3d 6e2d b7bd
00000280: 9830 cc3d 5c6b 9e3d 60b1 58bd 6acb 8abd
00000290: a9df 1a3d 86fc ae3c dfa7 bc3b 4945 d23d
000002a0: 296f d23b 8ade 58bd e123 dabd 01b0 b7bd
000002b0: 6bd6 21bd 99f4 483d 14f9 b33d f3b8 88bb
000002c0: 259d 80bd 1d6d da3d e7c2 cfbb ed17 833d
000002d0: 917e b7bd 2a81 a0bd bfe4 fcbc bb22 e93c
000002e0: 2243 083e a7a4 febd 402e a13d 8510 c9bc
000002f0: bf1d cb3d 1885 463d f5d7 fcbd 1b75 f23d
00000300: d4ea d5bc b8db d13d d4f2 743d 43da bb3c
00000310: 7269 6e3b 132b 643d 3fc4 fc3d 2e02 debc
00000320: 2e8a 843d 7bcb fe3d d495 8e3d afef f3bc
00000330: 986a 153d f91a 093e 06ee 98bd 89e3 9f3d
00000340: fda6 5a3d 4868 043e e469 f73c dbad 943d
00000350: 23b4 64bd f4e3 3fbc b40c 89bd 1d87 d13d
00000360: cfbc 3abd f4f2 063e c0ba 093e 52b3 7a3c
00000370: 6612 5dbc a86b dbbd 9591 413c 6136 e83c
00000380: 1af6 913d 252e 5a3d 95c9 063e b0f2 82bd
00000390: 9508 55bd 58c8 f13d 6ac1 0c3d 5d1f ad3d
000003a0: e792 a3bd 55b6 edbd 8865 733d 8548 1bbd
000003b0: 1a1c b83d e541 783c 7689 5fba 5b75 033e
000003c0: 9b72 513d aa2f a7bd 1998 453d c112 5dbd
000003d0: d960 073c 430f efbd df23 f2bd 51ca 1c3b
000003e0: bf72 54bd 90e3 89bc 52fa f1bd c948 fdbd
000003f0: 8b2e bebc a2fc 7fbd f7de af3d 88f9 f63d
0.060193233 0.12757175 0.045082852 0.053992935 0.07810119 0.07494289 -0.053582333 0.06394726
-0.01904697 0.12862328 -0.05349728 0.014282194 -0.013962556 -0.018292172 -0.023779139 -0.006818033
0.07683358 -0.07375876 -0.073647775 -0.010912643 0.10445341 -0.06967259 0.12515727 -0.050493173
0.009249223 0.05816672 -0.095265575 -0.0028901098 -0.012402183 -0.011804129 -0.06810695 -0.019768156
-0.038022332 0.05308007 -0.073602535 0.0799904 0.0951589 -0.046946343 0.07805462 0.046723433
-0.044614118 0.10118439 0.10357258 -0.0968096 -0.020627718 0.09030435 0.109228775 -0.0035254834
0.032720417 0.059035122 0.10561669 0.051725533 -0.0053934916 -0.031517264 -0.076367065 -0.05213939
0.100467026 0.11933241 0.116313696 0.08603308 -0.05332946 -0.009891885 -0.10174009 0.095338345
0.017643144 -0.07873235 0.020782612 0.0694162 -0.13176014 -0.010311413 -0.12795727 0.04441497
-0.013656749 0.06747573 0.05447152 -0.12501122 -0.046627935 0.053084347 -0.065155745 0.117167555
0.0695191 0.023927199 -0.06769337 -0.11284064 -0.08517964 -0.08115918 0.05248796 -0.09236766
-0.13417648 0.04541626 -0.09399792 -0.006029351 -0.10727758 0.09994839 0.013361812 0.062142294
-0.080184184 -0.090333335 0.007760346 0.123064406 0.069204 -0.1254086 0.014034197 0.074472904
-0.12855591 -0.045136224 0.119302005 0.11252928 0.03766241 -0.119769335 0.012540816 -0.057570267
-0.0042237677 0.028043708 -0.030709906 -0.03940515 0.09549619 0.041667964 -0.12414756 -0.053090695
-0.068384334 -0.059798148 0.09355003 -0.13497664 0.009300455 0.092342 0.11114233 0.09661841
0.033778187 -0.057569586 0.043388415 0.12415598 -0.09184474 -0.10027344 -0.06320132 -0.10946171
0.07826642 0.024521416 0.004309905 0.026490156 -0.10064463 0.0802221 -0.12397224 0.060614496
0.008463942 0.034123383 -0.04904267 0.056997757 -0.108836636 0.08320081 0.031762395 -0.08712362
-0.011721133 -0.06048519 -0.017409725 -0.12936687 0.08502085 0.08045165 0.124790125 -0.08944212
0.09970206 0.07735321 -0.052903533 -0.067770794 0.037810955 0.021360647 0.0057573165 0.10267121
0.0064219427 -0.052946605 -0.106513746 -0.08969117 -0.039511126 0.04906139 0.08787742 -0.0041724383
-0.06279973 0.10665343 -0.006340373 0.06401048 -0.089596875 -0.07837136 -0.030870793 0.028458944
0.13306859 -0.12433749 0.078701496 -0.02454401 0.09917783 0.04846677 -0.12345878 0.11838742
-0.026112951 0.10246986 0.05980189 0.022931224 0.0036378768 0.05570514 0.123421185 -0.027100649
0.06471668 0.124411546 0.06962171 -0.029777376 0.03647861 0.13389196 -0.07467274 0.07807071
0.05338191 0.12930405 0.03020186 0.07259723 -0.055835854 -0.011712063 -0.06691876 0.10230849
-0.04559022 0.13178617 0.13450146 0.015301542 -0.013493156 -0.10713893 0.011814495 0.028346242
0.07127018 0.053266663 0.13162835 -0.06393945 -0.052010138 0.11805791 0.03436414 0.08453248
-0.07987004 -0.11607043 0.059423 -0.037910957 0.08989735 0.015152429 -0.0008527258 0.12837736
0.051134687 -0.08163388 0.048240755 -0.053972963 0.008262836 -0.11672833 -0.11823248 0.00239243
-0.051867243 -0.016832143 -0.11815323 -0.12367398 -0.023215553 -0.06249679 0.08587449 0.12059313
