deep_learning/models/GCNLinkPrediction24.pth (torch, 394576 bytes, 8 tensors)

bias f4 [200]
000000 e9 9d ce 3c 2c 64 16 3b ea 46 0c be 40 1d 59 3b
       0.025221782 0.002294789 -0.13698927 0.0033129007
000010 88 de 46 3d e0 ef e4 3c 6c 75 89 3c 64 39 ef bd
       0.048552066 0.027946413 0.016779624 -0.11680868
000020 0f b0 a5 3d 64 21 ad 3d e8 17 a9 bd 7a 01 c0 bc
       0.08090221 0.084536344 -0.08256513 -0.023438204
000030 20 43 3b bd 52 f6 a7 bd db 92 bd 3c 88 48 53 bc
       -0.045718312 -0.08201279 0.023141315 -0.012895711
000040 bd e9 0a be 82 6e d6 3d 76 d5 c1 3d a7 59 29 bc
       -0.13565727 0.104702964 0.094645426 -0.010336316
000050 54 4a 99 bd 84 54 53 3d 81 aa 22 3d 25 e4 f2 3d
       -0.0748488 0.051594272 0.039713386 0.11859921
000060 7f 4f 6e bd 5c 15 3a 3d d1 2a b7 bd bc 35 22 3d
       -0.058181282 0.045430526 -0.089437135 0.039602026
000070 e3 31 92 3d dd 57 22 be cd eb ef 3d ac 60 e1 bd
       0.071384214 -0.1585383 0.11714897 -0.11004767
000080 92 6c b0 3c c7 ba df 3d 2c ca a7 3c 6c 64 b9 3b
       0.021536145 0.10924297 0.020482145 0.005657723
000090 cd 6b a5 3d 5e 5c 6b 3d 40 02 f3 bc ca bb ac 3c
       0.08077202 0.057461135 -0.029664159 0.021085639
0000a0 6d 68 ca 3d b1 7c 38 3d 6a ab fe bc 74 be 57 bd
       0.09883199 0.04504079 -0.031087596 -0.052671865
0000b0 b7 59 90 3d 81 2e 12 be eb 82 9a bd 84 91 72 bd
       0.07048362 -0.14275552 -0.07544502 -0.059220806
0000c0 bd 8d 5a bd 18 6d 95 bd 42 ee f7 bd d2 60 ad bd
       -0.05335783 -0.072961986 -0.12105991 -0.08465733
0000d0 4f 1a 62 bd 86 57 bd bd 20 2c fa ba cd c0 80 3c
       -0.05520087 -0.092452094 -0.0019086637 0.015716935
0000e0 34 08 e1 3c 83 af 06 be 88 00 16 be 96 00 08 be
       0.027469732 -0.1315289 -0.1464864 -0.13281474
0000f0 3a cb 5d 3d db 69 87 3d d4 2c 59 bd a0 6d 82 ba
       0.05414889 0.06611987 -0.053021267 -0.0009950884
000100 f2 ed 1b bd 71 f6 04 3e 53 db b8 3d c3 2d 44 3d
       -0.03806872 0.12984635 0.09026208 0.047895204
000110 e2 b9 ce bc 8e a7 38 3d ff d0 27 bd 04 ed b2 3d
       -0.02523512 0.045081668 -0.0409708 0.087366134
000120 f2 a3 1e 3e 78 63 29 3d 0a 2a 0f bd 89 d1 86 bd
       0.15492228 0.041354626 -0.0349522 -0.065829344
000130 b0 3e 19 3d b8 24 c6 3c e4 23 2f bc 4f fe f4 bd
       0.0374133 0.02418743 -0.010689709 -0.11962568
000140 fd 87 c7 3d dc 17 a5 bc 4b a8 b5 3d c3 54 b0 bd
       0.097427346 -0.020152979 0.0886999 -0.08609917
000150 65 a3 d8 bd 18 ea 27 be 86 5b cf bc b5 fb 4c bd
       -0.1057804 -0.16397893 -0.025312196 -0.050044734
000160 a1 69 10 be ef 6c e3 3d c8 b5 5b 3b 4f 16 d6 bc
       -0.14102794 0.11104762 0.0033525098 -0.026133684
000170 40 39 df bb df 22 7a 3c db 62 18 bd 00 2e ec 3d
       -0.0068122447 0.015267103 -0.03720365 0.11532211
000180 aa 23 a6 3d 5c a8 10 bd 56 be 90 3c 24 06 73 bb
       0.08112271 -0.03531681 0.017668884 -0.0037082518
000190 40 f3 7b 3a 8c d1 c5 3d 68 59 95 3d d0 63 fc 3b
       0.0009611137 0.096591085 0.072924435 0.0077023283
0001a0 17 8d 03 be 6e f5 82 3d 65 79 b2 3d 1d f3 04 3c
       -0.1284679 0.06394468 0.087145604 0.008114603
0001b0 73 44 d6 bd e1 fd 1c 3c 08 98 80 bd 14 54 b0 bb
       -0.104622744 0.009582014 -0.06278998 -0.0053811166
0001c0 04 6c 8a bb d4 d1 97 bd c9 a1 69 3d 61 de 3d bd
       -0.0042243022 -0.074130684 0.057039056 -0.046354655
0001d0 f8 87 d2 bc d2 b4 f2 bd d2 35 02 3c d8 71 aa bc
       -0.0256996 -0.11850895 0.007947402 -0.020806238
0001e0 62 f4 43 bd e2 c6 42 bc d3 20 50 bd 5c d3 21 3c
       -0.047840483 -0.011888238 -0.050812554 0.009877052
0001f0 90 f7 ef bd 90 74 d1 ba 15 32 20 be 20 69 d2 3b
       -0.11717141 -0.0015980173 -0.15644105 0.0064212233
000200 9a 79 8e bd 4a 2f c8 3d 26 25 2f 3d a8 d6 02 3e
       -0.069567874 0.09774645 0.042760037 0.12777197
000210 c6 ea 87 3d cc f7 a0 3c f7 a5 9c bd a3 5c 18 bd
       0.06636576 0.019649409 -0.07648843 -0.03719772
000220 72 42 20 bc 10 d2 d0 bd 7c 3c 07 be 61 a9 05 be
       -0.009781467 -0.10196316 -0.13206667 -0.13052894
000230 12 a1 c4 3c b0 61 d1 3b 06 0f 04 be 3c 10 6c 3c
       0.024002586 0.006389819 -0.12896356 0.014408167
000240 76 01 91 bc 92 ee dc bd 8e 20 6f bd 26 94 5c bd
       -0.017700892 -0.10787691 -0.058380656 -0.053852223
000250 c0 88 a6 bc e2 d4 49 3c 28 03 ad 3d 33 07 37 bd
       -0.02032888 0.012318822 0.08447868 -0.0446846
000260 0f eb af bd a2 31 94 bd 95 c7 dd bc 90 4e 08 3e
       -0.08589756 -0.07236029 -0.027072707 0.13311219
000270 be e4 d7 bd d8 ea 30 3c e0 d4 30 bd 14 ae 95 3d
       -0.10541676 0.010798179 -0.043171763 0.073085934
000280 1c 3d 65 bd d3 05 69 3d 04 73 51 bd 8e 16 03 3d
       -0.05596648 0.05689032 -0.051135078 0.03200393
000290 9e 0e 91 3d bc c5 a5 bd e7 c3 9c 3c 84 c7 ba 3d
       0.07082866 -0.080943555 0.019136382 0.09120086
0002a0 46 b9 d4 bc 04 a5 0d 3e da 15 0d bd 00 2b d5 3d
       -0.025967252 0.1383248 -0.034444667 0.10408592
0002b0 c6 b7 97 3d d0 f2 1a bd 8e 0f 16 3c 10 bb a0 bd
       0.07408099 -0.03782922 0.009158982 -0.07848179
0002c0 bc 0d 2e 3c 90 d6 e7 bc 34 d1 27 3d 10 86 f1 ba
       0.010623392 -0.028300554 0.040970996 -0.0018426795
0002d0 00 59 a7 3b be 64 69 3c 49 56 ca 3d 68 03 79 bb
       0.005107045 0.01424521 0.09879739 -0.0037996415
0002e0 88 c0 d2 bd f7 b5 3a 3b ca e5 89 3d 73 96 c7 3c
       -0.10290629 0.0028489807 0.06733282 0.024363732
0002f0 96 50 20 bc 9a 07 9b 3b 3c 8d af bd 86 73 14 be
       -0.009784838 0.004731131 -0.0857186 -0.14497194
000300 f6 5e 0e 3d 0c cc ce 3b cf 45 fa bd d0 01 f1 bc
       0.03475853 0.0063109454 -0.12220346 -0.02941981
000310 69 08 d4 3d d1 2e 10 be 3b 52 5f bd 68 c7 07 bd
       0.103531666 -0.14080359 -0.05452178 -0.033149153

weight f4 [200, 18]
000000 90 1f bf 3b bc d2 25 bb 8b b5 95 bd ea 07 c6 3c
       0.00583262 -0.002530261 -0.07310017 0.024173696
000010 e4 41 bb 3b 7d 27 04 bd 14 f4 6f 3c 2f f7 06 3e
       0.005714642 -0.03226422 0.014645595 0.1318023
000020 50 02 17 3a ba 7e 58 bc f2 29 74 3d 51 b2 05 3c
       0.00057605375 -0.013213808 0.059610315 0.00816019
000030 23 87 0d 3d 5b 7e a2 bc 50 e9 7c 3b fe a2 03 bd
       0.034552705 -0.019835642 0.0038591214 -0.032137863
000040 d4 5e a2 bd 3f b4 ae bc 24 13 1d 3c d9 45 8f bd
       -0.07928243 -0.021326182 0.009587083 -0.06995744
000050 43 69 8a bd a0 3a be ba 79 47 7f 3d 0a c5 0c bd
       -0.06758358 -0.0014513321 0.06232402 -0.0343676
000060 91 fb c9 bc dc ad 12 3b 1d d6 bd bc 54 20 30 bd
       -0.024656089 0.002238146 -0.023173386 -0.04299958
000070 bb cc b7 3c fc 1a 9e 3b c4 46 bc 3b c0 97 70 bc
       0.02243649 0.004824994 0.0057457406 -0.0146846175
000080 68 2d ca bc 0d c8 cd 3c 18 05 2c bc a8 6a 3e 3b
       -0.024679855 0.025119806 -0.010499261 0.0029055271
000090 96 96 90 3d 4d a8 8d 3d e0 f9 c5 ba fb e0 d8 3c
       0.07059972 0.069168665 -0.0015104376 0.026474467
0000a0 f8 72 f9 3b 3e 92 94 3d d6 c2 84 bd e9 c5 87 3d
       0.0076125823 0.07254456 -0.064824745 0.06629545
0000b0 fe a7 8f 3b 7b 41 29 be f2 87 26 3c 3a 24 ce bc
       0.00438404 -0.16528885 0.010164248 -0.025163759
0000c0 44 f1 5f 3c 30 df 58 bd e1 f6 16 3d be 4c 9b bd
       0.013668362 -0.052947223 0.036856536 -0.07582997
0000d0 c8 d4 8b 3d ac 88 6b bd e3 ae 19 3d c9 19 a6 3c
       0.06827694 -0.057503387 0.0375203 0.020275967
0000e0 ec 86 96 3d 38 b4 f8 ba 80 56 ec ba 8b 63 8b bd
       0.07349953 -0.0018974608 -0.001803115 -0.06806096
0000f0 12 6e c5 3c 72 76 ee bc 99 db 8e bd 4d 50 a1 3c
       0.024100337 -0.029109214 -0.06975479 0.01969161
000100 a1 d7 79 3d 24 9d 00 3c e3 85 8c bd d5 49 80 3d
       0.060996655 0.007849965 -0.06861474 0.06264082
000110 d6 84 a9 3c 00 54 e1 37 f4 c4 95 bd ab 8a d2 bc
       0.020693224 2.6861206e-05 -0.073129565 -0.025700888
000120 76 b5 4f bd 6a 75 62 3c c0 e6 92 bd 07 b5 63 3d
       -0.050710164 0.013821939 -0.07172918 0.055592563
000130 1a a4 6e bd d4 a7 f5 bd cf da 35 bd 78 65 a6 be
       -0.05826197 -0.11994901 -0.044398125 -0.3249929
000140 00 bc 9b bc 10 4e 0c 3e cc 5c 92 bd 64 ee a2 3d
       -0.019010544 0.13701653 -0.07146606 0.07955626
000150 b3 76 e6 bc cc 5f 77 3b 90 e0 e5 ba 0c f0 a2 3c
       -0.028132772 0.0037746308 -0.0017538238 0.019889854
000160 cc 69 86 bb 4a d3 00 bd dc 3f 04 bd a9 08 d4 3c
       -0.0041019674 -0.0314515 -0.032287464 0.025883036
000170 46 e6 1f bc 54 70 6a 3b 24 7c cd 3c c4 64 e6 3b
       -0.009759491 0.003577252 0.025083609 0.007031055
000180 32 30 77 3d c9 5a 8f bd e0 34 93 bd d7 16 0e 3d
       0.060348697 -0.06999738 -0.071878195 0.03468975
000190 89 46 65 bd b8 4e 95 3b 17 bc 3b bd 5f 03 88 3d
       -0.05597547 0.004556503 -0.045833673 0.06641268
0001a0 3a 5c 28 bc a0 1b 33 bc 72 a3 69 bd 4f 8a 02 bd
       -0.010275895 -0.010931879 -0.05704064 -0.031870183
0001b0 fa 85 91 bb ea 5c 9d bd 2e 37 09 bc 1e 4d ec bb
       -0.00444102 -0.076837376 -0.008374972 -0.0072113415
0001c0 c7 dd b8 bc 9e 90 3b bd 42 ec 99 bc c0 27 b2 bd
       -0.02256669 -0.045792215 -0.018789414 -0.08698988
0001d0 7f bc bc bc 1a 44 29 3d e0 21 8d 3d 87 0a 37 3d
       -0.0230391 0.041324712 0.06891227 0.044687774
0001e0 a1 90 87 3d c4 70 1a bc 15 64 6e bc 60 18 6d 3a
       0.06619383 -0.0094262995 -0.014550229 0.00090444647
0001f0 00 ee 18 bc 58 0c a0 bd 92 ad 88 bd a0 d0 8a bc
       -0.009334087 -0.078148544 -0.06673731 -0.016945183
000200 7b b6 ca bc f6 db 88 bd bd c3 bf 3c 6e 01 a8 3d
       -0.024745217 -0.06682579 0.023408765 0.08203398
000210 88 aa 0b bc 89 f4 10 3e c8 95 52 3b 7a c5 a2 bd
       -0.008524545 0.14155783 0.0032132734 -0.07947822
000220 4b 17 80 bd fb 09 98 bd 0b 9b 8f 3d 31 cc 70 3c
       -0.06254443 -0.074237786 0.07011994 0.0146971205
000230 d1 24 9a bd 82 2f 81 3b f4 80 29 3d ba 80 8d bd
       -0.075265534 0.003942431 0.041382745 -0.06909318
000240 90 fc 11 3b 77 52 5a bc 9a e6 5c 3c 7a 94 61 3c
       0.0022275783 -0.013325325 0.013482714 0.01376831
000250 3d 9e d2 bc 54 2a 83 bd 8d 4f b4 3c 15 11 44 be
       -0.02571022 -0.06404558 0.022010589 -0.19147141
000260 05 f5 2e bc 81 45 e0 3d 10 d5 a8 3b 01 34 c7 3c
       -0.010678534 0.10950757 0.005152352 0.02431679
000270 9e 74 f8 bb 44 3d 40 3c 5c eb 1a 3d be b8 76 3d
       -0.007582261 0.011733357 0.037822112 0.060234778
000280 d8 00 fa 3a 63 20 9f bd a8 c5 d0 bb 26 56 6a bd
       0.0019073738 -0.07769849 -0.0063712187 -0.057211064
000290 ac 38 6a 3d 44 8c 18 3b e6 7d 81 bd 19 04 e6 bc
       0.057182953 0.0023276964 -0.06322841 -0.028078126
0002a0 2e bf 47 3d 6c e4 6a be a0 5b 59 39 ed 54 fe 3d
       0.048766308 -0.22938699 0.00020728866 0.12418542
0002b0 6a db 7b 3d 3a a5 c5 3c b0 8a 49 bd ac 42 a2 bd
       0.061488546 0.024126638 -0.04920453 -0.07922873
0002c0 e0 7d 08 bd 44 65 33 bc e0 74 bf 3c c0 44 be 3c
       -0.03332317 -0.010949437 0.02337116 0.023226142
0002d0 3f 8e 35 3d c4 ca 92 3c 6c fb 67 bd 01 23 b1 3c
       0.04432511 0.017918952 -0.05663626 0.021623136
0002e0 96 ee 6c bc d5 7f 75 3d 4a 72 e4 3b ca 94 6b 3d
       -0.01446118 0.059936363 0.006971632 0.057514943
0002f0 cc f3 75 bc 32 64 77 bd 26 cb f6 bb 00 57 99 bb
       -0.015011739 -0.060398288 -0.0075315414 -0.0046795607
000300 40 99 ae b9 51 dc 54 3d a5 da c6 bc e0 c9 30 3a
       -0.00033302046 0.051967923 -0.02427418 0.0006743949
000310 1b 0d 73 bd 18 0c 85 bb fb 2f 8f 3c 88 b8 a0 bd
       -0.05933867 -0.0040602796 0.017478934 -0.078476965
000320 30 49 4c bd 8b 43 0b 3d 70 62 0d 3c 86 b2 88 3d
       -0.049874485 0.03399996 0.008629426 0.06674676
000330 49 12 ae bc 68 cb bd 3c 38 3b 63 bd 4d 12 8f bd
       -0.021248953 0.02316828 -0.055476397 -0.069859125
000340 00 18 dd bb ba 50 98 bd 40 16 be 3b 19 c3 a2 bd
       -0.006747246 -0.07437272 0.0058009923 -0.07947368
000350 94 3a f8 bb 0f 79 ce bc bc 45 0f 3c 9c 62 fd bb
       -0.0075753424 -0.02520421 0.008744653 -0.0077327024
000360 82 6b ba 3c fa 6d cb 3c 7a 33 c4 bc e2 e9 12 3c
       0.022756342 0.024832714 -0.023950327 0.008966895
000370 f4 2d 9d bb 67 97 91 3d 6e 41 d8 3c fa 08 3b bd
       -0.004796738 0.07108956 0.026398387 -0.045662858
000380 98 5b c8 ba 40 8b 46 3c 47 1b 0d 3d 00 67 d6 3b
       -0.0015286086 0.012118161 0.03444984 0.0065430403
000390 a8 de 04 3b 35 2d 23 3d 40 55 26 3d dd 3e 9b 3d
       0.0020274315 0.039838035 0.040608644 0.075803496
0003a0 78 b1 4e 3b 8e 4e cd bb 80 27 60 b9 40 23 29 3b
       0.0031538885 -0.006265468 -0.0002137702 0.0025808364
0003b0 a1 d7 9c bd 90 bb a3 3a d4 a5 7d bd 38 c4 61 bd
       -0.076583154 0.0012491811 -0.061925724 -0.05511877
0003c0 2c 88 a3 3d b0 d7 90 3d 16 a3 91 bd 87 af ac bd
       0.07984957 0.07072389 -0.07111184 -0.08431917
0003d0 c2 16 8e 3c ac b9 9b bc 63 8f 5a bd 00 70 16 39
       0.017344836 -0.019009434 -0.0533594 0.00014346838
0003e0 38 99 d9 bb f0 ac 9b 3c 65 7a 9b 3d 66 54 98 bb
       -0.0066405796 0.019003361 0.07591704 -0.004648733
0003f0 91 f3 a3 bd 55 d7 86 3d 0c f6 4b 3d e7 29 13 3c
       -0.08005441 0.0658404 0.049795195 0.008982158

bias f4 [200]
000000 2c cf 96 bc fe 37 10 bd cd 21 17 be df bb 2d bd
       -0.018409334 -0.03520965 -0.14758988 -0.042415496
000010 58 91 1b 3b dc d1 b7 bc 4c 5e c1 bd 78 aa 0c 3b
       0.0023737755 -0.022438936 -0.09441814 0.0021463912
000020 b0 78 05 bd aa 0a 48 bd 13 66 e3 3d 80 90 6a 3d
       -0.0325858 -0.048838295 0.111034535 0.057266712
000030 29 18 de 3d 9e 12 0a be 53 48 36 3c 28 3c e2 bc
       0.10844452 -0.13483664 0.011125642 -0.027616575
000040 93 0d b8 3d d5 1a 00 3e 8c e4 f3 3c 6c d9 f8 bd
       0.08986964 0.12510236 0.029772066 -0.12150845
000050 73 a4 1a be 4a dd 25 be 0c 59 2e bd 76 64 16 be
       -0.15101795 -0.16197696 -0.04256539 -0.1468676
000060 e5 79 5f 3c ab 9d d7 3c 0b 7e 9e bd a6 da 82 bc
       0.013639902 0.0263203 -0.077388845 -0.0159734
000070 43 25 b0 3d 11 3e 10 be fc ab 14 3e 5c 1b e8 bb
       0.08600857 -0.14086176 0.14518732 -0.0070833396
000080 2b d1 78 bd 0f fe 32 3d 76 c2 d9 bc 46 f7 b8 3d
       -0.060746353 0.04369932 -0.026581984 0.09031539
000090 b1 3b 86 bd 5b ac 19 be 21 4e b9 3d ef 21 ed bd
       -0.06554354 -0.15007155 0.09048105 -0.11578738
0000a0 8a 02 66 bd 59 84 24 be 28 7f 88 3c ae 1f 85 bc
       -0.056154765 -0.16066112 0.016662195 -0.016250458
0000b0 42 67 21 bd 36 02 f6 bc ae 9b 0a be 7d 9d 33 bd
       -0.039405115 -0.030030351 -0.1353595 -0.043851364
0000c0 96 2b 0e be f4 f8 9f bd 69 00 14 be 81 6c 90 3c
       -0.13883814 -0.07811156 -0.14453281 0.017629864
0000d0 a7 05 7b 3d 26 c0 d3 3c c6 1e 1e bd 9e d2 ef bd
       0.061284687 0.02584846 -0.038603567 -0.11710094
0000e0 0c 08 cc 3d 46 14 82 bd 1f 80 e6 bd 12 b9 d3 bc
       0.09962472 -0.06351523 -0.11254906 -0.025845084
0000f0 c0 b6 b6 39 dc fc 6f bc 9c 37 11 be 68 5b 68 bd
       0.00034849904 -0.014647689 -0.1418137 -0.056727797
000100 64 35 13 3c 63 f1 7f bc c0 6e e6 bd 92 d8 04 3e
       0.008984897 -0.015621516 -0.11251593 0.1297324
000110 8d d3 2e 3d 12 46 1b bd 32 5e 19 be 18 30 aa 3c
       0.04268222 -0.03790862 -0.14977339 0.020774886
000120 64 47 06 3d 7c 01 48 bd 50 19 d3 3c 5c 99 8b 3d
       0.032782927 -0.04882954 0.025768906 0.0681636
000130 6b 29 01 be b8 bd a8 3d dc 12 6e 3c ec c3 05 3e
       -0.12613456 0.08239311 0.014530864 0.1306302
000140 85 43 25 be 75 4f b9 3d 6b ec f0 bd 35 fb e0 bd
       -0.16139038 0.09048358 -0.11763843 -0.10985414
000150 6f 7c 1f 3d 13 93 05 3e a0 11 76 3c 2c 4c 1a bd
       0.03893703 0.13044386 0.015018851 -0.0376703
000160 9f 16 06 be 40 10 c7 bd 00 81 40 b9 62 b3 b9 3c
       -0.13094567 -0.09719896 -0.00018358603 0.022668544
000170 60 8b 3a bd f0 00 7c bd f8 d4 c0 3d 7d 1c 77 bd
       -0.045543075 -0.06152433 0.094156206 -0.060329903
000180 08 9a c1 3c 04 3f fd 3d f0 1f a2 3b 63 74 ec bd
       0.023633018 0.12365535 0.004947655 -0.115456365
000190 68 c2 cf 3c 29 c5 10 be b0 ad cf 3d e1 56 fe bd
       0.025361255 -0.1413771 0.1014055 -0.124189146
0001a0 30 8d ba 3d a9 3e fc bd 32 80 a7 bd ae 82 6b bd
       0.09108961 -0.12316639 -0.08178748 -0.057497673
0001b0 44 c1 a5 3c 59 cd 4c bc e5 a5 d1 3d d7 42 c5 3d
       0.020233758 -0.012500131 0.1023672 0.09631889
0001c0 5e d9 0d be 7b 5b 0d 3e 08 5c 9f 3d 3d 08 00 3d
       -0.1385245 0.13804428 0.077812254 0.031257857
0001d0 02 0b 04 be 08 6a 7c bc 91 a0 89 bd da e6 06 be
       -0.12894824 -0.015406139 -0.06720079 -0.13174
0001e0 2f 2a 1e bd 8a f5 06 bd 22 98 14 be dc db fe 3d
       -0.03861445 -0.032949008 -0.14511159 0.124442786
0001f0 78 80 0f 3d fc a1 12 be d4 ba f7 bd 0c 8f b4 3d
       0.035034627 -0.14319605 -0.120961815 0.088163465
000200 79 28 f0 3d 04 59 a1 bd 2c d2 f6 bc ab 08 9a 3d
       0.117264695 -0.078783065 -0.030129515 0.075211845
000210 f8 83 8c 3d 98 8f ff bc b7 5c c6 3d a8 03 97 bd
       0.068611085 -0.0311964 0.09685653 -0.07373744
000220 e3 e1 19 bd 8d 73 91 bd 34 54 d4 bc 96 a6 8f bd
       -0.037568938 -0.07102118 -0.025919057 -0.070141956
000230 70 20 9f bc 6e 29 96 3d 02 31 0f be cb f0 41 bd
       -0.019424647 0.07332121 -0.13983539 -0.04734878
000240 cf c7 df bd ee 7e c6 bc 67 48 16 be 31 2a 1c be
       -0.10926782 -0.024230447 -0.14676057 -0.1525047
000250 c8 0f 7f bc 1c a2 ad 3d e4 0d bc 3c c2 d0 ac bd
       -0.015567727 0.084781855 0.022955842 -0.08438255
000260 44 a4 ef 3d 1c 6c ea bc 0d 3c e2 3b cb ff 5c 3d
       0.11701253 -0.028616004 0.0069041313 0.05395488
000270 d0 2e cf bd 4b 9c a8 bd 1b d1 b8 3c 16 df 23 bc
       -0.10116351 -0.082329355 0.022560647 -0.010001918
000280 07 c7 4c bd 5d 46 14 be 17 60 ca 3d ab 09 f4 3d
       -0.049994495 -0.14479966 0.09881609 0.119159065
000290 6a 86 f3 3d 3f 1d 1c bd 5a 81 a7 3c 4c af 21 be
       0.11890872 -0.03811383 0.020447422 -0.15789527
0002a0 40 c8 00 bb 3d c2 a9 3c f9 9e e3 bd 27 f8 a3 3c
       -0.0019650608 0.020722503 -0.11114306 0.02001579
0002b0 fc b1 ee bc b3 88 1e be 5a e5 97 bc 4c da 50 bd
       -0.029137604 -0.15481834 -0.01854198 -0.050989434
0002c0 ae 8f a7 bd d0 e5 11 bd c3 ed 06 bd 11 72 42 bc
       -0.081817016 -0.035619557 -0.03294159 -0.011868016
0002d0 22 8c 12 be ea 2e 10 be 80 aa 34 3a fa ce 21 be
       -0.14311269 -0.14080396 0.00068918616 -0.15801612
0002e0 b1 05 f3 3d 30 b0 4f bb 65 01 7f bd d5 aa a0 bd
       0.1186632 -0.003169071 -0.06225719 -0.078450836
0002f0 40 3a 75 3d 43 73 a0 bc cc bb 01 be 9b a3 3a bd
       0.059870005 -0.019586211 -0.12669295 -0.045566183
000300 c0 50 66 3d 93 43 ee bd 7a 02 26 be a9 87 a5 bd
       0.056229353 -0.116339825 -0.16211882 -0.08082516
000310 31 f7 ec 3d ec ad be 3d 12 10 21 3d bc 70 21 be
       0.115705855 0.09310517 0.039321966 -0.15765661

weight f4 [200, 200]
000000 d4 42 cb bb 07 eb fb 3c 8b 0c 2d bd 40 68 23 bb
       -0.006203035 0.030751718 -0.04224829 -0.0024933964
000010 94 8b 1b bc 00 e0 72 bd c4 f2 56 bd 93 2e 9b bc
       -0.009493727 -0.059295654 -0.052477613 -0.018943107
000020 7c 8f d6 3c c8 b6 1a bb 5c 2f 78 3c 57 97 7f 3d
       0.026191466 -0.0023607481 0.01514801 0.06240019
000030 99 e3 0f bc 07 29 a6 3c 42 89 6c 3d 80 70 84 3b
       -0.008782291 0.020283235 0.057748087 0.0040417314
000040 f8 12 8e bc b6 d4 e4 3c 79 2f 56 3c 58 01 fe bb
       -0.01734303 0.02793346 0.013072842 -0.007751625
000050 0a f3 89 bb a0 b8 71 3b f4 57 d5 bb 70 b5 e5 39
       -0.0042098807 0.0036883727 -0.006510729 0.00043813465
000060 40 6d d5 b9 26 d6 39 bd d8 2a ef 3a c0 98 41 3a
       -0.00040707923 -0.045370243 0.0018247021 0.0007385127
000070 f4 81 1e bd d2 13 51 3d 0c 2f 9c bc 5a 5e 33 bd
       -0.03869815 0.051044293 -0.019065402 -0.043791153
000080 48 a7 cb bb 24 40 9e bb 38 fb 01 3c 98 61 bc 3c
       -0.00621501 -0.0048294235 0.00793343 0.022995755
000090 79 d6 5c bd 49 22 87 bc 5e 62 10 bd 65 30 a3 3c
       -0.053915475 -0.01649584 -0.03525006 0.019920537
0000a0 08 0f 88 bb 3c 5d a7 bc 12 6e 74 bc 1e d5 09 3c
       -0.0041521825 -0.0204302 -0.014918821 0.0084126275
0000b0 63 d5 13 bd 7d 84 78 bc c8 97 03 3d 60 9e e4 bc
       -0.036092173 -0.015168306 0.03212717 -0.02790755
0000c0 ab 05 34 3d ee e4 ca 3c aa 90 a5 bb d5 d6 1f 3c
       0.043950718 0.024767365 -0.0050526457 0.00975581
0000d0 9f 2f bf 3c da 63 c1 bc 9e 49 94 3c 5e c2 0c bc
       0.023338137 -0.023607183 0.01810151 -0.008591263
0000e0 3b 78 99 3c 03 2a cd bc c9 67 a6 3c 1e 50 c6 3c
       0.018734088 -0.025044447 0.02031316 0.024208125
0000f0 8c 52 1a bd b6 f5 35 3c 6a 14 53 bc 60 09 79 3a
       -0.03767638 0.011105945 -0.012883285 0.0009499993
000100 cc ca c4 3b c6 3b 17 3d 08 ea 0e bd b6 b5 04 bd
       0.0060056206 0.03692224 -0.03489116 -0.032399856
000110 70 fd e0 3c 50 fa a0 ba 1d 84 3d 3c 8b 83 cc bc
       0.027464598 -0.001228163 0.011567143 -0.024965068
000120 78 9d 1d 3b 5a 94 33 bd 43 0c c6 3c 02 d0 45 bd
       0.0024050158 -0.04384265 0.024175769 -0.048294075
000130 50 c0 c1 3c 34 a9 f1 3b 64 ba 94 bb 67 ce 91 bc
       0.023651272 0.007374907 -0.004538821 -0.017798616
000140 f8 03 fd 3c 79 c3 d0 bc a6 31 df 3c e0 94 a6 ba
       0.030885682 -0.025483834 0.027245354 -0.0012709163
000150 64 37 22 bd 2d f2 5f 3d 3c 1e e5 bb 75 38 a7 3c
       -0.039603606 0.054674316 -0.0069921296 0.020412663
000160 9b 36 1f bc 33 ef 32 bc 15 4e 20 bd 40 39 65 3a
       -0.009717609 -0.010921287 -0.039136965 0.00087441877
000170 20 fa ec bc 4e 5a 4d bc 14 08 5f bb 26 2e a5 ba
       -0.028927863 -0.012533737 -0.0034031915 -0.0012602254
000180 9a 5f 70 3c 42 2b 33 bc 30 1d 84 bb f0 8c 40 3b
       0.014671231 -0.010935606 -0.0040317997 0.002938088
000190 80 c5 5d bd 7e 08 ee 3c be c7 f8 3c f6 ce 1a bd
       -0.05414343 0.029056784 0.030368682 -0.03779503
0001a0 08 75 dc bb 46 24 43 bc 08 fc ec bb 50 f3 09 bb
       -0.0067278184 -0.011910504 -0.007232193 -0.0021049567
0001b0 5c 46 e4 3b e4 3c 3b bd 3d ed 3f 3c 57 fe a2 bc
       0.0069663953 -0.045712367 0.011714277 -0.01989667
0001c0 a1 23 74 3d 1a cb 06 3c de 89 77 bd 3d bc a3 3c
       0.05960429 0.008227134 -0.060434215 0.01998722
0001d0 a2 c9 3e 3c 28 58 d0 3c 0e ed 54 3d e0 3e ca 3a
       0.011644753 0.025432661 0.051983885 0.0015430115
0001e0 b8 fb c8 3c 64 d0 4f bc 1d a5 6e bd 8a f0 da bc
       0.024534091 -0.012683962 -0.058262933 -0.026726026
0001f0 26 26 e4 bc 56 61 64 3d d2 1d 35 bc 0e 1d 11 bc
       -0.027850222 0.05575689 -0.011054473 -0.008857025
000200 f4 ce 04 bd 03 cd 35 3d 37 42 71 3d 80 d2 c9 3c
       -0.03242393 0.044384968 0.058901038 0.024636507
000210 b8 61 10 bd fc f0 45 bd 2c ac 83 3c 39 fa b7 3c
       -0.03524944 -0.048325524 0.016073309 0.022458183
000220 32 f5 4b 3c 0c 97 cf 3c c3 5f 83 3c 12 9c e9 bc
       0.012448596 0.02534058 0.016036874 -0.028516803
000230 f2 a6 11 bc 78 96 8e 3b 1c 6e cd bc a6 e6 99 bb
       -0.0088899005 0.0043514334 -0.025076918 -0.004696685
000240 10 7f 59 bc 08 8f b1 3c 69 05 13 bc 91 7f d9 3c
       -0.013274923 0.021674648 -0.008973458 0.026550086
000250 0a ac c0 bb 44 86 c1 3c f8 e2 b7 ba d8 a2 39 bb
       -0.0058798837 0.023623593 -0.0014029434 -0.0028325822
000260 37 54 9a 3c 8a 66 80 bc 1e 95 c8 3c 5f 46 74 bc
       0.018838985 -0.015673894 0.024485167 -0.014909356
000270 98 6b 84 3b 90 04 69 bc 6a e5 39 3d cc ef 49 3c
       0.0040411465 -0.014222279 0.045384802 0.012325238
000280 02 eb c0 bc 0c 8b 44 3c c1 26 96 bc bc 84 6d bb
       -0.02354956 0.011996042 -0.018329026 -0.0036242446
000290 e4 d2 09 3d 00 11 cc 3a 2c 0d cf 3c 42 6c 30 3c
       0.033648387 0.0015569031 0.025274836 0.010767998
0002a0 cd 24 a4 bc f0 91 75 3a 68 0a f9 3c d2 86 23 bb
       -0.02003708 0.00093677547 0.03040047 -0.0024952185
0002b0 cb 50 ce 3c a5 0d 29 3d c3 ff c8 bc cc 73 16 bc
       0.02518501 0.041272778 -0.02453602 -0.009182882
0002c0 a2 ad 56 3c 58 50 cc bc a4 79 b1 3c df 78 a2 3a
       0.013102921 -0.024940655 0.021664448 0.0012395642
0002d0 6d 78 22 3d 2b bb a8 bc 41 34 20 3c 0a c8 ed 3c
       0.03966563 -0.020597061 0.009778083 0.02902605
0002e0 f8 80 d6 bb 04 5a 55 3c ab 79 41 3c d1 d3 64 3d
       -0.006546136 0.01302195 0.011808793 0.055866066
0002f0 2c 14 c4 3c bc 0f 07 3d c7 f9 72 bd d1 d0 5c bc
       0.0239354 0.03297399 -0.059320237 -0.01347752
000300 10 62 2e 3d c8 56 32 3d 70 19 31 bb ce f7 51 3d
       0.04257399 0.043539792 -0.0027023219 0.051261716
000310 56 6b b5 3c 8a b8 8a 3b 84 16 92 bc 0a c8 2e 3c
       0.022145908 0.0042334246 -0.017833002 0.01066781
000320 3f da ac bc bc 79 41 3d ac 90 c5 3b 32 c1 f6 3b
       -0.021100162 0.047235236 0.006029209 0.007530355
000330 da 1e f0 bc 24 cf 31 3d f2 2e 71 3c 34 2b 36 bc
       -0.029311586 0.043410435 0.014720665 -0.011118699
000340 a4 31 2e bc 80 94 2f 3c 23 37 92 3c 71 63 de 3c
       -0.010631952 0.0107165575 0.017848557 0.027147027
000350 d3 80 4d bc e2 fb ea 3b a8 0c 17 bb 6c 89 bb bc
       -0.012542921 0.00717114 -0.0023048315 -0.022892676
000360 d3 a1 3f bd 0c 41 c8 3c 36 39 82 bc 10 89 30 3d
       -0.046785187 0.02444508 -0.01589642 0.043099463
000370 6c 8a 94 bb 1c 57 0b bd ca 82 09 bd cf 37 3c bc
       -0.0045331027 -0.03401862 -0.033571996 -0.011487915
000380 be 1a c8 bc 7e 71 76 bc 6e 54 05 3d 30 1b a1 bb
       -0.024426814 -0.015041707 0.03255122 -0.004916571
000390 d6 96 d4 3c 12 72 85 3c 72 e5 02 bd f8 12 a7 3b
       0.02595083 0.016289745 -0.031957097 0.005098697
0003a0 42 bc b9 bc 3c 12 cb 3c e2 c9 6f 3d 30 87 83 ba
       -0.022672776 0.024788968 0.05854214 -0.0010034796
0003b0 a0 7d 47 3b 8a 8b 21 3c 1c 2c 63 3b 97 04 16 bd
       0.0030439869 0.009859929 0.0034663742 -0.03662547
0003c0 86 09 17 3d f9 ab 27 bd 2c d3 22 bc aa 03 a2 bc
       0.036874317 -0.04093549 -0.009938043 -0.019777138
0003d0 f9 a1 a3 bc 97 42 9b bc bb d4 55 bd a6 16 5a 3c
       -0.019974696 -0.018952651 -0.05220483 0.013311064
0003e0 87 80 38 bc be fe 84 3c 84 b8 d1 3c 1a af 3c 3c
       -0.011261112 0.016234752 0.02560068 0.011516357
0003f0 50 c1 24 3d c4 19 60 3c a6 0a 78 bc ec 73 d0 3c
       0.04022342 0.013678018 -0.015139258 0.0254459

bias f4 [200]
000000 24 9e f4 bc 59 9d 7b bd c2 52 ed bc db 97 23 be
       -0.029860564 -0.061429355 -0.028970126 -0.15975897
000010 ab 13 ee bd 7a 35 19 be b0 af 60 bc d6 f8 4f 3c
       -0.11624845 -0.14961806 -0.013713762 0.012693604
000020 3f f8 16 3d 91 40 c8 bc 0c c4 51 3c b1 3b fd bc
       0.03685784 -0.02444485 0.012803089 -0.030912252
000030 b0 a4 45 3c 3b 2f ab 3c 84 84 f7 bb 37 f8 20 be
       0.01206319 0.020896545 -0.007553639 -0.15719686
000040 f4 94 14 bd 9f ca 4a 3d 77 96 49 3d 22 e6 cb 3c
       -0.036274865 0.04950964 0.04921576 0.02489001
000050 5b 57 13 be cd 00 79 bd 3d 7f b2 3d 18 f1 06 be
       -0.14388792 -0.06079178 0.08715675 -0.13177907
000060 52 f2 25 be cb 7e 16 be 70 83 1c 3a 0c d9 fc 3c
       -0.16205719 -0.14696805 0.00059705134 0.030865215
000070 4a 93 9a 3d 25 e4 f1 3b 26 5e 65 bd 54 06 13 3d
       0.075476244 0.0073819333 -0.05599799 0.035894707
000080 8f b3 81 bd c0 14 24 3d 6c f8 03 bd b7 41 64 3d
       -0.06333076 0.04005885 -0.032219335 0.055726733
000090 69 54 27 bd b2 28 38 bd b6 89 19 be fb e7 25 be
       -0.040851984 -0.044960685 -0.14993939 -0.16201775
0000a0 9b 0b 33 bd 25 4a 29 be e6 34 db bc b3 cf ab 3d
       -0.04371224 -0.1653219 -0.026758622 0.08389225
0000b0 b2 e9 d6 3c 32 cc 14 be 9b 21 84 bd a7 9d 75 bc
       0.026234481 -0.1453102 -0.06451722 -0.0149912005
0000c0 a0 21 75 bb 2a fc 10 bd 6b 01 ab bc 98 75 06 be
       -0.0037404075 -0.035396732 -0.0208747 -0.13130796
0000d0 8d 5e 97 bc 94 1f 27 be 6e 0d b5 3c 50 35 75 3b
       -0.018477703 -0.1632064 0.02210113 0.003741581
0000e0 5d 91 51 bd 69 12 84 bc 27 ee b6 3d 1c ba 95 3c
       -0.05116402 -0.01612206 0.08932143 0.01827722
0000f0 fa 38 25 be 0e ff 13 be e3 36 c1 3d 45 36 13 be
       -0.16135016 -0.14452764 0.09434297 -0.14376171
000100 7c cb 43 3d eb c1 c5 3d 40 07 4e bd 3d 2f 23 be
       0.04780148 0.096561275 -0.050299883 -0.15935989
000110 d4 f7 2f bd f6 4c 13 be c8 7e 6c bc 6d c7 17 3d
       -0.042960957 -0.14384827 -0.014434524 0.03705542
000120 ec 2a 24 be d1 97 39 3d 91 1a 1d be 9f c9 70 bd
       -0.16031998 0.0453108 -0.15342166 -0.05878603
000130 e2 f6 1c be 41 3c 38 bd a2 7b ad bc 41 d6 7f 3d
       -0.15328553 -0.044979338 -0.021177117 0.062460188
000140 30 75 1b 3d 86 c9 64 bd a2 2b 37 bd 22 78 02 bd
       0.037953556 -0.05585625 -0.044719346 -0.03185285
000150 f0 41 88 3c 02 25 78 3c dc 04 22 be 41 87 60 bd
       0.016633004 0.015145542 -0.15822166 -0.05481649
000160 e1 c3 86 3d be d7 85 bc 92 26 cc bc c8 98 aa 3d
       0.0658033 -0.016338225 -0.024920736 0.08329922
000170 da 2b 0d be f0 dd 3a bd 9a c0 04 be 35 9a 20 be
       -0.1378626 -0.045621812 -0.12964097 -0.15683825
000180 17 6d 1c be 1f 2a 40 bd 83 50 d0 bc 30 63 2e be
       -0.1527599 -0.04691517 -0.025429016 -0.17030025
000190 e0 b0 17 bd ac 05 35 3c dd 18 06 be 70 99 bb 3d
       -0.037033916 0.011048716 -0.13095422 0.09160125
0001a0 a0 97 27 bd 01 85 84 bd 76 1c 1f be 2a 8b c4 3d
       -0.040916085 -0.06470681 -0.155382 0.09596856
0001b0 3d f9 28 be d3 00 34 3d a1 41 27 be 35 64 53 3d
       -0.16501327 0.0439461 -0.16333629 0.051609237
0001c0 f7 b2 29 be 1e 03 01 bd a5 11 91 3d 06 1f b9 bd
       -0.16572176 -0.031497113 0.070834436 -0.090391204
0001d0 9b 67 23 be 28 3d de 3b 76 90 54 3d c1 78 b1 3d
       -0.15957491 0.0067821927 0.05189558 0.0866561
0001e0 e9 8d fe bd ca 27 28 be 65 c6 2c bd c0 be f4 bd
       -0.12429411 -0.16421428 -0.04218139 -0.11950445
0001f0 20 78 04 bc cc 5f 23 be b5 5a a1 bd b2 bf ef 3b
       -0.008085281 -0.15954512 -0.07878629 0.007316553
000200 84 5c b4 3d de 66 35 3d 88 b0 ab bd f6 50 1f be
       0.088067085 0.044287555 -0.0838328 -0.15558228
000210 a6 d0 e7 bc 50 80 11 bd 27 77 01 3d 5c 7c 8a 3d
       -0.028297734 -0.03552276 0.031607773 0.06762001
000220 f6 bc 53 3d c8 da 50 bd 9f c2 80 bd ca 17 64 3d
       0.05169388 -0.050989896 -0.06287121 0.05568675
000230 4e 45 27 be c7 6c e4 bd ab cd 13 bc 7f 9c 98 bd
       -0.16335031 -0.1115356 -0.009021203 -0.07451724
000240 ca 47 1e be 30 78 2d ba ea 70 c6 3c ea 68 c5 3c
       -0.15457073 -0.00066173356 0.024223763 0.024097878
000250 1d 85 1e 3d 45 8b 9b bc 3a 32 db 3d 5e ba 14 be
       0.038701165 -0.018987307 0.10702939 -0.14524218
000260 ac ca 4d bd 7a d0 9c 3d 3c cf af bc f1 64 56 bc
       -0.05024211 0.07656951 -0.021461122 -0.01308559
000270 d2 fa 2a be 16 2e b4 bc 21 e8 05 be d0 6b 8e 3a
       -0.16697243 -0.021994632 -0.13076831 0.0010865871
000280 33 7a ba bd 6e 70 6a bd 62 fc 4c bc 28 01 a3 bc
       -0.09105339 -0.057236128 -0.012511345 -0.019898012
000290 6e bd 00 3d 6a 9e f9 bc dc f8 27 be 7b a3 27 be
       0.031430654 -0.030471046 -0.16403526 -0.16370957
0002a0 98 88 10 be c5 1a 8d 3d 92 ac 83 bd 6a 87 28 bd
       -0.14114606 0.068898715 -0.064293995 -0.041144766
0002b0 09 90 22 be 59 41 8a 3d bd 33 1f be d8 7b 13 bd
       -0.15875258 0.06750745 -0.1554708 -0.03600678
0002c0 3a e4 b8 bd 5b b6 e4 bd 41 78 1b be f9 2d 81 3d
       -0.09027906 -0.11167594 -0.15182592 0.06307597
0002d0 58 be 27 be 2c 3c 0b bb af 5e 89 bd 15 cb d4 3d
       -0.16381204 -0.0021245582 -0.067075126 0.10390297
0002e0 d4 95 13 3d 32 4e 9c bc 04 7e c7 bb 4b 41 d9 bc
       0.03603156 -0.019080255 -0.0060880203 -0.026520392
0002f0 c1 74 1c be fc 00 a2 3d 39 4e 3c bd 52 15 29 be
       -0.15278913 0.07910344 -0.045973036 -0.1651204
000300 c6 70 4c 3d 2f 60 22 be f2 7f 3a 3c 4a c2 80 3c
       0.049912237 -0.15857004 0.011383044 0.015717644
000310 2f 23 fe bd 24 85 9a bc 2f 78 f7 bc 2d 52 16 be
       -0.124090545 -0.018862315 -0.030208675 -0.14679785

weight f4 [200, 200]
000000 83 16 12 3d 5e 85 88 bc 4a 1a 92 bc 4c bf 13 3b
       0.035666 -0.016665157 -0.017834801 0.0022544442
000010 0e 13 05 bc 90 b5 e8 3c 16 59 08 3c de 8a 00 bc
       -0.008122219 0.028406888 0.008322021 -0.0078456085
000020 86 0f 2f bd 31 ae 6e bd 22 1f 4c bc 2e 22 38 bd
       -0.042739414 -0.05827159 -0.0124585945 -0.04495447
000030 6e 4c cb 3c 63 c9 b6 3c 5c 3c 29 bd 6e b9 33 bd
       0.024816718 0.022312826 -0.04131733 -0.04387801
000040 01 89 b2 bb bc b6 91 bd a0 00 d6 bc 28 68 d2 3b
       -0.005448461 -0.07114932 -0.026123345 0.006421108
000050 c8 a6 7b 3b a7 aa f1 bc d5 ea 9d 3c 40 4e ad bc
       0.003839897 -0.029500319 0.019277016 -0.021155477
000060 36 72 8f bb 70 b1 62 bb f4 cb f9 3b 46 b7 da 3c
       -0.0043776287 -0.0034590624 0.00762319 0.02669872
000070 00 69 2f 3c d8 a7 f8 3b ec 21 99 3c 4d a9 b9 bc
       0.010706186 0.007588368 0.018692933 -0.022663737
000080 36 e6 3a 3d 07 6e bd bc a2 2c c0 3c 00 22 8c b8
       0.045629703 -0.023123754 0.023458783 -6.682053e-05
000090 74 4d d0 3c b4 92 87 bc 38 67 62 bd 24 d6 bd 3c
       0.025427558 -0.016549446 -0.05527422 0.0231734
0000a0 00 ac 34 37 f0 3f e9 ba 80 88 9c 39 f3 ab 0a 3d
       1.0768883e-05 -0.0017795544 0.0002985634 0.03385539
0000b0 19 27 0f 3d 43 7e 83 bc 40 bf e4 b9 62 2b 35 3c
       0.034949396 -0.016051417 -0.0004363004 0.011057707
0000c0 7e 3f c9 3c fc 14 d2 3b ca c1 59 3d 15 46 ec 3c
       0.024566408 0.006411193 0.053163327 0.028842011
0000d0 4e 90 a8 3b aa 12 b9 3b e0 c7 f0 3b 72 50 5b 3d
       0.0051441556 0.005647977 0.0073480457 0.053543516
0000e0 cf f5 8b bd 98 3f 05 bb 44 dc 06 bd a2 e0 ad bc
       -0.06833994 -0.0020332094 -0.032924905 -0.021225277
0000f0 5c ee 0b bc 30 ee ff bb 4a b1 bf 3c 38 a3 67 bd
       -0.008540716 -0.0078103766 0.023399968 -0.056552142
000100 a2 eb a2 3c 58 69 03 bd 09 02 ad bc 50 49 37 bd
       0.01988775 -0.032082886 -0.021119135 -0.04474765
000110 98 4b 7b bc 7f 35 95 bc 44 de a2 3c 72 b5 c5 3c
       -0.015337847 -0.018213985 0.019881375 0.024134371
000120 18 b5 09 3d 98 dd 2f 3b 40 cf 17 bd 6c b8 27 bc
       0.03361997 0.002683496 -0.037062883 -0.010236841
000130 d4 43 68 3c b0 59 25 bd bb b7 b3 3c ed bb 29 3d
       0.014176328 -0.040368736 0.021938195 0.041438986
000140 54 5c 34 bc a3 8a 34 bd 58 14 43 3b c0 fa ce 3a
       -0.011008341 -0.044077527 0.0029766764 0.0015791282
000150 98 31 14 3d 64 0b db bc c8 90 36 3c 03 d3 d4 3c
       0.03618011 -0.02673883 0.011142917 0.025979524
000160 b8 9d c7 bb 40 af 04 3b d2 32 82 bc 28 e7 55 bc
       -0.0060917996 0.0020246059 -0.015893374 -0.0130556
000170 dc 0d 43 bc 83 26 17 3d f0 58 d0 bc 38 38 47 3b
       -0.01190516 0.036901962 -0.025433034 0.00303985
000180 28 1b 1c bb 78 8c aa bc 3e 49 ab bc d2 b9 7a bc
       -0.0023819897 -0.020818934 -0.020908948 -0.015303092
000190 9c 66 81 3b 26 aa 48 bc 10 bb c0 3a 67 eb 22 3c
       0.0039489996 -0.012247598 0.0014704186 0.00994382
0001a0 93 5c ff 3c a5 eb 1f bc 82 0b 0a bc 38 ba be bc
       0.031172073 -0.009760772 -0.008425595 -0.023282155
0001b0 18 5f 79 bb b0 49 c5 3c 02 13 6f 3c 1a b8 79 3c
       -0.0038051065 0.024082989 0.014591934 0.015241647
0001c0 67 00 85 bc ba b4 9f bd 4b 95 9b 3c 0c 54 95 bc
       -0.016235543 -0.07798143 0.018992087 -0.018228553
0001d0 3f 87 9f 3c 0f 5c 2e bd 9c 9d 26 bc d5 71 ca 3c
       0.01947367 -0.042568263 -0.010169413 0.024712482
0001e0 b4 1c 01 3c f7 44 f0 3c d3 61 c3 bc 6e e1 eb 3c
       0.0078803785 0.02932976 -0.023850357 0.028794017
0001f0 86 07 ce 3c 07 54 38 3d 4b 75 0f 3d 98 74 53 bd
       0.025150072 0.04500201 0.03502397 -0.051624864
000200 4d a9 2d bd 03 1a 89 3c c4 30 6a 3d 9e 74 10 3d
       -0.042397786 0.016736036 0.057175413 0.035267465
000210 54 b9 c8 3c 7c bf fd 3c c9 04 0a bd 00 5c 80 ba
       0.024502434 0.030975096 -0.03369597 -0.0009793043
000220 03 d8 18 3d a3 8b 9d 3c 56 f9 c3 3c e2 17 cd 3c
       0.03731538 0.019231623 0.023922604 0.025035802
000230 78 a5 d2 bb 42 3e 94 bb 4c be e3 bb 46 96 90 3c
       -0.006428417 -0.0045240233 -0.0069501754 0.017649781
000240 ab 84 f9 3c 55 e8 80 3c 1a 4a 72 3d f5 83 49 bd
       0.030458769 0.015735785 0.0591527 -0.04919811
000250 d5 cf a9 bc de cc 2e 3d 68 a6 88 bc 9c 2e 9c bb
       -0.020728985 0.042675845 -0.016680911 -0.0047662985
000260 7e 73 1a bd 7d 51 bd 3c 04 8b d9 3c 4a 5e 0e bc
       -0.0377078 0.023110146 0.026555546 -0.008689472
000270 6a 55 9e bc 82 79 c2 bc c0 41 d7 3c 24 01 7a bd
       -0.019327838 -0.02373958 0.02627647 -0.061036244
000280 c0 7a 63 3a 44 49 24 3d ca 01 6e bd dd a8 02 bd
       0.0008677654 0.040108934 -0.058107175 -0.03189932
000290 ca e8 c1 3c eb 5b a6 bc 44 09 8c 3b d9 9b d6 bc
       0.023670573 -0.020307502 0.0042735655 -0.02619736
0002a0 7a 71 3a 3d 74 46 8b bd 20 9d aa bc e4 da 99 3c
       0.045518376 -0.06800547 -0.020826876 0.018781133
0002b0 20 d5 e8 ba 3f a6 4a bc 0c 6b 77 bd 48 46 6b bb
       -0.0017763712 -0.012368738 -0.060404822 -0.0035900045
0002c0 d8 59 22 3c 66 d7 5a 3d 98 c4 c9 bc 72 b8 cc bb
       0.009909116 0.053428076 -0.024629876 -0.0062475735
0002d0 c8 a2 e4 bb 72 a7 86 bc 88 f1 d3 3c 78 be bb bc
       -0.006977413 -0.016437266 0.025872007 -0.022917971
0002e0 56 a8 45 bd 37 8e 86 3c 1c 85 53 bd 29 6a 17 bc
       -0.04825624 0.016425235 -0.051640615 -0.009241619
0002f0 c1 a3 00 3d 34 1e 87 3c 34 57 c4 3c af 3e 84 bc
       0.031406168 0.016493894 0.023967363 -0.016143171
000300 66 00 1b bd 32 ac 61 bd d5 f4 6f 3d f6 ea 45 3d
       -0.037842177 -0.05509586 0.0585831 0.04831978
000310 96 ea 85 bd fa 7a 2a bc aa 72 2a 3d 9a 0d 01 bc
       -0.06538884 -0.010405296 0.04161326 -0.007876778
000320 f1 be 28 bd c0 9d 7e ba c1 42 49 bd 1c d5 32 3d
       -0.04119772 -0.00097128376 -0.049135927 0.04366027
000330 58 ca c5 3c 0c e0 97 3a 68 d3 d4 bb e4 f0 bf bb
       0.024144337 0.0011587157 -0.006494928 -0.005857574
000340 c6 4d b5 3c 52 f2 4b 3d cc 85 b4 3a c9 12 64 3b
       0.022131812 0.04979164 0.0013772785 0.0034801236
000350 c4 46 66 3c 54 aa a8 3b 31 36 a8 bc d8 10 b7 3b
       0.014054958 0.005147258 -0.020533653 0.0055867247
000360 8c b7 5f bd d9 8f 08 3d 82 4b 2f 3d 49 26 a4 3c
       -0.054618403 0.03334031 0.04279662 0.020037787
000370 28 fa 40 bd a0 ef bb bb 68 71 0c bb 30 cc 9e 3c
       -0.047113568 -0.0057353526 -0.00214299 0.019384474
000380 46 16 10 3c 64 d5 de 3b 20 56 11 bd 53 8b 03 bd
       0.008794373 0.0068003405 -0.035482526 -0.03211529
000390 4c b6 2f bd 14 0f a0 3b 53 df b4 bc 75 3e bb bc
       -0.04289846 0.00488461 -0.022079146 -0.02285693
0003a0 40 64 3f 3c 34 06 29 3d d8 8a 79 bc e8 d5 e1 ba
       0.011681616 0.04126568 -0.015230857 -0.0017229887
0003b0 a2 17 cc 3c fa 16 32 3d 90 c2 36 bb 38 37 00 bb
       0.024913613 0.043478943 -0.0027886964 -0.0019564163
0003c0 a8 7d bb 3b 42 19 fb 3b 2f f5 70 bd 5c 22 53 3c
       0.0057217665 0.007662923 -0.058827575 0.01288661
0003d0 10 c2 1a bb 04 72 8b bb 50 0c c4 bc 04 ef 9b bb
       -0.0023614205 -0.004255535 -0.023931652 -0.0047587175
0003e0 5a ec fc 3c c7 61 15 bd 18 46 6b 3b d5 b9 35 bd
       0.03087442 -0.0364702 0.0035899933 -0.044366676
0003f0 9c c4 7b bd aa 0f bb bc 18 a7 56 3c f6 f8 09 bc
       -0.0614668 -0.022834618 0.013101362 -0.008421173

bias f4 [25]
000000 00 00 00 00 00 00 00 00 00 00 00 00 00 00 00 00
       0.0 0.0 0.0 0.0
000010 00 00 00 00 00 00 00 00 00 00 00 00 00 00 00 00
       0.0 0.0 0.0 0.0
000020 00 00 00 00 00 00 00 00 00 00 00 00 00 00 00 00
       0.0 0.0 0.0 0.0
000030 00 00 00 00 00 00 00 00 00 00 00 00 00 00 00 00
       0.0 0.0 0.0 0.0
000040 00 00 00 00 00 00 00 00 00 00 00 00 00 00 00 00
       0.0 0.0 0.0 0.0
000050 00 00 00 00 00 00 00 00 00 00 00 00 00 00 00 00
       0.0 0.0 0.0 0.0
000060 00 00 00 00
       0.0

weight f4 [25, 200]
000000 17 11 ed 3c db f8 ca bd 3f cf f8 3d bf 74 16 3e
       0.028938813 -0.09910747 0.12148904 0.14692973
000010 6b ed 1b be e0 7c 82 3c 51 f9 9a 3d 2d 56 c0 bb
       -0.15227287 0.015928686 0.075670846 -0.005869648
000020 7e 2a da bc 43 74 1c bc 72 43 81 bd 8f d3 a6 3d
       -0.02663159 -0.009549203 -0.06311692 0.0814582
000030 0f 97 41 bd ba 68 17 bd 03 f5 cd 3d b1 41 0f be
       -0.0472632 -0.03696511 0.10056498 -0.13989903
000040 d1 7e 38 3d 68 bc a0 bd e7 13 0c be 44 b6 3c 3d
       0.045042817 -0.07848436 -0.13679467 0.04607226
000050 56 70 fa bd 9f be ef bc 94 7d f4 bd cf 1c 23 3e
       -0.12228458 -0.0292657 -0.119380146 0.15928958
000060 06 c6 1f 3e 06 93 81 bd 17 d7 75 bd 99 6c 1f 3e
       0.15602884 -0.063268706 -0.06001958 0.1556877
000070 51 f8 17 3e f7 a0 9c bd e8 6c 6d 3c 3b 3e 29 3d
       0.14840819 -0.07647889 0.014491297 0.041319113
000080 f0 24 27 3e 13 6c ef bc 1c c2 14 be d1 0a 91 3d
       0.16322684 -0.029226338 -0.14527172 0.07082141
000090 d9 c5 8d bc cd 38 a0 bd c0 81 25 3e ff 4e 20 be
       -0.017306255 -0.07823334 0.16162777 -0.15655135
0000a0 b3 ae c3 bd d3 41 bb 3b c5 05 9c bd 71 d3 fc bd
       -0.095548056 0.005714634 -0.07618288 -0.12345017
0000b0 c7 bd 0d 3e 17 d6 4e 3d 61 4c 90 bd a6 c3 d2 3c
       0.13841926 0.05049714 -0.07045818 0.025728058
0000c0 13 8f 44 bd 80 01 e2 bd 35 ad 0a 3e b9 f6 2b 3c
       -0.04798801 -0.11035442 0.13542636 0.010495835
0000d0 ec 9f a0 bd 5b 4d f9 bd c3 cb 37 bd 4d d1 15 be
       -0.07843003 -0.121729575 -0.044872057 -0.14630623
0000e0 83 8e 17 be d5 59 11 bd 25 84 23 be 17 8f 30 3d
       -0.14800458 -0.03548606 -0.15968378 0.04310521
0000f0 2f 5d 2d bd 43 4a ae bd d9 ee 02 3e 8d fd 88 bc
       -0.042325195 -0.08510258 0.12786426 -0.016722465
000100 85 06 ee bd 5c 5b b7 3d 84 62 b7 bd 5c b6 01 3e
       -0.11622337 0.08952972 -0.08954337 0.12667221
000110 a9 95 23 3e cd 98 5a 3d 6d 9b 68 bd 7c 0a 9c 3d
       0.1597506 0.05336838 -0.05678885 0.07619187
000120 81 34 18 3e ed 6c f1 3d 25 09 c7 3b 38 b3 1e 3d
       0.14863779 0.11788354 0.006074088 0.038745135
000130 16 6a a5 bd fb d1 02 3e f5 9e 2f 3d 84 92 17 be
       -0.08076875 0.12775414 0.042876203 -0.14801985
000140 9b c1 b8 3d 10 c5 c3 bd 11 a3 1c be c0 59 3d bd
       0.09021302 -0.09559071 -0.1529658 -0.04622817
000150 60 9f 26 bd 64 e7 d7 3d b8 33 f0 3d d0 78 ae 3c
       -0.040679336 0.10542181 0.117286146 0.021297842
000160 38 b4 e0 3d 0c 97 18 be fe 91 ad 3c a8 2f 79 3c
       0.10971874 -0.1490137 0.021187779 0.015209116
000170 d1 4a d6 bd ee 6c 1a 3d 31 d1 7f 3d 7f 5d f7 3d
       -0.10463489 0.03770154 0.06245536 0.1207838
000180 aa f1 7d bd 2e c0 b4 bd b1 3d 1f be c5 3f 20 bd
       -0.061998047 -0.08825718 -0.15550877 -0.039123315
000190 49 6f 6e bd d5 bf 1e bd 25 81 e8 bd 97 dd 1c bd
       -0.0582116 -0.038757164 -0.11352757 -0.038297262
0001a0 b6 65 2b 3c 8e 1f 9e 3d a0 6e 23 3e 0d c6 5d 3d
       0.0104612615 0.07720862 0.15960169 0.054143954
0001b0 ea 86 11 3e c6 e1 3b 3d c6 aa fa 3d 96 1a b1 bc
       0.14211622 0.04586961 0.12239604 -0.021619122
0001c0 df 93 00 be d9 bd 1a 3e 9a 9d 6e 3d ef 8d 1b 3e
       -0.12556408 0.15111484 0.05825577 0.15190862
0001d0 e6 37 80 bc da 4e 8d bd b7 d2 16 bd a7 9b 21 be
       -0.015651654 -0.06899805 -0.036822047 -0.15782033
0001e0 88 c2 c7 3c de 63 22 3e 56 28 a4 3d 84 3a 7e bd
       0.024384752 0.15858409 0.08015506 -0.062067524
0001f0 d1 19 38 3d d6 49 08 3e be 95 22 3e 55 cb 98 3d
       0.044946495 0.13309416 0.15877435 0.074606575
000200 c4 04 09 3e 24 34 b5 bd 10 a8 23 3e 77 ec 13 3e
       0.13380724 -0.08847836 0.1598208 0.14445673
000210 9b f9 aa 3c 6b e8 a5 3d 14 7f 55 bd 0e f2 ce 3d
       0.020870974 0.08100971 -0.052123144 0.10104762
000220 ba 8d b3 3d 2d da 0d 3e 09 c2 21 3d 04 cc 21 bd
       0.087672666 0.13852759 0.039491687 -0.039501205
000230 8b 56 e3 3d 58 e9 0f be ac 55 ef bd c5 29 1d bc
       0.11100491 -0.14053857 -0.116862625 -0.009592478
000240 44 64 d0 3d 5c c6 ec bd dc f8 04 be c1 53 18 3e
       0.10175374 -0.115612715 -0.12985557 0.148757
000250 8c 4e a4 3d ba f3 21 be 27 60 80 bb 65 d3 de 3c
       0.08022794 -0.1581563 -0.0039177123 0.02720041
000260 d9 3a 13 be 20 a2 be bc 3c 42 8c 3d 22 a8 71 bd
       -0.14377917 -0.023270667 0.06848571 -0.058998235
000270 17 35 9e 3c f0 95 1a bd 5e 4c 44 3d b8 2c ab 3b
       0.019312425 -0.037740648 0.047924392 0.0052238367
000280 78 6f 07 bd e7 80 4a bd e0 09 7b bc 02 97 22 be
       -0.03306529 -0.049439337 -0.015322179 -0.15877917
000290 4a 9b 97 3d 75 73 8b bd 39 ff 9d bd ac 05 19 3d
       0.07402666 -0.06809131 -0.077146955 0.037358925
0002a0 20 41 a3 bd d8 60 ff bd e3 00 85 bc 5a d4 03 be
       -0.07971406 -0.12469643 -0.016235774 -0.12873974
0002b0 ee f5 c7 bd 24 56 85 3d c4 3c 01 be 59 b9 63 bd
       -0.09763704 0.06510571 -0.12620836 -0.055596683
0002c0 83 aa a2 bd a5 da 4b 3d 3e fb 60 3d e9 90 bb 3d
       -0.07942679 0.049769063 0.054927103 0.09158499
0002d0 ea 70 f1 3c a8 f6 16 be 28 36 bf bd 16 cb 56 3d
       0.029472787 -0.1474253 -0.09336501 0.05243977
0002e0 b6 98 19 3e e0 ab 32 3d 55 02 2a 3d d8 b9 8d 3a
       0.14999661 0.043620944 0.04150613 0.0010812832
0002f0 46 24 80 3d 90 b8 b2 3d 1a 92 74 bd 0f ab 18 be
       0.062569186 0.08726609 -0.059709646 -0.14909004
000300 4c 45 23 be fc ad b0 3d 83 9a cb 3d 27 f4 26 be
       -0.15944403 0.08626935 0.0994158 -0.16304074
000310 f3 a0 19 be 59 17 db 3d d1 62 4c bc d7 37 05 bd
       -0.15002804 0.106978126 -0.012474732 -0.032523956
000320 01 be 26 3e a1 f3 ce 3d 44 88 c3 bc 3d 08 18 be
       0.16283418 0.10105062 -0.023868687 -0.14846893
000330 06 92 1f be 8b ba 08 3e 91 e7 cf bd a5 99 1f be
       -0.15583047 0.1335241 -0.1015159 -0.15585954
000340 5d 71 5f 3d e9 3f 42 3d 4f 96 0a bd 8b 1d 34 3d
       0.05455147 0.04742423 -0.03383475 0.043973487
000350 44 71 ee bd 02 ff 9e 3d ea 4e eb bd f2 df a8 3c
       -0.116426975 0.07763483 -0.11489661 0.020614598
000360 d8 e1 5e 3d 4d 92 aa 3d 24 36 a3 bd b0 1a 80 bd
       0.0544146 0.08328686 -0.07969311 -0.0625509
000370 71 8f f0 3d 5f ce c4 bd c8 9a 14 be 47 6c a8 bd
       0.11746109 -0.09609675 -0.1451217 -0.08223777
000380 12 76 ae bd 10 99 c7 bd 7a a4 c8 bd 00 d7 ff bd
       -0.08518614 -0.09745991 -0.097969964 -0.1249218
000390 81 c4 14 bd 5e 45 16 be 5f 76 f7 bd 63 d0 83 3d
       -0.036320213 -0.14674899 -0.12083124 0.06436231
0003a0 a3 b5 f6 3d e6 5b 01 3e d2 ea fb bb d7 95 97 bc
       0.12046363 0.12632713 -0.007687905 -0.018504066
0003b0 32 23 c9 bd 7f 49 a0 3d c0 17 f4 bd 40 b9 0f 3e
       -0.09821166 0.07826518 -0.119185925 0.14035511
0003c0 99 5d e0 bc cd b5 e0 3d 94 7b 10 3e a0 17 77 bb
       -0.02738838 0.10972176 0.14109641 -0.003770329
0003d0 fb ce 66 3d 97 8c 6a bd 8d f6 80 bd 38 2d 75 bd
       0.056349736 -0.057262983 -0.06297026 -0.059857577
0003e0 31 19 75 bd 96 a8 eb 3d 39 fa 2f 3d d0 43 1a be
       -0.059838478 0.115067646 0.04296324 -0.15064931
0003f0 11 bd 17 3e 3f d3 fb 3d a6 53 1c 3e 9e 58 99 bd
       0.14818217 0.12296151 0.15266284 -0.074876055
